…
I1219 16:19:10.203868 31899 net.cpp:322] The NetState phase (0) differed from the phase (1) specified by a rule in layer data_test
I1219 16:19:10.204900 31899 net.cpp:58] Initializing net from parameters: 
name: "Face"
state {
  phase: TRAIN
  level: 0
  stage: ""
}
layer {
  name: "data_train"
  type: "ImageData"
  top: "data"
  top: "label"
  include {
    phase: TRAIN
  }
  transform_param {
    mean_value: 129
  }
  image_data_param {
    source: "../fer2013/list_train.txt"
    batch_size: 60
    shuffle: true
    new_height: 112
    new_width: 96
    is_color: true
    root_folder: "../fer2013/fer2013_ims/"
  }
}
layer {
  name: "conv1a"
  type: "Convolution"
  bottom: "data"
  top: "conv1a"
  param {
    lr_mult: 1
    decay_mult: 1
  }
  param {
    lr_mult: 2
    decay_mult: 0
  }
  convolution_param {
    num_output: 32
    kernel_size: 3
    stride: 1
    weight_filler {
      type: "xavier"
    }
    bias_filler {
      type: "constant"
      value: 0
    }
  }
}
layer {
  name: "relu1a"
  type: "PReLU"
  bottom: "conv1a"
  top: "conv1a"
}
layer {
  name: "conv1b"
  type: "Convolution"
  bottom: "conv1a"
  top: "conv1b"
  param {
    lr_mult: 1
    decay_mult: 1
  }
  param {
    lr_mult: 2
    decay_mult: 0
  }
  convolution_param {
    num_output: 64
    kernel_size: 3
    stride: 1
    weight_filler {
      type: "xavier"
    }
    bias_filler {
      type: "constant"
      value: 0
    }
  }
}
layer {
  name: "relu1b"
  type: "PReLU"
  bottom: "conv1b"
  top: "conv1b"
}
layer {
  name: "pool1b"
  type: "Pooling"
  bottom: "conv1b"
  top: "pool1b"
  pooling_param {
    pool: MAX
    kernel_size: 2
    stride: 2
  }
}
layer {
  name: "conv2_1"
  type: "Convolution"
  bottom: "pool1b"
  top: "conv2_1"
  param {
    lr_mult: 1
    decay_mult: 1
  }
  param {
    lr_mult: 0
    decay_mult: 0
  }
  convolution_param {
    num_output: 64
    pad: 1
    kernel_size: 3
    stride: 1
    weight_filler {
      type: "gaussian"
      std: 0.01
    }
    bias_filler {
      type: "constant"
      value: 0
    }
  }
}
layer {
  name: "relu2_1"
  type: "PReLU"
  bottom: "conv2_1"
  top: "conv2_1"
}
layer {
  name: "conv2_2"
  type: "Convolution"
  bottom: "conv2_1"
  top: "conv2_2"
  param {
    lr_mult: 1
    decay_mult: 1
  }
  param {
    lr_mult: 0
    decay_mult: 0
  }
  convolution_param {
    num_output: 64
    pad: 1
    kernel_size: 3
    stride: 1
    weight_filler {
      type: "gaussian"
      std: 0.01
    }
    bias_filler {
      type: "constant"
      value: 0
    }
  }
}
layer {
  name: "relu2_2"
  type: "PReLU"
  bottom: "conv2_2"
  top: "conv2_2"
}
layer {
  name: "res2_2"
  type: "Eltwise"
  bottom: "pool1b"
  bottom: "conv2_2"
  top: "res2_2"
  eltwise_param {
    operation: SUM
  }
}
layer {
  name: "conv2"
  type: "Convolution"
  bottom: "res2_2"
  top: "conv2"
  param {
    lr_mult: 1
    decay_mult: 1
  }
  param {
    lr_mult: 2
    decay_mult: 0
  }
  convolution_param {
    num_output: 128
    kernel_size: 3
    stride: 1
    weight_filler {
      type: "xavier"
    }
    bias_filler {
      type: "constant"
      value: 0
    }
  }
}
layer {
  name: "relu2"
  type: "PReLU"
  bottom: "conv2"
  top: "conv2"
}
layer {
  name: "pool2"
  type: "Pooling"
  bottom: "conv2"
  top: "pool2"
  pooling_param {
    pool: MAX
    kernel_size: 2
    stride: 2
  }
}
layer {
  name: "conv3_1"
  type: "Convolution"
  bottom: "pool2"
  top: "conv3_1"
  param {
    lr_mult: 1
    decay_mult: 1
  }
  param {
    lr_mult: 0
    decay_mult: 0
  }
  convolution_param {
    num_output: 128
    pad: 1
    kernel_size: 3
    stride: 1
    weight_filler {
      type: "gaussian"
      std: 0.01
    }
    bias_filler {
      type: "constant"
      value: 0
    }
  }
}
layer {
  name: "relu3_1"
  type: "PReLU"
  bottom: "conv3_1"
  top: "conv3_1"
}
layer {
  name: "conv3_2"
  type: "Convolution"
  bottom: "conv3_1"
  top: "conv3_2"
  param {
    lr_mult: 1
    decay_mult: 1
  }
  param {
    lr_mult: 0
    decay_mult: 0
  }
  convolution_param {
    num_output: 128
    pad: 1
    kernel_size: 3
    stride: 1
    weight_filler {
      type: "gaussian"
      std: 0.01
    }
    bias_filler {
      type: "constant"
      value: 0
    }
  }
}
layer {
  name: "relu3_2"
  type: "PReLU"
  bottom: "conv3_2"
  top: "conv3_2"
}
layer {
  name: "res3_2"
  type: "Eltwise"
  bottom: "pool2"
  bottom: "conv3_2"
  top: "res3_2"
  eltwise_param {
    operation: SUM
  }
}
layer {
  name: "conv3_3"
  type: "Convolution"
  bottom: "res3_2"
  top: "conv3_3"
  param {
    lr_mult: 1
    decay_mult: 1
  }
  param {
    lr_mult: 0
    decay_mult: 0
  }
  convolution_param {
    num_output: 128
    pad: 1
    kernel_size: 3
    stride: 1
    weight_filler {
      type: "gaussian"
      std: 0.01
    }
    bias_filler {
      type: "constant"
      value: 0
    }
  }
}
layer {
  name: "relu3_3"
  type: "PReLU"
  bottom: "conv3_3"
  top: "conv3_3"
}
layer {
  name: "conv3_4"
  type: "Convolution"
  bottom: "conv3_3"
  top: "conv3_4"
  param {
    lr_mult: 1
    decay_mult: 1
  }
  param {
    lr_mult: 0
    decay_mult: 0
  }
  convolution_param {
    num_output: 128
    pad: 1
    kernel_size: 3
    stride: 1
    weight_filler {
      type: "gaussian"
      std: 0.01
    }
    bias_filler {
      type: "constant"
      value: 0
    }
  }
}
layer {
  name: "relu3_4"
  type: "PReLU"
  bottom: "conv3_4"
  top: "conv3_4"
}
layer {
  name: "res3_4"
  type: "Eltwise"
  bottom: "res3_2"
  bottom: "conv3_4"
  top: "res3_4"
  eltwise_param {
    operation: SUM
  }
}
layer {
  name: "conv3"
  type: "Convolution"
  bottom: "res3_4"
  top: "conv3"
  param {
    lr_mult: 1
    decay_mult: 1
  }
  param {
    lr_mult: 2
    decay_mult: 0
  }
  convolution_param {
    num_output: 256
    kernel_size: 3
    stride: 1
    weight_filler {
      type: "xavier"
    }
    bias_filler {
      type: "constant"
      value: 0
    }
  }
}
layer {
  name: "relu3"
  type: "PReLU"
  bottom: "conv3"
  top: "conv3"
}
layer {
  name: "pool3"
  type: "Pooling"
  bottom: "conv3"
  top: "pool3"
  pooling_param {
    pool: MAX
    kernel_size: 2
    stride: 2
  }
}
layer {
  name: "conv4_1"
  type: "Convolution"
  bottom: "pool3"
  top: "conv4_1"
  param {
    lr_mult: 1
    decay_mult: 1
  }
  param {
    lr_mult: 0
    decay_mult: 0
  }
  convolution_param {
    num_output: 256
    pad: 1
    kernel_size: 3
    stride: 1
    weight_filler {
      type: "gaussian"
      std: 0.01
    }
    bias_filler {
      type: "constant"
      value: 0
    }
  }
}
layer {
  name: "relu4_1"
  type: "PReLU"
  bottom: "conv4_1"
  top: "conv4_1"
}
layer {
  name: "conv4_2"
  type: "Convolution"
  bottom: "conv4_1"
  top: "conv4_2"
  param {
    lr_mult: 1
    decay_mult: 1
  }
  param {
    lr_mult: 0
    decay_mult: 0
  }
  convolution_param {
    num_output: 256
    pad: 1
    kernel_size: 3
    stride: 1
    weight_filler {
      type: "gaussian"
      std: 0.01
    }
    bias_filler {
      type: "constant"
      value: 0
    }
  }
}
layer {
  name: "relu4_2"
  type: "PReLU"
  bottom: "conv4_2"
  top: "conv4_2"
}
layer {
  name: "res4_2"
  type: "Eltwise"
  bottom: "pool3"
  bottom: "conv4_2"
  top: "res4_2"
  eltwise_param {
    operation: SUM
  }
}
layer {
  name: "conv4_3"
  type: "Convolution"
  bottom: "res4_2"
  top: "conv4_3"
  param {
    lr_mult: 1
    decay_mult: 1
  }
  param {
    lr_mult: 0
    decay_mult: 0
  }
  convolution_param {
    num_output: 256
    pad: 1
    kernel_size: 3
    stride: 1
    weight_filler {
      type: "gaussian"
      std: 0.01
    }
    bias_filler {
      type: "constant"
      value: 0
    }
  }
}
layer {
  name: "relu4_3"
  type: "PReLU"
  bottom: "conv4_3"
  top: "conv4_3"
}
layer {
  name: "conv4_4"
  type: "Convolution"
  bottom: "conv4_3"
  top: "conv4_4"
  param {
    lr_mult: 1
    decay_mult: 1
  }
  param {
    lr_mult: 0
    decay_mult: 0
  }
  convolution_param {
    num_output: 256
    pad: 1
    kernel_size: 3
    stride: 1
    weight_filler {
      type: "gaussian"
      std: 0.01
    }
    bias_filler {
      type: "constant"
      value: 0
    }
  }
}
layer {
  name: "relu4_4"
  type: "PReLU"
  bottom: "conv4_4"
  top: "conv4_4"
}
layer {
  name: "res4_4"
  type: "Eltwise"
  bottom: "res4_2"
  bottom: "conv4_4"
  top: "res4_4"
  eltwise_param {
    operation: SUM
  }
}
layer {
  name: "conv4_5"
  type: "Convolution"
  bottom: "res4_4"
  top: "conv4_5"
  param {
    lr_mult: 1
    decay_mult: 1
  }
  param {
    lr_mult: 0
    decay_mult: 0
  }
  convolution_param {
    num_output: 256
    pad: 1
    kernel_size: 3
    stride: 1
    weight_filler {
      type: "gaussian"
      std: 0.01
    }
    bias_filler {
      type: "constant"
      value: 0
    }
  }
}
layer {
  name: "relu4_5"
  type: "PReLU"
  bottom: "conv4_5"
  top: "conv4_5"
}
layer {
  name: "conv4_6"
  type: "Convolution"
  bottom: "conv4_5"
  top: "conv4_6"
  param {
    lr_mult: 1
    decay_mult: 1
  }
  param {
    lr_mult: 0
    decay_mult: 0
  }
  convolution_param {
    num_output: 256
    pad: 1
    kernel_size: 3
    stride: 1
    weight_filler {
      type: "gaussian"
      std: 0.01
    }
    bias_filler {
      type: "constant"
      value: 0
    }
  }
}
layer {
  name: "relu4_6"
  type: "PReLU"
  bottom: "conv4_6"
  top: "conv4_6"
}
layer {
  name: "res4_6"
  type: "Eltwise"
  bottom: "res4_4"
  bottom: "conv4_6"
  top: "res4_6"
  eltwise_param {
    operation: SUM
  }
}
layer {
  name: "conv4_7"
  type: "Convolution"
  bottom: "res4_6"
  top: "conv4_7"
  param {
    lr_mult: 1
    decay_mult: 1
  }
  param {
    lr_mult: 0
    decay_mult: 0
  }
  convolution_param {
    num_output: 256
    pad: 1
    kernel_size: 3
    stride: 1
    weight_filler {
      type: "gaussian"
      std: 0.01
    }
    bias_filler {
      type: "constant"
      value: 0
    }
  }
}
layer {
  name: "relu4_7"
  type: "PReLU"
  bottom: "conv4_7"
  top: "conv4_7"
}
layer {
  name: "conv4_8"
  type: "Convolution"
  bottom: "conv4_7"
  top: "conv4_8"
  param {
    lr_mult: 1
    decay_mult: 1
  }
  param {
    lr_mult: 0
    decay_mult: 0
  }
  convolution_param {
    num_output: 256
    pad: 1
    kernel_size: 3
    stride: 1
    weight_filler {
      type: "gaussian"
      std: 0.01
    }
    bias_filler {
      type: "constant"
      value: 0
    }
  }
}
layer {
  name: "relu4_8"
  type: "PReLU"
  bottom: "conv4_8"
  top: "conv4_8"
}
layer {
  name: "res4_8"
  type: "Eltwise"
  bottom: "res4_6"
  bottom: "conv4_8"
  top: "res4_8"
  eltwise_param {
    operation: SUM
  }
}
layer {
  name: "conv4_9"
  type: "Convolution"
  bottom: "res4_8"
  top: "conv4_9"
  param {
    lr_mult: 1
    decay_mult: 1
  }
  param {
    lr_mult: 0
    decay_mult: 0
  }
  convolution_param {
    num_output: 256
    pad: 1
    kernel_size: 3
    stride: 1
    weight_filler {
      type: "gaussian"
      std: 0.01
    }
    bias_filler {
      type: "constant"
      value: 0
    }
  }
}
layer {
  name: "relu4_9"
  type: "PReLU"
  bottom: "conv4_9"
  top: "conv4_9"
}
layer {
  name: "conv4_10"
  type: "Convolution"
  bottom: "conv4_9"
  top: "conv4_10"
  param {
    lr_mult: 1
    decay_mult: 1
  }
  param {
    lr_mult: 0
    decay_mult: 0
  }
  convolution_param {
    num_output: 256
    pad: 1
    kernel_size: 3
    stride: 1
    weight_filler {
      type: "gaussian"
      std: 0.01
    }
    bias_filler {
      type: "constant"
      value: 0
    }
  }
}
layer {
  name: "relu4_10"
  type: "PReLU"
  bottom: "conv4_10"
  top: "conv4_10"
}
layer {
  name: "res4_10"
  type: "Eltwise"
  bottom: "res4_8"
  bottom: "conv4_10"
  top: "res4_10"
  eltwise_param {
    operation: SUM
  }
}
layer {
  name: "conv4"
  type: "Convolution"
  bottom: "res4_10"
  top: "conv4"
  param {
    lr_mult: 1
    decay_mult: 1
  }
  param {
    lr_mult: 2
    decay_mult: 0
  }
  convolution_param {
    num_output: 512
    kernel_size: 3
    stride: 1
    weight_filler {
      type: "xavier"
    }
    bias_filler {
      type: "constant"
      value: 0
    }
  }
}
layer {
  name: "relu4"
  type: "PReLU"
  bottom: "conv4"
  top: "conv4"
}
layer {
  name: "pool4"
  type: "Pooling"
  bottom: "conv4"
  top: "pool4"
  pooling_param {
    pool: MAX
    kernel_size: 2
    stride: 2
  }
}
layer {
  name: "conv5_1"
  type: "Convolution"
  bottom: "pool4"
  top: "conv5_1"
  param {
    lr_mult: 1
    decay_mult: 1
  }
  param {
    lr_mult: 0
    decay_mult: 0
  }
  convolution_param {
    num_output: 512
    pad: 1
    kernel_size: 3
    stride: 1
    weight_filler {
      type: "gaussian"
      std: 0.01
    }
    bias_filler {
      type: "constant"
      value: 0
    }
  }
}
layer {
  name: "relu5_1"
  type: "PReLU"
  bottom: "conv5_1"
  top: "conv5_1"
}
layer {
  name: "conv5_2"
  type: "Convolution"
  bottom: "conv5_1"
  top: "conv5_2"
  param {
    lr_mult: 1
    decay_mult: 1
  }
  param {
    lr_mult: 0
    decay_mult: 0
  }
  convolution_param {
    num_output: 512
    pad: 1
    kernel_size: 3
    stride: 1
    weight_filler {
      type: "gaussian"
      std: 0.01
    }
    bias_filler {
      type: "constant"
      value: 0
    }
  }
}
layer {
  name: "relu5_2"
  type: "PReLU"
  bottom: "conv5_2"
  top: "conv5_2"
}
layer {
  name: "res5_2"
  type: "Eltwise"
  bottom: "pool4"
  bottom: "conv5_2"
  top: "res5_2"
  eltwise_param {
    operation: SUM
  }
}
layer {
  name: "conv5_3"
  type: "Convolution"
  bottom: "res5_2"
  top: "conv5_3"
  param {
    lr_mult: 1
    decay_mult: 1
  }
  param {
    lr_mult: 0
    decay_mult: 0
  }
  convolution_param {
    num_output: 512
    pad: 1
    kernel_size: 3
    stride: 1
    weight_filler {
      type: "gaussian"
      std: 0.01
    }
    bias_filler {
      type: "constant"
      value: 0
    }
  }
}
layer {
  name: "relu5_3"
  type: "PReLU"
  bottom: "conv5_3"
  top: "conv5_3"
}
layer {
  name: "conv5_4"
  type: "Convolution"
  bottom: "conv5_3"
  top: "conv5_4"
  param {
    lr_mult: 1
    decay_mult: 1
  }
  param {
    lr_mult: 0
    decay_mult: 0
  }
  convolution_param {
    num_output: 512
    pad: 1
    kernel_size: 3
    stride: 1
    weight_filler {
      type: "gaussian"
      std: 0.01
    }
    bias_filler {
      type: "constant"
      value: 0
    }
  }
}
layer {
  name: "relu5_4"
  type: "PReLU"
  bottom: "conv5_4"
  top: "conv5_4"
}
layer {
  name: "res5_4"
  type: "Eltwise"
  bottom: "res5_2"
  bottom: "conv5_4"
  top: "res5_4"
  eltwise_param {
    operation: SUM
  }
}
layer {
  name: "conv5_5"
  type: "Convolution"
  bottom: "res5_4"
  top: "conv5_5"
  param {
    lr_mult: 1
    decay_mult: 1
  }
  param {
    lr_mult: 0
    decay_mult: 0
  }
  convolution_param {
    num_output: 512
    pad: 1
    kernel_size: 3
    stride: 1
    weight_filler {
      type: "gaussian"
      std: 0.01
    }
    bias_filler {
      type: "constant"
      value: 0
    }
  }
}
layer {
  name: "relu5_5"
  type: "PReLU"
  bottom: "conv5_5"
  top: "conv5_5"
}
layer {
  name: "conv5_6"
  type: "Convolution"
  bottom: "conv5_5"
  top: "conv5_6"
  param {
    lr_mult: 1
    decay_mult: 1
  }
  param {
    lr_mult: 0
    decay_mult: 0
  }
  convolution_param {
    num_output: 512
    pad: 1
    kernel_size: 3
    stride: 1
    weight_filler {
      type: "gaussian"
      std: 0.01
    }
    bias_filler {
      type: "constant"
      value: 0
    }
  }
}
layer {
  name: "relu5_6"
  type: "PReLU"
  bottom: "conv5_6"
  top: "conv5_6"
}
layer {
  name: "res5_6"
  type: "Eltwise"
  bottom: "res5_4"
  bottom: "conv5_6"
  top: "res5_6"
  eltwise_param {
    operation: SUM
  }
}
layer {
  name: "fc5"
  type: "InnerProduct"
  bottom: "res5_6"
  top: "fc5"
  param {
    lr_mult: 1
    decay_mult: 1
  }
  param {
    lr_mult: 2
    decay_mult: 0
  }
  inner_product_param {
    num_output: 512
    weight_filler {
      type: "xavier"
    }
    bias_filler {
      type: "constant"
      value: 0
    }
  }
}
layer {
  name: "fc_add"
  type: "InnerProduct"
  bottom: "fc5"
  top: "fc_add"
  param {
    lr_mult: 1
    decay_mult: 1
  }
  param {
    lr_mult: 2
    decay_mult: 0
  }
  inner_product_param {
    num_output: 7
    weight_filler {
      type: "xavier"
    }
    bias_filler {
      type: "constant"
      value: 0
    }
  }
}
layer {
  name: "accuracy"
  type: "Accuracy"
  bottom: "fc_add"
  bottom: "label"
  top: "accuracy"
}
layer {
  name: "loss"
  type: "SoftmaxWithLoss"
  bottom: "fc_add"
  bottom: "label"
}
I1219 16:19:10.209568 31899 layer_factory.hpp:77] Creating layer data_train
I1219 16:19:10.209642 31899 net.cpp:100] Creating Layer data_train
I1219 16:19:10.209669 31899 net.cpp:408] data_train -> data
I1219 16:19:10.209714 31899 net.cpp:408] data_train -> label
I1219 16:19:10.209848 31899 image_data_layer.cpp:38] Opening file ../fer2013/list_train.txt
I1219 16:19:10.227886 31899 image_data_layer.cpp:53] Shuffling data
I1219 16:19:10.230685 31899 image_data_layer.cpp:58] A total of 32298 images.
I1219 16:19:10.333703 31899 image_data_layer.cpp:85] output data size: 60,3,112,96
I1219 16:19:10.360368 31899 net.cpp:150] Setting up data_train
I1219 16:19:10.360474 31899 net.cpp:157] Top shape: 60 3 112 96 (1935360)
I1219 16:19:10.360507 31899 net.cpp:157] Top shape: 60 (60)
I1219 16:19:10.360528 31899 net.cpp:165] Memory required for data: 7741680
I1219 16:19:10.360561 31899 layer_factory.hpp:77] Creating layer label_data_train_1_split
I1219 16:19:10.360610 31899 net.cpp:100] Creating Layer label_data_train_1_split
I1219 16:19:10.360638 31899 net.cpp:434] label_data_train_1_split <- label
I1219 16:19:10.360687 31899 net.cpp:408] label_data_train_1_split -> label_data_train_1_split_0
I1219 16:19:10.360730 31899 net.cpp:408] label_data_train_1_split -> label_data_train_1_split_1
I1219 16:19:10.360857 31899 net.cpp:150] Setting up label_data_train_1_split
I1219 16:19:10.360891 31899 net.cpp:157] Top shape: 60 (60)
I1219 16:19:10.360914 31899 net.cpp:157] Top shape: 60 (60)
I1219 16:19:10.360934 31899 net.cpp:165] Memory required for data: 7742160
I1219 16:19:10.360955 31899 layer_factory.hpp:77] Creating layer conv1a
I1219 16:19:10.361016 31899 net.cpp:100] Creating Layer conv1a
I1219 16:19:10.361042 31899 net.cpp:434] conv1a <- data
I1219 16:19:10.361070 31899 net.cpp:408] conv1a -> conv1a
I1219 16:19:10.363917 31899 net.cpp:150] Setting up conv1a
I1219 16:19:10.363970 31899 net.cpp:157] Top shape: 60 32 110 94 (19852800)
I1219 16:19:10.363994 31899 net.cpp:165] Memory required for data: 87153360
I1219 16:19:10.364053 31899 layer_factory.hpp:77] Creating layer relu1a
I1219 16:19:10.364085 31899 net.cpp:100] Creating Layer relu1a
I1219 16:19:10.364110 31899 net.cpp:434] relu1a <- conv1a
I1219 16:19:10.364141 31899 net.cpp:395] relu1a -> conv1a (in-place)
I1219 16:19:10.366776 31899 net.cpp:150] Setting up relu1a
I1219 16:19:10.366837 31899 net.cpp:157] Top shape: 60 32 110 94 (19852800)
I1219 16:19:10.366863 31899 net.cpp:165] Memory required for data: 166564560
I1219 16:19:10.366909 31899 layer_factory.hpp:77] Creating layer conv1b
I1219 16:19:10.366955 31899 net.cpp:100] Creating Layer conv1b
I1219 16:19:10.366977 31899 net.cpp:434] conv1b <- conv1a
I1219 16:19:10.367003 31899 net.cpp:408] conv1b -> conv1b
I1219 16:19:10.368755 31899 net.cpp:150] Setting up conv1b
I1219 16:19:10.368804 31899 net.cpp:157] Top shape: 60 64 108 92 (38154240)
I1219 16:19:10.368825 31899 net.cpp:165] Memory required for data: 319181520
I1219 16:19:10.368858 31899 layer_factory.hpp:77] Creating layer relu1b
I1219 16:19:10.368892 31899 net.cpp:100] Creating Layer relu1b
I1219 16:19:10.368927 31899 net.cpp:434] relu1b <- conv1b
I1219 16:19:10.368958 31899 net.cpp:395] relu1b -> conv1b (in-place)
I1219 16:19:10.372025 31899 net.cpp:150] Setting up relu1b
I1219 16:19:10.372072 31899 net.cpp:157] Top shape: 60 64 108 92 (38154240)
I1219 16:19:10.372093 31899 net.cpp:165] Memory required for data: 471798480
I1219 16:19:10.372126 31899 layer_factory.hpp:77] Creating layer pool1b
I1219 16:19:10.372200 31899 net.cpp:100] Creating Layer pool1b
I1219 16:19:10.372225 31899 net.cpp:434] pool1b <- conv1b
I1219 16:19:10.372267 31899 net.cpp:408] pool1b -> pool1b
I1219 16:19:10.372494 31899 net.cpp:150] Setting up pool1b
I1219 16:19:10.372534 31899 net.cpp:157] Top shape: 60 64 54 46 (9538560)
I1219 16:19:10.372551 31899 net.cpp:165] Memory required for data: 509952720
I1219 16:19:10.372586 31899 layer_factory.hpp:77] Creating layer pool1b_pool1b_0_split
I1219 16:19:10.372611 31899 net.cpp:100] Creating Layer pool1b_pool1b_0_split
I1219 16:19:10.372630 31899 net.cpp:434] pool1b_pool1b_0_split <- pool1b
I1219 16:19:10.372654 31899 net.cpp:408] pool1b_pool1b_0_split -> pool1b_pool1b_0_split_0
I1219 16:19:10.372689 31899 net.cpp:408] pool1b_pool1b_0_split -> pool1b_pool1b_0_split_1
I1219 16:19:10.372776 31899 net.cpp:150] Setting up pool1b_pool1b_0_split
I1219 16:19:10.372807 31899 net.cpp:157] Top shape: 60 64 54 46 (9538560)
I1219 16:19:10.372829 31899 net.cpp:157] Top shape: 60 64 54 46 (9538560)
I1219 16:19:10.372848 31899 net.cpp:165] Memory required for data: 586261200
I1219 16:19:10.372865 31899 layer_factory.hpp:77] Creating layer conv2_1
I1219 16:19:10.372906 31899 net.cpp:100] Creating Layer conv2_1
I1219 16:19:10.372930 31899 net.cpp:434] conv2_1 <- pool1b_pool1b_0_split_0
I1219 16:19:10.372962 31899 net.cpp:408] conv2_1 -> conv2_1
I1219 16:19:10.375263 31899 net.cpp:150] Setting up conv2_1
I1219 16:19:10.375314 31899 net.cpp:157] Top shape: 60 64 54 46 (9538560)
I1219 16:19:10.375347 31899 net.cpp:165] Memory required for data: 624415440
I1219 16:19:10.375391 31899 layer_factory.hpp:77] Creating layer relu2_1
I1219 16:19:10.375423 31899 net.cpp:100] Creating Layer relu2_1
I1219 16:19:10.375445 31899 net.cpp:434] relu2_1 <- conv2_1
I1219 16:19:10.375468 31899 net.cpp:395] relu2_1 -> conv2_1 (in-place)
I1219 16:19:10.376899 31899 net.cpp:150] Setting up relu2_1
I1219 16:19:10.376941 31899 net.cpp:157] Top shape: 60 64 54 46 (9538560)
I1219 16:19:10.376960 31899 net.cpp:165] Memory required for data: 662569680
I1219 16:19:10.376988 31899 layer_factory.hpp:77] Creating layer conv2_2
I1219 16:19:10.377035 31899 net.cpp:100] Creating Layer conv2_2
I1219 16:19:10.377056 31899 net.cpp:434] conv2_2 <- conv2_1
I1219 16:19:10.377086 31899 net.cpp:408] conv2_2 -> conv2_2
I1219 16:19:10.378386 31899 net.cpp:150] Setting up conv2_2
I1219 16:19:10.378423 31899 net.cpp:157] Top shape: 60 64 54 46 (9538560)
I1219 16:19:10.378442 31899 net.cpp:165] Memory required for data: 700723920
I1219 16:19:10.378466 31899 layer_factory.hpp:77] Creating layer relu2_2
I1219 16:19:10.378490 31899 net.cpp:100] Creating Layer relu2_2
I1219 16:19:10.378507 31899 net.cpp:434] relu2_2 <- conv2_2
I1219 16:19:10.378547 31899 net.cpp:395] relu2_2 -> conv2_2 (in-place)
I1219 16:19:10.379850 31899 net.cpp:150] Setting up relu2_2
I1219 16:19:10.379891 31899 net.cpp:157] Top shape: 60 64 54 46 (9538560)
I1219 16:19:10.379909 31899 net.cpp:165] Memory required for data: 738878160
I1219 16:19:10.379931 31899 layer_factory.hpp:77] Creating layer res2_2
I1219 16:19:10.379964 31899 net.cpp:100] Creating Layer res2_2
I1219 16:19:10.379984 31899 net.cpp:434] res2_2 <- pool1b_pool1b_0_split_1
I1219 16:19:10.380005 31899 net.cpp:434] res2_2 <- conv2_2
I1219 16:19:10.380028 31899 net.cpp:408] res2_2 -> res2_2
I1219 16:19:10.380100 31899 net.cpp:150] Setting up res2_2
I1219 16:19:10.380128 31899 net.cpp:157] Top shape: 60 64 54 46 (9538560)
I1219 16:19:10.380147 31899 net.cpp:165] Memory required for data: 777032400
I1219 16:19:10.380167 31899 layer_factory.hpp:77] Creating layer conv2
I1219 16:19:10.380218 31899 net.cpp:100] Creating Layer conv2
I1219 16:19:10.380244 31899 net.cpp:434] conv2 <- res2_2
I1219 16:19:10.380273 31899 net.cpp:408] conv2 -> conv2
I1219 16:19:10.381531 31899 net.cpp:150] Setting up conv2
I1219 16:19:10.381568 31899 net.cpp:157] Top shape: 60 128 52 44 (17571840)
I1219 16:19:10.381587 31899 net.cpp:165] Memory required for data: 847319760
I1219 16:19:10.381611 31899 layer_factory.hpp:77] Creating layer relu2
I1219 16:19:10.381639 31899 net.cpp:100] Creating Layer relu2
I1219 16:19:10.381672 31899 net.cpp:434] relu2 <- conv2
I1219 16:19:10.381695 31899 net.cpp:395] relu2 -> conv2 (in-place)
I1219 16:19:10.383257 31899 net.cpp:150] Setting up relu2
I1219 16:19:10.383301 31899 net.cpp:157] Top shape: 60 128 52 44 (17571840)
I1219 16:19:10.383319 31899 net.cpp:165] Memory required for data: 917607120
I1219 16:19:10.383342 31899 layer_factory.hpp:77] Creating layer pool2
I1219 16:19:10.383369 31899 net.cpp:100] Creating Layer pool2
I1219 16:19:10.383388 31899 net.cpp:434] pool2 <- conv2
I1219 16:19:10.383415 31899 net.cpp:408] pool2 -> pool2
I1219 16:19:10.383497 31899 net.cpp:150] Setting up pool2
I1219 16:19:10.383533 31899 net.cpp:157] Top shape: 60 128 26 22 (4392960)
I1219 16:19:10.383550 31899 net.cpp:165] Memory required for data: 935178960
I1219 16:19:10.383569 31899 layer_factory.hpp:77] Creating layer pool2_pool2_0_split
I1219 16:19:10.383595 31899 net.cpp:100] Creating Layer pool2_pool2_0_split
I1219 16:19:10.383615 31899 net.cpp:434] pool2_pool2_0_split <- pool2
I1219 16:19:10.383641 31899 net.cpp:408] pool2_pool2_0_split -> pool2_pool2_0_split_0
I1219 16:19:10.383669 31899 net.cpp:408] pool2_pool2_0_split -> pool2_pool2_0_split_1
I1219 16:19:10.383746 31899 net.cpp:150] Setting up pool2_pool2_0_split
I1219 16:19:10.383774 31899 net.cpp:157] Top shape: 60 128 26 22 (4392960)
I1219 16:19:10.383801 31899 net.cpp:157] Top shape: 60 128 26 22 (4392960)
I1219 16:19:10.383819 31899 net.cpp:165] Memory required for data: 970322640
I1219 16:19:10.383837 31899 layer_factory.hpp:77] Creating layer conv3_1
I1219 16:19:10.383882 31899 net.cpp:100] Creating Layer conv3_1
I1219 16:19:10.383906 31899 net.cpp:434] conv3_1 <- pool2_pool2_0_split_0
I1219 16:19:10.383934 31899 net.cpp:408] conv3_1 -> conv3_1
I1219 16:19:10.388351 31899 net.cpp:150] Setting up conv3_1
I1219 16:19:10.388396 31899 net.cpp:157] Top shape: 60 128 26 22 (4392960)
I1219 16:19:10.388413 31899 net.cpp:165] Memory required for data: 987894480
I1219 16:19:10.388454 31899 layer_factory.hpp:77] Creating layer relu3_1
I1219 16:19:10.388484 31899 net.cpp:100] Creating Layer relu3_1
I1219 16:19:10.388504 31899 net.cpp:434] relu3_1 <- conv3_1
I1219 16:19:10.388523 31899 net.cpp:395] relu3_1 -> conv3_1 (in-place)
I1219 16:19:10.388743 31899 net.cpp:150] Setting up relu3_1
I1219 16:19:10.388775 31899 net.cpp:157] Top shape: 60 128 26 22 (4392960)
I1219 16:19:10.388792 31899 net.cpp:165] Memory required for data: 1005466320
I1219 16:19:10.388813 31899 layer_factory.hpp:77] Creating layer conv3_2
I1219 16:19:10.388849 31899 net.cpp:100] Creating Layer conv3_2
I1219 16:19:10.388870 31899 net.cpp:434] conv3_2 <- conv3_1
I1219 16:19:10.388895 31899 net.cpp:408] conv3_2 -> conv3_2
I1219 16:19:10.393034 31899 net.cpp:150] Setting up conv3_2
I1219 16:19:10.393077 31899 net.cpp:157] Top shape: 60 128 26 22 (4392960)
I1219 16:19:10.393095 31899 net.cpp:165] Memory required for data: 1023038160
I1219 16:19:10.393120 31899 layer_factory.hpp:77] Creating layer relu3_2
I1219 16:19:10.393149 31899 net.cpp:100] Creating Layer relu3_2
I1219 16:19:10.393167 31899 net.cpp:434] relu3_2 <- conv3_2
I1219 16:19:10.393205 31899 net.cpp:395] relu3_2 -> conv3_2 (in-place)
I1219 16:19:10.393432 31899 net.cpp:150] Setting up relu3_2
I1219 16:19:10.393476 31899 net.cpp:157] Top shape: 60 128 26 22 (4392960)
I1219 16:19:10.393496 31899 net.cpp:165] Memory required for data: 1040610000
I1219 16:19:10.393517 31899 layer_factory.hpp:77] Creating layer res3_2
I1219 16:19:10.393545 31899 net.cpp:100] Creating Layer res3_2
I1219 16:19:10.393564 31899 net.cpp:434] res3_2 <- pool2_pool2_0_split_1
I1219 16:19:10.393584 31899 net.cpp:434] res3_2 <- conv3_2
I1219 16:19:10.393604 31899 net.cpp:408] res3_2 -> res3_2
I1219 16:19:10.393673 31899 net.cpp:150] Setting up res3_2
I1219 16:19:10.393702 31899 net.cpp:157] Top shape: 60 128 26 22 (4392960)
I1219 16:19:10.393718 31899 net.cpp:165] Memory required for data: 1058181840
I1219 16:19:10.393735 31899 layer_factory.hpp:77] Creating layer res3_2_res3_2_0_split
I1219 16:19:10.393761 31899 net.cpp:100] Creating Layer res3_2_res3_2_0_split
I1219 16:19:10.393791 31899 net.cpp:434] res3_2_res3_2_0_split <- res3_2
I1219 16:19:10.393821 31899 net.cpp:408] res3_2_res3_2_0_split -> res3_2_res3_2_0_split_0
I1219 16:19:10.393847 31899 net.cpp:408] res3_2_res3_2_0_split -> res3_2_res3_2_0_split_1
I1219 16:19:10.393925 31899 net.cpp:150] Setting up res3_2_res3_2_0_split
I1219 16:19:10.393955 31899 net.cpp:157] Top shape: 60 128 26 22 (4392960)
I1219 16:19:10.393975 31899 net.cpp:157] Top shape: 60 128 26 22 (4392960)
I1219 16:19:10.393991 31899 net.cpp:165] Memory required for data: 1093325520
I1219 16:19:10.394008 31899 layer_factory.hpp:77] Creating layer conv3_3
I1219 16:19:10.394043 31899 net.cpp:100] Creating Layer conv3_3
I1219 16:19:10.394063 31899 net.cpp:434] conv3_3 <- res3_2_res3_2_0_split_0
I1219 16:19:10.394090 31899 net.cpp:408] conv3_3 -> conv3_3
I1219 16:19:10.398214 31899 net.cpp:150] Setting up conv3_3
I1219 16:19:10.398268 31899 net.cpp:157] Top shape: 60 128 26 22 (4392960)
I1219 16:19:10.398286 31899 net.cpp:165] Memory required for data: 1110897360
I1219 16:19:10.398309 31899 layer_factory.hpp:77] Creating layer relu3_3
I1219 16:19:10.398336 31899 net.cpp:100] Creating Layer relu3_3
I1219 16:19:10.398358 31899 net.cpp:434] relu3_3 <- conv3_3
I1219 16:19:10.398377 31899 net.cpp:395] relu3_3 -> conv3_3 (in-place)
I1219 16:19:10.398589 31899 net.cpp:150] Setting up relu3_3
I1219 16:19:10.398619 31899 net.cpp:157] Top shape: 60 128 26 22 (4392960)
I1219 16:19:10.398636 31899 net.cpp:165] Memory required for data: 1128469200
I1219 16:19:10.398655 31899 layer_factory.hpp:77] Creating layer conv3_4
I1219 16:19:10.398689 31899 net.cpp:100] Creating Layer conv3_4
I1219 16:19:10.398708 31899 net.cpp:434] conv3_4 <- conv3_3
I1219 16:19:10.398731 31899 net.cpp:408] conv3_4 -> conv3_4
I1219 16:19:10.402700 31899 net.cpp:150] Setting up conv3_4
I1219 16:19:10.402741 31899 net.cpp:157] Top shape: 60 128 26 22 (4392960)
I1219 16:19:10.402758 31899 net.cpp:165] Memory required for data: 1146041040
I1219 16:19:10.402781 31899 layer_factory.hpp:77] Creating layer relu3_4
I1219 16:19:10.402802 31899 net.cpp:100] Creating Layer relu3_4
I1219 16:19:10.402822 31899 net.cpp:434] relu3_4 <- conv3_4
I1219 16:19:10.402845 31899 net.cpp:395] relu3_4 -> conv3_4 (in-place)
I1219 16:19:10.403075 31899 net.cpp:150] Setting up relu3_4
I1219 16:19:10.403105 31899 net.cpp:157] Top shape: 60 128 26 22 (4392960)
I1219 16:19:10.403121 31899 net.cpp:165] Memory required for data: 1163612880
I1219 16:19:10.403143 31899 layer_factory.hpp:77] Creating layer res3_4
I1219 16:19:10.403169 31899 net.cpp:100] Creating Layer res3_4
I1219 16:19:10.403198 31899 net.cpp:434] res3_4 <- res3_2_res3_2_0_split_1
I1219 16:19:10.403218 31899 net.cpp:434] res3_4 <- conv3_4
I1219 16:19:10.403239 31899 net.cpp:408] res3_4 -> res3_4
I1219 16:19:10.403296 31899 net.cpp:150] Setting up res3_4
I1219 16:19:10.403322 31899 net.cpp:157] Top shape: 60 128 26 22 (4392960)
I1219 16:19:10.403339 31899 net.cpp:165] Memory required for data: 1181184720
I1219 16:19:10.403355 31899 layer_factory.hpp:77] Creating layer conv3
I1219 16:19:10.403389 31899 net.cpp:100] Creating Layer conv3
I1219 16:19:10.403409 31899 net.cpp:434] conv3 <- res3_4
I1219 16:19:10.403439 31899 net.cpp:408] conv3 -> conv3
I1219 16:19:10.407835 31899 net.cpp:150] Setting up conv3
I1219 16:19:10.407873 31899 net.cpp:157] Top shape: 60 256 24 20 (7372800)
I1219 16:19:10.407891 31899 net.cpp:165] Memory required for data: 1210675920
I1219 16:19:10.407920 31899 layer_factory.hpp:77] Creating layer relu3
I1219 16:19:10.407949 31899 net.cpp:100] Creating Layer relu3
I1219 16:19:10.407968 31899 net.cpp:434] relu3 <- conv3
I1219 16:19:10.407986 31899 net.cpp:395] relu3 -> conv3 (in-place)
I1219 16:19:10.409095 31899 net.cpp:150] Setting up relu3
I1219 16:19:10.409127 31899 net.cpp:157] Top shape: 60 256 24 20 (7372800)
I1219 16:19:10.409142 31899 net.cpp:165] Memory required for data: 1240167120
I1219 16:19:10.409162 31899 layer_factory.hpp:77] Creating layer pool3
I1219 16:19:10.409195 31899 net.cpp:100] Creating Layer pool3
I1219 16:19:10.409226 31899 net.cpp:434] pool3 <- conv3
I1219 16:19:10.409247 31899 net.cpp:408] pool3 -> pool3
I1219 16:19:10.409324 31899 net.cpp:150] Setting up pool3
I1219 16:19:10.409350 31899 net.cpp:157] Top shape: 60 256 12 10 (1843200)
I1219 16:19:10.409365 31899 net.cpp:165] Memory required for data: 1247539920
I1219 16:19:10.409379 31899 layer_factory.hpp:77] Creating layer pool3_pool3_0_split
I1219 16:19:10.409399 31899 net.cpp:100] Creating Layer pool3_pool3_0_split
I1219 16:19:10.409420 31899 net.cpp:434] pool3_pool3_0_split <- pool3
I1219 16:19:10.409453 31899 net.cpp:408] pool3_pool3_0_split -> pool3_pool3_0_split_0
I1219 16:19:10.409479 31899 net.cpp:408] pool3_pool3_0_split -> pool3_pool3_0_split_1
I1219 16:19:10.409551 31899 net.cpp:150] Setting up pool3_pool3_0_split
I1219 16:19:10.409577 31899 net.cpp:157] Top shape: 60 256 12 10 (1843200)
I1219 16:19:10.409595 31899 net.cpp:157] Top shape: 60 256 12 10 (1843200)
I1219 16:19:10.409610 31899 net.cpp:165] Memory required for data: 1262285520
I1219 16:19:10.409624 31899 layer_factory.hpp:77] Creating layer conv4_1
I1219 16:19:10.409662 31899 net.cpp:100] Creating Layer conv4_1
I1219 16:19:10.409679 31899 net.cpp:434] conv4_1 <- pool3_pool3_0_split_0
I1219 16:19:10.409703 31899 net.cpp:408] conv4_1 -> conv4_1
I1219 16:19:10.421667 31899 net.cpp:150] Setting up conv4_1
I1219 16:19:10.421705 31899 net.cpp:157] Top shape: 60 256 12 10 (1843200)
I1219 16:19:10.421720 31899 net.cpp:165] Memory required for data: 1269658320
I1219 16:19:10.421739 31899 layer_factory.hpp:77] Creating layer relu4_1
I1219 16:19:10.421759 31899 net.cpp:100] Creating Layer relu4_1
I1219 16:19:10.421774 31899 net.cpp:434] relu4_1 <- conv4_1
I1219 16:19:10.421795 31899 net.cpp:395] relu4_1 -> conv4_1 (in-place)
I1219 16:19:10.421965 31899 net.cpp:150] Setting up relu4_1
I1219 16:19:10.421993 31899 net.cpp:157] Top shape: 60 256 12 10 (1843200)
I1219 16:19:10.422006 31899 net.cpp:165] Memory required for data: 1277031120
I1219 16:19:10.422032 31899 layer_factory.hpp:77] Creating layer conv4_2
I1219 16:19:10.422065 31899 net.cpp:100] Creating Layer conv4_2
I1219 16:19:10.422082 31899 net.cpp:434] conv4_2 <- conv4_1
I1219 16:19:10.422102 31899 net.cpp:408] conv4_2 -> conv4_2
I1219 16:19:10.433362 31899 net.cpp:150] Setting up conv4_2
I1219 16:19:10.433396 31899 net.cpp:157] Top shape: 60 256 12 10 (1843200)
I1219 16:19:10.433413 31899 net.cpp:165] Memory required for data: 1284403920
I1219 16:19:10.433431 31899 layer_factory.hpp:77] Creating layer relu4_2
I1219 16:19:10.433449 31899 net.cpp:100] Creating Layer relu4_2
I1219 16:19:10.433464 31899 net.cpp:434] relu4_2 <- conv4_2
I1219 16:19:10.433478 31899 net.cpp:395] relu4_2 -> conv4_2 (in-place)
I1219 16:19:10.433641 31899 net.cpp:150] Setting up relu4_2
I1219 16:19:10.433666 31899 net.cpp:157] Top shape: 60 256 12 10 (1843200)
I1219 16:19:10.433679 31899 net.cpp:165] Memory required for data: 1291776720
I1219 16:19:10.433696 31899 layer_factory.hpp:77] Creating layer res4_2
I1219 16:19:10.433714 31899 net.cpp:100] Creating Layer res4_2
I1219 16:19:10.433728 31899 net.cpp:434] res4_2 <- pool3_pool3_0_split_1
I1219 16:19:10.433744 31899 net.cpp:434] res4_2 <- conv4_2
I1219 16:19:10.433764 31899 net.cpp:408] res4_2 -> res4_2
I1219 16:19:10.433809 31899 net.cpp:150] Setting up res4_2
I1219 16:19:10.433843 31899 net.cpp:157] Top shape: 60 256 12 10 (1843200)
I1219 16:19:10.433859 31899 net.cpp:165] Memory required for data: 1299149520
I1219 16:19:10.433873 31899 layer_factory.hpp:77] Creating layer res4_2_res4_2_0_split
I1219 16:19:10.433895 31899 net.cpp:100] Creating Layer res4_2_res4_2_0_split
I1219 16:19:10.433912 31899 net.cpp:434] res4_2_res4_2_0_split <- res4_2
I1219 16:19:10.433933 31899 net.cpp:408] res4_2_res4_2_0_split -> res4_2_res4_2_0_split_0
I1219 16:19:10.433955 31899 net.cpp:408] res4_2_res4_2_0_split -> res4_2_res4_2_0_split_1
I1219 16:19:10.434029 31899 net.cpp:150] Setting up res4_2_res4_2_0_split
I1219 16:19:10.434052 31899 net.cpp:157] Top shape: 60 256 12 10 (1843200)
I1219 16:19:10.434068 31899 net.cpp:157] Top shape: 60 256 12 10 (1843200)
I1219 16:19:10.434093 31899 net.cpp:165] Memory required for data: 1313895120
I1219 16:19:10.434108 31899 layer_factory.hpp:77] Creating layer conv4_3
I1219 16:19:10.434141 31899 net.cpp:100] Creating Layer conv4_3
I1219 16:19:10.434159 31899 net.cpp:434] conv4_3 <- res4_2_res4_2_0_split_0
I1219 16:19:10.434178 31899 net.cpp:408] conv4_3 -> conv4_3
I1219 16:19:10.445085 31899 net.cpp:150] Setting up conv4_3
I1219 16:19:10.445119 31899 net.cpp:157] Top shape: 60 256 12 10 (1843200)
I1219 16:19:10.445134 31899 net.cpp:165] Memory required for data: 1321267920
I1219 16:19:10.445160 31899 layer_factory.hpp:77] Creating layer relu4_3
I1219 16:19:10.445190 31899 net.cpp:100] Creating Layer relu4_3
I1219 16:19:10.445207 31899 net.cpp:434] relu4_3 <- conv4_3
I1219 16:19:10.445225 31899 net.cpp:395] relu4_3 -> conv4_3 (in-place)
I1219 16:19:10.445387 31899 net.cpp:150] Setting up relu4_3
I1219 16:19:10.445413 31899 net.cpp:157] Top shape: 60 256 12 10 (1843200)
I1219 16:19:10.445426 31899 net.cpp:165] Memory required for data: 1328640720
I1219 16:19:10.445442 31899 layer_factory.hpp:77] Creating layer conv4_4
I1219 16:19:10.445472 31899 net.cpp:100] Creating Layer conv4_4
I1219 16:19:10.445492 31899 net.cpp:434] conv4_4 <- conv4_3
I1219 16:19:10.445523 31899 net.cpp:408] conv4_4 -> conv4_4
I1219 16:19:10.456519 31899 net.cpp:150] Setting up conv4_4
I1219 16:19:10.456553 31899 net.cpp:157] Top shape: 60 256 12 10 (1843200)
I1219 16:19:10.456568 31899 net.cpp:165] Memory required for data: 1336013520
I1219 16:19:10.456588 31899 layer_factory.hpp:77] Creating layer relu4_4
I1219 16:19:10.456606 31899 net.cpp:100] Creating Layer relu4_4
I1219 16:19:10.456627 31899 net.cpp:434] relu4_4 <- conv4_4
I1219 16:19:10.456646 31899 net.cpp:395] relu4_4 -> conv4_4 (in-place)
I1219 16:19:10.456807 31899 net.cpp:150] Setting up relu4_4
I1219 16:19:10.456833 31899 net.cpp:157] Top shape: 60 256 12 10 (1843200)
I1219 16:19:10.456846 31899 net.cpp:165] Memory required for data: 1343386320
I1219 16:19:10.456863 31899 layer_factory.hpp:77] Creating layer res4_4
I1219 16:19:10.456884 31899 net.cpp:100] Creating Layer res4_4
I1219 16:19:10.456900 31899 net.cpp:434] res4_4 <- res4_2_res4_2_0_split_1
I1219 16:19:10.456915 31899 net.cpp:434] res4_4 <- conv4_4
I1219 16:19:10.456933 31899 net.cpp:408] res4_4 -> res4_4
I1219 16:19:10.456982 31899 net.cpp:150] Setting up res4_4
I1219 16:19:10.457005 31899 net.cpp:157] Top shape: 60 256 12 10 (1843200)
I1219 16:19:10.457018 31899 net.cpp:165] Memory required for data: 1350759120
I1219 16:19:10.457032 31899 layer_factory.hpp:77] Creating layer res4_4_res4_4_0_split
I1219 16:19:10.457049 31899 net.cpp:100] Creating Layer res4_4_res4_4_0_split
I1219 16:19:10.457062 31899 net.cpp:434] res4_4_res4_4_0_split <- res4_4
I1219 16:19:10.457083 31899 net.cpp:408] res4_4_res4_4_0_split -> res4_4_res4_4_0_split_0
I1219 16:19:10.457104 31899 net.cpp:408] res4_4_res4_4_0_split -> res4_4_res4_4_0_split_1
I1219 16:19:10.457190 31899 net.cpp:150] Setting up res4_4_res4_4_0_split
I1219 16:19:10.457223 31899 net.cpp:157] Top shape: 60 256 12 10 (1843200)
I1219 16:19:10.457240 31899 net.cpp:157] Top shape: 60 256 12 10 (1843200)
I1219 16:19:10.457258 31899 net.cpp:165] Memory required for data: 1365504720
I1219 16:19:10.457273 31899 layer_factory.hpp:77] Creating layer conv4_5
I1219 16:19:10.457303 31899 net.cpp:100] Creating Layer conv4_5
I1219 16:19:10.457319 31899 net.cpp:434] conv4_5 <- res4_4_res4_4_0_split_0
I1219 16:19:10.457343 31899 net.cpp:408] conv4_5 -> conv4_5
I1219 16:19:10.468333 31899 net.cpp:150] Setting up conv4_5
I1219 16:19:10.468369 31899 net.cpp:157] Top shape: 60 256 12 10 (1843200)
I1219 16:19:10.468384 31899 net.cpp:165] Memory required for data: 1372877520
I1219 16:19:10.468403 31899 layer_factory.hpp:77] Creating layer relu4_5
I1219 16:19:10.468428 31899 net.cpp:100] Creating Layer relu4_5
I1219 16:19:10.468443 31899 net.cpp:434] relu4_5 <- conv4_5
I1219 16:19:10.468463 31899 net.cpp:395] relu4_5 -> conv4_5 (in-place)
I1219 16:19:10.468632 31899 net.cpp:150] Setting up relu4_5
I1219 16:19:10.468668 31899 net.cpp:157] Top shape: 60 256 12 10 (1843200)
I1219 16:19:10.468683 31899 net.cpp:165] Memory required for data: 1380250320
I1219 16:19:10.468698 31899 layer_factory.hpp:77] Creating layer conv4_6
I1219 16:19:10.468725 31899 net.cpp:100] Creating Layer conv4_6
I1219 16:19:10.468742 31899 net.cpp:434] conv4_6 <- conv4_5
I1219 16:19:10.468765 31899 net.cpp:408] conv4_6 -> conv4_6
I1219 16:19:10.479733 31899 net.cpp:150] Setting up conv4_6
I1219 16:19:10.479768 31899 net.cpp:157] Top shape: 60 256 12 10 (1843200)
I1219 16:19:10.479782 31899 net.cpp:165] Memory required for data: 1387623120
I1219 16:19:10.479807 31899 layer_factory.hpp:77] Creating layer relu4_6
I1219 16:19:10.479830 31899 net.cpp:100] Creating Layer relu4_6
I1219 16:19:10.479846 31899 net.cpp:434] relu4_6 <- conv4_6
I1219 16:19:10.479863 31899 net.cpp:395] relu4_6 -> conv4_6 (in-place)
I1219 16:19:10.480785 31899 net.cpp:150] Setting up relu4_6
I1219 16:19:10.480814 31899 net.cpp:157] Top shape: 60 256 12 10 (1843200)
I1219 16:19:10.480829 31899 net.cpp:165] Memory required for data: 1394995920
I1219 16:19:10.480845 31899 layer_factory.hpp:77] Creating layer res4_6
I1219 16:19:10.480868 31899 net.cpp:100] Creating Layer res4_6
I1219 16:19:10.480886 31899 net.cpp:434] res4_6 <- res4_4_res4_4_0_split_1
I1219 16:19:10.480903 31899 net.cpp:434] res4_6 <- conv4_6
I1219 16:19:10.480921 31899 net.cpp:408] res4_6 -> res4_6
I1219 16:19:10.480972 31899 net.cpp:150] Setting up res4_6
I1219 16:19:10.480994 31899 net.cpp:157] Top shape: 60 256 12 10 (1843200)
I1219 16:19:10.481007 31899 net.cpp:165] Memory required for data: 1402368720
I1219 16:19:10.481021 31899 layer_factory.hpp:77] Creating layer res4_6_res4_6_0_split
I1219 16:19:10.481039 31899 net.cpp:100] Creating Layer res4_6_res4_6_0_split
I1219 16:19:10.481052 31899 net.cpp:434] res4_6_res4_6_0_split <- res4_6
I1219 16:19:10.481072 31899 net.cpp:408] res4_6_res4_6_0_split -> res4_6_res4_6_0_split_0
I1219 16:19:10.481093 31899 net.cpp:408] res4_6_res4_6_0_split -> res4_6_res4_6_0_split_1
I1219 16:19:10.481155 31899 net.cpp:150] Setting up res4_6_res4_6_0_split
I1219 16:19:10.481178 31899 net.cpp:157] Top shape: 60 256 12 10 (1843200)
I1219 16:19:10.481204 31899 net.cpp:157] Top shape: 60 256 12 10 (1843200)
I1219 16:19:10.481220 31899 net.cpp:165] Memory required for data: 1417114320
I1219 16:19:10.481235 31899 layer_factory.hpp:77] Creating layer conv4_7
I1219 16:19:10.481262 31899 net.cpp:100] Creating Layer conv4_7
I1219 16:19:10.481278 31899 net.cpp:434] conv4_7 <- res4_6_res4_6_0_split_0
I1219 16:19:10.481302 31899 net.cpp:408] conv4_7 -> conv4_7
I1219 16:19:10.492245 31899 net.cpp:150] Setting up conv4_7
I1219 16:19:10.492280 31899 net.cpp:157] Top shape: 60 256 12 10 (1843200)
I1219 16:19:10.492295 31899 net.cpp:165] Memory required for data: 1424487120
I1219 16:19:10.492326 31899 layer_factory.hpp:77] Creating layer relu4_7
I1219 16:19:10.492344 31899 net.cpp:100] Creating Layer relu4_7
I1219 16:19:10.492365 31899 net.cpp:434] relu4_7 <- conv4_7
I1219 16:19:10.492388 31899 net.cpp:395] relu4_7 -> conv4_7 (in-place)
I1219 16:19:10.492540 31899 net.cpp:150] Setting up relu4_7
I1219 16:19:10.492568 31899 net.cpp:157] Top shape: 60 256 12 10 (1843200)
I1219 16:19:10.492583 31899 net.cpp:165] Memory required for data: 1431859920
I1219 16:19:10.492599 31899 layer_factory.hpp:77] Creating layer conv4_8
I1219 16:19:10.492630 31899 net.cpp:100] Creating Layer conv4_8
I1219 16:19:10.492646 31899 net.cpp:434] conv4_8 <- conv4_7
I1219 16:19:10.492666 31899 net.cpp:408] conv4_8 -> conv4_8
I1219 16:19:10.503906 31899 net.cpp:150] Setting up conv4_8
I1219 16:19:10.503945 31899 net.cpp:157] Top shape: 60 256 12 10 (1843200)
I1219 16:19:10.503962 31899 net.cpp:165] Memory required for data: 1439232720
I1219 16:19:10.503991 31899 layer_factory.hpp:77] Creating layer relu4_8
I1219 16:19:10.504011 31899 net.cpp:100] Creating Layer relu4_8
I1219 16:19:10.504025 31899 net.cpp:434] relu4_8 <- conv4_8
I1219 16:19:10.504042 31899 net.cpp:395] relu4_8 -> conv4_8 (in-place)
I1219 16:19:10.504222 31899 net.cpp:150] Setting up relu4_8
I1219 16:19:10.504248 31899 net.cpp:157] Top shape: 60 256 12 10 (1843200)
I1219 16:19:10.504261 31899 net.cpp:165] Memory required for data: 1446605520
I1219 16:19:10.504277 31899 layer_factory.hpp:77] Creating layer res4_8
I1219 16:19:10.504299 31899 net.cpp:100] Creating Layer res4_8
I1219 16:19:10.504314 31899 net.cpp:434] res4_8 <- res4_6_res4_6_0_split_1
I1219 16:19:10.504330 31899 net.cpp:434] res4_8 <- conv4_8
I1219 16:19:10.504350 31899 net.cpp:408] res4_8 -> res4_8
I1219 16:19:10.504396 31899 net.cpp:150] Setting up res4_8
I1219 16:19:10.504420 31899 net.cpp:157] Top shape: 60 256 12 10 (1843200)
I1219 16:19:10.504432 31899 net.cpp:165] Memory required for data: 1453978320
I1219 16:19:10.504446 31899 layer_factory.hpp:77] Creating layer res4_8_res4_8_0_split
I1219 16:19:10.504468 31899 net.cpp:100] Creating Layer res4_8_res4_8_0_split
I1219 16:19:10.504483 31899 net.cpp:434] res4_8_res4_8_0_split <- res4_8
I1219 16:19:10.504504 31899 net.cpp:408] res4_8_res4_8_0_split -> res4_8_res4_8_0_split_0
I1219 16:19:10.504524 31899 net.cpp:408] res4_8_res4_8_0_split -> res4_8_res4_8_0_split_1
I1219 16:19:10.504586 31899 net.cpp:150] Setting up res4_8_res4_8_0_split
I1219 16:19:10.504609 31899 net.cpp:157] Top shape: 60 256 12 10 (1843200)
I1219 16:19:10.504624 31899 net.cpp:157] Top shape: 60 256 12 10 (1843200)
I1219 16:19:10.504637 31899 net.cpp:165] Memory required for data: 1468723920
I1219 16:19:10.504650 31899 layer_factory.hpp:77] Creating layer conv4_9
I1219 16:19:10.504678 31899 net.cpp:100] Creating Layer conv4_9
I1219 16:19:10.504693 31899 net.cpp:434] conv4_9 <- res4_8_res4_8_0_split_0
I1219 16:19:10.504717 31899 net.cpp:408] conv4_9 -> conv4_9
I1219 16:19:10.515674 31899 net.cpp:150] Setting up conv4_9
I1219 16:19:10.515709 31899 net.cpp:157] Top shape: 60 256 12 10 (1843200)
I1219 16:19:10.515724 31899 net.cpp:165] Memory required for data: 1476096720
I1219 16:19:10.515744 31899 layer_factory.hpp:77] Creating layer relu4_9
I1219 16:19:10.515768 31899 net.cpp:100] Creating Layer relu4_9
I1219 16:19:10.515784 31899 net.cpp:434] relu4_9 <- conv4_9
I1219 16:19:10.515799 31899 net.cpp:395] relu4_9 -> conv4_9 (in-place)
I1219 16:19:10.515964 31899 net.cpp:150] Setting up relu4_9
I1219 16:19:10.515990 31899 net.cpp:157] Top shape: 60 256 12 10 (1843200)
I1219 16:19:10.516003 31899 net.cpp:165] Memory required for data: 1483469520
I1219 16:19:10.516022 31899 layer_factory.hpp:77] Creating layer conv4_10
I1219 16:19:10.516049 31899 net.cpp:100] Creating Layer conv4_10
I1219 16:19:10.516067 31899 net.cpp:434] conv4_10 <- conv4_9
I1219 16:19:10.516089 31899 net.cpp:408] conv4_10 -> conv4_10
I1219 16:19:10.527092 31899 net.cpp:150] Setting up conv4_10
I1219 16:19:10.527133 31899 net.cpp:157] Top shape: 60 256 12 10 (1843200)
I1219 16:19:10.527153 31899 net.cpp:165] Memory required for data: 1490842320
I1219 16:19:10.527173 31899 layer_factory.hpp:77] Creating layer relu4_10
I1219 16:19:10.527199 31899 net.cpp:100] Creating Layer relu4_10
I1219 16:19:10.527218 31899 net.cpp:434] relu4_10 <- conv4_10
I1219 16:19:10.527240 31899 net.cpp:395] relu4_10 -> conv4_10 (in-place)
I1219 16:19:10.527415 31899 net.cpp:150] Setting up relu4_10
I1219 16:19:10.527441 31899 net.cpp:157] Top shape: 60 256 12 10 (1843200)
I1219 16:19:10.527454 31899 net.cpp:165] Memory required for data: 1498215120
I1219 16:19:10.527470 31899 layer_factory.hpp:77] Creating layer res4_10
I1219 16:19:10.527489 31899 net.cpp:100] Creating Layer res4_10
I1219 16:19:10.527503 31899 net.cpp:434] res4_10 <- res4_8_res4_8_0_split_1
I1219 16:19:10.527519 31899 net.cpp:434] res4_10 <- conv4_10
I1219 16:19:10.527540 31899 net.cpp:408] res4_10 -> res4_10
I1219 16:19:10.527591 31899 net.cpp:150] Setting up res4_10
I1219 16:19:10.527614 31899 net.cpp:157] Top shape: 60 256 12 10 (1843200)
I1219 16:19:10.527628 31899 net.cpp:165] Memory required for data: 1505587920
I1219 16:19:10.527642 31899 layer_factory.hpp:77] Creating layer conv4
I1219 16:19:10.527668 31899 net.cpp:100] Creating Layer conv4
I1219 16:19:10.527694 31899 net.cpp:434] conv4 <- res4_10
I1219 16:19:10.527719 31899 net.cpp:408] conv4 -> conv4
I1219 16:19:10.541529 31899 net.cpp:150] Setting up conv4
I1219 16:19:10.541565 31899 net.cpp:157] Top shape: 60 512 10 8 (2457600)
I1219 16:19:10.541580 31899 net.cpp:165] Memory required for data: 1515418320
I1219 16:19:10.541601 31899 layer_factory.hpp:77] Creating layer relu4
I1219 16:19:10.541638 31899 net.cpp:100] Creating Layer relu4
I1219 16:19:10.541656 31899 net.cpp:434] relu4 <- conv4
I1219 16:19:10.541671 31899 net.cpp:395] relu4 -> conv4 (in-place)
I1219 16:19:10.541863 31899 net.cpp:150] Setting up relu4
I1219 16:19:10.541889 31899 net.cpp:157] Top shape: 60 512 10 8 (2457600)
I1219 16:19:10.541903 31899 net.cpp:165] Memory required for data: 1525248720
I1219 16:19:10.541918 31899 layer_factory.hpp:77] Creating layer pool4
I1219 16:19:10.541942 31899 net.cpp:100] Creating Layer pool4
I1219 16:19:10.541959 31899 net.cpp:434] pool4 <- conv4
I1219 16:19:10.541987 31899 net.cpp:408] pool4 -> pool4
I1219 16:19:10.542067 31899 net.cpp:150] Setting up pool4
I1219 16:19:10.542090 31899 net.cpp:157] Top shape: 60 512 5 4 (614400)
I1219 16:19:10.542104 31899 net.cpp:165] Memory required for data: 1527706320
I1219 16:19:10.542116 31899 layer_factory.hpp:77] Creating layer pool4_pool4_0_split
I1219 16:19:10.542160 31899 net.cpp:100] Creating Layer pool4_pool4_0_split
I1219 16:19:10.542176 31899 net.cpp:434] pool4_pool4_0_split <- pool4
I1219 16:19:10.542203 31899 net.cpp:408] pool4_pool4_0_split -> pool4_pool4_0_split_0
I1219 16:19:10.542234 31899 net.cpp:408] pool4_pool4_0_split -> pool4_pool4_0_split_1
I1219 16:19:10.542300 31899 net.cpp:150] Setting up pool4_pool4_0_split
I1219 16:19:10.542326 31899 net.cpp:157] Top shape: 60 512 5 4 (614400)
I1219 16:19:10.542343 31899 net.cpp:157] Top shape: 60 512 5 4 (614400)
I1219 16:19:10.542357 31899 net.cpp:165] Memory required for data: 1532621520
I1219 16:19:10.542371 31899 layer_factory.hpp:77] Creating layer conv5_1
I1219 16:19:10.542409 31899 net.cpp:100] Creating Layer conv5_1
I1219 16:19:10.542426 31899 net.cpp:434] conv5_1 <- pool4_pool4_0_split_0
I1219 16:19:10.542445 31899 net.cpp:408] conv5_1 -> conv5_1
I1219 16:19:10.585635 31899 net.cpp:150] Setting up conv5_1
I1219 16:19:10.585701 31899 net.cpp:157] Top shape: 60 512 5 4 (614400)
I1219 16:19:10.585717 31899 net.cpp:165] Memory required for data: 1535079120
I1219 16:19:10.585769 31899 layer_factory.hpp:77] Creating layer relu5_1
I1219 16:19:10.585803 31899 net.cpp:100] Creating Layer relu5_1
I1219 16:19:10.585819 31899 net.cpp:434] relu5_1 <- conv5_1
I1219 16:19:10.585839 31899 net.cpp:395] relu5_1 -> conv5_1 (in-place)
I1219 16:19:10.586019 31899 net.cpp:150] Setting up relu5_1
I1219 16:19:10.586045 31899 net.cpp:157] Top shape: 60 512 5 4 (614400)
I1219 16:19:10.586058 31899 net.cpp:165] Memory required for data: 1537536720
I1219 16:19:10.586074 31899 layer_factory.hpp:77] Creating layer conv5_2
I1219 16:19:10.586117 31899 net.cpp:100] Creating Layer conv5_2
I1219 16:19:10.586133 31899 net.cpp:434] conv5_2 <- conv5_1
I1219 16:19:10.586153 31899 net.cpp:408] conv5_2 -> conv5_2
I1219 16:19:10.629212 31899 net.cpp:150] Setting up conv5_2
I1219 16:19:10.629264 31899 net.cpp:157] Top shape: 60 512 5 4 (614400)
I1219 16:19:10.629281 31899 net.cpp:165] Memory required for data: 1539994320
I1219 16:19:10.629304 31899 layer_factory.hpp:77] Creating layer relu5_2
I1219 16:19:10.629334 31899 net.cpp:100] Creating Layer relu5_2
I1219 16:19:10.629351 31899 net.cpp:434] relu5_2 <- conv5_2
I1219 16:19:10.629370 31899 net.cpp:395] relu5_2 -> conv5_2 (in-place)
I1219 16:19:10.629528 31899 net.cpp:150] Setting up relu5_2
I1219 16:19:10.629554 31899 net.cpp:157] Top shape: 60 512 5 4 (614400)
I1219 16:19:10.629567 31899 net.cpp:165] Memory required for data: 1542451920
I1219 16:19:10.629583 31899 layer_factory.hpp:77] Creating layer res5_2
I1219 16:19:10.629609 31899 net.cpp:100] Creating Layer res5_2
I1219 16:19:10.629626 31899 net.cpp:434] res5_2 <- pool4_pool4_0_split_1
I1219 16:19:10.629642 31899 net.cpp:434] res5_2 <- conv5_2
I1219 16:19:10.629678 31899 net.cpp:408] res5_2 -> res5_2
I1219 16:19:10.629734 31899 net.cpp:150] Setting up res5_2
I1219 16:19:10.629757 31899 net.cpp:157] Top shape: 60 512 5 4 (614400)
I1219 16:19:10.629770 31899 net.cpp:165] Memory required for data: 1544909520
I1219 16:19:10.629783 31899 layer_factory.hpp:77] Creating layer res5_2_res5_2_0_split
I1219 16:19:10.629802 31899 net.cpp:100] Creating Layer res5_2_res5_2_0_split
I1219 16:19:10.629815 31899 net.cpp:434] res5_2_res5_2_0_split <- res5_2
I1219 16:19:10.629837 31899 net.cpp:408] res5_2_res5_2_0_split -> res5_2_res5_2_0_split_0
I1219 16:19:10.629858 31899 net.cpp:408] res5_2_res5_2_0_split -> res5_2_res5_2_0_split_1
I1219 16:19:10.629937 31899 net.cpp:150] Setting up res5_2_res5_2_0_split
I1219 16:19:10.629963 31899 net.cpp:157] Top shape: 60 512 5 4 (614400)
I1219 16:19:10.629978 31899 net.cpp:157] Top shape: 60 512 5 4 (614400)
I1219 16:19:10.629992 31899 net.cpp:165] Memory required for data: 1549824720
I1219 16:19:10.630005 31899 layer_factory.hpp:77] Creating layer conv5_3
I1219 16:19:10.630046 31899 net.cpp:100] Creating Layer conv5_3
I1219 16:19:10.630064 31899 net.cpp:434] conv5_3 <- res5_2_res5_2_0_split_0
I1219 16:19:10.630084 31899 net.cpp:408] conv5_3 -> conv5_3
I1219 16:19:10.673529 31899 net.cpp:150] Setting up conv5_3
I1219 16:19:10.673588 31899 net.cpp:157] Top shape: 60 512 5 4 (614400)
I1219 16:19:10.673602 31899 net.cpp:165] Memory required for data: 1552282320
I1219 16:19:10.673627 31899 layer_factory.hpp:77] Creating layer relu5_3
I1219 16:19:10.673653 31899 net.cpp:100] Creating Layer relu5_3
I1219 16:19:10.673669 31899 net.cpp:434] relu5_3 <- conv5_3
I1219 16:19:10.673693 31899 net.cpp:395] relu5_3 -> conv5_3 (in-place)
I1219 16:19:10.673856 31899 net.cpp:150] Setting up relu5_3
I1219 16:19:10.673882 31899 net.cpp:157] Top shape: 60 512 5 4 (614400)
I1219 16:19:10.673894 31899 net.cpp:165] Memory required for data: 1554739920
I1219 16:19:10.673913 31899 layer_factory.hpp:77] Creating layer conv5_4
I1219 16:19:10.673945 31899 net.cpp:100] Creating Layer conv5_4
I1219 16:19:10.673961 31899 net.cpp:434] conv5_4 <- conv5_3
I1219 16:19:10.673993 31899 net.cpp:408] conv5_4 -> conv5_4
I1219 16:19:10.717360 31899 net.cpp:150] Setting up conv5_4
I1219 16:19:10.717420 31899 net.cpp:157] Top shape: 60 512 5 4 (614400)
I1219 16:19:10.717435 31899 net.cpp:165] Memory required for data: 1557197520
I1219 16:19:10.717461 31899 layer_factory.hpp:77] Creating layer relu5_4
I1219 16:19:10.717505 31899 net.cpp:100] Creating Layer relu5_4
I1219 16:19:10.717525 31899 net.cpp:434] relu5_4 <- conv5_4
I1219 16:19:10.717545 31899 net.cpp:395] relu5_4 -> conv5_4 (in-place)
I1219 16:19:10.717703 31899 net.cpp:150] Setting up relu5_4
I1219 16:19:10.717728 31899 net.cpp:157] Top shape: 60 512 5 4 (614400)
I1219 16:19:10.717742 31899 net.cpp:165] Memory required for data: 1559655120
I1219 16:19:10.717759 31899 layer_factory.hpp:77] Creating layer res5_4
I1219 16:19:10.717788 31899 net.cpp:100] Creating Layer res5_4
I1219 16:19:10.717808 31899 net.cpp:434] res5_4 <- res5_2_res5_2_0_split_1
I1219 16:19:10.717838 31899 net.cpp:434] res5_4 <- conv5_4
I1219 16:19:10.717857 31899 net.cpp:408] res5_4 -> res5_4
I1219 16:19:10.717913 31899 net.cpp:150] Setting up res5_4
I1219 16:19:10.717936 31899 net.cpp:157] Top shape: 60 512 5 4 (614400)
I1219 16:19:10.717949 31899 net.cpp:165] Memory required for data: 1562112720
I1219 16:19:10.717963 31899 layer_factory.hpp:77] Creating layer res5_4_res5_4_0_split
I1219 16:19:10.717983 31899 net.cpp:100] Creating Layer res5_4_res5_4_0_split
I1219 16:19:10.717996 31899 net.cpp:434] res5_4_res5_4_0_split <- res5_4
I1219 16:19:10.718039 31899 net.cpp:408] res5_4_res5_4_0_split -> res5_4_res5_4_0_split_0
I1219 16:19:10.718063 31899 net.cpp:408] res5_4_res5_4_0_split -> res5_4_res5_4_0_split_1
I1219 16:19:10.718155 31899 net.cpp:150] Setting up res5_4_res5_4_0_split
I1219 16:19:10.718179 31899 net.cpp:157] Top shape: 60 512 5 4 (614400)
I1219 16:19:10.718207 31899 net.cpp:157] Top shape: 60 512 5 4 (614400)
I1219 16:19:10.718225 31899 net.cpp:165] Memory required for data: 1567027920
I1219 16:19:10.718256 31899 layer_factory.hpp:77] Creating layer conv5_5
I1219 16:19:10.718288 31899 net.cpp:100] Creating Layer conv5_5
I1219 16:19:10.718304 31899 net.cpp:434] conv5_5 <- res5_4_res5_4_0_split_0
I1219 16:19:10.718324 31899 net.cpp:408] conv5_5 -> conv5_5
I1219 16:19:10.761550 31899 net.cpp:150] Setting up conv5_5
I1219 16:19:10.761606 31899 net.cpp:157] Top shape: 60 512 5 4 (614400)
I1219 16:19:10.761622 31899 net.cpp:165] Memory required for data: 1569485520
I1219 16:19:10.761646 31899 layer_factory.hpp:77] Creating layer relu5_5
I1219 16:19:10.761669 31899 net.cpp:100] Creating Layer relu5_5
I1219 16:19:10.761687 31899 net.cpp:434] relu5_5 <- conv5_5
I1219 16:19:10.761706 31899 net.cpp:395] relu5_5 -> conv5_5 (in-place)
I1219 16:19:10.761868 31899 net.cpp:150] Setting up relu5_5
I1219 16:19:10.761893 31899 net.cpp:157] Top shape: 60 512 5 4 (614400)
I1219 16:19:10.761905 31899 net.cpp:165] Memory required for data: 1571943120
I1219 16:19:10.761922 31899 layer_factory.hpp:77] Creating layer conv5_6
I1219 16:19:10.761961 31899 net.cpp:100] Creating Layer conv5_6
I1219 16:19:10.761977 31899 net.cpp:434] conv5_6 <- conv5_5
I1219 16:19:10.762002 31899 net.cpp:408] conv5_6 -> conv5_6
I1219 16:19:10.805078 31899 net.cpp:150] Setting up conv5_6
I1219 16:19:10.805141 31899 net.cpp:157] Top shape: 60 512 5 4 (614400)
I1219 16:19:10.805163 31899 net.cpp:165] Memory required for data: 1574400720
I1219 16:19:10.805196 31899 layer_factory.hpp:77] Creating layer relu5_6
I1219 16:19:10.805219 31899 net.cpp:100] Creating Layer relu5_6
I1219 16:19:10.805236 31899 net.cpp:434] relu5_6 <- conv5_6
I1219 16:19:10.805261 31899 net.cpp:395] relu5_6 -> conv5_6 (in-place)
I1219 16:19:10.805418 31899 net.cpp:150] Setting up relu5_6
I1219 16:19:10.805444 31899 net.cpp:157] Top shape: 60 512 5 4 (614400)
I1219 16:19:10.805456 31899 net.cpp:165] Memory required for data: 1576858320
I1219 16:19:10.805474 31899 layer_factory.hpp:77] Creating layer res5_6
I1219 16:19:10.805500 31899 net.cpp:100] Creating Layer res5_6
I1219 16:19:10.805516 31899 net.cpp:434] res5_6 <- res5_4_res5_4_0_split_1
I1219 16:19:10.805532 31899 net.cpp:434] res5_6 <- conv5_6
I1219 16:19:10.805549 31899 net.cpp:408] res5_6 -> res5_6
I1219 16:19:10.805604 31899 net.cpp:150] Setting up res5_6
I1219 16:19:10.805629 31899 net.cpp:157] Top shape: 60 512 5 4 (614400)
I1219 16:19:10.805642 31899 net.cpp:165] Memory required for data: 1579315920
I1219 16:19:10.805656 31899 layer_factory.hpp:77] Creating layer fc5
I1219 16:19:10.805682 31899 net.cpp:100] Creating Layer fc5
I1219 16:19:10.805697 31899 net.cpp:434] fc5 <- res5_6
I1219 16:19:10.805723 31899 net.cpp:408] fc5 -> fc5
I1219 16:19:10.866988 31899 net.cpp:150] Setting up fc5
I1219 16:19:10.867061 31899 net.cpp:157] Top shape: 60 512 (30720)
I1219 16:19:10.867076 31899 net.cpp:165] Memory required for data: 1579438800
I1219 16:19:10.867116 31899 layer_factory.hpp:77] Creating layer fc_add
I1219 16:19:10.867161 31899 net.cpp:100] Creating Layer fc_add
I1219 16:19:10.867192 31899 net.cpp:434] fc_add <- fc5
I1219 16:19:10.867229 31899 net.cpp:408] fc_add -> fc_add
I1219 16:19:10.867489 31899 net.cpp:150] Setting up fc_add
I1219 16:19:10.867514 31899 net.cpp:157] Top shape: 60 7 (420)
I1219 16:19:10.867527 31899 net.cpp:165] Memory required for data: 1579440480
I1219 16:19:10.867547 31899 layer_factory.hpp:77] Creating layer fc_add_fc_add_0_split
I1219 16:19:10.867566 31899 net.cpp:100] Creating Layer fc_add_fc_add_0_split
I1219 16:19:10.867580 31899 net.cpp:434] fc_add_fc_add_0_split <- fc_add
I1219 16:19:10.867599 31899 net.cpp:408] fc_add_fc_add_0_split -> fc_add_fc_add_0_split_0
I1219 16:19:10.867619 31899 net.cpp:408] fc_add_fc_add_0_split -> fc_add_fc_add_0_split_1
I1219 16:19:10.867691 31899 net.cpp:150] Setting up fc_add_fc_add_0_split
I1219 16:19:10.867720 31899 net.cpp:157] Top shape: 60 7 (420)
I1219 16:19:10.867735 31899 net.cpp:157] Top shape: 60 7 (420)
I1219 16:19:10.867748 31899 net.cpp:165] Memory required for data: 1579443840
I1219 16:19:10.867760 31899 layer_factory.hpp:77] Creating layer accuracy
I1219 16:19:10.867805 31899 net.cpp:100] Creating Layer accuracy
I1219 16:19:10.867822 31899 net.cpp:434] accuracy <- fc_add_fc_add_0_split_0
I1219 16:19:10.867838 31899 net.cpp:434] accuracy <- label_data_train_1_split_0
I1219 16:19:10.867856 31899 net.cpp:408] accuracy -> accuracy
…
