…
I1214 22:59:47.043268  5289 net.cpp:322] The NetState phase (0) differed from the phase (1) specified by a rule in layer data_test
I1214 22:59:47.045003  5289 net.cpp:58] Initializing net from parameters: 
name: "Inception21k"
state {
  phase: TRAIN
  level: 0
  stage: ""
}
layer {
  name: "data_train"
  type: "ImageData"
  top: "data"
  top: "label"
  include {
    phase: TRAIN
  }
  transform_param {
    mean_value: 129
  }
  image_data_param {
    source: "../fer2013/list_train.txt"
    batch_size: 60
    shuffle: true
    new_height: 224
    new_width: 224
    is_color: true
    root_folder: "../fer2013/fer2013_ims/"
  }
}
layer {
  name: "conv_conv1"
  type: "Convolution"
  bottom: "data"
  top: "conv_conv1"
  convolution_param {
    num_output: 96
    pad: 3
    kernel_size: 7
    stride: 2
  }
}
layer {
  name: "bn_conv1"
  type: "BatchNorm"
  bottom: "conv_conv1"
  top: "conv_conv1"
  batch_norm_param {
    use_global_stats: true
  }
}
layer {
  name: "scale_conv_conv1"
  type: "Scale"
  bottom: "conv_conv1"
  top: "conv_conv1"
  scale_param {
    bias_term: true
  }
}
layer {
  name: "relu_conv1"
  type: "ReLU"
  bottom: "conv_conv1"
  top: "conv_conv1"
}
layer {
  name: "pool1"
  type: "Pooling"
  bottom: "conv_conv1"
  top: "pool1"
  pooling_param {
    pool: MAX
    kernel_size: 3
    stride: 2
    pad: 0
  }
}
layer {
  name: "conv_conv2red"
  type: "Convolution"
  bottom: "pool1"
  top: "conv_conv2red"
  convolution_param {
    num_output: 128
    pad: 0
    kernel_size: 1
    stride: 1
  }
}
layer {
  name: "bn_conv2red"
  type: "BatchNorm"
  bottom: "conv_conv2red"
  top: "conv_conv2red"
  batch_norm_param {
    use_global_stats: true
  }
}
layer {
  name: "scale_conv_conv2red"
  type: "Scale"
  bottom: "conv_conv2red"
  top: "conv_conv2red"
  scale_param {
    bias_term: true
  }
}
layer {
  name: "relu_conv2red"
  type: "ReLU"
  bottom: "conv_conv2red"
  top: "conv_conv2red"
}
layer {
  name: "conv_conv2"
  type: "Convolution"
  bottom: "conv_conv2red"
  top: "conv_conv2"
  convolution_param {
    num_output: 288
    pad: 1
    kernel_size: 3
    stride: 1
  }
}
layer {
  name: "bn_conv2"
  type: "BatchNorm"
  bottom: "conv_conv2"
  top: "conv_conv2"
  batch_norm_param {
    use_global_stats: true
  }
}
layer {
  name: "scale_conv_conv2"
  type: "Scale"
  bottom: "conv_conv2"
  top: "conv_conv2"
  scale_param {
    bias_term: true
  }
}
layer {
  name: "relu_conv2"
  type: "ReLU"
  bottom: "conv_conv2"
  top: "conv_conv2"
}
layer {
  name: "pool2"
  type: "Pooling"
  bottom: "conv_conv2"
  top: "pool2"
  pooling_param {
    pool: MAX
    kernel_size: 3
    stride: 2
    pad: 0
  }
}
layer {
  name: "conv_3a_1x1"
  type: "Convolution"
  bottom: "pool2"
  top: "conv_3a_1x1"
  convolution_param {
    num_output: 96
    pad: 0
    kernel_size: 1
    stride: 1
  }
}
layer {
  name: "bn_3a_1x1"
  type: "BatchNorm"
  bottom: "conv_3a_1x1"
  top: "conv_3a_1x1"
  batch_norm_param {
    use_global_stats: true
  }
}
layer {
  name: "scale_conv_3a_1x1"
  type: "Scale"
  bottom: "conv_3a_1x1"
  top: "conv_3a_1x1"
  scale_param {
    bias_term: true
  }
}
layer {
  name: "relu_3a_1x1"
  type: "ReLU"
  bottom: "conv_3a_1x1"
  top: "conv_3a_1x1"
}
layer {
  name: "conv_3a_3x3_reduce"
  type: "Convolution"
  bottom: "pool2"
  top: "conv_3a_3x3_reduce"
  convolution_param {
    num_output: 96
    pad: 0
    kernel_size: 1
    stride: 1
  }
}
layer {
  name: "bn_3a_3x3_reduce"
  type: "BatchNorm"
  bottom: "conv_3a_3x3_reduce"
  top: "conv_3a_3x3_reduce"
  batch_norm_param {
    use_global_stats: true
  }
}
layer {
  name: "scale_conv_3a_3x3_reduce"
  type: "Scale"
  bottom: "conv_3a_3x3_reduce"
  top: "conv_3a_3x3_reduce"
  scale_param {
    bias_term: true
  }
}
layer {
  name: "relu_3a_3x3_reduce"
  type: "ReLU"
  bottom: "conv_3a_3x3_reduce"
  top: "conv_3a_3x3_reduce"
}
layer {
  name: "conv_3a_3x3"
  type: "Convolution"
  bottom: "conv_3a_3x3_reduce"
  top: "conv_3a_3x3"
  convolution_param {
    num_output: 96
    pad: 1
    kernel_size: 3
    stride: 1
  }
}
layer {
  name: "bn_3a_3x3"
  type: "BatchNorm"
  bottom: "conv_3a_3x3"
  top: "conv_3a_3x3"
  batch_norm_param {
    use_global_stats: true
  }
}
layer {
  name: "scale_conv_3a_3x3"
  type: "Scale"
  bottom: "conv_3a_3x3"
  top: "conv_3a_3x3"
  scale_param {
    bias_term: true
  }
}
layer {
  name: "relu_3a_3x3"
  type: "ReLU"
  bottom: "conv_3a_3x3"
  top: "conv_3a_3x3"
}
layer {
  name: "conv_3a_double_3x3_reduce"
  type: "Convolution"
  bottom: "pool2"
  top: "conv_3a_double_3x3_reduce"
  convolution_param {
    num_output: 96
    pad: 0
    kernel_size: 1
    stride: 1
  }
}
layer {
  name: "bn_3a_double_3x3_reduce"
  type: "BatchNorm"
  bottom: "conv_3a_double_3x3_reduce"
  top: "conv_3a_double_3x3_reduce"
  batch_norm_param {
    use_global_stats: true
  }
}
layer {
  name: "scale_conv_3a_double_3x3_reduce"
  type: "Scale"
  bottom: "conv_3a_double_3x3_reduce"
  top: "conv_3a_double_3x3_reduce"
  scale_param {
    bias_term: true
  }
}
layer {
  name: "relu_3a_double_3x3_reduce"
  type: "ReLU"
  bottom: "conv_3a_double_3x3_reduce"
  top: "conv_3a_double_3x3_reduce"
}
layer {
  name: "conv_3a_double_3x3_0"
  type: "Convolution"
  bottom: "conv_3a_double_3x3_reduce"
  top: "conv_3a_double_3x3_0"
  convolution_param {
    num_output: 144
    pad: 1
    kernel_size: 3
    stride: 1
  }
}
layer {
  name: "bn_3a_double_3x3_0"
  type: "BatchNorm"
  bottom: "conv_3a_double_3x3_0"
  top: "conv_3a_double_3x3_0"
  batch_norm_param {
    use_global_stats: true
  }
}
layer {
  name: "scale_conv_3a_double_3x3_0"
  type: "Scale"
  bottom: "conv_3a_double_3x3_0"
  top: "conv_3a_double_3x3_0"
  scale_param {
    bias_term: true
  }
}
layer {
  name: "relu_3a_double_3x3_0"
  type: "ReLU"
  bottom: "conv_3a_double_3x3_0"
  top: "conv_3a_double_3x3_0"
}
layer {
  name: "conv_3a_double_3x3_1"
  type: "Convolution"
  bottom: "conv_3a_double_3x3_0"
  top: "conv_3a_double_3x3_1"
  convolution_param {
    num_output: 144
    pad: 1
    kernel_size: 3
    stride: 1
  }
}
layer {
  name: "bn_3a_double_3x3_1"
  type: "BatchNorm"
  bottom: "conv_3a_double_3x3_1"
  top: "conv_3a_double_3x3_1"
  batch_norm_param {
    use_global_stats: true
  }
}
layer {
  name: "scale_conv_3a_double_3x3_1"
  type: "Scale"
  bottom: "conv_3a_double_3x3_1"
  top: "conv_3a_double_3x3_1"
  scale_param {
    bias_term: true
  }
}
layer {
  name: "relu_3a_double_3x3_1"
  type: "ReLU"
  bottom: "conv_3a_double_3x3_1"
  top: "conv_3a_double_3x3_1"
}
layer {
  name: "ave_pool_3a_pool"
  type: "Pooling"
  bottom: "pool2"
  top: "ave_pool_3a_pool"
  pooling_param {
    pool: AVE
    kernel_size: 3
    stride: 1
    pad: 1
  }
}
layer {
  name: "conv_3a_proj"
  type: "Convolution"
  bottom: "ave_pool_3a_pool"
  top: "conv_3a_proj"
  convolution_param {
    num_output: 48
    pad: 0
    kernel_size: 1
    stride: 1
  }
}
layer {
  name: "bn_3a_proj"
  type: "BatchNorm"
  bottom: "conv_3a_proj"
  top: "conv_3a_proj"
  batch_norm_param {
    use_global_stats: true
  }
}
layer {
  name: "scale_conv_3a_proj"
  type: "Scale"
  bottom: "conv_3a_proj"
  top: "conv_3a_proj"
  scale_param {
    bias_term: true
  }
}
layer {
  name: "relu_3a_proj"
  type: "ReLU"
  bottom: "conv_3a_proj"
  top: "conv_3a_proj"
}
layer {
  name: "ch_concat_3a_chconcat"
  type: "Concat"
  bottom: "conv_3a_1x1"
  bottom: "conv_3a_3x3"
  bottom: "conv_3a_double_3x3_1"
  bottom: "conv_3a_proj"
  top: "ch_concat_3a_chconcat"
}
layer {
  name: "conv_3b_1x1"
  type: "Convolution"
  bottom: "ch_concat_3a_chconcat"
  top: "conv_3b_1x1"
  convolution_param {
    num_output: 96
    pad: 0
    kernel_size: 1
    stride: 1
  }
}
layer {
  name: "bn_3b_1x1"
  type: "BatchNorm"
  bottom: "conv_3b_1x1"
  top: "conv_3b_1x1"
  batch_norm_param {
    use_global_stats: true
  }
}
layer {
  name: "scale_conv_3b_1x1"
  type: "Scale"
  bottom: "conv_3b_1x1"
  top: "conv_3b_1x1"
  scale_param {
    bias_term: true
  }
}
layer {
  name: "relu_3b_1x1"
  type: "ReLU"
  bottom: "conv_3b_1x1"
  top: "conv_3b_1x1"
}
layer {
  name: "conv_3b_3x3_reduce"
  type: "Convolution"
  bottom: "ch_concat_3a_chconcat"
  top: "conv_3b_3x3_reduce"
  convolution_param {
    num_output: 96
    pad: 0
    kernel_size: 1
    stride: 1
  }
}
layer {
  name: "bn_3b_3x3_reduce"
  type: "BatchNorm"
  bottom: "conv_3b_3x3_reduce"
  top: "conv_3b_3x3_reduce"
  batch_norm_param {
    use_global_stats: true
  }
}
layer {
  name: "scale_conv_3b_3x3_reduce"
  type: "Scale"
  bottom: "conv_3b_3x3_reduce"
  top: "conv_3b_3x3_reduce"
  scale_param {
    bias_term: true
  }
}
layer {
  name: "relu_3b_3x3_reduce"
  type: "ReLU"
  bottom: "conv_3b_3x3_reduce"
  top: "conv_3b_3x3_reduce"
}
layer {
  name: "conv_3b_3x3"
  type: "Convolution"
  bottom: "conv_3b_3x3_reduce"
  top: "conv_3b_3x3"
  convolution_param {
    num_output: 144
    pad: 1
    kernel_size: 3
    stride: 1
  }
}
layer {
  name: "bn_3b_3x3"
  type: "BatchNorm"
  bottom: "conv_3b_3x3"
  top: "conv_3b_3x3"
  batch_norm_param {
    use_global_stats: true
  }
}
layer {
  name: "scale_conv_3b_3x3"
  type: "Scale"
  bottom: "conv_3b_3x3"
  top: "conv_3b_3x3"
  scale_param {
    bias_term: true
  }
}
layer {
  name: "relu_3b_3x3"
  type: "ReLU"
  bottom: "conv_3b_3x3"
  top: "conv_3b_3x3"
}
layer {
  name: "conv_3b_double_3x3_reduce"
  type: "Convolution"
  bottom: "ch_concat_3a_chconcat"
  top: "conv_3b_double_3x3_reduce"
  convolution_param {
    num_output: 96
    pad: 0
    kernel_size: 1
    stride: 1
  }
}
layer {
  name: "bn_3b_double_3x3_reduce"
  type: "BatchNorm"
  bottom: "conv_3b_double_3x3_reduce"
  top: "conv_3b_double_3x3_reduce"
  batch_norm_param {
    use_global_stats: true
  }
}
layer {
  name: "scale_conv_3b_double_3x3_reduce"
  type: "Scale"
  bottom: "conv_3b_double_3x3_reduce"
  top: "conv_3b_double_3x3_reduce"
  scale_param {
    bias_term: true
  }
}
layer {
  name: "relu_3b_double_3x3_reduce"
  type: "ReLU"
  bottom: "conv_3b_double_3x3_reduce"
  top: "conv_3b_double_3x3_reduce"
}
layer {
  name: "conv_3b_double_3x3_0"
  type: "Convolution"
  bottom: "conv_3b_double_3x3_reduce"
  top: "conv_3b_double_3x3_0"
  convolution_param {
    num_output: 144
    pad: 1
    kernel_size: 3
    stride: 1
  }
}
layer {
  name: "bn_3b_double_3x3_0"
  type: "BatchNorm"
  bottom: "conv_3b_double_3x3_0"
  top: "conv_3b_double_3x3_0"
  batch_norm_param {
    use_global_stats: true
  }
}
layer {
  name: "scale_conv_3b_double_3x3_0"
  type: "Scale"
  bottom: "conv_3b_double_3x3_0"
  top: "conv_3b_double_3x3_0"
  scale_param {
    bias_term: true
  }
}
layer {
  name: "relu_3b_double_3x3_0"
  type: "ReLU"
  bottom: "conv_3b_double_3x3_0"
  top: "conv_3b_double_3x3_0"
}
layer {
  name: "conv_3b_double_3x3_1"
  type: "Convolution"
  bottom: "conv_3b_double_3x3_0"
  top: "conv_3b_double_3x3_1"
  convolution_param {
    num_output: 144
    pad: 1
    kernel_size: 3
    stride: 1
  }
}
layer {
  name: "bn_3b_double_3x3_1"
  type: "BatchNorm"
  bottom: "conv_3b_double_3x3_1"
  top: "conv_3b_double_3x3_1"
  batch_norm_param {
    use_global_stats: true
  }
}
layer {
  name: "scale_conv_3b_double_3x3_1"
  type: "Scale"
  bottom: "conv_3b_double_3x3_1"
  top: "conv_3b_double_3x3_1"
  scale_param {
    bias_term: true
  }
}
layer {
  name: "relu_3b_double_3x3_1"
  type: "ReLU"
  bottom: "conv_3b_double_3x3_1"
  top: "conv_3b_double_3x3_1"
}
layer {
  name: "ave_pool_3b_pool"
  type: "Pooling"
  bottom: "ch_concat_3a_chconcat"
  top: "ave_pool_3b_pool"
  pooling_param {
    pool: AVE
    kernel_size: 3
    stride: 1
    pad: 1
  }
}
layer {
  name: "conv_3b_proj"
  type: "Convolution"
  bottom: "ave_pool_3b_pool"
  top: "conv_3b_proj"
  convolution_param {
    num_output: 96
    pad: 0
    kernel_size: 1
    stride: 1
  }
}
layer {
  name: "bn_3b_proj"
  type: "BatchNorm"
  bottom: "conv_3b_proj"
  top: "conv_3b_proj"
  batch_norm_param {
    use_global_stats: true
  }
}
layer {
  name: "scale_conv_3b_proj"
  type: "Scale"
  bottom: "conv_3b_proj"
  top: "conv_3b_proj"
  scale_param {
    bias_term: true
  }
}
layer {
  name: "relu_3b_proj"
  type: "ReLU"
  bottom: "conv_3b_proj"
  top: "conv_3b_proj"
}
layer {
  name: "ch_concat_3b_chconcat"
  type: "Concat"
  bottom: "conv_3b_1x1"
  bottom: "conv_3b_3x3"
  bottom: "conv_3b_double_3x3_1"
  bottom: "conv_3b_proj"
  top: "ch_concat_3b_chconcat"
}
layer {
  name: "conv_3c_3x3_reduce"
  type: "Convolution"
  bottom: "ch_concat_3b_chconcat"
  top: "conv_3c_3x3_reduce"
  convolution_param {
    num_output: 192
    pad: 0
    kernel_size: 1
    stride: 1
  }
}
layer {
  name: "bn_3c_3x3_reduce"
  type: "BatchNorm"
  bottom: "conv_3c_3x3_reduce"
  top: "conv_3c_3x3_reduce"
  batch_norm_param {
    use_global_stats: true
  }
}
layer {
  name: "scale_conv_3c_3x3_reduce"
  type: "Scale"
  bottom: "conv_3c_3x3_reduce"
  top: "conv_3c_3x3_reduce"
  scale_param {
    bias_term: true
  }
}
layer {
  name: "relu_3c_3x3_reduce"
  type: "ReLU"
  bottom: "conv_3c_3x3_reduce"
  top: "conv_3c_3x3_reduce"
}
layer {
  name: "conv_3c_3x3"
  type: "Convolution"
  bottom: "conv_3c_3x3_reduce"
  top: "conv_3c_3x3"
  convolution_param {
    num_output: 240
    pad: 1
    kernel_size: 3
    stride: 2
  }
}
layer {
  name: "bn_3c_3x3"
  type: "BatchNorm"
  bottom: "conv_3c_3x3"
  top: "conv_3c_3x3"
  batch_norm_param {
    use_global_stats: true
  }
}
layer {
  name: "scale_conv_3c_3x3"
  type: "Scale"
  bottom: "conv_3c_3x3"
  top: "conv_3c_3x3"
  scale_param {
    bias_term: true
  }
}
layer {
  name: "relu_3c_3x3"
  type: "ReLU"
  bottom: "conv_3c_3x3"
  top: "conv_3c_3x3"
}
layer {
  name: "conv_3c_double_3x3_reduce"
  type: "Convolution"
  bottom: "ch_concat_3b_chconcat"
  top: "conv_3c_double_3x3_reduce"
  convolution_param {
    num_output: 96
    pad: 0
    kernel_size: 1
    stride: 1
  }
}
layer {
  name: "bn_3c_double_3x3_reduce"
  type: "BatchNorm"
  bottom: "conv_3c_double_3x3_reduce"
  top: "conv_3c_double_3x3_reduce"
  batch_norm_param {
    use_global_stats: true
  }
}
layer {
  name: "scale_conv_3c_double_3x3_reduce"
  type: "Scale"
  bottom: "conv_3c_double_3x3_reduce"
  top: "conv_3c_double_3x3_reduce"
  scale_param {
    bias_term: true
  }
}
layer {
  name: "relu_3c_double_3x3_reduce"
  type: "ReLU"
  bottom: "conv_3c_double_3x3_reduce"
  top: "conv_3c_double_3x3_reduce"
}
layer {
  name: "conv_3c_double_3x3_0"
  type: "Convolution"
  bottom: "conv_3c_double_3x3_reduce"
  top: "conv_3c_double_3x3_0"
  convolution_param {
    num_output: 144
    pad: 1
    kernel_size: 3
    stride: 1
  }
}
layer {
  name: "bn_3c_double_3x3_0"
  type: "BatchNorm"
  bottom: "conv_3c_double_3x3_0"
  top: "conv_3c_double_3x3_0"
  batch_norm_param {
    use_global_stats: true
  }
}
layer {
  name: "scale_conv_3c_double_3x3_0"
  type: "Scale"
  bottom: "conv_3c_double_3x3_0"
  top: "conv_3c_double_3x3_0"
  scale_param {
    bias_term: true
  }
}
layer {
  name: "relu_3c_double_3x3_0"
  type: "ReLU"
  bottom: "conv_3c_double_3x3_0"
  top: "conv_3c_double_3x3_0"
}
layer {
  name: "conv_3c_double_3x3_1"
  type: "Convolution"
  bottom: "conv_3c_double_3x3_0"
  top: "conv_3c_double_3x3_1"
  convolution_param {
    num_output: 144
    pad: 1
    kernel_size: 3
    stride: 2
  }
}
layer {
  name: "bn_3c_double_3x3_1"
  type: "BatchNorm"
  bottom: "conv_3c_double_3x3_1"
  top: "conv_3c_double_3x3_1"
  batch_norm_param {
    use_global_stats: true
  }
}
layer {
  name: "scale_conv_3c_double_3x3_1"
  type: "Scale"
  bottom: "conv_3c_double_3x3_1"
  top: "conv_3c_double_3x3_1"
  scale_param {
    bias_term: true
  }
}
layer {
  name: "relu_3c_double_3x3_1"
  type: "ReLU"
  bottom: "conv_3c_double_3x3_1"
  top: "conv_3c_double_3x3_1"
}
layer {
  name: "max_pool_3c_pool"
  type: "Pooling"
  bottom: "ch_concat_3b_chconcat"
  top: "max_pool_3c_pool"
  pooling_param {
    pool: MAX
    kernel_size: 3
    stride: 2
    pad: 0
  }
}
layer {
  name: "ch_concat_3c_chconcat"
  type: "Concat"
  bottom: "conv_3c_3x3"
  bottom: "conv_3c_double_3x3_1"
  bottom: "max_pool_3c_pool"
  top: "ch_concat_3c_chconcat"
}
layer {
  name: "conv_4a_1x1"
  type: "Convolution"
  bottom: "ch_concat_3c_chconcat"
  top: "conv_4a_1x1"
  convolution_param {
    num_output: 224
    pad: 0
    kernel_size: 1
    stride: 1
  }
}
layer {
  name: "bn_4a_1x1"
  type: "BatchNorm"
  bottom: "conv_4a_1x1"
  top: "conv_4a_1x1"
  batch_norm_param {
    use_global_stats: true
  }
}
layer {
  name: "scale_conv_4a_1x1"
  type: "Scale"
  bottom: "conv_4a_1x1"
  top: "conv_4a_1x1"
  scale_param {
    bias_term: true
  }
}
layer {
  name: "relu_4a_1x1"
  type: "ReLU"
  bottom: "conv_4a_1x1"
  top: "conv_4a_1x1"
}
layer {
  name: "conv_4a_3x3_reduce"
  type: "Convolution"
  bottom: "ch_concat_3c_chconcat"
  top: "conv_4a_3x3_reduce"
  convolution_param {
    num_output: 64
    pad: 0
    kernel_size: 1
    stride: 1
  }
}
layer {
  name: "bn_4a_3x3_reduce"
  type: "BatchNorm"
  bottom: "conv_4a_3x3_reduce"
  top: "conv_4a_3x3_reduce"
  batch_norm_param {
    use_global_stats: true
  }
}
layer {
  name: "scale_conv_4a_3x3_reduce"
  type: "Scale"
  bottom: "conv_4a_3x3_reduce"
  top: "conv_4a_3x3_reduce"
  scale_param {
    bias_term: true
  }
}
layer {
  name: "relu_4a_3x3_reduce"
  type: "ReLU"
  bottom: "conv_4a_3x3_reduce"
  top: "conv_4a_3x3_reduce"
}
layer {
  name: "conv_4a_3x3"
  type: "Convolution"
  bottom: "conv_4a_3x3_reduce"
  top: "conv_4a_3x3"
  convolution_param {
    num_output: 96
    pad: 1
    kernel_size: 3
    stride: 1
  }
}
layer {
  name: "bn_4a_3x3"
  type: "BatchNorm"
  bottom: "conv_4a_3x3"
  top: "conv_4a_3x3"
  batch_norm_param {
    use_global_stats: true
  }
}
layer {
  name: "scale_conv_4a_3x3"
  type: "Scale"
  bottom: "conv_4a_3x3"
  top: "conv_4a_3x3"
  scale_param {
    bias_term: true
  }
}
layer {
  name: "relu_4a_3x3"
  type: "ReLU"
  bottom: "conv_4a_3x3"
  top: "conv_4a_3x3"
}
layer {
  name: "conv_4a_double_3x3_reduce"
  type: "Convolution"
  bottom: "ch_concat_3c_chconcat"
  top: "conv_4a_double_3x3_reduce"
  convolution_param {
    num_output: 96
    pad: 0
    kernel_size: 1
    stride: 1
  }
}
layer {
  name: "bn_4a_double_3x3_reduce"
  type: "BatchNorm"
  bottom: "conv_4a_double_3x3_reduce"
  top: "conv_4a_double_3x3_reduce"
  batch_norm_param {
    use_global_stats: true
  }
}
layer {
  name: "scale_conv_4a_double_3x3_reduce"
  type: "Scale"
  bottom: "conv_4a_double_3x3_reduce"
  top: "conv_4a_double_3x3_reduce"
  scale_param {
    bias_term: true
  }
}
layer {
  name: "relu_4a_double_3x3_reduce"
  type: "ReLU"
  bottom: "conv_4a_double_3x3_reduce"
  top: "conv_4a_double_3x3_reduce"
}
layer {
  name: "conv_4a_double_3x3_0"
  type: "Convolution"
  bottom: "conv_4a_double_3x3_reduce"
  top: "conv_4a_double_3x3_0"
  convolution_param {
    num_output: 128
    pad: 1
    kernel_size: 3
    stride: 1
  }
}
layer {
  name: "bn_4a_double_3x3_0"
  type: "BatchNorm"
  bottom: "conv_4a_double_3x3_0"
  top: "conv_4a_double_3x3_0"
  batch_norm_param {
    use_global_stats: true
  }
}
layer {
  name: "scale_conv_4a_double_3x3_0"
  type: "Scale"
  bottom: "conv_4a_double_3x3_0"
  top: "conv_4a_double_3x3_0"
  scale_param {
    bias_term: true
  }
}
layer {
  name: "relu_4a_double_3x3_0"
  type: "ReLU"
  bottom: "conv_4a_double_3x3_0"
  top: "conv_4a_double_3x3_0"
}
layer {
  name: "conv_4a_double_3x3_1"
  type: "Convolution"
  bottom: "conv_4a_double_3x3_0"
  top: "conv_4a_double_3x3_1"
  convolution_param {
    num_output: 128
    pad: 1
    kernel_size: 3
    stride: 1
  }
}
layer {
  name: "bn_4a_double_3x3_1"
  type: "BatchNorm"
  bottom: "conv_4a_double_3x3_1"
  top: "conv_4a_double_3x3_1"
  batch_norm_param {
    use_global_stats: true
  }
}
layer {
  name: "scale_conv_4a_double_3x3_1"
  type: "Scale"
  bottom: "conv_4a_double_3x3_1"
  top: "conv_4a_double_3x3_1"
  scale_param {
    bias_term: true
  }
}
layer {
  name: "relu_4a_double_3x3_1"
  type: "ReLU"
  bottom: "conv_4a_double_3x3_1"
  top: "conv_4a_double_3x3_1"
}
layer {
  name: "ave_pool_4a_pool"
  type: "Pooling"
  bottom: "ch_concat_3c_chconcat"
  top: "ave_pool_4a_pool"
  pooling_param {
    pool: AVE
    kernel_size: 3
    stride: 1
    pad: 1
  }
}
layer {
  name: "conv_4a_proj"
  type: "Convolution"
  bottom: "ave_pool_4a_pool"
  top: "conv_4a_proj"
  convolution_param {
    num_output: 128
    pad: 0
    kernel_size: 1
    stride: 1
  }
}
layer {
  name: "bn_4a_proj"
  type: "BatchNorm"
  bottom: "conv_4a_proj"
  top: "conv_4a_proj"
  batch_norm_param {
    use_global_stats: true
  }
}
layer {
  name: "scale_conv_4a_proj"
  type: "Scale"
  bottom: "conv_4a_proj"
  top: "conv_4a_proj"
  scale_param {
    bias_term: true
  }
}
layer {
  name: "relu_4a_proj"
  type: "ReLU"
  bottom: "conv_4a_proj"
  top: "conv_4a_proj"
}
layer {
  name: "ch_concat_4a_chconcat"
  type: "Concat"
  bottom: "conv_4a_1x1"
  bottom: "conv_4a_3x3"
  bottom: "conv_4a_double_3x3_1"
  bottom: "conv_4a_proj"
  top: "ch_concat_4a_chconcat"
}
layer {
  name: "conv_4b_1x1"
  type: "Convolution"
  bottom: "ch_concat_4a_chconcat"
  top: "conv_4b_1x1"
  convolution_param {
    num_output: 192
    pad: 0
    kernel_size: 1
    stride: 1
  }
}
layer {
  name: "bn_4b_1x1"
  type: "BatchNorm"
  bottom: "conv_4b_1x1"
  top: "conv_4b_1x1"
  batch_norm_param {
    use_global_stats: true
  }
}
layer {
  name: "scale_conv_4b_1x1"
  type: "Scale"
  bottom: "conv_4b_1x1"
  top: "conv_4b_1x1"
  scale_param {
    bias_term: true
  }
}
layer {
  name: "relu_4b_1x1"
  type: "ReLU"
  bottom: "conv_4b_1x1"
  top: "conv_4b_1x1"
}
layer {
  name: "conv_4b_3x3_reduce"
  type: "Convolution"
  bottom: "ch_concat_4a_chconcat"
  top: "conv_4b_3x3_reduce"
  convolution_param {
    num_output: 96
    pad: 0
    kernel_size: 1
    stride: 1
  }
}
layer {
  name: "bn_4b_3x3_reduce"
  type: "BatchNorm"
  bottom: "conv_4b_3x3_reduce"
  top: "conv_4b_3x3_reduce"
  batch_norm_param {
    use_global_stats: true
  }
}
layer {
  name: "scale_conv_4b_3x3_reduce"
  type: "Scale"
  bottom: "conv_4b_3x3_reduce"
  top: "conv_4b_3x3_reduce"
  scale_param {
    bias_term: true
  }
}
layer {
  name: "relu_4b_3x3_reduce"
  type: "ReLU"
  bottom: "conv_4b_3x3_reduce"
  top: "conv_4b_3x3_reduce"
}
layer {
  name: "conv_4b_3x3"
  type: "Convolution"
  bottom: "conv_4b_3x3_reduce"
  top: "conv_4b_3x3"
  convolution_param {
    num_output: 128
    pad: 1
    kernel_size: 3
    stride: 1
  }
}
layer {
  name: "bn_4b_3x3"
  type: "BatchNorm"
  bottom: "conv_4b_3x3"
  top: "conv_4b_3x3"
  batch_norm_param {
    use_global_stats: true
  }
}
layer {
  name: "scale_conv_4b_3x3"
  type: "Scale"
  bottom: "conv_4b_3x3"
  top: "conv_4b_3x3"
  scale_param {
    bias_term: true
  }
}
layer {
  name: "relu_4b_3x3"
  type: "ReLU"
  bottom: "conv_4b_3x3"
  top: "conv_4b_3x3"
}
layer {
  name: "conv_4b_double_3x3_reduce"
  type: "Convolution"
  bottom: "ch_concat_4a_chconcat"
  top: "conv_4b_double_3x3_reduce"
  convolution_param {
    num_output: 96
    pad: 0
    kernel_size: 1
    stride: 1
  }
}
layer {
  name: "bn_4b_double_3x3_reduce"
  type: "BatchNorm"
  bottom: "conv_4b_double_3x3_reduce"
  top: "conv_4b_double_3x3_reduce"
  batch_norm_param {
    use_global_stats: true
  }
}
layer {
  name: "scale_conv_4b_double_3x3_reduce"
  type: "Scale"
  bottom: "conv_4b_double_3x3_reduce"
  top: "conv_4b_double_3x3_reduce"
  scale_param {
    bias_term: true
  }
}
layer {
  name: "relu_4b_double_3x3_reduce"
  type: "ReLU"
  bottom: "conv_4b_double_3x3_reduce"
  top: "conv_4b_double_3x3_reduce"
}
layer {
  name: "conv_4b_double_3x3_0"
  type: "Convolution"
  bottom: "conv_4b_double_3x3_reduce"
  top: "conv_4b_double_3x3_0"
  convolution_param {
    num_output: 128
    pad: 1
    kernel_size: 3
    stride: 1
  }
}
layer {
  name: "bn_4b_double_3x3_0"
  type: "BatchNorm"
  bottom: "conv_4b_double_3x3_0"
  top: "conv_4b_double_3x3_0"
  batch_norm_param {
    use_global_stats: true
  }
}
layer {
  name: "scale_conv_4b_double_3x3_0"
  type: "Scale"
  bottom: "conv_4b_double_3x3_0"
  top: "conv_4b_double_3x3_0"
  scale_param {
    bias_term: true
  }
}
layer {
  name: "relu_4b_double_3x3_0"
  type: "ReLU"
  bottom: "conv_4b_double_3x3_0"
  top: "conv_4b_double_3x3_0"
}
layer {
  name: "conv_4b_double_3x3_1"
  type: "Convolution"
  bottom: "conv_4b_double_3x3_0"
  top: "conv_4b_double_3x3_1"
  convolution_param {
    num_output: 128
    pad: 1
    kernel_size: 3
    stride: 1
  }
}
layer {
  name: "bn_4b_double_3x3_1"
  type: "BatchNorm"
  bottom: "conv_4b_double_3x3_1"
  top: "conv_4b_double_3x3_1"
  batch_norm_param {
    use_global_stats: true
  }
}
layer {
  name: "scale_conv_4b_double_3x3_1"
  type: "Scale"
  bottom: "conv_4b_double_3x3_1"
  top: "conv_4b_double_3x3_1"
  scale_param {
    bias_term: true
  }
}
layer {
  name: "relu_4b_double_3x3_1"
  type: "ReLU"
  bottom: "conv_4b_double_3x3_1"
  top: "conv_4b_double_3x3_1"
}
layer {
  name: "ave_pool_4b_pool"
  type: "Pooling"
  bottom: "ch_concat_4a_chconcat"
  top: "ave_pool_4b_pool"
  pooling_param {
    pool: AVE
    kernel_size: 3
    stride: 1
    pad: 1
  }
}
layer {
  name: "conv_4b_proj"
  type: "Convolution"
  bottom: "ave_pool_4b_pool"
  top: "conv_4b_proj"
  convolution_param {
    num_output: 128
    pad: 0
    kernel_size: 1
    stride: 1
  }
}
layer {
  name: "bn_4b_proj"
  type: "BatchNorm"
  bottom: "conv_4b_proj"
  top: "conv_4b_proj"
  batch_norm_param {
    use_global_stats: true
  }
}
layer {
  name: "scale_conv_4b_proj"
  type: "Scale"
  bottom: "conv_4b_proj"
  top: "conv_4b_proj"
  scale_param {
    bias_term: true
  }
}
layer {
  name: "relu_4b_proj"
  type: "ReLU"
  bottom: "conv_4b_proj"
  top: "conv_4b_proj"
}
layer {
  name: "ch_concat_4b_chconcat"
  type: "Concat"
  bottom: "conv_4b_1x1"
  bottom: "conv_4b_3x3"
  bottom: "conv_4b_double_3x3_1"
  bottom: "conv_4b_proj"
  top: "ch_concat_4b_chconcat"
}
layer {
  name: "conv_4c_1x1"
  type: "Convolution"
  bottom: "ch_concat_4b_chconcat"
  top: "conv_4c_1x1"
  convolution_param {
    num_output: 160
    pad: 0
    kernel_size: 1
    stride: 1
  }
}
layer {
  name: "bn_4c_1x1"
  type: "BatchNorm"
  bottom: "conv_4c_1x1"
  top: "conv_4c_1x1"
  batch_norm_param {
    use_global_stats: true
  }
}
layer {
  name: "scale_conv_4c_1x1"
  type: "Scale"
  bottom: "conv_4c_1x1"
  top: "conv_4c_1x1"
  scale_param {
    bias_term: true
  }
}
layer {
  name: "relu_4c_1x1"
  type: "ReLU"
  bottom: "conv_4c_1x1"
  top: "conv_4c_1x1"
}
layer {
  name: "conv_4c_3x3_reduce"
  type: "Convolution"
  bottom: "ch_concat_4b_chconcat"
  top: "conv_4c_3x3_reduce"
  convolution_param {
    num_output: 128
    pad: 0
    kernel_size: 1
    stride: 1
  }
}
layer {
  name: "bn_4c_3x3_reduce"
  type: "BatchNorm"
  bottom: "conv_4c_3x3_reduce"
  top: "conv_4c_3x3_reduce"
  batch_norm_param {
    use_global_stats: true
  }
}
layer {
  name: "scale_conv_4c_3x3_reduce"
  type: "Scale"
  bottom: "conv_4c_3x3_reduce"
  top: "conv_4c_3x3_reduce"
  scale_param {
    bias_term: true
  }
}
layer {
  name: "relu_4c_3x3_reduce"
  type: "ReLU"
  bottom: "conv_4c_3x3_reduce"
  top: "conv_4c_3x3_reduce"
}
layer {
  name: "conv_4c_3x3"
  type: "Convolution"
  bottom: "conv_4c_3x3_reduce"
  top: "conv_4c_3x3"
  convolution_param {
    num_output: 160
    pad: 1
    kernel_size: 3
    stride: 1
  }
}
layer {
  name: "bn_4c_3x3"
  type: "BatchNorm"
  bottom: "conv_4c_3x3"
  top: "conv_4c_3x3"
  batch_norm_param {
    use_global_stats: true
  }
}
layer {
  name: "scale_conv_4c_3x3"
  type: "Scale"
  bottom: "conv_4c_3x3"
  top: "conv_4c_3x3"
  scale_param {
    bias_term: true
  }
}
layer {
  name: "relu_4c_3x3"
  type: "ReLU"
  bottom: "conv_4c_3x3"
  top: "conv_4c_3x3"
}
layer {
  name: "conv_4c_double_3x3_reduce"
  type: "Convolution"
  bottom: "ch_concat_4b_chconcat"
  top: "conv_4c_double_3x3_reduce"
  convolution_param {
    num_output: 128
    pad: 0
    kernel_size: 1
    stride: 1
  }
}
layer {
  name: "bn_4c_double_3x3_reduce"
  type: "BatchNorm"
  bottom: "conv_4c_double_3x3_reduce"
  top: "conv_4c_double_3x3_reduce"
  batch_norm_param {
    use_global_stats: true
  }
}
layer {
  name: "scale_conv_4c_double_3x3_reduce"
  type: "Scale"
  bottom: "conv_4c_double_3x3_reduce"
  top: "conv_4c_double_3x3_reduce"
  scale_param {
    bias_term: true
  }
}
layer {
  name: "relu_4c_double_3x3_reduce"
  type: "ReLU"
  bottom: "conv_4c_double_3x3_reduce"
  top: "conv_4c_double_3x3_reduce"
}
layer {
  name: "conv_4c_double_3x3_0"
  type: "Convolution"
  bottom: "conv_4c_double_3x3_reduce"
  top: "conv_4c_double_3x3_0"
  convolution_param {
    num_output: 160
    pad: 1
    kernel_size: 3
    stride: 1
  }
}
layer {
  name: "bn_4c_double_3x3_0"
  type: "BatchNorm"
  bottom: "conv_4c_double_3x3_0"
  top: "conv_4c_double_3x3_0"
  batch_norm_param {
    use_global_stats: true
  }
}
layer {
  name: "scale_conv_4c_double_3x3_0"
  type: "Scale"
  bottom: "conv_4c_double_3x3_0"
  top: "conv_4c_double_3x3_0"
  scale_param {
    bias_term: true
  }
}
layer {
  name: "relu_4c_double_3x3_0"
  type: "ReLU"
  bottom: "conv_4c_double_3x3_0"
  top: "conv_4c_double_3x3_0"
}
layer {
  name: "conv_4c_double_3x3_1"
  type: "Convolution"
  bottom: "conv_4c_double_3x3_0"
  top: "conv_4c_double_3x3_1"
  convolution_param {
    num_output: 160
    pad: 1
    kernel_size: 3
    stride: 1
  }
}
layer {
  name: "bn_4c_double_3x3_1"
  type: "BatchNorm"
  bottom: "conv_4c_double_3x3_1"
  top: "conv_4c_double_3x3_1"
  batch_norm_param {
    use_global_stats: true
  }
}
layer {
  name: "scale_conv_4c_double_3x3_1"
  type: "Scale"
  bottom: "conv_4c_double_3x3_1"
  top: "conv_4c_double_3x3_1"
  scale_param {
    bias_term: true
  }
}
layer {
  name: "relu_4c_double_3x3_1"
  type: "ReLU"
  bottom: "conv_4c_double_3x3_1"
  top: "conv_4c_double_3x3_1"
}
layer {
  name: "ave_pool_4c_pool"
  type: "Pooling"
  bottom: "ch_concat_4b_chconcat"
  top: "ave_pool_4c_pool"
  pooling_param {
    pool: AVE
    kernel_size: 3
    stride: 1
    pad: 1
  }
}
layer {
  name: "conv_4c_proj"
  type: "Convolution"
  bottom: "ave_pool_4c_pool"
  top: "conv_4c_proj"
  convolution_param {
    num_output: 128
    pad: 0
    kernel_size: 1
    stride: 1
  }
}
layer {
  name: "bn_4c_proj"
  type: "BatchNorm"
  bottom: "conv_4c_proj"
  top: "conv_4c_proj"
  batch_norm_param {
    use_global_s
I1214 22:59:47.050081  5289 layer_factory.hpp:77] Creating layer data_train
I1214 22:59:47.050137  5289 net.cpp:100] Creating Layer data_train
I1214 22:59:47.050163  5289 net.cpp:408] data_train -> data
I1214 22:59:47.050217  5289 net.cpp:408] data_train -> label
I1214 22:59:47.050253  5289 image_data_layer.cpp:38] Opening file ../fer2013/list_train.txt
I1214 22:59:47.057569  5289 image_data_layer.cpp:53] Shuffling data
I1214 22:59:47.059986  5289 image_data_layer.cpp:58] A total of 35887 images.
I1214 22:59:47.075547  5289 image_data_layer.cpp:85] output data size: 60,3,224,224
I1214 22:59:47.149863  5289 net.cpp:150] Setting up data_train
I1214 22:59:47.149937  5289 net.cpp:157] Top shape: 60 3 224 224 (9031680)
I1214 22:59:47.149956  5289 net.cpp:157] Top shape: 60 (60)
I1214 22:59:47.149968  5289 net.cpp:165] Memory required for data: 36126960
I1214 22:59:47.149991  5289 layer_factory.hpp:77] Creating layer conv_conv1
I1214 22:59:47.150044  5289 net.cpp:100] Creating Layer conv_conv1
I1214 22:59:47.150063  5289 net.cpp:434] conv_conv1 <- data
I1214 22:59:47.150095  5289 net.cpp:408] conv_conv1 -> conv_conv1
I1214 22:59:47.151098  5289 net.cpp:150] Setting up conv_conv1
I1214 22:59:47.151130  5289 net.cpp:157] Top shape: 60 96 112 112 (72253440)
I1214 22:59:47.151144  5289 net.cpp:165] Memory required for data: 325140720
I1214 22:59:47.151185  5289 layer_factory.hpp:77] Creating layer bn_conv1
I1214 22:59:47.151211  5289 net.cpp:100] Creating Layer bn_conv1
I1214 22:59:47.151226  5289 net.cpp:434] bn_conv1 <- conv_conv1
I1214 22:59:47.151242  5289 net.cpp:395] bn_conv1 -> conv_conv1 (in-place)
I1214 22:59:47.151567  5289 net.cpp:150] Setting up bn_conv1
I1214 22:59:47.151594  5289 net.cpp:157] Top shape: 60 96 112 112 (72253440)
I1214 22:59:47.151607  5289 net.cpp:165] Memory required for data: 614154480
I1214 22:59:47.151631  5289 layer_factory.hpp:77] Creating layer scale_conv_conv1
I1214 22:59:47.151653  5289 net.cpp:100] Creating Layer scale_conv_conv1
I1214 22:59:47.151679  5289 net.cpp:434] scale_conv_conv1 <- conv_conv1
I1214 22:59:47.151695  5289 net.cpp:395] scale_conv_conv1 -> conv_conv1 (in-place)
I1214 22:59:47.151764  5289 layer_factory.hpp:77] Creating layer scale_conv_conv1
I1214 22:59:47.151927  5289 net.cpp:150] Setting up scale_conv_conv1
I1214 22:59:47.151948  5289 net.cpp:157] Top shape: 60 96 112 112 (72253440)
I1214 22:59:47.151962  5289 net.cpp:165] Memory required for data: 903168240
I1214 22:59:47.151978  5289 layer_factory.hpp:77] Creating layer relu_conv1
I1214 22:59:47.151998  5289 net.cpp:100] Creating Layer relu_conv1
I1214 22:59:47.152010  5289 net.cpp:434] relu_conv1 <- conv_conv1
I1214 22:59:47.152026  5289 net.cpp:395] relu_conv1 -> conv_conv1 (in-place)
I1214 22:59:47.152043  5289 net.cpp:150] Setting up relu_conv1
I1214 22:59:47.152058  5289 net.cpp:157] Top shape: 60 96 112 112 (72253440)
I1214 22:59:47.152070  5289 net.cpp:165] Memory required for data: 1192182000
I1214 22:59:47.152081  5289 layer_factory.hpp:77] Creating layer pool1
I1214 22:59:47.152098  5289 net.cpp:100] Creating Layer pool1
I1214 22:59:47.152110  5289 net.cpp:434] pool1 <- conv_conv1
I1214 22:59:47.152125  5289 net.cpp:408] pool1 -> pool1
I1214 22:59:47.155671  5289 net.cpp:150] Setting up pool1
I1214 22:59:47.155701  5289 net.cpp:157] Top shape: 60 96 56 56 (18063360)
I1214 22:59:47.155727  5289 net.cpp:165] Memory required for data: 1264435440
I1214 22:59:47.155741  5289 layer_factory.hpp:77] Creating layer conv_conv2red
I1214 22:59:47.155763  5289 net.cpp:100] Creating Layer conv_conv2red
I1214 22:59:47.155776  5289 net.cpp:434] conv_conv2red <- pool1
I1214 22:59:47.155792  5289 net.cpp:408] conv_conv2red -> conv_conv2red
I1214 22:59:47.156688  5289 net.cpp:150] Setting up conv_conv2red
I1214 22:59:47.156715  5289 net.cpp:157] Top shape: 60 128 56 56 (24084480)
I1214 22:59:47.156733  5289 net.cpp:165] Memory required for data: 1360773360
I1214 22:59:47.156754  5289 layer_factory.hpp:77] Creating layer bn_conv2red
I1214 22:59:47.156772  5289 net.cpp:100] Creating Layer bn_conv2red
I1214 22:59:47.156785  5289 net.cpp:434] bn_conv2red <- conv_conv2red
I1214 22:59:47.156801  5289 net.cpp:395] bn_conv2red -> conv_conv2red (in-place)
I1214 22:59:47.157017  5289 net.cpp:150] Setting up bn_conv2red
I1214 22:59:47.157039  5289 net.cpp:157] Top shape: 60 128 56 56 (24084480)
I1214 22:59:47.157052  5289 net.cpp:165] Memory required for data: 1457111280
I1214 22:59:47.157069  5289 layer_factory.hpp:77] Creating layer scale_conv_conv2red
I1214 22:59:47.157088  5289 net.cpp:100] Creating Layer scale_conv_conv2red
I1214 22:59:47.157100  5289 net.cpp:434] scale_conv_conv2red <- conv_conv2red
I1214 22:59:47.157119  5289 net.cpp:395] scale_conv_conv2red -> conv_conv2red (in-place)
I1214 22:59:47.157186  5289 layer_factory.hpp:77] Creating layer scale_conv_conv2red
I1214 22:59:47.157322  5289 net.cpp:150] Setting up scale_conv_conv2red
I1214 22:59:47.157346  5289 net.cpp:157] Top shape: 60 128 56 56 (24084480)
I1214 22:59:47.157358  5289 net.cpp:165] Memory required for data: 1553449200
I1214 22:59:47.157374  5289 layer_factory.hpp:77] Creating layer relu_conv2red
I1214 22:59:47.157389  5289 net.cpp:100] Creating Layer relu_conv2red
I1214 22:59:47.157400  5289 net.cpp:434] relu_conv2red <- conv_conv2red
I1214 22:59:47.157415  5289 net.cpp:395] relu_conv2red -> conv_conv2red (in-place)
I1214 22:59:47.157430  5289 net.cpp:150] Setting up relu_conv2red
I1214 22:59:47.157444  5289 net.cpp:157] Top shape: 60 128 56 56 (24084480)
I1214 22:59:47.157456  5289 net.cpp:165] Memory required for data: 1649787120
I1214 22:59:47.157467  5289 layer_factory.hpp:77] Creating layer conv_conv2
I1214 22:59:47.157487  5289 net.cpp:100] Creating Layer conv_conv2
I1214 22:59:47.157500  5289 net.cpp:434] conv_conv2 <- conv_conv2red
I1214 22:59:47.157516  5289 net.cpp:408] conv_conv2 -> conv_conv2
I1214 22:59:47.159365  5289 net.cpp:150] Setting up conv_conv2
I1214 22:59:47.159395  5289 net.cpp:157] Top shape: 60 288 56 56 (54190080)
I1214 22:59:47.159409  5289 net.cpp:165] Memory required for data: 1866547440
I1214 22:59:47.159435  5289 layer_factory.hpp:77] Creating layer bn_conv2
I1214 22:59:47.159452  5289 net.cpp:100] Creating Layer bn_conv2
I1214 22:59:47.159464  5289 net.cpp:434] bn_conv2 <- conv_conv2
I1214 22:59:47.159482  5289 net.cpp:395] bn_conv2 -> conv_conv2 (in-place)
I1214 22:59:47.159711  5289 net.cpp:150] Setting up bn_conv2
I1214 22:59:47.159732  5289 net.cpp:157] Top shape: 60 288 56 56 (54190080)
I1214 22:59:47.159744  5289 net.cpp:165] Memory required for data: 2083307760
I1214 22:59:47.159770  5289 layer_factory.hpp:77] Creating layer scale_conv_conv2
I1214 22:59:47.159788  5289 net.cpp:100] Creating Layer scale_conv_conv2
I1214 22:59:47.159801  5289 net.cpp:434] scale_conv_conv2 <- conv_conv2
I1214 22:59:47.159816  5289 net.cpp:395] scale_conv_conv2 -> conv_conv2 (in-place)
I1214 22:59:47.159875  5289 layer_factory.hpp:77] Creating layer scale_conv_conv2
I1214 22:59:47.160022  5289 net.cpp:150] Setting up scale_conv_conv2
I1214 22:59:47.160044  5289 net.cpp:157] Top shape: 60 288 56 56 (54190080)
I1214 22:59:47.160056  5289 net.cpp:165] Memory required for data: 2300068080
I1214 22:59:47.160073  5289 layer_factory.hpp:77] Creating layer relu_conv2
I1214 22:59:47.160090  5289 net.cpp:100] Creating Layer relu_conv2
I1214 22:59:47.160104  5289 net.cpp:434] relu_conv2 <- conv_conv2
I1214 22:59:47.160120  5289 net.cpp:395] relu_conv2 -> conv_conv2 (in-place)
I1214 22:59:47.160136  5289 net.cpp:150] Setting up relu_conv2
I1214 22:59:47.160151  5289 net.cpp:157] Top shape: 60 288 56 56 (54190080)
I1214 22:59:47.160162  5289 net.cpp:165] Memory required for data: 2516828400
I1214 22:59:47.160173  5289 layer_factory.hpp:77] Creating layer pool2
I1214 22:59:47.160194  5289 net.cpp:100] Creating Layer pool2
I1214 22:59:47.160207  5289 net.cpp:434] pool2 <- conv_conv2
I1214 22:59:47.160226  5289 net.cpp:408] pool2 -> pool2
I1214 22:59:47.160279  5289 net.cpp:150] Setting up pool2
I1214 22:59:47.160297  5289 net.cpp:157] Top shape: 60 288 28 28 (13547520)
I1214 22:59:47.160310  5289 net.cpp:165] Memory required for data: 2571018480
I1214 22:59:47.160320  5289 layer_factory.hpp:77] Creating layer pool2_pool2_0_split
I1214 22:59:47.160359  5289 net.cpp:100] Creating Layer pool2_pool2_0_split
I1214 22:59:47.160372  5289 net.cpp:434] pool2_pool2_0_split <- pool2
I1214 22:59:47.160387  5289 net.cpp:408] pool2_pool2_0_split -> pool2_pool2_0_split_0
I1214 22:59:47.160405  5289 net.cpp:408] pool2_pool2_0_split -> pool2_pool2_0_split_1
I1214 22:59:47.160425  5289 net.cpp:408] pool2_pool2_0_split -> pool2_pool2_0_split_2
I1214 22:59:47.160444  5289 net.cpp:408] pool2_pool2_0_split -> pool2_pool2_0_split_3
I1214 22:59:47.160518  5289 net.cpp:150] Setting up pool2_pool2_0_split
I1214 22:59:47.160537  5289 net.cpp:157] Top shape: 60 288 28 28 (13547520)
I1214 22:59:47.160552  5289 net.cpp:157] Top shape: 60 288 28 28 (13547520)
I1214 22:59:47.160565  5289 net.cpp:157] Top shape: 60 288 28 28 (13547520)
I1214 22:59:47.160578  5289 net.cpp:157] Top shape: 60 288 28 28 (13547520)
I1214 22:59:47.160589  5289 net.cpp:165] Memory required for data: 2787778800
I1214 22:59:47.160600  5289 layer_factory.hpp:77] Creating layer conv_3a_1x1
I1214 22:59:47.160624  5289 net.cpp:100] Creating Layer conv_3a_1x1
I1214 22:59:47.160637  5289 net.cpp:434] conv_3a_1x1 <- pool2_pool2_0_split_0
I1214 22:59:47.160658  5289 net.cpp:408] conv_3a_1x1 -> conv_3a_1x1
I1214 22:59:47.161571  5289 net.cpp:150] Setting up conv_3a_1x1
I1214 22:59:47.161595  5289 net.cpp:157] Top shape: 60 96 28 28 (4515840)
I1214 22:59:47.161608  5289 net.cpp:165] Memory required for data: 2805842160
I1214 22:59:47.161624  5289 layer_factory.hpp:77] Creating layer bn_3a_1x1
I1214 22:59:47.161640  5289 net.cpp:100] Creating Layer bn_3a_1x1
I1214 22:59:47.161653  5289 net.cpp:434] bn_3a_1x1 <- conv_3a_1x1
I1214 22:59:47.161670  5289 net.cpp:395] bn_3a_1x1 -> conv_3a_1x1 (in-place)
I1214 22:59:47.161901  5289 net.cpp:150] Setting up bn_3a_1x1
I1214 22:59:47.161926  5289 net.cpp:157] Top shape: 60 96 28 28 (4515840)
I1214 22:59:47.161937  5289 net.cpp:165] Memory required for data: 2823905520
I1214 22:59:47.161963  5289 layer_factory.hpp:77] Creating layer scale_conv_3a_1x1
I1214 22:59:47.161980  5289 net.cpp:100] Creating Layer scale_conv_3a_1x1
I1214 22:59:47.161993  5289 net.cpp:434] scale_conv_3a_1x1 <- conv_3a_1x1
I1214 22:59:47.162010  5289 net.cpp:395] scale_conv_3a_1x1 -> conv_3a_1x1 (in-place)
I1214 22:59:47.162063  5289 layer_factory.hpp:77] Creating layer scale_conv_3a_1x1
I1214 22:59:47.162230  5289 net.cpp:150] Setting up scale_conv_3a_1x1
I1214 22:59:47.162256  5289 net.cpp:157] Top shape: 60 96 28 28 (4515840)
I1214 22:59:47.162269  5289 net.cpp:165] Memory required for data: 2841968880
I1214 22:59:47.162287  5289 layer_factory.hpp:77] Creating layer relu_3a_1x1
I1214 22:59:47.162304  5289 net.cpp:100] Creating Layer relu_3a_1x1
I1214 22:59:47.162317  5289 net.cpp:434] relu_3a_1x1 <- conv_3a_1x1
I1214 22:59:47.162335  5289 net.cpp:395] relu_3a_1x1 -> conv_3a_1x1 (in-place)
I1214 22:59:47.162353  5289 net.cpp:150] Setting up relu_3a_1x1
I1214 22:59:47.162367  5289 net.cpp:157] Top shape: 60 96 28 28 (4515840)
I1214 22:59:47.162379  5289 net.cpp:165] Memory required for data: 2860032240
I1214 22:59:47.162391  5289 layer_factory.hpp:77] Creating layer conv_3a_3x3_reduce
I1214 22:59:47.162410  5289 net.cpp:100] Creating Layer conv_3a_3x3_reduce
I1214 22:59:47.162425  5289 net.cpp:434] conv_3a_3x3_reduce <- pool2_pool2_0_split_1
I1214 22:59:47.162441  5289 net.cpp:408] conv_3a_3x3_reduce -> conv_3a_3x3_reduce
I1214 22:59:47.162739  5289 net.cpp:150] Setting up conv_3a_3x3_reduce
I1214 22:59:47.162765  5289 net.cpp:157] Top shape: 60 96 28 28 (4515840)
I1214 22:59:47.162776  5289 net.cpp:165] Memory required for data: 2878095600
I1214 22:59:47.162793  5289 layer_factory.hpp:77] Creating layer bn_3a_3x3_reduce
I1214 22:59:47.162814  5289 net.cpp:100] Creating Layer bn_3a_3x3_reduce
I1214 22:59:47.162827  5289 net.cpp:434] bn_3a_3x3_reduce <- conv_3a_3x3_reduce
I1214 22:59:47.162843  5289 net.cpp:395] bn_3a_3x3_reduce -> conv_3a_3x3_reduce (in-place)
I1214 22:59:47.163065  5289 net.cpp:150] Setting up bn_3a_3x3_reduce
I1214 22:59:47.163089  5289 net.cpp:157] Top shape: 60 96 28 28 (4515840)
I1214 22:59:47.163100  5289 net.cpp:165] Memory required for data: 2896158960
I1214 22:59:47.163125  5289 layer_factory.hpp:77] Creating layer scale_conv_3a_3x3_reduce
I1214 22:59:47.163142  5289 net.cpp:100] Creating Layer scale_conv_3a_3x3_reduce
I1214 22:59:47.163158  5289 net.cpp:434] scale_conv_3a_3x3_reduce <- conv_3a_3x3_reduce
I1214 22:59:47.163172  5289 net.cpp:395] scale_conv_3a_3x3_reduce -> conv_3a_3x3_reduce (in-place)
I1214 22:59:47.163260  5289 layer_factory.hpp:77] Creating layer scale_conv_3a_3x3_reduce
I1214 22:59:47.163413  5289 net.cpp:150] Setting up scale_conv_3a_3x3_reduce
I1214 22:59:47.163435  5289 net.cpp:157] Top shape: 60 96 28 28 (4515840)
I1214 22:59:47.163449  5289 net.cpp:165] Memory required for data: 2914222320
I1214 22:59:47.163465  5289 layer_factory.hpp:77] Creating layer relu_3a_3x3_reduce
I1214 22:59:47.163485  5289 net.cpp:100] Creating Layer relu_3a_3x3_reduce
I1214 22:59:47.163511  5289 net.cpp:434] relu_3a_3x3_reduce <- conv_3a_3x3_reduce
I1214 22:59:47.163525  5289 net.cpp:395] relu_3a_3x3_reduce -> conv_3a_3x3_reduce (in-place)
I1214 22:59:47.163540  5289 net.cpp:150] Setting up relu_3a_3x3_reduce
I1214 22:59:47.163554  5289 net.cpp:157] Top shape: 60 96 28 28 (4515840)
I1214 22:59:47.163566  5289 net.cpp:165] Memory required for data: 2932285680
I1214 22:59:47.163578  5289 layer_factory.hpp:77] Creating layer conv_3a_3x3
I1214 22:59:47.163597  5289 net.cpp:100] Creating Layer conv_3a_3x3
I1214 22:59:47.163610  5289 net.cpp:434] conv_3a_3x3 <- conv_3a_3x3_reduce
I1214 22:59:47.163625  5289 net.cpp:408] conv_3a_3x3 -> conv_3a_3x3
I1214 22:59:47.164600  5289 net.cpp:150] Setting up conv_3a_3x3
I1214 22:59:47.164628  5289 net.cpp:157] Top shape: 60 96 28 28 (4515840)
I1214 22:59:47.164639  5289 net.cpp:165] Memory required for data: 2950349040
I1214 22:59:47.164654  5289 layer_factory.hpp:77] Creating layer bn_3a_3x3
I1214 22:59:47.164674  5289 net.cpp:100] Creating Layer bn_3a_3x3
I1214 22:59:47.164695  5289 net.cpp:434] bn_3a_3x3 <- conv_3a_3x3
I1214 22:59:47.164723  5289 net.cpp:395] bn_3a_3x3 -> conv_3a_3x3 (in-place)
I1214 22:59:47.164957  5289 net.cpp:150] Setting up bn_3a_3x3
I1214 22:59:47.164981  5289 net.cpp:157] Top shape: 60 96 28 28 (4515840)
I1214 22:59:47.164994  5289 net.cpp:165] Memory required for data: 2968412400
I1214 22:59:47.165024  5289 layer_factory.hpp:77] Creating layer scale_conv_3a_3x3
I1214 22:59:47.165040  5289 net.cpp:100] Creating Layer scale_conv_3a_3x3
I1214 22:59:47.165052  5289 net.cpp:434] scale_conv_3a_3x3 <- conv_3a_3x3
I1214 22:59:47.165066  5289 net.cpp:395] scale_conv_3a_3x3 -> conv_3a_3x3 (in-place)
I1214 22:59:47.165125  5289 layer_factory.hpp:77] Creating layer scale_conv_3a_3x3
I1214 22:59:47.165323  5289 net.cpp:150] Setting up scale_conv_3a_3x3
I1214 22:59:47.165347  5289 net.cpp:157] Top shape: 60 96 28 28 (4515840)
I1214 22:59:47.165360  5289 net.cpp:165] Memory required for data: 2986475760
I1214 22:59:47.165375  5289 layer_factory.hpp:77] Creating layer relu_3a_3x3
I1214 22:59:47.165391  5289 net.cpp:100] Creating Layer relu_3a_3x3
I1214 22:59:47.165403  5289 net.cpp:434] relu_3a_3x3 <- conv_3a_3x3
I1214 22:59:47.165422  5289 net.cpp:395] relu_3a_3x3 -> conv_3a_3x3 (in-place)
I1214 22:59:47.165439  5289 net.cpp:150] Setting up relu_3a_3x3
I1214 22:59:47.165455  5289 net.cpp:157] Top shape: 60 96 28 28 (4515840)
I1214 22:59:47.165467  5289 net.cpp:165] Memory required for data: 3004539120
I1214 22:59:47.165478  5289 layer_factory.hpp:77] Creating layer conv_3a_double_3x3_reduce
I1214 22:59:47.165496  5289 net.cpp:100] Creating Layer conv_3a_double_3x3_reduce
I1214 22:59:47.165513  5289 net.cpp:434] conv_3a_double_3x3_reduce <- pool2_pool2_0_split_2
I1214 22:59:47.165529  5289 net.cpp:408] conv_3a_double_3x3_reduce -> conv_3a_double_3x3_reduce
I1214 22:59:47.165820  5289 net.cpp:150] Setting up conv_3a_double_3x3_reduce
I1214 22:59:47.165845  5289 net.cpp:157] Top shape: 60 96 28 28 (4515840)
I1214 22:59:47.165858  5289 net.cpp:165] Memory required for data: 3022602480
I1214 22:59:47.165874  5289 layer_factory.hpp:77] Creating layer bn_3a_double_3x3_reduce
I1214 22:59:47.165892  5289 net.cpp:100] Creating Layer bn_3a_double_3x3_reduce
I1214 22:59:47.165905  5289 net.cpp:434] bn_3a_double_3x3_reduce <- conv_3a_double_3x3_reduce
I1214 22:59:47.165920  5289 net.cpp:395] bn_3a_double_3x3_reduce -> conv_3a_double_3x3_reduce (in-place)
I1214 22:59:47.166146  5289 net.cpp:150] Setting up bn_3a_double_3x3_reduce
I1214 22:59:47.166170  5289 net.cpp:157] Top shape: 60 96 28 28 (4515840)
I1214 22:59:47.166191  5289 net.cpp:165] Memory required for data: 3040665840
I1214 22:59:47.166209  5289 layer_factory.hpp:77] Creating layer scale_conv_3a_double_3x3_reduce
I1214 22:59:47.166225  5289 net.cpp:100] Creating Layer scale_conv_3a_double_3x3_reduce
I1214 22:59:47.166239  5289 net.cpp:434] scale_conv_3a_double_3x3_reduce <- conv_3a_double_3x3_reduce
I1214 22:59:47.166254  5289 net.cpp:395] scale_conv_3a_double_3x3_reduce -> conv_3a_double_3x3_reduce (in-place)
I1214 22:59:47.166311  5289 layer_factory.hpp:77] Creating layer scale_conv_3a_double_3x3_reduce
I1214 22:59:47.166470  5289 net.cpp:150] Setting up scale_conv_3a_double_3x3_reduce
I1214 22:59:47.166493  5289 net.cpp:157] Top shape: 60 96 28 28 (4515840)
I1214 22:59:47.166506  5289 net.cpp:165] Memory required for data: 3058729200
I1214 22:59:47.166522  5289 layer_factory.hpp:77] Creating layer relu_3a_double_3x3_reduce
I1214 22:59:47.166538  5289 net.cpp:100] Creating Layer relu_3a_double_3x3_reduce
I1214 22:59:47.166548  5289 net.cpp:434] relu_3a_double_3x3_reduce <- conv_3a_double_3x3_reduce
I1214 22:59:47.166568  5289 net.cpp:395] relu_3a_double_3x3_reduce -> conv_3a_double_3x3_reduce (in-place)
I1214 22:59:47.166585  5289 net.cpp:150] Setting up relu_3a_double_3x3_reduce
I1214 22:59:47.166600  5289 net.cpp:157] Top shape: 60 96 28 28 (4515840)
I1214 22:59:47.166613  5289 net.cpp:165] Memory required for data: 3076792560
I1214 22:59:47.166625  5289 layer_factory.hpp:77] Creating layer conv_3a_double_3x3_0
I1214 22:59:47.166659  5289 net.cpp:100] Creating Layer conv_3a_double_3x3_0
I1214 22:59:47.166687  5289 net.cpp:434] conv_3a_double_3x3_0 <- conv_3a_double_3x3_reduce
I1214 22:59:47.166703  5289 net.cpp:408] conv_3a_double_3x3_0 -> conv_3a_double_3x3_0
I1214 22:59:47.167058  5289 net.cpp:150] Setting up conv_3a_double_3x3_0
I1214 22:59:47.167086  5289 net.cpp:157] Top shape: 60 144 28 28 (6773760)
I1214 22:59:47.167099  5289 net.cpp:165] Memory required for data: 3103887600
I1214 22:59:47.167116  5289 layer_factory.hpp:77] Creating layer bn_3a_double_3x3_0
I1214 22:59:47.167132  5289 net.cpp:100] Creating Layer bn_3a_double_3x3_0
I1214 22:59:47.167158  5289 net.cpp:434] bn_3a_double_3x3_0 <- conv_3a_double_3x3_0
I1214 22:59:47.167176  5289 net.cpp:395] bn_3a_double_3x3_0 -> conv_3a_double_3x3_0 (in-place)
I1214 22:59:47.167399  5289 net.cpp:150] Setting up bn_3a_double_3x3_0
I1214 22:59:47.167423  5289 net.cpp:157] Top shape: 60 144 28 28 (6773760)
I1214 22:59:47.167448  5289 net.cpp:165] Memory required for data: 3130982640
I1214 22:59:47.167467  5289 layer_factory.hpp:77] Creating layer scale_conv_3a_double_3x3_0
I1214 22:59:47.167487  5289 net.cpp:100] Creating Layer scale_conv_3a_double_3x3_0
I1214 22:59:47.167500  5289 net.cpp:434] scale_conv_3a_double_3x3_0 <- conv_3a_double_3x3_0
I1214 22:59:47.167516  5289 net.cpp:395] scale_conv_3a_double_3x3_0 -> conv_3a_double_3x3_0 (in-place)
I1214 22:59:47.167574  5289 layer_factory.hpp:77] Creating layer scale_conv_3a_double_3x3_0
I1214 22:59:47.167718  5289 net.cpp:150] Setting up scale_conv_3a_double_3x3_0
I1214 22:59:47.167755  5289 net.cpp:157] Top shape: 60 144 28 28 (6773760)
I1214 22:59:47.167768  5289 net.cpp:165] Memory required for data: 3158077680
I1214 22:59:47.167785  5289 layer_factory.hpp:77] Creating layer relu_3a_double_3x3_0
I1214 22:59:47.167804  5289 net.cpp:100] Creating Layer relu_3a_double_3x3_0
I1214 22:59:47.167816  5289 net.cpp:434] relu_3a_double_3x3_0 <- conv_3a_double_3x3_0
I1214 22:59:47.167834  5289 net.cpp:395] relu_3a_double_3x3_0 -> conv_3a_double_3x3_0 (in-place)
I1214 22:59:47.167850  5289 net.cpp:150] Setting up relu_3a_double_3x3_0
I1214 22:59:47.167863  5289 net.cpp:157] Top shape: 60 144 28 28 (6773760)
I1214 22:59:47.167876  5289 net.cpp:165] Memory required for data: 3185172720
I1214 22:59:47.167887  5289 layer_factory.hpp:77] Creating layer conv_3a_double_3x3_1
I1214 22:59:47.167903  5289 net.cpp:100] Creating Layer conv_3a_double_3x3_1
I1214 22:59:47.167929  5289 net.cpp:434] conv_3a_double_3x3_1 <- conv_3a_double_3x3_0
I1214 22:59:47.167949  5289 net.cpp:408] conv_3a_double_3x3_1 -> conv_3a_double_3x3_1
I1214 22:59:47.169024  5289 net.cpp:150] Setting up conv_3a_double_3x3_1
I1214 22:59:47.169054  5289 net.cpp:157] Top shape: 60 144 28 28 (6773760)
I1214 22:59:47.169067  5289 net.cpp:165] Memory required for data: 3212267760
I1214 22:59:47.169085  5289 layer_factory.hpp:77] Creating layer bn_3a_double_3x3_1
I1214 22:59:47.169106  5289 net.cpp:100] Creating Layer bn_3a_double_3x3_1
I1214 22:59:47.169119  5289 net.cpp:434] bn_3a_double_3x3_1 <- conv_3a_double_3x3_1
I1214 22:59:47.169134  5289 net.cpp:395] bn_3a_double_3x3_1 -> conv_3a_double_3x3_1 (in-place)
I1214 22:59:47.169369  5289 net.cpp:150] Setting up bn_3a_double_3x3_1
I1214 22:59:47.169392  5289 net.cpp:157] Top shape: 60 144 28 28 (6773760)
I1214 22:59:47.169404  5289 net.cpp:165] Memory required for data: 3239362800
I1214 22:59:47.169421  5289 layer_factory.hpp:77] Creating layer scale_conv_3a_double_3x3_1
I1214 22:59:47.169437  5289 net.cpp:100] Creating Layer scale_conv_3a_double_3x3_1
I1214 22:59:47.169448  5289 net.cpp:434] scale_conv_3a_double_3x3_1 <- conv_3a_double_3x3_1
I1214 22:59:47.169469  5289 net.cpp:395] scale_conv_3a_double_3x3_1 -> conv_3a_double_3x3_1 (in-place)
I1214 22:59:47.169530  5289 layer_factory.hpp:77] Creating layer scale_conv_3a_double_3x3_1
I1214 22:59:47.169690  5289 net.cpp:150] Setting up scale_conv_3a_double_3x3_1
I1214 22:59:47.169714  5289 net.cpp:157] Top shape: 60 144 28 28 (6773760)
I1214 22:59:47.169726  5289 net.cpp:165] Memory required for data: 3266457840
I1214 22:59:47.169752  5289 layer_factory.hpp:77] Creating layer relu_3a_double_3x3_1
I1214 22:59:47.169769  5289 net.cpp:100] Creating Layer relu_3a_double_3x3_1
I1214 22:59:47.169781  5289 net.cpp:434] relu_3a_double_3x3_1 <- conv_3a_double_3x3_1
I1214 22:59:47.169800  5289 net.cpp:395] relu_3a_double_3x3_1 -> conv_3a_double_3x3_1 (in-place)
I1214 22:59:47.169817  5289 net.cpp:150] Setting up relu_3a_double_3x3_1
I1214 22:59:47.169832  5289 net.cpp:157] Top shape: 60 144 28 28 (6773760)
I1214 22:59:47.169847  5289 net.cpp:165] Memory required for data: 3293552880
I1214 22:59:47.169874  5289 layer_factory.hpp:77] Creating layer ave_pool_3a_pool
I1214 22:59:47.169889  5289 net.cpp:100] Creating Layer ave_pool_3a_pool
I1214 22:59:47.169901  5289 net.cpp:434] ave_pool_3a_pool <- pool2_pool2_0_split_3
I1214 22:59:47.169919  5289 net.cpp:408] ave_pool_3a_pool -> ave_pool_3a_pool
I1214 22:59:47.169958  5289 net.cpp:150] Setting up ave_pool_3a_pool
I1214 22:59:47.169976  5289 net.cpp:157] Top shape: 60 288 28 28 (13547520)
I1214 22:59:47.169987  5289 net.cpp:165] Memory required for data: 3347742960
I1214 22:59:47.169998  5289 layer_factory.hpp:77] Creating layer conv_3a_proj
I1214 22:59:47.170018  5289 net.cpp:100] Creating Layer conv_3a_proj
I1214 22:59:47.170045  5289 net.cpp:434] conv_3a_proj <- ave_pool_3a_pool
I1214 22:59:47.170063  5289 net.cpp:408] conv_3a_proj -> conv_3a_proj
I1214 22:59:47.170361  5289 net.cpp:150] Setting up conv_3a_proj
I1214 22:59:47.170387  5289 net.cpp:157] Top shape: 60 48 28 28 (2257920)
I1214 22:59:47.170399  5289 net.cpp:165] Memory required for data: 3356774640
I1214 22:59:47.170428  5289 layer_factory.hpp:77] Creating layer bn_3a_proj
I1214 22:59:47.170445  5289 net.cpp:100] Creating Layer bn_3a_proj
I1214 22:59:47.170459  5289 net.cpp:434] bn_3a_proj <- conv_3a_proj
I1214 22:59:47.170472  5289 net.cpp:395] bn_3a_proj -> conv_3a_proj (in-place)
I1214 22:59:47.170698  5289 net.cpp:150] Setting up bn_3a_proj
I1214 22:59:47.170722  5289 net.cpp:157] Top shape: 60 48 28 28 (2257920)
I1214 22:59:47.170735  5289 net.cpp:165] Memory required for data: 3365806320
I1214 22:59:47.170753  5289 layer_factory.hpp:77] Creating layer scale_conv_3a_proj
I1214 22:59:47.170773  5289 net.cpp:100] Creating Layer scale_conv_3a_proj
I1214 22:59:47.170786  5289 net.cpp:434] scale_conv_3a_proj <- conv_3a_proj
I1214 22:59:47.170801  5289 net.cpp:395] scale_conv_3a_proj -> conv_3a_proj (in-place)
I1214 22:59:47.170862  5289 layer_factory.hpp:77] Creating layer scale_conv_3a_proj
I1214 22:59:47.171015  5289 net.cpp:150] Setting up scale_conv_3a_proj
I1214 22:59:47.171038  5289 net.cpp:157] Top shape: 60 48 28 28 (2257920)
I1214 22:59:47.171051  5289 net.cpp:165] Memory required for data: 3374838000
I1214 22:59:47.171067  5289 layer_factory.hpp:77] Creating layer relu_3a_proj
I1214 22:59:47.171082  5289 net.cpp:100] Creating Layer relu_3a_proj
I1214 22:59:47.171094  5289 net.cpp:434] relu_3a_proj <- conv_3a_proj
I1214 22:59:47.171111  5289 net.cpp:395] relu_3a_proj -> conv_3a_proj (in-place)
I1214 22:59:47.171128  5289 net.cpp:150] Setting up relu_3a_proj
I1214 22:59:47.171144  5289 net.cpp:157] Top shape: 60 48 28 28 (2257920)
I1214 22:59:47.171155  5289 net.cpp:165] Memory required for data: 3383869680
I1214 22:59:47.171166  5289 layer_factory.hpp:77] Creating layer ch_concat_3a_chconcat
I1214 22:59:47.171187  5289 net.cpp:100] Creating Layer ch_concat_3a_chconcat
I1214 22:59:47.171200  5289 net.cpp:434] ch_concat_3a_chconcat <- conv_3a_1x1
I1214 22:59:47.171212  5289 net.cpp:434] ch_concat_3a_chconcat <- conv_3a_3x3
I1214 22:59:47.171226  5289 net.cpp:434] ch_concat_3a_chconcat <- conv_3a_double_3x3_1
I1214 22:59:47.171239  5289 net.cpp:434] ch_concat_3a_chconcat <- conv_3a_proj
I1214 22:59:47.171257  5289 net.cpp:408] ch_concat_3a_chconcat -> ch_concat_3a_chconcat
I1214 22:59:47.171298  5289 net.cpp:150] Setting up ch_concat_3a_chconcat
I1214 22:59:47.171316  5289 net.cpp:157] Top shape: 60 384 28 28 (18063360)
I1214 22:59:47.171329  5289 net.cpp:165] Memory required for data: 3456123120
I1214 22:59:47.171349  5289 layer_factory.hpp:77] Creating layer ch_concat_3a_chconcat_ch_concat_3a_chconcat_0_split
I1214 22:59:47.171370  5289 net.cpp:100] Creating Layer ch_concat_3a_chconcat_ch_concat_3a_chconcat_0_split
I1214 22:59:47.171382  5289 net.cpp:434] ch_concat_3a_chconcat_ch_concat_3a_chconcat_0_split <- ch_concat_3a_chconcat
I1214 22:59:47.171398  5289 net.cpp:408] ch_concat_3a_chconcat_ch_concat_3a_chconcat_0_split -> ch_concat_3a_chconcat_ch_concat_3a_chconcat_0_split_0
I1214 22:59:47.171418  5289 net.cpp:408] ch_concat_3a_chconcat_ch_concat_3a_chconcat_0_split -> ch_concat_3a_chconcat_ch_concat_3a_chconcat_0_split_1
I1214 22:59:47.171437  5289 net.cpp:408] ch_concat_3a_chconcat_ch_concat_3a_chconcat_0_split -> ch_concat_3a_chconcat_ch_concat_3a_chconcat_0_split_2
I1214 22:59:47.171455  5289 net.cpp:408] ch_concat_3a_chconcat_ch_concat_3a_chconcat_0_split -> ch_concat_3a_chconcat_ch_concat_3a_chconcat_0_split_3
I1214 22:59:47.171543  5289 net.cpp:150] Setting up ch_concat_3a_chconcat_ch_concat_3a_chconcat_0_split
I1214 22:59:47.171562  5289 net.cpp:157] Top shape: 60 384 28 28 (18063360)
I1214 22:59:47.171576  5289 net.cpp:157] Top shape: 60 384 28 28 (18063360)
I1214 22:59:47.171588  5289 net.cpp:157] Top shape: 60 384 28 28 (18063360)
I1214 22:59:47.171602  5289 net.cpp:157] Top shape: 60 384 28 28 (18063360)
I1214 22:59:47.171612  5289 net.cpp:165] Memory required for data: 3745136880
I1214 22:59:47.171624  5289 layer_factory.hpp:77] Creating layer conv_3b_1x1
I1214 22:59:47.171640  5289 net.cpp:100] Creating Layer conv_3b_1x1
I1214 22:59:47.171653  5289 net.cpp:434] conv_3b_1x1 <- ch_concat_3a_chconcat_ch_concat_3a_chconcat_0_split_0
I1214 22:59:47.171670  5289 net.cpp:408] conv_3b_1x1 -> conv_3b_1x1
I1214 22:59:47.171983  5289 net.cpp:150] Setting up conv_3b_1x1
I1214 22:59:47.172009  5289 net.cpp:157] Top shape: 60 96 28 28 (4515840)
I1214 22:59:47.172021  5289 net.cpp:165] Memory required for data: 3763200240
I1214 22:59:47.172036  5289 layer_factory.hpp:77] Creating layer bn_3b_1x1
I1214 22:59:47.172056  5289 net.cpp:100] Creating Layer bn_3b_1x1
I1214 22:59:47.172070  5289 net.cpp:434] bn_3b_1x1 <- conv_3b_1x1
I1214 22:59:47.172085  5289 net.cpp:395] bn_3b_1x1 -> conv_3b_1x1 (in-place)
I1214 22:59:47.172324  5289 net.cpp:150] Setting up bn_3b_1x1
I1214 22:59:47.172348  5289 net.cpp:157] Top shape: 60 96 28 28 (4515840)
I1214 22:59:47.172363  5289 net.cpp:165] Memory required for data: 3781263600
I1214 22:59:47.172380  5289 layer_factory.hpp:77] Creating layer scale_conv_3b_1x1
I1214 22:59:47.172400  5289 net.cpp:100] Creating Layer scale_conv_3b_1x1
I1214 22:59:47.172413  5289 net.cpp:434] scale_conv_3b_1x1 <- conv_3b_1x1
I1214 22:59:47.172428  5289 net.cpp:395] scale_conv_3b_1x1 -> conv_3b_1x1 (in-place)
I1214 22:59:47.172499  5289 layer_factory.hpp:77] Creating layer scale_conv_3b_1x1
I1214 22:59:47.172663  5289 net.cpp:150] Setting up scale_conv_3b_1x1
I1214 22:59:47.172688  5289 net.cpp:157] Top shape: 60 96 28 28 (4515840)
I1214 22:59:47.172700  5289 net.cpp:165] Memory required for data: 3799326960
I1214 22:59:47.172715  5289 layer_factory.hpp:77] Creating layer relu_3b_1x1
I1214 22:59:47.172734  5289 net.cpp:100] Creating Layer relu_3b_1x1
I1214 22:59:47.172760  5289 net.cpp:434] relu_3b_1x1 <- conv_3b_1x1
I1214 22:59:47.172775  5289 net.cpp:395] relu_3b_1x1 -> conv_3b_1x1 (in-place)
I1214 22:59:47.172793  5289 net.cpp:150] Setting up relu_3b_1x1
I1214 22:59:47.172808  5289 net.cpp:157] Top shape: 60 96 28 28 (4515840)
I1214 22:59:47.172819  5289 net.cpp:165] Memory required for data: 3817390320
I1214 22:59:47.172832  5289 layer_factory.hpp:77] Creating layer conv_3b_3x3_reduce
I1214 22:59:47.172849  5289 net.cpp:100] Creating Layer conv_3b_3x3_reduce
I1214 22:59:47.172861  5289 net.cpp:434] conv_3b_3x3_reduce <- ch_concat_3a_chconcat_ch_concat_3a_chconcat_0_split_1
I1214 22:59:47.172880  5289 net.cpp:408] conv_3b_3x3_reduce -> conv_3b_3x3_reduce
I1214 22:59:47.173192  5289 net.cpp:150] Setting up conv_3b_3x3_reduce
I1214 22:59:47.173233  5289 net.cpp:157] Top shape: 60 96 28 28 (4515840)
I1214 22:59:47.173255  5289 net.cpp:165] Memory required for data: 3835453680
I1214 22:59:47.173272  5289 layer_factory.hpp:77] Creating layer bn_3b_3x3_reduce
I1214 22:59:47.173290  5289 net.cpp:100] Creating Layer bn_3b_3x3_reduce
I1214 22:59:47.173302  5289 net.cpp:434] bn_3b_3x3_reduce <- conv_3b_3x3_reduce
I1214 22:59:47.173321  5289 net.cpp:395] bn_3b_3x3_reduce -> conv_3b_3x3_reduce (in-place)
I1214 22:59:47.173557  5289 net.cpp:150] Setting up bn_3b_3x3_reduce
I1214 22:59:47.173580  5289 net.cpp:157] Top shape: 60 96 28 28 (4515840)
I1214 22:59:47.173593  5289 net.cpp:165] Memory required for data: 3853517040
I1214 22:59:47.173610  5289 layer_factory.hpp:77] Creating layer scale_conv_3b_3x3_reduce
I1214 22:59:47.173633  5289 net.cpp:100] Creating Layer scale_conv_3b_3x3_reduce
I1214 22:59:47.173648  5289 net.cpp:434] scale_conv_3b_3x3_reduce <- conv_3b_3x3_reduce
I1214 22:59:47.173663  5289 net.cpp:395] scale_conv_3b_3x3_reduce -> conv_3b_3x3_reduce (in-place)
I1214 22:59:47.173720  5289 layer_factory.hpp:77] Creating layer scale_conv_3b_3x3_reduce
I1214 22:59:47.173877  5289 net.cpp:150] Setting up scale_conv_3b_3x3_reduce
I1214 22:59:47.173902  5289 net.cpp:157] Top shape: 60 96 28 28 (4515840)
I1214 22:59:47.173913  5289 net.cpp:165] Memory required for data: 3871580400
I1214 22:59:47.173929  5289 layer_factory.hpp:77] Creating layer relu_3b_3x3_reduce
I1214 22:59:47.173948  5289 net.cpp:100] Creating Layer relu_3b_3x3_reduce
I1214 22:59:47.173960  5289 net.cpp:434] relu_3b_3x3_reduce <- conv_3b_3x3_reduce
I1214 22:59:47.173979  5289 net.cpp:395] relu_3b_3x3_reduce -> conv_3b_3x3_reduce (in-place)
I1214 22:59:47.173997  5289 net.cpp:150] Setting up relu_3b_3x3_reduce
I1214 22:59:47.174011  5289 net.cpp:157] Top shape: 60 96 28 28 (4515840)
I1214 22:59:47.174022  5289 net.cpp:165] Memory required for data: 3889643760
I1214 22:59:47.174034  5289 layer_factory.hpp:77] Creating layer conv_3b_3x3
I1214 22:59:47.174052  5289 net.cpp:100] Creating Layer conv_3b_3x3
I1214 22:59:47.174063  5289 net.cpp:434] conv_3b_3x3 <- conv_3b_3x3_reduce
I1214 22:59:47.174082  5289 net.cpp:408] conv_3b_3x3 -> conv_3b_3x3
I1214 22:59:47.175097  5289 net.cpp:150] Setting up conv_3b_3x3
I1214 22:59:47.175125  5289 net.cpp:157] Top shape: 60 144 28 28 (6773760)
I1214 22:59:47.175138  5289 net.cpp:165] Memory required for data: 3916738800
I1214 22:59:47.175155  5289 layer_factory.hpp:77] Creating layer bn_3b_3x3
I1214 22:59:47.175175  5289 net.cpp:100] Creating Layer bn_3b_3x3
I1214 22:59:47.175206  5289 net.cpp:434] bn_3b_3x3 <- conv_3b_3x3
I1214 22:59:47.175225  5289 net.cpp:395] bn_3b_3x3 -> conv_3b_3x3 (in-place)
I1214 22:59:47.175456  5289 net.cpp:150] Setting up bn_3b_3x3
I1214 22:59:47.175483  5289 net.cpp:157] Top shape: 60 144 28 28 (6773760)
I1214 22:59:47.175496  5289 net.cpp:165] Memory required for data: 3943833840
I1214 22:59:47.175515  5289 layer_factory.hpp:77] Creating layer scale_conv_3b_3x3
I1214 22:59:47.175531  5289 net.cpp:100] Creating Layer scale_conv_3b_3x3
I1214 22:59:47.175544  5289 net.cpp:434] scale_conv_3b_3x3 <- conv_3b_3x3
I1214 22:59:47.175559  5289 net.cpp:395] scale_conv_3b_3x3 -> conv_3b_3x3 (in-place)
I1214 22:59:47.175618  5289 layer_factory.hpp:77] Creating layer scale_conv_3b_3x3
I1214 22:59:47.175798  5289 net.cpp:150] Setting up scale_conv_3b_3x3
I1214 22:59:47.175822  5289 net.cpp:157] Top shape: 60 144 28 28 (6773760)
I1214 22:59:47.175834  5289 net.cpp:165] Memory required for data: 3970928880
I1214 22:59:47.175849  5289 layer_factory.hpp:77] Creating layer relu_3b_3x3
I1214 22:59:47.175868  5289 net.cpp:100] Creating Layer relu_3b_3x3
I1214 22:59:47.175879  5289 net.cpp:434] relu_3b_3x3 <- conv_3b_3x3
I1214 22:59:47.175907  5289 net.cpp:395] relu_3b_3x3 -> conv_3b_3x3 (in-place)
I1214 22:59:47.175923  5289 net.cpp:150] Setting up relu_3b_3x3
I1214 22:59:47.175937  5289 net.cpp:157] Top shape: 60 144 28 28 (6773760)
I1214 22:59:47.175961  5289 net.cpp:165] Memory required for data: 3998023920
I1214 22:59:47.175976  5289 layer_factory.hpp:77] Creating layer conv_3b_double_3x3_reduce
I1214 22:59:47.176004  5289 net.cpp:100] Creating Layer conv_3b_double_3x3_reduce
I1214 22:59:47.176018  5289 net.cpp:434] conv_3b_double_3x3_reduce <- ch_concat_3a_chconcat_ch_concat_3a_chconcat_0_split_2
I1214 22:59:47.176035  5289 net.cpp:408] conv_3b_double_3x3_reduce -> conv_3b_double_3x3_reduce
I1214 22:59:47.176349  5289 net.cpp:150] Setting up conv_3b_double_3x3_reduce
I1214 22:59:47.176374  5289 net.cpp:157] Top shape: 60 96 28 28 (4515840)
I1214 22:59:47.176386  5289 net.cpp:165] Memory required for data: 4016087280
I1214 22:59:47.176415  5289 layer_factory.hpp:77] Creating layer bn_3b_double_3x3_reduce
I1214 22:59:47.176436  5289 net.cpp:100] Creating Layer bn_3b_double_3x3_reduce
I1214 22:59:47.176450  5289 net.cpp:434] bn_3b_double_3x3_reduce <- conv_3b_double_3x3_reduce
I1214 22:59:47.176467  5289 net.cpp:395] bn_3b_double_3x3_reduce -> conv_3b_double_3x3_reduce (in-place)
I1214 22:59:47.176692  5289 net.cpp:150] Setting up bn_3b_double_3x3_reduce
I1214 22:59:47.176728  5289 net.cpp:157] Top shape: 60 96 28 28 (4515840)
I1214 22:59:47.176741  5289 net.cpp:165] Memory required for data: 4034150640
I1214 22:59:47.176759  5289 layer_factory.hpp:77] Creating layer scale_conv_3b_double_3x3_reduce
I1214 22:59:47.176777  5289 net.cpp:100] Creating Layer scale_conv_3b_double_3x3_reduce
I1214 22:59:47.176790  5289 net.cpp:434] scale_conv_3b_double_3x3_reduce <- conv_3b_double_3x3_reduce
I1214 22:59:47.176805  5289 net.cpp:395] scale_conv_3b_double_3x3_reduce -> conv_3b_double_3x3_reduce (in-place)
I1214 22:59:47.176875  5289 layer_factory.hpp:77] Creating layer scale_conv_3b_double_3x3_reduce
I1214 22:59:47.177028  5289 net.cpp:150] Setting up scale_conv_3b_double_3x3_reduce
I1214 22:59:47.177052  5289 net.cpp:157] Top shape: 60 96 28 28 (4515840)
I1214 22:59:47.177064  5289 net.cpp:165] Memory required for data: 4052214000
I1214 22:59:47.177079  5289 layer_factory.hpp:77] Creating layer relu_3b_double_3x3_reduce
I1214 22:59:47.177098  5289 net.cpp:100] Creating Layer relu_3b_double_3x3_reduce
I1214 22:59:47.177111  5289 net.cpp:434] relu_3b_double_3x3_reduce <- conv_3b_double_3x3_reduce
I1214 22:59:47.177125  5289 net.cpp:395] relu_3b_double_3x3_reduce -> conv_3b_double_3x3_reduce (in-place)
I1214 22:59:47.177144  5289 net.cpp:150] Setting up relu_3b_double_3x3_reduce
I1214 22:59:47.177157  5289 net.cpp:157] Top shape: 60 96 28 28 (4515840)
I1214 22:59:47.177168  5289 net.cpp:165] Memory required for data: 4070277360
I1214 22:59:47.177186  5289 layer_factory.hpp:77] Creating layer conv_3b_double_3x3_0
I1214 22:59:47.177207  5289 net.cpp:100] Creating Layer conv_3b_double_3x3_0
I1214 22:59:47.177222  5289 net.cpp:434] conv_3b_double_3x3_0 <- conv_3b_double_3x3_reduce
I1214 22:59:47.177238  5289 net.cpp:408] conv_3b_double_3x3_0 -> conv_3b_double_3x3_0
I1214 22:59:47.177587  5289 net.cpp:150] Setting up conv_3b_double_3x3_0
I1214 22:59:47.177613  5289 net.cpp:157] Top shape: 60 144 28 28 (6773760)
I1214 22:59:47.177624  5289 net.cpp:165] Memory required for data: 4097372400
I1214 22:59:47.177639  5289 layer_factory.hpp:77] Creating layer bn_3b_double_3x3_0
I1214 22:59:47.177673  5289 net.cpp:100] Creating Layer bn_3b_double_3x3_0
I1214 22:59:47.177688  5289 net.cpp:434] bn_3b_double_3x3_0 <- conv_3b_double_3x3_0
I1214 22:59:47.177703  5289 net.cpp:395] bn_3b_double_3x3_0 -> conv_3b_double_3x3_0 (in-place)
I1214 22:59:47.177933  5289 net.cpp:150] Setting up bn_3b_double_3x3_0
I1214 22:59:47.177956  5289 net.cpp:157] Top shape: 60 144 28 28 (6773760)
I1214 22:59:47.177968  5289 net.cpp:165] Memory required for data: 4124467440
I1214 22:59:47.177986  5289 layer_factory.hpp:77] Creating layer scale_conv_3b_double_3x3_0
I1214 22:59:47.178007  5289 net.cpp:100] Creating Layer scale_conv_3b_double_3x3_0
I1214 22:59:47.178020  5289 net.cpp:434] scale_conv_3b_double_3x3_0 <- conv_3b_double_3x3_0
I1214 22:59:47.178035  5289 net.cpp:395] scale_conv_3b_double_3x3_0 -> conv_3b_double_3x3_0 (in-place)
I1214 22:59:47.178107  5289 layer_factory.hpp:77] Creating layer scale_conv_3b_double_3x3_0
I1214 22:59:47.178268  5289 net.cpp:150] Setting up scale_conv_3b_double_3x3_0
I1214 22:59:47.178298  5289 net.cpp:157] Top shape: 60 144 28 28 (6773760)
I1214 22:59:47.178311  5289 net.cpp:165] Memory required for data: 4151562480
I1214 22:59:47.178328  5289 layer_factory.hpp:77] Creating layer relu_3b_double_3x3_0
I1214 22:59:47.178347  5289 net.cpp:100] Creating Layer relu_3b_double_3x3_0
I1214 22:59:47.178360  5289 net.cpp:434] relu_3b_double_3x3_0 <- conv_3b_double_3x3_0
I1214 22:59:47.178391  5289 net.cpp:395] relu_3b_double_3x3_0 -> conv_3b_double_3x3_0 (in-place)
I1214 22:59:47.178408  5289 net.cpp:150] Setting up relu_3b_double_3x3_0
I1214 22:59:47.178421  5289 net.cpp:157] Top shape: 60 144 28 28 (6773760)
I1214 22:59:47.178433  5289 net.cpp:165] Memory required for data: 4178657520
I1214 22:59:47.178444  5289 layer_factory.hpp:77] Creating layer conv_3b_double_3x3_1
I1214 22:59:47.178460  5289 net.cpp:100] Creating Layer conv_3b_double_3x3_1
I1214 22:59:47.178472  5289 net.cpp:434] conv_3b_double_3x3_1 <- conv_3b_double_3x3_0
I1214 22:59:47.178490  5289 net.cpp:408] conv_3b_double_3x3_1 -> conv_3b_double_3x3_1
I1214 22:59:47.179553  5289 net.cpp:150] Setting up conv_3b_double_3x3_1
I1214 22:59:47.179580  5289 net.cpp:157] Top shape: 60 144 28 28 (6773760)
I1214 22:59:47.179594  5289 net.cpp:165] Memory required for data: 4205752560
I1214 22:59:47.179623  5289 layer_factory.hpp:77] Creating layer bn_3b_double_3x3_1
I1214 22:59:47.179642  5289 net.cpp:100] Creating Layer bn_3b_double_3x3_1
I1214 22:59:47.179656  5289 net.cpp:434] bn_3b_double_3x3_1 <- conv_3b_double_3x3_1
I1214 22:59:47.179674  5289 net.cpp:395] bn_3b_double_3x3_1 -> conv_3b_double_3x3_1 (in-place)
I1214 22:59:47.179903  5289 net.cpp:150] Setting up bn_3b_double_3x3_1
I1214 22:59:47.179939  5289 net.cpp:157] Top shape: 60 144 28 28 (6773760)
I1214 22:59:47.179951  5289 net.cpp:165] Memory required for data: 4232847600
I1214 22:59:47.179968  5289 layer_factory.hpp:77] Creating layer scale_conv_3b_double_3x3_1
I1214 22:59:47.179983  5289 net.cpp:100] Creating Layer scale_conv_3b_double_3x3_1
I1214 22:59:47.179996  5289 net.cpp:434] scale_conv_3b_double_3x3_1 <- conv_3b_double_3x3_1
I1214 22:59:47.180009  5289 net.cpp:395] scale_conv_3b_double_3x3_1 -> conv_3b_double_3x3_1 (in-place)
I1214 22:59:47.180073  5289 layer_factory.hpp:77] Creating layer scale_conv_3b_double_3x3_1
I1214 22:59:47.180240  5289 net.cpp:150] Setting up scale_conv_3b_double_3x3_1
I1214 22:59:47.180268  5289 net.cpp:157] Top shape: 60 144 28 28 (6773760)
I1214 22:59:47.180280  5289 net.cpp:165] Memory required for data: 4259942640
I1214 22:59:47.180296  5289 layer_factory.hpp:77] Creating layer relu_3b_double_3x3_1
I1214 22:59:47.180312  5289 net.cpp:100] Creating Layer relu_3b_double_3x3_1
I1214 22:59:47.180325  5289 net.cpp:434] relu_3b_double_3x3_1 <- conv_3b_double_3x3_1
I1214 22:59:47.180340  5289 net.cpp:395] relu_3b_double_3x3_1 -> conv_3b_double_3x3_1 (in-place)
I1214 22:59:47.180356  5289 net.cpp:150] Setting up relu_3b_double_3x3_1
I1214 22:59:47.180371  5289 net.cpp:157] Top shape: 60 144 28 28 (6773760)
I1214 22:59:47.180382  5289 net.cpp:165] Memory required for data: 4287037680
I1214 22:59:47.180395  5289 layer_factory.hpp:77] Creating layer ave_pool_3b_pool
I1214 22:59:47.180415  5289 net.cpp:100] Creating Layer ave_pool_3b_pool
I1214 22:59:47.180428  5289 net.cpp:434] ave_pool_3b_pool <- ch_concat_3a_chconcat_ch_concat_3a_chconcat_0_split_3
I1214 22:59:47.180444  5289 net.cpp:408] ave_pool_3b_pool -> ave_pool_3b_pool
I1214 22:59:47.180482  5289 net.cpp:150] Setting up ave_pool_3b_pool
I1214 22:59:47.180505  5289 net.cpp:157] Top shape: 60 384 28 28 (18063360)
I1214 22:59:47.180516  5289 net.cpp:165] Memory required for data: 4359291120
I1214 22:59:47.180526  5289 layer_factory.hpp:77] Creating layer conv_3b_proj
I1214 22:59:47.180548  5289 net.cpp:100] Creating Layer conv_3b_proj
I1214 22:59:47.180562  5289 net.cpp:434] conv_3b_proj <- ave_pool_3b_pool
I1214 22:59:47.180578  5289 net.cpp:408] conv_3b_proj -> conv_3b_proj
I1214 22:59:47.180899  5289 net.cpp:150] Setting up conv_3b_proj
I1214 22:59:47.180933  5289 net.cpp:157] Top shape: 60 96 28 28 (4515840)
I1214 22:59:47.180946  5289 net.cpp:165] Memory required for data: 4377354480
I1214 22:59:47.180961  5289 layer_factory.hpp:77] Creating layer bn_3b_proj
I1214 22:59:47.180981  5289 net.cpp:100] Creating Layer bn_3b_proj
I1214 22:59:47.180994  5289 net.cpp:434] bn_3b_proj <- conv_3b_proj
I1214 22:59:47.181013  5289 net.cpp:395] bn_3b_proj -> conv_3b_proj (in-place)
I1214 22:59:47.181272  5289 net.cpp:150] Setting up bn_3b_proj
I1214 22:59:47.181299  5289 net.cpp:157] Top shape: 60 96 28 28 (4515840)
I1214 22:59:47.181313  5289 net.cpp:165] Memory required for data: 4395417840
I1214 22:59:47.181334  5289 layer_factory.hpp:77] Creating layer scale_conv_3b_proj
I1214 22:59:47.181354  5289 net.cpp:100] Creating Layer scale_conv_3b_proj
I1214 22:59:47.181370  5289 net.cpp:434] scale_conv_3b_proj <- conv_3b_proj
I1214 22:59:47.181385  5289 net.cpp:395] scale_conv_3b_proj -> conv_3b_proj (in-place)
I1214 22:59:47.181447  5289 layer_factory.hpp:77] Creating layer scale_conv_3b_proj
I1214 22:59:47.181612  5289 net.cpp:150] Setting up scale_conv_3b_proj
I1214 22:59:47.181635  5289 net.cpp:157] Top shape: 60 96 28 28 (4515840)
I1214 22:59:47.181648  5289 net.cpp:165] Memory required for data: 4413481200
I1214 22:59:47.181663  5289 layer_factory.hpp:77] Creating layer relu_3b_proj
I1214 22:59:47.181677  5289 net.cpp:100] Creating Layer relu_3b_proj
I1214 22:59:47.181689  5289 net.cpp:434] relu_3b_proj <- conv_3b_proj
I1214 22:59:47.181705  5289 net.cpp:395] relu_3b_proj -> conv_3b_proj (in-place)
I1214 22:59:47.181721  5289 net.cpp:150] Setting up relu_3b_proj
I1214 22:59:47.181736  5289 net.cpp:157] Top shape: 60 96 28 28 (4515840)
I1214 22:59:47.181761  5289 net.cpp:165] Memory required for data: 4431544560
I1214 22:59:47.181772  5289 layer_factory.hpp:77] Creating layer ch_concat_3b_chconcat
I1214 22:59:47.181787  5289 net.cpp:100] Creating Layer ch_concat_3b_chconcat
I1214 22:59:47.181798  5289 net.cpp:434] ch_concat_3b_chconcat <- conv_3b_1x1
I1214 22:59:47.181812  5289 net.cpp:434] ch_concat_3b_chconcat <- conv_3b_3x3
I1214 22:59:47.181825  5289 net.cpp:434] ch_concat_3b_chconcat <- conv_3b_double_3x3_1
I1214 22:59:47.181838  5289 net.cpp:434] ch_concat_3b_chconcat <- conv_3b_proj
I1214 22:59:47.181852  5289 net.cpp:408] ch_concat_3b_chconcat -> ch_concat_3b_chconcat
I1214 22:59:47.181901  5289 net.cpp:150] Setting up ch_concat_3b_chconcat
I1214 22:59:47.181921  5289 net.cpp:157] Top shape: 60 480 28 28 (22579200)
I1214 22:59:47.181933  5289 net.cpp:165] Memory required for data: 4521861360
I1214 22:59:47.181946  5289 layer_factory.hpp:77] Creating layer ch_concat_3b_chconcat_ch_concat_3b_chconcat_0_split
I1214 22:59:47.181967  5289 net.cpp:100] Creating Layer ch_concat_3b_chconcat_ch_concat_3b_chconcat_0_split
I1214 22:59:47.181980  5289 net.cpp:434] ch_concat_3b_chconcat_ch_concat_3b_chconcat_0_split <- ch_concat_3b_chconcat
I1214 22:59:47.181995  5289 net.cpp:408] ch_concat_3b_chconcat_ch_concat_3b_chconcat_0_split -> ch_concat_3b_chconcat_ch_concat_3b_chconcat_0_split_0
I1214 22:59:47.182014  5289 net.cpp:408] ch_concat_3b_chconcat_ch_concat_3b_chconcat_0_split -> ch_concat_3b_chconcat_ch_concat_3b_chconcat_0_split_1
I1214 22:59:47.182034  5289 net.cpp:408] ch_concat_3b_chconcat_ch_concat_3b_chconcat_0_split -> ch_concat_3b_chconcat_ch_concat_3b_chconcat_0_split_2
I1214 22:59:47.182111  5289 net.cpp:150] Setting up ch_concat_3b_chconcat_ch_concat_3b_chconcat_0_split
I1214 22:59:47.182131  5289 net.cpp:157] Top shape: 60 480 28 28 (22579200)
I1214 22:59:47.182143  5289 net.cpp:157] Top shape: 60 480 28 28 (22579200)
I1214 22:59:47.182155  5289 net.cpp:157] Top shape: 60 480 28 28 (22579200)
I1214 22:59:47.182166  5289 net.cpp:165] Memory required for data: 4792811760
I1214 22:59:47.182178  5289 layer_factory.hpp:77] Creating layer conv_3c_3x3_reduce
I1214 22:59:47.182202  5289 net.cpp:100] Creating Layer conv_3c_3x3_reduce
I1214 22:59:47.182216  5289 net.cpp:434] conv_3c_3x3_reduce <- ch_concat_3b_chconcat_ch_concat_3b_chconcat_0_split_0
I1214 22:59:47.182235  5289 net.cpp:408] conv_3c_3x3_reduce -> conv_3c_3x3_reduce
I1214 22:59:47.183270  5289 net.cpp:150] Setting up conv_3c_3x3_reduce
I1214 22:59:47.183297  5289 net.cpp:157] Top shape: 60 192 28 28 (9031680)
I1214 22:59:47.183310  5289 net.cpp:165] Memory required for data: 4828938480
I1214 22:59:47.183326  5289 layer_factory.hpp:77] Creating layer bn_3c_3x3_reduce
I1214 22:59:47.183341  5289 net.cpp:100] Creating Layer bn_3c_3x3_reduce
I1214 22:59:47.183353  5289 net.cpp:434] bn_3c_3x3_reduce <- conv_3c_3x3_reduce
I1214 22:59:47.183372  5289 net.cpp:395] bn_3c_3x3_reduce -> conv_3c_3x3_reduce (in-place)
I1214 22:59:47.183615  5289 net.cpp:150] Setting up bn_3c_3x3_reduce
I1214 22:59:47.183640  5289 net.cpp:157] Top shape: 60 192 28 28 (9031680)
I1214 22:59:47.183652  5289 net.cpp:165] Memory required for data: 4865065200
I1214 22:59:47.183670  5289 layer_factory.hpp:77] Creating layer scale_conv_3c_3x3_reduce
I1214 22:59:47.183689  5289 net.cpp:100] Creating Layer scale_conv_3c_3x3_reduce
I1214 22:59:47.183702  5289 net.cpp:434] scale_conv_3c_3x3_reduce <- conv_3c_3x3_reduce
I1214 22:59:47.183718  5289 net.cpp:395] scale_conv_3c_3x3_reduce -> conv_3c_3x3_reduce (in-place)
I1214 22:59:47.183779  5289 layer_factory.hpp:77] Creating layer scale_conv_3c_3x3_reduce
I1214 22:59:47.183960  5289 net.cpp:150] Setting up scale_conv_3c_3x3_reduce
I1214 22:59:47.183984  5289 net.cpp:157] Top shape: 60 192 28 28 (9031680)
I1214 22:59:47.183997  5289 net.cpp:165] Memory required for data: 4901191920
I1214 22:59:47.184012  5289 layer_factory.hpp:77] Creating layer relu_3c_3x3_reduce
I1214 22:59:47.184031  5289 net.cpp:100] Creating Layer relu_3c_3x3_reduce
I1214 22:59:47.184044  5289 net.cpp:434] relu_3c_3x3_reduce <- conv_3c_3x3_reduce
I1214 22:59:47.184062  5289 net.cpp:395] relu_3c_3x3_reduce -> conv_3c_3x3_reduce (in-place)
I1214 22:59:47.184079  5289 net.cpp:150] Setting up relu_3c_3x3_reduce
I1214 22:59:47.184094  5289 net.cpp:157] Top shape: 60 192 28 28 (9031680)
I1214 22:59:47.184106  5289 net.cpp:165] Memory required for data: 4937318640
I1214 22:59:47.184119  5289 layer_factory.hpp:77] Creating layer conv_3c_3x3
I1214 22:59:47.184137  5289 net.cpp:100] Creating Layer conv_3c_3x3
I1214 22:59:47.184150  5289 net.cpp:434] conv_3c_3x3 <- conv_3c_3x3_reduce
I1214 22:59:47.184168  5289 net.cpp:408] conv_3c_3x3 -> conv_3c_3x3
I1214 22:59:47.185686  5289 net.cpp:150] Setting up conv_3c_3x3
I1214 22:59:47.185714  5289 net.cpp:157] Top shape: 60 240 14 14 (2822400)
I1214 22:59:47.185727  5289 net.cpp:165] Memory required for data: 4948608240
I1214 22:59:47.185745  5289 layer_factory.hpp:77] Creating layer bn_3c_3x3
I1214 22:59:47.185765  5289 net.cpp:100] Creating Layer bn_3c_3x3
I1214 22:59:47.185778  5289 net.cpp:434] bn_3c_3x3 <- conv_3c_3x3
I1214 22:59:47.185796  5289 net.cpp:395] bn_3c_3x3 -> conv_3c_3x3 (in-place)
I1214 22:59:47.186044  5289 net.cpp:150] Setting up bn_3c_3x3
I1214 22:59:47.186071  5289 net.cpp:157] Top shape: 60 240 14 14 (2822400)
I1214 22:59:47.186084  5289 net.cpp:165] Memory required for data: 4959897840
I1214 22:59:47.186122  5289 layer_factory.hpp:77] Creating layer scale_conv_3c_3x3
I1214 22:59:47.186146  5289 net.cpp:100] Creating Layer scale_conv_3c_3x3
I1214 22:59:47.186159  5289 net.cpp:434] scale_conv_3c_3x3 <- conv_3c_3x3
I1214 22:59:47.186178  5289 net.cpp:395] scale_conv_3c_3x3 -> conv_3c_3x3 (in-place)
I1214 22:59:47.186247  5289 layer_factory.hpp:77] Creating layer scale_conv_3c_3x3
I1214 22:59:47.186405  5289 net.cpp:150] Setting up scale_conv_3c_3x3
I1214 22:59:47.186429  5289 net.cpp:157] Top shape: 60 240 14 14 (2822400)
I1214 22:59:47.186440  5289 net.cpp:165] Memory required for data: 4971187440
I1214 22:59:47.186455  5289 layer_factory.hpp:77] Creating layer relu_3c_3x3
I1214 22:59:47.186470  5289 net.cpp:100] Creating Layer relu_3c_3x3
I1214 22:59:47.186480  5289 net.cpp:434] relu_3c_3x3 <- conv_3c_3x3
I1214 22:59:47.186497  5289 net.cpp:395] relu_3c_3x3 -> conv_3c_3x3 (in-place)
I1214 22:59:47.186513  5289 net.cpp:150] Setting up relu_3c_3x3
I1214 22:59:47.186527  5289 net.cpp:157] Top shape: 60 240 14 14 (2822400)
I1214 22:59:47.186545  5289 net.cpp:165] Memory required for data: 4982477040
I1214 22:59:47.186558  5289 layer_factory.hpp:77] Creating layer conv_3c_double_3x3_reduce
I1214 22:59:47.186576  5289 net.cpp:100] Creating Layer conv_3c_double_3x3_reduce
I1214 22:59:47.186589  5289 net.cpp:434] conv_3c_double_3x3_reduce <- ch_concat_3b_chconcat_ch_concat_3b_chconcat_0_split_1
I1214 22:59:47.186619  5289 net.cpp:408] conv_3c_double_3x3_reduce -> conv_3c_double_3x3_reduce
I1214 22:59:47.187575  5289 net.cpp:150] Setting up conv_3c_double_3x3_reduce
I1214 22:59:47.187600  5289 net.cpp:157] Top shape: 60 96 28 28 (4515840)
I1214 22:59:47.187611  5289 net.cpp:165] Memory required for data: 5000540400
I1214 22:59:47.187628  5289 layer_factory.hpp:77] Creating layer bn_3c_double_3x3_reduce
I1214 22:59:47.187645  5289 net.cpp:100] Creating Layer bn_3c_double_3x3_reduce
I1214 22:59:47.187659  5289 net.cpp:434] bn_3c_double_3x3_reduce <- conv_3c_double_3x3_reduce
I1214 22:59:47.187690  5289 net.cpp:395] bn_3c_double_3x3_reduce -> conv_3c_double_3x3_reduce (in-place)
I1214 22:59:47.187922  5289 net.cpp:150] Setting up bn_3c_double_3x3_reduce
I1214 22:59:47.187943  5289 net.cpp:157] Top shape: 60 96 28 28 (4515840)
I1214 22:59:47.187955  5289 net.cpp:165] Memory required for data: 5018603760
I1214 22:59:47.187973  5289 layer_factory.hpp:77] Creating layer scale_conv_3c_double_3x3_reduce
I1214 22:59:47.187993  5289 net.cpp:100] Creating Layer scale_conv_3c_double_3x3_reduce
I1214 22:59:47.188005  5289 net.cpp:434] scale_conv_3c_double_3x3_reduce <- conv_3c_double_3x3_reduce
I1214 22:59:47.188020  5289 net.cpp:395] scale_conv_3c_double_3x3_reduce -> conv_3c_double_3x3_reduce (in-place)
I1214 22:59:47.188082  5289 layer_factory.hpp:77] Creating layer scale_conv_3c_double_3x3_reduce
I1214 22:59:47.188246  5289 net.cpp:150] Setting up scale_conv_3c_double_3x3_reduce
I1214 22:59:47.188267  5289 net.cpp:157] Top shape: 60 96 28 28 (4515840)
I1214 22:59:47.188279  5289 net.cpp:165] Memory required for data: 5036667120
I1214 22:59:47.188300  5289 layer_factory.hpp:77] Creating layer relu_3c_double_3x3_reduce
I1214 22:59:47.188320  5289 net.cpp:100] Creating Layer relu_3c_double_3x3_reduce
I1214 22:59:47.188333  5289 net.cpp:434] relu_3c_double_3x3_reduce <- conv_3c_double_3x3_reduce
I1214 22:59:47.188349  5289 net.cpp:395] relu_3c_double_3x3_reduce -> conv_3c_double_3x3_reduce (in-place)
I1214 22:59:47.188365  5289 net.cpp:150] Setting up relu_3c_double_3x3_reduce
I1214 22:59:47.188380  5289 net.cpp:157] Top shape: 60 96 28 28 (4515840)
I1214 22:59:47.188391  5289 net.cpp:165] Memory required for data: 5054730480
I1214 22:59:47.188402  5289 layer_factory.hpp:77] Creating layer conv_3c_double_3x3_0
I1214 22:59:47.188422  5289 net.cpp:100] Creating Layer conv_3c_double_3x3_0
I1214 22:59:47.188436  5289 net.cpp:434] conv_3c_double_3x3_0 <- conv_3c_double_3x3_reduce
I1214 22:59:47.188452  5289 net.cpp:408] conv_3c_double_3x3_0 -> conv_3c_double_3x3_0
I1214 22:59:47.188824  5289 net.cpp:150] Setting up conv_3c_double_3x3_0
I1214 22:59:47.188848  5289 net.cpp:157] Top shape: 60 144 28 28 (6773760)
I1214 22:59:47.188858  5289 net.cpp:165] Memory required for data: 5081825520
I1214 22:59:47.188874  5289 layer_factory.hpp:77] Creating layer bn_3c_double_3x3_0
I1214 22:59:47.188894  5289 net.cpp:100] Creating Layer bn_3c_double_3x3_0
I1214 22:59:47.188910  5289 net.cpp:434] bn_3c_double_3x3_0 <- conv_3c_double_3x3_0
I1214 22:59:47.188926  5289 net.cpp:395] bn_3c_double_3x3_0 -> conv_3c_double_3x3_0 (in-place)
I1214 22:59:47.189178  5289 net.cpp:150] Setting up bn_3c_double_3x3_0
I1214 22:59:47.189205  5289 net.cpp:157] Top shape: 60 144 28 28 (6773760)
I1214 22:59:47.189218  5289 net.cpp:165] Memory required for data: 5108920560
I1214 22:59:47.189235  5289 layer_factory.hpp:77] Creating layer scale_conv_3c_double_3x3_0
I1214 22:59:47.189260  5289 net.cpp:100] Creating Layer scale_conv_3c_double_3x3_0
I1214 22:59:47.189275  5289 net.cpp:434] scale_conv_3c_double_3x3_0 <- conv_3c_double_3x3_0
I1214 22:59:47.189290  5289 net.cpp:395] scale_conv_3c_double_3x3_0 -> conv_3c_double_3x3_0 (in-place)
I1214 22:59:47.189358  5289 layer_factory.hpp:77] Creating layer scale_conv_3c_double_3x3_0
I1214 22:59:47.189512  5289 net.cpp:150] Setting up scale_conv_3c_double_3x3_0
I1214 22:59:47.189534  5289 net.cpp:157] Top shape: 60 144 28 28 (6773760)
I1214 22:59:47.189546  5289 net.cpp:165] Memory required for data: 5136015600
I1214 22:59:47.189561  5289 layer_factory.hpp:77] Creating layer relu_3c_double_3x3_0
I1214 22:59:47.189577  5289 net.cpp:100] Creating Layer relu_3c_double_3x3_0
I1214 22:59:47.189592  5289 net.cpp:434] relu_3c_double_3x3_0 <- conv_3c_double_3x3_0
I1214 22:59:47.189607  5289 net.cpp:395] relu_3c_double_3x3_0 -> conv_3c_double_3x3_0 (in-place)
I1214 22:59:47.189623  5289 net.cpp:150] Setting up relu_3c_double_3x3_0
I1214 22:59:47.189637  5289 net.cpp:157] Top shape: 60 144 28 28 (6773760)
I1214 22:59:47.189648  5289 net.cpp:165] Memory required for data: 5163110640
I1214 22:59:47.189659  5289 layer_factory.hpp:77] Creating layer conv_3c_double_3x3_1
I1214 22:59:47.189679  5289 net.cpp:100] Creating Layer conv_3c_double_3x3_1
I1214 22:59:47.189692  5289 net.cpp:434] conv_3c_double_3x3_1 <- conv_3c_double_3x3_0
I1214 22:59:47.189708  5289 net.cpp:408] conv_3c_double_3x3_1 -> conv_3c_double_3x3_1
I1214 22:59:47.190738  5289 net.cpp:150] Setting up conv_3c_double_3x3_1
I1214 22:59:47.190763  5289 net.cpp:157] Top shape: 60 144 14 14 (1693440)
I1214 22:59:47.190776  5289 net.cpp:165] Memory required for data: 5169884400
I1214 22:59:47.190791  5289 layer_factory.hpp:77] Creating layer bn_3c_double_3x3_1
I1214 22:59:47.190810  5289 net.cpp:100] Creating Layer bn_3c_double_3x3_1
I1214 22:59:47.190824  5289 net.cpp:434] bn_3c_double_3x3_1 <- conv_3c_double_3x3_1
I1214 22:59:47.190840  5289 net.cpp:395] bn_3c_double_3x3_1 -> conv_3c_double_3x3_1 (in-place)
I1214 22:59:47.191067  5289 net.cpp:150] Setting up bn_3c_double_3x3_1
I1214 22:59:47.191089  5289 net.cpp:157] Top shape: 60 144 14 14 (1693440)
I1214 22:59:47.191102  5289 net.cpp:165] Memory required for data: 5176658160
I1214 22:59:47.191118  5289 layer_factory.hpp:77] Creating layer scale_conv_3c_double_3x3_1
I1214 22:59:47.191134  5289 net.cpp:100] Creating Layer scale_conv_3c_double_3x3_1
I1214 22:59:47.191146  5289 net.cpp:434] scale_conv_3c_double_3x3_1 <- conv_3c_double_3x3_1
I1214 22:59:47.191164  5289 net.cpp:395] scale_conv_3c_double_3x3_1 -> conv_3c_double_3x3_1 (in-place)
I1214 22:59:47.191231  5289 layer_factory.hpp:77] Creating layer scale_conv_3c_double_3x3_1
I1214 22:59:47.191390  5289 net.cpp:150] Setting up scale_conv_3c_double_3x3_1
I1214 22:59:47.191411  5289 net.cpp:157] Top shape: 60 144 14 14 (1693440)
I1214 22:59:47.191422  5289 net.cpp:165] Memory required for data: 5183431920
I1214 22:59:47.191437  5289 layer_factory.hpp:77] Creating layer relu_3c_double_3x3_1
I1214 22:59:47.191452  5289 net.cpp:100] Creating Layer relu_3c_double_3x3_1
I1214 22:59:47.191478  5289 net.cpp:434] relu_3c_double_3x3_1 <- conv_3c_double_3x3_1
I1214 22:59:47.191495  5289 net.cpp:395] relu_3c_double_3x3_1 -> conv_3c_double_3x3_1 (in-place)
I1214 22:59:47.191514  5289 net.cpp:150] Setting up relu_3c_double_3x3_1
I1214 22:59:47.191527  5289 net.cpp:157] Top shape: 60 144 14 14 (1693440)
I1214 22:59:47.191540  5289 net.cpp:165] Memory required for data: 5190205680
I1214 22:59:47.191550  5289 layer_factory.hpp:77] Creating layer max_pool_3c_pool
I1214 22:59:47.191565  5289 net.cpp:100] Creating Layer max_pool_3c_pool
I1214 22:59:47.191578  5289 net.cpp:434] max_pool_3c_pool <- ch_concat_3b_chconcat_ch_concat_3b_chconcat_0_split_2
I1214 22:59:47.191596  5289 net.cpp:408] max_pool_3c_pool -> max_pool_3c_pool
I1214 22:59:47.191656  5289 net.cpp:150] Setting up max_pool_3c_pool
I1214 22:59:47.191675  5289 net.cpp:157] Top shape: 60 480 14 14 (5644800)
I1214 22:59:47.191687  5289 net.cpp:165] Memory required for data: 5212784880
I1214 22:59:47.191699  5289 layer_factory.hpp:77] Creating layer ch_concat_3c_chconcat
I1214 22:59:47.191715  5289 net.cpp:100] Creating Layer ch_concat_3c_chconcat
I1214 22:59:47.191735  5289 net.cpp:434] ch_concat_3c_chconcat <- conv_3c_3x3
I1214 22:59:47.191750  5289 net.cpp:434] ch_concat_3c_chconcat <- conv_3c_double_3x3_1
I1214 22:59:47.191762  5289 net.cpp:434] ch_concat_3c_chconcat <- max_pool_3c_pool
I1214 22:59:47.191777  5289 net.cpp:408] ch_concat_3c_chconcat -> ch_concat_3c_chconcat
I1214 22:59:47.191822  5289 net.cpp:150] Setting up ch_concat_3c_chconcat
I1214 22:59:47.191840  5289 net.cpp:157] Top shape: 60 864 14 14 (10160640)
I1214 22:59:47.191853  5289 net.cpp:165] Memory required for data: 5253427440
I1214 22:59:47.191864  5289 layer_factory.hpp:77] Creating layer ch_concat_3c_chconcat_ch_concat_3c_chconcat_0_split
I1214 22:59:47.191879  5289 net.cpp:100] Creating Layer ch_concat_3c_chconcat_ch_concat_3c_chconcat_0_split
I1214 22:59:47.191891  5289 net.cpp:434] ch_concat_3c_chconcat_ch_concat_3c_chconcat_0_split <- ch_concat_3c_chconcat
I1214 22:59:47.191906  5289 net.cpp:408] ch_concat_3c_chconcat_ch_concat_3c_chconcat_0_split -> ch_concat_3c_chconcat_ch_concat_3c_chconcat_0_split_0
I1214 22:59:47.191929  5289 net.cpp:408] ch_concat_3c_chconcat_ch_concat_3c_chconcat_0_split -> ch_concat_3c_chconcat_ch_concat_3c_chconcat_0_split_1
I1214 22:59:47.191949  5289 net.cpp:408] ch_concat_3c_chconcat_ch_concat_3c_chconcat_0_split -> ch_concat_3c_chconcat_ch_concat_3c_chconcat_0_split_2
I1214 22:59:47.191968  5289 net.cpp:408] ch_concat_3c_chconcat_ch_concat_3c_chconcat_0_split -> ch_concat_3c_chconcat_ch_concat_3c_chconcat_0_split_3
I1214 22:59:47.192052  5289 net.cpp:150] Setting up ch_concat_3c_chconcat_ch_concat_3c_chconcat_0_split
I1214 22:59:47.192072  5289 net.cpp:157] Top shape: 60 864 14 14 (10160640)
I1214 22:59:47.192085  5289 net.cpp:157] Top shape: 60 864 14 14 (10160640)
I1214 22:59:47.192098  5289 net.cpp:157] Top shape: 60 864 14 14 (10160640)
I1214 22:59:47.192111  5289 net.cpp:157] Top shape: 60 864 14 14 (10160640)
I1214 22:59:47.192123  5289 net.cpp:165] Memory required for data: 5415997680
I1214 22:59:47.192134  5289 layer_factory.hpp:77] Creating layer conv_4a_1x1
I1214 22:59:47.192199  5289 net.cpp:100] Creating Layer conv_4a_1x1
I1214 22:59:47.192216  5289 net.cpp:434] conv_4a_1x1 <- ch_concat_3c_chconcat_ch_concat_3c_chconcat_0_split_0
I1214 22:59:47.192232  5289 net.cpp:408] conv_4a_1x1 -> conv_4a_1x1
I1214 22:59:47.193300  5289 net.cpp:150] Setting up conv_4a_1x1
I1214 22:59:47.193325  5289 net.cpp:157] Top shape: 60 224 14 14 (2634240)
I1214 22:59:47.193342  5289 net.cpp:165] Memory required for data: 5426534640
I1214 22:59:47.193359  5289 layer_factory.hpp:77] Creating layer bn_4a_1x1
I1214 22:59:47.193377  5289 net.cpp:100] Creating Layer bn_4a_1x1
I1214 22:59:47.193392  5289 net.cpp:434] bn_4a_1x1 <- conv_4a_1x1
I1214 22:59:47.193406  5289 net.cpp:395] bn_4a_1x1 -> conv_4a_1x1 (in-place)
I1214 22:59:47.193650  5289 net.cpp:150] Setting up bn_4a_1x1
I1214 22:59:47.193671  5289 net.cpp:157] Top shape: 60 224 14 14 (2634240)
I1214 22:59:47.193683  5289 net.cpp:165] Memory required for data: 5437071600
I1214 22:59:47.193701  5289 layer_factory.hpp:77] Creating layer scale_conv_4a_1x1
I1214 22:59:47.193720  5289 net.cpp:100] Creating Layer scale_conv_4a_1x1
I1214 22:59:47.193733  5289 net.cpp:434] scale_conv_4a_1x1 <- conv_4a_1x1
I1214 22:59:47.193748  5289 net.cpp:395] scale_conv_4a_1x1 -> conv_4a_1x1 (in-place)
I1214 22:59:47.193822  5289 layer_factory.hpp:77] Creating layer scale_conv_4a_1x1
I1214 22:59:47.193969  5289 net.cpp:150] Setting up scale_conv_4a_1x1
I1214 22:59:47.193989  5289 net.cpp:157] Top shape: 60 224 14 14 (2634240)
I1214 22:59:47.194000  5289 net.cpp:165] Memory required for data: 5447608560
I1214 22:59:47.194015  5289 layer_factory.hpp:77] Creating layer relu_4a_1x1
I1214 22:59:47.194046  5289 net.cpp:100] Creating Layer relu_4a_1x1
I1214 22:59:47.194072  5289 net.cpp:434] relu_4a_1x1 <- conv_4a_1x1
I1214 22:59:47.194088  5289 net.cpp:395] relu_4a_1x1 -> conv_4a_1x1 (in-place)
I1214 22:59:47.194105  5289 net.cpp:150] Setting up relu_4a_1x1
I1214 22:59:47.194120  5289 net.cpp:157] Top shape: 60 224 14 14 (2634240)
I1214 22:59:47.194139  5289 net.cpp:165] Memory required for data: 5458145520
I1214 22:59:47.194151  5289 layer_factory.hpp:77] Creating layer conv_4a_3x3_reduce
I1214 22:59:47.194174  5289 net.cpp:100] Creating Layer conv_4a_3x3_reduce
I1214 22:59:47.194193  5289 net.cpp:434] conv_4a_3x3_reduce <- ch_concat_3c_chconcat_ch_concat_3c_chconcat_0_split_1
I1214 22:59:47.194216  5289 net.cpp:408] conv_4a_3x3_reduce -> conv_4a_3x3_reduce
I1214 22:59:47.194551  5289 net.cpp:150] Setting up conv_4a_3x3_reduce
I1214 22:59:47.194577  5289 net.cpp:157] Top shape: 60 64 14 14 (752640)
I1214 22:59:47.194589  5289 net.cpp:165] Memory required for data: 5461156080
I1214 22:59:47.194605  5289 layer_factory.hpp:77] Creating layer bn_4a_3x3_reduce
I1214 22:59:47.194622  5289 net.cpp:100] Creating Layer bn_4a_3x3_reduce
I1214 22:59:47.194634  5289 net.cpp:434] bn_4a_3x3_reduce <- conv_4a_3x3_reduce
I1214 22:59:47.194653  5289 net.cpp:395] bn_4a_3x3_reduce -> conv_4a_3x3_reduce (in-place)
I1214 22:59:47.194902  5289 net.cpp:150] Setting up bn_4a_3x3_reduce
I1214 22:59:47.194924  5289 net.cpp:157] Top shape: 60 64 14 14 (752640)
I1214 22:59:47.194937  5289 net.cpp:165] Memory required for data: 5464166640
I1214 22:59:47.194954  5289 layer_factory.hpp:77] Creating layer scale_conv_4a_3x3_reduce
I1214 22:59:47.194969  5289 net.cpp:100] Creating Layer scale_conv_4a_3x3_reduce
I1214 22:59:47.194982  5289 net.cpp:434] scale_conv_4a_3x3_reduce <- conv_4a_3x3_reduce
I1214 22:59:47.194999  5289 net.cpp:395] scale_conv_4a_3x3_reduce -> conv_4a_3x3_reduce (in-place)
I1214 22:59:47.195065  5289 layer_factory.hpp:77] Creating layer scale_conv_4a_3x3_reduce
I1214 22:59:47.195237  5289 net.cpp:150] Setting up scale_conv_4a_3x3_reduce
I1214 22:59:47.195261  5289 net.cpp:157] Top shape: 60 64 14 14 (752640)
I1214 22:59:47.195273  5289 net.cpp:165] Memory required for data: 5467177200
I1214 22:59:47.195289  5289 layer_factory.hpp:77] Creating layer relu_4a_3x3_reduce
I1214 22:59:47.195308  5289 net.cpp:100] Creating Layer relu_4a_3x3_reduce
I1214 22:59:47.195322  5289 net.cpp:434] relu_4a_3x3_reduce <- conv_4a_3x3_reduce
I1214 22:59:47.195336  5289 net.cpp:395] relu_4a_3x3_reduce -> conv_4a_3x3_reduce (in-place)
I1214 22:59:47.195353  5289 net.cpp:150] Setting up relu_4a_3x3_reduce
I1214 22:59:47.195368  5289 net.cpp:157] Top shape: 60 64 14 14 (752640)
I1214 22:59:47.195392  5289 net.cpp:165] Memory required for data: 5470187760
I1214 22:59:47.195403  5289 layer_factory.hpp:77] Creating layer conv_4a_3x3
I1214 22:59:47.195425  5289 net.cpp:100] Creating Layer conv_4a_3x3
I1214 22:59:47.195438  5289 net.cpp:434] conv_4a_3x3 <- conv_4a_3x3_reduce
I1214 22:59:47.195452  5289 net.cpp:408] conv_4a_3x3 -> conv_4a_3x3
I1214 22:59:47.195772  5289 net.cpp:150] Setting up conv_4a_3x3
I1214 22:59:47.195799  5289 net.cpp:157] Top shape: 60 96 14 14 (1128960)
I1214 22:59:47.195812  5289 net.cpp:165] Memory required for data: 5474703600
I1214 22:59:47.195828  5289 layer_factory.hpp:77] Creating layer bn_4a_3x3
I1214 22:59:47.195844  5289 net.cpp:100] Creating Layer bn_4a_3x3
I1214 22:59:47.195857  5289 net.cpp:434] bn_4a_3x3 <- conv_4a_3x3
I1214 22:59:47.195873  5289 net.cpp:395] bn_4a_3x3 -> conv_4a_3x3 (in-place)
I1214 22:59:47.196120  5289 net.cpp:150] Setting up bn_4a_3x3
I1214 22:59:47.196143  5289 net.cpp:157] Top shape: 60 96 14 14 (1128960)
I1214 22:59:47.196171  5289 net.cpp:165] Memory required for data: 5479219440
I1214 22:59:47.196197  5289 layer_factory.hpp:77] Creating layer scale_conv_4a_3x3
I1214 22:59:47.196213  5289 net.cpp:100] Creating Layer scale_conv_4a_3x3
I1214 22:59:47.196225  5289 net.cpp:434] scale_conv_4a_3x3 <- conv_4a_3x3
I1214 22:59:47.196244  5289 net.cpp:395] scale_conv_4a_3x3 -> conv_4a_3x3 (in-place)
I1214 22:59:47.196305  5289 layer_factory.hpp:77] Creating layer scale_conv_4a_3x3
I1214 22:59:47.196466  5289 net.cpp:150] Setting up scale_conv_4a_3x3
I1214 22:59:47.196491  5289 net.cpp:157] Top shape: 60 96 14 14 (1128960)
I1214 22:59:47.196503  5289 net.cpp:165] Memory required for data: 5483735280
I1214 22:59:47.196518  5289 layer_factory.hpp:77] Creating layer relu_4a_3x3
I1214 22:59:47.196542  5289 net.cpp:100] Creating Layer relu_4a_3x3
I1214 22:59:47.196555  5289 net.cpp:434] relu_4a_3x3 <- conv_4a_3x3
I1214 22:59:47.196575  5289 net.cpp:395] relu_4a_3x3 -> conv_4a_3x3 (in-place)
I1214 22:59:47.196593  5289 net.cpp:150] Setting up relu_4a_3x3
I1214 22:59:47.196606  5289 net.cpp:157] Top shape: 60 96 14 14 (1128960)
I1214 22:59:47.196619  5289 net.cpp:165] Memory required for data: 5488251120
I1214 22:59:47.196630  5289 layer_factory.hpp:77] Creating layer conv_4a_double_3x3_reduce
I1214 22:59:47.196650  5289 net.cpp:100] Creating Layer conv_4a_double_3x3_reduce
I1214 22:59:47.196663  5289 net.cpp:434] conv_4a_double_3x3_reduce <- ch_concat_3c_chconcat_ch_concat_3c_chconcat_0_split_2
I1214 22:59:47.196681  5289 net.cpp:408] conv_4a_double_3x3_reduce -> conv_4a_double_3x3_reduce
I1214 22:59:47.197655  5289 net.cpp:150] Setting up conv_4a_double_3x3_reduce
I1214 22:59:47.197684  5289 net.cpp:157] Top shape: 60 96 14 14 (1128960)
I1214 22:59:47.197696  5289 net.cpp:165] Memory required for data: 5492766960
I1214 22:59:47.197713  5289 layer_factory.hpp:77] Creating layer bn_4a_double_3x3_reduce
I1214 22:59:47.197732  5289 net.cpp:100] Creating Layer bn_4a_double_3x3_reduce
I1214 22:59:47.197746  5289 net.cpp:434] bn_4a_double_3x3_reduce <- conv_4a_double_3x3_reduce
I1214 22:59:47.197762  5289 net.cpp:395] bn_4a_double_3x3_reduce -> conv_4a_double_3x3_reduce (in-place)
I1214 22:59:47.197999  5289 net.cpp:150] Setting up bn_4a_double_3x3_reduce
I1214 22:59:47.198022  5289 net.cpp:157] Top shape: 60 96 14 14 (1128960)
I1214 22:59:47.198035  5289 net.cpp:165] Memory required for data: 5497282800
I1214 22:59:47.198052  5289 layer_factory.hpp:77] Creating layer scale_conv_4a_double_3x3_reduce
I1214 22:59:47.198071  5289 net.cpp:100] Creating Layer scale_conv_4a_double_3x3_reduce
I1214 22:59:47.198084  5289 net.cpp:434] scale_conv_4a_double_3x3_reduce <- conv_4a_double_3x3_reduce
I1214 22:59:47.198098  5289 net.cpp:395] scale_conv_4a_double_3x3_reduce -> conv_4a_double_3x3_reduce (in-place)
I1214 22:59:47.198160  5289 layer_factory.hpp:77] Creating layer scale_conv_4a_double_3x3_reduce
I1214 22:59:47.198328  5289 net.cpp:150] Setting up scale_conv_4a_double_3x3_reduce
I1214 22:59:47.198354  5289 net.cpp:157] Top shape: 60 96 14 14 (1128960)
I1214 22:59:47.198365  5289 net.cpp:165] Memory required for data: 5501798640
I1214 22:59:47.198381  5289 layer_factory.hpp:77] Creating layer relu_4a_double_3x3_reduce
I1214 22:59:47.198397  5289 net.cpp:100] Creating Layer relu_4a_double_3x3_reduce
I1214 22:59:47.198410  5289 net.cpp:434] relu_4a_double_3x3_reduce <- conv_4a_double_3x3_reduce
I1214 22:59:47.198427  5289 net.cpp:395] relu_4a_double_3x3_reduce -> conv_4a_double_3x3_reduce (in-place)
I1214 22:59:47.198444  5289 net.cpp:150] Setting up relu_4a_double_3x3_reduce
I1214 22:59:47.198459  5289 net.cpp:157] Top shape: 60 96 14 14 (1128960)
I1214 22:59:47.198470  5289 net.cpp:165] Memory required for data: 5506314480
I1214 22:59:47.198482  5289 layer_factory.hpp:77] Creating layer conv_4a_double_3x3_0
I1214 22:59:47.198498  5289 net.cpp:100] Creating Layer conv_4a_double_3x3_0
I1214 22:59:47.198510  5289 net.cpp:434] conv_4a_double_3x3_0 <- conv_4a_double_3x3_reduce
I1214 22:59:47.198531  5289 net.cpp:408] conv_4a_double_3x3_0 -> conv_4a_double_3x3_0
I1214 22:59:47.198882  5289 net.cpp:150] Setting up conv_4a_double_3x3_0
I1214 22:59:47.198907  5289 net.cpp:157] Top shape: 60 128 14 14 (1505280)
I1214 22:59:47.198920  5289 net.cpp:165] Memory required for data: 5512335600
I1214 22:59:47.198935  5289 layer_factory.hpp:77] Creating layer bn_4a_double_3x3_0
I1214 22:59:47.198951  5289 net.cpp:100] Creating Layer bn_4a_double_3x3_0
I1214 22:59:47.198962  5289 net.cpp:434] bn_4a_double_3x3_0 <- conv_4a_double_3x3_0
I1214 22:59:47.198982  5289 net.cpp:395] bn_4a_double_3x3_0 -> conv_4a_double_3x3_0 (in-place)
I1214 22:59:47.199220  5289 net.cpp:150] Setting up bn_4a_double_3x3_0
I1214 22:59:47.199245  5289 net.cpp:157] Top shape: 60 128 14 14 (1505280)
I1214 22:59:47.199257  5289 net.cpp:165] Memory required for data: 5518356720
I1214 22:59:47.199283  5289 layer_factory.hpp:77] Creating layer scale_conv_4a_double_3x3_0
I1214 22:59:47.199301  5289 net.cpp:100] Creating Layer scale_conv_4a_double_3x3_0
I1214 22:59:47.199313  5289 net.cpp:434] scale_conv_4a_double_3x3_0 <- conv_4a_double_3x3_0
I1214 22:59:47.199331  5289 net.cpp:395] scale_conv_4a_double_3x3_0 -> conv_4a_double_3x3_0 (in-place)
I1214 22:59:47.199391  5289 layer_factory.hpp:77] Creating layer scale_conv_4a_double_3x3_0
I1214 22:59:47.199532  5289 net.cpp:150] Setting up scale_conv_4a_double_3x3_0
I1214 22:59:47.199558  5289 net.cpp:157] Top shape: 60 128 14 14 (1505280)
I1214 22:59:47.199571  5289 net.cpp:165] Memory required for data: 5524377840
I1214 22:59:47.199586  5289 layer_factory.hpp:77] Creating layer relu_4a_double_3x3_0
I1214 22:59:47.199602  5289 net.cpp:100] Creating Layer relu_4a_double_3x3_0
I1214 22:59:47.199615  5289 net.cpp:434] relu_4a_double_3x3_0 <- conv_4a_double_3x3_0
I1214 22:59:47.199630  5289 net.cpp:395] relu_4a_double_3x3_0 -> conv_4a_double_3x3_0 (in-place)
I1214 22:59:47.199645  5289 net.cpp:150] Setting up relu_4a_double_3x3_0
I1214 22:59:47.199659  5289 net.cpp:157] Top shape: 60 128 14 14 (1505280)
I1214 22:59:47.199671  5289 net.cpp:165] Memory required for data: 5530398960
I1214 22:59:47.199682  5289 layer_factory.hpp:77] Creating layer conv_4a_double_3x3_1
I1214 22:59:47.199702  5289 net.cpp:100] Creating Layer conv_4a_double_3x3_1
I1214 22:59:47.199717  5289 net.cpp:434] conv_4a_double_3x3_1 <- conv_4a_double_3x3_0
I1214 22:59:47.199734  5289 net.cpp:408] conv_4a_double_3x3_1 -> conv_4a_double_3x3_1
I1214 22:59:47.200731  5289 net.cpp:150] Setting up conv_4a_double_3x3_1
I1214 22:59:47.200762  5289 net.cpp:157] Top shape: 60 128 14 14 (1505280)
I1214 22:59:47.200776  5289 net.cpp:165] Memory required for data: 5536420080
I1214 22:59:47.200793  5289 layer_factory.hpp:77] Creating layer bn_4a_double_3x3_1
I1214 22:59:47.200809  5289 net.cpp:100] Creating Layer bn_4a_double_3x3_1
I1214 22:59:47.200820  5289 net.cpp:434] bn_4a_double_3x3_1 <- conv_4a_double_3x3_1
I1214 22:59:47.200839  5289 net.cpp:395] bn_4a_double_3x3_1 -> conv_4a_double_3x3_1 (in-place)
I1214 22:59:47.201066  5289 net.cpp:150] Setting up bn_4a_double_3x3_1
I1214 22:59:47.201088  5289 net.cpp:157] Top shape: 60 128 14 14 (1505280)
I1214 22:59:47.201102  5289 net.cpp:165] Memory required for data: 5542441200
I1214 22:59:47.201118  5289 layer_factory.hpp:77] Creating layer scale_conv_4a_double_3x3_1
I1214 22:59:47.201135  5289 net.cpp:100] Creating Layer scale_conv_4a_double_3x3_1
I1214 22:59:47.201148  5289 net.cpp:434] scale_conv_4a_double_3x3_1 <- conv_4a_double_3x3_1
I1214 22:59:47.201161  5289 net.cpp:395] scale_conv_4a_double_3x3_1 -> conv_4a_double_3x3_1 (in-place)
I1214 22:59:47.201230  5289 layer_factory.hpp:77] Creating layer scale_conv_4a_double_3x3_1
I1214 22:59:47.201381  5289 net.cpp:150] Setting up scale_conv_4a_double_3x3_1
I1214 22:59:47.201406  5289 net.cpp:157] Top shape: 60 128 14 14 (1505280)
I1214 22:59:47.201417  5289 net.cpp:165] Memory required for data: 5548462320
I1214 22:59:47.201433  5289 layer_factory.hpp:77] Creating layer relu_4a_double_3x3_1
I1214 22:59:47.201449  5289 net.cpp:100] Creating Layer relu_4a_double_3x3_1
I1214 22:59:47.201465  5289 net.cpp:434] relu_4a_double_3x3_1 <- conv_4a_double_3x3_1
I1214 22:59:47.201479  5289 net.cpp:395] relu_4a_double_3x3_1 -> conv_4a_double_3x3_1 (in-place)
I1214 22:59:47.201496  5289 net.cpp:150] Setting up relu_4a_double_3x3_1
I1214 22:59:47.201510  5289 net.cpp:157] Top shape: 60 128 14 14 (1505280)
I1214 22:59:47.201522  5289 net.cpp:165] Memory required for data: 5554483440
I1214 22:59:47.201534  5289 layer_factory.hpp:77] Creating layer ave_pool_4a_pool
I1214 22:59:47.201560  5289 net.cpp:100] Creating Layer ave_pool_4a_pool
I1214 22:59:47.201573  5289 net.cpp:434] ave_pool_4a_pool <- ch_concat_3c_chconcat_ch_concat_3c_chconcat_0_split_3
I1214 22:59:47.201593  5289 net.cpp:408] ave_pool_4a_pool -> ave_pool_4a_pool
I1214 22:59:47.201638  5289 net.cpp:150] Setting up ave_pool_4a_pool
I1214 22:59:47.201665  5289 net.cpp:157] Top shape: 60 864 14 14 (10160640)
I1214 22:59:47.201678  5289 net.cpp:165] Memory required for data: 5595126000
I1214 22:59:47.201689  5289 layer_factory.hpp:77] Creating layer conv_4a_proj
I1214 22:59:47.201706  5289 net.cpp:100] Creating Layer conv_4a_proj
I1214 22:59:47.201719  5289 net.cpp:434] conv_4a_proj <- ave_pool_4a_pool
I1214 22:59:47.201738  5289 net.cpp:408] conv_4a_proj -> conv_4a_proj
I1214 22:59:47.202097  5289 net.cpp:150] Setting up conv_4a_proj
I1214 22:59:47.202121  5289 net.cpp:157] Top shape: 60 128 14 14 (1505280)
I1214 22:59:47.202134  5289 net.cpp:165] Memory required for data: 5601147120
I1214 22:59:47.202149  5289 layer_factory.hpp:77] Creating layer bn_4a_proj
I1214 22:59:47.202165  5289 net.cpp:100] Creating Layer bn_4a_proj
I1214 22:59:47.202178  5289 net.cpp:434] bn_4a_proj <- conv_4a_proj
I1214 22:59:47.202201  5289 net.cpp:395] bn_4a_proj -> conv_4a_proj (in-place)
I1214 22:59:47.202440  5289 net.cpp:150] Setting up bn_4a_proj
I1214 22:59:47.202463  5289 net.cpp:157] Top shape: 60 128 14 14 (1505280)
I1214 22:59:47.202476  5289 net.cpp:165] Memory required for data: 5607168240
I1214 22:59:47.202494  5289 layer_factory.hpp:77] Creating layer scale_conv_4a_proj
I1214 22:59:47.202554  5289 net.cpp:100] Creating Layer scale_conv_4a_proj
I1214 22:59:47.202571  5289 net.cpp:434] scale_conv_4a_proj <- conv_4a_proj
I1214 22:59:47.202587  5289 net.cpp:395] scale_conv_4a_proj -> conv_4a_proj (in-place)
I1214 22:59:47.202649  5289 layer_factory.hpp:77] Creating layer scale_conv_4a_proj
I1214 22:59:47.202802  5289 net.cpp:150] Setting up scale_conv_4a_proj
I1214 22:59:47.202826  5289 net.cpp:157] Top shape: 60 128 14 14 (1505280)
I1214 22:59:47.202838  5289 net.cpp:165] Memory required for data: 5613189360
I1214 22:59:47.202855  5289 layer_factory.hpp:77] Creating layer relu_4a_proj
I1214 22:59:47.202870  5289 net.cpp:100] Creating Layer relu_4a_proj
I1214 22:59:47.202883  5289 net.cpp:434] relu_4a_proj <- conv_4a_proj
I1214 22:59:47.202899  5289 net.cpp:395] relu_4a_proj -> conv_4a_proj (in-place)
I1214 22:59:47.202917  5289 net.cpp:150] Setting up relu_4a_proj
I1214 22:59:47.202931  5289 net.cpp:157] Top shape: 60 128 14 14 (1505280)
I1214 22:59:47.202944  5289 net.cpp:165] Memory required for data: 5619210480
I1214 22:59:47.202955  5289 layer_factory.hpp:77] Creating layer ch_concat_4a_chconcat
I1214 22:59:47.202970  5289 net.cpp:100] Creating Layer ch_concat_4a_chconcat
I1214 22:59:47.202981  5289 net.cpp:434] ch_concat_4a_chconcat <- conv_4a_1x1
I1214 22:59:47.202994  5289 net.cpp:434] ch_concat_4a_chconcat <- conv_4a_3x3
I1214 22:59:47.203007  5289 net.cpp:434] ch_concat_4a_chconcat <- conv_4a_double_3x3_1
I1214 22:59:47.203019  5289 net.cpp:434] ch_concat_4a_chconcat <- conv_4a_proj
I1214 22:59:47.203034  5289 net.cpp:408] ch_concat_4a_chconcat -> ch_concat_4a_chconcat
I1214 22:59:47.203075  5289 net.cpp:150] Setting up ch_concat_4a_chconcat
I1214 22:59:47.203094  5289 net.cpp:157] Top shape: 60 576 14 14 (6773760)
I1214 22:59:47.203106  5289 net.cpp:165] Memory required for data: 5646305520
I1214 22:59:47.203117  5289 layer_factory.hpp:77] Creating layer ch_concat_4a_chconcat_ch_concat_4a_chconcat_0_split
I1214 22:59:47.203137  5289 net.cpp:100] Creating Layer ch_concat_4a_chconcat_ch_concat_4a_chconcat_0_split
I1214 22:59:47.203150  5289 net.cpp:434] ch_concat_4a_chconcat_ch_concat_4a_chconcat_0_split <- ch_concat_4a_chconcat
I1214 22:59:47.203171  5289 net.cpp:408] ch_concat_4a_chconcat_ch_concat_4a_chconcat_0_split -> ch_concat_4a_chconcat_ch_concat_4a_chconcat_0_split_0
I1214 22:59:47.203200  5289 net.cpp:408] ch_concat_4a_chconcat_ch_concat_4a_chconcat_0_split -> ch_concat_4a_chconcat_ch_concat_4a_chconcat_0_split_1
I1214 22:59:47.203220  5289 net.cpp:408] ch_concat_4a_chconcat_ch_concat_4a_chconcat_0_split -> ch_concat_4a_chconcat_ch_concat_4a_chconcat_0_split_2
I1214 22:59:47.203239  5289 net.cpp:408] ch_concat_4a_chconcat_ch_concat_4a_chconcat_0_split -> ch_concat_4a_chconcat_ch_concat_4a_chconcat_0_split_3
I1214 22:59:47.203332  5289 net.cpp:150] Setting up ch_concat_4a_chconcat_ch_concat_4a_chconcat_0_split
I1214 22:59:47.203353  5289 net.cpp:157] Top shape: 60 576 14 14 (6773760)
I1214 22:59:47.203367  5289 net.cpp:157] Top shape: 60 576 14 14 (6773760)
I1214 22:59:47.203380  5289 net.cpp:157] Top shape: 60 576 14 14 (6773760)
I1214 22:59:47.203393  5289 net.cpp:157] Top shape: 60 576 14 14 (6773760)
I1214 22:59:47.203404  5289 net.cpp:165] Memory required for data: 5754685680
I1214 22:59:47.203416  5289 layer_factory.hpp:77] Creating layer conv_4b_1x1
I1214 22:59:47.203438  5289 net.cpp:100] Creating Layer conv_4b_1x1
I1214 22:59:47.203450  5289 net.cpp:434] conv_4b_1x1 <- ch_concat_4a_chconcat_ch_concat_4a_chconcat_0_split_0
I1214 22:59:47.203466  5289 net.cpp:408] conv_4b_1x1 -> conv_4b_1x1
I1214 22:59:47.204448  5289 net.cpp:150] Setting up conv_4b_1x1
I1214 22:59:47.204475  5289 net.cpp:157] Top shape: 60 192 14 14 (2257920)
I1214 22:59:47.204489  5289 net.cpp:165] Memory required for data: 5763717360
I1214 22:59:47.204506  5289 layer_factory.hpp:77] Creating layer bn_4b_1x1
I1214 22:59:47.204525  5289 net.cpp:100] Creating Layer bn_4b_1x1
I1214 22:59:47.204538  5289 net.cpp:434] bn_4b_1x1 <- conv_4b_1x1
I1214 22:59:47.204555  5289 net.cpp:395] bn_4b_1x1 -> conv_4b_1x1 (in-place)
I1214 22:59:47.204792  5289 net.cpp:150] Setting up bn_4b_1x1
I1214 22:59:47.204816  5289 net.cpp:157] Top shape: 60 192 14 14 (2257920)
I1214 22:59:47.204829  5289 net.cpp:165] Memory required for data: 5772749040
I1214 22:59:47.204846  5289 layer_factory.hpp:77] Creating layer scale_conv_4b_1x1
I1214 22:59:47.204862  5289 net.cpp:100] Creating Layer scale_conv_4b_1x1
I1214 22:59:47.204874  5289 net.cpp:434] scale_conv_4b_1x1 <- conv_4b_1x1
I1214 22:59:47.204888  5289 net.cpp:395] scale_conv_4b_1x1 -> conv_4b_1x1 (in-place)
I1214 22:59:47.204953  5289 layer_factory.hpp:77] Creating layer scale_conv_4b_1x1
I1214 22:59:47.205122  5289 net.cpp:150] Setting up scale_conv_4b_1x1
I1214 22:59:47.205147  5289 net.cpp:157] Top shape: 60 192 14 14 (2257920)
I1214 22:59:47.205159  5289 net.cpp:165] Memory required for data: 5781780720
I1214 22:59:47.205175  5289 layer_factory.hpp:77] Creating layer relu_4b_1x1
I1214 22:59:47.205198  5289 net.cpp:100] Creating Layer relu_4b_1x1
I1214 22:59:47.205212  5289 net.cpp:434] relu_4b_1x1 <- conv_4b_1x1
I1214 22:59:47.205237  5289 net.cpp:395] relu_4b_1x1 -> conv_4b_1x1 (in-place)
I1214 22:59:47.205255  5289 net.cpp:150] Setting up relu_4b_1x1
I1214 22:59:47.205271  5289 net.cpp:157] Top shape: 60 192 14 14 (2257920)
I1214 22:59:47.205281  5289 net.cpp:165] Memory required for data: 5790812400
I1214 22:59:47.205293  5289 layer_factory.hpp:77] Creating layer conv_4b_3x3_reduce
I1214 22:59:47.205310  5289 net.cpp:100] Creating Layer conv_4b_3x3_reduce
I1214 22:59:47.205323  5289 net.cpp:434] conv_4b_3x3_reduce <- ch_concat_4a_chconcat_ch_concat_4a_chconcat_0_split_1
I1214 22:59:47.205343  5289 net.cpp:408] conv_4b_3x3_reduce -> conv_4b_3x3_reduce
I1214 22:59:47.205672  5289 net.cpp:150] Setting up conv_4b_3x3_reduce
I1214 22:59:47.205696  5289 net.cpp:157] Top shape: 60 96 14 14 (1128960)
I1214 22:59:47.205708  5289 net.cpp:165] Memory required for data: 5795328240
I1214 22:59:47.205724  5289 layer_factory.hpp:77] Creating layer bn_4b_3x3_reduce
I1214 22:59:47.205742  5289 net.cpp:100] Creating Layer bn_4b_3x3_reduce
I1214 22:59:47.205755  5289 net.cpp:434] bn_4b_3x3_reduce <- conv_4b_3x3_reduce
I1214 22:59:47.205770  5289 net.cpp:395] bn_4b_3x3_reduce -> conv_4b_3x3_reduce (in-place)
I1214 22:59:47.206008  5289 net.cpp:150] Setting up bn_4b_3x3_reduce
I1214 22:59:47.206032  5289 net.cpp:157] Top shape: 60 96 14 14 (1128960)
I1214 22:59:47.206044  5289 net.cpp:165] Memory required for data: 5799844080
I1214 22:59:47.206061  5289 layer_factory.hpp:77] Creating layer scale_conv_4b_3x3_reduce
I1214 22:59:47.206079  5289 net.cpp:100] Creating Layer scale_conv_4b_3x3_reduce
I1214 22:59:47.206090  5289 net.cpp:434] scale_conv_4b_3x3_reduce <- conv_4b_3x3_reduce
I1214 22:59:47.206104  5289 net.cpp:395] scale_conv_4b_3x3_reduce -> conv_4b_3x3_reduce (in-place)
I1214 22:59:47.206187  5289 layer_factory.hpp:77] Creating layer scale_conv_4b_3x3_reduce
I1214 22:59:47.206346  5289 net.cpp:150] Setting up scale_conv_4b_3x3_reduce
I1214 22:59:47.206370  5289 net.cpp:157] Top shape: 60 96 14 14 (1128960)
I1214 22:59:47.206382  5289 net.cpp:165] Memory required for data: 5804359920
I1214 22:59:47.206398  5289 layer_factory.hpp:77] Creating layer relu_4b_3x3_reduce
I1214 22:59:47.206413  5289 net.cpp:100] Creating Layer relu_4b_3x3_reduce
I1214 22:59:47.206425  5289 net.cpp:434] relu_4b_3x3_reduce <- conv_4b_3x3_reduce
I1214 22:59:47.206442  5289 net.cpp:395] relu_4b_3x3_reduce -> conv_4b_3x3_reduce (in-place)
I1214 22:59:47.206461  5289 net.cpp:150] Setting up relu_4b_3x3_reduce
I1214 22:59:47.206475  5289 net.cpp:157] Top shape: 60 96 14 14 (1128960)
I1214 22:59:47.206486  5289 net.cpp:165] Memory required for data: 5808875760
I1214 22:59:47.206497  5289 layer_factory.hpp:77] Creating layer conv_4b_3x3
I1214 22:59:47.206516  5289 net.cpp:100] Creating Layer conv_4b_3x3
I1214 22:59:47.206528  5289 net.cpp:434] conv_4b_3x3 <- conv_4b_3x3_reduce
I1214 22:59:47.206547  5289 net.cpp:408] conv_4b_3x3 -> conv_4b_3x3
I1214 22:59:47.206904  5289 net.cpp:150] Setting up conv_4b_3x3
I1214 22:59:47.206928  5289 net.cpp:157] Top shape: 60 128 14 14 (1505280)
I1214 22:59:47.206941  5289 net.cpp:165] Memory required for data: 5814896880
I1214 22:59:47.206956  5289 layer_factory.hpp:77] Creating layer bn_4b_3x3
I1214 22:59:47.206975  5289 net.cpp:100] Creating Layer bn_4b_3x3
I1214 22:59:47.206989  5289 net.cpp:434] bn_4b_3x3 <- conv_4b_3x3
I1214 22:59:47.207006  5289 net.cpp:395] bn_4b_3x3 -> conv_4b_3x3 (in-place)
I1214 22:59:47.207238  5289 net.cpp:150] Setting up bn_4b_3x3
I1214 22:59:47.207262  5289 net.cpp:157] Top shape: 60 128 14 14 (1505280)
I1214 22:59:47.207275  5289 net.cpp:165] Memory required for data: 5820918000
I1214 22:59:47.207293  5289 layer_factory.hpp:77] Creating layer scale_conv_4b_3x3
I1214 22:59:47.207312  5289 net.cpp:100] Creating Layer scale_conv_4b_3x3
I1214 22:59:47.207325  5289 net.cpp:434] scale_conv_4b_3x3 <- conv_4b_3x3
I1214 22:59:47.207340  5289 net.cpp:395] scale_conv_4b_3x3 -> conv_4b_3x3 (in-place)
I1214 22:59:47.207404  5289 layer_factory.hpp:77] Creating layer scale_conv_4b_3x3
I1214 22:59:47.207554  5289 net.cpp:150] Setting up scale_conv_4b_3x3
I1214 22:59:47.207576  5289 net.cpp:157] Top shape: 60 128 14 14 (1505280)
I1214 22:59:47.207589  5289 net.cpp:165] Memory required for data: 5826939120
I1214 22:59:47.207604  5289 layer_factory.hpp:77] Creating layer relu_4b_3x3
I1214 22:59:47.207620  5289 net.cpp:100] Creating Layer relu_4b_3x3
I1214 22:59:47.207633  5289 net.cpp:434] relu_4b_3x3 <- conv_4b_3x3
I1214 22:59:47.207649  5289 net.cpp:395] relu_4b_3x3 -> conv_4b_3x3 (in-place)
I1214 22:59:47.207666  5289 net.cpp:150] Setting up relu_4b_3x3
I1214 22:59:47.207680  5289 net.cpp:157] Top shape: 60 128 14 14 (1505280)
I1214 22:59:47.207692  5289 net.cpp:165] Memory required for data: 5832960240
I1214 22:59:47.207703  5289 layer_factory.hpp:77] Creating layer conv_4b_double_3x3_reduce
I1214 22:59:47.207725  5289 net.cpp:100] Creating Layer conv_4b_double_3x3_reduce
I1214 22:59:47.207741  5289 net.cpp:434] conv_4b_double_3x3_reduce <- ch_concat_4a_chconcat_ch_concat_4a_chconcat_0_split_2
I1214 22:59:47.207759  5289 net.cpp:408] conv_4b_double_3x3_reduce -> conv_4b_double_3x3_reduce
I1214 22:59:47.208725  5289 net.cpp:150] Setting up conv_4b_double_3x3_reduce
I1214 22:59:47.208752  5289 net.cpp:157] Top shape: 60 96 14 14 (1128960)
I1214 22:59:47.208765  5289 net.cpp:165] Memory required for data: 5837476080
I1214 22:59:47.208781  5289 layer_factory.hpp:77] Creating layer bn_4b_double_3x3_reduce
I1214 22:59:47.208801  5289 net.cpp:100] Creating Layer bn_4b_double_3x3_reduce
I1214 22:59:47.208814  5289 net.cpp:434] bn_4b_double_3x3_reduce <- conv_4b_double_3x3_reduce
I1214 22:59:47.208832  5289 net.cpp:395] bn_4b_double_3x3_reduce -> conv_4b_double_3x3_reduce (in-place)
I1214 22:59:47.209074  5289 net.cpp:150] Setting up bn_4b_double_3x3_reduce
I1214 22:59:47.209106  5289 net.cpp:157] Top shape: 60 96 14 14 (1128960)
I1214 22:59:47.209120  5289 net.cpp:165] Memory required for data: 5841991920
I1214 22:59:47.209136  5289 layer_factory.hpp:77] Creating layer scale_conv_4b_double_3x3_reduce
I1214 22:59:47.209156  5289 net.cpp:100] Creating Layer scale_conv_4b_double_3x3_reduce
I1214 22:59:47.209169  5289 net.cpp:434] scale_conv_4b_double_3x3_reduce <- conv_4b_double_3x3_reduce
I1214 22:59:47.209190  5289 net.cpp:395] scale_conv_4b_double_3x3_reduce -> conv_4b_double_3x3_reduce (in-place)
I1214 22:59:47.209256  5289 layer_factory.hpp:77] Creating layer scale_conv_4b_double_3x3_reduce
I1214 22:59:47.209422  5289 net.cpp:150] Setting up scale_conv_4b_double_3x3_reduce
I1214 22:59:47.209445  5289 net.cpp:157] Top shape: 60 96 14 14 (1128960)
I1214 22:59:47.209458  5289 net.cpp:165] Memory required for data: 5846507760
I1214 22:59:47.209475  5289 layer_factory.hpp:77] Creating layer relu_4b_double_3x3_reduce
I1214 22:59:47.209489  5289 net.cpp:100] Creating Layer relu_4b_double_3x3_reduce
I1214 22:59:47.209501  5289 net.cpp:434] relu_4b_double_3x3_reduce <- conv_4b_double_3x3_reduce
I1214 22:59:47.209519  5289 net.cpp:395] relu_4b_double_3x3_reduce -> conv_4b_double_3x3_reduce (in-place)
I1214 22:59:47.209537  5289 net.cpp:150] Setting up relu_4b_double_3x3_reduce
I1214 22:59:47.209552  5289 net.cpp:157] Top shape: 60 96 14 14 (1128960)
I1214 22:59:47.209563  5289 net.cpp:165] Memory required for data: 5851023600
I1214 22:59:47.209574  5289 layer_factory.hpp:77] Creating layer conv_4b_double_3x3_0
I1214 22:59:47.209591  5289 net.cpp:100] Creating Layer conv_4b_double_3x3_0
I1214 22:59:47.209606  5289 net.cpp:434] conv_4b_double_3x3_0 <- conv_4b_double_3x3_reduce
I1214 22:59:47.209625  5289 net.cpp:408] conv_4b_double_3x3_0 -> conv_4b_double_3x3_0
I1214 22:59:47.210631  5289 net.cpp:150] Setting up conv_4b_double_3x3_0
I1214 22:59:47.210664  5289 net.cpp:157] Top shape: 60 128 14 14 (1505280)
I1214 22:59:47.210676  5289 net.cpp:165] Memory required for data: 5857044720
I1214 22:59:47.210693  5289 layer_factory.hpp:77] Creating layer bn_4b_double_3x3_0
I1214 22:59:47.210710  5289 net.cpp:100] Creating Layer bn_4b_double_3x3_0
I1214 22:59:47.210722  5289 net.cpp:434] bn_4b_double_3x3_0 <- conv_4b_double_3x3_0
I1214 22:59:47.210742  5289 net.cpp:395] bn_4b_double_3x3_0 -> conv_4b_double_3x3_0 (in-place)
I1214 22:59:47.210973  5289 net.cpp:150] Setting up bn_4b_double_3x3_0
I1214 22:59:47.210996  5289 net.cpp:157] Top shape: 60 128 14 14 (1505280)
I1214 22:59:47.211009  5289 net.cpp:165] Memory required for data: 5863065840
I1214 22:59:47.211026  5289 layer_factory.hpp:77] Creating layer scale_conv_4b_double_3x3_0
I1214 22:59:47.211046  5289 net.cpp:100] Creating Layer scale_conv_4b_double_3x3_0
I1214 22:59:47.211061  5289 net.cpp:434] scale_conv_4b_double_3x3_0 <- conv_4b_double_3x3_0
I1214 22:59:47.211074  5289 net.cpp:395] scale_conv_4b_double_3x3_0 -> conv_4b_double_3x3_0 (in-place)
I1214 22:59:47.211138  5289 layer_factory.hpp:77] Creating layer scale_conv_4b_double_3x3_0
I1214 22:59:47.211294  5289 net.cpp:150] Setting up scale_conv_4b_double_3x3_0
I1214 22:59:47.211318  5289 net.cpp:157] Top shape: 60 128 14 14 (1505280)
I1214 22:59:47.211331  5289 net.cpp:165] Memory required for data: 5869086960
I1214 22:59:47.211347  5289 layer_factory.hpp:77] Creating layer relu_4b_double_3x3_0
I1214 22:59:47.211362  5289 net.cpp:100] Creating Layer relu_4b_double_3x3_0
I1214 22:59:47.211374  5289 net.cpp:434] relu_4b_double_3x3_0 <- conv_4b_double_3x3_0
I1214 22:59:47.211392  5289 net.cpp:395] relu_4b_double_3x3_0 -> conv_4b_double_3x3_0 (in-place)
I1214 22:59:47.211411  5289 net.cpp:150] Setting up relu_4b_double_3x3_0
I1214 22:59:47.211426  5289 net.cpp:157] Top shape: 60 128 14 14 (1505280)
I1214 22:59:47.211439  5289 net.cpp:165] Memory required for data: 5875108080
I1214 22:59:47.211450  5289 layer_factory.hpp:77] Creating layer conv_4b_double_3x3_1
I1214 22:59:47.211472  5289 net.cpp:100] Creating Layer conv_4b_double_3x3_1
I1214 22:59:47.211485  5289 net.cpp:434] conv_4b_double_3x3_1 <- conv_4b_double_3x3_0
I1214 22:59:47.211509  5289 net.cpp:408] conv_4b_double_3x3_1 -> conv_4b_double_3x3_1
I1214 22:59:47.211899  5289 net.cpp:150] Setting up conv_4b_double_3x3_1
I1214 22:59:47.211925  5289 net.cpp:157] Top shape: 60 128 14 14 (1505280)
I1214 22:59:47.211937  5289 net.cpp:165] Memory required for data: 5881129200
I1214 22:59:47.211953  5289 layer_factory.hpp:77] Creating layer bn_4b_double_3x3_1
I1214 22:59:47.211973  5289 net.cpp:100] Creating Layer bn_4b_double_3x3_1
I1214 22:59:47.211987  5289 net.cpp:434] bn_4b_double_3x3_1 <- conv_4b_double_3x3_1
I1214 22:59:47.212002  5289 net.cpp:395] bn_4b_double_3x3_1 -> conv_4b_double_3x3_1 (in-place)
I1214 22:59:47.212254  5289 net.cpp:150] Setting up bn_4b_double_3x3_1
I1214 22:59:47.212281  5289 net.cpp:157] Top shape: 60 128 14 14 (1505280)
I1214 22:59:47.212294  5289 net.cpp:165] Memory required for data: 5887150320
I1214 22:59:47.212312  5289 layer_factory.hpp:77] Creating layer scale_conv_4b_double_3x3_1
I1214 22:59:47.212328  5289 net.cpp:100] Creating Layer scale_conv_4b_double_3x3_1
I1214 22:59:47.212342  5289 net.cpp:434] scale_conv_4b_double_3x3_1 <- conv_4b_double_3x3_1
I1214 22:59:47.212358  5289 net.cpp:395] scale_conv_4b_double_3x3_1 -> conv_4b_double_3x3_1 (in-place)
I1214 22:59:47.212424  5289 layer_factory.hpp:77] Creating layer scale_conv_4b_double_3x3_1
I1214 22:59:47.212575  5289 net.cpp:150] Setting up scale_conv_4b_double_3x3_1
I1214 22:59:47.212599  5289 net.cpp:157] Top shape: 60 128 14 14 (1505280)
I1214 22:59:47.212611  5289 net.cpp:165] Memory required for data: 5893171440
I1214 22:59:47.212626  5289 layer_factory.hpp:77] Creating layer relu_4b_double_3x3_1
I1214 22:59:47.212646  5289 net.cpp:100] Creating Layer relu_4b_double_3x3_1
I1214 22:59:47.212658  5289 net.cpp:434] relu_4b_double_3x3_1 <- conv_4b_double_3x3_1
I1214 22:59:47.212677  5289 net.cpp:395] relu_4b_double_3x3_1 -> conv_4b_double_3x3_1 (in-place)
I1214 22:59:47.212693  5289 net.cpp:150] Setting up relu_4b_double_3x3_1
I1214 22:59:47.212708  5289 net.cpp:157] Top shape: 60 128 14 14 (1505280)
I1214 22:59:47.212719  5289 net.cpp:165] Memory required for data: 5899192560
I1214 22:59:47.212730  5289 layer_factory.hpp:77] Creating layer ave_pool_4b_pool
I1214 22:59:47.212745  5289 net.cpp:100] Creating Layer ave_pool_4b_pool
I1214 22:59:47.212759  5289 net.cpp:434] ave_pool_4b_pool <- ch_concat_4a_chconcat_ch_concat_4a_chconcat_0_split_3
I1214 22:59:47.212775  5289 net.cpp:408] ave_pool_4b_pool -> ave_pool_4b_pool
I1214 22:59:47.212821  5289 net.cpp:150] Setting up ave_pool_4b_pool
I1214 22:59:47.212839  5289 net.cpp:157] Top shape: 60 576 14 14 (6773760)
I1214 22:59:47.212852  5289 net.cpp:165] Memory required for data: 5926287600
I1214 22:59:47.212863  5289 layer_factory.hpp:77] Creating layer conv_4b_proj
I1214 22:59:47.212880  5289 net.cpp:100] Creating Layer conv_4b_proj
I1214 22:59:47.212893  5289 net.cpp:434] conv_4b_proj <- ave_pool_4b_pool
I1214 22:59:47.212908  5289 net.cpp:408] conv_4b_proj -> conv_4b_proj
I1214 22:59:47.213266  5289 net.cpp:150] Setting up conv_4b_proj
I1214 22:59:47.213292  5289 net.cpp:157] Top shape: 60 128 14 14 (1505280)
I1214 22:59:47.213304  5289 net.cpp:165] Memory required for data: 5932308720
I1214 22:59:47.213320  5289 layer_factory.hpp:77] Creating layer bn_4b_proj
I1214 22:59:47.213340  5289 net.cpp:100] Creating Layer bn_4b_proj
I1214 22:59:47.213366  5289 net.cpp:434] bn_4b_proj <- conv_4b_proj
I1214 22:59:47.213381  5289 net.cpp:395] bn_4b_proj -> conv_4b_proj (in-place)
I1214 22:59:47.213630  5289 net.cpp:150] Setting up bn_4b_proj
I1214 22:59:47.213654  5289 net.cpp:157] Top shape: 60 128 14 14 (1505280)
I1214 22:59:47.213666  5289 net.cpp:165] Memory required for data: 5938329840
I1214 22:59:47.213683  5289 layer_factory.hpp:77] Creating layer scale_conv_4b_proj
I1214 22:59:47.213699  5289 net.cpp:100] Creating Layer scale_conv_4b_proj
I1214 22:59:47.213711  5289 net.cpp:434] scale_conv_4b_proj <- conv_4b_proj
I1214 22:59:47.213726  5289 net.cpp:395] scale_conv_4b_proj -> conv_4b_proj (in-place)
I1214 22:59:47.213800  5289 layer_factory.hpp:77] Creating layer scale_conv_4b_proj
I1214 22:59:47.213950  5289 net.cpp:150] Setting up scale_conv_4b_proj
I1214 22:59:47.213973  5289 net.cpp:157] Top shape: 60 128 14 14 (1505280)
I1214 22:59:47.213986  5289 net.cpp:165] Memory required for data: 5944350960
I1214 22:59:47.214001  5289 layer_factory.hpp:77] Creating layer relu_4b_proj
I1214 22:59:47.214016  5289 net.cpp:100] Creating Layer relu_4b_proj
I1214 22:59:47.214028  5289 net.cpp:434] relu_4b_proj <- conv_4b_proj
I1214 22:59:47.214046  5289 net.cpp:395] relu_4b_proj -> conv_4b_proj (in-place)
I1214 22:59:47.214062  5289 net.cpp:150] Setting up relu_4b_proj
I1214 22:59:47.214076  5289 net.cpp:157] Top shape: 60 128 14 14 (1505280)
I1214 22:59:47.214087  5289 net.cpp:165] Memory required for data: 5950372080
I1214 22:59:47.214099  5289 layer_factory.hpp:77] Creating layer ch_concat_4b_chconcat
I1214 22:59:47.214117  5289 net.cpp:100] Creating Layer ch_concat_4b_chconcat
I1214 22:59:47.214128  5289 net.cpp:434] ch_concat_4b_chconcat <- conv_4b_1x1
I1214 22:59:47.214141  5289 net.cpp:434] ch_concat_4b_chconcat <- conv_4b_3x3
I1214 22:59:47.214154  5289 net.cpp:434] ch_concat_4b_chconcat <- conv_4b_double_3x3_1
I1214 22:59:47.214167  5289 net.cpp:434] ch_concat_4b_chconcat <- conv_4b_proj
I1214 22:59:47.214187  5289 net.cpp:408] ch_concat_4b_chconcat -> ch_concat_4b_chconcat
I1214 22:59:47.214254  5289 net.cpp:150] Setting up ch_concat_4b_chconcat
I1214 22:59:47.214275  5289 net.cpp:157] Top shape: 60 576 14 14 (6773760)
I1214 22:59:47.214287  5289 net.cpp:165] Memory required for data: 5977467120
I1214 22:59:47.214299  5289 layer_factory.hpp:77] Creating layer ch_concat_4b_chconcat_ch_concat_4b_chconcat_0_split
I1214 22:59:47.214315  5289 net.cpp:100] Creating Layer ch_concat_4b_chconcat_ch_concat_4b_chconcat_0_split
I1214 22:59:47.214329  5289 net.cpp:434] ch_concat_4b_chconcat_ch_concat_4b_chconcat_0_split <- ch_concat_4b_chconcat
I1214 22:59:47.214344  5289 net.cpp:408] ch_concat_4b_chconcat_ch_concat_4b_chconcat_0_split -> ch_concat_4b_chconcat_ch_concat_4b_chconcat_0_split_0
I1214 22:59:47.214367  5289 net.cpp:408] ch_concat_4b_chconcat_ch_concat_4b_chconcat_0_split -> ch_concat_4b_chconcat_ch_concat_4b_chconcat_0_split_1
I1214 22:59:47.214387  5289 net.cpp:408] ch_concat_4b_chconcat_ch_concat_4b_chconcat_0_split -> ch_concat_4b_chconcat_ch_concat_4b_chconcat_0_split_2
I1214 22:59:47.214406  5289 net.cpp:408] ch_concat_4b_chconcat_ch_concat_4b_chconcat_0_split -> ch_concat_4b_chconcat_ch_concat_4b_chconcat_0_split_3
I1214 22:59:47.214490  5289 net.cpp:150] Setting up ch_concat_4b_chconcat_ch_concat_4b_chconcat_0_split
I1214 22:59:47.214511  5289 net.cpp:157] Top shape: 60 576 14 14 (6773760)
I1214 22:59:47.214524  5289 net.cpp:157] Top shape: 60 576 14 14 (6773760)
I1214 22:59:47.214537  5289 net.cpp:157] Top shape: 60 576 14 14 (6773760)
I1214 22:59:47.214550  5289 net.cpp:157] Top shape: 60 576 14 14 (6773760)
I1214 22:59:47.214561  5289 net.cpp:165] Memory required for data: 6085847280
I1214 22:59:47.214572  5289 layer_factory.hpp:77] Creating layer conv_4c_1x1
I1214 22:59:47.214593  5289 net.cpp:100] Creating Layer conv_4c_1x1
I1214 22:59:47.214607  5289 net.cpp:434] conv_4c_1x1 <- ch_concat_4b_chconcat_ch_concat_4b_chconcat_0_split_0
I1214 22:59:47.214627  5289 net.cpp:408] conv_4c_1x1 -> conv_4c_1x1
I1214 22:59:47.215601  5289 net.cpp:150] Setting up conv_4c_1x1
I1214 22:59:47.215629  5289 net.cpp:157] Top shape: 60 160 14 14 (1881600)
I1214 22:59:47.215642  5289 net.cpp:165] Memory required for data: 6093373680
I1214 22:59:47.215659  5289 layer_factory.hpp:77] Creating layer bn_4c_1x1
I1214 22:59:47.215674  5289 net.cpp:100] Creating Layer bn_4c_1x1
I1214 22:59:47.215687  5289 net.cpp:434] bn_4c_1x1 <- conv_4c_1x1
I1214 22:59:47.215708  5289 net.cpp:395] bn_4c_1x1 -> conv_4c_1x1 (in-place)
I1214 22:59:47.215957  5289 net.cpp:150] Setting up bn_4c_1x1
I1214 22:59:47.215981  5289 net.cpp:157] Top shape: 60 160 14 14 (1881600)
I1214 22:59:47.215994  5289 net.cpp:165] Memory required for data: 6100900080
I1214 22:59:47.216059  5289 layer_factory.hpp:77] Creating layer scale_conv_4c_1x1
I1214 22:59:47.216083  5289 net.cpp:100] Creating Layer scale_conv_4c_1x1
I1214 22:59:47.216095  5289 net.cpp:434] scale_conv_4c_1x1 <- conv_4c_1x1
I1214 22:59:47.216110  5289 net.cpp:395] scale_conv_4c_1x1 -> conv_4c_1x1 (in-place)
I1214 22:59:47.216177  5289 layer_factory.hpp:77] Creating layer scale_conv_4c_1x1
I1214 22:59:47.216349  5289 net.cpp:150] Setting up scale_conv_4c_1x1
I1214 22:59:47.216373  5289 net.cpp:157] Top shape: 60 160 14 14 (1881600)
I1214 22:59:47.216385  5289 net.cpp:165] Memory required for data: 6108426480
I1214 22:59:47.216401  5289 layer_factory.hpp:77] Creating layer relu_4c_1x1
I1214 22:59:47.216420  5289 net.cpp:100] Creating Layer relu_4c_1x1
I1214 22:59:47.216434  5289 net.cpp:434] relu_4c_1x1 <- conv_4c_1x1
I1214 22:59:47.216449  5289 net.cpp:395] relu_4c_1x1 -> conv_4c_1x1 (in-place)
I1214 22:59:47.216464  5289 net.cpp:150] Setting up relu_4c_1x1
I1214 22:59:47.216480  5289 net.cpp:157] Top shape: 60 160 14 14 (1881600)
I1214 22:59:47.216490  5289 net.cpp:165] Memory required for data: 6115952880
I1214 22:59:47.216501  5289 layer_factory.hpp:77] Creating layer conv_4c_3x3_reduce
I1214 22:59:47.216522  5289 net.cpp:100] Creating Layer conv_4c_3x3_reduce
I1214 22:59:47.216536  5289 net.cpp:434] conv_4c_3x3_reduce <- ch_concat_4b_chconcat_ch_concat_4b_chconcat_0_split_1
I1214 22:59:47.216554  5289 net.cpp:408] conv_4c_3x3_reduce -> conv_4c_3x3_reduce
I1214 22:59:47.216897  5289 net.cpp:150] Setting up conv_4c_3x3_reduce
I1214 22:59:47.216922  5289 net.cpp:157] Top shape: 60 128 14 14 (1505280)
I1214 22:59:47.216934  5289 net.cpp:165] Memory required for data: 6121974000
I1214 22:59:47.216950  5289 layer_factory.hpp:77] Creating layer bn_4c_3x3_reduce
I1214 22:59:47.216966  5289 net.cpp:100] Creating Layer bn_4c_3x3_reduce
I1214 22:59:47.216979  5289 net.cpp:434] bn_4c_3x3_reduce <- conv_4c_3x3_reduce
I1214 22:59:47.216992  5289 net.cpp:395] bn_4c_3x3_reduce -> conv_4c_3x3_reduce (in-place)
I1214 22:59:47.217241  5289 net.cpp:150] Setting up bn_4c_3x3_reduce
I1214 22:59:47.217265  5289 net.cpp:157] Top shape: 60 128 14 14 (1505280)
I1214 22:59:47.217278  5289 net.cpp:165] Memory required for data: 6127995120
I1214 22:59:47.217295  5289 layer_factory.hpp:77] Creating layer scale_conv_4c_3x3_reduce
I1214 22:59:47.217313  5289 net.cpp:100] Creating Layer scale_conv_4c_3x3_reduce
I1214 22:59:47.217324  5289 net.cpp:434] scale_conv_4c_3x3_reduce <- conv_4c_3x3_reduce
I1214 22:59:47.217339  5289 net.cpp:395] scale_conv_4c_3x3_reduce -> conv_4c_3x3_reduce (in-place)
I1214 22:59:47.217406  5289 layer_factory.hpp:77] Creating layer scale_conv_4c_3x3_reduce
I1214 22:59:47.217564  5289 net.cpp:150] Setting up scale_conv_4c_3x3_reduce
I1214 22:59:47.217588  5289 net.cpp:157] Top shape: 60 128 14 14 (1505280)
I1214 22:59:47.217600  5289 net.cpp:165] Memory required for data: 6134016240
I1214 22:59:47.217617  5289 layer_factory.hpp:77] Creating layer relu_4c_3x3_reduce
I1214 22:59:47.217631  5289 net.cpp:100] Creating Layer relu_4c_3x3_reduce
I1214 22:59:47.217643  5289 net.cpp:434] relu_4c_3x3_reduce <- conv_4c_3x3_reduce
I1214 22:59:47.217660  5289 net.cpp:395] relu_4c_3x3_reduce -> conv_4c_3x3_reduce (in-place)
I1214 22:59:47.217679  5289 net.cpp:150] Setting up relu_4c_3x3_reduce
I1214 22:59:47.217692  5289 net.cpp:157] Top shape: 60 128 14 14 (1505280)
I1214 22:59:47.217703  5289 net.cpp:165] Memory required for data: 6140037360
I1214 22:59:47.217715  5289 layer_factory.hpp:77] Creating layer conv_4c_3x3
I1214 22:59:47.217731  5289 net.cpp:100] Creating Layer conv_4c_3x3
I1214 22:59:47.217743  5289 net.cpp:434] conv_4c_3x3 <- conv_4c_3x3_reduce
I1214 22:59:47.217762  5289 net.cpp:408] conv_4c_3x3 -> conv_4c_3x3
I1214 22:59:47.218920  5289 net.cpp:150] Setting up conv_4c_3x3
I1214 22:59:47.218948  5289 net.cpp:157] Top shape: 60 160 14 14 (1881600)
I1214 22:59:47.218961  5289 net.cpp:165] Memory required for data: 6147563760
I1214 22:59:47.218977  5289 layer_factory.hpp:77] Creating layer bn_4c_3x3
I1214 22:59:47.218997  5289 net.cpp:100] Creating Layer bn_4c_3x3
I1214 22:59:47.219018  5289 net.cpp:434] bn_4c_3x3 <- conv_4c_3x3
I1214 22:59:47.219034  5289 net.cpp:395] bn_4c_3x3 -> conv_4c_3x3 (in-place)
I1214 22:59:47.222853  5289 net.cpp:150] Setting up bn_4c_3x3
I1214 22:59:47.222879  5289 net.cpp:157] Top shape: 60 160 14 14 (1881600)
I1214 22:59:47.222892  5289 net.cpp:165] Memory required for data: 6155090160
I1214 22:59:47.222910  5289 layer_factory.hpp:77] Creating layer scale_conv_4c_3x3
I1214 22:59:47.222928  5289 net.cpp:100] Creating Layer scale_conv_4c_3x3
I1214 22:59:47.222939  5289 net.cpp:434] scale_conv_4c_3x3 <- conv_4c_3x3
I1214 22:59:47.222966  5289 net.cpp:395] scale_conv_4c_3x3 -> conv_4c_3x3 (in-place)
I1214 22:59:47.223036  5289 layer_factory.hpp:77] Creating layer scale_conv_4c_3x3
I1214 22:59:47.223213  5289 net.cpp:150] Setting up scale_conv_4c_3x3
I1214 22:59:47.223235  5289 net.cpp:157] Top shape: 60 160 14 14 (1881600)
I1214 22:59:47.223248  5289 net.cpp:165] Memory required for data: 6162616560
I1214 22:59:47.223263  5289 layer_factory.hpp:77] Creating layer relu_4c_3x3
I1214 22:59:47.223278  5289 net.cpp:100] Creating Layer relu_4c_3x3
I1214 22:59:47.223291  5289 net.cpp:434] relu_4c_3x3 <- conv_4c_3x3
I1214 22:59:47.223304  5289 net.cpp:395] relu_4c_3x3 -> conv_4c_3x3 (in-place)
I1214 22:59:47.223320  5289 net.cpp:150] Setting up relu_4c_3x3
I1214 22:59:47.223335  5289 net.cpp:157] Top shape: 60 160 14 14 (1881600)
I1214 22:59:47.223346  5289 net.cpp:165] Memory required for data: 6170142960
I1214 22:59:47.223357  5289 layer_factory.hpp:77] Creating layer conv_4c_double_3x3_reduce
I1214 22:59:47.223377  5289 net.cpp:100] Creating Layer conv_4c_double_3x3_reduce
I1214 22:59:47.223392  5289 net.cpp:434] conv_4c_double_3x3_reduce <- ch_concat_4b_chconcat_ch_concat_4b_chconcat_0_split_2
I1214 22:59:47.223410  5289 net.cpp:408] conv_4c_double_3x3_reduce -> conv_4c_double_3x3_reduce
I1214 22:59:47.223784  5289 net.cpp:150] Setting up conv_4c_double_3x3_reduce
I1214 22:59:47.223808  5289 net.cpp:157] Top shape: 60 128 14 14 (1505280)
I1214 22:59:47.223819  5289 net.cpp:165] Memory required for data: 6176164080
I1214 22:59:47.223835  5289 layer_factory.hpp:77] Creating layer bn_4c_double_3x3_reduce
I1214 22:59:47.223855  5289 net.cpp:100] Creating Layer bn_4c_double_3x3_reduce
I1214 22:59:47.223868  5289 net.cpp:434] bn_4c_double_3x3_reduce <- conv_4c_double_3x3_reduce
I1214 22:59:47.223886  5289 net.cpp:395] bn_4c_double_3x3_reduce -> conv_4c_double_3x3_reduce (in-place)
I1214 22:59:47.224128  5289 net.cpp:150] Setting up bn_4c_double_3x3_reduce
I1214 22:59:47.224148  5289 net.cpp:157] Top shape: 60 128 14 14 (1505280)
I1214 22:59:47.224160  5289 net.cpp:165] Memory required for data: 6182185200
I1214 22:59:47.224179  5289 layer_factory.hpp:77] Creating layer scale_conv_4c_double_3x3_reduce
I1214 22:59:47.224205  5289 net.cpp:100] Creating Layer scale_conv_4c_double_3x3_reduce
I1214 22:59:47.224220  5289 net.cpp:434] scale_conv_4c_double_3x3_reduce <- conv_4c_double_3x3_reduce
I1214 22:59:47.224234  5289 net.cpp:395] scale_conv_4c_double_3x3_reduce -> conv_4c_double_3x3_reduce (in-place)
I1214 22:59:47.224299  5289 layer_factory.hpp:77] Creating layer scale_conv_4c_double_3x3_reduce
I1214 22:59:47.224453  5289 net.cpp:150] Setting up scale_conv_4c_double_3x3_reduce
I1214 22:59:47.224475  5289 net.cpp:157] Top shape: 60 128 14 14 (1505280)
I1214 22:59:47.224488  5289 net.cpp:165] Memory required for data: 6188206320
I1214 22:59:47.224503  5289 layer_factory.hpp:77] Creating layer relu_4c_double_3x3_reduce
I1214 22:59:47.224519  5289 net.cpp:100] Creating Layer relu_4c_double_3x3_reduce
I1214 22:59:47.224530  5289 net.cpp:434] relu_4c_double_3x3_reduce <- conv_4c_double_3x3_reduce
I1214 22:59:47.224548  5289 net.cpp:395] relu_4c_double_3x3_reduce -> conv_4c_double_3x3_reduce (in-place)
I1214 22:59:47.224565  5289 net.cpp:150] Setting up relu_4c_double_3x3_reduce
I1214 22:59:47.224581  5289 net.cpp:157] Top shape: 60 128 14 14 (1505280)
I1214 22:59:47.224591  5289 net.cpp:165] Memory required for data: 6194227440
I1214 22:59:47.224617  5289 layer_factory.hpp:77] Creating layer conv_4c_double_3x3_0
I1214 22:59:47.224639  5289 net.cpp:100] Creating Layer conv_4c_double_3x3_0
I1214 22:59:47.224653  5289 net.cpp:434] conv_4c_double_3x3_0 <- conv_4c_double_3x3_reduce
I1214 22:59:47.224669  5289 net.cpp:408] conv_4c_double_3x3_0 -> conv_4c_double_3x3_0
I1214 22:59:47.225744  5289 net.cpp:150] Setting up conv_4c_double_3x3_0
I1214 22:59:47.225769  5289 net.cpp:157] Top shape: 60 160 14 14 (1881600)
I1214 22:59:47.225781  5289 net.cpp:165] Memory required for data: 6201753840
I1214 22:59:47.225797  5289 layer_factory.hpp:77] Creating layer bn_4c_double_3x3_0
I1214 22:59:47.225832  5289 net.cpp:100] Creating Layer bn_4c_double_3x3_0
I1214 22:59:47.225847  5289 net.cpp:434] bn_4c_double_3x3_0 <- conv_4c_double_3x3_0
I1214 22:59:47.225865  5289 net.cpp:395] bn_4c_double_3x3_0 -> conv_4c_double_3x3_0 (in-place)
I1214 22:59:47.226116  5289 net.cpp:150] Setting up bn_4c_double_3x3_0
I1214 22:59:47.226138  5289 net.cpp:157] Top shape: 60 160 14 14 (1881600)
I1214 22:59:47.226150  5289 net.cpp:165] Memory required for data: 6209280240
I1214 22:59:47.226168  5289 layer_factory.hpp:77] Creating layer scale_conv_4c_double_3x3_0
I1214 22:59:47.226197  5289 net.cpp:100] Creating Layer scale_conv_4c_double_3x3_0
I1214 22:59:47.226212  5289 net.cpp:434] scale_conv_4c_double_3x3_0 <- conv_4c_double_3x3_0
I1214 22:59:47.226227  5289 net.cpp:395] scale_conv_4c_double_3x3_0 -> conv_4c_double_3x3_0 (in-place)
I1214 22:59:47.226294  5289 layer_factory.hpp:77] Creating layer scale_conv_4c_double_3x3_0
I1214 22:59:47.226457  5289 net.cpp:150] Setting up scale_conv_4c_double_3x3_0
I1214 22:59:47.226478  5289 net.cpp:157] Top shape: 60 160 14 14 (1881600)
I1214 22:59:47.226490  5289 net.cpp:165] Memory required for data: 6216806640
I1214 22:59:47.226506  5289 layer_factory.hpp:77] Creating layer relu_4c_double_3x3_0
I1214 22:59:47.226526  5289 net.cpp:100] Creating Layer relu_4c_double_3x3_0
I1214 22:59:47.226543  5289 net.cpp:434] relu_4c_double_3x3_0 <- conv_4c_double_3x3_0
I1214 22:59:47.226560  5289 net.cpp:395] relu_4c_double_3x3_0 -> conv_4c_double_3x3_0 (in-place)
I1214 22:59:47.226577  5289 net.cpp:150] Setting up relu_4c_double_3x3_0
I1214 22:59:47.226591  5289 net.cpp:157] Top shape: 60 160 14 14 (1881600)
I1214 22:59:47.226603  5289 net.cpp:165] Memory required for data: 6224333040
I1214 22:59:47.226614  5289 layer_factory.hpp:77] Creating layer conv_4c_double_3x3_1
I1214 22:59:47.226635  5289 net.cpp:100] Creating Layer conv_4c_double_3x3_1
I1214 22:59:47.226649  5289 net.cpp:434] conv_4c_double_3x3_1 <- conv_4c_double_3x3_0
I1214 22:59:47.226665  5289 net.cpp:408] conv_4c_double_3x3_1 -> conv_4c_double_3x3_1
I1214 22:59:47.227752  5289 net.cpp:150] Setting up conv_4c_double_3x3_1
I1214 22:59:47.227779  5289 net.cpp:157] Top shape: 60 160 14 14 (1881600)
I1214 22:59:47.227792  5289 net.cpp:165] Memory required for data: 6231859440
I1214 22:59:47.227807  5289 layer_factory.hpp:77] Creating layer bn_4c_double_3x3_1
I1214 22:59:47.227826  5289 net.cpp:100] Creating Layer bn_4c_double_3x3_1
I1214 22:59:47.227840  5289 net.cpp:434] bn_4c_double_3x3_1 <- conv_4c_double_3x3_1
I1214 22:59:47.227855  5289 net.cpp:395] bn_4c_double_3x3_1 -> conv_4c_double_3x3_1 (in-place)
I1214 22:59:47.228102  5289 net.cpp:150] Setting up bn_4c_double_3x3_1
I1214 22:59:47.228123  5289 net.cpp:157] Top shape: 60 160 14 14 (1881600)
I1214 22:59:47.228135  5289 net.cpp:165] Memory required for data: 6239385840
I1214 22:59:47.228153  5289 layer_factory.hpp:77] Creating layer scale_conv_4c_double_3x3_1
I1214 22:59:47.228169  5289 net.cpp:100] Creating Layer scale_conv_4c_double_3x3_1
I1214 22:59:47.228188  5289 net.cpp:434] scale_conv_4c_double_3x3_1 <- conv_4c_double_3x3_1
I1214 22:59:47.228206  5289 net.cpp:395] scale_conv_4c_double_3x3_1 -> conv_4c_double_3x3_1 (in-place)
I1214 22:59:47.228273  5289 layer_factory.hpp:77] Creating layer scale_conv_4c_double_3x3_1
I1214 22:59:47.228433  5289 net.cpp:150] Setting up scale_conv_4c_double_3x3_1
I1214 22:59:47.228457  5289 net.cpp:157] Top shape: 60 160 14 14 (1881600)
I1214 22:59:47.228477  5289 net.cpp:165] Memory required for data: 6246912240
I1214 22:59:47.228494  5289 layer_factory.hpp:77] Creating layer relu_4c_double_3x3_1
I1214 22:59:47.228510  5289 net.cpp:100] Creating Layer relu_4c_double_3x3_1
I1214 22:59:47.228523  5289 net.cpp:434] relu_4c_double_3x3_1 <- conv_4c_double_3x3_1
I1214 22:59:47.228540  5289 net.cpp:395] relu_4c_double_3x3_1 -> conv_4c_double_3x3_1 (in-place)
I1214 22:59:47.228559  5289 net.cpp:150] Setting up relu_4c_double_3x3_1
I1214 22:59:47.228572  5289 net.cpp:157] Top shape: 60 160 14 14 (1881600)
I1214 22:59:47.228585  5289 net.cpp:165] Memory required for data: 6254438640
I1214 22:59:47.228595  5289 layer_factory.hpp:77] Creating layer ave_pool_4c_pool
I1214 22:59:47.228611  5289 net.cpp:100] Creating Layer ave_pool_4c_pool
I1214 22:59:47.228623  5289 net.cpp:434] ave_pool_4c_pool <- ch_concat_4b_chconcat_ch_concat_4b_chconcat_0_split_3
I1214 22:59:47.228642  5289 net.cpp:408] ave_pool_4c_pool -> ave_pool_4c_pool
I1214 22:59:47.228687  5289 net.cpp:150] Setting up ave_pool_4c_pool
I1214 22:59:47.228706  5289 net.cpp:157] Top shape: 60 576 14 14 (6773760)
I1214 22:59:47.228718  5289 net.cpp:165] Memory required for data: 6281533680
I1214 22:59:47.228729  5289 layer_factory.hpp:77] Creating layer conv_4c_proj
I1214 22:59:47.228749  5289 net.cpp:100] Creating Layer conv_4c_proj
I1214 22:59:47.228763  5289 net.cpp:434] conv_4c_proj <- ave_pool_4c_pool
I1214 22:59:47.228780  5289 net.cpp:408] conv_4c_proj -> conv_4c_proj
I1214 22:59:47.229115  5289 net.cpp:150] Setting up conv_4c_proj
I1214 22:59:47.229137  5289 net.cpp:157] Top shape: 60 128 14 14 (1505280)
I1214 22:59:47.229149  5289 net.cpp:165] Memory required for data: 6287554800
I1214 22:59:47.229164  5289 layer_factory.hpp:77] Creating layer bn_4c_proj
I1214 22:59:47.229192  5289 net.cpp:100] Creating Layer bn_4c_proj
I1214 22:59:47.229207  5289 net.cpp:434] bn_4c_proj <- conv_4c_proj
I1214 22:59:47.229223  5289 net.cpp:395] bn_4c_proj -> conv_4c_proj (in-place)
I1214 22:59:47.229461  5289 net.cpp:150] Setting up bn_4c_proj
I1214 22:59:47.229482  5289 net.cpp:157] Top shape: 60 128 14 14 (1505280)
I1214 22:59:47.229495  5289 net.cpp:165] Memory required for data: 6293575920
I1214 22:59:47.229512  5289 layer_factory.hpp:77] Creating layer scale_conv_4c_proj
I1214 22:59:47.229531  5289 net.cpp:100] Creating Layer scale_conv_4c_proj
I1214 22:59:47.229544  5289 net.cpp:434] scale_conv_4c_proj <- conv_4c_proj
I1214 22:59:47.229558  5289 net.cpp:395] scale_conv_4c_proj -> conv_4c_proj (in-place)
I1214 22:59:47.229622  5289 layer_factory.hpp:77] Creating layer scale_conv_4c_proj
I1214 22:59:47.229773  5289 net.cpp:150] Setting up scale_conv_4c_proj
I1214 22:59:47.229792  5289 net.cpp:157] Top shape: 60 128 14 14 (1505280)
I1214 22:59:47.229804  5289 net.cpp:165] Memory required for data: 6299597040
I1214 22:59:47.229820  5289 layer_factory.hpp:77] Creating layer relu_4c_proj
I1214 22:59:47.229835  5289 net.cpp:100] Creating Layer relu_4c_proj
I1214 22:59:47.229847  5289 net.cpp:434] relu_4c_proj <- conv_4c_proj
I1214 22:59:47.229866  5289 net.cpp:395] relu_4c_proj -> conv_4c_proj (in-place)
I1214 22:59:47.229882  5289 net.cpp:150] Setting up relu_4c_proj
I1214 22:59:47.229897  5289 net.cpp:157] Top shape: 60 128 14 14 (1505280)
I1214 22:59:47.229908  5289 net.cpp:165] Memory required for data: 6305618160
I1214 22:59:47.229919  5289 layer_factory.hpp:77] Creating layer ch_concat_4c_chconcat
I1214 22:59:47.229934  5289 net.cpp:100] Creating Layer ch_concat_4c_chconcat
I1214 22:59:47.229946  5289 net.cpp:434] ch_concat_4c_chconcat <- conv_4c_1x1
I1214 22:59:47.229959  5289 net.cpp:434] ch_concat_4c_chconcat <- conv_4c_3x3
I1214 22:59:47.229972  5289 net.cpp:434] ch_concat_4c_chconcat <- conv_4c_double_3x3_1
I1214 22:59:47.229984  5289 net.cpp:434] ch_concat_4c_chconcat <- conv_4c_proj
I1214 22:59:47.230002  5289 net.cpp:408] ch_concat_4c_chconcat -> ch_concat_4c_chconcat
I1214 22:59:47.230046  5289 net.cpp:150] Setting up ch_concat_4c_chconcat
I1214 22:59:47.230064  5289 net.cpp:157] Top shape: 60 608 14 14 (7150080)
I1214 22:59:47.230084  5289 net.cpp:165] Memory required for data: 6334218480
I1214 22:59:47.230096  5289 layer_factory.hpp:77] Creating layer ch_concat_4c_chconcat_ch_concat_4c_chconcat_0_split
I1214 22:59:47.230116  5289 net.cpp:100] Creating Layer ch_concat_4c_chconcat_ch_concat_4c_chconcat_0_split
I1214 22:59:47.230130  5289 net.cpp:434] ch_concat_4c_chconcat_ch_concat_4c_chconcat_0_split <- ch_concat_4c_chconcat
I1214 22:59:47.230145  5289 net.cpp:408] ch_concat_4c_chconcat_ch_concat_4c_chconcat_0_split -> ch_concat_4c_chconcat_ch_concat_4c_chconcat_0_split_0
I1214 22:59:47.230165  5289 net.cpp:408] ch_concat_4c_chconcat_ch_concat_4c_chconcat_0_split -> ch_concat_4c_chconcat_ch_concat_4c_chconcat_0_split_1
I1214 22:59:47.230190  5289 net.cpp:408] ch_concat_4c_chconcat_ch_concat_4c_chconcat_0_split -> ch_concat_4c_chconcat_ch_concat_4c_chconcat_0_split_2
I1214 22:59:47.230209  5289 net.cpp:408] ch_concat_4c_chconcat_ch_concat_4c_chconcat_0_split -> ch_concat_4c_chconcat_ch_concat_4c_chconcat_0_split_3
I1214 22:59:47.230291  5289 net.cpp:150] Setting up ch_concat_4c_chconcat_ch_concat_4c_chconcat_0_split
I1214 22:59:47.230317  5289 net.cpp:157] Top shape: 60 608 14 14 (7150080)
I1214 22:59:47.230332  5289 net.cpp:157] Top shape: 60 608 14 14 (7150080)
I1214 22:59:47.230345  5289 net.cpp:157] Top shape: 60 608 14 14 (7150080)
I1214 22:59:47.230358  5289 net.cpp:157] Top shape: 60 608 14 14 (7150080)
I1214 22:59:47.230370  5289 net.cpp:165] Memory required for data: 6448619760
I1214 22:59:47.230381  5289 layer_factory.hpp:77] Creating layer conv_4d_1x1
I1214 22:59:47.230402  5289 net.cpp:100] Creating Layer conv_4d_1x1
I1214 22:59:47.230417  5289 net.cpp:434] conv_4d_1x1 <- ch_concat_4c_chconcat_ch_concat_4c_chconcat_0_split_0
I1214 22:59:47.230433  5289 net.cpp:408] conv_4d_1x1 -> conv_4d_1x1
I1214 22:59:47.230793  5289 net.cpp:150] Setting up conv_4d_1x1
I1214 22:59:47.230815  5289 net.cpp:157] Top shape: 60 96 14 14 (1128960)
I1214 22:59:47.230828  5289 net.cpp:165] Memory required for data: 6453135600
I1214 22:59:47.230844  5289 layer_factory.hpp:77] Creating layer bn_4d_1x1
I1214 22:59:47.230862  5289 net.cpp:100] Creating Layer bn_4d_1x1
I1214 22:59:47.230875  5289 net.cpp:434] bn_4d_1x1 <- conv_4d_1x1
I1214 22:59:47.230890  5289 net.cpp:395] bn_4d_1x1 -> conv_4d_1x1 (in-place)
I1214 22:59:47.231143  5289 net.cpp:150] Setting up bn_4d_1x1
I1214 22:59:47.231164  5289 net.cpp:157] Top shape: 60 96 14 14 (1128960)
I1214 22:59:47.231176  5289 net.cpp:165] Memory required for data: 6457651440
I1214 22:59:47.231199  5289 layer_factory.hpp:77] Creating layer scale_conv_4d_1x1
I1214 22:59:47.231230  5289 net.cpp:100] Creating Layer scale_conv_4d_1x1
I1214 22:59:47.231245  5289 net.cpp:434] scale_conv_4d_1x1 <- conv_4d_1x1
I1214 22:59:47.231261  5289 net.cpp:395] scale_conv_4d_1x1 -> conv_4d_1x1 (in-place)
I1214 22:59:47.231325  5289 layer_factory.hpp:77] Creating layer scale_conv_4d_1x1
I1214 22:59:47.231492  5289 net.cpp:150] Setting up scale_conv_4d_1x1
I1214 22:59:47.231513  5289 net.cpp:157] Top shape: 60 96 14 14 (1128960)
…
I1214 22:59:47.389863  5289 layer_factory.hpp:77] Creating layer relu_4e_3x3_reduce
I1214 22:59:47.389879  5289 net.cpp:100] Creating Layer relu_4e_3x3_reduce
I1214 22:59:47.389891  5289 net.cpp:434] relu_4e_3x3_reduce <- conv_4e_3x3_reduce
I1214 22:59:47.389909  5289 net.cpp:395] relu_4e_3x3_reduce -> conv_4e_3x3_reduce (in-place)
I1214 22:59:47.389927  5289 net.cpp:150] Setting up relu_4e_3x3_reduce
I1214 22:59:47.389942  5289 net.cpp:157] Top shape: 1 128 14 14 (25088)
I1214 22:59:47.389953  5289 net.cpp:165] Memory required for data: 112770564
I1214 22:59:47.389964  5289 layer_factory.hpp:77] Creating layer conv_4e_3x3
I1214 22:59:47.389984  5289 net.cpp:100] Creating Layer conv_4e_3x3
I1214 22:59:47.389998  5289 net.cpp:434] conv_4e_3x3 <- conv_4e_3x3_reduce
I1214 22:59:47.390013  5289 net.cpp:408] conv_4e_3x3 -> conv_4e_3x3
I1214 22:59:47.391089  5289 net.cpp:150] Setting up conv_4e_3x3
I1214 22:59:47.391116  5289 net.cpp:157] Top shape: 1 192 7 7 (9408)
I1214 22:59:47.391129  5289 net.cpp:165] Memory required for data: 112808196
I1214 22:59:47.391146  5289 layer_factory.hpp:77] Creating layer bn_4e_3x3
I1214 22:59:47.391165  5289 net.cpp:100] Creating Layer bn_4e_3x3
I1214 22:59:47.391178  5289 net.cpp:434] bn_4e_3x3 <- conv_4e_3x3
I1214 22:59:47.391201  5289 net.cpp:395] bn_4e_3x3 -> conv_4e_3x3 (in-place)
I1214 22:59:47.391469  5289 net.cpp:150] Setting up bn_4e_3x3
I1214 22:59:47.391492  5289 net.cpp:157] Top shape: 1 192 7 7 (9408)
I1214 22:59:47.391505  5289 net.cpp:165] Memory required for data: 112845828
I1214 22:59:47.391522  5289 layer_factory.hpp:77] Creating layer scale_conv_4e_3x3
I1214 22:59:47.391542  5289 net.cpp:100] Creating Layer scale_conv_4e_3x3
I1214 22:59:47.391556  5289 net.cpp:434] scale_conv_4e_3x3 <- conv_4e_3x3
I1214 22:59:47.391572  5289 net.cpp:395] scale_conv_4e_3x3 -> conv_4e_3x3 (in-place)
I1214 22:59:47.391636  5289 layer_factory.hpp:77] Creating layer scale_conv_4e_3x3
I1214 22:59:47.391814  5289 net.cpp:150] Setting up scale_conv_4e_3x3
I1214 22:59:47.391839  5289 net.cpp:157] Top shape: 1 192 7 7 (9408)
I1214 22:59:47.391850  5289 net.cpp:165] Memory required for data: 112883460
I1214 22:59:47.391866  5289 layer_factory.hpp:77] Creating layer relu_4e_3x3
I1214 22:59:47.391881  5289 net.cpp:100] Creating Layer relu_4e_3x3
I1214 22:59:47.391893  5289 net.cpp:434] relu_4e_3x3 <- conv_4e_3x3
I1214 22:59:47.391911  5289 net.cpp:395] relu_4e_3x3 -> conv_4e_3x3 (in-place)
I1214 22:59:47.391927  5289 net.cpp:150] Setting up relu_4e_3x3
I1214 22:59:47.391942  5289 net.cpp:157] Top shape: 1 192 7 7 (9408)
I1214 22:59:47.391953  5289 net.cpp:165] Memory required for data: 112921092
I1214 22:59:47.391964  5289 layer_factory.hpp:77] Creating layer conv_4e_double_3x3_reduce
I1214 22:59:47.391981  5289 net.cpp:100] Creating Layer conv_4e_double_3x3_reduce
I1214 22:59:47.391994  5289 net.cpp:434] conv_4e_double_3x3_reduce <- ch_concat_4d_chconcat_ch_concat_4d_chconcat_0_split_1
I1214 22:59:47.392014  5289 net.cpp:408] conv_4e_double_3x3_reduce -> conv_4e_double_3x3_reduce
I1214 22:59:47.392407  5289 net.cpp:150] Setting up conv_4e_double_3x3_reduce
I1214 22:59:47.392433  5289 net.cpp:157] Top shape: 1 192 14 14 (37632)
I1214 22:59:47.392446  5289 net.cpp:165] Memory required for data: 113071620
I1214 22:59:47.392462  5289 layer_factory.hpp:77] Creating layer bn_4e_double_3x3_reduce
I1214 22:59:47.392480  5289 net.cpp:100] Creating Layer bn_4e_double_3x3_reduce
I1214 22:59:47.392494  5289 net.cpp:434] bn_4e_double_3x3_reduce <- conv_4e_double_3x3_reduce
I1214 22:59:47.392513  5289 net.cpp:395] bn_4e_double_3x3_reduce -> conv_4e_double_3x3_reduce (in-place)
I1214 22:59:47.392771  5289 net.cpp:150] Setting up bn_4e_double_3x3_reduce
I1214 22:59:47.392796  5289 net.cpp:157] Top shape: 1 192 14 14 (37632)
I1214 22:59:47.392808  5289 net.cpp:165] Memory required for data: 113222148
I1214 22:59:47.392827  5289 layer_factory.hpp:77] Creating layer scale_conv_4e_double_3x3_reduce
I1214 22:59:47.392845  5289 net.cpp:100] Creating Layer scale_conv_4e_double_3x3_reduce
I1214 22:59:47.392859  5289 net.cpp:434] scale_conv_4e_double_3x3_reduce <- conv_4e_double_3x3_reduce
I1214 22:59:47.392874  5289 net.cpp:395] scale_conv_4e_double_3x3_reduce -> conv_4e_double_3x3_reduce (in-place)
I1214 22:59:47.392937  5289 layer_factory.hpp:77] Creating layer scale_conv_4e_double_3x3_reduce
I1214 22:59:47.393107  5289 net.cpp:150] Setting up scale_conv_4e_double_3x3_reduce
I1214 22:59:47.393131  5289 net.cpp:157] Top shape: 1 192 14 14 (37632)
I1214 22:59:47.393143  5289 net.cpp:165] Memory required for data: 113372676
I1214 22:59:47.393159  5289 layer_factory.hpp:77] Creating layer relu_4e_double_3x3_reduce
I1214 22:59:47.393178  5289 net.cpp:100] Creating Layer relu_4e_double_3x3_reduce
I1214 22:59:47.393198  5289 net.cpp:434] relu_4e_double_3x3_reduce <- conv_4e_double_3x3_reduce
I1214 22:59:47.393218  5289 net.cpp:395] relu_4e_double_3x3_reduce -> conv_4e_double_3x3_reduce (in-place)
I1214 22:59:47.393236  5289 net.cpp:150] Setting up relu_4e_double_3x3_reduce
I1214 22:59:47.393251  5289 net.cpp:157] Top shape: 1 192 14 14 (37632)
I1214 22:59:47.393265  5289 net.cpp:165] Memory required for data: 113523204
I1214 22:59:47.393276  5289 layer_factory.hpp:77] Creating layer conv_4e_double_3x3_0
I1214 22:59:47.393292  5289 net.cpp:100] Creating Layer conv_4e_double_3x3_0
I1214 22:59:47.393304  5289 net.cpp:434] conv_4e_double_3x3_0 <- conv_4e_double_3x3_reduce
I1214 22:59:47.393324  5289 net.cpp:408] conv_4e_double_3x3_0 -> conv_4e_double_3x3_0
I1214 22:59:47.394866  5289 net.cpp:150] Setting up conv_4e_double_3x3_0
I1214 22:59:47.394893  5289 net.cpp:157] Top shape: 1 256 14 14 (50176)
I1214 22:59:47.394906  5289 net.cpp:165] Memory required for data: 113723908
I1214 22:59:47.394923  5289 layer_factory.hpp:77] Creating layer bn_4e_double_3x3_0
I1214 22:59:47.394945  5289 net.cpp:100] Creating Layer bn_4e_double_3x3_0
I1214 22:59:47.394959  5289 net.cpp:434] bn_4e_double_3x3_0 <- conv_4e_double_3x3_0
I1214 22:59:47.394978  5289 net.cpp:395] bn_4e_double_3x3_0 -> conv_4e_double_3x3_0 (in-place)
I1214 22:59:47.395236  5289 net.cpp:150] Setting up bn_4e_double_3x3_0
I1214 22:59:47.395259  5289 net.cpp:157] Top shape: 1 256 14 14 (50176)
I1214 22:59:47.395272  5289 net.cpp:165] Memory required for data: 113924612
I1214 22:59:47.395290  5289 layer_factory.hpp:77] Creating layer scale_conv_4e_double_3x3_0
I1214 22:59:47.395310  5289 net.cpp:100] Creating Layer scale_conv_4e_double_3x3_0
I1214 22:59:47.395324  5289 net.cpp:434] scale_conv_4e_double_3x3_0 <- conv_4e_double_3x3_0
I1214 22:59:47.395339  5289 net.cpp:395] scale_conv_4e_double_3x3_0 -> conv_4e_double_3x3_0 (in-place)
I1214 22:59:47.395402  5289 layer_factory.hpp:77] Creating layer scale_conv_4e_double_3x3_0
I1214 22:59:47.395562  5289 net.cpp:150] Setting up scale_conv_4e_double_3x3_0
I1214 22:59:47.395586  5289 net.cpp:157] Top shape: 1 256 14 14 (50176)
I1214 22:59:47.395597  5289 net.cpp:165] Memory required for data: 114125316
I1214 22:59:47.395613  5289 layer_factory.hpp:77] Creating layer relu_4e_double_3x3_0
I1214 22:59:47.395629  5289 net.cpp:100] Creating Layer relu_4e_double_3x3_0
I1214 22:59:47.395642  5289 net.cpp:434] relu_4e_double_3x3_0 <- conv_4e_double_3x3_0
I1214 22:59:47.395658  5289 net.cpp:395] relu_4e_double_3x3_0 -> conv_4e_double_3x3_0 (in-place)
I1214 22:59:47.395675  5289 net.cpp:150] Setting up relu_4e_double_3x3_0
I1214 22:59:47.395690  5289 net.cpp:157] Top shape: 1 256 14 14 (50176)
I1214 22:59:47.395701  5289 net.cpp:165] Memory required for data: 114326020
I1214 22:59:47.395712  5289 layer_factory.hpp:77] Creating layer conv_4e_double_3x3_1
I1214 22:59:47.395731  5289 net.cpp:100] Creating Layer conv_4e_double_3x3_1
I1214 22:59:47.395745  5289 net.cpp:434] conv_4e_double_3x3_1 <- conv_4e_double_3x3_0
I1214 22:59:47.395761  5289 net.cpp:408] conv_4e_double_3x3_1 -> conv_4e_double_3x3_1
I1214 22:59:47.397675  5289 net.cpp:150] Setting up conv_4e_double_3x3_1
I1214 22:59:47.397702  5289 net.cpp:157] Top shape: 1 256 7 7 (12544)
I1214 22:59:47.397714  5289 net.cpp:165] Memory required for data: 114376196
I1214 22:59:47.397732  5289 layer_factory.hpp:77] Creating layer bn_4e_double_3x3_1
I1214 22:59:47.397752  5289 net.cpp:100] Creating Layer bn_4e_double_3x3_1
I1214 22:59:47.397765  5289 net.cpp:434] bn_4e_double_3x3_1 <- conv_4e_double_3x3_1
I1214 22:59:47.397780  5289 net.cpp:395] bn_4e_double_3x3_1 -> conv_4e_double_3x3_1 (in-place)
I1214 22:59:47.398030  5289 net.cpp:150] Setting up bn_4e_double_3x3_1
I1214 22:59:47.398051  5289 net.cpp:157] Top shape: 1 256 7 7 (12544)
I1214 22:59:47.398062  5289 net.cpp:165] Memory required for data: 114426372
I1214 22:59:47.398083  5289 layer_factory.hpp:77] Creating layer scale_conv_4e_double_3x3_1
I1214 22:59:47.398099  5289 net.cpp:100] Creating Layer scale_conv_4e_double_3x3_1
I1214 22:59:47.398113  5289 net.cpp:434] scale_conv_4e_double_3x3_1 <- conv_4e_double_3x3_1
I1214 22:59:47.398130  5289 net.cpp:395] scale_conv_4e_double_3x3_1 -> conv_4e_double_3x3_1 (in-place)
I1214 22:59:47.398197  5289 layer_factory.hpp:77] Creating layer scale_conv_4e_double_3x3_1
I1214 22:59:47.398357  5289 net.cpp:150] Setting up scale_conv_4e_double_3x3_1
I1214 22:59:47.398378  5289 net.cpp:157] Top shape: 1 256 7 7 (12544)
I1214 22:59:47.398391  5289 net.cpp:165] Memory required for data: 114476548
I1214 22:59:47.398407  5289 layer_factory.hpp:77] Creating layer relu_4e_double_3x3_1
I1214 22:59:47.398422  5289 net.cpp:100] Creating Layer relu_4e_double_3x3_1
I1214 22:59:47.398435  5289 net.cpp:434] relu_4e_double_3x3_1 <- conv_4e_double_3x3_1
I1214 22:59:47.398450  5289 net.cpp:395] relu_4e_double_3x3_1 -> conv_4e_double_3x3_1 (in-place)
I1214 22:59:47.398466  5289 net.cpp:150] Setting up relu_4e_double_3x3_1
I1214 22:59:47.398481  5289 net.cpp:157] Top shape: 1 256 7 7 (12544)
I1214 22:59:47.398494  5289 net.cpp:165] Memory required for data: 114526724
I1214 22:59:47.398504  5289 layer_factory.hpp:77] Creating layer max_pool_4e_pool
I1214 22:59:47.398524  5289 net.cpp:100] Creating Layer max_pool_4e_pool
I1214 22:59:47.398537  5289 net.cpp:434] max_pool_4e_pool <- ch_concat_4d_chconcat_ch_concat_4d_chconcat_0_split_2
I1214 22:59:47.398562  5289 net.cpp:408] max_pool_4e_pool -> max_pool_4e_pool
I1214 22:59:47.398630  5289 net.cpp:150] Setting up max_pool_4e_pool
I1214 22:59:47.398651  5289 net.cpp:157] Top shape: 1 512 7 7 (25088)
I1214 22:59:47.398663  5289 net.cpp:165] Memory required for data: 114627076
I1214 22:59:47.398674  5289 layer_factory.hpp:77] Creating layer ch_concat_4e_chconcat
I1214 22:59:47.398689  5289 net.cpp:100] Creating Layer ch_concat_4e_chconcat
I1214 22:59:47.398701  5289 net.cpp:434] ch_concat_4e_chconcat <- conv_4e_3x3
I1214 22:59:47.398715  5289 net.cpp:434] ch_concat_4e_chconcat <- conv_4e_double_3x3_1
I1214 22:59:47.398727  5289 net.cpp:434] ch_concat_4e_chconcat <- max_pool_4e_pool
I1214 22:59:47.398742  5289 net.cpp:408] ch_concat_4e_chconcat -> ch_concat_4e_chconcat
I1214 22:59:47.398793  5289 net.cpp:150] Setting up ch_concat_4e_chconcat
I1214 22:59:47.398813  5289 net.cpp:157] Top shape: 1 960 7 7 (47040)
I1214 22:59:47.398824  5289 net.cpp:165] Memory required for data: 114815236
I1214 22:59:47.398836  5289 layer_factory.hpp:77] Creating layer ch_concat_4e_chconcat_ch_concat_4e_chconcat_0_split
I1214 22:59:47.398851  5289 net.cpp:100] Creating Layer ch_concat_4e_chconcat_ch_concat_4e_chconcat_0_split
I1214 22:59:47.398864  5289 net.cpp:434] ch_concat_4e_chconcat_ch_concat_4e_chconcat_0_split <- ch_concat_4e_chconcat
I1214 22:59:47.398880  5289 net.cpp:408] ch_concat_4e_chconcat_ch_concat_4e_chconcat_0_split -> ch_concat_4e_chconcat_ch_concat_4e_chconcat_0_split_0
I1214 22:59:47.398898  5289 net.cpp:408] ch_concat_4e_chconcat_ch_concat_4e_chconcat_0_split -> ch_concat_4e_chconcat_ch_concat_4e_chconcat_0_split_1
I1214 22:59:47.398921  5289 net.cpp:408] ch_concat_4e_chconcat_ch_concat_4e_chconcat_0_split -> ch_concat_4e_chconcat_ch_concat_4e_chconcat_0_split_2
I1214 22:59:47.398941  5289 net.cpp:408] ch_concat_4e_chconcat_ch_concat_4e_chconcat_0_split -> ch_concat_4e_chconcat_ch_concat_4e_chconcat_0_split_3
I1214 22:59:47.399031  5289 net.cpp:150] Setting up ch_concat_4e_chconcat_ch_concat_4e_chconcat_0_split
I1214 22:59:47.399051  5289 net.cpp:157] Top shape: 1 960 7 7 (47040)
I1214 22:59:47.399065  5289 net.cpp:157] Top shape: 1 960 7 7 (47040)
I1214 22:59:47.399077  5289 net.cpp:157] Top shape: 1 960 7 7 (47040)
I1214 22:59:47.399091  5289 net.cpp:157] Top shape: 1 960 7 7 (47040)
I1214 22:59:47.399101  5289 net.cpp:165] Memory required for data: 115567876
I1214 22:59:47.399112  5289 layer_factory.hpp:77] Creating layer conv_5a_1x1
I1214 22:59:47.399133  5289 net.cpp:100] Creating Layer conv_5a_1x1
I1214 22:59:47.399147  5289 net.cpp:434] conv_5a_1x1 <- ch_concat_4e_chconcat_ch_concat_4e_chconcat_0_split_0
I1214 22:59:47.399165  5289 net.cpp:408] conv_5a_1x1 -> conv_5a_1x1
I1214 22:59:47.400702  5289 net.cpp:150] Setting up conv_5a_1x1
I1214 22:59:47.400732  5289 net.cpp:157] Top shape: 1 352 7 7 (17248)
I1214 22:59:47.400744  5289 net.cpp:165] Memory required for data: 115636868
I1214 22:59:47.400760  5289 layer_factory.hpp:77] Creating layer bn_5a_1x1
I1214 22:59:47.400779  5289 net.cpp:100] Creating Layer bn_5a_1x1
I1214 22:59:47.400794  5289 net.cpp:434] bn_5a_1x1 <- conv_5a_1x1
I1214 22:59:47.400820  5289 net.cpp:395] bn_5a_1x1 -> conv_5a_1x1 (in-place)
I1214 22:59:47.401116  5289 net.cpp:150] Setting up bn_5a_1x1
I1214 22:59:47.401139  5289 net.cpp:157] Top shape: 1 352 7 7 (17248)
I1214 22:59:47.401150  5289 net.cpp:165] Memory required for data: 115705860
I1214 22:59:47.401167  5289 layer_factory.hpp:77] Creating layer scale_conv_5a_1x1
I1214 22:59:47.401188  5289 net.cpp:100] Creating Layer scale_conv_5a_1x1
I1214 22:59:47.401201  5289 net.cpp:434] scale_conv_5a_1x1 <- conv_5a_1x1
I1214 22:59:47.401216  5289 net.cpp:395] scale_conv_5a_1x1 -> conv_5a_1x1 (in-place)
I1214 22:59:47.401293  5289 layer_factory.hpp:77] Creating layer scale_conv_5a_1x1
I1214 22:59:47.401486  5289 net.cpp:150] Setting up scale_conv_5a_1x1
I1214 22:59:47.401507  5289 net.cpp:157] Top shape: 1 352 7 7 (17248)
I1214 22:59:47.401518  5289 net.cpp:165] Memory required for data: 115774852
I1214 22:59:47.401542  5289 layer_factory.hpp:77] Creating layer relu_5a_1x1
I1214 22:59:47.401557  5289 net.cpp:100] Creating Layer relu_5a_1x1
I1214 22:59:47.401582  5289 net.cpp:434] relu_5a_1x1 <- conv_5a_1x1
I1214 22:59:47.401597  5289 net.cpp:395] relu_5a_1x1 -> conv_5a_1x1 (in-place)
I1214 22:59:47.401612  5289 net.cpp:150] Setting up relu_5a_1x1
I1214 22:59:47.401628  5289 net.cpp:157] Top shape: 1 352 7 7 (17248)
I1214 22:59:47.401638  5289 net.cpp:165] Memory required for data: 115843844
I1214 22:59:47.401649  5289 layer_factory.hpp:77] Creating layer conv_5a_3x3_reduce
I1214 22:59:47.401670  5289 net.cpp:100] Creating Layer conv_5a_3x3_reduce
I1214 22:59:47.401684  5289 net.cpp:434] conv_5a_3x3_reduce <- ch_concat_4e_chconcat_ch_concat_4e_chconcat_0_split_1
I1214 22:59:47.401703  5289 net.cpp:408] conv_5a_3x3_reduce -> conv_5a_3x3_reduce
I1214 22:59:47.402811  5289 net.cpp:150] Setting up conv_5a_3x3_reduce
I1214 22:59:47.402837  5289 net.cpp:157] Top shape: 1 192 7 7 (9408)
I1214 22:59:47.402848  5289 net.cpp:165] Memory required for data: 115881476
I1214 22:59:47.402864  5289 layer_factory.hpp:77] Creating layer bn_5a_3x3_reduce
I1214 22:59:47.402881  5289 net.cpp:100] Creating Layer bn_5a_3x3_reduce
I1214 22:59:47.402895  5289 net.cpp:434] bn_5a_3x3_reduce <- conv_5a_3x3_reduce
I1214 22:59:47.402914  5289 net.cpp:395] bn_5a_3x3_reduce -> conv_5a_3x3_reduce (in-place)
I1214 22:59:47.403204  5289 net.cpp:150] Setting up bn_5a_3x3_reduce
I1214 22:59:47.403226  5289 net.cpp:157] Top shape: 1 192 7 7 (9408)
I1214 22:59:47.403239  5289 net.cpp:165] Memory required for data: 115919108
I1214 22:59:47.403257  5289 layer_factory.hpp:77] Creating layer scale_conv_5a_3x3_reduce
I1214 22:59:47.403277  5289 net.cpp:100] Creating Layer scale_conv_5a_3x3_reduce
I1214 22:59:47.403290  5289 net.cpp:434] scale_conv_5a_3x3_reduce <- conv_5a_3x3_reduce
I1214 22:59:47.403306  5289 net.cpp:395] scale_conv_5a_3x3_reduce -> conv_5a_3x3_reduce (in-place)
I1214 22:59:47.403372  5289 layer_factory.hpp:77] Creating layer scale_conv_5a_3x3_reduce
I1214 22:59:47.403542  5289 net.cpp:150] Setting up scale_conv_5a_3x3_reduce
I1214 22:59:47.403576  5289 net.cpp:157] Top shape: 1 192 7 7 (9408)
I1214 22:59:47.403589  5289 net.cpp:165] Memory required for data: 115956740
I1214 22:59:47.403604  5289 layer_factory.hpp:77] Creating layer relu_5a_3x3_reduce
I1214 22:59:47.403621  5289 net.cpp:100] Creating Layer relu_5a_3x3_reduce
I1214 22:59:47.403633  5289 net.cpp:434] relu_5a_3x3_reduce <- conv_5a_3x3_reduce
I1214 22:59:47.403650  5289 net.cpp:395] relu_5a_3x3_reduce -> conv_5a_3x3_reduce (in-place)
I1214 22:59:47.403667  5289 net.cpp:150] Setting up relu_5a_3x3_reduce
I1214 22:59:47.403681  5289 net.cpp:157] Top shape: 1 192 7 7 (9408)
I1214 22:59:47.403704  5289 net.cpp:165] Memory required for data: 115994372
I1214 22:59:47.403717  5289 layer_factory.hpp:77] Creating layer conv_5a_3x3
I1214 22:59:47.403806  5289 net.cpp:100] Creating Layer conv_5a_3x3
I1214 22:59:47.403825  5289 net.cpp:434] conv_5a_3x3 <- conv_5a_3x3_reduce
I1214 22:59:47.403841  5289 net.cpp:408] conv_5a_3x3 -> conv_5a_3x3
I1214 22:59:47.405761  5289 net.cpp:150] Setting up conv_5a_3x3
I1214 22:59:47.405788  5289 net.cpp:157] Top shape: 1 320 7 7 (15680)
I1214 22:59:47.405800  5289 net.cpp:165] Memory required for data: 116057092
I1214 22:59:47.405817  5289 layer_factory.hpp:77] Creating layer bn_5a_3x3
I1214 22:59:47.405845  5289 net.cpp:100] Creating Layer bn_5a_3x3
I1214 22:59:47.405859  5289 net.cpp:434] bn_5a_3x3 <- conv_5a_3x3
I1214 22:59:47.405879  5289 net.cpp:395] bn_5a_3x3 -> conv_5a_3x3 (in-place)
I1214 22:59:47.406177  5289 net.cpp:150] Setting up bn_5a_3x3
I1214 22:59:47.406208  5289 net.cpp:157] Top shape: 1 320 7 7 (15680)
I1214 22:59:47.406220  5289 net.cpp:165] Memory required for data: 116119812
I1214 22:59:47.406239  5289 layer_factory.hpp:77] Creating layer scale_conv_5a_3x3
I1214 22:59:47.406255  5289 net.cpp:100] Creating Layer scale_conv_5a_3x3
I1214 22:59:47.406267  5289 net.cpp:434] scale_conv_5a_3x3 <- conv_5a_3x3
I1214 22:59:47.406289  5289 net.cpp:395] scale_conv_5a_3x3 -> conv_5a_3x3 (in-place)
I1214 22:59:47.406379  5289 layer_factory.hpp:77] Creating layer scale_conv_5a_3x3
I1214 22:59:47.406563  5289 net.cpp:150] Setting up scale_conv_5a_3x3
I1214 22:59:47.406587  5289 net.cpp:157] Top shape: 1 320 7 7 (15680)
I1214 22:59:47.406599  5289 net.cpp:165] Memory required for data: 116182532
I1214 22:59:47.406615  5289 layer_factory.hpp:77] Creating layer relu_5a_3x3
I1214 22:59:47.406635  5289 net.cpp:100] Creating Layer relu_5a_3x3
I1214 22:59:47.406647  5289 net.cpp:434] relu_5a_3x3 <- conv_5a_3x3
I1214 22:59:47.406661  5289 net.cpp:395] relu_5a_3x3 -> conv_5a_3x3 (in-place)
I1214 22:59:47.406678  5289 net.cpp:150] Setting up relu_5a_3x3
I1214 22:59:47.406692  5289 net.cpp:157] Top shape: 1 320 7 7 (15680)
I1214 22:59:47.406703  5289 net.cpp:165] Memory required for data: 116245252
I1214 22:59:47.406715  5289 layer_factory.hpp:77] Creating layer conv_5a_double_3x3_reduce
I1214 22:59:47.406749  5289 net.cpp:100] Creating Layer conv_5a_double_3x3_reduce
I1214 22:59:47.406762  5289 net.cpp:434] conv_5a_double_3x3_reduce <- ch_concat_4e_chconcat_ch_concat_4e_chconcat_0_split_2
I1214 22:59:47.406779  5289 net.cpp:408] conv_5a_double_3x3_reduce -> conv_5a_double_3x3_reduce
I1214 22:59:47.407868  5289 net.cpp:150] Setting up conv_5a_double_3x3_reduce
I1214 22:59:47.407896  5289 net.cpp:157] Top shape: 1 160 7 7 (7840)
I1214 22:59:47.407908  5289 net.cpp:165] Memory required for data: 116276612
I1214 22:59:47.407924  5289 layer_factory.hpp:77] Creating layer bn_5a_double_3x3_reduce
I1214 22:59:47.407943  5289 net.cpp:100] Creating Layer bn_5a_double_3x3_reduce
I1214 22:59:47.407955  5289 net.cpp:434] bn_5a_double_3x3_reduce <- conv_5a_double_3x3_reduce
I1214 22:59:47.407984  5289 net.cpp:395] bn_5a_double_3x3_reduce -> conv_5a_double_3x3_reduce (in-place)
I1214 22:59:47.408260  5289 net.cpp:150] Setting up bn_5a_double_3x3_reduce
I1214 22:59:47.408298  5289 net.cpp:157] Top shape: 1 160 7 7 (7840)
I1214 22:59:47.408310  5289 net.cpp:165] Memory required for data: 116307972
I1214 22:59:47.408327  5289 layer_factory.hpp:77] Creating layer scale_conv_5a_double_3x3_reduce
I1214 22:59:47.408344  5289 net.cpp:100] Creating Layer scale_conv_5a_double_3x3_reduce
I1214 22:59:47.408356  5289 net.cpp:434] scale_conv_5a_double_3x3_reduce <- conv_5a_double_3x3_reduce
I1214 22:59:47.408373  5289 net.cpp:395] scale_conv_5a_double_3x3_reduce -> conv_5a_double_3x3_reduce (in-place)
I1214 22:59:47.408439  5289 layer_factory.hpp:77] Creating layer scale_conv_5a_double_3x3_reduce
I1214 22:59:47.408628  5289 net.cpp:150] Setting up scale_conv_5a_double_3x3_reduce
I1214 22:59:47.408653  5289 net.cpp:157] Top shape: 1 160 7 7 (7840)
I1214 22:59:47.408664  5289 net.cpp:165] Memory required for data: 116339332
I1214 22:59:47.408680  5289 layer_factory.hpp:77] Creating layer relu_5a_double_3x3_reduce
I1214 22:59:47.408696  5289 net.cpp:100] Creating Layer relu_5a_double_3x3_reduce
I1214 22:59:47.408709  5289 net.cpp:434] relu_5a_double_3x3_reduce <- conv_5a_double_3x3_reduce
I1214 22:59:47.408726  5289 net.cpp:395] relu_5a_double_3x3_reduce -> conv_5a_double_3x3_reduce (in-place)
I1214 22:59:47.408745  5289 net.cpp:150] Setting up relu_5a_double_3x3_reduce
I1214 22:59:47.408759  5289 net.cpp:157] Top shape: 1 160 7 7 (7840)
I1214 22:59:47.408771  5289 net.cpp:165] Memory required for data: 116370692
I1214 22:59:47.408782  5289 layer_factory.hpp:77] Creating layer conv_5a_double_3x3_0
I1214 22:59:47.408802  5289 net.cpp:100] Creating Layer conv_5a_double_3x3_0
I1214 22:59:47.408815  5289 net.cpp:434] conv_5a_double_3x3_0 <- conv_5a_double_3x3_reduce
I1214 22:59:47.408831  5289 net.cpp:408] conv_5a_double_3x3_0 -> conv_5a_double_3x3_0
I1214 22:59:47.410152  5289 net.cpp:150] Setting up conv_5a_double_3x3_0
I1214 22:59:47.410185  5289 net.cpp:157] Top shape: 1 224 7 7 (10976)
I1214 22:59:47.410199  5289 net.cpp:165] Memory required for data: 116414596
I1214 22:59:47.410217  5289 layer_factory.hpp:77] Creating layer bn_5a_double_3x3_0
I1214 22:59:47.410244  5289 net.cpp:100] Creating Layer bn_5a_double_3x3_0
I1214 22:59:47.410259  5289 net.cpp:434] bn_5a_double_3x3_0 <- conv_5a_double_3x3_0
I1214 22:59:47.410274  5289 net.cpp:395] bn_5a_double_3x3_0 -> conv_5a_double_3x3_0 (in-place)
I1214 22:59:47.410575  5289 net.cpp:150] Setting up bn_5a_double_3x3_0
I1214 22:59:47.410599  5289 net.cpp:157] Top shape: 1 224 7 7 (10976)
I1214 22:59:47.410612  5289 net.cpp:165] Memory required for data: 116458500
I1214 22:59:47.410630  5289 layer_factory.hpp:77] Creating layer scale_conv_5a_double_3x3_0
I1214 22:59:47.410650  5289 net.cpp:100] Creating Layer scale_conv_5a_double_3x3_0
I1214 22:59:47.410665  5289 net.cpp:434] scale_conv_5a_double_3x3_0 <- conv_5a_double_3x3_0
I1214 22:59:47.410679  5289 net.cpp:395] scale_conv_5a_double_3x3_0 -> conv_5a_double_3x3_0 (in-place)
I1214 22:59:47.410745  5289 layer_factory.hpp:77] Creating layer scale_conv_5a_double_3x3_0
I1214 22:59:47.410925  5289 net.cpp:150] Setting up scale_conv_5a_double_3x3_0
I1214 22:59:47.410962  5289 net.cpp:157] Top shape: 1 224 7 7 (10976)
I1214 22:59:47.410975  5289 net.cpp:165] Memory required for data: 116502404
I1214 22:59:47.410990  5289 layer_factory.hpp:77] Creating layer relu_5a_double_3x3_0
I1214 22:59:47.411005  5289 net.cpp:100] Creating Layer relu_5a_double_3x3_0
I1214 22:59:47.411017  5289 net.cpp:434] relu_5a_double_3x3_0 <- conv_5a_double_3x3_0
I1214 22:59:47.411033  5289 net.cpp:395] relu_5a_double_3x3_0 -> conv_5a_double_3x3_0 (in-place)
I1214 22:59:47.411051  5289 net.cpp:150] Setting up relu_5a_double_3x3_0
I1214 22:59:47.411064  5289 net.cpp:157] Top shape: 1 224 7 7 (10976)
I1214 22:59:47.411075  5289 net.cpp:165] Memory required for data: 116546308
I1214 22:59:47.411087  5289 layer_factory.hpp:77] Creating layer conv_5a_double_3x3_1
I1214 22:59:47.411103  5289 net.cpp:100] Creating Layer conv_5a_double_3x3_1
I1214 22:59:47.411114  5289 net.cpp:434] conv_5a_double_3x3_1 <- conv_5a_double_3x3_0
I1214 22:59:47.411133  5289 net.cpp:408] conv_5a_double_3x3_1 -> conv_5a_double_3x3_1
I1214 22:59:47.412788  5289 net.cpp:150] Setting up conv_5a_double_3x3_1
I1214 22:59:47.412817  5289 net.cpp:157] Top shape: 1 224 7 7 (10976)
I1214 22:59:47.412829  5289 net.cpp:165] Memory required for data: 116590212
I1214 22:59:47.412845  5289 layer_factory.hpp:77] Creating layer bn_5a_double_3x3_1
I1214 22:59:47.412865  5289 net.cpp:100] Creating Layer bn_5a_double_3x3_1
I1214 22:59:47.412879  5289 net.cpp:434] bn_5a_double_3x3_1 <- conv_5a_double_3x3_1
I1214 22:59:47.412894  5289 net.cpp:395] bn_5a_double_3x3_1 -> conv_5a_double_3x3_1 (in-place)
I1214 22:59:47.413177  5289 net.cpp:150] Setting up bn_5a_double_3x3_1
I1214 22:59:47.413203  5289 net.cpp:157] Top shape: 1 224 7 7 (10976)
I1214 22:59:47.413229  5289 net.cpp:165] Memory required for data: 116634116
I1214 22:59:47.413247  5289 layer_factory.hpp:77] Creating layer scale_conv_5a_double_3x3_1
I1214 22:59:47.413264  5289 net.cpp:100] Creating Layer scale_conv_5a_double_3x3_1
I1214 22:59:47.413277  5289 net.cpp:434] scale_conv_5a_double_3x3_1 <- conv_5a_double_3x3_1
I1214 22:59:47.413292  5289 net.cpp:395] scale_conv_5a_double_3x3_1 -> conv_5a_double_3x3_1 (in-place)
I1214 22:59:47.413362  5289 layer_factory.hpp:77] Creating layer scale_conv_5a_double_3x3_1
I1214 22:59:47.413533  5289 net.cpp:150] Setting up scale_conv_5a_double_3x3_1
I1214 22:59:47.413555  5289 net.cpp:157] Top shape: 1 224 7 7 (10976)
I1214 22:59:47.413566  5289 net.cpp:165] Memory required for data: 116678020
I1214 22:59:47.413583  5289 layer_factory.hpp:77] Creating layer relu_5a_double_3x3_1
I1214 22:59:47.413597  5289 net.cpp:100] Creating Layer relu_5a_double_3x3_1
I1214 22:59:47.413622  5289 net.cpp:434] relu_5a_double_3x3_1 <- conv_5a_double_3x3_1
I1214 22:59:47.413640  5289 net.cpp:395] relu_5a_double_3x3_1 -> conv_5a_double_3x3_1 (in-place)
I1214 22:59:47.413656  5289 net.cpp:150] Setting up relu_5a_double_3x3_1
I1214 22:59:47.413683  5289 net.cpp:157] Top shape: 1 224 7 7 (10976)
I1214 22:59:47.413694  5289 net.cpp:165] Memory required for data: 116721924
I1214 22:59:47.413714  5289 layer_factory.hpp:77] Creating layer ave_pool_5a_pool
I1214 22:59:47.413733  5289 net.cpp:100] Creating Layer ave_pool_5a_pool
I1214 22:59:47.413744  5289 net.cpp:434] ave_pool_5a_pool <- ch_concat_4e_chconcat_ch_concat_4e_chconcat_0_split_3
I1214 22:59:47.413764  5289 net.cpp:408] ave_pool_5a_pool -> ave_pool_5a_pool
I1214 22:59:47.413812  5289 net.cpp:150] Setting up ave_pool_5a_pool
I1214 22:59:47.413831  5289 net.cpp:157] Top shape: 1 960 7 7 (47040)
I1214 22:59:47.413843  5289 net.cpp:165] Memory required for data: 116910084
I1214 22:59:47.413856  5289 layer_factory.hpp:77] Creating layer conv_5a_proj
I1214 22:59:47.413877  5289 net.cpp:100] Creating Layer conv_5a_proj
I1214 22:59:47.413890  5289 net.cpp:434] conv_5a_proj <- ave_pool_5a_pool
I1214 22:59:47.413907  5289 net.cpp:408] conv_5a_proj -> conv_5a_proj
I1214 22:59:47.414968  5289 net.cpp:150] Setting up conv_5a_proj
I1214 22:59:47.414996  5289 net.cpp:157] Top shape: 1 128 7 7 (6272)
I1214 22:59:47.415009  5289 net.cpp:165] Memory required for data: 116935172
I1214 22:59:47.415025  5289 layer_factory.hpp:77] Creating layer bn_5a_proj
I1214 22:59:47.415041  5289 net.cpp:100] Creating Layer bn_5a_proj
I1214 22:59:47.415055  5289 net.cpp:434] bn_5a_proj <- conv_5a_proj
I1214 22:59:47.415068  5289 net.cpp:395] bn_5a_proj -> conv_5a_proj (in-place)
I1214 22:59:47.415343  5289 net.cpp:150] Setting up bn_5a_proj
I1214 22:59:47.415365  5289 net.cpp:157] Top shape: 1 128 7 7 (6272)
I1214 22:59:47.415377  5289 net.cpp:165] Memory required for data: 116960260
I1214 22:59:47.415395  5289 layer_factory.hpp:77] Creating layer scale_conv_5a_proj
I1214 22:59:47.415410  5289 net.cpp:100] Creating Layer scale_conv_5a_proj
I1214 22:59:47.415421  5289 net.cpp:434] scale_conv_5a_proj <- conv_5a_proj
I1214 22:59:47.415446  5289 net.cpp:395] scale_conv_5a_proj -> conv_5a_proj (in-place)
I1214 22:59:47.415516  5289 layer_factory.hpp:77] Creating layer scale_conv_5a_proj
I1214 22:59:47.415679  5289 net.cpp:150] Setting up scale_conv_5a_proj
I1214 22:59:47.415700  5289 net.cpp:157] Top shape: 1 128 7 7 (6272)
I1214 22:59:47.415712  5289 net.cpp:165] Memory required for data: 116985348
I1214 22:59:47.415727  5289 layer_factory.hpp:77] Creating layer relu_5a_proj
I1214 22:59:47.415742  5289 net.cpp:100] Creating Layer relu_5a_proj
I1214 22:59:47.415767  5289 net.cpp:434] relu_5a_proj <- conv_5a_proj
I1214 22:59:47.415784  5289 net.cpp:395] relu_5a_proj -> conv_5a_proj (in-place)
I1214 22:59:47.415801  5289 net.cpp:150] Setting up relu_5a_proj
I1214 22:59:47.415814  5289 net.cpp:157] Top shape: 1 128 7 7 (6272)
I1214 22:59:47.415825  5289 net.cpp:165] Memory required for data: 117010436
I1214 22:59:47.415837  5289 layer_factory.hpp:77] Creating layer ch_concat_5a_chconcat
I1214 22:59:47.415850  5289 net.cpp:100] Creating Layer ch_concat_5a_chconcat
I1214 22:59:47.415863  5289 net.cpp:434] ch_concat_5a_chconcat <- conv_5a_1x1
I1214 22:59:47.415874  5289 net.cpp:434] ch_concat_5a_chconcat <- conv_5a_3x3
I1214 22:59:47.415886  5289 net.cpp:434] ch_concat_5a_chconcat <- conv_5a_double_3x3_1
I1214 22:59:47.415899  5289 net.cpp:434] ch_concat_5a_chconcat <- conv_5a_proj
I1214 22:59:47.415913  5289 net.cpp:408] ch_concat_5a_chconcat -> ch_concat_5a_chconcat
I1214 22:59:47.415977  5289 net.cpp:150] Setting up ch_concat_5a_chconcat
I1214 22:59:47.415998  5289 net.cpp:157] Top shape: 1 1024 7 7 (50176)
I1214 22:59:47.416009  5289 net.cpp:165] Memory required for data: 117211140
I1214 22:59:47.416021  5289 layer_factory.hpp:77] Creating layer ch_concat_5a_chconcat_ch_concat_5a_chconcat_0_split
I1214 22:59:47.416041  5289 net.cpp:100] Creating Layer ch_concat_5a_chconcat_ch_concat_5a_chconcat_0_split
I1214 22:59:47.416054  5289 net.cpp:434] ch_concat_5a_chconcat_ch_concat_5a_chconcat_0_split <- ch_concat_5a_chconcat
I1214 22:59:47.416070  5289 net.cpp:408] ch_concat_5a_chconcat_ch_concat_5a_chconcat_0_split -> ch_concat_5a_chconcat_ch_concat_5a_chconcat_0_split_0
I1214 22:59:47.416091  5289 net.cpp:408] ch_concat_5a_chconcat_ch_concat_5a_chconcat_0_split -> ch_concat_5a_chconcat_ch_concat_5a_chconcat_0_split_1
I1214 22:59:47.416119  5289 net.cpp:408] ch_concat_5a_chconcat_ch_concat_5a_chconcat_0_split -> ch_concat_5a_chconcat_ch_concat_5a_chconcat_0_split_2
I1214 22:59:47.416139  5289 net.cpp:408] ch_concat_5a_chconcat_ch_concat_5a_chconcat_0_split -> ch_concat_5a_chconcat_ch_concat_5a_chconcat_0_split_3
I1214 22:59:47.416237  5289 net.cpp:150] Setting up ch_concat_5a_chconcat_ch_concat_5a_chconcat_0_split
I1214 22:59:47.416259  5289 net.cpp:157] Top shape: 1 1024 7 7 (50176)
I1214 22:59:47.416272  5289 net.cpp:157] Top shape: 1 1024 7 7 (50176)
I1214 22:59:47.416285  5289 net.cpp:157] Top shape: 1 1024 7 7 (50176)
I1214 22:59:47.416297  5289 net.cpp:157] Top shape: 1 1024 7 7 (50176)
I1214 22:59:47.416308  5289 net.cpp:165] Memory required for data: 118013956
I1214 22:59:47.416321  5289 layer_factory.hpp:77] Creating layer conv_5b_1x1
I1214 22:59:47.416342  5289 net.cpp:100] Creating Layer conv_5b_1x1
I1214 22:59:47.416355  5289 net.cpp:434] conv_5b_1x1 <- ch_concat_5a_chconcat_ch_concat_5a_chconcat_0_split_0
I1214 22:59:47.416371  5289 net.cpp:408] conv_5b_1x1 -> conv_5b_1x1
I1214 22:59:47.417775  5289 net.cpp:150] Setting up conv_5b_1x1
I1214 22:59:47.417801  5289 net.cpp:157] Top shape: 1 352 7 7 (17248)
I1214 22:59:47.417814  5289 net.cpp:165] Memory required for data: 118082948
I1214 22:59:47.417829  5289 layer_factory.hpp:77] Creating layer bn_5b_1x1
I1214 22:59:47.417845  5289 net.cpp:100] Creating Layer bn_5b_1x1
I1214 22:59:47.417858  5289 net.cpp:434] bn_5b_1x1 <- conv_5b_1x1
I1214 22:59:47.417888  5289 net.cpp:395] bn_5b_1x1 -> conv_5b_1x1 (in-place)
I1214 22:59:47.418185  5289 net.cpp:150] Setting up bn_5b_1x1
I1214 22:59:47.418206  5289 net.cpp:157] Top shape: 1 352 7 7 (17248)
I1214 22:59:47.418220  5289 net.cpp:165] Memory required for data: 118151940
I1214 22:59:47.418236  5289 layer_factory.hpp:77] Creating layer scale_conv_5b_1x1
I1214 22:59:47.418256  5289 net.cpp:100] Creating Layer scale_conv_5b_1x1
I1214 22:59:47.418269  5289 net.cpp:434] scale_conv_5b_1x1 <- conv_5b_1x1
I1214 22:59:47.418284  5289 net.cpp:395] scale_conv_5b_1x1 -> conv_5b_1x1 (in-place)
I1214 22:59:47.418357  5289 layer_factory.hpp:77] Creating layer scale_conv_5b_1x1
I1214 22:59:47.418565  5289 net.cpp:150] Setting up scale_conv_5b_1x1
I1214 22:59:47.418587  5289 net.cpp:157] Top shape: 1 352 7 7 (17248)
I1214 22:59:47.418598  5289 net.cpp:165] Memory required for data: 118220932
I1214 22:59:47.418614  5289 layer_factory.hpp:77] Creating layer relu_5b_1x1
I1214 22:59:47.418632  5289 net.cpp:100] Creating Layer relu_5b_1x1
I1214 22:59:47.418645  5289 net.cpp:434] relu_5b_1x1 <- conv_5b_1x1
I1214 22:59:47.418659  5289 net.cpp:395] relu_5b_1x1 -> conv_5b_1x1 (in-place)
I1214 22:59:47.418675  5289 net.cpp:150] Setting up relu_5b_1x1
I1214 22:59:47.418690  5289 net.cpp:157] Top shape: 1 352 7 7 (17248)
I1214 22:59:47.418701  5289 net.cpp:165] Memory required for data: 118289924
I1214 22:59:47.418712  5289 layer_factory.hpp:77] Creating layer conv_5b_3x3_reduce
I1214 22:59:47.418732  5289 net.cpp:100] Creating Layer conv_5b_3x3_reduce
I1214 22:59:47.418745  5289 net.cpp:434] conv_5b_3x3_reduce <- ch_concat_5a_chconcat_ch_concat_5a_chconcat_0_split_1
I1214 22:59:47.418764  5289 net.cpp:408] conv_5b_3x3_reduce -> conv_5b_3x3_reduce
I1214 22:59:47.419896  5289 net.cpp:150] Setting up conv_5b_3x3_reduce
I1214 22:59:47.419924  5289 net.cpp:157] Top shape: 1 192 7 7 (9408)
I1214 22:59:47.419936  5289 net.cpp:165] Memory required for data: 118327556
I1214 22:59:47.419952  5289 layer_factory.hpp:77] Creating layer bn_5b_3x3_reduce
I1214 22:59:47.419972  5289 net.cpp:100] Creating Layer bn_5b_3x3_reduce
I1214 22:59:47.419986  5289 net.cpp:434] bn_5b_3x3_reduce <- conv_5b_3x3_reduce
I1214 22:59:47.420004  5289 net.cpp:395] bn_5b_3x3_reduce -> conv_5b_3x3_reduce (in-place)
I1214 22:59:47.420279  5289 net.cpp:150] Setting up bn_5b_3x3_reduce
I1214 22:59:47.420301  5289 net.cpp:157] Top shape: 1 192 7 7 (9408)
I1214 22:59:47.420313  5289 net.cpp:165] Memory required for data: 118365188
I1214 22:59:47.420331  5289 layer_factory.hpp:77] Creating layer scale_conv_5b_3x3_reduce
I1214 22:59:47.420361  5289 net.cpp:100] Creating Layer scale_conv_5b_3x3_reduce
I1214 22:59:47.420375  5289 net.cpp:434] scale_conv_5b_3x3_reduce <- conv_5b_3x3_reduce
I1214 22:59:47.420390  5289 net.cpp:395] scale_conv_5b_3x3_reduce -> conv_5b_3x3_reduce (in-place)
I1214 22:59:47.420456  5289 layer_factory.hpp:77] Creating layer scale_conv_5b_3x3_reduce
I1214 22:59:47.420634  5289 net.cpp:150] Setting up scale_conv_5b_3x3_reduce
I1214 22:59:47.420655  5289 net.cpp:157] Top shape: 1 192 7 7 (9408)
I1214 22:59:47.420666  5289 net.cpp:165] Memory required for data: 118402820
I1214 22:59:47.420682  5289 layer_factory.hpp:77] Creating layer relu_5b_3x3_reduce
I1214 22:59:47.420698  5289 net.cpp:100] Creating Layer relu_5b_3x3_reduce
I1214 22:59:47.420713  5289 net.cpp:434] relu_5b_3x3_reduce <- conv_5b_3x3_reduce
I1214 22:59:47.420728  5289 net.cpp:395] relu_5b_3x3_reduce -> conv_5b_3x3_reduce (in-place)
I1214 22:59:47.420745  5289 net.cpp:150] Setting up relu_5b_3x3_reduce
I1214 22:59:47.420759  5289 net.cpp:157] Top shape: 1 192 7 7 (9408)
I1214 22:59:47.420771  5289 net.cpp:165] Memory required for data: 118440452
I1214 22:59:47.420783  5289 layer_factory.hpp:77] Creating layer conv_5b_3x3
I1214 22:59:47.420802  5289 net.cpp:100] Creating Layer conv_5b_3x3
I1214 22:59:47.420816  5289 net.cpp:434] conv_5b_3x3 <- conv_5b_3x3_reduce
I1214 22:59:47.420835  5289 net.cpp:408] conv_5b_3x3 -> conv_5b_3x3
I1214 22:59:47.422673  5289 net.cpp:150] Setting up conv_5b_3x3
I1214 22:59:47.422701  5289 net.cpp:157] Top shape: 1 320 7 7 (15680)
I1214 22:59:47.422714  5289 net.cpp:165] Memory required for data: 118503172
I1214 22:59:47.422731  5289 layer_factory.hpp:77] Creating layer bn_5b_3x3
I1214 22:59:47.422750  5289 net.cpp:100] Creating Layer bn_5b_3x3
I1214 22:59:47.422765  5289 net.cpp:434] bn_5b_3x3 <- conv_5b_3x3
I1214 22:59:47.422780  5289 net.cpp:395] bn_5b_3x3 -> conv_5b_3x3 (in-place)
I1214 22:59:47.423066  5289 net.cpp:150] Setting up bn_5b_3x3
I1214 22:59:47.423091  5289 net.cpp:157] Top shape: 1 320 7 7 (15680)
I1214 22:59:47.423104  5289 net.cpp:165] Memory required for data: 118565892
I1214 22:59:47.423121  5289 layer_factory.hpp:77] Creating layer scale_conv_5b_3x3
I1214 22:59:47.423137  5289 net.cpp:100] Creating Layer scale_conv_5b_3x3
I1214 22:59:47.423151  5289 net.cpp:434] scale_conv_5b_3x3 <- conv_5b_3x3
I1214 22:59:47.423164  5289 net.cpp:395] scale_conv_5b_3x3 -> conv_5b_3x3 (in-place)
I1214 22:59:47.423252  5289 layer_factory.hpp:77] Creating layer scale_conv_5b_3x3
I1214 22:59:47.423441  5289 net.cpp:150] Setting up scale_conv_5b_3x3
I1214 22:59:47.423465  5289 net.cpp:157] Top shape: 1 320 7 7 (15680)
I1214 22:59:47.423478  5289 net.cpp:165] Memory required for data: 118628612
I1214 22:59:47.423494  5289 layer_factory.hpp:77] Creating layer relu_5b_3x3
I1214 22:59:47.423509  5289 net.cpp:100] Creating Layer relu_5b_3x3
I1214 22:59:47.423521  5289 net.cpp:434] relu_5b_3x3 <- conv_5b_3x3
I1214 22:59:47.423535  5289 net.cpp:395] relu_5b_3x3 -> conv_5b_3x3 (in-place)
I1214 22:59:47.423552  5289 net.cpp:150] Setting up relu_5b_3x3
I1214 22:59:47.423565  5289 net.cpp:157] Top shape: 1 320 7 7 (15680)
I1214 22:59:47.423576  5289 net.cpp:165] Memory required for data: 118691332
I1214 22:59:47.423588  5289 layer_factory.hpp:77] Creating layer conv_5b_double_3x3_reduce
I1214 22:59:47.423609  5289 net.cpp:100] Creating Layer conv_5b_double_3x3_reduce
I1214 22:59:47.423622  5289 net.cpp:434] conv_5b_double_3x3_reduce <- ch_concat_5a_chconcat_ch_concat_5a_chconcat_0_split_2
I1214 22:59:47.423641  5289 net.cpp:408] conv_5b_double_3x3_reduce -> conv_5b_double_3x3_reduce
I1214 22:59:47.424738  5289 net.cpp:150] Setting up conv_5b_double_3x3_reduce
I1214 22:59:47.424764  5289 net.cpp:157] Top shape: 1 192 7 7 (9408)
I1214 22:59:47.424777  5289 net.cpp:165] Memory required for data: 118728964
I1214 22:59:47.424793  5289 layer_factory.hpp:77] Creating layer bn_5b_double_3x3_reduce
I1214 22:59:47.424809  5289 net.cpp:100] Creating Layer bn_5b_double_3x3_reduce
I1214 22:59:47.424830  5289 net.cpp:434] bn_5b_double_3x3_reduce <- conv_5b_double_3x3_reduce
I1214 22:59:47.424850  5289 net.cpp:395] bn_5b_double_3x3_reduce -> conv_5b_double_3x3_reduce (in-place)
I1214 22:59:47.425721  5289 net.cpp:150] Setting up bn_5b_double_3x3_reduce
I1214 22:59:47.425746  5289 net.cpp:157] Top shape: 1 192 7 7 (9408)
I1214 22:59:47.425760  5289 net.cpp:165] Memory required for data: 118766596
I1214 22:59:47.425777  5289 layer_factory.hpp:77] Creating layer scale_conv_5b_double_3x3_reduce
I1214 22:59:47.425797  5289 net.cpp:100] Creating Layer scale_conv_5b_double_3x3_reduce
I1214 22:59:47.425812  5289 net.cpp:434] scale_conv_5b_double_3x3_reduce <- conv_5b_double_3x3_reduce
I1214 22:59:47.425827  5289 net.cpp:395] scale_conv_5b_double_3x3_reduce -> conv_5b_double_3x3_reduce (in-place)
I1214 22:59:47.425891  5289 layer_factory.hpp:77] Creating layer scale_conv_5b_double_3x3_reduce
I1214 22:59:47.426054  5289 net.cpp:150] Setting up scale_conv_5b_double_3x3_reduce
I1214 22:59:47.426075  5289 net.cpp:157] Top shape: 1 192 7 7 (9408)
I1214 22:59:47.426091  5289 net.cpp:165] Memory required for data: 118804228
I1214 22:59:47.426107  5289 layer_factory.hpp:77] Creating layer relu_5b_double_3x3_reduce
I1214 22:59:47.426126  5289 net.cpp:100] Creating Layer relu_5b_double_3x3_reduce
I1214 22:59:47.426141  5289 net.cpp:434] relu_5b_double_3x3_reduce <- conv_5b_double_3x3_reduce
I1214 22:59:47.426154  5289 net.cpp:395] relu_5b_double_3x3_reduce -> conv_5b_double_3x3_reduce (in-place)
I1214 22:59:47.426172  5289 net.cpp:150] Setting up relu_5b_double_3x3_reduce
I1214 22:59:47.426194  5289 net.cpp:157] Top shape: 1 192 7 7 (9408)
I1214 22:59:47.426206  5289 net.cpp:165] Memory required for data: 118841860
I1214 22:59:47.426218  5289 layer_factory.hpp:77] Creating layer conv_5b_double_3x3_0
I1214 22:59:47.426239  5289 net.cpp:100] Creating Layer conv_5b_double_3x3_0
I1214 22:59:47.426252  5289 net.cpp:434] conv_5b_double_3x3_0 <- conv_5b_double_3x3_reduce
I1214 22:59:47.426268  5289 net.cpp:408] conv_5b_double_3x3_0 -> conv_5b_double_3x3_0
I1214 22:59:47.427676  5289 net.cpp:150] Setting up conv_5b_double_3x3_0
I1214 22:59:47.427705  5289 net.cpp:157] Top shape: 1 224 7 7 (10976)
I1214 22:59:47.427718  5289 net.cpp:165] Memory required for data: 118885764
I1214 22:59:47.427734  5289 layer_factory.hpp:77] Creating layer bn_5b_double_3x3_0
I1214 22:59:47.427753  5289 net.cpp:100] Creating Layer bn_5b_double_3x3_0
I1214 22:59:47.427767  5289 net.cpp:434] bn_5b_double_3x3_0 <- conv_5b_double_3x3_0
I1214 22:59:47.427781  5289 net.cpp:395] bn_5b_double_3x3_0 -> conv_5b_double_3x3_0 (in-place)
I1214 22:59:47.428035  5289 net.cpp:150] Setting up bn_5b_double_3x3_0
I1214 22:59:47.428056  5289 net.cpp:157] Top shape: 1 224 7 7 (10976)
I1214 22:59:47.428068  5289 net.cpp:165] Memory required for data: 118929668
I1214 22:59:47.428086  5289 layer_factory.hpp:77] Creating layer scale_conv_5b_double_3x3_0
I1214 22:59:47.428102  5289 net.cpp:100] Creating Layer scale_conv_5b_double_3x3_0
I1214 22:59:47.428113  5289 net.cpp:434] scale_conv_5b_double_3x3_0 <- conv_5b_double_3x3_0
I1214 22:59:47.428131  5289 net.cpp:395] scale_conv_5b_double_3x3_0 -> conv_5b_double_3x3_0 (in-place)
I1214 22:59:47.428200  5289 layer_factory.hpp:77] Creating layer scale_conv_5b_double_3x3_0
I1214 22:59:47.428370  5289 net.cpp:150] Setting up scale_conv_5b_double_3x3_0
I1214 22:59:47.428392  5289 net.cpp:157] Top shape: 1 224 7 7 (10976)
I1214 22:59:47.428405  5289 net.cpp:165] Memory required for data: 118973572
I1214 22:59:47.428421  5289 layer_factory.hpp:77] Creating layer relu_5b_double_3x3_0
I1214 22:59:47.428436  5289 net.cpp:100] Creating Layer relu_5b_double_3x3_0
I1214 22:59:47.428448  5289 net.cpp:434] relu_5b_double_3x3_0 <- conv_5b_double_3x3_0
I1214 22:59:47.428467  5289 net.cpp:395] relu_5b_double_3x3_0 -> conv_5b_double_3x3_0 (in-place)
I1214 22:59:47.428483  5289 net.cpp:150] Setting up relu_5b_double_3x3_0
I1214 22:59:47.428498  5289 net.cpp:157] Top shape: 1 224 7 7 (10976)
I1214 22:59:47.428509  5289 net.cpp:165] Memory required for data: 119017476
I1214 22:59:47.428529  5289 layer_factory.hpp:77] Creating layer conv_5b_double_3x3_1
I1214 22:59:47.428550  5289 net.cpp:100] Creating Layer conv_5b_double_3x3_1
I1214 22:59:47.428562  5289 net.cpp:434] conv_5b_double_3x3_1 <- conv_5b_double_3x3_0
I1214 22:59:47.428578  5289 net.cpp:408] conv_5b_double_3x3_1 -> conv_5b_double_3x3_1
I1214 22:59:47.430142  5289 net.cpp:150] Setting up conv_5b_double_3x3_1
I1214 22:59:47.430171  5289 net.cpp:157] Top shape: 1 224 7 7 (10976)
I1214 22:59:47.430189  5289 net.cpp:165] Memory required for data: 119061380
I1214 22:59:47.430207  5289 layer_factory.hpp:77] Creating layer bn_5b_double_3x3_1
I1214 22:59:47.430228  5289 net.cpp:100] Creating Layer bn_5b_double_3x3_1
I1214 22:59:47.430243  5289 net.cpp:434] bn_5b_double_3x3_1 <- conv_5b_double_3x3_1
I1214 22:59:47.430258  5289 net.cpp:395] bn_5b_double_3x3_1 -> conv_5b_double_3x3_1 (in-place)
I1214 22:59:47.430508  5289 net.cpp:150] Setting up bn_5b_double_3x3_1
I1214 22:59:47.430529  5289 net.cpp:157] Top shape: 1 224 7 7 (10976)
I1214 22:59:47.430541  5289 net.cpp:165] Memory required for data: 119105284
I1214 22:59:47.430558  5289 layer_factory.hpp:77] Creating layer scale_conv_5b_double_3x3_1
I1214 22:59:47.430577  5289 net.cpp:100] Creating Layer scale_conv_5b_double_3x3_1
I1214 22:59:47.430591  5289 net.cpp:434] scale_conv_5b_double_3x3_1 <- conv_5b_double_3x3_1
I1214 22:59:47.430605  5289 net.cpp:395] scale_conv_5b_double_3x3_1 -> conv_5b_double_3x3_1 (in-place)
I1214 22:59:47.430667  5289 layer_factory.hpp:77] Creating layer scale_conv_5b_double_3x3_1
I1214 22:59:47.430831  5289 net.cpp:150] Setting up scale_conv_5b_double_3x3_1
I1214 22:59:47.430852  5289 net.cpp:157] Top shape: 1 224 7 7 (10976)
I1214 22:59:47.430866  5289 net.cpp:165] Memory required for data: 119149188
I1214 22:59:47.430881  5289 layer_factory.hpp:77] Creating layer relu_5b_double_3x3_1
I1214 22:59:47.430896  5289 net.cpp:100] Creating Layer relu_5b_double_3x3_1
I1214 22:59:47.430908  5289 net.cpp:434] relu_5b_double_3x3_1 <- conv_5b_double_3x3_1
I1214 22:59:47.430927  5289 net.cpp:395] relu_5b_double_3x3_1 -> conv_5b_double_3x3_1 (in-place)
I1214 22:59:47.430943  5289 net.cpp:150] Setting up relu_5b_double_3x3_1
I1214 22:59:47.430958  5289 net.cpp:157] Top shape: 1 224 7 7 (10976)
I1214 22:59:47.430969  5289 net.cpp:165] Memory required for data: 119193092
I1214 22:59:47.430980  5289 layer_factory.hpp:77] Creating layer max_pool_5b_pool
I1214 22:59:47.430996  5289 net.cpp:100] Creating Layer max_pool_5b_pool
I1214 22:59:47.431008  5289 net.cpp:434] max_pool_5b_pool <- ch_concat_5a_chconcat_ch_concat_5a_chconcat_0_split_3
I1214 22:59:47.431025  5289 net.cpp:408] max_pool_5b_pool -> max_pool_5b_pool
I1214 22:59:47.431128  5289 net.cpp:150] Setting up max_pool_5b_pool
I1214 22:59:47.431149  5289 net.cpp:157] Top shape: 1 1024 7 7 (50176)
I1214 22:59:47.431161  5289 net.cpp:165] Memory required for data: 119393796
I1214 22:59:47.431172  5289 layer_factory.hpp:77] Creating layer conv_5b_proj
I1214 22:59:47.431198  5289 net.cpp:100] Creating Layer conv_5b_proj
I1214 22:59:47.431216  5289 net.cpp:434] conv_5b_proj <- max_pool_5b_pool
I1214 22:59:47.431232  5289 net.cpp:408] conv_5b_proj -> conv_5b_proj
I1214 22:59:47.431668  5289 net.cpp:150] Setting up conv_5b_proj
I1214 22:59:47.431690  5289 net.cpp:157] Top shape: 1 128 7 7 (6272)
I1214 22:59:47.431702  5289 net.cpp:165] Memory required for data: 119418884
I1214 22:59:47.431717  5289 layer_factory.hpp:77] Creating layer bn_5b_proj
I1214 22:59:47.431733  5289 net.cpp:100] Creating Layer bn_5b_proj
I1214 22:59:47.431746  5289 net.cpp:434] bn_5b_proj <- conv_5b_proj
I1214 22:59:47.431763  5289 net.cpp:395] bn_5b_proj -> conv_5b_proj (in-place)
I1214 22:59:47.432003  5289 net.cpp:150] Setting up bn_5b_proj
I1214 22:59:47.432024  5289 net.cpp:157] Top shape: 1 128 7 7 (6272)
I1214 22:59:47.432035  5289 net.cpp:165] Memory required for data: 119443972
I1214 22:59:47.432052  5289 layer_factory.hpp:77] Creating layer scale_conv_5b_proj
I1214 22:59:47.432068  5289 net.cpp:100] Creating Layer scale_conv_5b_proj
I1214 22:59:47.432090  5289 net.cpp:434] scale_conv_5b_proj <- conv_5b_proj
I1214 22:59:47.432108  5289 net.cpp:395] scale_conv_5b_proj -> conv_5b_proj (in-place)
I1214 22:59:47.432170  5289 layer_factory.hpp:77] Creating layer scale_conv_5b_proj
I1214 22:59:47.432327  5289 net.cpp:150] Setting up scale_conv_5b_proj
I1214 22:59:47.432348  5289 net.cpp:157] Top shape: 1 128 7 7 (6272)
I1214 22:59:47.432359  5289 net.cpp:165] Memory required for data: 119469060
I1214 22:59:47.432375  5289 layer_factory.hpp:77] Creating layer relu_5b_proj
I1214 22:59:47.432392  5289 net.cpp:100] Creating Layer relu_5b_proj
I1214 22:59:47.432405  5289 net.cpp:434] relu_5b_proj <- conv_5b_proj
I1214 22:59:47.432420  5289 net.cpp:395] relu_5b_proj -> conv_5b_proj (in-place)
I1214 22:59:47.432435  5289 net.cpp:150] Setting up relu_5b_proj
I1214 22:59:47.432449  5289 net.cpp:157] Top shape: 1 128 7 7 (6272)
I1214 22:59:47.432461  5289 net.cpp:165] Memory required for data: 119494148
I1214 22:59:47.432471  5289 layer_factory.hpp:77] Creating layer ch_concat_5b_chconcat
I1214 22:59:47.432485  5289 net.cpp:100] Creating Layer ch_concat_5b_chconcat
I1214 22:59:47.432497  5289 net.cpp:434] ch_concat_5b_chconcat <- conv_5b_1x1
I1214 22:59:47.432510  5289 net.cpp:434] ch_concat_5b_chconcat <- conv_5b_3x3
I1214 22:59:47.432523  5289 net.cpp:434] ch_concat_5b_chconcat <- conv_5b_double_3x3_1
I1214 22:59:47.432535  5289 net.cpp:434] ch_concat_5b_chconcat <- conv_5b_proj
I1214 22:59:47.432554  5289 net.cpp:408] ch_concat_5b_chconcat -> ch_concat_5b_chconcat
I1214 22:59:47.432598  5289 net.cpp:150] Setting up ch_concat_5b_chconcat
I1214 22:59:47.432621  5289 net.cpp:157] Top shape: 1 1024 7 7 (50176)
I1214 22:59:47.432633  5289 net.cpp:165] Memory required for data: 119694852
I1214 22:59:47.432644  5289 layer_factory.hpp:77] Creating layer global_pool
I1214 22:59:47.432660  5289 net.cpp:100] Creating Layer global_pool
I1214 22:59:47.432672  5289 net.cpp:434] global_pool <- ch_concat_5b_chconcat
I1214 22:59:47.432687  5289 net.cpp:408] global_pool -> global_pool
I1214 22:59:47.432731  5289 net.cpp:150] Setting up global_pool
I1214 22:59:47.432750  5289 net.cpp:157] Top shape: 1 1024 1 1 (1024)
I1214 22:59:47.432762  5289 net.cpp:165] Memory required for data: 119698948
I1214 22:59:47.432773  5289 layer_factory.hpp:77] Creating layer fc2
I1214 22:59:47.432792  5289 net.cpp:100] Creating Layer fc2
I1214 22:59:47.432804  5289 net.cpp:434] fc2 <- global_pool
I1214 22:59:47.432819  5289 net.cpp:408] fc2 -> fc2
I1214 22:59:47.433043  5289 net.cpp:150] Setting up fc2
I1214 22:59:47.433063  5289 net.cpp:157] Top shape: 1 7 (7)
I1214 22:59:47.433074  5289 net.cpp:165] Memory required for data: 119698976
I1214 22:59:47.433090  5289 layer_factory.hpp:77] Creating layer loss
I1214 22:59:47.433106  5289 net.cpp:100] Creating Layer loss
I1214 22:59:47.433118  5289 net.cpp:434] loss <- fc2
I1214 22:59:47.433131  5289 net.cpp:434] loss <- label
I1214 22:59:47.433149  5289 net.cpp:408] loss -> (automatic)
I1214 22:59:47.433169  5289 layer_factory.hpp:77] Creating layer loss
…
