…
I1221 20:43:41.063889 22711 net.cpp:322] The NetState phase (0) differed from the phase (1) specified by a rule in layer data_test
I1221 20:43:41.065750 22711 net.cpp:58] Initializing net from parameters: 
name: "Inception21k"
state {
  phase: TRAIN
  level: 0
  stage: ""
}
layer {
  name: "data_train"
  type: "ImageData"
  top: "data"
  top: "label"
  include {
    phase: TRAIN
  }
  transform_param {
    mean_value: 129
  }
  image_data_param {
    source: "../AFEW_Detect/Train/imlist_train.txt"
    batch_size: 30
    shuffle: true
    new_height: 224
    new_width: 224
    is_color: true
    root_folder: "../AFEW_Detect/Train/"
  }
}
layer {
  name: "conv_conv1"
  type: "Convolution"
  bottom: "data"
  top: "conv_conv1"
  convolution_param {
    num_output: 96
    pad: 3
    kernel_size: 7
    stride: 2
  }
}
layer {
  name: "bn_conv1"
  type: "BatchNorm"
  bottom: "conv_conv1"
  top: "conv_conv1"
  batch_norm_param {
    use_global_stats: true
  }
}
layer {
  name: "scale_conv_conv1"
  type: "Scale"
  bottom: "conv_conv1"
  top: "conv_conv1"
  scale_param {
    bias_term: true
  }
}
layer {
  name: "relu_conv1"
  type: "ReLU"
  bottom: "conv_conv1"
  top: "conv_conv1"
}
layer {
  name: "pool1"
  type: "Pooling"
  bottom: "conv_conv1"
  top: "pool1"
  pooling_param {
    pool: MAX
    kernel_size: 3
    stride: 2
    pad: 0
  }
}
layer {
  name: "conv_conv2red"
  type: "Convolution"
  bottom: "pool1"
  top: "conv_conv2red"
  convolution_param {
    num_output: 128
    pad: 0
    kernel_size: 1
    stride: 1
  }
}
layer {
  name: "bn_conv2red"
  type: "BatchNorm"
  bottom: "conv_conv2red"
  top: "conv_conv2red"
  batch_norm_param {
    use_global_stats: true
  }
}
layer {
  name: "scale_conv_conv2red"
  type: "Scale"
  bottom: "conv_conv2red"
  top: "conv_conv2red"
  scale_param {
    bias_term: true
  }
}
layer {
  name: "relu_conv2red"
  type: "ReLU"
  bottom: "conv_conv2red"
  top: "conv_conv2red"
}
layer {
  name: "conv_conv2"
  type: "Convolution"
  bottom: "conv_conv2red"
  top: "conv_conv2"
  convolution_param {
    num_output: 288
    pad: 1
    kernel_size: 3
    stride: 1
  }
}
layer {
  name: "bn_conv2"
  type: "BatchNorm"
  bottom: "conv_conv2"
  top: "conv_conv2"
  batch_norm_param {
    use_global_stats: true
  }
}
layer {
  name: "scale_conv_conv2"
  type: "Scale"
  bottom: "conv_conv2"
  top: "conv_conv2"
  scale_param {
    bias_term: true
  }
}
layer {
  name: "relu_conv2"
  type: "ReLU"
  bottom: "conv_conv2"
  top: "conv_conv2"
}
layer {
  name: "pool2"
  type: "Pooling"
  bottom: "conv_conv2"
  top: "pool2"
  pooling_param {
    pool: MAX
    kernel_size: 3
    stride: 2
    pad: 0
  }
}
layer {
  name: "conv_3a_1x1"
  type: "Convolution"
  bottom: "pool2"
  top: "conv_3a_1x1"
  convolution_param {
    num_output: 96
    pad: 0
    kernel_size: 1
    stride: 1
  }
}
layer {
  name: "bn_3a_1x1"
  type: "BatchNorm"
  bottom: "conv_3a_1x1"
  top: "conv_3a_1x1"
  batch_norm_param {
    use_global_stats: true
  }
}
layer {
  name: "scale_conv_3a_1x1"
  type: "Scale"
  bottom: "conv_3a_1x1"
  top: "conv_3a_1x1"
  scale_param {
    bias_term: true
  }
}
layer {
  name: "relu_3a_1x1"
  type: "ReLU"
  bottom: "conv_3a_1x1"
  top: "conv_3a_1x1"
}
layer {
  name: "conv_3a_3x3_reduce"
  type: "Convolution"
  bottom: "pool2"
  top: "conv_3a_3x3_reduce"
  convolution_param {
    num_output: 96
    pad: 0
    kernel_size: 1
    stride: 1
  }
}
layer {
  name: "bn_3a_3x3_reduce"
  type: "BatchNorm"
  bottom: "conv_3a_3x3_reduce"
  top: "conv_3a_3x3_reduce"
  batch_norm_param {
    use_global_stats: true
  }
}
layer {
  name: "scale_conv_3a_3x3_reduce"
  type: "Scale"
  bottom: "conv_3a_3x3_reduce"
  top: "conv_3a_3x3_reduce"
  scale_param {
    bias_term: true
  }
}
layer {
  name: "relu_3a_3x3_reduce"
  type: "ReLU"
  bottom: "conv_3a_3x3_reduce"
  top: "conv_3a_3x3_reduce"
}
layer {
  name: "conv_3a_3x3"
  type: "Convolution"
  bottom: "conv_3a_3x3_reduce"
  top: "conv_3a_3x3"
  convolution_param {
    num_output: 96
    pad: 1
    kernel_size: 3
    stride: 1
  }
}
layer {
  name: "bn_3a_3x3"
  type: "BatchNorm"
  bottom: "conv_3a_3x3"
  top: "conv_3a_3x3"
  batch_norm_param {
    use_global_stats: true
  }
}
layer {
  name: "scale_conv_3a_3x3"
  type: "Scale"
  bottom: "conv_3a_3x3"
  top: "conv_3a_3x3"
  scale_param {
    bias_term: true
  }
}
layer {
  name: "relu_3a_3x3"
  type: "ReLU"
  bottom: "conv_3a_3x3"
  top: "conv_3a_3x3"
}
layer {
  name: "conv_3a_double_3x3_reduce"
  type: "Convolution"
  bottom: "pool2"
  top: "conv_3a_double_3x3_reduce"
  convolution_param {
    num_output: 96
    pad: 0
    kernel_size: 1
    stride: 1
  }
}
layer {
  name: "bn_3a_double_3x3_reduce"
  type: "BatchNorm"
  bottom: "conv_3a_double_3x3_reduce"
  top: "conv_3a_double_3x3_reduce"
  batch_norm_param {
    use_global_stats: true
  }
}
layer {
  name: "scale_conv_3a_double_3x3_reduce"
  type: "Scale"
  bottom: "conv_3a_double_3x3_reduce"
  top: "conv_3a_double_3x3_reduce"
  scale_param {
    bias_term: true
  }
}
layer {
  name: "relu_3a_double_3x3_reduce"
  type: "ReLU"
  bottom: "conv_3a_double_3x3_reduce"
  top: "conv_3a_double_3x3_reduce"
}
layer {
  name: "conv_3a_double_3x3_0"
  type: "Convolution"
  bottom: "conv_3a_double_3x3_reduce"
  top: "conv_3a_double_3x3_0"
  convolution_param {
    num_output: 144
    pad: 1
    kernel_size: 3
    stride: 1
  }
}
layer {
  name: "bn_3a_double_3x3_0"
  type: "BatchNorm"
  bottom: "conv_3a_double_3x3_0"
  top: "conv_3a_double_3x3_0"
  batch_norm_param {
    use_global_stats: true
  }
}
layer {
  name: "scale_conv_3a_double_3x3_0"
  type: "Scale"
  bottom: "conv_3a_double_3x3_0"
  top: "conv_3a_double_3x3_0"
  scale_param {
    bias_term: true
  }
}
layer {
  name: "relu_3a_double_3x3_0"
  type: "ReLU"
  bottom: "conv_3a_double_3x3_0"
  top: "conv_3a_double_3x3_0"
}
layer {
  name: "conv_3a_double_3x3_1"
  type: "Convolution"
  bottom: "conv_3a_double_3x3_0"
  top: "conv_3a_double_3x3_1"
  convolution_param {
    num_output: 144
    pad: 1
    kernel_size: 3
    stride: 1
  }
}
layer {
  name: "bn_3a_double_3x3_1"
  type: "BatchNorm"
  bottom: "conv_3a_double_3x3_1"
  top: "conv_3a_double_3x3_1"
  batch_norm_param {
    use_global_stats: true
  }
}
layer {
  name: "scale_conv_3a_double_3x3_1"
  type: "Scale"
  bottom: "conv_3a_double_3x3_1"
  top: "conv_3a_double_3x3_1"
  scale_param {
    bias_term: true
  }
}
layer {
  name: "relu_3a_double_3x3_1"
  type: "ReLU"
  bottom: "conv_3a_double_3x3_1"
  top: "conv_3a_double_3x3_1"
}
layer {
  name: "ave_pool_3a_pool"
  type: "Pooling"
  bottom: "pool2"
  top: "ave_pool_3a_pool"
  pooling_param {
    pool: AVE
    kernel_size: 3
    stride: 1
    pad: 1
  }
}
layer {
  name: "conv_3a_proj"
  type: "Convolution"
  bottom: "ave_pool_3a_pool"
  top: "conv_3a_proj"
  convolution_param {
    num_output: 48
    pad: 0
    kernel_size: 1
    stride: 1
  }
}
layer {
  name: "bn_3a_proj"
  type: "BatchNorm"
  bottom: "conv_3a_proj"
  top: "conv_3a_proj"
  batch_norm_param {
    use_global_stats: true
  }
}
layer {
  name: "scale_conv_3a_proj"
  type: "Scale"
  bottom: "conv_3a_proj"
  top: "conv_3a_proj"
  scale_param {
    bias_term: true
  }
}
layer {
  name: "relu_3a_proj"
  type: "ReLU"
  bottom: "conv_3a_proj"
  top: "conv_3a_proj"
}
layer {
  name: "ch_concat_3a_chconcat"
  type: "Concat"
  bottom: "conv_3a_1x1"
  bottom: "conv_3a_3x3"
  bottom: "conv_3a_double_3x3_1"
  bottom: "conv_3a_proj"
  top: "ch_concat_3a_chconcat"
}
layer {
  name: "conv_3b_1x1"
  type: "Convolution"
  bottom: "ch_concat_3a_chconcat"
  top: "conv_3b_1x1"
  convolution_param {
    num_output: 96
    pad: 0
    kernel_size: 1
    stride: 1
  }
}
layer {
  name: "bn_3b_1x1"
  type: "BatchNorm"
  bottom: "conv_3b_1x1"
  top: "conv_3b_1x1"
  batch_norm_param {
    use_global_stats: true
  }
}
layer {
  name: "scale_conv_3b_1x1"
  type: "Scale"
  bottom: "conv_3b_1x1"
  top: "conv_3b_1x1"
  scale_param {
    bias_term: true
  }
}
layer {
  name: "relu_3b_1x1"
  type: "ReLU"
  bottom: "conv_3b_1x1"
  top: "conv_3b_1x1"
}
layer {
  name: "conv_3b_3x3_reduce"
  type: "Convolution"
  bottom: "ch_concat_3a_chconcat"
  top: "conv_3b_3x3_reduce"
  convolution_param {
    num_output: 96
    pad: 0
    kernel_size: 1
    stride: 1
  }
}
layer {
  name: "bn_3b_3x3_reduce"
  type: "BatchNorm"
  bottom: "conv_3b_3x3_reduce"
  top: "conv_3b_3x3_reduce"
  batch_norm_param {
    use_global_stats: true
  }
}
layer {
  name: "scale_conv_3b_3x3_reduce"
  type: "Scale"
  bottom: "conv_3b_3x3_reduce"
  top: "conv_3b_3x3_reduce"
  scale_param {
    bias_term: true
  }
}
layer {
  name: "relu_3b_3x3_reduce"
  type: "ReLU"
  bottom: "conv_3b_3x3_reduce"
  top: "conv_3b_3x3_reduce"
}
layer {
  name: "conv_3b_3x3"
  type: "Convolution"
  bottom: "conv_3b_3x3_reduce"
  top: "conv_3b_3x3"
  convolution_param {
    num_output: 144
    pad: 1
    kernel_size: 3
    stride: 1
  }
}
layer {
  name: "bn_3b_3x3"
  type: "BatchNorm"
  bottom: "conv_3b_3x3"
  top: "conv_3b_3x3"
  batch_norm_param {
    use_global_stats: true
  }
}
layer {
  name: "scale_conv_3b_3x3"
  type: "Scale"
  bottom: "conv_3b_3x3"
  top: "conv_3b_3x3"
  scale_param {
    bias_term: true
  }
}
layer {
  name: "relu_3b_3x3"
  type: "ReLU"
  bottom: "conv_3b_3x3"
  top: "conv_3b_3x3"
}
layer {
  name: "conv_3b_double_3x3_reduce"
  type: "Convolution"
  bottom: "ch_concat_3a_chconcat"
  top: "conv_3b_double_3x3_reduce"
  convolution_param {
    num_output: 96
    pad: 0
    kernel_size: 1
    stride: 1
  }
}
layer {
  name: "bn_3b_double_3x3_reduce"
  type: "BatchNorm"
  bottom: "conv_3b_double_3x3_reduce"
  top: "conv_3b_double_3x3_reduce"
  batch_norm_param {
    use_global_stats: true
  }
}
layer {
  name: "scale_conv_3b_double_3x3_reduce"
  type: "Scale"
  bottom: "conv_3b_double_3x3_reduce"
  top: "conv_3b_double_3x3_reduce"
  scale_param {
    bias_term: true
  }
}
layer {
  name: "relu_3b_double_3x3_reduce"
  type: "ReLU"
  bottom: "conv_3b_double_3x3_reduce"
  top: "conv_3b_double_3x3_reduce"
}
layer {
  name: "conv_3b_double_3x3_0"
  type: "Convolution"
  bottom: "conv_3b_double_3x3_reduce"
  top: "conv_3b_double_3x3_0"
  convolution_param {
    num_output: 144
    pad: 1
    kernel_size: 3
    stride: 1
  }
}
layer {
  name: "bn_3b_double_3x3_0"
  type: "BatchNorm"
  bottom: "conv_3b_double_3x3_0"
  top: "conv_3b_double_3x3_0"
  batch_norm_param {
    use_global_stats: true
  }
}
layer {
  name: "scale_conv_3b_double_3x3_0"
  type: "Scale"
  bottom: "conv_3b_double_3x3_0"
  top: "conv_3b_double_3x3_0"
  scale_param {
    bias_term: true
  }
}
layer {
  name: "relu_3b_double_3x3_0"
  type: "ReLU"
  bottom: "conv_3b_double_3x3_0"
  top: "conv_3b_double_3x3_0"
}
layer {
  name: "conv_3b_double_3x3_1"
  type: "Convolution"
  bottom: "conv_3b_double_3x3_0"
  top: "conv_3b_double_3x3_1"
  convolution_param {
    num_output: 144
    pad: 1
    kernel_size: 3
    stride: 1
  }
}
layer {
  name: "bn_3b_double_3x3_1"
  type: "BatchNorm"
  bottom: "conv_3b_double_3x3_1"
  top: "conv_3b_double_3x3_1"
  batch_norm_param {
    use_global_stats: true
  }
}
layer {
  name: "scale_conv_3b_double_3x3_1"
  type: "Scale"
  bottom: "conv_3b_double_3x3_1"
  top: "conv_3b_double_3x3_1"
  scale_param {
    bias_term: true
  }
}
layer {
  name: "relu_3b_double_3x3_1"
  type: "ReLU"
  bottom: "conv_3b_double_3x3_1"
  top: "conv_3b_double_3x3_1"
}
layer {
  name: "ave_pool_3b_pool"
  type: "Pooling"
  bottom: "ch_concat_3a_chconcat"
  top: "ave_pool_3b_pool"
  pooling_param {
    pool: AVE
    kernel_size: 3
    stride: 1
    pad: 1
  }
}
layer {
  name: "conv_3b_proj"
  type: "Convolution"
  bottom: "ave_pool_3b_pool"
  top: "conv_3b_proj"
  convolution_param {
    num_output: 96
    pad: 0
    kernel_size: 1
    stride: 1
  }
}
layer {
  name: "bn_3b_proj"
  type: "BatchNorm"
  bottom: "conv_3b_proj"
  top: "conv_3b_proj"
  batch_norm_param {
    use_global_stats: true
  }
}
layer {
  name: "scale_conv_3b_proj"
  type: "Scale"
  bottom: "conv_3b_proj"
  top: "conv_3b_proj"
  scale_param {
    bias_term: true
  }
}
layer {
  name: "relu_3b_proj"
  type: "ReLU"
  bottom: "conv_3b_proj"
  top: "conv_3b_proj"
}
layer {
  name: "ch_concat_3b_chconcat"
  type: "Concat"
  bottom: "conv_3b_1x1"
  bottom: "conv_3b_3x3"
  bottom: "conv_3b_double_3x3_1"
  bottom: "conv_3b_proj"
  top: "ch_concat_3b_chconcat"
}
layer {
  name: "conv_3c_3x3_reduce"
  type: "Convolution"
  bottom: "ch_concat_3b_chconcat"
  top: "conv_3c_3x3_reduce"
  convolution_param {
    num_output: 192
    pad: 0
    kernel_size: 1
    stride: 1
  }
}
layer {
  name: "bn_3c_3x3_reduce"
  type: "BatchNorm"
  bottom: "conv_3c_3x3_reduce"
  top: "conv_3c_3x3_reduce"
  batch_norm_param {
    use_global_stats: true
  }
}
layer {
  name: "scale_conv_3c_3x3_reduce"
  type: "Scale"
  bottom: "conv_3c_3x3_reduce"
  top: "conv_3c_3x3_reduce"
  scale_param {
    bias_term: true
  }
}
layer {
  name: "relu_3c_3x3_reduce"
  type: "ReLU"
  bottom: "conv_3c_3x3_reduce"
  top: "conv_3c_3x3_reduce"
}
layer {
  name: "conv_3c_3x3"
  type: "Convolution"
  bottom: "conv_3c_3x3_reduce"
  top: "conv_3c_3x3"
  convolution_param {
    num_output: 240
    pad: 1
    kernel_size: 3
    stride: 2
  }
}
layer {
  name: "bn_3c_3x3"
  type: "BatchNorm"
  bottom: "conv_3c_3x3"
  top: "conv_3c_3x3"
  batch_norm_param {
    use_global_stats: true
  }
}
layer {
  name: "scale_conv_3c_3x3"
  type: "Scale"
  bottom: "conv_3c_3x3"
  top: "conv_3c_3x3"
  scale_param {
    bias_term: true
  }
}
layer {
  name: "relu_3c_3x3"
  type: "ReLU"
  bottom: "conv_3c_3x3"
  top: "conv_3c_3x3"
}
layer {
  name: "conv_3c_double_3x3_reduce"
  type: "Convolution"
  bottom: "ch_concat_3b_chconcat"
  top: "conv_3c_double_3x3_reduce"
  convolution_param {
    num_output: 96
    pad: 0
    kernel_size: 1
    stride: 1
  }
}
layer {
  name: "bn_3c_double_3x3_reduce"
  type: "BatchNorm"
  bottom: "conv_3c_double_3x3_reduce"
  top: "conv_3c_double_3x3_reduce"
  batch_norm_param {
    use_global_stats: true
  }
}
layer {
  name: "scale_conv_3c_double_3x3_reduce"
  type: "Scale"
  bottom: "conv_3c_double_3x3_reduce"
  top: "conv_3c_double_3x3_reduce"
  scale_param {
    bias_term: true
  }
}
layer {
  name: "relu_3c_double_3x3_reduce"
  type: "ReLU"
  bottom: "conv_3c_double_3x3_reduce"
  top: "conv_3c_double_3x3_reduce"
}
layer {
  name: "conv_3c_double_3x3_0"
  type: "Convolution"
  bottom: "conv_3c_double_3x3_reduce"
  top: "conv_3c_double_3x3_0"
  convolution_param {
    num_output: 144
    pad: 1
    kernel_size: 3
    stride: 1
  }
}
layer {
  name: "bn_3c_double_3x3_0"
  type: "BatchNorm"
  bottom: "conv_3c_double_3x3_0"
  top: "conv_3c_double_3x3_0"
  batch_norm_param {
    use_global_stats: true
  }
}
layer {
  name: "scale_conv_3c_double_3x3_0"
  type: "Scale"
  bottom: "conv_3c_double_3x3_0"
  top: "conv_3c_double_3x3_0"
  scale_param {
    bias_term: true
  }
}
layer {
  name: "relu_3c_double_3x3_0"
  type: "ReLU"
  bottom: "conv_3c_double_3x3_0"
  top: "conv_3c_double_3x3_0"
}
layer {
  name: "conv_3c_double_3x3_1"
  type: "Convolution"
  bottom: "conv_3c_double_3x3_0"
  top: "conv_3c_double_3x3_1"
  convolution_param {
    num_output: 144
    pad: 1
    kernel_size: 3
    stride: 2
  }
}
layer {
  name: "bn_3c_double_3x3_1"
  type: "BatchNorm"
  bottom: "conv_3c_double_3x3_1"
  top: "conv_3c_double_3x3_1"
  batch_norm_param {
    use_global_stats: true
  }
}
layer {
  name: "scale_conv_3c_double_3x3_1"
  type: "Scale"
  bottom: "conv_3c_double_3x3_1"
  top: "conv_3c_double_3x3_1"
  scale_param {
    bias_term: true
  }
}
layer {
  name: "relu_3c_double_3x3_1"
  type: "ReLU"
  bottom: "conv_3c_double_3x3_1"
  top: "conv_3c_double_3x3_1"
}
layer {
  name: "max_pool_3c_pool"
  type: "Pooling"
  bottom: "ch_concat_3b_chconcat"
  top: "max_pool_3c_pool"
  pooling_param {
    pool: MAX
    kernel_size: 3
    stride: 2
    pad: 0
  }
}
layer {
  name: "ch_concat_3c_chconcat"
  type: "Concat"
  bottom: "conv_3c_3x3"
  bottom: "conv_3c_double_3x3_1"
  bottom: "max_pool_3c_pool"
  top: "ch_concat_3c_chconcat"
}
layer {
  name: "conv_4a_1x1"
  type: "Convolution"
  bottom: "ch_concat_3c_chconcat"
  top: "conv_4a_1x1"
  convolution_param {
    num_output: 224
    pad: 0
    kernel_size: 1
    stride: 1
  }
}
layer {
  name: "bn_4a_1x1"
  type: "BatchNorm"
  bottom: "conv_4a_1x1"
  top: "conv_4a_1x1"
  batch_norm_param {
    use_global_stats: true
  }
}
layer {
  name: "scale_conv_4a_1x1"
  type: "Scale"
  bottom: "conv_4a_1x1"
  top: "conv_4a_1x1"
  scale_param {
    bias_term: true
  }
}
layer {
  name: "relu_4a_1x1"
  type: "ReLU"
  bottom: "conv_4a_1x1"
  top: "conv_4a_1x1"
}
layer {
  name: "conv_4a_3x3_reduce"
  type: "Convolution"
  bottom: "ch_concat_3c_chconcat"
  top: "conv_4a_3x3_reduce"
  convolution_param {
    num_output: 64
    pad: 0
    kernel_size: 1
    stride: 1
  }
}
layer {
  name: "bn_4a_3x3_reduce"
  type: "BatchNorm"
  bottom: "conv_4a_3x3_reduce"
  top: "conv_4a_3x3_reduce"
  batch_norm_param {
    use_global_stats: true
  }
}
layer {
  name: "scale_conv_4a_3x3_reduce"
  type: "Scale"
  bottom: "conv_4a_3x3_reduce"
  top: "conv_4a_3x3_reduce"
  scale_param {
    bias_term: true
  }
}
layer {
  name: "relu_4a_3x3_reduce"
  type: "ReLU"
  bottom: "conv_4a_3x3_reduce"
  top: "conv_4a_3x3_reduce"
}
layer {
  name: "conv_4a_3x3"
  type: "Convolution"
  bottom: "conv_4a_3x3_reduce"
  top: "conv_4a_3x3"
  convolution_param {
    num_output: 96
    pad: 1
    kernel_size: 3
    stride: 1
  }
}
layer {
  name: "bn_4a_3x3"
  type: "BatchNorm"
  bottom: "conv_4a_3x3"
  top: "conv_4a_3x3"
  batch_norm_param {
    use_global_stats: true
  }
}
layer {
  name: "scale_conv_4a_3x3"
  type: "Scale"
  bottom: "conv_4a_3x3"
  top: "conv_4a_3x3"
  scale_param {
    bias_term: true
  }
}
layer {
  name: "relu_4a_3x3"
  type: "ReLU"
  bottom: "conv_4a_3x3"
  top: "conv_4a_3x3"
}
layer {
  name: "conv_4a_double_3x3_reduce"
  type: "Convolution"
  bottom: "ch_concat_3c_chconcat"
  top: "conv_4a_double_3x3_reduce"
  convolution_param {
    num_output: 96
    pad: 0
    kernel_size: 1
    stride: 1
  }
}
layer {
  name: "bn_4a_double_3x3_reduce"
  type: "BatchNorm"
  bottom: "conv_4a_double_3x3_reduce"
  top: "conv_4a_double_3x3_reduce"
  batch_norm_param {
    use_global_stats: true
  }
}
layer {
  name: "scale_conv_4a_double_3x3_reduce"
  type: "Scale"
  bottom: "conv_4a_double_3x3_reduce"
  top: "conv_4a_double_3x3_reduce"
  scale_param {
    bias_term: true
  }
}
layer {
  name: "relu_4a_double_3x3_reduce"
  type: "ReLU"
  bottom: "conv_4a_double_3x3_reduce"
  top: "conv_4a_double_3x3_reduce"
}
layer {
  name: "conv_4a_double_3x3_0"
  type: "Convolution"
  bottom: "conv_4a_double_3x3_reduce"
  top: "conv_4a_double_3x3_0"
  convolution_param {
    num_output: 128
    pad: 1
    kernel_size: 3
    stride: 1
  }
}
layer {
  name: "bn_4a_double_3x3_0"
  type: "BatchNorm"
  bottom: "conv_4a_double_3x3_0"
  top: "conv_4a_double_3x3_0"
  batch_norm_param {
    use_global_stats: true
  }
}
layer {
  name: "scale_conv_4a_double_3x3_0"
  type: "Scale"
  bottom: "conv_4a_double_3x3_0"
  top: "conv_4a_double_3x3_0"
  scale_param {
    bias_term: true
  }
}
layer {
  name: "relu_4a_double_3x3_0"
  type: "ReLU"
  bottom: "conv_4a_double_3x3_0"
  top: "conv_4a_double_3x3_0"
}
layer {
  name: "conv_4a_double_3x3_1"
  type: "Convolution"
  bottom: "conv_4a_double_3x3_0"
  top: "conv_4a_double_3x3_1"
  convolution_param {
    num_output: 128
    pad: 1
    kernel_size: 3
    stride: 1
  }
}
layer {
  name: "bn_4a_double_3x3_1"
  type: "BatchNorm"
  bottom: "conv_4a_double_3x3_1"
  top: "conv_4a_double_3x3_1"
  batch_norm_param {
    use_global_stats: true
  }
}
layer {
  name: "scale_conv_4a_double_3x3_1"
  type: "Scale"
  bottom: "conv_4a_double_3x3_1"
  top: "conv_4a_double_3x3_1"
  scale_param {
    bias_term: true
  }
}
layer {
  name: "relu_4a_double_3x3_1"
  type: "ReLU"
  bottom: "conv_4a_double_3x3_1"
  top: "conv_4a_double_3x3_1"
}
layer {
  name: "ave_pool_4a_pool"
  type: "Pooling"
  bottom: "ch_concat_3c_chconcat"
  top: "ave_pool_4a_pool"
  pooling_param {
    pool: AVE
    kernel_size: 3
    stride: 1
    pad: 1
  }
}
layer {
  name: "conv_4a_proj"
  type: "Convolution"
  bottom: "ave_pool_4a_pool"
  top: "conv_4a_proj"
  convolution_param {
    num_output: 128
    pad: 0
    kernel_size: 1
    stride: 1
  }
}
layer {
  name: "bn_4a_proj"
  type: "BatchNorm"
  bottom: "conv_4a_proj"
  top: "conv_4a_proj"
  batch_norm_param {
    use_global_stats: true
  }
}
layer {
  name: "scale_conv_4a_proj"
  type: "Scale"
  bottom: "conv_4a_proj"
  top: "conv_4a_proj"
  scale_param {
    bias_term: true
  }
}
layer {
  name: "relu_4a_proj"
  type: "ReLU"
  bottom: "conv_4a_proj"
  top: "conv_4a_proj"
}
layer {
  name: "ch_concat_4a_chconcat"
  type: "Concat"
  bottom: "conv_4a_1x1"
  bottom: "conv_4a_3x3"
  bottom: "conv_4a_double_3x3_1"
  bottom: "conv_4a_proj"
  top: "ch_concat_4a_chconcat"
}
layer {
  name: "conv_4b_1x1"
  type: "Convolution"
  bottom: "ch_concat_4a_chconcat"
  top: "conv_4b_1x1"
  convolution_param {
    num_output: 192
    pad: 0
    kernel_size: 1
    stride: 1
  }
}
layer {
  name: "bn_4b_1x1"
  type: "BatchNorm"
  bottom: "conv_4b_1x1"
  top: "conv_4b_1x1"
  batch_norm_param {
    use_global_stats: true
  }
}
layer {
  name: "scale_conv_4b_1x1"
  type: "Scale"
  bottom: "conv_4b_1x1"
  top: "conv_4b_1x1"
  scale_param {
    bias_term: true
  }
}
layer {
  name: "relu_4b_1x1"
  type: "ReLU"
  bottom: "conv_4b_1x1"
  top: "conv_4b_1x1"
}
layer {
  name: "conv_4b_3x3_reduce"
  type: "Convolution"
  bottom: "ch_concat_4a_chconcat"
  top: "conv_4b_3x3_reduce"
  convolution_param {
    num_output: 96
    pad: 0
    kernel_size: 1
    stride: 1
  }
}
layer {
  name: "bn_4b_3x3_reduce"
  type: "BatchNorm"
  bottom: "conv_4b_3x3_reduce"
  top: "conv_4b_3x3_reduce"
  batch_norm_param {
    use_global_stats: true
  }
}
layer {
  name: "scale_conv_4b_3x3_reduce"
  type: "Scale"
  bottom: "conv_4b_3x3_reduce"
  top: "conv_4b_3x3_reduce"
  scale_param {
    bias_term: true
  }
}
layer {
  name: "relu_4b_3x3_reduce"
  type: "ReLU"
  bottom: "conv_4b_3x3_reduce"
  top: "conv_4b_3x3_reduce"
}
layer {
  name: "conv_4b_3x3"
  type: "Convolution"
  bottom: "conv_4b_3x3_reduce"
  top: "conv_4b_3x3"
  convolution_param {
    num_output: 128
    pad: 1
    kernel_size: 3
    stride: 1
  }
}
layer {
  name: "bn_4b_3x3"
  type: "BatchNorm"
  bottom: "conv_4b_3x3"
  top: "conv_4b_3x3"
  batch_norm_param {
    use_global_stats: true
  }
}
layer {
  name: "scale_conv_4b_3x3"
  type: "Scale"
  bottom: "conv_4b_3x3"
  top: "conv_4b_3x3"
  scale_param {
    bias_term: true
  }
}
layer {
  name: "relu_4b_3x3"
  type: "ReLU"
  bottom: "conv_4b_3x3"
  top: "conv_4b_3x3"
}
layer {
  name: "conv_4b_double_3x3_reduce"
  type: "Convolution"
  bottom: "ch_concat_4a_chconcat"
  top: "conv_4b_double_3x3_reduce"
  convolution_param {
    num_output: 96
    pad: 0
    kernel_size: 1
    stride: 1
  }
}
layer {
  name: "bn_4b_double_3x3_reduce"
  type: "BatchNorm"
  bottom: "conv_4b_double_3x3_reduce"
  top: "conv_4b_double_3x3_reduce"
  batch_norm_param {
    use_global_stats: true
  }
}
layer {
  name: "scale_conv_4b_double_3x3_reduce"
  type: "Scale"
  bottom: "conv_4b_double_3x3_reduce"
  top: "conv_4b_double_3x3_reduce"
  scale_param {
    bias_term: true
  }
}
layer {
  name: "relu_4b_double_3x3_reduce"
  type: "ReLU"
  bottom: "conv_4b_double_3x3_reduce"
  top: "conv_4b_double_3x3_reduce"
}
layer {
  name: "conv_4b_double_3x3_0"
  type: "Convolution"
  bottom: "conv_4b_double_3x3_reduce"
  top: "conv_4b_double_3x3_0"
  convolution_param {
    num_output: 128
    pad: 1
    kernel_size: 3
    stride: 1
  }
}
layer {
  name: "bn_4b_double_3x3_0"
  type: "BatchNorm"
  bottom: "conv_4b_double_3x3_0"
  top: "conv_4b_double_3x3_0"
  batch_norm_param {
    use_global_stats: true
  }
}
layer {
  name: "scale_conv_4b_double_3x3_0"
  type: "Scale"
  bottom: "conv_4b_double_3x3_0"
  top: "conv_4b_double_3x3_0"
  scale_param {
    bias_term: true
  }
}
layer {
  name: "relu_4b_double_3x3_0"
  type: "ReLU"
  bottom: "conv_4b_double_3x3_0"
  top: "conv_4b_double_3x3_0"
}
layer {
  name: "conv_4b_double_3x3_1"
  type: "Convolution"
  bottom: "conv_4b_double_3x3_0"
  top: "conv_4b_double_3x3_1"
  convolution_param {
    num_output: 128
    pad: 1
    kernel_size: 3
    stride: 1
  }
}
layer {
  name: "bn_4b_double_3x3_1"
  type: "BatchNorm"
  bottom: "conv_4b_double_3x3_1"
  top: "conv_4b_double_3x3_1"
  batch_norm_param {
    use_global_stats: true
  }
}
layer {
  name: "scale_conv_4b_double_3x3_1"
  type: "Scale"
  bottom: "conv_4b_double_3x3_1"
  top: "conv_4b_double_3x3_1"
  scale_param {
    bias_term: true
  }
}
layer {
  name: "relu_4b_double_3x3_1"
  type: "ReLU"
  bottom: "conv_4b_double_3x3_1"
  top: "conv_4b_double_3x3_1"
}
layer {
  name: "ave_pool_4b_pool"
  type: "Pooling"
  bottom: "ch_concat_4a_chconcat"
  top: "ave_pool_4b_pool"
  pooling_param {
    pool: AVE
    kernel_size: 3
    stride: 1
    pad: 1
  }
}
layer {
  name: "conv_4b_proj"
  type: "Convolution"
  bottom: "ave_pool_4b_pool"
  top: "conv_4b_proj"
  convolution_param {
    num_output: 128
    pad: 0
    kernel_size: 1
    stride: 1
  }
}
layer {
  name: "bn_4b_proj"
  type: "BatchNorm"
  bottom: "conv_4b_proj"
  top: "conv_4b_proj"
  batch_norm_param {
    use_global_stats: true
  }
}
layer {
  name: "scale_conv_4b_proj"
  type: "Scale"
  bottom: "conv_4b_proj"
  top: "conv_4b_proj"
  scale_param {
    bias_term: true
  }
}
layer {
  name: "relu_4b_proj"
  type: "ReLU"
  bottom: "conv_4b_proj"
  top: "conv_4b_proj"
}
layer {
  name: "ch_concat_4b_chconcat"
  type: "Concat"
  bottom: "conv_4b_1x1"
  bottom: "conv_4b_3x3"
  bottom: "conv_4b_double_3x3_1"
  bottom: "conv_4b_proj"
  top: "ch_concat_4b_chconcat"
}
layer {
  name: "conv_4c_1x1"
  type: "Convolution"
  bottom: "ch_concat_4b_chconcat"
  top: "conv_4c_1x1"
  convolution_param {
    num_output: 160
    pad: 0
    kernel_size: 1
    stride: 1
  }
}
layer {
  name: "bn_4c_1x1"
  type: "BatchNorm"
  bottom: "conv_4c_1x1"
  top: "conv_4c_1x1"
  batch_norm_param {
    use_global_stats: true
  }
}
layer {
  name: "scale_conv_4c_1x1"
  type: "Scale"
  bottom: "conv_4c_1x1"
  top: "conv_4c_1x1"
  scale_param {
    bias_term: true
  }
}
layer {
  name: "relu_4c_1x1"
  type: "ReLU"
  bottom: "conv_4c_1x1"
  top: "conv_4c_1x1"
}
layer {
  name: "conv_4c_3x3_reduce"
  type: "Convolution"
  bottom: "ch_concat_4b_chconcat"
  top: "conv_4c_3x3_reduce"
  convolution_param {
    num_output: 128
    pad: 0
    kernel_size: 1
    stride: 1
  }
}
layer {
  name: "bn_4c_3x3_reduce"
  type: "BatchNorm"
  bottom: "conv_4c_3x3_reduce"
  top: "conv_4c_3x3_reduce"
  batch_norm_param {
    use_global_stats: true
  }
}
layer {
  name: "scale_conv_4c_3x3_reduce"
  type: "Scale"
  bottom: "conv_4c_3x3_reduce"
  top: "conv_4c_3x3_reduce"
  scale_param {
    bias_term: true
  }
}
layer {
  name: "relu_4c_3x3_reduce"
  type: "ReLU"
  bottom: "conv_4c_3x3_reduce"
  top: "conv_4c_3x3_reduce"
}
layer {
  name: "conv_4c_3x3"
  type: "Convolution"
  bottom: "conv_4c_3x3_reduce"
  top: "conv_4c_3x3"
  convolution_param {
    num_output: 160
    pad: 1
    kernel_size: 3
    stride: 1
  }
}
layer {
  name: "bn_4c_3x3"
  type: "BatchNorm"
  bottom: "conv_4c_3x3"
  top: "conv_4c_3x3"
  batch_norm_param {
    use_global_stats: true
  }
}
layer {
  name: "scale_conv_4c_3x3"
  type: "Scale"
  bottom: "conv_4c_3x3"
  top: "conv_4c_3x3"
  scale_param {
    bias_term: true
  }
}
layer {
  name: "relu_4c_3x3"
  type: "ReLU"
  bottom: "conv_4c_3x3"
  top: "conv_4c_3x3"
}
layer {
  name: "conv_4c_double_3x3_reduce"
  type: "Convolution"
  bottom: "ch_concat_4b_chconcat"
  top: "conv_4c_double_3x3_reduce"
  convolution_param {
    num_output: 128
    pad: 0
    kernel_size: 1
    stride: 1
  }
}
layer {
  name: "bn_4c_double_3x3_reduce"
  type: "BatchNorm"
  bottom: "conv_4c_double_3x3_reduce"
  top: "conv_4c_double_3x3_reduce"
  batch_norm_param {
    use_global_stats: true
  }
}
layer {
  name: "scale_conv_4c_double_3x3_reduce"
  type: "Scale"
  bottom: "conv_4c_double_3x3_reduce"
  top: "conv_4c_double_3x3_reduce"
  scale_param {
    bias_term: true
  }
}
layer {
  name: "relu_4c_double_3x3_reduce"
  type: "ReLU"
  bottom: "conv_4c_double_3x3_reduce"
  top: "conv_4c_double_3x3_reduce"
}
layer {
  name: "conv_4c_double_3x3_0"
  type: "Convolution"
  bottom: "conv_4c_double_3x3_reduce"
  top: "conv_4c_double_3x3_0"
  convolution_param {
    num_output: 160
    pad: 1
    kernel_size: 3
    stride: 1
  }
}
layer {
  name: "bn_4c_double_3x3_0"
  type: "BatchNorm"
  bottom: "conv_4c_double_3x3_0"
  top: "conv_4c_double_3x3_0"
  batch_norm_param {
    use_global_stats: true
  }
}
layer {
  name: "scale_conv_4c_double_3x3_0"
  type: "Scale"
  bottom: "conv_4c_double_3x3_0"
  top: "conv_4c_double_3x3_0"
  scale_param {
    bias_term: true
  }
}
layer {
  name: "relu_4c_double_3x3_0"
  type: "ReLU"
  bottom: "conv_4c_double_3x3_0"
  top: "conv_4c_double_3x3_0"
}
layer {
  name: "conv_4c_double_3x3_1"
  type: "Convolution"
  bottom: "conv_4c_double_3x3_0"
  top: "conv_4c_double_3x3_1"
  convolution_param {
    num_output: 160
    pad: 1
    kernel_size: 3
    stride: 1
  }
}
layer {
  name: "bn_4c_double_3x3_1"
  type: "BatchNorm"
  bottom: "conv_4c_double_3x3_1"
  top: "conv_4c_double_3x3_1"
  batch_norm_param {
    use_global_stats: true
  }
}
layer {
  name: "scale_conv_4c_double_3x3_1"
  type: "Scale"
  bottom: "conv_4c_double_3x3_1"
  top: "conv_4c_double_3x3_1"
  scale_param {
    bias_term: true
  }
}
layer {
  name: "relu_4c_double_3x3_1"
  type: "ReLU"
  bottom: "conv_4c_double_3x3_1"
  top: "conv_4c_double_3x3_1"
}
layer {
  name: "ave_pool_4c_pool"
  type: "Pooling"
  bottom: "ch_concat_4b_chconcat"
  top: "ave_pool_4c_pool"
  pooling_param {
    pool: AVE
    kernel_size: 3
    stride: 1
    pad: 1
  }
}
layer {
  name: "conv_4c_proj"
  type: "Convolution"
  bottom: "ave_pool_4c_pool"
  top: "conv_4c_proj"
  convolution_param {
    num_output: 128
    pad: 0
    kernel_size: 1
    stride: 1
  }
}
layer {
  name: "bn_4c_proj"
  type: "BatchNorm"
  bottom: "conv_4c_proj"
  top: "conv_4c_proj"
  batch_norm_param {
    us
I1221 20:43:41.071578 22711 layer_factory.hpp:77] Creating layer data_train
I1221 20:43:41.071635 22711 net.cpp:100] Creating Layer data_train
I1221 20:43:41.071656 22711 net.cpp:408] data_train -> data
I1221 20:43:41.071693 22711 net.cpp:408] data_train -> label
I1221 20:43:41.071722 22711 image_data_layer.cpp:38] Opening file ../AFEW_Detect/Train/imlist_train.txt
I1221 20:43:41.080344 22711 image_data_layer.cpp:53] Shuffling data
I1221 20:43:41.084502 22711 image_data_layer.cpp:58] A total of 15726 images.
I1221 20:43:41.123564 22711 image_data_layer.cpp:85] output data size: 30,3,224,224
I1221 20:43:41.171015 22711 net.cpp:150] Setting up data_train
I1221 20:43:41.171090 22711 net.cpp:157] Top shape: 30 3 224 224 (4515840)
I1221 20:43:41.171108 22711 net.cpp:157] Top shape: 30 (30)
I1221 20:43:41.171120 22711 net.cpp:165] Memory required for data: 18063480
I1221 20:43:41.171138 22711 layer_factory.hpp:77] Creating layer label_data_train_1_split
I1221 20:43:41.171164 22711 net.cpp:100] Creating Layer label_data_train_1_split
I1221 20:43:41.171185 22711 net.cpp:434] label_data_train_1_split <- label
I1221 20:43:41.171216 22711 net.cpp:408] label_data_train_1_split -> label_data_train_1_split_0
I1221 20:43:41.171241 22711 net.cpp:408] label_data_train_1_split -> label_data_train_1_split_1
I1221 20:43:41.171305 22711 net.cpp:150] Setting up label_data_train_1_split
I1221 20:43:41.171325 22711 net.cpp:157] Top shape: 30 (30)
I1221 20:43:41.171339 22711 net.cpp:157] Top shape: 30 (30)
I1221 20:43:41.171350 22711 net.cpp:165] Memory required for data: 18063720
I1221 20:43:41.171361 22711 layer_factory.hpp:77] Creating layer conv_conv1
I1221 20:43:41.171389 22711 net.cpp:100] Creating Layer conv_conv1
I1221 20:43:41.171402 22711 net.cpp:434] conv_conv1 <- data
I1221 20:43:41.171418 22711 net.cpp:408] conv_conv1 -> conv_conv1
I1221 20:43:41.172523 22711 net.cpp:150] Setting up conv_conv1
I1221 20:43:41.172549 22711 net.cpp:157] Top shape: 30 96 112 112 (36126720)
I1221 20:43:41.172576 22711 net.cpp:165] Memory required for data: 162570600
I1221 20:43:41.172611 22711 layer_factory.hpp:77] Creating layer bn_conv1
I1221 20:43:41.172636 22711 net.cpp:100] Creating Layer bn_conv1
I1221 20:43:41.172648 22711 net.cpp:434] bn_conv1 <- conv_conv1
I1221 20:43:41.172663 22711 net.cpp:395] bn_conv1 -> conv_conv1 (in-place)
I1221 20:43:41.172932 22711 net.cpp:150] Setting up bn_conv1
I1221 20:43:41.172956 22711 net.cpp:157] Top shape: 30 96 112 112 (36126720)
I1221 20:43:41.172969 22711 net.cpp:165] Memory required for data: 307077480
I1221 20:43:41.172992 22711 layer_factory.hpp:77] Creating layer scale_conv_conv1
I1221 20:43:41.173012 22711 net.cpp:100] Creating Layer scale_conv_conv1
I1221 20:43:41.173024 22711 net.cpp:434] scale_conv_conv1 <- conv_conv1
I1221 20:43:41.173039 22711 net.cpp:395] scale_conv_conv1 -> conv_conv1 (in-place)
I1221 20:43:41.173105 22711 layer_factory.hpp:77] Creating layer scale_conv_conv1
I1221 20:43:41.173280 22711 net.cpp:150] Setting up scale_conv_conv1
I1221 20:43:41.173302 22711 net.cpp:157] Top shape: 30 96 112 112 (36126720)
I1221 20:43:41.173315 22711 net.cpp:165] Memory required for data: 451584360
I1221 20:43:41.173331 22711 layer_factory.hpp:77] Creating layer relu_conv1
I1221 20:43:41.173346 22711 net.cpp:100] Creating Layer relu_conv1
I1221 20:43:41.173358 22711 net.cpp:434] relu_conv1 <- conv_conv1
I1221 20:43:41.173372 22711 net.cpp:395] relu_conv1 -> conv_conv1 (in-place)
I1221 20:43:41.173388 22711 net.cpp:150] Setting up relu_conv1
I1221 20:43:41.173403 22711 net.cpp:157] Top shape: 30 96 112 112 (36126720)
I1221 20:43:41.173414 22711 net.cpp:165] Memory required for data: 596091240
I1221 20:43:41.173425 22711 layer_factory.hpp:77] Creating layer pool1
I1221 20:43:41.173441 22711 net.cpp:100] Creating Layer pool1
I1221 20:43:41.173452 22711 net.cpp:434] pool1 <- conv_conv1
I1221 20:43:41.173467 22711 net.cpp:408] pool1 -> pool1
I1221 20:43:41.173537 22711 net.cpp:150] Setting up pool1
I1221 20:43:41.173558 22711 net.cpp:157] Top shape: 30 96 56 56 (9031680)
I1221 20:43:41.173571 22711 net.cpp:165] Memory required for data: 632217960
I1221 20:43:41.173583 22711 layer_factory.hpp:77] Creating layer conv_conv2red
I1221 20:43:41.173600 22711 net.cpp:100] Creating Layer conv_conv2red
I1221 20:43:41.173612 22711 net.cpp:434] conv_conv2red <- pool1
I1221 20:43:41.173627 22711 net.cpp:408] conv_conv2red -> conv_conv2red
I1221 20:43:41.174672 22711 net.cpp:150] Setting up conv_conv2red
I1221 20:43:41.174698 22711 net.cpp:157] Top shape: 30 128 56 56 (12042240)
I1221 20:43:41.174710 22711 net.cpp:165] Memory required for data: 680386920
I1221 20:43:41.174729 22711 layer_factory.hpp:77] Creating layer bn_conv2red
I1221 20:43:41.174748 22711 net.cpp:100] Creating Layer bn_conv2red
I1221 20:43:41.174762 22711 net.cpp:434] bn_conv2red <- conv_conv2red
I1221 20:43:41.174777 22711 net.cpp:395] bn_conv2red -> conv_conv2red (in-place)
I1221 20:43:41.176843 22711 net.cpp:150] Setting up bn_conv2red
I1221 20:43:41.176867 22711 net.cpp:157] Top shape: 30 128 56 56 (12042240)
I1221 20:43:41.176879 22711 net.cpp:165] Memory required for data: 728555880
I1221 20:43:41.176897 22711 layer_factory.hpp:77] Creating layer scale_conv_conv2red
I1221 20:43:41.176911 22711 net.cpp:100] Creating Layer scale_conv_conv2red
I1221 20:43:41.176923 22711 net.cpp:434] scale_conv_conv2red <- conv_conv2red
I1221 20:43:41.176937 22711 net.cpp:395] scale_conv_conv2red -> conv_conv2red (in-place)
I1221 20:43:41.177000 22711 layer_factory.hpp:77] Creating layer scale_conv_conv2red
I1221 20:43:41.177151 22711 net.cpp:150] Setting up scale_conv_conv2red
I1221 20:43:41.177172 22711 net.cpp:157] Top shape: 30 128 56 56 (12042240)
I1221 20:43:41.177192 22711 net.cpp:165] Memory required for data: 776724840
I1221 20:43:41.177208 22711 layer_factory.hpp:77] Creating layer relu_conv2red
I1221 20:43:41.177222 22711 net.cpp:100] Creating Layer relu_conv2red
I1221 20:43:41.177234 22711 net.cpp:434] relu_conv2red <- conv_conv2red
I1221 20:43:41.177251 22711 net.cpp:395] relu_conv2red -> conv_conv2red (in-place)
I1221 20:43:41.177278 22711 net.cpp:150] Setting up relu_conv2red
I1221 20:43:41.177294 22711 net.cpp:157] Top shape: 30 128 56 56 (12042240)
I1221 20:43:41.177304 22711 net.cpp:165] Memory required for data: 824893800
I1221 20:43:41.177315 22711 layer_factory.hpp:77] Creating layer conv_conv2
I1221 20:43:41.177337 22711 net.cpp:100] Creating Layer conv_conv2
I1221 20:43:41.177350 22711 net.cpp:434] conv_conv2 <- conv_conv2red
I1221 20:43:41.177368 22711 net.cpp:408] conv_conv2 -> conv_conv2
I1221 20:43:41.179930 22711 net.cpp:150] Setting up conv_conv2
I1221 20:43:41.179968 22711 net.cpp:157] Top shape: 30 288 56 56 (27095040)
I1221 20:43:41.179989 22711 net.cpp:165] Memory required for data: 933273960
I1221 20:43:41.180016 22711 layer_factory.hpp:77] Creating layer bn_conv2
I1221 20:43:41.180045 22711 net.cpp:100] Creating Layer bn_conv2
I1221 20:43:41.180068 22711 net.cpp:434] bn_conv2 <- conv_conv2
I1221 20:43:41.180090 22711 net.cpp:395] bn_conv2 -> conv_conv2 (in-place)
I1221 20:43:41.180433 22711 net.cpp:150] Setting up bn_conv2
I1221 20:43:41.180464 22711 net.cpp:157] Top shape: 30 288 56 56 (27095040)
I1221 20:43:41.180483 22711 net.cpp:165] Memory required for data: 1041654120
I1221 20:43:41.180526 22711 layer_factory.hpp:77] Creating layer scale_conv_conv2
I1221 20:43:41.180557 22711 net.cpp:100] Creating Layer scale_conv_conv2
I1221 20:43:41.180578 22711 net.cpp:434] scale_conv_conv2 <- conv_conv2
I1221 20:43:41.180608 22711 net.cpp:395] scale_conv_conv2 -> conv_conv2 (in-place)
I1221 20:43:41.180699 22711 layer_factory.hpp:77] Creating layer scale_conv_conv2
I1221 20:43:41.180922 22711 net.cpp:150] Setting up scale_conv_conv2
I1221 20:43:41.180953 22711 net.cpp:157] Top shape: 30 288 56 56 (27095040)
I1221 20:43:41.180971 22711 net.cpp:165] Memory required for data: 1150034280
I1221 20:43:41.181001 22711 layer_factory.hpp:77] Creating layer relu_conv2
I1221 20:43:41.181030 22711 net.cpp:100] Creating Layer relu_conv2
I1221 20:43:41.181051 22711 net.cpp:434] relu_conv2 <- conv_conv2
I1221 20:43:41.181072 22711 net.cpp:395] relu_conv2 -> conv_conv2 (in-place)
I1221 20:43:41.181097 22711 net.cpp:150] Setting up relu_conv2
I1221 20:43:41.181120 22711 net.cpp:157] Top shape: 30 288 56 56 (27095040)
I1221 20:43:41.181138 22711 net.cpp:165] Memory required for data: 1258414440
I1221 20:43:41.181165 22711 layer_factory.hpp:77] Creating layer pool2
I1221 20:43:41.181200 22711 net.cpp:100] Creating Layer pool2
I1221 20:43:41.181222 22711 net.cpp:434] pool2 <- conv_conv2
I1221 20:43:41.181246 22711 net.cpp:408] pool2 -> pool2
I1221 20:43:41.181329 22711 net.cpp:150] Setting up pool2
I1221 20:43:41.181360 22711 net.cpp:157] Top shape: 30 288 28 28 (6773760)
I1221 20:43:41.181377 22711 net.cpp:165] Memory required for data: 1285509480
I1221 20:43:41.181396 22711 layer_factory.hpp:77] Creating layer pool2_pool2_0_split
I1221 20:43:41.181428 22711 net.cpp:100] Creating Layer pool2_pool2_0_split
I1221 20:43:41.181450 22711 net.cpp:434] pool2_pool2_0_split <- pool2
I1221 20:43:41.181473 22711 net.cpp:408] pool2_pool2_0_split -> pool2_pool2_0_split_0
I1221 20:43:41.181502 22711 net.cpp:408] pool2_pool2_0_split -> pool2_pool2_0_split_1
I1221 20:43:41.181531 22711 net.cpp:408] pool2_pool2_0_split -> pool2_pool2_0_split_2
I1221 20:43:41.181560 22711 net.cpp:408] pool2_pool2_0_split -> pool2_pool2_0_split_3
I1221 20:43:41.181687 22711 net.cpp:150] Setting up pool2_pool2_0_split
I1221 20:43:41.181720 22711 net.cpp:157] Top shape: 30 288 28 28 (6773760)
I1221 20:43:41.181746 22711 net.cpp:157] Top shape: 30 288 28 28 (6773760)
I1221 20:43:41.181767 22711 net.cpp:157] Top shape: 30 288 28 28 (6773760)
I1221 20:43:41.181789 22711 net.cpp:157] Top shape: 30 288 28 28 (6773760)
I1221 20:43:41.181807 22711 net.cpp:165] Memory required for data: 1393889640
I1221 20:43:41.181825 22711 layer_factory.hpp:77] Creating layer conv_3a_1x1
I1221 20:43:41.181850 22711 net.cpp:100] Creating Layer conv_3a_1x1
I1221 20:43:41.181869 22711 net.cpp:434] conv_3a_1x1 <- pool2_pool2_0_split_0
I1221 20:43:41.181910 22711 net.cpp:408] conv_3a_1x1 -> conv_3a_1x1
I1221 20:43:41.183235 22711 net.cpp:150] Setting up conv_3a_1x1
I1221 20:43:41.183271 22711 net.cpp:157] Top shape: 30 96 28 28 (2257920)
I1221 20:43:41.183290 22711 net.cpp:165] Memory required for data: 1402921320
I1221 20:43:41.183313 22711 layer_factory.hpp:77] Creating layer bn_3a_1x1
I1221 20:43:41.183341 22711 net.cpp:100] Creating Layer bn_3a_1x1
I1221 20:43:41.183367 22711 net.cpp:434] bn_3a_1x1 <- conv_3a_1x1
I1221 20:43:41.183393 22711 net.cpp:395] bn_3a_1x1 -> conv_3a_1x1 (in-place)
I1221 20:43:41.183626 22711 net.cpp:150] Setting up bn_3a_1x1
I1221 20:43:41.183653 22711 net.cpp:157] Top shape: 30 96 28 28 (2257920)
I1221 20:43:41.183667 22711 net.cpp:165] Memory required for data: 1411953000
I1221 20:43:41.183686 22711 layer_factory.hpp:77] Creating layer scale_conv_3a_1x1
I1221 20:43:41.183701 22711 net.cpp:100] Creating Layer scale_conv_3a_1x1
I1221 20:43:41.183713 22711 net.cpp:434] scale_conv_3a_1x1 <- conv_3a_1x1
I1221 20:43:41.183727 22711 net.cpp:395] scale_conv_3a_1x1 -> conv_3a_1x1 (in-place)
I1221 20:43:41.183789 22711 layer_factory.hpp:77] Creating layer scale_conv_3a_1x1
I1221 20:43:41.183938 22711 net.cpp:150] Setting up scale_conv_3a_1x1
I1221 20:43:41.183964 22711 net.cpp:157] Top shape: 30 96 28 28 (2257920)
I1221 20:43:41.183975 22711 net.cpp:165] Memory required for data: 1420984680
I1221 20:43:41.183990 22711 layer_factory.hpp:77] Creating layer relu_3a_1x1
I1221 20:43:41.184005 22711 net.cpp:100] Creating Layer relu_3a_1x1
I1221 20:43:41.184016 22711 net.cpp:434] relu_3a_1x1 <- conv_3a_1x1
I1221 20:43:41.184031 22711 net.cpp:395] relu_3a_1x1 -> conv_3a_1x1 (in-place)
I1221 20:43:41.184046 22711 net.cpp:150] Setting up relu_3a_1x1
I1221 20:43:41.184061 22711 net.cpp:157] Top shape: 30 96 28 28 (2257920)
I1221 20:43:41.184072 22711 net.cpp:165] Memory required for data: 1430016360
I1221 20:43:41.184088 22711 layer_factory.hpp:77] Creating layer conv_3a_3x3_reduce
I1221 20:43:41.184108 22711 net.cpp:100] Creating Layer conv_3a_3x3_reduce
I1221 20:43:41.184123 22711 net.cpp:434] conv_3a_3x3_reduce <- pool2_pool2_0_split_1
I1221 20:43:41.184140 22711 net.cpp:408] conv_3a_3x3_reduce -> conv_3a_3x3_reduce
I1221 20:43:41.184419 22711 net.cpp:150] Setting up conv_3a_3x3_reduce
I1221 20:43:41.184443 22711 net.cpp:157] Top shape: 30 96 28 28 (2257920)
I1221 20:43:41.184455 22711 net.cpp:165] Memory required for data: 1439048040
I1221 20:43:41.184470 22711 layer_factory.hpp:77] Creating layer bn_3a_3x3_reduce
I1221 20:43:41.184494 22711 net.cpp:100] Creating Layer bn_3a_3x3_reduce
I1221 20:43:41.184507 22711 net.cpp:434] bn_3a_3x3_reduce <- conv_3a_3x3_reduce
I1221 20:43:41.184525 22711 net.cpp:395] bn_3a_3x3_reduce -> conv_3a_3x3_reduce (in-place)
I1221 20:43:41.184754 22711 net.cpp:150] Setting up bn_3a_3x3_reduce
I1221 20:43:41.184777 22711 net.cpp:157] Top shape: 30 96 28 28 (2257920)
I1221 20:43:41.184789 22711 net.cpp:165] Memory required for data: 1448079720
I1221 20:43:41.184818 22711 layer_factory.hpp:77] Creating layer scale_conv_3a_3x3_reduce
I1221 20:43:41.184837 22711 net.cpp:100] Creating Layer scale_conv_3a_3x3_reduce
I1221 20:43:41.184850 22711 net.cpp:434] scale_conv_3a_3x3_reduce <- conv_3a_3x3_reduce
I1221 20:43:41.184867 22711 net.cpp:395] scale_conv_3a_3x3_reduce -> conv_3a_3x3_reduce (in-place)
I1221 20:43:41.184931 22711 layer_factory.hpp:77] Creating layer scale_conv_3a_3x3_reduce
I1221 20:43:41.185083 22711 net.cpp:150] Setting up scale_conv_3a_3x3_reduce
I1221 20:43:41.185106 22711 net.cpp:157] Top shape: 30 96 28 28 (2257920)
I1221 20:43:41.185118 22711 net.cpp:165] Memory required for data: 1457111400
I1221 20:43:41.185134 22711 layer_factory.hpp:77] Creating layer relu_3a_3x3_reduce
I1221 20:43:41.185153 22711 net.cpp:100] Creating Layer relu_3a_3x3_reduce
I1221 20:43:41.185166 22711 net.cpp:434] relu_3a_3x3_reduce <- conv_3a_3x3_reduce
I1221 20:43:41.185189 22711 net.cpp:395] relu_3a_3x3_reduce -> conv_3a_3x3_reduce (in-place)
I1221 20:43:41.185206 22711 net.cpp:150] Setting up relu_3a_3x3_reduce
I1221 20:43:41.185220 22711 net.cpp:157] Top shape: 30 96 28 28 (2257920)
I1221 20:43:41.185241 22711 net.cpp:165] Memory required for data: 1466143080
I1221 20:43:41.185253 22711 layer_factory.hpp:77] Creating layer conv_3a_3x3
I1221 20:43:41.185271 22711 net.cpp:100] Creating Layer conv_3a_3x3
I1221 20:43:41.185282 22711 net.cpp:434] conv_3a_3x3 <- conv_3a_3x3_reduce
I1221 20:43:41.185302 22711 net.cpp:408] conv_3a_3x3 -> conv_3a_3x3
I1221 20:43:41.186472 22711 net.cpp:150] Setting up conv_3a_3x3
I1221 20:43:41.186501 22711 net.cpp:157] Top shape: 30 96 28 28 (2257920)
I1221 20:43:41.186512 22711 net.cpp:165] Memory required for data: 1475174760
I1221 20:43:41.186529 22711 layer_factory.hpp:77] Creating layer bn_3a_3x3
I1221 20:43:41.186549 22711 net.cpp:100] Creating Layer bn_3a_3x3
I1221 20:43:41.186563 22711 net.cpp:434] bn_3a_3x3 <- conv_3a_3x3
I1221 20:43:41.186579 22711 net.cpp:395] bn_3a_3x3 -> conv_3a_3x3 (in-place)
I1221 20:43:41.186811 22711 net.cpp:150] Setting up bn_3a_3x3
I1221 20:43:41.186836 22711 net.cpp:157] Top shape: 30 96 28 28 (2257920)
I1221 20:43:41.186848 22711 net.cpp:165] Memory required for data: 1484206440
I1221 20:43:41.186866 22711 layer_factory.hpp:77] Creating layer scale_conv_3a_3x3
I1221 20:43:41.186882 22711 net.cpp:100] Creating Layer scale_conv_3a_3x3
I1221 20:43:41.186892 22711 net.cpp:434] scale_conv_3a_3x3 <- conv_3a_3x3
I1221 20:43:41.186906 22711 net.cpp:395] scale_conv_3a_3x3 -> conv_3a_3x3 (in-place)
I1221 20:43:41.186971 22711 layer_factory.hpp:77] Creating layer scale_conv_3a_3x3
I1221 20:43:41.187124 22711 net.cpp:150] Setting up scale_conv_3a_3x3
I1221 20:43:41.187147 22711 net.cpp:157] Top shape: 30 96 28 28 (2257920)
I1221 20:43:41.187160 22711 net.cpp:165] Memory required for data: 1493238120
I1221 20:43:41.187175 22711 layer_factory.hpp:77] Creating layer relu_3a_3x3
I1221 20:43:41.187201 22711 net.cpp:100] Creating Layer relu_3a_3x3
I1221 20:43:41.187213 22711 net.cpp:434] relu_3a_3x3 <- conv_3a_3x3
I1221 20:43:41.187227 22711 net.cpp:395] relu_3a_3x3 -> conv_3a_3x3 (in-place)
I1221 20:43:41.187243 22711 net.cpp:150] Setting up relu_3a_3x3
I1221 20:43:41.187258 22711 net.cpp:157] Top shape: 30 96 28 28 (2257920)
I1221 20:43:41.187269 22711 net.cpp:165] Memory required for data: 1502269800
I1221 20:43:41.187280 22711 layer_factory.hpp:77] Creating layer conv_3a_double_3x3_reduce
I1221 20:43:41.187307 22711 net.cpp:100] Creating Layer conv_3a_double_3x3_reduce
I1221 20:43:41.187320 22711 net.cpp:434] conv_3a_double_3x3_reduce <- pool2_pool2_0_split_2
I1221 20:43:41.187335 22711 net.cpp:408] conv_3a_double_3x3_reduce -> conv_3a_double_3x3_reduce
I1221 20:43:41.187618 22711 net.cpp:150] Setting up conv_3a_double_3x3_reduce
I1221 20:43:41.187639 22711 net.cpp:157] Top shape: 30 96 28 28 (2257920)
I1221 20:43:41.187651 22711 net.cpp:165] Memory required for data: 1511301480
I1221 20:43:41.187666 22711 layer_factory.hpp:77] Creating layer bn_3a_double_3x3_reduce
I1221 20:43:41.187693 22711 net.cpp:100] Creating Layer bn_3a_double_3x3_reduce
I1221 20:43:41.187706 22711 net.cpp:434] bn_3a_double_3x3_reduce <- conv_3a_double_3x3_reduce
I1221 20:43:41.187721 22711 net.cpp:395] bn_3a_double_3x3_reduce -> conv_3a_double_3x3_reduce (in-place)
I1221 20:43:41.187955 22711 net.cpp:150] Setting up bn_3a_double_3x3_reduce
I1221 20:43:41.187978 22711 net.cpp:157] Top shape: 30 96 28 28 (2257920)
I1221 20:43:41.187989 22711 net.cpp:165] Memory required for data: 1520333160
I1221 20:43:41.188006 22711 layer_factory.hpp:77] Creating layer scale_conv_3a_double_3x3_reduce
I1221 20:43:41.188022 22711 net.cpp:100] Creating Layer scale_conv_3a_double_3x3_reduce
I1221 20:43:41.188035 22711 net.cpp:434] scale_conv_3a_double_3x3_reduce <- conv_3a_double_3x3_reduce
I1221 20:43:41.188048 22711 net.cpp:395] scale_conv_3a_double_3x3_reduce -> conv_3a_double_3x3_reduce (in-place)
I1221 20:43:41.188108 22711 layer_factory.hpp:77] Creating layer scale_conv_3a_double_3x3_reduce
I1221 20:43:41.188267 22711 net.cpp:150] Setting up scale_conv_3a_double_3x3_reduce
I1221 20:43:41.188288 22711 net.cpp:157] Top shape: 30 96 28 28 (2257920)
I1221 20:43:41.188300 22711 net.cpp:165] Memory required for data: 1529364840
I1221 20:43:41.188326 22711 layer_factory.hpp:77] Creating layer relu_3a_double_3x3_reduce
I1221 20:43:41.188351 22711 net.cpp:100] Creating Layer relu_3a_double_3x3_reduce
I1221 20:43:41.188375 22711 net.cpp:434] relu_3a_double_3x3_reduce <- conv_3a_double_3x3_reduce
I1221 20:43:41.188390 22711 net.cpp:395] relu_3a_double_3x3_reduce -> conv_3a_double_3x3_reduce (in-place)
I1221 20:43:41.188406 22711 net.cpp:150] Setting up relu_3a_double_3x3_reduce
I1221 20:43:41.188421 22711 net.cpp:157] Top shape: 30 96 28 28 (2257920)
I1221 20:43:41.188432 22711 net.cpp:165] Memory required for data: 1538396520
I1221 20:43:41.188443 22711 layer_factory.hpp:77] Creating layer conv_3a_double_3x3_0
I1221 20:43:41.188459 22711 net.cpp:100] Creating Layer conv_3a_double_3x3_0
I1221 20:43:41.188472 22711 net.cpp:434] conv_3a_double_3x3_0 <- conv_3a_double_3x3_reduce
I1221 20:43:41.188491 22711 net.cpp:408] conv_3a_double_3x3_0 -> conv_3a_double_3x3_0
I1221 20:43:41.188846 22711 net.cpp:150] Setting up conv_3a_double_3x3_0
I1221 20:43:41.188869 22711 net.cpp:157] Top shape: 30 144 28 28 (3386880)
I1221 20:43:41.188881 22711 net.cpp:165] Memory required for data: 1551944040
I1221 20:43:41.188897 22711 layer_factory.hpp:77] Creating layer bn_3a_double_3x3_0
I1221 20:43:41.188915 22711 net.cpp:100] Creating Layer bn_3a_double_3x3_0
I1221 20:43:41.188928 22711 net.cpp:434] bn_3a_double_3x3_0 <- conv_3a_double_3x3_0
I1221 20:43:41.188946 22711 net.cpp:395] bn_3a_double_3x3_0 -> conv_3a_double_3x3_0 (in-place)
I1221 20:43:41.189170 22711 net.cpp:150] Setting up bn_3a_double_3x3_0
I1221 20:43:41.189198 22711 net.cpp:157] Top shape: 30 144 28 28 (3386880)
I1221 20:43:41.189209 22711 net.cpp:165] Memory required for data: 1565491560
I1221 20:43:41.189226 22711 layer_factory.hpp:77] Creating layer scale_conv_3a_double_3x3_0
I1221 20:43:41.189242 22711 net.cpp:100] Creating Layer scale_conv_3a_double_3x3_0
I1221 20:43:41.189254 22711 net.cpp:434] scale_conv_3a_double_3x3_0 <- conv_3a_double_3x3_0
I1221 20:43:41.189271 22711 net.cpp:395] scale_conv_3a_double_3x3_0 -> conv_3a_double_3x3_0 (in-place)
I1221 20:43:41.189330 22711 layer_factory.hpp:77] Creating layer scale_conv_3a_double_3x3_0
I1221 20:43:41.189488 22711 net.cpp:150] Setting up scale_conv_3a_double_3x3_0
I1221 20:43:41.189509 22711 net.cpp:157] Top shape: 30 144 28 28 (3386880)
I1221 20:43:41.189522 22711 net.cpp:165] Memory required for data: 1579039080
I1221 20:43:41.189535 22711 layer_factory.hpp:77] Creating layer relu_3a_double_3x3_0
I1221 20:43:41.189553 22711 net.cpp:100] Creating Layer relu_3a_double_3x3_0
I1221 20:43:41.189566 22711 net.cpp:434] relu_3a_double_3x3_0 <- conv_3a_double_3x3_0
I1221 20:43:41.189580 22711 net.cpp:395] relu_3a_double_3x3_0 -> conv_3a_double_3x3_0 (in-place)
I1221 20:43:41.189596 22711 net.cpp:150] Setting up relu_3a_double_3x3_0
I1221 20:43:41.189610 22711 net.cpp:157] Top shape: 30 144 28 28 (3386880)
I1221 20:43:41.189621 22711 net.cpp:165] Memory required for data: 1592586600
I1221 20:43:41.189632 22711 layer_factory.hpp:77] Creating layer conv_3a_double_3x3_1
I1221 20:43:41.189651 22711 net.cpp:100] Creating Layer conv_3a_double_3x3_1
I1221 20:43:41.189664 22711 net.cpp:434] conv_3a_double_3x3_1 <- conv_3a_double_3x3_0
I1221 20:43:41.189679 22711 net.cpp:408] conv_3a_double_3x3_1 -> conv_3a_double_3x3_1
I1221 20:43:41.190764 22711 net.cpp:150] Setting up conv_3a_double_3x3_1
I1221 20:43:41.190789 22711 net.cpp:157] Top shape: 30 144 28 28 (3386880)
I1221 20:43:41.190801 22711 net.cpp:165] Memory required for data: 1606134120
I1221 20:43:41.190817 22711 layer_factory.hpp:77] Creating layer bn_3a_double_3x3_1
I1221 20:43:41.190836 22711 net.cpp:100] Creating Layer bn_3a_double_3x3_1
I1221 20:43:41.190850 22711 net.cpp:434] bn_3a_double_3x3_1 <- conv_3a_double_3x3_1
I1221 20:43:41.190867 22711 net.cpp:395] bn_3a_double_3x3_1 -> conv_3a_double_3x3_1 (in-place)
I1221 20:43:41.191090 22711 net.cpp:150] Setting up bn_3a_double_3x3_1
I1221 20:43:41.191115 22711 net.cpp:157] Top shape: 30 144 28 28 (3386880)
I1221 20:43:41.191136 22711 net.cpp:165] Memory required for data: 1619681640
I1221 20:43:41.191155 22711 layer_factory.hpp:77] Creating layer scale_conv_3a_double_3x3_1
I1221 20:43:41.191171 22711 net.cpp:100] Creating Layer scale_conv_3a_double_3x3_1
I1221 20:43:41.191192 22711 net.cpp:434] scale_conv_3a_double_3x3_1 <- conv_3a_double_3x3_1
I1221 20:43:41.191207 22711 net.cpp:395] scale_conv_3a_double_3x3_1 -> conv_3a_double_3x3_1 (in-place)
I1221 20:43:41.191269 22711 layer_factory.hpp:77] Creating layer scale_conv_3a_double_3x3_1
I1221 20:43:41.191416 22711 net.cpp:150] Setting up scale_conv_3a_double_3x3_1
I1221 20:43:41.191437 22711 net.cpp:157] Top shape: 30 144 28 28 (3386880)
I1221 20:43:41.191448 22711 net.cpp:165] Memory required for data: 1633229160
I1221 20:43:41.191463 22711 layer_factory.hpp:77] Creating layer relu_3a_double_3x3_1
I1221 20:43:41.191485 22711 net.cpp:100] Creating Layer relu_3a_double_3x3_1
I1221 20:43:41.191498 22711 net.cpp:434] relu_3a_double_3x3_1 <- conv_3a_double_3x3_1
I1221 20:43:41.191514 22711 net.cpp:395] relu_3a_double_3x3_1 -> conv_3a_double_3x3_1 (in-place)
I1221 20:43:41.191530 22711 net.cpp:150] Setting up relu_3a_double_3x3_1
I1221 20:43:41.191545 22711 net.cpp:157] Top shape: 30 144 28 28 (3386880)
I1221 20:43:41.191555 22711 net.cpp:165] Memory required for data: 1646776680
I1221 20:43:41.191566 22711 layer_factory.hpp:77] Creating layer ave_pool_3a_pool
I1221 20:43:41.191591 22711 net.cpp:100] Creating Layer ave_pool_3a_pool
I1221 20:43:41.191604 22711 net.cpp:434] ave_pool_3a_pool <- pool2_pool2_0_split_3
I1221 20:43:41.191620 22711 net.cpp:408] ave_pool_3a_pool -> ave_pool_3a_pool
I1221 20:43:41.191659 22711 net.cpp:150] Setting up ave_pool_3a_pool
I1221 20:43:41.191682 22711 net.cpp:157] Top shape: 30 288 28 28 (6773760)
I1221 20:43:41.191694 22711 net.cpp:165] Memory required for data: 1673871720
I1221 20:43:41.191704 22711 layer_factory.hpp:77] Creating layer conv_3a_proj
I1221 20:43:41.191725 22711 net.cpp:100] Creating Layer conv_3a_proj
I1221 20:43:41.191738 22711 net.cpp:434] conv_3a_proj <- ave_pool_3a_pool
I1221 20:43:41.191753 22711 net.cpp:408] conv_3a_proj -> conv_3a_proj
I1221 20:43:41.192037 22711 net.cpp:150] Setting up conv_3a_proj
I1221 20:43:41.192060 22711 net.cpp:157] Top shape: 30 48 28 28 (1128960)
I1221 20:43:41.192071 22711 net.cpp:165] Memory required for data: 1678387560
I1221 20:43:41.192100 22711 layer_factory.hpp:77] Creating layer bn_3a_proj
I1221 20:43:41.192119 22711 net.cpp:100] Creating Layer bn_3a_proj
I1221 20:43:41.192132 22711 net.cpp:434] bn_3a_proj <- conv_3a_proj
I1221 20:43:41.192147 22711 net.cpp:395] bn_3a_proj -> conv_3a_proj (in-place)
I1221 20:43:41.192385 22711 net.cpp:150] Setting up bn_3a_proj
I1221 20:43:41.192406 22711 net.cpp:157] Top shape: 30 48 28 28 (1128960)
I1221 20:43:41.192417 22711 net.cpp:165] Memory required for data: 1682903400
I1221 20:43:41.192435 22711 layer_factory.hpp:77] Creating layer scale_conv_3a_proj
I1221 20:43:41.192450 22711 net.cpp:100] Creating Layer scale_conv_3a_proj
I1221 20:43:41.192461 22711 net.cpp:434] scale_conv_3a_proj <- conv_3a_proj
I1221 20:43:41.192476 22711 net.cpp:395] scale_conv_3a_proj -> conv_3a_proj (in-place)
I1221 20:43:41.192538 22711 layer_factory.hpp:77] Creating layer scale_conv_3a_proj
I1221 20:43:41.192687 22711 net.cpp:150] Setting up scale_conv_3a_proj
I1221 20:43:41.192708 22711 net.cpp:157] Top shape: 30 48 28 28 (1128960)
I1221 20:43:41.192720 22711 net.cpp:165] Memory required for data: 1687419240
I1221 20:43:41.192735 22711 layer_factory.hpp:77] Creating layer relu_3a_proj
I1221 20:43:41.192752 22711 net.cpp:100] Creating Layer relu_3a_proj
I1221 20:43:41.192764 22711 net.cpp:434] relu_3a_proj <- conv_3a_proj
I1221 20:43:41.192778 22711 net.cpp:395] relu_3a_proj -> conv_3a_proj (in-place)
I1221 20:43:41.192795 22711 net.cpp:150] Setting up relu_3a_proj
I1221 20:43:41.192808 22711 net.cpp:157] Top shape: 30 48 28 28 (1128960)
I1221 20:43:41.192819 22711 net.cpp:165] Memory required for data: 1691935080
I1221 20:43:41.192829 22711 layer_factory.hpp:77] Creating layer ch_concat_3a_chconcat
I1221 20:43:41.192852 22711 net.cpp:100] Creating Layer ch_concat_3a_chconcat
I1221 20:43:41.192865 22711 net.cpp:434] ch_concat_3a_chconcat <- conv_3a_1x1
I1221 20:43:41.192878 22711 net.cpp:434] ch_concat_3a_chconcat <- conv_3a_3x3
I1221 20:43:41.192891 22711 net.cpp:434] ch_concat_3a_chconcat <- conv_3a_double_3x3_1
I1221 20:43:41.192903 22711 net.cpp:434] ch_concat_3a_chconcat <- conv_3a_proj
I1221 20:43:41.192921 22711 net.cpp:408] ch_concat_3a_chconcat -> ch_concat_3a_chconcat
I1221 20:43:41.192961 22711 net.cpp:150] Setting up ch_concat_3a_chconcat
I1221 20:43:41.192981 22711 net.cpp:157] Top shape: 30 384 28 28 (9031680)
I1221 20:43:41.192992 22711 net.cpp:165] Memory required for data: 1728061800
I1221 20:43:41.193003 22711 layer_factory.hpp:77] Creating layer ch_concat_3a_chconcat_ch_concat_3a_chconcat_0_split
I1221 20:43:41.193024 22711 net.cpp:100] Creating Layer ch_concat_3a_chconcat_ch_concat_3a_chconcat_0_split
I1221 20:43:41.193037 22711 net.cpp:434] ch_concat_3a_chconcat_ch_concat_3a_chconcat_0_split <- ch_concat_3a_chconcat
I1221 20:43:41.193059 22711 net.cpp:408] ch_concat_3a_chconcat_ch_concat_3a_chconcat_0_split -> ch_concat_3a_chconcat_ch_concat_3a_chconcat_0_split_0
I1221 20:43:41.193081 22711 net.cpp:408] ch_concat_3a_chconcat_ch_concat_3a_chconcat_0_split -> ch_concat_3a_chconcat_ch_concat_3a_chconcat_0_split_1
I1221 20:43:41.193099 22711 net.cpp:408] ch_concat_3a_chconcat_ch_concat_3a_chconcat_0_split -> ch_concat_3a_chconcat_ch_concat_3a_chconcat_0_split_2
I1221 20:43:41.193116 22711 net.cpp:408] ch_concat_3a_chconcat_ch_concat_3a_chconcat_0_split -> ch_concat_3a_chconcat_ch_concat_3a_chconcat_0_split_3
I1221 20:43:41.193200 22711 net.cpp:150] Setting up ch_concat_3a_chconcat_ch_concat_3a_chconcat_0_split
I1221 20:43:41.193222 22711 net.cpp:157] Top shape: 30 384 28 28 (9031680)
I1221 20:43:41.193234 22711 net.cpp:157] Top shape: 30 384 28 28 (9031680)
I1221 20:43:41.193248 22711 net.cpp:157] Top shape: 30 384 28 28 (9031680)
I1221 20:43:41.193260 22711 net.cpp:157] Top shape: 30 384 28 28 (9031680)
I1221 20:43:41.193270 22711 net.cpp:165] Memory required for data: 1872568680
I1221 20:43:41.193282 22711 layer_factory.hpp:77] Creating layer conv_3b_1x1
I1221 20:43:41.193302 22711 net.cpp:100] Creating Layer conv_3b_1x1
I1221 20:43:41.193315 22711 net.cpp:434] conv_3b_1x1 <- ch_concat_3a_chconcat_ch_concat_3a_chconcat_0_split_0
I1221 20:43:41.193336 22711 net.cpp:408] conv_3b_1x1 -> conv_3b_1x1
I1221 20:43:41.193637 22711 net.cpp:150] Setting up conv_3b_1x1
I1221 20:43:41.193662 22711 net.cpp:157] Top shape: 30 96 28 28 (2257920)
I1221 20:43:41.193675 22711 net.cpp:165] Memory required for data: 1881600360
I1221 20:43:41.193696 22711 layer_factory.hpp:77] Creating layer bn_3b_1x1
I1221 20:43:41.193711 22711 net.cpp:100] Creating Layer bn_3b_1x1
I1221 20:43:41.193723 22711 net.cpp:434] bn_3b_1x1 <- conv_3b_1x1
I1221 20:43:41.193737 22711 net.cpp:395] bn_3b_1x1 -> conv_3b_1x1 (in-place)
I1221 20:43:41.193960 22711 net.cpp:150] Setting up bn_3b_1x1
I1221 20:43:41.193980 22711 net.cpp:157] Top shape: 30 96 28 28 (2257920)
I1221 20:43:41.193992 22711 net.cpp:165] Memory required for data: 1890632040
I1221 20:43:41.194010 22711 layer_factory.hpp:77] Creating layer scale_conv_3b_1x1
I1221 20:43:41.194025 22711 net.cpp:100] Creating Layer scale_conv_3b_1x1
I1221 20:43:41.194036 22711 net.cpp:434] scale_conv_3b_1x1 <- conv_3b_1x1
I1221 20:43:41.194056 22711 net.cpp:395] scale_conv_3b_1x1 -> conv_3b_1x1 (in-place)
I1221 20:43:41.194121 22711 layer_factory.hpp:77] Creating layer scale_conv_3b_1x1
I1221 20:43:41.194284 22711 net.cpp:150] Setting up scale_conv_3b_1x1
I1221 20:43:41.194305 22711 net.cpp:157] Top shape: 30 96 28 28 (2257920)
I1221 20:43:41.194316 22711 net.cpp:165] Memory required for data: 1899663720
I1221 20:43:41.194332 22711 layer_factory.hpp:77] Creating layer relu_3b_1x1
I1221 20:43:41.194346 22711 net.cpp:100] Creating Layer relu_3b_1x1
I1221 20:43:41.194357 22711 net.cpp:434] relu_3b_1x1 <- conv_3b_1x1
I1221 20:43:41.194375 22711 net.cpp:395] relu_3b_1x1 -> conv_3b_1x1 (in-place)
I1221 20:43:41.194407 22711 net.cpp:150] Setting up relu_3b_1x1
I1221 20:43:41.194422 22711 net.cpp:157] Top shape: 30 96 28 28 (2257920)
I1221 20:43:41.194433 22711 net.cpp:165] Memory required for data: 1908695400
I1221 20:43:41.194444 22711 layer_factory.hpp:77] Creating layer conv_3b_3x3_reduce
I1221 20:43:41.194470 22711 net.cpp:100] Creating Layer conv_3b_3x3_reduce
I1221 20:43:41.194483 22711 net.cpp:434] conv_3b_3x3_reduce <- ch_concat_3a_chconcat_ch_concat_3a_chconcat_0_split_1
I1221 20:43:41.194499 22711 net.cpp:408] conv_3b_3x3_reduce -> conv_3b_3x3_reduce
I1221 20:43:41.194810 22711 net.cpp:150] Setting up conv_3b_3x3_reduce
I1221 20:43:41.194833 22711 net.cpp:157] Top shape: 30 96 28 28 (2257920)
I1221 20:43:41.194844 22711 net.cpp:165] Memory required for data: 1917727080
I1221 20:43:41.194859 22711 layer_factory.hpp:77] Creating layer bn_3b_3x3_reduce
I1221 20:43:41.194878 22711 net.cpp:100] Creating Layer bn_3b_3x3_reduce
I1221 20:43:41.194891 22711 net.cpp:434] bn_3b_3x3_reduce <- conv_3b_3x3_reduce
I1221 20:43:41.194905 22711 net.cpp:395] bn_3b_3x3_reduce -> conv_3b_3x3_reduce (in-place)
I1221 20:43:41.195143 22711 net.cpp:150] Setting up bn_3b_3x3_reduce
I1221 20:43:41.195164 22711 net.cpp:157] Top shape: 30 96 28 28 (2257920)
I1221 20:43:41.195176 22711 net.cpp:165] Memory required for data: 1926758760
I1221 20:43:41.195205 22711 layer_factory.hpp:77] Creating layer scale_conv_3b_3x3_reduce
I1221 20:43:41.195221 22711 net.cpp:100] Creating Layer scale_conv_3b_3x3_reduce
I1221 20:43:41.195235 22711 net.cpp:434] scale_conv_3b_3x3_reduce <- conv_3b_3x3_reduce
I1221 20:43:41.195251 22711 net.cpp:395] scale_conv_3b_3x3_reduce -> conv_3b_3x3_reduce (in-place)
I1221 20:43:41.195312 22711 layer_factory.hpp:77] Creating layer scale_conv_3b_3x3_reduce
I1221 20:43:41.195472 22711 net.cpp:150] Setting up scale_conv_3b_3x3_reduce
I1221 20:43:41.195492 22711 net.cpp:157] Top shape: 30 96 28 28 (2257920)
I1221 20:43:41.195504 22711 net.cpp:165] Memory required for data: 1935790440
I1221 20:43:41.195519 22711 layer_factory.hpp:77] Creating layer relu_3b_3x3_reduce
I1221 20:43:41.195539 22711 net.cpp:100] Creating Layer relu_3b_3x3_reduce
I1221 20:43:41.195551 22711 net.cpp:434] relu_3b_3x3_reduce <- conv_3b_3x3_reduce
I1221 20:43:41.195569 22711 net.cpp:395] relu_3b_3x3_reduce -> conv_3b_3x3_reduce (in-place)
I1221 20:43:41.195586 22711 net.cpp:150] Setting up relu_3b_3x3_reduce
I1221 20:43:41.195600 22711 net.cpp:157] Top shape: 30 96 28 28 (2257920)
I1221 20:43:41.195611 22711 net.cpp:165] Memory required for data: 1944822120
I1221 20:43:41.195622 22711 layer_factory.hpp:77] Creating layer conv_3b_3x3
I1221 20:43:41.195641 22711 net.cpp:100] Creating Layer conv_3b_3x3
I1221 20:43:41.195654 22711 net.cpp:434] conv_3b_3x3 <- conv_3b_3x3_reduce
I1221 20:43:41.195669 22711 net.cpp:408] conv_3b_3x3 -> conv_3b_3x3
I1221 20:43:41.196729 22711 net.cpp:150] Setting up conv_3b_3x3
I1221 20:43:41.196758 22711 net.cpp:157] Top shape: 30 144 28 28 (3386880)
I1221 20:43:41.196769 22711 net.cpp:165] Memory required for data: 1958369640
I1221 20:43:41.196784 22711 layer_factory.hpp:77] Creating layer bn_3b_3x3
I1221 20:43:41.196805 22711 net.cpp:100] Creating Layer bn_3b_3x3
I1221 20:43:41.196818 22711 net.cpp:434] bn_3b_3x3 <- conv_3b_3x3
I1221 20:43:41.196832 22711 net.cpp:395] bn_3b_3x3 -> conv_3b_3x3 (in-place)
I1221 20:43:41.197067 22711 net.cpp:150] Setting up bn_3b_3x3
I1221 20:43:41.197091 22711 net.cpp:157] Top shape: 30 144 28 28 (3386880)
I1221 20:43:41.197104 22711 net.cpp:165] Memory required for data: 1971917160
I1221 20:43:41.197120 22711 layer_factory.hpp:77] Creating layer scale_conv_3b_3x3
I1221 20:43:41.197139 22711 net.cpp:100] Creating Layer scale_conv_3b_3x3
I1221 20:43:41.197152 22711 net.cpp:434] scale_conv_3b_3x3 <- conv_3b_3x3
I1221 20:43:41.197166 22711 net.cpp:395] scale_conv_3b_3x3 -> conv_3b_3x3 (in-place)
I1221 20:43:41.197232 22711 layer_factory.hpp:77] Creating layer scale_conv_3b_3x3
I1221 20:43:41.197386 22711 net.cpp:150] Setting up scale_conv_3b_3x3
I1221 20:43:41.197409 22711 net.cpp:157] Top shape: 30 144 28 28 (3386880)
I1221 20:43:41.197429 22711 net.cpp:165] Memory required for data: 1985464680
I1221 20:43:41.197446 22711 layer_factory.hpp:77] Creating layer relu_3b_3x3
I1221 20:43:41.197464 22711 net.cpp:100] Creating Layer relu_3b_3x3
I1221 20:43:41.197476 22711 net.cpp:434] relu_3b_3x3 <- conv_3b_3x3
I1221 20:43:41.197490 22711 net.cpp:395] relu_3b_3x3 -> conv_3b_3x3 (in-place)
I1221 20:43:41.197506 22711 net.cpp:150] Setting up relu_3b_3x3
I1221 20:43:41.197520 22711 net.cpp:157] Top shape: 30 144 28 28 (3386880)
I1221 20:43:41.197531 22711 net.cpp:165] Memory required for data: 1999012200
I1221 20:43:41.197542 22711 layer_factory.hpp:77] Creating layer conv_3b_double_3x3_reduce
I1221 20:43:41.197562 22711 net.cpp:100] Creating Layer conv_3b_double_3x3_reduce
I1221 20:43:41.197576 22711 net.cpp:434] conv_3b_double_3x3_reduce <- ch_concat_3a_chconcat_ch_concat_3a_chconcat_0_split_2
I1221 20:43:41.197602 22711 net.cpp:408] conv_3b_double_3x3_reduce -> conv_3b_double_3x3_reduce
I1221 20:43:41.197908 22711 net.cpp:150] Setting up conv_3b_double_3x3_reduce
I1221 20:43:41.197934 22711 net.cpp:157] Top shape: 30 96 28 28 (2257920)
I1221 20:43:41.197947 22711 net.cpp:165] Memory required for data: 2008043880
I1221 20:43:41.197965 22711 layer_factory.hpp:77] Creating layer bn_3b_double_3x3_reduce
I1221 20:43:41.197981 22711 net.cpp:100] Creating Layer bn_3b_double_3x3_reduce
I1221 20:43:41.197993 22711 net.cpp:434] bn_3b_double_3x3_reduce <- conv_3b_double_3x3_reduce
I1221 20:43:41.198011 22711 net.cpp:395] bn_3b_double_3x3_reduce -> conv_3b_double_3x3_reduce (in-place)
I1221 20:43:41.198245 22711 net.cpp:150] Setting up bn_3b_double_3x3_reduce
I1221 20:43:41.198267 22711 net.cpp:157] Top shape: 30 96 28 28 (2257920)
I1221 20:43:41.198279 22711 net.cpp:165] Memory required for data: 2017075560
I1221 20:43:41.198297 22711 layer_factory.hpp:77] Creating layer scale_conv_3b_double_3x3_reduce
I1221 20:43:41.198315 22711 net.cpp:100] Creating Layer scale_conv_3b_double_3x3_reduce
I1221 20:43:41.198328 22711 net.cpp:434] scale_conv_3b_double_3x3_reduce <- conv_3b_double_3x3_reduce
I1221 20:43:41.198343 22711 net.cpp:395] scale_conv_3b_double_3x3_reduce -> conv_3b_double_3x3_reduce (in-place)
I1221 20:43:41.198402 22711 layer_factory.hpp:77] Creating layer scale_conv_3b_double_3x3_reduce
I1221 20:43:41.198554 22711 net.cpp:150] Setting up scale_conv_3b_double_3x3_reduce
I1221 20:43:41.198577 22711 net.cpp:157] Top shape: 30 96 28 28 (2257920)
I1221 20:43:41.198590 22711 net.cpp:165] Memory required for data: 2026107240
I1221 20:43:41.198604 22711 layer_factory.hpp:77] Creating layer relu_3b_double_3x3_reduce
I1221 20:43:41.198622 22711 net.cpp:100] Creating Layer relu_3b_double_3x3_reduce
I1221 20:43:41.198635 22711 net.cpp:434] relu_3b_double_3x3_reduce <- conv_3b_double_3x3_reduce
I1221 20:43:41.198649 22711 net.cpp:395] relu_3b_double_3x3_reduce -> conv_3b_double_3x3_reduce (in-place)
I1221 20:43:41.198675 22711 net.cpp:150] Setting up relu_3b_double_3x3_reduce
I1221 20:43:41.198689 22711 net.cpp:157] Top shape: 30 96 28 28 (2257920)
I1221 20:43:41.198701 22711 net.cpp:165] Memory required for data: 2035138920
I1221 20:43:41.198712 22711 layer_factory.hpp:77] Creating layer conv_3b_double_3x3_0
I1221 20:43:41.198747 22711 net.cpp:100] Creating Layer conv_3b_double_3x3_0
I1221 20:43:41.198761 22711 net.cpp:434] conv_3b_double_3x3_0 <- conv_3b_double_3x3_reduce
I1221 20:43:41.198781 22711 net.cpp:408] conv_3b_double_3x3_0 -> conv_3b_double_3x3_0
I1221 20:43:41.199136 22711 net.cpp:150] Setting up conv_3b_double_3x3_0
I1221 20:43:41.199160 22711 net.cpp:157] Top shape: 30 144 28 28 (3386880)
I1221 20:43:41.199172 22711 net.cpp:165] Memory required for data: 2048686440
I1221 20:43:41.199193 22711 layer_factory.hpp:77] Creating layer bn_3b_double_3x3_0
I1221 20:43:41.199210 22711 net.cpp:100] Creating Layer bn_3b_double_3x3_0
I1221 20:43:41.199223 22711 net.cpp:434] bn_3b_double_3x3_0 <- conv_3b_double_3x3_0
I1221 20:43:41.199236 22711 net.cpp:395] bn_3b_double_3x3_0 -> conv_3b_double_3x3_0 (in-place)
I1221 20:43:41.199497 22711 net.cpp:150] Setting up bn_3b_double_3x3_0
I1221 20:43:41.199523 22711 net.cpp:157] Top shape: 30 144 28 28 (3386880)
I1221 20:43:41.199535 22711 net.cpp:165] Memory required for data: 2062233960
I1221 20:43:41.199553 22711 layer_factory.hpp:77] Creating layer scale_conv_3b_double_3x3_0
I1221 20:43:41.199568 22711 net.cpp:100] Creating Layer scale_conv_3b_double_3x3_0
I1221 20:43:41.199580 22711 net.cpp:434] scale_conv_3b_double_3x3_0 <- conv_3b_double_3x3_0
I1221 20:43:41.199599 22711 net.cpp:395] scale_conv_3b_double_3x3_0 -> conv_3b_double_3x3_0 (in-place)
I1221 20:43:41.199658 22711 layer_factory.hpp:77] Creating layer scale_conv_3b_double_3x3_0
I1221 20:43:41.199823 22711 net.cpp:150] Setting up scale_conv_3b_double_3x3_0
I1221 20:43:41.199846 22711 net.cpp:157] Top shape: 30 144 28 28 (3386880)
I1221 20:43:41.199859 22711 net.cpp:165] Memory required for data: 2075781480
I1221 20:43:41.199874 22711 layer_factory.hpp:77] Creating layer relu_3b_double_3x3_0
I1221 20:43:41.199889 22711 net.cpp:100] Creating Layer relu_3b_double_3x3_0
I1221 20:43:41.199901 22711 net.cpp:434] relu_3b_double_3x3_0 <- conv_3b_double_3x3_0
I1221 20:43:41.199918 22711 net.cpp:395] relu_3b_double_3x3_0 -> conv_3b_double_3x3_0 (in-place)
I1221 20:43:41.199935 22711 net.cpp:150] Setting up relu_3b_double_3x3_0
I1221 20:43:41.199950 22711 net.cpp:157] Top shape: 30 144 28 28 (3386880)
I1221 20:43:41.199961 22711 net.cpp:165] Memory required for data: 2089329000
I1221 20:43:41.199971 22711 layer_factory.hpp:77] Creating layer conv_3b_double_3x3_1
I1221 20:43:41.199991 22711 net.cpp:100] Creating Layer conv_3b_double_3x3_1
I1221 20:43:41.200004 22711 net.cpp:434] conv_3b_double_3x3_1 <- conv_3b_double_3x3_0
I1221 20:43:41.200019 22711 net.cpp:408] conv_3b_double_3x3_1 -> conv_3b_double_3x3_1
I1221 20:43:41.201097 22711 net.cpp:150] Setting up conv_3b_double_3x3_1
I1221 20:43:41.201125 22711 net.cpp:157] Top shape: 30 144 28 28 (3386880)
I1221 20:43:41.201138 22711 net.cpp:165] Memory required for data: 2102876520
I1221 20:43:41.201153 22711 layer_factory.hpp:77] Creating layer bn_3b_double_3x3_1
I1221 20:43:41.201176 22711 net.cpp:100] Creating Layer bn_3b_double_3x3_1
I1221 20:43:41.201195 22711 net.cpp:434] bn_3b_double_3x3_1 <- conv_3b_double_3x3_1
I1221 20:43:41.201210 22711 net.cpp:395] bn_3b_double_3x3_1 -> conv_3b_double_3x3_1 (in-place)
I1221 20:43:41.201443 22711 net.cpp:150] Setting up bn_3b_double_3x3_1
I1221 20:43:41.201467 22711 net.cpp:157] Top shape: 30 144 28 28 (3386880)
I1221 20:43:41.201478 22711 net.cpp:165] Memory required for data: 2116424040
I1221 20:43:41.201495 22711 layer_factory.hpp:77] Creating layer scale_conv_3b_double_3x3_1
I1221 20:43:41.201514 22711 net.cpp:100] Creating Layer scale_conv_3b_double_3x3_1
I1221 20:43:41.201527 22711 net.cpp:434] scale_conv_3b_double_3x3_1 <- conv_3b_double_3x3_1
I1221 20:43:41.201546 22711 net.cpp:395] scale_conv_3b_double_3x3_1 -> conv_3b_double_3x3_1 (in-place)
I1221 20:43:41.201606 22711 layer_factory.hpp:77] Creating layer scale_conv_3b_double_3x3_1
I1221 20:43:41.201758 22711 net.cpp:150] Setting up scale_conv_3b_double_3x3_1
I1221 20:43:41.201781 22711 net.cpp:157] Top shape: 30 144 28 28 (3386880)
I1221 20:43:41.201793 22711 net.cpp:165] Memory required for data: 2129971560
I1221 20:43:41.201809 22711 layer_factory.hpp:77] Creating layer relu_3b_double_3x3_1
I1221 20:43:41.201824 22711 net.cpp:100] Creating Layer relu_3b_double_3x3_1
I1221 20:43:41.201836 22711 net.cpp:434] relu_3b_double_3x3_1 <- conv_3b_double_3x3_1
I1221 20:43:41.201853 22711 net.cpp:395] relu_3b_double_3x3_1 -> conv_3b_double_3x3_1 (in-place)
I1221 20:43:41.201869 22711 net.cpp:150] Setting up relu_3b_double_3x3_1
I1221 20:43:41.201884 22711 net.cpp:157] Top shape: 30 144 28 28 (3386880)
I1221 20:43:41.201895 22711 net.cpp:165] Memory required for data: 2143519080
I1221 20:43:41.201906 22711 layer_factory.hpp:77] Creating layer ave_pool_3b_pool
I1221 20:43:41.201936 22711 net.cpp:100] Creating Layer ave_pool_3b_pool
I1221 20:43:41.201951 22711 net.cpp:434] ave_pool_3b_pool <- ch_concat_3a_chconcat_ch_concat_3a_chconcat_0_split_3
I1221 20:43:41.201980 22711 net.cpp:408] ave_pool_3b_pool -> ave_pool_3b_pool
I1221 20:43:41.202030 22711 net.cpp:150] Setting up ave_pool_3b_pool
I1221 20:43:41.202054 22711 net.cpp:157] Top shape: 30 384 28 28 (9031680)
I1221 20:43:41.202067 22711 net.cpp:165] Memory required for data: 2179645800
I1221 20:43:41.202078 22711 layer_factory.hpp:77] Creating layer conv_3b_proj
I1221 20:43:41.202095 22711 net.cpp:100] Creating Layer conv_3b_proj
I1221 20:43:41.202108 22711 net.cpp:434] conv_3b_proj <- ave_pool_3b_pool
I1221 20:43:41.202123 22711 net.cpp:408] conv_3b_proj -> conv_3b_proj
I1221 20:43:41.202436 22711 net.cpp:150] Setting up conv_3b_proj
I1221 20:43:41.202461 22711 net.cpp:157] Top shape: 30 96 28 28 (2257920)
I1221 20:43:41.202481 22711 net.cpp:165] Memory required for data: 2188677480
I1221 20:43:41.202497 22711 layer_factory.hpp:77] Creating layer bn_3b_proj
I1221 20:43:41.202515 22711 net.cpp:100] Creating Layer bn_3b_proj
I1221 20:43:41.202528 22711 net.cpp:434] bn_3b_proj <- conv_3b_proj
I1221 20:43:41.202545 22711 net.cpp:395] bn_3b_proj -> conv_3b_proj (in-place)
I1221 20:43:41.202790 22711 net.cpp:150] Setting up bn_3b_proj
I1221 20:43:41.202813 22711 net.cpp:157] Top shape: 30 96 28 28 (2257920)
I1221 20:43:41.202826 22711 net.cpp:165] Memory required for data: 2197709160
I1221 20:43:41.202842 22711 layer_factory.hpp:77] Creating layer scale_conv_3b_proj
I1221 20:43:41.202857 22711 net.cpp:100] Creating Layer scale_conv_3b_proj
I1221 20:43:41.202869 22711 net.cpp:434] scale_conv_3b_proj <- conv_3b_proj
I1221 20:43:41.202883 22711 net.cpp:395] scale_conv_3b_proj -> conv_3b_proj (in-place)
I1221 20:43:41.202950 22711 layer_factory.hpp:77] Creating layer scale_conv_3b_proj
I1221 20:43:41.203115 22711 net.cpp:150] Setting up scale_conv_3b_proj
I1221 20:43:41.203140 22711 net.cpp:157] Top shape: 30 96 28 28 (2257920)
I1221 20:43:41.203151 22711 net.cpp:165] Memory required for data: 2206740840
I1221 20:43:41.203166 22711 layer_factory.hpp:77] Creating layer relu_3b_proj
I1221 20:43:41.203191 22711 net.cpp:100] Creating Layer relu_3b_proj
I1221 20:43:41.203204 22711 net.cpp:434] relu_3b_proj <- conv_3b_proj
I1221 20:43:41.203218 22711 net.cpp:395] relu_3b_proj -> conv_3b_proj (in-place)
I1221 20:43:41.203234 22711 net.cpp:150] Setting up relu_3b_proj
I1221 20:43:41.203248 22711 net.cpp:157] Top shape: 30 96 28 28 (2257920)
I1221 20:43:41.203259 22711 net.cpp:165] Memory required for data: 2215772520
I1221 20:43:41.203270 22711 layer_factory.hpp:77] Creating layer ch_concat_3b_chconcat
I1221 20:43:41.203284 22711 net.cpp:100] Creating Layer ch_concat_3b_chconcat
I1221 20:43:41.203296 22711 net.cpp:434] ch_concat_3b_chconcat <- conv_3b_1x1
I1221 20:43:41.203310 22711 net.cpp:434] ch_concat_3b_chconcat <- conv_3b_3x3
I1221 20:43:41.203321 22711 net.cpp:434] ch_concat_3b_chconcat <- conv_3b_double_3x3_1
I1221 20:43:41.203333 22711 net.cpp:434] ch_concat_3b_chconcat <- conv_3b_proj
I1221 20:43:41.203351 22711 net.cpp:408] ch_concat_3b_chconcat -> ch_concat_3b_chconcat
I1221 20:43:41.203392 22711 net.cpp:150] Setting up ch_concat_3b_chconcat
I1221 20:43:41.203411 22711 net.cpp:157] Top shape: 30 480 28 28 (11289600)
I1221 20:43:41.203423 22711 net.cpp:165] Memory required for data: 2260930920
I1221 20:43:41.203434 22711 layer_factory.hpp:77] Creating layer ch_concat_3b_chconcat_ch_concat_3b_chconcat_0_split
I1221 20:43:41.203454 22711 net.cpp:100] Creating Layer ch_concat_3b_chconcat_ch_concat_3b_chconcat_0_split
I1221 20:43:41.203464 22711 net.cpp:434] ch_concat_3b_chconcat_ch_concat_3b_chconcat_0_split <- ch_concat_3b_chconcat
I1221 20:43:41.203483 22711 net.cpp:408] ch_concat_3b_chconcat_ch_concat_3b_chconcat_0_split -> ch_concat_3b_chconcat_ch_concat_3b_chconcat_0_split_0
I1221 20:43:41.203502 22711 net.cpp:408] ch_concat_3b_chconcat_ch_concat_3b_chconcat_0_split -> ch_concat_3b_chconcat_ch_concat_3b_chconcat_0_split_1
I1221 20:43:41.203521 22711 net.cpp:408] ch_concat_3b_chconcat_ch_concat_3b_chconcat_0_split -> ch_concat_3b_chconcat_ch_concat_3b_chconcat_0_split_2
I1221 20:43:41.203596 22711 net.cpp:150] Setting up ch_concat_3b_chconcat_ch_concat_3b_chconcat_0_split
I1221 20:43:41.203621 22711 net.cpp:157] Top shape: 30 480 28 28 (11289600)
I1221 20:43:41.203634 22711 net.cpp:157] Top shape: 30 480 28 28 (11289600)
I1221 20:43:41.203647 22711 net.cpp:157] Top shape: 30 480 28 28 (11289600)
I1221 20:43:41.203658 22711 net.cpp:165] Memory required for data: 2396406120
I1221 20:43:41.203675 22711 layer_factory.hpp:77] Creating layer conv_3c_3x3_reduce
I1221 20:43:41.203696 22711 net.cpp:100] Creating Layer conv_3c_3x3_reduce
I1221 20:43:41.203708 22711 net.cpp:434] conv_3c_3x3_reduce <- ch_concat_3b_chconcat_ch_concat_3b_chconcat_0_split_0
I1221 20:43:41.203724 22711 net.cpp:408] conv_3c_3x3_reduce -> conv_3c_3x3_reduce
I1221 20:43:41.204756 22711 net.cpp:150] Setting up conv_3c_3x3_reduce
I1221 20:43:41.204783 22711 net.cpp:157] Top shape: 30 192 28 28 (4515840)
I1221 20:43:41.204797 22711 net.cpp:165] Memory required for data: 2414469480
I1221 20:43:41.204812 22711 layer_factory.hpp:77] Creating layer bn_3c_3x3_reduce
I1221 20:43:41.204830 22711 net.cpp:100] Creating Layer bn_3c_3x3_reduce
I1221 20:43:41.204843 22711 net.cpp:434] bn_3c_3x3_reduce <- conv_3c_3x3_reduce
I1221 20:43:41.204859 22711 net.cpp:395] bn_3c_3x3_reduce -> conv_3c_3x3_reduce (in-place)
I1221 20:43:41.205097 22711 net.cpp:150] Setting up bn_3c_3x3_reduce
I1221 20:43:41.205121 22711 net.cpp:157] Top shape: 30 192 28 28 (4515840)
I1221 20:43:41.205137 22711 net.cpp:165] Memory required for data: 2432532840
I1221 20:43:41.205155 22711 layer_factory.hpp:77] Creating layer scale_conv_3c_3x3_reduce
I1221 20:43:41.205173 22711 net.cpp:100] Creating Layer scale_conv_3c_3x3_reduce
I1221 20:43:41.205189 22711 net.cpp:434] scale_conv_3c_3x3_reduce <- conv_3c_3x3_reduce
I1221 20:43:41.205209 22711 net.cpp:395] scale_conv_3c_3x3_reduce -> conv_3c_3x3_reduce (in-place)
I1221 20:43:41.205271 22711 layer_factory.hpp:77] Creating layer scale_conv_3c_3x3_reduce
I1221 20:43:41.205430 22711 net.cpp:150] Setting up scale_conv_3c_3x3_reduce
I1221 20:43:41.205453 22711 net.cpp:157] Top shape: 30 192 28 28 (4515840)
I1221 20:43:41.205466 22711 net.cpp:165] Memory required for data: 2450596200
I1221 20:43:41.205482 22711 layer_factory.hpp:77] Creating layer relu_3c_3x3_reduce
I1221 20:43:41.205497 22711 net.cpp:100] Creating Layer relu_3c_3x3_reduce
I1221 20:43:41.205508 22711 net.cpp:434] relu_3c_3x3_reduce <- conv_3c_3x3_reduce
I1221 20:43:41.205526 22711 net.cpp:395] relu_3c_3x3_reduce -> conv_3c_3x3_reduce (in-place)
I1221 20:43:41.205543 22711 net.cpp:150] Setting up relu_3c_3x3_reduce
I1221 20:43:41.205557 22711 net.cpp:157] Top shape: 30 192 28 28 (4515840)
I1221 20:43:41.205569 22711 net.cpp:165] Memory required for data: 2468659560
I1221 20:43:41.205580 22711 layer_factory.hpp:77] Creating layer conv_3c_3x3
I1221 20:43:41.205600 22711 net.cpp:100] Creating Layer conv_3c_3x3
I1221 20:43:41.205612 22711 net.cpp:434] conv_3c_3x3 <- conv_3c_3x3_reduce
I1221 20:43:41.205626 22711 net.cpp:408] conv_3c_3x3 -> conv_3c_3x3
I1221 20:43:41.207288 22711 net.cpp:150] Setting up conv_3c_3x3
I1221 20:43:41.207315 22711 net.cpp:157] Top shape: 30 240 14 14 (1411200)
I1221 20:43:41.207329 22711 net.cpp:165] Memory required for data: 2474304360
I1221 20:43:41.207345 22711 layer_factory.hpp:77] Creating layer bn_3c_3x3
I1221 20:43:41.207363 22711 net.cpp:100] Creating Layer bn_3c_3x3
I1221 20:43:41.207377 22711 net.cpp:434] bn_3c_3x3 <- conv_3c_3x3
I1221 20:43:41.207391 22711 net.cpp:395] bn_3c_3x3 -> conv_3c_3x3 (in-place)
I1221 20:43:41.207631 22711 net.cpp:150] Setting up bn_3c_3x3
I1221 20:43:41.207654 22711 net.cpp:157] Top shape: 30 240 14 14 (1411200)
I1221 20:43:41.207666 22711 net.cpp:165] Memory required for data: 2479949160
I1221 20:43:41.207708 22711 layer_factory.hpp:77] Creating layer scale_conv_3c_3x3
I1221 20:43:41.207727 22711 net.cpp:100] Creating Layer scale_conv_3c_3x3
I1221 20:43:41.207741 22711 net.cpp:434] scale_conv_3c_3x3 <- conv_3c_3x3
I1221 20:43:41.207758 22711 net.cpp:395] scale_conv_3c_3x3 -> conv_3c_3x3 (in-place)
I1221 20:43:41.207831 22711 layer_factory.hpp:77] Creating layer scale_conv_3c_3x3
I1221 20:43:41.207988 22711 net.cpp:150] Setting up scale_conv_3c_3x3
I1221 20:43:41.208012 22711 net.cpp:157] Top shape: 30 240 14 14 (1411200)
I1221 20:43:41.208024 22711 net.cpp:165] Memory required for data: 2485593960
I1221 20:43:41.208039 22711 layer_factory.hpp:77] Creating layer relu_3c_3x3
I1221 20:43:41.208055 22711 net.cpp:100] Creating Layer relu_3c_3x3
I1221 20:43:41.208075 22711 net.cpp:434] relu_3c_3x3 <- conv_3c_3x3
I1221 20:43:41.208098 22711 net.cpp:395] relu_3c_3x3 -> conv_3c_3x3 (in-place)
I1221 20:43:41.208125 22711 net.cpp:150] Setting up relu_3c_3x3
I1221 20:43:41.208145 22711 net.cpp:157] Top shape: 30 240 14 14 (1411200)
I1221 20:43:41.208156 22711 net.cpp:165] Memory required for data: 2491238760
I1221 20:43:41.208168 22711 layer_factory.hpp:77] Creating layer conv_3c_double_3x3_reduce
I1221 20:43:41.208199 22711 net.cpp:100] Creating Layer conv_3c_double_3x3_reduce
I1221 20:43:41.208214 22711 net.cpp:434] conv_3c_double_3x3_reduce <- ch_concat_3b_chconcat_ch_concat_3b_chconcat_0_split_1
I1221 20:43:41.208236 22711 net.cpp:408] conv_3c_double_3x3_reduce -> conv_3c_double_3x3_reduce
I1221 20:43:41.209339 22711 net.cpp:150] Setting up conv_3c_double_3x3_reduce
I1221 20:43:41.209365 22711 net.cpp:157] Top shape: 30 96 28 28 (2257920)
I1221 20:43:41.209378 22711 net.cpp:165] Memory required for data: 2500270440
I1221 20:43:41.209393 22711 layer_factory.hpp:77] Creating layer bn_3c_double_3x3_reduce
I1221 20:43:41.209408 22711 net.cpp:100] Creating Layer bn_3c_double_3x3_reduce
I1221 20:43:41.209421 22711 net.cpp:434] bn_3c_double_3x3_reduce <- conv_3c_double_3x3_reduce
I1221 20:43:41.209439 22711 net.cpp:395] bn_3c_double_3x3_reduce -> conv_3c_double_3x3_reduce (in-place)
I1221 20:43:41.209795 22711 net.cpp:150] Setting up bn_3c_double_3x3_reduce
I1221 20:43:41.209827 22711 net.cpp:157] Top shape: 30 96 28 28 (2257920)
I1221 20:43:41.209846 22711 net.cpp:165] Memory required for data: 2509302120
I1221 20:43:41.209873 22711 layer_factory.hpp:77] Creating layer scale_conv_3c_double_3x3_reduce
I1221 20:43:41.209900 22711 net.cpp:100] Creating Layer scale_conv_3c_double_3x3_reduce
I1221 20:43:41.209920 22711 net.cpp:434] scale_conv_3c_double_3x3_reduce <- conv_3c_double_3x3_reduce
I1221 20:43:41.209941 22711 net.cpp:395] scale_conv_3c_double_3x3_reduce -> conv_3c_double_3x3_reduce (in-place)
I1221 20:43:41.210019 22711 layer_factory.hpp:77] Creating layer scale_conv_3c_double_3x3_reduce
I1221 20:43:41.210186 22711 net.cpp:150] Setting up scale_conv_3c_double_3x3_reduce
I1221 20:43:41.210207 22711 net.cpp:157] Top shape: 30 96 28 28 (2257920)
I1221 20:43:41.210219 22711 net.cpp:165] Memory required for data: 2518333800
I1221 20:43:41.210234 22711 layer_factory.hpp:77] Creating layer relu_3c_double_3x3_reduce
I1221 20:43:41.210253 22711 net.cpp:100] Creating Layer relu_3c_double_3x3_reduce
I1221 20:43:41.210266 22711 net.cpp:434] relu_3c_double_3x3_reduce <- conv_3c_double_3x3_reduce
I1221 20:43:41.210288 22711 net.cpp:395] relu_3c_double_3x3_reduce -> conv_3c_double_3x3_reduce (in-place)
I1221 20:43:41.210304 22711 net.cpp:150] Setting up relu_3c_double_3x3_reduce
I1221 20:43:41.210319 22711 net.cpp:157] Top shape: 30 96 28 28 (2257920)
I1221 20:43:41.210330 22711 net.cpp:165] Memory required for data: 2527365480
I1221 20:43:41.210351 22711 layer_factory.hpp:77] Creating layer conv_3c_double_3x3_0
I1221 20:43:41.210368 22711 net.cpp:100] Creating Layer conv_3c_double_3x3_0
I1221 20:43:41.210382 22711 net.cpp:434] conv_3c_double_3x3_0 <- conv_3c_double_3x3_reduce
I1221 20:43:41.210407 22711 net.cpp:408] conv_3c_double_3x3_0 -> conv_3c_double_3x3_0
I1221 20:43:41.210796 22711 net.cpp:150] Setting up conv_3c_double_3x3_0
I1221 20:43:41.210820 22711 net.cpp:157] Top shape: 30 144 28 28 (3386880)
I1221 20:43:41.210831 22711 net.cpp:165] Memory required for data: 2540913000
I1221 20:43:41.210847 22711 layer_factory.hpp:77] Creating layer bn_3c_double_3x3_0
I1221 20:43:41.210862 22711 net.cpp:100] Creating Layer bn_3c_double_3x3_0
I1221 20:43:41.210886 22711 net.cpp:434] bn_3c_double_3x3_0 <- conv_3c_double_3x3_0
I1221 20:43:41.210904 22711 net.cpp:395] bn_3c_double_3x3_0 -> conv_3c_double_3x3_0 (in-place)
I1221 20:43:41.211149 22711 net.cpp:150] Setting up bn_3c_double_3x3_0
I1221 20:43:41.211169 22711 net.cpp:157] Top shape: 30 144 28 28 (3386880)
I1221 20:43:41.211187 22711 net.cpp:165] Memory required for data: 2554460520
I1221 20:43:41.211206 22711 layer_factory.hpp:77] Creating layer scale_conv_3c_double_3x3_0
I1221 20:43:41.211222 22711 net.cpp:100] Creating Layer scale_conv_3c_double_3x3_0
I1221 20:43:41.211235 22711 net.cpp:434] scale_conv_3c_double_3x3_0 <- conv_3c_double_3x3_0
I1221 20:43:41.211252 22711 net.cpp:395] scale_conv_3c_double_3x3_0 -> conv_3c_double_3x3_0 (in-place)
I1221 20:43:41.211313 22711 layer_factory.hpp:77] Creating layer scale_conv_3c_double_3x3_0
I1221 20:43:41.211477 22711 net.cpp:150] Setting up scale_conv_3c_double_3x3_0
I1221 20:43:41.211498 22711 net.cpp:157] Top shape: 30 144 28 28 (3386880)
I1221 20:43:41.211509 22711 net.cpp:165] Memory required for data: 2568008040
I1221 20:43:41.211525 22711 layer_factory.hpp:77] Creating layer relu_3c_double_3x3_0
I1221 20:43:41.211547 22711 net.cpp:100] Creating Layer relu_3c_double_3x3_0
I1221 20:43:41.211560 22711 net.cpp:434] relu_3c_double_3x3_0 <- conv_3c_double_3x3_0
I1221 20:43:41.211573 22711 net.cpp:395] relu_3c_double_3x3_0 -> conv_3c_double_3x3_0 (in-place)
I1221 20:43:41.211592 22711 net.cpp:150] Setting up relu_3c_double_3x3_0
I1221 20:43:41.211606 22711 net.cpp:157] Top shape: 30 144 28 28 (3386880)
I1221 20:43:41.211617 22711 net.cpp:165] Memory required for data: 2581555560
I1221 20:43:41.211628 22711 layer_factory.hpp:77] Creating layer conv_3c_double_3x3_1
I1221 20:43:41.211645 22711 net.cpp:100] Creating Layer conv_3c_double_3x3_1
I1221 20:43:41.211658 22711 net.cpp:434] conv_3c_double_3x3_1 <- conv_3c_double_3x3_0
I1221 20:43:41.211675 22711 net.cpp:408] conv_3c_double_3x3_1 -> conv_3c_double_3x3_1
I1221 20:43:41.212752 22711 net.cpp:150] Setting up conv_3c_double_3x3_1
I1221 20:43:41.212777 22711 net.cpp:157] Top shape: 30 144 14 14 (846720)
I1221 20:43:41.212790 22711 net.cpp:165] Memory required for data: 2584942440
I1221 20:43:41.212805 22711 layer_factory.hpp:77] Creating layer bn_3c_double_3x3_1
I1221 20:43:41.212824 22711 net.cpp:100] Creating Layer bn_3c_double_3x3_1
I1221 20:43:41.212837 22711 net.cpp:434] bn_3c_double_3x3_1 <- conv_3c_double_3x3_1
I1221 20:43:41.212854 22711 net.cpp:395] bn_3c_double_3x3_1 -> conv_3c_double_3x3_1 (in-place)
I1221 20:43:41.213089 22711 net.cpp:150] Setting up bn_3c_double_3x3_1
I1221 20:43:41.213111 22711 net.cpp:157] Top shape: 30 144 14 14 (846720)
I1221 20:43:41.213122 22711 net.cpp:165] Memory required for data: 2588329320
I1221 20:43:41.213140 22711 layer_factory.hpp:77] Creating layer scale_conv_3c_double_3x3_1
I1221 20:43:41.213155 22711 net.cpp:100] Creating Layer scale_conv_3c_double_3x3_1
I1221 20:43:41.213166 22711 net.cpp:434] scale_conv_3c_double_3x3_1 <- conv_3c_double_3x3_1
I1221 20:43:41.213189 22711 net.cpp:395] scale_conv_3c_double_3x3_1 -> conv_3c_double_3x3_1 (in-place)
I1221 20:43:41.213253 22711 layer_factory.hpp:77] Creating layer scale_conv_3c_double_3x3_1
I1221 20:43:41.213402 22711 net.cpp:150] Setting up scale_conv_3c_double_3x3_1
I1221 20:43:41.213425 22711 net.cpp:157] Top shape: 30 144 14 14 (846720)
I1221 20:43:41.213438 22711 net.cpp:165] Memory required for data: 2591716200
I1221 20:43:41.213454 22711 layer_factory.hpp:77] Creating layer relu_3c_double_3x3_1
I1221 20:43:41.213469 22711 net.cpp:100] Creating Layer relu_3c_double_3x3_1
I1221 20:43:41.213479 22711 net.cpp:434] relu_3c_double_3x3_1 <- conv_3c_double_3x3_1
I1221 20:43:41.213493 22711 net.cpp:395] relu_3c_double_3x3_1 -> conv_3c_double_3x3_1 (in-place)
I1221 20:43:41.213510 22711 net.cpp:150] Setting up relu_3c_double_3x3_1
I1221 20:43:41.213523 22711 net.cpp:157] Top shape: 30 144 14 14 (846720)
I1221 20:43:41.213534 22711 net.cpp:165] Memory required for data: 2595103080
I1221 20:43:41.213546 22711 layer_factory.hpp:77] Creating layer max_pool_3c_pool
I1221 20:43:41.213572 22711 net.cpp:100] Creating Layer max_pool_3c_pool
I1221 20:43:41.213585 22711 net.cpp:434] max_pool_3c_pool <- ch_concat_3b_chconcat_ch_concat_3b_chconcat_0_split_2
I1221 20:43:41.213608 22711 net.cpp:408] max_pool_3c_pool -> max_pool_3c_pool
I1221 20:43:41.213671 22711 net.cpp:150] Setting up max_pool_3c_pool
I1221 20:43:41.213690 22711 net.cpp:157] Top shape: 30 480 14 14 (2822400)
I1221 20:43:41.213702 22711 net.cpp:165] Memory required for data: 2606392680
I1221 20:43:41.213714 22711 layer_factory.hpp:77] Creating layer ch_concat_3c_chconcat
I1221 20:43:41.213728 22711 net.cpp:100] Creating Layer ch_concat_3c_chconcat
I1221 20:43:41.213740 22711 net.cpp:434] ch_concat_3c_chconcat <- conv_3c_3x3
I1221 20:43:41.213753 22711 net.cpp:434] ch_concat_3c_chconcat <- conv_3c_double_3x3_1
I1221 20:43:41.213767 22711 net.cpp:434] ch_concat_3c_chconcat <- max_pool_3c_pool
I1221 20:43:41.213780 22711 net.cpp:408] ch_concat_3c_chconcat -> ch_concat_3c_chconcat
I1221 20:43:41.213824 22711 net.cpp:150] Setting up ch_concat_3c_chconcat
I1221 20:43:41.213842 22711 net.cpp:157] Top shape: 30 864 14 14 (5080320)
I1221 20:43:41.213853 22711 net.cpp:165] Memory required for data: 2626713960
I1221 20:43:41.213865 22711 layer_factory.hpp:77] Creating layer ch_concat_3c_chconcat_ch_concat_3c_chconcat_0_split
I1221 20:43:41.213881 22711 net.cpp:100] Creating Layer ch_concat_3c_chconcat_ch_concat_3c_chconcat_0_split
I1221 20:43:41.213892 22711 net.cpp:434] ch_concat_3c_chconcat_ch_concat_3c_chconcat_0_split <- ch_concat_3c_chconcat
I1221 20:43:41.213907 22711 net.cpp:408] ch_concat_3c_chconcat_ch_concat_3c_chconcat_0_split -> ch_concat_3c_chconcat_ch_concat_3c_chconcat_0_split_0
I1221 20:43:41.213927 22711 net.cpp:408] ch_concat_3c_chconcat_ch_concat_3c_chconcat_0_split -> ch_concat_3c_chconcat_ch_concat_3c_chconcat_0_split_1
I1221 20:43:41.213948 22711 net.cpp:408] ch_concat_3c_chconcat_ch_concat_3c_chconcat_0_split -> ch_concat_3c_chconcat_ch_concat_3c_chconcat_0_split_2
I1221 20:43:41.213969 22711 net.cpp:408] ch_concat_3c_chconcat_ch_concat_3c_chconcat_0_split -> ch_concat_3c_chconcat_ch_concat_3c_chconcat_0_split_3
I1221 20:43:41.214059 22711 net.cpp:150] Setting up ch_concat_3c_chconcat_ch_concat_3c_chconcat_0_split
I1221 20:43:41.214079 22711 net.cpp:157] Top shape: 30 864 14 14 (5080320)
I1221 20:43:41.214092 22711 net.cpp:157] Top shape: 30 864 14 14 (5080320)
I1221 20:43:41.214105 22711 net.cpp:157] Top shape: 30 864 14 14 (5080320)
I1221 20:43:41.214118 22711 net.cpp:157] Top shape: 30 864 14 14 (5080320)
I1221 20:43:41.214128 22711 net.cpp:165] Memory required for data: 2707999080
I1221 20:43:41.214140 22711 layer_factory.hpp:77] Creating layer conv_4a_1x1
I1221 20:43:41.214160 22711 net.cpp:100] Creating Layer conv_4a_1x1
I1221 20:43:41.214174 22711 net.cpp:434] conv_4a_1x1 <- ch_concat_3c_chconcat_ch_concat_3c_chconcat_0_split_0
I1221 20:43:41.214200 22711 net.cpp:408] conv_4a_1x1 -> conv_4a_1x1
I1221 20:43:41.215260 22711 net.cpp:150] Setting up conv_4a_1x1
I1221 20:43:41.215288 22711 net.cpp:157] Top shape: 30 224 14 14 (1317120)
I1221 20:43:41.215301 22711 net.cpp:165] Memory required for data: 2713267560
I1221 20:43:41.215322 22711 layer_factory.hpp:77] Creating layer bn_4a_1x1
I1221 20:43:41.215337 22711 net.cpp:100] Creating Layer bn_4a_1x1
I1221 20:43:41.215349 22711 net.cpp:434] bn_4a_1x1 <- conv_4a_1x1
I1221 20:43:41.215363 22711 net.cpp:395] bn_4a_1x1 -> conv_4a_1x1 (in-place)
I1221 20:43:41.215610 22711 net.cpp:150] Setting up bn_4a_1x1
I1221 20:43:41.215631 22711 net.cpp:157] Top shape: 30 224 14 14 (1317120)
I1221 20:43:41.215643 22711 net.cpp:165] Memory required for data: 2718536040
I1221 20:43:41.215661 22711 layer_factory.hpp:77] Creating layer scale_conv_4a_1x1
I1221 20:43:41.215677 22711 net.cpp:100] Creating Layer scale_conv_4a_1x1
I1221 20:43:41.215687 22711 net.cpp:434] scale_conv_4a_1x1 <- conv_4a_1x1
I1221 20:43:41.215704 22711 net.cpp:395] scale_conv_4a_1x1 -> conv_4a_1x1 (in-place)
I1221 20:43:41.215775 22711 layer_factory.hpp:77] Creating layer scale_conv_4a_1x1
I1221 20:43:41.215939 22711 net.cpp:150] Setting up scale_conv_4a_1x1
I1221 20:43:41.215961 22711 net.cpp:157] Top shape: 30 224 14 14 (1317120)
I1221 20:43:41.215973 22711 net.cpp:165] Memory required for data: 2723804520
I1221 20:43:41.215989 22711 layer_factory.hpp:77] Creating layer relu_4a_1x1
I1221 20:43:41.216003 22711 net.cpp:100] Creating Layer relu_4a_1x1
I1221 20:43:41.216015 22711 net.cpp:434] relu_4a_1x1 <- conv_4a_1x1
I1221 20:43:41.216033 22711 net.cpp:395] relu_4a_1x1 -> conv_4a_1x1 (in-place)
I1221 20:43:41.216050 22711 net.cpp:150] Setting up relu_4a_1x1
I1221 20:43:41.216064 22711 net.cpp:157] Top shape: 30 224 14 14 (1317120)
I1221 20:43:41.216076 22711 net.cpp:165] Memory required for data: 2729073000
I1221 20:43:41.216089 22711 layer_factory.hpp:77] Creating layer conv_4a_3x3_reduce
I1221 20:43:41.216114 22711 net.cpp:100] Creating Layer conv_4a_3x3_reduce
I1221 20:43:41.216128 22711 net.cpp:434] conv_4a_3x3_reduce <- ch_concat_3c_chconcat_ch_concat_3c_chconcat_0_split_1
I1221 20:43:41.216143 22711 net.cpp:408] conv_4a_3x3_reduce -> conv_4a_3x3_reduce
I1221 20:43:41.216480 22711 net.cpp:150] Setting up conv_4a_3x3_reduce
I1221 20:43:41.216506 22711 net.cpp:157] Top shape: 30 64 14 14 (376320)
I1221 20:43:41.216517 22711 net.cpp:165] Memory required for data: 2730578280
I1221 20:43:41.216533 22711 layer_factory.hpp:77] Creating layer bn_4a_3x3_reduce
I1221 20:43:41.216554 22711 net.cpp:100] Creating Layer bn_4a_3x3_reduce
I1221 20:43:41.216567 22711 net.cpp:434] bn_4a_3x3_reduce <- conv_4a_3x3_reduce
I1221 20:43:41.216581 22711 net.cpp:395] bn_4a_3x3_reduce -> conv_4a_3x3_reduce (in-place)
I1221 20:43:41.216816 22711 net.cpp:150] Setting up bn_4a_3x3_reduce
I1221 20:43:41.216838 22711 net.cpp:157] Top shape: 30 64 14 14 (376320)
I1221 20:43:41.216855 22711 net.cpp:165] Memory required for data: 2732083560
I1221 20:43:41.216871 22711 layer_factory.hpp:77] Creating layer scale_conv_4a_3x3_reduce
I1221 20:43:41.216887 22711 net.cpp:100] Creating Layer scale_conv_4a_3x3_reduce
I1221 20:43:41.216902 22711 net.cpp:434] scale_conv_4a_3x3_reduce <- conv_4a_3x3_reduce
I1221 20:43:41.216917 22711 net.cpp:395] scale_conv_4a_3x3_reduce -> conv_4a_3x3_reduce (in-place)
I1221 20:43:41.216980 22711 layer_factory.hpp:77] Creating layer scale_conv_4a_3x3_reduce
I1221 20:43:41.217134 22711 net.cpp:150] Setting up scale_conv_4a_3x3_reduce
I1221 20:43:41.217157 22711 net.cpp:157] Top shape: 30 64 14 14 (376320)
I1221 20:43:41.217170 22711 net.cpp:165] Memory required for data: 2733588840
I1221 20:43:41.217191 22711 layer_factory.hpp:77] Creating layer relu_4a_3x3_reduce
I1221 20:43:41.217207 22711 net.cpp:100] Creating Layer relu_4a_3x3_reduce
I1221 20:43:41.217219 22711 net.cpp:434] relu_4a_3x3_reduce <- conv_4a_3x3_reduce
I1221 20:43:41.217237 22711 net.cpp:395] relu_4a_3x3_reduce -> conv_4a_3x3_reduce (in-place)
I1221 20:43:41.217254 22711 net.cpp:150] Setting up relu_4a_3x3_reduce
I1221 20:43:41.217268 22711 net.cpp:157] Top shape: 30 64 14 14 (376320)
I1221 20:43:41.217279 22711 net.cpp:165] Memory required for data: 2735094120
I1221 20:43:41.217290 22711 layer_factory.hpp:77] Creating layer conv_4a_3x3
I1221 20:43:41.217310 22711 net.cpp:100] Creating Layer conv_4a_3x3
I1221 20:43:41.217324 22711 net.cpp:434] conv_4a_3x3 <- conv_4a_3x3_reduce
I1221 20:43:41.217339 22711 net.cpp:408] conv_4a_3x3 -> conv_4a_3x3
I1221 20:43:41.217667 22711 net.cpp:150] Setting up conv_4a_3x3
I1221 20:43:41.217691 22711 net.cpp:157] Top shape: 30 96 14 14 (564480)
I1221 20:43:41.217703 22711 net.cpp:165] Memory required for data: 2737352040
I1221 20:43:41.217718 22711 layer_factory.hpp:77] Creating layer bn_4a_3x3
I1221 20:43:41.217736 22711 net.cpp:100] Creating Layer bn_4a_3x3
I1221 20:43:41.217749 22711 net.cpp:434] bn_4a_3x3 <- conv_4a_3x3
I1221 20:43:41.217763 22711 net.cpp:395] bn_4a_3x3 -> conv_4a_3x3 (in-place)
I1221 20:43:41.218008 22711 net.cpp:150] Setting up bn_4a_3x3
I1221 20:43:41.218030 22711 net.cpp:157] Top shape: 30 96 14 14 (564480)
I1221 20:43:41.218042 22711 net.cpp:165] Memory required for data: 2739609960
I1221 20:43:41.218070 22711 layer_factory.hpp:77] Creating layer scale_conv_4a_3x3
I1221 20:43:41.218086 22711 net.cpp:100] Creating Layer scale_conv_4a_3x3
I1221 20:43:41.218099 22711 net.cpp:434] scale_conv_4a_3x3 <- conv_4a_3x3
I1221 20:43:41.218113 22711 net.cpp:395] scale_conv_4a_3x3 -> conv_4a_3x3 (in-place)
I1221 20:43:41.218186 22711 layer_factory.hpp:77] Creating layer scale_conv_4a_3x3
I1221 20:43:41.218339 22711 net.cpp:150] Setting up scale_conv_4a_3x3
I1221 20:43:41.218364 22711 net.cpp:157] Top shape: 30 96 14 14 (564480)
I1221 20:43:41.218376 22711 net.cpp:165] Memory required for data: 2741867880
I1221 20:43:41.218391 22711 layer_factory.hpp:77] Creating layer relu_4a_3x3
I1221 20:43:41.218406 22711 net.cpp:100] Creating Layer relu_4a_3x3
I1221 20:43:41.218417 22711 net.cpp:434] relu_4a_3x3 <- conv_4a_3x3
I1221 20:43:41.218430 22711 net.cpp:395] relu_4a_3x3 -> conv_4a_3x3 (in-place)
I1221 20:43:41.218446 22711 net.cpp:150] Setting up relu_4a_3x3
I1221 20:43:41.218461 22711 net.cpp:157] Top shape: 30 96 14 14 (564480)
I1221 20:43:41.218472 22711 net.cpp:165] Memory required for data: 2744125800
I1221 20:43:41.218482 22711 layer_factory.hpp:77] Creating layer conv_4a_double_3x3_reduce
I1221 20:43:41.218502 22711 net.cpp:100] Creating Layer conv_4a_double_3x3_reduce
I1221 20:43:41.218515 22711 net.cpp:434] conv_4a_double_3x3_reduce <- ch_concat_3c_chconcat_ch_concat_3c_chconcat_0_split_2
I1221 20:43:41.218534 22711 net.cpp:408] conv_4a_double_3x3_reduce -> conv_4a_double_3x3_reduce
I1221 20:43:41.219525 22711 net.cpp:150] Setting up conv_4a_double_3x3_reduce
I1221 20:43:41.219563 22711 net.cpp:157] Top shape: 30 96 14 14 (564480)
I1221 20:43:41.219575 22711 net.cpp:165] Memory required for data: 2746383720
I1221 20:43:41.219591 22711 layer_factory.hpp:77] Creating layer bn_4a_double_3x3_reduce
I1221 20:43:41.219607 22711 net.cpp:100] Creating Layer bn_4a_double_3x3_reduce
I1221 20:43:41.219619 22711 net.cpp:434] bn_4a_double_3x3_reduce <- conv_4a_double_3x3_reduce
I1221 20:43:41.219638 22711 net.cpp:395] bn_4a_double_3x3_reduce -> conv_4a_double_3x3_reduce (in-place)
I1221 20:43:41.219877 22711 net.cpp:150] Setting up bn_4a_double_3x3_reduce
I1221 20:43:41.219902 22711 net.cpp:157] Top shape: 30 96 14 14 (564480)
I1221 20:43:41.219913 22711 net.cpp:165] Memory required for data: 2748641640
I1221 20:43:41.219930 22711 layer_factory.hpp:77] Creating layer scale_conv_4a_double_3x3_reduce
I1221 20:43:41.219945 22711 net.cpp:100] Creating Layer scale_conv_4a_double_3x3_reduce
I1221 20:43:41.219957 22711 net.cpp:434] scale_conv_4a_double_3x3_reduce <- conv_4a_double_3x3_reduce
I1221 20:43:41.219975 22711 net.cpp:395] scale_conv_4a_double_3x3_reduce -> conv_4a_double_3x3_reduce (in-place)
I1221 20:43:41.220038 22711 layer_factory.hpp:77] Creating layer scale_conv_4a_double_3x3_reduce
I1221 20:43:41.220221 22711 net.cpp:150] Setting up scale_conv_4a_double_3x3_reduce
I1221 20:43:41.220244 22711 net.cpp:157] Top shape: 30 96 14 14 (564480)
I1221 20:43:41.220257 22711 net.cpp:165] Memory required for data: 2750899560
I1221 20:43:41.220271 22711 layer_factory.hpp:77] Creating layer relu_4a_double_3x3_reduce
I1221 20:43:41.220290 22711 net.cpp:100] Creating Layer relu_4a_double_3x3_reduce
I1221 20:43:41.220302 22711 net.cpp:434] relu_4a_double_3x3_reduce <- conv_4a_double_3x3_reduce
I1221 20:43:41.220317 22711 net.cpp:395] relu_4a_double_3x3_reduce -> conv_4a_double_3x3_reduce (in-place)
I1221 20:43:41.220333 22711 net.cpp:150] Setting up relu_4a_double_3x3_reduce
I1221 20:43:41.220347 22711 net.cpp:157] Top shape: 30 96 14 14 (564480)
I1221 20:43:41.220358 22711 net.cpp:165] Memory required for data: 2753157480
I1221 20:43:41.220369 22711 layer_factory.hpp:77] Creating layer conv_4a_double_3x3_0
I1221 20:43:41.220389 22711 net.cpp:100] Creating Layer conv_4a_double_3x3_0
I1221 20:43:41.220402 22711 net.cpp:434] conv_4a_double_3x3_0 <- conv_4a_double_3x3_reduce
I1221 20:43:41.220422 22711 net.cpp:408] conv_4a_double_3x3_0 -> conv_4a_double_3x3_0
I1221 20:43:41.220796 22711 net.cpp:150] Setting up conv_4a_double_3x3_0
I1221 20:43:41.220829 22711 net.cpp:157] Top shape: 30 128 14 14 (752640)
I1221 20:43:41.220842 22711 net.cpp:165] Memory required for data: 2756168040
I1221 20:43:41.220857 22711 layer_factory.hpp:77] Creating layer bn_4a_double_3x3_0
I1221 20:43:41.220872 22711 net.cpp:100] Creating Layer bn_4a_double_3x3_0
I1221 20:43:41.220885 22711 net.cpp:434] bn_4a_double_3x3_0 <- conv_4a_double_3x3_0
I1221 20:43:41.220899 22711 net.cpp:395] bn_4a_double_3x3_0 -> conv_4a_double_3x3_0 (in-place)
I1221 20:43:41.221128 22711 net.cpp:150] Setting up bn_4a_double_3x3_0
I1221 20:43:41.221151 22711 net.cpp:157] Top shape: 30 128 14 14 (752640)
I1221 20:43:41.221163 22711 net.cpp:165] Memory required for data: 2759178600
I1221 20:43:41.221187 22711 layer_factory.hpp:77] Creating layer scale_conv_4a_double_3x3_0
I1221 20:43:41.221204 22711 net.cpp:100] Creating Layer scale_conv_4a_double_3x3_0
I1221 20:43:41.221217 22711 net.cpp:434] scale_conv_4a_double_3x3_0 <- conv_4a_double_3x3_0
I1221 20:43:41.221231 22711 net.cpp:395] scale_conv_4a_double_3x3_0 -> conv_4a_double_3x3_0 (in-place)
I1221 20:43:41.221303 22711 layer_factory.hpp:77] Creating layer scale_conv_4a_double_3x3_0
I1221 20:43:41.221451 22711 net.cpp:150] Setting up scale_conv_4a_double_3x3_0
I1221 20:43:41.221473 22711 net.cpp:157] Top shape: 30 128 14 14 (752640)
I1221 20:43:41.221485 22711 net.cpp:165] Memory required for data: 2762189160
I1221 20:43:41.221500 22711 layer_factory.hpp:77] Creating layer relu_4a_double_3x3_0
I1221 20:43:41.221514 22711 net.cpp:100] Creating Layer relu_4a_double_3x3_0
I1221 20:43:41.221526 22711 net.cpp:434] relu_4a_double_3x3_0 <- conv_4a_double_3x3_0
I1221 20:43:41.221544 22711 net.cpp:395] relu_4a_double_3x3_0 -> conv_4a_double_3x3_0 (in-place)
I1221 20:43:41.221560 22711 net.cpp:150] Setting up relu_4a_double_3x3_0
I1221 20:43:41.221575 22711 net.cpp:157] Top shape: 30 128 14 14 (752640)
I1221 20:43:41.221586 22711 net.cpp:165] Memory required for data: 2765199720
I1221 20:43:41.221604 22711 layer_factory.hpp:77] Creating layer conv_4a_double_3x3_1
I1221 20:43:41.221621 22711 net.cpp:100] Creating Layer conv_4a_double_3x3_1
I1221 20:43:41.221634 22711 net.cpp:434] conv_4a_double_3x3_1 <- conv_4a_double_3x3_0
I1221 20:43:41.221652 22711 net.cpp:408] conv_4a_double_3x3_1 -> conv_4a_double_3x3_1
I1221 20:43:41.222685 22711 net.cpp:150] Setting up conv_4a_double_3x3_1
I1221 20:43:41.222712 22711 net.cpp:157] Top shape: 30 128 14 14 (752640)
I1221 20:43:41.222725 22711 net.cpp:165] Memory required for data: 2768210280
I1221 20:43:41.222740 22711 layer_factory.hpp:77] Creating layer bn_4a_double_3x3_1
I1221 20:43:41.222760 22711 net.cpp:100] Creating Layer bn_4a_double_3x3_1
I1221 20:43:41.222774 22711 net.cpp:434] bn_4a_double_3x3_1 <- conv_4a_double_3x3_1
I1221 20:43:41.222789 22711 net.cpp:395] bn_4a_double_3x3_1 -> conv_4a_double_3x3_1 (in-place)
I1221 20:43:41.223024 22711 net.cpp:150] Setting up bn_4a_double_3x3_1
I1221 20:43:41.223048 22711 net.cpp:157] Top shape: 30 128 14 14 (752640)
I1221 20:43:41.223060 22711 net.cpp:165] Memory required for data: 2771220840
I1221 20:43:41.223078 22711 layer_factory.hpp:77] Creating layer scale_conv_4a_double_3x3_1
I1221 20:43:41.223096 22711 net.cpp:100] Creating Layer scale_conv_4a_double_3x3_1
I1221 20:43:41.223109 22711 net.cpp:434] scale_conv_4a_double_3x3_1 <- conv_4a_double_3x3_1
I1221 20:43:41.223124 22711 net.cpp:395] scale_conv_4a_double_3x3_1 -> conv_4a_double_3x3_1 (in-place)
I1221 20:43:41.223191 22711 layer_factory.hpp:77] Creating layer scale_conv_4a_double_3x3_1
I1221 20:43:41.223343 22711 net.cpp:150] Setting up scale_conv_4a_double_3x3_1
I1221 20:43:41.223368 22711 net.cpp:157] Top shape: 30 128 14 14 (752640)
I1221 20:43:41.223381 22711 net.cpp:165] Memory required for data: 2774231400
I1221 20:43:41.223395 22711 layer_factory.hpp:77] Creating layer relu_4a_double_3x3_1
I1221 20:43:41.223414 22711 net.cpp:100] Creating Layer relu_4a_double_3x3_1
I1221 20:43:41.223428 22711 net.cpp:434] relu_4a_double_3x3_1 <- conv_4a_double_3x3_1
I1221 20:43:41.223443 22711 net.cpp:395] relu_4a_double_3x3_1 -> conv_4a_double_3x3_1 (in-place)
I1221 20:43:41.223469 22711 net.cpp:150] Setting up relu_4a_double_3x3_1
I1221 20:43:41.223485 22711 net.cpp:157] Top shape: 30 128 14 14 (752640)
I1221 20:43:41.223496 22711 net.cpp:165] Memory required for data: 2777241960
I1221 20:43:41.223507 22711 layer_factory.hpp:77] Creating layer ave_pool_4a_pool
I1221 20:43:41.223522 22711 net.cpp:100] Creating Layer ave_pool_4a_pool
I1221 20:43:41.223534 22711 net.cpp:434] ave_pool_4a_pool <- ch_concat_3c_chconcat_ch_concat_3c_chconcat_0_split_3
I1221 20:43:41.223549 22711 net.cpp:408] ave_pool_4a_pool -> ave_pool_4a_pool
I1221 20:43:41.223595 22711 net.cpp:150] Setting up ave_pool_4a_pool
I1221 20:43:41.223614 22711 net.cpp:157] Top shape: 30 864 14 14 (5080320)
I1221 20:43:41.223626 22711 net.cpp:165] Memory required for data: 2797563240
I1221 20:43:41.223637 22711 layer_factory.hpp:77] Creating layer conv_4a_proj
I1221 20:43:41.223654 22711 net.cpp:100] Creating Layer conv_4a_proj
I1221 20:43:41.223666 22711 net.cpp:434] conv_4a_proj <- ave_pool_4a_pool
I1221 20:43:41.223685 22711 net.cpp:408] conv_4a_proj -> conv_4a_proj
I1221 20:43:41.224040 22711 net.cpp:150] Setting up conv_4a_proj
I1221 20:43:41.224064 22711 net.cpp:157] Top shape: 30 128 14 14 (752640)
I1221 20:43:41.224076 22711 net.cpp:165] Memory required for data: 2800573800
I1221 20:43:41.224092 22711 layer_factory.hpp:77] Creating layer bn_4a_proj
I1221 20:43:41.224148 22711 net.cpp:100] Creating Layer bn_4a_proj
I1221 20:43:41.224164 22711 net.cpp:434] bn_4a_proj <- conv_4a_proj
I1221 20:43:41.224179 22711 net.cpp:395] bn_4a_proj -> conv_4a_proj (in-place)
I1221 20:43:41.224416 22711 net.cpp:150] Setting up bn_4a_proj
I1221 20:43:41.224447 22711 net.cpp:157] Top shape: 30 128 14 14 (752640)
I1221 20:43:41.224459 22711 net.cpp:165] Memory required for data: 2803584360
I1221 20:43:41.224478 22711 layer_factory.hpp:77] Creating layer scale_conv_4a_proj
I1221 20:43:41.224493 22711 net.cpp:100] Creating Layer scale_conv_4a_proj
I1221 20:43:41.224505 22711 net.cpp:434] scale_conv_4a_proj <- conv_4a_proj
I1221 20:43:41.224524 22711 net.cpp:395] scale_conv_4a_proj -> conv_4a_proj (in-place)
I1221 20:43:41.224587 22711 layer_factory.hpp:77] Creating layer scale_conv_4a_proj
I1221 20:43:41.224735 22711 net.cpp:150] Setting up scale_conv_4a_proj
I1221 20:43:41.224758 22711 net.cpp:157] Top shape: 30 128 14 14 (752640)
I1221 20:43:41.224771 22711 net.cpp:165] Memory required for data: 2806594920
I1221 20:43:41.224786 22711 layer_factory.hpp:77] Creating layer relu_4a_proj
I1221 20:43:41.224799 22711 net.cpp:100] Creating Layer relu_4a_proj
I1221 20:43:41.224810 22711 net.cpp:434] relu_4a_proj <- conv_4a_proj
I1221 20:43:41.224824 22711 net.cpp:395] relu_4a_proj -> conv_4a_proj (in-place)
I1221 20:43:41.224840 22711 net.cpp:150] Setting up relu_4a_proj
I1221 20:43:41.224853 22711 net.cpp:157] Top shape: 30 128 14 14 (752640)
I1221 20:43:41.224865 22711 net.cpp:165] Memory required for data: 2809605480
I1221 20:43:41.224876 22711 layer_factory.hpp:77] Creating layer ch_concat_4a_chconcat
I1221 20:43:41.224894 22711 net.cpp:100] Creating Layer ch_concat_4a_chconcat
I1221 20:43:41.224906 22711 net.cpp:434] ch_concat_4a_chconcat <- conv_4a_1x1
I1221 20:43:41.224920 22711 net.cpp:434] ch_concat_4a_chconcat <- conv_4a_3x3
I1221 20:43:41.224932 22711 net.cpp:434] ch_concat_4a_chconcat <- conv_4a_double_3x3_1
I1221 20:43:41.224944 22711 net.cpp:434] ch_concat_4a_chconcat <- conv_4a_proj
I1221 20:43:41.224959 22711 net.cpp:408] ch_concat_4a_chconcat -> ch_concat_4a_chconcat
I1221 20:43:41.225004 22711 net.cpp:150] Setting up ch_concat_4a_chconcat
I1221 20:43:41.225023 22711 net.cpp:157] Top shape: 30 576 14 14 (3386880)
I1221 20:43:41.225034 22711 net.cpp:165] Memory required for data: 2823153000
I1221 20:43:41.225052 22711 layer_factory.hpp:77] Creating layer ch_concat_4a_chconcat_ch_concat_4a_chconcat_0_split
I1221 20:43:41.225067 22711 net.cpp:100] Creating Layer ch_concat_4a_chconcat_ch_concat_4a_chconcat_0_split
I1221 20:43:41.225080 22711 net.cpp:434] ch_concat_4a_chconcat_ch_concat_4a_chconcat_0_split <- ch_concat_4a_chconcat
I1221 20:43:41.225107 22711 net.cpp:408] ch_concat_4a_chconcat_ch_concat_4a_chconcat_0_split -> ch_concat_4a_chconcat_ch_concat_4a_chconcat_0_split_0
I1221 20:43:41.225128 22711 net.cpp:408] ch_concat_4a_chconcat_ch_concat_4a_chconcat_0_split -> ch_concat_4a_chconcat_ch_concat_4a_chconcat_0_split_1
I1221 20:43:41.225147 22711 net.cpp:408] ch_concat_4a_chconcat_ch_concat_4a_chconcat_0_split -> ch_concat_4a_chconcat_ch_concat_4a_chconcat_0_split_2
I1221 20:43:41.225164 22711 net.cpp:408] ch_concat_4a_chconcat_ch_concat_4a_chconcat_0_split -> ch_concat_4a_chconcat_ch_concat_4a_chconcat_0_split_3
I1221 20:43:41.225250 22711 net.cpp:150] Setting up ch_concat_4a_chconcat_ch_concat_4a_chconcat_0_split
I1221 20:43:41.225273 22711 net.cpp:157] Top shape: 30 576 14 14 (3386880)
I1221 20:43:41.225287 22711 net.cpp:157] Top shape: 30 576 14 14 (3386880)
I1221 20:43:41.225301 22711 net.cpp:157] Top shape: 30 576 14 14 (3386880)
I1221 20:43:41.225312 22711 net.cpp:157] Top shape: 30 576 14 14 (3386880)
I1221 20:43:41.225323 22711 net.cpp:165] Memory required for data: 2877343080
I1221 20:43:41.225334 22711 layer_factory.hpp:77] Creating layer conv_4b_1x1
I1221 20:43:41.225352 22711 net.cpp:100] Creating Layer conv_4b_1x1
I1221 20:43:41.225368 22711 net.cpp:434] conv_4b_1x1 <- ch_concat_4a_chconcat_ch_concat_4a_chconcat_0_split_0
I1221 20:43:41.225390 22711 net.cpp:408] conv_4b_1x1 -> conv_4b_1x1
I1221 20:43:41.226407 22711 net.cpp:150] Setting up conv_4b_1x1
I1221 20:43:41.226440 22711 net.cpp:157] Top shape: 30 192 14 14 (1128960)
I1221 20:43:41.226452 22711 net.cpp:165] Memory required for data: 2881858920
I1221 20:43:41.226469 22711 layer_factory.hpp:77] Creating layer bn_4b_1x1
I1221 20:43:41.226485 22711 net.cpp:100] Creating Layer bn_4b_1x1
I1221 20:43:41.226496 22711 net.cpp:434] bn_4b_1x1 <- conv_4b_1x1
I1221 20:43:41.226514 22711 net.cpp:395] bn_4b_1x1 -> conv_4b_1x1 (in-place)
I1221 20:43:41.226759 22711 net.cpp:150] Setting up bn_4b_1x1
I1221 20:43:41.226783 22711 net.cpp:157] Top shape: 30 192 14 14 (1128960)
I1221 20:43:41.226795 22711 net.cpp:165] Memory required for data: 2886374760
I1221 20:43:41.226812 22711 layer_factory.hpp:77] Creating layer scale_conv_4b_1x1
I1221 20:43:41.226827 22711 net.cpp:100] Creating Layer scale_conv_4b_1x1
I1221 20:43:41.226840 22711 net.cpp:434] scale_conv_4b_1x1 <- conv_4b_1x1
I1221 20:43:41.226853 22711 net.cpp:395] scale_conv_4b_1x1 -> conv_4b_1x1 (in-place)
I1221 20:43:41.226924 22711 layer_factory.hpp:77] Creating layer scale_conv_4b_1x1
I1221 20:43:41.227077 22711 net.cpp:150] Setting up scale_conv_4b_1x1
I1221 20:43:41.227100 22711 net.cpp:157] Top shape: 30 192 14 14 (1128960)
I1221 20:43:41.227113 22711 net.cpp:165] Memory required for data: 2890890600
I1221 20:43:41.227128 22711 layer_factory.hpp:77] Creating layer relu_4b_1x1
I1221 20:43:41.227145 22711 net.cpp:100] Creating Layer relu_4b_1x1
I1221 20:43:41.227159 22711 net.cpp:434] relu_4b_1x1 <- conv_4b_1x1
I1221 20:43:41.227171 22711 net.cpp:395] relu_4b_1x1 -> conv_4b_1x1 (in-place)
I1221 20:43:41.227198 22711 net.cpp:150] Setting up relu_4b_1x1
I1221 20:43:41.227213 22711 net.cpp:157] Top shape: 30 192 14 14 (1128960)
I1221 20:43:41.227226 22711 net.cpp:165] Memory required for data: 2895406440
I1221 20:43:41.227236 22711 layer_factory.hpp:77] Creating layer conv_4b_3x3_reduce
I1221 20:43:41.227257 22711 net.cpp:100] Creating Layer conv_4b_3x3_reduce
I1221 20:43:41.227270 22711 net.cpp:434] conv_4b_3x3_reduce <- ch_concat_4a_chconcat_ch_concat_4a_chconcat_0_split_1
I1221 20:43:41.227286 22711 net.cpp:408] conv_4b_3x3_reduce -> conv_4b_3x3_reduce
I1221 20:43:41.227632 22711 net.cpp:150] Setting up conv_4b_3x3_reduce
I1221 20:43:41.227656 22711 net.cpp:157] Top shape: 30 96 14 14 (564480)
I1221 20:43:41.227669 22711 net.cpp:165] Memory required for data: 2897664360
I1221 20:43:41.227684 22711 layer_factory.hpp:77] Creating layer bn_4b_3x3_reduce
I1221 20:43:41.227702 22711 net.cpp:100] Creating Layer bn_4b_3x3_reduce
I1221 20:43:41.227715 22711 net.cpp:434] bn_4b_3x3_reduce <- conv_4b_3x3_reduce
I1221 20:43:41.227742 22711 net.cpp:395] bn_4b_3x3_reduce -> conv_4b_3x3_reduce (in-place)
I1221 20:43:41.227990 22711 net.cpp:150] Setting up bn_4b_3x3_reduce
I1221 20:43:41.228016 22711 net.cpp:157] Top shape: 30 96 14 14 (564480)
I1221 20:43:41.228029 22711 net.cpp:165] Memory required for data: 2899922280
I1221 20:43:41.228049 22711 layer_factory.hpp:77] Creating layer scale_conv_4b_3x3_reduce
I1221 20:43:41.228063 22711 net.cpp:100] Creating Layer scale_conv_4b_3x3_reduce
I1221 20:43:41.228075 22711 net.cpp:434] scale_conv_4b_3x3_reduce <- conv_4b_3x3_reduce
I1221 20:43:41.228090 22711 net.cpp:395] scale_conv_4b_3x3_reduce -> conv_4b_3x3_reduce (in-place)
I1221 20:43:41.228154 22711 layer_factory.hpp:77] Creating layer scale_conv_4b_3x3_reduce
I1221 20:43:41.228323 22711 net.cpp:150] Setting up scale_conv_4b_3x3_reduce
I1221 20:43:41.228346 22711 net.cpp:157] Top shape: 30 96 14 14 (564480)
I1221 20:43:41.228358 22711 net.cpp:165] Memory required for data: 2902180200
I1221 20:43:41.228374 22711 layer_factory.hpp:77] Creating layer relu_4b_3x3_reduce
I1221 20:43:41.228391 22711 net.cpp:100] Creating Layer relu_4b_3x3_reduce
I1221 20:43:41.228404 22711 net.cpp:434] relu_4b_3x3_reduce <- conv_4b_3x3_reduce
I1221 20:43:41.228418 22711 net.cpp:395] relu_4b_3x3_reduce -> conv_4b_3x3_reduce (in-place)
I1221 20:43:41.228435 22711 net.cpp:150] Setting up relu_4b_3x3_reduce
I1221 20:43:41.228448 22711 net.cpp:157] Top shape: 30 96 14 14 (564480)
I1221 20:43:41.228459 22711 net.cpp:165] Memory required for data: 2904438120
I1221 20:43:41.228471 22711 layer_factory.hpp:77] Creating layer conv_4b_3x3
I1221 20:43:41.228490 22711 net.cpp:100] Creating Layer conv_4b_3x3
I1221 20:43:41.228503 22711 net.cpp:434] conv_4b_3x3 <- conv_4b_3x3_reduce
I1221 20:43:41.228518 22711 net.cpp:408] conv_4b_3x3 -> conv_4b_3x3
I1221 20:43:41.228904 22711 net.cpp:150] Setting up conv_4b_3x3
I1221 20:43:41.228929 22711 net.cpp:157] Top shape: 30 128 14 14 (752640)
I1221 20:43:41.228941 22711 net.cpp:165] Memory required for data: 2907448680
I1221 20:43:41.228956 22711 layer_factory.hpp:77] Creating layer bn_4b_3x3
I1221 20:43:41.228971 22711 net.cpp:100] Creating Layer bn_4b_3x3
I1221 20:43:41.228984 22711 net.cpp:434] bn_4b_3x3 <- conv_4b_3x3
I1221 20:43:41.229007 22711 net.cpp:395] bn_4b_3x3 -> conv_4b_3x3 (in-place)
I1221 20:43:41.229279 22711 net.cpp:150] Setting up bn_4b_3x3
I1221 20:43:41.229302 22711 net.cpp:157] Top shape: 30 128 14 14 (752640)
I1221 20:43:41.229315 22711 net.cpp:165] Memory required for data: 2910459240
I1221 20:43:41.229332 22711 layer_factory.hpp:77] Creating layer scale_conv_4b_3x3
I1221 20:43:41.229348 22711 net.cpp:100] Creating Layer scale_conv_4b_3x3
I1221 20:43:41.229360 22711 net.cpp:434] scale_conv_4b_3x3 <- conv_4b_3x3
I1221 20:43:41.229374 22711 net.cpp:395] scale_conv_4b_3x3 -> conv_4b_3x3 (in-place)
I1221 20:43:41.229439 22711 layer_factory.hpp:77] Creating layer scale_conv_4b_3x3
I1221 20:43:41.229586 22711 net.cpp:150] Setting up scale_conv_4b_3x3
I1221 20:43:41.229609 22711 net.cpp:157] Top shape: 30 128 14 14 (752640)
I1221 20:43:41.229627 22711 net.cpp:165] Memory required for data: 2913469800
I1221 20:43:41.229643 22711 layer_factory.hpp:77] Creating layer relu_4b_3x3
I1221 20:43:41.229657 22711 net.cpp:100] Creating Layer relu_4b_3x3
I1221 20:43:41.229677 22711 net.cpp:434] relu_4b_3x3 <- conv_4b_3x3
I1221 20:43:41.229691 22711 net.cpp:395] relu_4b_3x3 -> conv_4b_3x3 (in-place)
I1221 20:43:41.229707 22711 net.cpp:150] Setting up relu_4b_3x3
I1221 20:43:41.229722 22711 net.cpp:157] Top shape: 30 128 14 14 (752640)
I1221 20:43:41.229732 22711 net.cpp:165] Memory required for data: 2916480360
I1221 20:43:41.229743 22711 layer_factory.hpp:77] Creating layer conv_4b_double_3x3_reduce
I1221 20:43:41.229768 22711 net.cpp:100] Creating Layer conv_4b_double_3x3_reduce
I1221 20:43:41.229781 22711 net.cpp:434] conv_4b_double_3x3_reduce <- ch_concat_4a_chconcat_ch_concat_4a_chconcat_0_split_2
I1221 20:43:41.229800 22711 net.cpp:408] conv_4b_double_3x3_reduce -> conv_4b_double_3x3_reduce
I1221 20:43:41.232811 22711 net.cpp:150] Setting up conv_4b_double_3x3_reduce
I1221 20:43:41.232837 22711 net.cpp:157] Top shape: 30 96 14 14 (564480)
I1221 20:43:41.232849 22711 net.cpp:165] Memory required for data: 2918738280
I1221 20:43:41.232864 22711 layer_factory.hpp:77] Creating layer bn_4b_double_3x3_reduce
I1221 20:43:41.232884 22711 net.cpp:100] Creating Layer bn_4b_double_3x3_reduce
I1221 20:43:41.232898 22711 net.cpp:434] bn_4b_double_3x3_reduce <- conv_4b_double_3x3_reduce
I1221 20:43:41.232913 22711 net.cpp:395] bn_4b_double_3x3_reduce -> conv_4b_double_3x3_reduce (in-place)
I1221 20:43:41.233170 22711 net.cpp:150] Setting up bn_4b_double_3x3_reduce
I1221 20:43:41.233197 22711 net.cpp:157] Top shape: 30 96 14 14 (564480)
I1221 20:43:41.233211 22711 net.cpp:165] Memory required for data: 2920996200
I1221 20:43:41.233228 22711 layer_factory.hpp:77] Creating layer scale_conv_4b_double_3x3_reduce
I1221 20:43:41.233244 22711 net.cpp:100] Creating Layer scale_conv_4b_double_3x3_reduce
I1221 20:43:41.233256 22711 net.cpp:434] scale_conv_4b_double_3x3_reduce <- conv_4b_double_3x3_reduce
I1221 20:43:41.233275 22711 net.cpp:395] scale_conv_4b_double_3x3_reduce -> conv_4b_double_3x3_reduce (in-place)
I1221 20:43:41.233340 22711 layer_factory.hpp:77] Creating layer scale_conv_4b_double_3x3_reduce
I1221 20:43:41.233502 22711 net.cpp:150] Setting up scale_conv_4b_double_3x3_reduce
I1221 20:43:41.233523 22711 net.cpp:157] Top shape: 30 96 14 14 (564480)
I1221 20:43:41.233536 22711 net.cpp:165] Memory required for data: 2923254120
I1221 20:43:41.233551 22711 layer_factory.hpp:77] Creating layer relu_4b_double_3x3_reduce
I1221 20:43:41.233566 22711 net.cpp:100] Creating Layer relu_4b_double_3x3_reduce
I1221 20:43:41.233578 22711 net.cpp:434] relu_4b_double_3x3_reduce <- conv_4b_double_3x3_reduce
I1221 20:43:41.233597 22711 net.cpp:395] relu_4b_double_3x3_reduce -> conv_4b_double_3x3_reduce (in-place)
I1221 20:43:41.233613 22711 net.cpp:150] Setting up relu_4b_double_3x3_reduce
I1221 20:43:41.233633 22711 net.cpp:157] Top shape: 30 96 14 14 (564480)
I1221 20:43:41.233644 22711 net.cpp:165] Memory required for data: 2925512040
I1221 20:43:41.233655 22711 layer_factory.hpp:77] Creating layer conv_4b_double_3x3_0
I1221 20:43:41.233675 22711 net.cpp:100] Creating Layer conv_4b_double_3x3_0
I1221 20:43:41.233688 22711 net.cpp:434] conv_4b_double_3x3_0 <- conv_4b_double_3x3_reduce
I1221 20:43:41.233706 22711 net.cpp:408] conv_4b_double_3x3_0 -> conv_4b_double_3x3_0
I1221 20:43:41.234866 22711 net.cpp:150] Setting up conv_4b_double_3x3_0
I1221 20:43:41.234892 22711 net.cpp:157] Top shape: 30 128 14 14 (752640)
I1221 20:43:41.234905 22711 net.cpp:165] Memory required for data: 2928522600
I1221 20:43:41.234920 22711 layer_factory.hpp:77] Creating layer bn_4b_double_3x3_0
I1221 20:43:41.234935 22711 net.cpp:100] Creating Layer bn_4b_double_3x3_0
I1221 20:43:41.234947 22711 net.cpp:434] bn_4b_double_3x3_0 <- conv_4b_double_3x3_0
I1221 20:43:41.234966 22711 net.cpp:395] bn_4b_double_3x3_0 -> conv_4b_double_3x3_0 (in-place)
I1221 20:43:41.235221 22711 net.cpp:150] Setting up bn_4b_double_3x3_0
I1221 20:43:41.235244 22711 net.cpp:157] Top shape: 30 128 14 14 (752640)
I1221 20:43:41.235255 22711 net.cpp:165] Memory required for data: 2931533160
I1221 20:43:41.235272 22711 layer_factory.hpp:77] Creating layer scale_conv_4b_double_3x3_0
I1221 20:43:41.235288 22711 net.cpp:100] Creating Layer scale_conv_4b_double_3x3_0
I1221 20:43:41.235301 22711 net.cpp:434] scale_conv_4b_double_3x3_0 <- conv_4b_double_3x3_0
I1221 20:43:41.235318 22711 net.cpp:395] scale_conv_4b_double_3x3_0 -> conv_4b_double_3x3_0 (in-place)
I1221 20:43:41.235378 22711 layer_factory.hpp:77] Creating layer scale_conv_4b_double_3x3_0
I1221 20:43:41.235532 22711 net.cpp:150] Setting up scale_conv_4b_double_3x3_0
I1221 20:43:41.235555 22711 net.cpp:157] Top shape: 30 128 14 14 (752640)
I1221 20:43:41.235568 22711 net.cpp:165] Memory required for data: 2934543720
I1221 20:43:41.235584 22711 layer_factory.hpp:77] Creating layer relu_4b_double_3x3_0
I1221 20:43:41.235607 22711 net.cpp:100] Creating Layer relu_4b_double_3x3_0
I1221 20:43:41.235620 22711 net.cpp:434] relu_4b_double_3x3_0 <- conv_4b_double_3x3_0
I1221 20:43:41.235635 22711 net.cpp:395] relu_4b_double_3x3_0 -> conv_4b_double_3x3_0 (in-place)
I1221 20:43:41.235651 22711 net.cpp:150] Setting up relu_4b_double_3x3_0
I1221 20:43:41.235666 22711 net.cpp:157] Top shape: 30 128 14 14 (752640)
I1221 20:43:41.235677 22711 net.cpp:165] Memory required for data: 2937554280
I1221 20:43:41.235687 22711 layer_factory.hpp:77] Creating layer conv_4b_double_3x3_1
I1221 20:43:41.235716 22711 net.cpp:100] Creating Layer conv_4b_double_3x3_1
I1221 20:43:41.235729 22711 net.cpp:434] conv_4b_double_3x3_1 <- conv_4b_double_3x3_0
I1221 20:43:41.235749 22711 net.cpp:408] conv_4b_double_3x3_1 -> conv_4b_double_3x3_1
I1221 20:43:41.236160 22711 net.cpp:150] Setting up conv_4b_double_3x3_1
I1221 20:43:41.236186 22711 net.cpp:157] Top shape: 30 128 14 14 (752640)
I1221 20:43:41.236199 22711 net.cpp:165] Memory required for data: 2940564840
I1221 20:43:41.236214 22711 layer_factory.hpp:77] Creating layer bn_4b_double_3x3_1
I1221 20:43:41.236235 22711 net.cpp:100] Creating Layer bn_4b_double_3x3_1
I1221 20:43:41.236249 22711 net.cpp:434] bn_4b_double_3x3_1 <- conv_4b_double_3x3_1
I1221 20:43:41.236266 22711 net.cpp:395] bn_4b_double_3x3_1 -> conv_4b_double_3x3_1 (in-place)
I1221 20:43:41.236508 22711 net.cpp:150] Setting up bn_4b_double_3x3_1
I1221 20:43:41.236529 22711 net.cpp:157] Top shape: 30 128 14 14 (752640)
I1221 20:43:41.236541 22711 net.cpp:165] Memory required for data: 2943575400
I1221 20:43:41.236558 22711 layer_factory.hpp:77] Creating layer scale_conv_4b_double_3x3_1
I1221 20:43:41.236577 22711 net.cpp:100] Creating Layer scale_conv_4b_double_3x3_1
I1221 20:43:41.236591 22711 net.cpp:434] scale_conv_4b_double_3x3_1 <- conv_4b_double_3x3_1
I1221 20:43:41.236605 22711 net.cpp:395] scale_conv_4b_double_3x3_1 -> conv_4b_double_3x3_1 (in-place)
I1221 20:43:41.236668 22711 layer_factory.hpp:77] Creating layer scale_conv_4b_double_3x3_1
I1221 20:43:41.236835 22711 net.cpp:150] Setting up scale_conv_4b_double_3x3_1
I1221 20:43:41.236856 22711 net.cpp:157] Top shape: 30 128 14 14 (752640)
I1221 20:43:41.236868 22711 net.cpp:165] Memory required for data: 2946585960
I1221 20:43:41.236884 22711 layer_factory.hpp:77] Creating layer relu_4b_double_3x3_1
I1221 20:43:41.236898 22711 net.cpp:100] Creating Layer relu_4b_double_3x3_1
I1221 20:43:41.236910 22711 net.cpp:434] relu_4b_double_3x3_1 <- conv_4b_double_3x3_1
I1221 20:43:41.236927 22711 net.cpp:395] relu_4b_double_3x3_1 -> conv_4b_double_3x3_1 (in-place)
I1221 20:43:41.236944 22711 net.cpp:150] Setting up relu_4b_double_3x3_1
I1221 20:43:41.236958 22711 net.cpp:157] Top shape: 30 128 14 14 (752640)
I1221 20:43:41.236969 22711 net.cpp:165] Memory required for data: 2949596520
I1221 20:43:41.236980 22711 layer_factory.hpp:77] Creating layer ave_pool_4b_pool
I1221 20:43:41.236995 22711 net.cpp:100] Creating Layer ave_pool_4b_pool
I1221 20:43:41.237009 22711 net.cpp:434] ave_pool_4b_pool <- ch_concat_4a_chconcat_ch_concat_4a_chconcat_0_split_3
I1221 20:43:41.237028 22711 net.cpp:408] ave_pool_4b_pool -> ave_pool_4b_pool
I1221 20:43:41.237071 22711 net.cpp:150] Setting up ave_pool_4b_pool
I1221 20:43:41.237095 22711 net.cpp:157] Top shape: 30 576 14 14 (3386880)
I1221 20:43:41.237107 22711 net.cpp:165] Memory required for data: 2963144040
I1221 20:43:41.237118 22711 layer_factory.hpp:77] Creating layer conv_4b_proj
I1221 20:43:41.237138 22711 net.cpp:100] Creating Layer conv_4b_proj
I1221 20:43:41.237151 22711 net.cpp:434] conv_4b_proj <- ave_pool_4b_pool
I1221 20:43:41.237166 22711 net.cpp:408] conv_4b_proj -> conv_4b_proj
I1221 20:43:41.237530 22711 net.cpp:150] Setting up conv_4b_proj
I1221 20:43:41.237553 22711 net.cpp:157] Top shape: 30 128 14 14 (752640)
I1221 20:43:41.237565 22711 net.cpp:165] Memory required for data: 2966154600
I1221 20:43:41.237581 22711 layer_factory.hpp:77] Creating layer bn_4b_proj
I1221 20:43:41.237596 22711 net.cpp:100] Creating Layer bn_4b_proj
I1221 20:43:41.237617 22711 net.cpp:434] bn_4b_proj <- conv_4b_proj
I1221 20:43:41.237640 22711 net.cpp:395] bn_4b_proj -> conv_4b_proj (in-place)
I1221 20:43:41.237880 22711 net.cpp:150] Setting up bn_4b_proj
I1221 20:43:41.237901 22711 net.cpp:157] Top shape: 30 128 14 14 (752640)
I1221 20:43:41.237913 22711 net.cpp:165] Memory required for data: 2969165160
I1221 20:43:41.237931 22711 layer_factory.hpp:77] Creating layer scale_conv_4b_proj
I1221 20:43:41.237949 22711 net.cpp:100] Creating Layer scale_conv_4b_proj
I1221 20:43:41.237962 22711 net.cpp:434] scale_conv_4b_proj <- conv_4b_proj
I1221 20:43:41.237977 22711 net.cpp:395] scale_conv_4b_proj -> conv_4b_proj (in-place)
I1221 20:43:41.238039 22711 layer_factory.hpp:77] Creating layer scale_conv_4b_proj
I1221 20:43:41.238234 22711 net.cpp:150] Setting up scale_conv_4b_proj
I1221 20:43:41.238256 22711 net.cpp:157] Top shape: 30 128 14 14 (752640)
I1221 20:43:41.238268 22711 net.cpp:165] Memory required for data: 2972175720
I1221 20:43:41.238292 22711 layer_factory.hpp:77] Creating layer relu_4b_proj
I1221 20:43:41.238306 22711 net.cpp:100] Creating Layer relu_4b_proj
I1221 20:43:41.238319 22711 net.cpp:434] relu_4b_proj <- conv_4b_proj
I1221 20:43:41.238337 22711 net.cpp:395] relu_4b_proj -> conv_4b_proj (in-place)
I1221 20:43:41.238353 22711 net.cpp:150] Setting up relu_4b_proj
I1221 20:43:41.238368 22711 net.cpp:157] Top shape: 30 128 14 14 (752640)
I1221 20:43:41.238379 22711 net.cpp:165] Memory required for data: 2975186280
I1221 20:43:41.238391 22711 layer_factory.hpp:77] Creating layer ch_concat_4b_chconcat
I1221 20:43:41.238405 22711 net.cpp:100] Creating Layer ch_concat_4b_chconcat
I1221 20:43:41.238417 22711 net.cpp:434] ch_concat_4b_chconcat <- conv_4b_1x1
I1221 20:43:41.238430 22711 net.cpp:434] ch_concat_4b_chconcat <- conv_4b_3x3
I1221 20:43:41.238442 22711 net.cpp:434] ch_concat_4b_chconcat <- conv_4b_double_3x3_1
I1221 20:43:41.238456 22711 net.cpp:434] ch_concat_4b_chconcat <- conv_4b_proj
I1221 20:43:41.238473 22711 net.cpp:408] ch_concat_4b_chconcat -> ch_concat_4b_chconcat
I1221 20:43:41.238517 22711 net.cpp:150] Setting up ch_concat_4b_chconcat
I1221 20:43:41.238536 22711 net.cpp:157] Top shape: 30 576 14 14 (3386880)
I1221 20:43:41.238548 22711 net.cpp:165] Memory required for data: 2988733800
I1221 20:43:41.238559 22711 layer_factory.hpp:77] Creating layer ch_concat_4b_chconcat_ch_concat_4b_chconcat_0_split
I1221 20:43:41.238579 22711 net.cpp:100] Creating Layer ch_concat_4b_chconcat_ch_concat_4b_chconcat_0_split
I1221 20:43:41.238592 22711 net.cpp:434] ch_concat_4b_chconcat_ch_concat_4b_chconcat_0_split <- ch_concat_4b_chconcat
I1221 20:43:41.238610 22711 net.cpp:408] ch_concat_4b_chconcat_ch_concat_4b_chconcat_0_split -> ch_concat_4b_chconcat_ch_concat_4b_chconcat_0_split_0
I1221 20:43:41.238628 22711 net.cpp:408] ch_concat_4b_chconcat_ch_concat_4b_chconcat_0_split -> ch_concat_4b_chconcat_ch_concat_4b_chconcat_0_split_1
I1221 20:43:41.238646 22711 net.cpp:408] ch_concat_4b_chconcat_ch_concat_4b_chconcat_0_split -> ch_concat_4b_chconcat_ch_concat_4b_chconcat_0_split_2
I1221 20:43:41.238664 22711 net.cpp:408] ch_concat_4b_chconcat_ch_concat_4b_chconcat_0_split -> ch_concat_4b_chconcat_ch_concat_4b_chconcat_0_split_3
I1221 20:43:41.238744 22711 net.cpp:150] Setting up ch_concat_4b_chconcat_ch_concat_4b_chconcat_0_split
I1221 20:43:41.238765 22711 net.cpp:157] Top shape: 30 576 14 14 (3386880)
I1221 20:43:41.238777 22711 net.cpp:157] Top shape: 30 576 14 14 (3386880)
I1221 20:43:41.238790 22711 net.cpp:157] Top shape: 30 576 14 14 (3386880)
I1221 20:43:41.238803 22711 net.cpp:157] Top shape: 30 576 14 14 (3386880)
I1221 20:43:41.238813 22711 net.cpp:165] Memory required for data: 3042923880
I1221 20:43:41.238824 22711 layer_factory.hpp:77] Creating layer conv_4c_1x1
I1221 20:43:41.238845 22711 net.cpp:100] Creating Layer conv_4c_1x1
I1221 20:43:41.238858 22711 net.cpp:434] conv_4c_1x1 <- ch_concat_4b_chconcat_ch_concat_4b_chconcat_0_split_0
I1221 20:43:41.238873 22711 net.cpp:408] conv_4c_1x1 -> conv_4c_1x1
I1221 20:43:41.240020 22711 net.cpp:150] Setting up conv_4c_1x1
I1221 20:43:41.240053 22711 net.cpp:157] Top shape: 30 160 14 14 (940800)
I1221 20:43:41.240066 22711 net.cpp:165] Memory required for data: 3046687080
I1221 20:43:41.240082 22711 layer_factory.hpp:77] Creating layer bn_4c_1x1
I1221 20:43:41.240100 22711 net.cpp:100] Creating Layer bn_4c_1x1
I1221 20:43:41.240113 22711 net.cpp:434] bn_4c_1x1 <- conv_4c_1x1
I1221 20:43:41.240128 22711 net.cpp:395] bn_4c_1x1 -> conv_4c_1x1 (in-place)
I1221 20:43:41.240393 22711 net.cpp:150] Setting up bn_4c_1x1
I1221 20:43:41.240416 22711 net.cpp:157] Top shape: 30 160 14 14 (940800)
I1221 20:43:41.240427 22711 net.cpp:165] Memory required for data: 3050450280
I1221 20:43:41.240489 22711 layer_factory.hpp:77] Creating layer scale_conv_4c_1x1
I1221 20:43:41.240509 22711 net.cpp:100] Creating Layer scale_conv_4c_1x1
I1221 20:43:41.240522 22711 net.cpp:434] scale_conv_4c_1x1 <- conv_4c_1x1
I1221 20:43:41.240536 22711 net.cpp:395] scale_conv_4c_1x1 -> conv_4c_1x1 (in-place)
I1221 20:43:41.240598 22711 layer_factory.hpp:77] Creating layer scale_conv_4c_1x1
I1221 20:43:41.240766 22711 net.cpp:150] Setting up scale_conv_4c_1x1
I1221 20:43:41.240789 22711 net.cpp:157] Top shape: 30 160 14 14 (940800)
I1221 20:43:41.240802 22711 net.cpp:165] Memory required for data: 3054213480
I1221 20:43:41.240818 22711 layer_factory.hpp:77] Creating layer relu_4c_1x1
I1221 20:43:41.240831 22711 net.cpp:100] Creating Layer relu_4c_1x1
I1221 20:43:41.240844 22711 net.cpp:434] relu_4c_1x1 <- conv_4c_1x1
I1221 20:43:41.240870 22711 net.cpp:395] relu_4c_1x1 -> conv_4c_1x1 (in-place)
I1221 20:43:41.240887 22711 net.cpp:150] Setting up relu_4c_1x1
I1221 20:43:41.240901 22711 net.cpp:157] Top shape: 30 160 14 14 (940800)
I1221 20:43:41.240912 22711 net.cpp:165] Memory required for data: 3057976680
I1221 20:43:41.240923 22711 layer_factory.hpp:77] Creating layer conv_4c_3x3_reduce
I1221 20:43:41.240941 22711 net.cpp:100] Creating Layer conv_4c_3x3_reduce
I1221 20:43:41.240960 22711 net.cpp:434] conv_4c_3x3_reduce <- ch_concat_4b_chconcat_ch_concat_4b_chconcat_0_split_1
I1221 20:43:41.240978 22711 net.cpp:408] conv_4c_3x3_reduce -> conv_4c_3x3_reduce
I1221 20:43:41.241340 22711 net.cpp:150] Setting up conv_4c_3x3_reduce
I1221 20:43:41.241364 22711 net.cpp:157] Top shape: 30 128 14 14 (752640)
I1221 20:43:41.241377 22711 net.cpp:165] Memory required for data: 3060987240
I1221 20:43:41.241394 22711 layer_factory.hpp:77] Creating layer bn_4c_3x3_reduce
I1221 20:43:41.241408 22711 net.cpp:100] Creating Layer bn_4c_3x3_reduce
I1221 20:43:41.241425 22711 net.cpp:434] bn_4c_3x3_reduce <- conv_4c_3x3_reduce
I1221 20:43:41.241441 22711 net.cpp:395] bn_4c_3x3_reduce -> conv_4c_3x3_reduce (in-place)
I1221 20:43:41.241688 22711 net.cpp:150] Setting up bn_4c_3x3_reduce
I1221 20:43:41.241711 22711 net.cpp:157] Top shape: 30 128 14 14 (752640)
I1221 20:43:41.241724 22711 net.cpp:165] Memory required for data: 3063997800
I1221 20:43:41.241740 22711 layer_factory.hpp:77] Creating layer scale_conv_4c_3x3_reduce
I1221 20:43:41.241760 22711 net.cpp:100] Creating Layer scale_conv_4c_3x3_reduce
I1221 20:43:41.241773 22711 net.cpp:434] scale_conv_4c_3x3_reduce <- conv_4c_3x3_reduce
I1221 20:43:41.241787 22711 net.cpp:395] scale_conv_4c_3x3_reduce -> conv_4c_3x3_reduce (in-place)
I1221 20:43:41.241852 22711 layer_factory.hpp:77] Creating layer scale_conv_4c_3x3_reduce
I1221 20:43:41.242020 22711 net.cpp:150] Setting up scale_conv_4c_3x3_reduce
I1221 20:43:41.242044 22711 net.cpp:157] Top shape: 30 128 14 14 (752640)
I1221 20:43:41.242056 22711 net.cpp:165] Memory required for data: 3067008360
I1221 20:43:41.242071 22711 layer_factory.hpp:77] Creating layer relu_4c_3x3_reduce
I1221 20:43:41.242090 22711 net.cpp:100] Creating Layer relu_4c_3x3_reduce
I1221 20:43:41.242103 22711 net.cpp:434] relu_4c_3x3_reduce <- conv_4c_3x3_reduce
I1221 20:43:41.242118 22711 net.cpp:395] relu_4c_3x3_reduce -> conv_4c_3x3_reduce (in-place)
I1221 20:43:41.242133 22711 net.cpp:150] Setting up relu_4c_3x3_reduce
I1221 20:43:41.242157 22711 net.cpp:157] Top shape: 30 128 14 14 (752640)
I1221 20:43:41.242169 22711 net.cpp:165] Memory required for data: 3070018920
I1221 20:43:41.242197 22711 layer_factory.hpp:77] Creating layer conv_4c_3x3
I1221 20:43:41.242219 22711 net.cpp:100] Creating Layer conv_4c_3x3
I1221 20:43:41.242233 22711 net.cpp:434] conv_4c_3x3 <- conv_4c_3x3_reduce
I1221 20:43:41.242247 22711 net.cpp:408] conv_4c_3x3 -> conv_4c_3x3
I1221 20:43:41.243443 22711 net.cpp:150] Setting up conv_4c_3x3
I1221 20:43:41.243469 22711 net.cpp:157] Top shape: 30 160 14 14 (940800)
I1221 20:43:41.243481 22711 net.cpp:165] Memory required for data: 3073782120
I1221 20:43:41.243496 22711 layer_factory.hpp:77] Creating layer bn_4c_3x3
I1221 20:43:41.243516 22711 net.cpp:100] Creating Layer bn_4c_3x3
I1221 20:43:41.243530 22711 net.cpp:434] bn_4c_3x3 <- conv_4c_3x3
I1221 20:43:41.243548 22711 net.cpp:395] bn_4c_3x3 -> conv_4c_3x3 (in-place)
I1221 20:43:41.243805 22711 net.cpp:150] Setting up bn_4c_3x3
I1221 20:43:41.243832 22711 net.cpp:157] Top shape: 30 160 14 14 (940800)
I1221 20:43:41.243845 22711 net.cpp:165] Memory required for data: 3077545320
I1221 20:43:41.243870 22711 layer_factory.hpp:77] Creating layer scale_conv_4c_3x3
I1221 20:43:41.243888 22711 net.cpp:100] Creating Layer scale_conv_4c_3x3
I1221 20:43:41.243901 22711 net.cpp:434] scale_conv_4c_3x3 <- conv_4c_3x3
I1221 20:43:41.243914 22711 net.cpp:395] scale_conv_4c_3x3 -> conv_4c_3x3 (in-place)
I1221 20:43:41.243980 22711 layer_factory.hpp:77] Creating layer scale_conv_4c_3x3
I1221 20:43:41.244148 22711 net.cpp:150] Setting up scale_conv_4c_3x3
I1221 20:43:41.244170 22711 net.cpp:157] Top shape: 30 160 14 14 (940800)
I1221 20:43:41.244187 22711 net.cpp:165] Memory required for data: 3081308520
I1221 20:43:41.244204 22711 layer_factory.hpp:77] Creating layer relu_4c_3x3
I1221 20:43:41.244218 22711 net.cpp:100] Creating Layer relu_4c_3x3
I1221 20:43:41.244230 22711 net.cpp:434] relu_4c_3x3 <- conv_4c_3x3
I1221 20:43:41.244247 22711 net.cpp:395] relu_4c_3x3 -> conv_4c_3x3 (in-place)
I1221 20:43:41.244264 22711 net.cpp:150] Setting up relu_4c_3x3
I1221 20:43:41.244278 22711 net.cpp:157] Top shape: 30 160 14 14 (940800)
I1221 20:43:41.244289 22711 net.cpp:165] Memory required for data: 3085071720
I1221 20:43:41.244300 22711 layer_factory.hpp:77] Creating layer conv_4c_double_3x3_reduce
I1221 20:43:41.244318 22711 net.cpp:100] Creating Layer conv_4c_double_3x3_reduce
I1221 20:43:41.244329 22711 net.cpp:434] conv_4c_double_3x3_reduce <- ch_concat_4b_chconcat_ch_concat_4b_chconcat_0_split_2
I1221 20:43:41.244349 22711 net.cpp:408] conv_4c_double_3x3_reduce -> conv_4c_double_3x3_reduce
I1221 20:43:41.244696 22711 net.cpp:150] Setting up conv_4c_double_3x3_reduce
I1221 20:43:41.244721 22711 net.cpp:157] Top shape: 30 128 14 14 (752640)
I1221 20:43:41.244734 22711 net.cpp:165] Memory required for data: 3088082280
I1221 20:43:41.244748 22711 layer_factory.hpp:77] Creating layer bn_4c_double_3x3_reduce
I1221 20:43:41.244763 22711 net.cpp:100] Creating Layer bn_4c_double_3x3_reduce
I1221 20:43:41.244776 22711 net.cpp:434] bn_4c_double_3x3_reduce <- conv_4c_double_3x3_reduce
I1221 20:43:41.244796 22711 net.cpp:395] bn_4c_double_3x3_reduce -> conv_4c_double_3x3_reduce (in-place)
I1221 20:43:41.245056 22711 net.cpp:150] Setting up bn_4c_double_3x3_reduce
I1221 20:43:41.245080 22711 net.cpp:157] Top shape: 30 128 14 14 (752640)
I1221 20:43:41.245092 22711 net.cpp:165] Memory required for data: 3091092840
I1221 20:43:41.245110 22711 layer_factory.hpp:77] Creating layer scale_conv_4c_double_3x3_reduce
I1221 20:43:41.245126 22711 net.cpp:100] Creating Layer scale_conv_4c_double_3x3_reduce
I1221 20:43:41.245137 22711 net.cpp:434] scale_conv_4c_double_3x3_reduce <- conv_4c_double_3x3_reduce
I1221 20:43:41.245157 22711 net.cpp:395] scale_conv_4c_double_3x3_reduce -> conv_4c_double_3x3_reduce (in-place)
I1221 20:43:41.245226 22711 layer_factory.hpp:77] Creating layer scale_conv_4c_double_3x3_reduce
I1221 20:43:41.245381 22711 net.cpp:150] Setting up scale_conv_4c_double_3x3_reduce
I1221 20:43:41.245406 22711 net.cpp:157] Top shape: 30 128 14 14 (752640)
I1221 20:43:41.245419 22711 net.cpp:165] Memory required for data: 3094103400
I1221 20:43:41.245445 22711 layer_factory.hpp:77] Creating layer relu_4c_double_3x3_reduce
I1221 20:43:41.245460 22711 net.cpp:100] Creating Layer relu_4c_double_3x3_reduce
I1221 20:43:41.245472 22711 net.cpp:434] relu_4c_double_3x3_reduce <- conv_4c_double_3x3_reduce
I1221 20:43:41.245489 22711 net.cpp:395] relu_4c_double_3x3_reduce -> conv_4c_double_3x3_reduce (in-place)
I1221 20:43:41.245506 22711 net.cpp:150] Setting up relu_4c_double_3x3_reduce
I1221 20:43:41.245520 22711 net.cpp:157] Top shape: 30 128 14 14 (752640)
I1221 20:43:41.245532 22711 net.cpp:165] Memory required for data: 3097113960
I1221 20:43:41.245542 22711 layer_factory.hpp:77] Creating layer conv_4c_double_3x3_0
I1221 20:43:41.245563 22711 net.cpp:100] Creating Layer conv_4c_double_3x3_0
I1221 20:43:41.245575 22711 net.cpp:434] conv_4c_double_3x3_0 <- conv_4c_double_3x3_reduce
I1221 20:43:41.245596 22711 net.cpp:408] conv_4c_double_3x3_0 -> conv_4c_double_3x3_0
I1221 20:43:41.246829 22711 net.cpp:150] Setting up conv_4c_double_3x3_0
I1221 20:43:41.246856 22711 net.cpp:157] Top shape: 30 160 14 14 (940800)
I1221 20:43:41.246868 22711 net.cpp:165] Memory required for data: 3100877160
I1221 20:43:41.246883 22711 layer_factory.hpp:77] Creating layer bn_4c_double_3x3_0
I1221 20:43:41.246899 22711 net.cpp:100] Creating Layer bn_4c_double_3x3_0
I1221 20:43:41.246912 22711 net.cpp:434] bn_4c_double_3x3_0 <- conv_4c_double_3x3_0
I1221 20:43:41.246930 22711 net.cpp:395] bn_4c_double_3x3_0 -> conv_4c_double_3x3_0 (in-place)
I1221 20:43:41.247206 22711 net.cpp:150] Setting up bn_4c_double_3x3_0
I1221 20:43:41.247231 22711 net.cpp:157] Top shape: 30 160 14 14 (940800)
I1221 20:43:41.247242 22711 net.cpp:165] Memory required for data: 3104640360
I1221 20:43:41.247259 22711 layer_factory.hpp:77] Creating layer scale_conv_4c_double_3x3_0
I1221 20:43:41.247274 22711 net.cpp:100] Creating Layer scale_conv_4c_double_3x3_0
I1221 20:43:41.247287 22711 net.cpp:434] scale_conv_4c_double_3x3_0 <- conv_4c_double_3x3_0
I1221 20:43:41.247305 22711 net.cpp:395] scale_conv_4c_double_3x3_0 -> conv_4c_double_3x3_0 (in-place)
I1221 20:43:41.247372 22711 layer_factory.hpp:77] Creating layer scale_conv_4c_double_3x3_0
I1221 20:43:41.247545 22711 net.cpp:150] Setting up scale_conv_4c_double_3x3_0
I1221 20:43:41.247568 22711 net.cpp:157] Top shape: 30 160 14 14 (940800)
I1221 20:43:41.247581 22711 net.cpp:165] Memory required for data: 3108403560
I1221 20:43:41.247596 22711 layer_factory.hpp:77] Creating layer relu_4c_double_3x3_0
I1221 20:43:41.247614 22711 net.cpp:100] Creating Layer relu_4c_double_3x3_0
I1221 20:43:41.247627 22711 net.cpp:434] relu_4c_double_3x3_0 <- conv_4c_double_3x3_0
I1221 20:43:41.247642 22711 net.cpp:395] relu_4c_double_3x3_0 -> conv_4c_double_3x3_0 (in-place)
I1221 20:43:41.247658 22711 net.cpp:150] Setting up relu_4c_double_3x3_0
I1221 20:43:41.247673 22711 net.cpp:157] Top shape: 30 160 14 14 (940800)
I1221 20:43:41.247689 22711 net.cpp:165] Memory required for data: 3112166760
I1221 20:43:41.247704 22711 layer_factory.hpp:77] Creating layer conv_4c_double_3x3_1
I1221 20:43:41.247723 22711 net.cpp:100] Creating Layer conv_4c_double_3x3_1
I1221 20:43:41.247736 22711 net.cpp:434] conv_4c_double_3x3_1 <- conv_4c_double_3x3_0
I1221 20:43:41.247756 22711 net.cpp:408] conv_4c_double_3x3_1 -> conv_4c_double_3x3_1
I1221 20:43:41.249071 22711 net.cpp:150] Setting up conv_4c_double_3x3_1
I1221 20:43:41.249099 22711 net.cpp:157] Top shape: 30 160 14 14 (940800)
I1221 20:43:41.249112 22711 net.cpp:165] Memory required for data: 3115929960
I1221 20:43:41.249127 22711 layer_factory.hpp:77] Creating layer bn_4c_double_3x3_1
I1221 20:43:41.249147 22711 net.cpp:100] Creating Layer bn_4c_double_3x3_1
I1221 20:43:41.249161 22711 net.cpp:434] bn_4c_double_3x3_1 <- conv_4c_double_3x3_1
I1221 20:43:41.249179 22711 net.cpp:395] bn_4c_double_3x3_1 -> conv_4c_double_3x3_1 (in-place)
I1221 20:43:41.249440 22711 net.cpp:150] Setting up bn_4c_double_3x3_1
I1221 20:43:41.249462 22711 net.cpp:157] Top shape: 30 160 14 14 (940800)
I1221 20:43:41.249486 22711 net.cpp:165] Memory required for data: 3119693160
I1221 20:43:41.249505 22711 layer_factory.hpp:77] Creating layer scale_conv_4c_double_3x3_1
I1221 20:43:41.249521 22711 net.cpp:100] Creating Layer scale_conv_4c_double_3x3_1
I1221 20:43:41.249533 22711 net.cpp:434] scale_conv_4c_double_3x3_1 <- conv_4c_double_3x3_1
I1221 20:43:41.249547 22711 net.cpp:395] scale_conv_4c_double_3x3_1 -> conv_4c_double_3x3_1 (in-place)
I1221 20:43:41.249620 22711 layer_factory.hpp:77] Creating layer scale_conv_4c_double_3x3_1
I1221 20:43:41.249784 22711 net.cpp:150] Setting up scale_conv_4c_double_3x3_1
I1221 20:43:41.249805 22711 net.cpp:157] Top shape: 30 160 14 14 (940800)
I1221 20:43:41.249817 22711 net.cpp:165] Memory required for data: 3123456360
I1221 20:43:41.249832 22711 layer_factory.hpp:77] Creating layer relu_4c_double_3x3_1
I1221 20:43:41.249851 22711 net.cpp:100] Creating Layer relu_4c_double_3x3_1
I1221 20:43:41.249871 22711 net.cpp:434] relu_4c_double_3x3_1 <- conv_4c_double_3x3_1
I1221 20:43:41.249884 22711 net.cpp:395] relu_4c_double_3x3_1 -> conv_4c_double_3x3_1 (in-place)
I1221 20:43:41.249900 22711 net.cpp:150] Setting up relu_4c_double_3x3_1
I1221 20:43:41.249914 22711 net.cpp:157] Top shape: 30 160 14 14 (940800)
I1221 20:43:41.249925 22711 net.cpp:165] Memory required for data: 3127219560
I1221 20:43:41.249936 22711 layer_factory.hpp:77] Creating layer ave_pool_4c_pool
I1221 20:43:41.249956 22711 net.cpp:100] Creating Layer ave_pool_4c_pool
I1221 20:43:41.249974 22711 net.cpp:434] ave_pool_4c_pool <- ch_concat_4b_chconcat_ch_concat_4b_chconcat_0_split_3
I1221 20:43:41.249989 22711 net.cpp:408] ave_pool_4c_pool -> ave_pool_4c_pool
I1221 20:43:41.250033 22711 net.cpp:150] Setting up ave_pool_4c_pool
I1221 20:43:41.250052 22711 net.cpp:157] Top shape: 30 576 14 14 (3386880)
I1221 20:43:41.250064 22711 net.cpp:165] Memory required for data: 3140767080
I1221 20:43:41.250075 22711 layer_factory.hpp:77] Creating layer conv_4c_proj
I1221 20:43:41.250097 22711 net.cpp:100] Creating Layer conv_4c_proj
I1221 20:43:41.250109 22711 net.cpp:434] conv_4c_proj <- ave_pool_4c_pool
I1221 20:43:41.250125 22711 net.cpp:408] conv_4c_proj -> conv_4c_proj
I1221 20:43:41.250533 22711 net.cpp:150] Setting up conv_4c_proj
I1221 20:43:41.250557 22711 net.cpp:157] Top shape: 30 128 14 14 (752640)
I1221 20:43:41.250569 22711 net.cpp:165] Memory required for data: 3143777640
I1221 20:43:41.250584 22711 layer_factory.hpp:77] Creating layer bn_4c_proj
I1221 20:43:41.250603 22711 net.cpp:100] Creating Layer bn_4c_proj
I1221 20:43:41.250617 22711 net.cpp:434] bn_4c_proj <- conv_4c_proj
I1221 20:43:41.250632 22711 net.cpp:395] bn_4c_proj -> conv_4c_proj (in-place)
I1221 20:43:41.250913 22711 net.cpp:150] Setting up bn_4c_proj
I1221 20:43:41.250938 22711 net.cpp:157] Top shape: 30 128 14 14 (752640)
I1221 20:43:41.250952 22711 net.cpp:165] Memory required for data: 3146788200
I1221 20:43:41.250968 22711 layer_factory.hpp:77] Creating layer scale_conv_4c_proj
I1221 20:43:41.250984 22711 net.cpp:100] Creating Layer scale_conv_4c_proj
I1221 20:43:41.250996 22711 net.cpp:434] scale_conv_4c_proj <- conv_4c_proj
I1221 20:43:41.251014 22711 net.cpp:395] scale_conv_4c_proj -> conv_4c_proj (in-place)
I1221 20:43:41.251099 22711 layer_factory.hpp:77] Creating layer scale_conv_4c_proj
I1221 20:43:41.251339 22711 net.cpp:150] Setting up scale_conv_4c_proj
I1221 20:43:41.251376 22711 net.cpp:157] Top shape: 30 128 14 14 (752640)
I1221 20:43:41.251395 22711 net.cpp:165] Memory required for data: 3149798760
I1221 20:43:41.251420 22711 layer_factory.hpp:77] Creating layer relu_4c_proj
I1221 20:43:41.251441 22711 net.cpp:100] Creating Layer relu_4c_proj
I1221 20:43:41.251461 22711 net.cpp:434] relu_4c_proj <- conv_4c_proj
I1221 20:43:41.251482 22711 net.cpp:395] relu_4c_proj -> conv_4c_proj (in-place)
I1221 20:43:41.251504 22711 net.cpp:150] Setting up relu_4c_proj
I1221 20:43:41.251526 22711 net.cpp:157] Top shape: 30 128 14 14 (752640)
I1221 20:43:41.251543 22711 net.cpp:165] Memory required for data: 3152809320
I1221 20:43:41.251561 22711 layer_factory.hpp:77] Creating layer ch_concat_4c_chconcat
I1221 20:43:41.251595 22711 net.cpp:100] Creating Layer ch_concat_4c_chconcat
I1221 20:43:41.251610 22711 net.cpp:434] ch_concat_4c_chconcat <- conv_4c_1x1
I1221 20:43:41.251628 22711 net.cpp:434] ch_concat_4c_chconcat <- conv_4c_3x3
I1221 20:43:41.251642 22711 net.cpp:434] ch_concat_4c_chconcat <- conv_4c_double_3x3_1
I1221 20:43:41.251655 22711 net.cpp:434] ch_concat_4c_chconcat <- conv_4c_proj
I1221 20:43:41.251670 22711 net.cpp:408] ch_concat_4c_chconcat -> ch_concat_4c_chconcat
I1221 20:43:41.251719 22711 net.cpp:150] Setting up ch_concat_4c_chconcat
I1221 20:43:41.251739 22711 net.cpp:157] Top shape: 30 608 14 14 (3575040)
I1221 20:43:41.251750 22711 net.cpp:165] Memory required for data: 3167109480
I1221 20:43:41.251761 22711 layer_factory.hpp:77] Creating layer ch_concat_4c_chconcat_ch_concat_4c_chconcat_0_split
I1221 20:43:41.251776 22711 net.cpp:100] Creating Layer ch_concat_4c_chconcat_ch_concat_4c_chconcat_0_split
I1221 20:43:41.251788 22711 net.cpp:434] ch_concat_4c_chconcat_ch_concat_4c_chconcat_0_split <- ch_concat_4c_chconcat
I1221 20:43:41.251811 22711 net.cpp:408] ch_concat_4c_chconcat_ch_concat_4c_chconcat_0_split -> ch_concat_4c_chconcat_ch_concat_4c_chconcat_0_split_0
I1221 20:43:41.251832 22711 net.cpp:408] ch_concat_4c_chconcat_ch_concat_4c_chconcat_0_split -> ch_concat_4c_chconcat_ch_concat_4c_chconcat_0_split_1
I1221 20:43:41.251850 22711 net.cpp:408] ch_concat_4c_chconcat_ch_concat_4c_chconcat_0_split -> ch_concat_4c_chconcat_ch_concat_4c_chconcat_0_split_2
I1221 20:43:41.251868 22711 net.cpp:408] ch_concat_4c_chconcat_ch_concat_4c_chconcat_0_split -> ch_concat_4c_chconcat_ch_concat_4c_chconcat_0_split_3
I1221 20:43:41.251953 22711 net.cpp:150] Setting up ch_concat_4c_chconcat_ch_concat_4c_chconcat_0_split
I1221 20:43:41.251973 22711 net.cpp:157] Top shape: 30 608 14 14 (3575040)
I1221 20:43:41.251991 22711 net.cpp:157] Top shape: 30 608 14 14 (3575040)
I1221 20:43:41.252002 22711 net.cpp:157] Top shape: 30 608 14 14 (3575040)
I1221 20:43:41.252015 22711 net.cpp:157] Top shape: 30 608 14 14 (3575040)
I1221 20:43:41.252027 22711 net.cpp:165] Memory required for data: 3224310120
I1221 20:43:41.252043 22711 layer_factory.hpp:77] Creating layer conv_4d_1x1
I1221 20:43:41.252064 22711 net.cpp:100] Creating Layer conv_4d_1x1
I1221 20:43:41.252077 22711 net.cpp:434] conv_4d_1x1 <- ch_concat_4c_chconcat_ch_concat_4c_chconcat_0_split_0
I1221 20:43:41.252097 22711 net.cpp:408] conv_4d_1x1 -> conv_4d_1x1
I1221 20:43:41.252478 22711 net.cpp:150] Setting up conv_4d_1x1
I1221 20:43:41.252501 22711 net.cpp:157] Top shape: 30 96 14 14 (564480)
I1221 20:43:41.252512 22711 net.cpp:165] Memory required for data: 3226568040
I1221 20:43:41.252527 22711 layer_factory.hpp:77] Creating layer bn_4d_1x1
I1221 20:43:41.252542 22711 net.cpp:100] Creating Layer bn_4d_1x1
I1221 20:43:41.252555 22711 net.cpp:434] bn_4d_1x1 <- conv_4d_1x1
I1221 20:43:41.252573 22711 net.cpp:395] bn_4d_1x1 -> conv_4d_1x1 (in-place)
I1221 20:43:41.252838 22711 net.cpp:150] Setting up bn_4d_1x1
I1221 20:43:41.252859 22711 net.cpp:157] Top shape: 30 96 14 14 (564480)
…
I1221 20:43:41.267132 22711 net.cpp:165] Memory required for data: 3384246120
I1221 20:43:41.267148 22711 layer_factory.hpp:77] Creating layer bn_4e_3x3
I1221 20:43:41.267169 22711 net.cpp:100] Creating Layer bn_4e_3x3
I1221 20:43:41.267191 22711 net.cpp:434] bn_4e_3x3 <- conv_4e_3x3
I1221 20:43:41.267207 22711 net.cpp:395] bn_4e_3x3 -> conv_4e_3x3 (in-place)
I1221 20:43:41.267452 22711 net.cpp:150] Setting up bn_4e_3x3
I1221 20:43:41.267474 22711 net.cpp:157] Top shape: 30 192 7 7 (282240)
I1221 20:43:41.267488 22711 net.cpp:165] Memory required for data: 3385375080
I1221 20:43:41.267504 22711 layer_factory.hpp:77] Creating layer scale_conv_4e_3x3
I1221 20:43:41.267524 22711 net.cpp:100] Creating Layer scale_conv_4e_3x3
I1221 20:43:41.267537 22711 net.cpp:434] scale_conv_4e_3x3 <- conv_4e_3x3
I1221 20:43:41.267551 22711 net.cpp:395] scale_conv_4e_3x3 -> conv_4e_3x3 (in-place)
I1221 20:43:41.267622 22711 layer_factory.hpp:77] Creating layer scale_conv_4e_3x3
I1221 20:43:41.267783 22711 net.cpp:150] Setting up scale_conv_4e_3x3
I1221 20:43:41.267807 22711 net.cpp:157] Top shape: 30 192 7 7 (282240)
I1221 20:43:41.267819 22711 net.cpp:165] Memory required for data: 3386504040
I1221 20:43:41.267834 22711 layer_factory.hpp:77] Creating layer relu_4e_3x3
I1221 20:43:41.267849 22711 net.cpp:100] Creating Layer relu_4e_3x3
I1221 20:43:41.267861 22711 net.cpp:434] relu_4e_3x3 <- conv_4e_3x3
I1221 20:43:41.267879 22711 net.cpp:395] relu_4e_3x3 -> conv_4e_3x3 (in-place)
I1221 20:43:41.267894 22711 net.cpp:150] Setting up relu_4e_3x3
I1221 20:43:41.267909 22711 net.cpp:157] Top shape: 30 192 7 7 (282240)
I1221 20:43:41.267920 22711 net.cpp:165] Memory required for data: 3387633000
I1221 20:43:41.267931 22711 layer_factory.hpp:77] Creating layer conv_4e_double_3x3_reduce
I1221 20:43:41.267947 22711 net.cpp:100] Creating Layer conv_4e_double_3x3_reduce
I1221 20:43:41.267961 22711 net.cpp:434] conv_4e_double_3x3_reduce <- ch_concat_4d_chconcat_ch_concat_4d_chconcat_0_split_1
I1221 20:43:41.267980 22711 net.cpp:408] conv_4e_double_3x3_reduce -> conv_4e_double_3x3_reduce
I1221 20:43:41.268354 22711 net.cpp:150] Setting up conv_4e_double_3x3_reduce
I1221 20:43:41.268380 22711 net.cpp:157] Top shape: 30 192 14 14 (1128960)
I1221 20:43:41.268393 22711 net.cpp:165] Memory required for data: 3392148840
I1221 20:43:41.268407 22711 layer_factory.hpp:77] Creating layer bn_4e_double_3x3_reduce
I1221 20:43:41.268431 22711 net.cpp:100] Creating Layer bn_4e_double_3x3_reduce
I1221 20:43:41.268445 22711 net.cpp:434] bn_4e_double_3x3_reduce <- conv_4e_double_3x3_reduce
I1221 20:43:41.268460 22711 net.cpp:395] bn_4e_double_3x3_reduce -> conv_4e_double_3x3_reduce (in-place)
I1221 20:43:41.268692 22711 net.cpp:150] Setting up bn_4e_double_3x3_reduce
I1221 20:43:41.268715 22711 net.cpp:157] Top shape: 30 192 14 14 (1128960)
I1221 20:43:41.268730 22711 net.cpp:165] Memory required for data: 3396664680
I1221 20:43:41.268748 22711 layer_factory.hpp:77] Creating layer scale_conv_4e_double_3x3_reduce
I1221 20:43:41.268766 22711 net.cpp:100] Creating Layer scale_conv_4e_double_3x3_reduce
I1221 20:43:41.268784 22711 net.cpp:434] scale_conv_4e_double_3x3_reduce <- conv_4e_double_3x3_reduce
I1221 20:43:41.268798 22711 net.cpp:395] scale_conv_4e_double_3x3_reduce -> conv_4e_double_3x3_reduce (in-place)
I1221 20:43:41.268858 22711 layer_factory.hpp:77] Creating layer scale_conv_4e_double_3x3_reduce
I1221 20:43:41.269018 22711 net.cpp:150] Setting up scale_conv_4e_double_3x3_reduce
I1221 20:43:41.269042 22711 net.cpp:157] Top shape: 30 192 14 14 (1128960)
I1221 20:43:41.269054 22711 net.cpp:165] Memory required for data: 3401180520
I1221 20:43:41.269069 22711 layer_factory.hpp:77] Creating layer relu_4e_double_3x3_reduce
I1221 20:43:41.269093 22711 net.cpp:100] Creating Layer relu_4e_double_3x3_reduce
I1221 20:43:41.269104 22711 net.cpp:434] relu_4e_double_3x3_reduce <- conv_4e_double_3x3_reduce
I1221 20:43:41.269121 22711 net.cpp:395] relu_4e_double_3x3_reduce -> conv_4e_double_3x3_reduce (in-place)
I1221 20:43:41.269140 22711 net.cpp:150] Setting up relu_4e_double_3x3_reduce
I1221 20:43:41.269156 22711 net.cpp:157] Top shape: 30 192 14 14 (1128960)
I1221 20:43:41.269168 22711 net.cpp:165] Memory required for data: 3405696360
I1221 20:43:41.269179 22711 layer_factory.hpp:77] Creating layer conv_4e_double_3x3_0
I1221 20:43:41.269202 22711 net.cpp:100] Creating Layer conv_4e_double_3x3_0
I1221 20:43:41.269214 22711 net.cpp:434] conv_4e_double_3x3_0 <- conv_4e_double_3x3_reduce
I1221 20:43:41.269234 22711 net.cpp:408] conv_4e_double_3x3_0 -> conv_4e_double_3x3_0
I1221 20:43:41.271021 22711 net.cpp:150] Setting up conv_4e_double_3x3_0
I1221 20:43:41.271049 22711 net.cpp:157] Top shape: 30 256 14 14 (1505280)
I1221 20:43:41.271062 22711 net.cpp:165] Memory required for data: 3411717480
I1221 20:43:41.271078 22711 layer_factory.hpp:77] Creating layer bn_4e_double_3x3_0
I1221 20:43:41.271100 22711 net.cpp:100] Creating Layer bn_4e_double_3x3_0
I1221 20:43:41.271122 22711 net.cpp:434] bn_4e_double_3x3_0 <- conv_4e_double_3x3_0
I1221 20:43:41.271142 22711 net.cpp:395] bn_4e_double_3x3_0 -> conv_4e_double_3x3_0 (in-place)
I1221 20:43:41.271384 22711 net.cpp:150] Setting up bn_4e_double_3x3_0
I1221 20:43:41.271409 22711 net.cpp:157] Top shape: 30 256 14 14 (1505280)
I1221 20:43:41.271421 22711 net.cpp:165] Memory required for data: 3417738600
I1221 20:43:41.271440 22711 layer_factory.hpp:77] Creating layer scale_conv_4e_double_3x3_0
I1221 20:43:41.271458 22711 net.cpp:100] Creating Layer scale_conv_4e_double_3x3_0
I1221 20:43:41.271471 22711 net.cpp:434] scale_conv_4e_double_3x3_0 <- conv_4e_double_3x3_0
I1221 20:43:41.271486 22711 net.cpp:395] scale_conv_4e_double_3x3_0 -> conv_4e_double_3x3_0 (in-place)
I1221 20:43:41.271555 22711 layer_factory.hpp:77] Creating layer scale_conv_4e_double_3x3_0
I1221 20:43:41.271709 22711 net.cpp:150] Setting up scale_conv_4e_double_3x3_0
I1221 20:43:41.271730 22711 net.cpp:157] Top shape: 30 256 14 14 (1505280)
I1221 20:43:41.271742 22711 net.cpp:165] Memory required for data: 3423759720
I1221 20:43:41.271757 22711 layer_factory.hpp:77] Creating layer relu_4e_double_3x3_0
I1221 20:43:41.271776 22711 net.cpp:100] Creating Layer relu_4e_double_3x3_0
I1221 20:43:41.271793 22711 net.cpp:434] relu_4e_double_3x3_0 <- conv_4e_double_3x3_0
I1221 20:43:41.271807 22711 net.cpp:395] relu_4e_double_3x3_0 -> conv_4e_double_3x3_0 (in-place)
I1221 20:43:41.271823 22711 net.cpp:150] Setting up relu_4e_double_3x3_0
I1221 20:43:41.271837 22711 net.cpp:157] Top shape: 30 256 14 14 (1505280)
I1221 20:43:41.271848 22711 net.cpp:165] Memory required for data: 3429780840
I1221 20:43:41.271859 22711 layer_factory.hpp:77] Creating layer conv_4e_double_3x3_1
I1221 20:43:41.271879 22711 net.cpp:100] Creating Layer conv_4e_double_3x3_1
I1221 20:43:41.271891 22711 net.cpp:434] conv_4e_double_3x3_1 <- conv_4e_double_3x3_0
I1221 20:43:41.271906 22711 net.cpp:408] conv_4e_double_3x3_1 -> conv_4e_double_3x3_1
I1221 20:43:41.274145 22711 net.cpp:150] Setting up conv_4e_double_3x3_1
I1221 20:43:41.274174 22711 net.cpp:157] Top shape: 30 256 7 7 (376320)
I1221 20:43:41.274194 22711 net.cpp:165] Memory required for data: 3431286120
I1221 20:43:41.274211 22711 layer_factory.hpp:77] Creating layer bn_4e_double_3x3_1
I1221 20:43:41.274232 22711 net.cpp:100] Creating Layer bn_4e_double_3x3_1
I1221 20:43:41.274246 22711 net.cpp:434] bn_4e_double_3x3_1 <- conv_4e_double_3x3_1
I1221 20:43:41.274260 22711 net.cpp:395] bn_4e_double_3x3_1 -> conv_4e_double_3x3_1 (in-place)
I1221 20:43:41.274498 22711 net.cpp:150] Setting up bn_4e_double_3x3_1
I1221 20:43:41.274526 22711 net.cpp:157] Top shape: 30 256 7 7 (376320)
I1221 20:43:41.274538 22711 net.cpp:165] Memory required for data: 3432791400
I1221 20:43:41.274559 22711 layer_factory.hpp:77] Creating layer scale_conv_4e_double_3x3_1
I1221 20:43:41.274576 22711 net.cpp:100] Creating Layer scale_conv_4e_double_3x3_1
I1221 20:43:41.274590 22711 net.cpp:434] scale_conv_4e_double_3x3_1 <- conv_4e_double_3x3_1
I1221 20:43:41.274607 22711 net.cpp:395] scale_conv_4e_double_3x3_1 -> conv_4e_double_3x3_1 (in-place)
I1221 20:43:41.274672 22711 layer_factory.hpp:77] Creating layer scale_conv_4e_double_3x3_1
I1221 20:43:41.274818 22711 net.cpp:150] Setting up scale_conv_4e_double_3x3_1
I1221 20:43:41.274839 22711 net.cpp:157] Top shape: 30 256 7 7 (376320)
I1221 20:43:41.274852 22711 net.cpp:165] Memory required for data: 3434296680
I1221 20:43:41.274868 22711 layer_factory.hpp:77] Creating layer relu_4e_double_3x3_1
I1221 20:43:41.274883 22711 net.cpp:100] Creating Layer relu_4e_double_3x3_1
I1221 20:43:41.274893 22711 net.cpp:434] relu_4e_double_3x3_1 <- conv_4e_double_3x3_1
I1221 20:43:41.274915 22711 net.cpp:395] relu_4e_double_3x3_1 -> conv_4e_double_3x3_1 (in-place)
I1221 20:43:41.274933 22711 net.cpp:150] Setting up relu_4e_double_3x3_1
I1221 20:43:41.274948 22711 net.cpp:157] Top shape: 30 256 7 7 (376320)
I1221 20:43:41.274960 22711 net.cpp:165] Memory required for data: 3435801960
I1221 20:43:41.274971 22711 layer_factory.hpp:77] Creating layer max_pool_4e_pool
I1221 20:43:41.274996 22711 net.cpp:100] Creating Layer max_pool_4e_pool
I1221 20:43:41.275009 22711 net.cpp:434] max_pool_4e_pool <- ch_concat_4d_chconcat_ch_concat_4d_chconcat_0_split_2
I1221 20:43:41.275030 22711 net.cpp:408] max_pool_4e_pool -> max_pool_4e_pool
I1221 20:43:41.275092 22711 net.cpp:150] Setting up max_pool_4e_pool
I1221 20:43:41.275112 22711 net.cpp:157] Top shape: 30 512 7 7 (752640)
I1221 20:43:41.275123 22711 net.cpp:165] Memory required for data: 3438812520
I1221 20:43:41.275135 22711 layer_factory.hpp:77] Creating layer ch_concat_4e_chconcat
I1221 20:43:41.275149 22711 net.cpp:100] Creating Layer ch_concat_4e_chconcat
I1221 20:43:41.275161 22711 net.cpp:434] ch_concat_4e_chconcat <- conv_4e_3x3
I1221 20:43:41.275174 22711 net.cpp:434] ch_concat_4e_chconcat <- conv_4e_double_3x3_1
I1221 20:43:41.275192 22711 net.cpp:434] ch_concat_4e_chconcat <- max_pool_4e_pool
I1221 20:43:41.275215 22711 net.cpp:408] ch_concat_4e_chconcat -> ch_concat_4e_chconcat
I1221 20:43:41.275259 22711 net.cpp:150] Setting up ch_concat_4e_chconcat
I1221 20:43:41.275279 22711 net.cpp:157] Top shape: 30 960 7 7 (1411200)
I1221 20:43:41.275290 22711 net.cpp:165] Memory required for data: 3444457320
I1221 20:43:41.275301 22711 layer_factory.hpp:77] Creating layer ch_concat_4e_chconcat_ch_concat_4e_chconcat_0_split
I1221 20:43:41.275316 22711 net.cpp:100] Creating Layer ch_concat_4e_chconcat_ch_concat_4e_chconcat_0_split
I1221 20:43:41.275328 22711 net.cpp:434] ch_concat_4e_chconcat_ch_concat_4e_chconcat_0_split <- ch_concat_4e_chconcat
I1221 20:43:41.275343 22711 net.cpp:408] ch_concat_4e_chconcat_ch_concat_4e_chconcat_0_split -> ch_concat_4e_chconcat_ch_concat_4e_chconcat_0_split_0
I1221 20:43:41.275362 22711 net.cpp:408] ch_concat_4e_chconcat_ch_concat_4e_chconcat_0_split -> ch_concat_4e_chconcat_ch_concat_4e_chconcat_0_split_1
I1221 20:43:41.275383 22711 net.cpp:408] ch_concat_4e_chconcat_ch_concat_4e_chconcat_0_split -> ch_concat_4e_chconcat_ch_concat_4e_chconcat_0_split_2
I1221 20:43:41.275403 22711 net.cpp:408] ch_concat_4e_chconcat_ch_concat_4e_chconcat_0_split -> ch_concat_4e_chconcat_ch_concat_4e_chconcat_0_split_3
I1221 20:43:41.275485 22711 net.cpp:150] Setting up ch_concat_4e_chconcat_ch_concat_4e_chconcat_0_split
I1221 20:43:41.275504 22711 net.cpp:157] Top shape: 30 960 7 7 (1411200)
I1221 20:43:41.275519 22711 net.cpp:157] Top shape: 30 960 7 7 (1411200)
I1221 20:43:41.275532 22711 net.cpp:157] Top shape: 30 960 7 7 (1411200)
I1221 20:43:41.275544 22711 net.cpp:157] Top shape: 30 960 7 7 (1411200)
I1221 20:43:41.275555 22711 net.cpp:165] Memory required for data: 3467036520
I1221 20:43:41.275566 22711 layer_factory.hpp:77] Creating layer conv_5a_1x1
I1221 20:43:41.275594 22711 net.cpp:100] Creating Layer conv_5a_1x1
I1221 20:43:41.275609 22711 net.cpp:434] conv_5a_1x1 <- ch_concat_4e_chconcat_ch_concat_4e_chconcat_0_split_0
I1221 20:43:41.275627 22711 net.cpp:408] conv_5a_1x1 -> conv_5a_1x1
I1221 20:43:41.277122 22711 net.cpp:150] Setting up conv_5a_1x1
I1221 20:43:41.277150 22711 net.cpp:157] Top shape: 30 352 7 7 (517440)
I1221 20:43:41.277163 22711 net.cpp:165] Memory required for data: 3469106280
I1221 20:43:41.277179 22711 layer_factory.hpp:77] Creating layer bn_5a_1x1
I1221 20:43:41.277204 22711 net.cpp:100] Creating Layer bn_5a_1x1
I1221 20:43:41.277216 22711 net.cpp:434] bn_5a_1x1 <- conv_5a_1x1
I1221 20:43:41.277230 22711 net.cpp:395] bn_5a_1x1 -> conv_5a_1x1 (in-place)
I1221 20:43:41.277500 22711 net.cpp:150] Setting up bn_5a_1x1
I1221 20:43:41.277523 22711 net.cpp:157] Top shape: 30 352 7 7 (517440)
I1221 20:43:41.277534 22711 net.cpp:165] Memory required for data: 3471176040
I1221 20:43:41.277551 22711 layer_factory.hpp:77] Creating layer scale_conv_5a_1x1
I1221 20:43:41.277566 22711 net.cpp:100] Creating Layer scale_conv_5a_1x1
I1221 20:43:41.277580 22711 net.cpp:434] scale_conv_5a_1x1 <- conv_5a_1x1
I1221 20:43:41.277597 22711 net.cpp:395] scale_conv_5a_1x1 -> conv_5a_1x1 (in-place)
I1221 20:43:41.277673 22711 layer_factory.hpp:77] Creating layer scale_conv_5a_1x1
I1221 20:43:41.277856 22711 net.cpp:150] Setting up scale_conv_5a_1x1
I1221 20:43:41.277878 22711 net.cpp:157] Top shape: 30 352 7 7 (517440)
I1221 20:43:41.277889 22711 net.cpp:165] Memory required for data: 3473245800
I1221 20:43:41.277905 22711 layer_factory.hpp:77] Creating layer relu_5a_1x1
I1221 20:43:41.277920 22711 net.cpp:100] Creating Layer relu_5a_1x1
I1221 20:43:41.277931 22711 net.cpp:434] relu_5a_1x1 <- conv_5a_1x1
I1221 20:43:41.277950 22711 net.cpp:395] relu_5a_1x1 -> conv_5a_1x1 (in-place)
I1221 20:43:41.277966 22711 net.cpp:150] Setting up relu_5a_1x1
I1221 20:43:41.277981 22711 net.cpp:157] Top shape: 30 352 7 7 (517440)
I1221 20:43:41.277992 22711 net.cpp:165] Memory required for data: 3475315560
I1221 20:43:41.278002 22711 layer_factory.hpp:77] Creating layer conv_5a_3x3_reduce
I1221 20:43:41.278036 22711 net.cpp:100] Creating Layer conv_5a_3x3_reduce
I1221 20:43:41.278049 22711 net.cpp:434] conv_5a_3x3_reduce <- ch_concat_4e_chconcat_ch_concat_4e_chconcat_0_split_1
I1221 20:43:41.278065 22711 net.cpp:408] conv_5a_3x3_reduce -> conv_5a_3x3_reduce
I1221 20:43:41.279294 22711 net.cpp:150] Setting up conv_5a_3x3_reduce
I1221 20:43:41.279320 22711 net.cpp:157] Top shape: 30 192 7 7 (282240)
I1221 20:43:41.279331 22711 net.cpp:165] Memory required for data: 3476444520
I1221 20:43:41.279347 22711 layer_factory.hpp:77] Creating layer bn_5a_3x3_reduce
I1221 20:43:41.279367 22711 net.cpp:100] Creating Layer bn_5a_3x3_reduce
I1221 20:43:41.279381 22711 net.cpp:434] bn_5a_3x3_reduce <- conv_5a_3x3_reduce
I1221 20:43:41.279397 22711 net.cpp:395] bn_5a_3x3_reduce -> conv_5a_3x3_reduce (in-place)
I1221 20:43:41.279640 22711 net.cpp:150] Setting up bn_5a_3x3_reduce
I1221 20:43:41.279662 22711 net.cpp:157] Top shape: 30 192 7 7 (282240)
I1221 20:43:41.279675 22711 net.cpp:165] Memory required for data: 3477573480
I1221 20:43:41.279692 22711 layer_factory.hpp:77] Creating layer scale_conv_5a_3x3_reduce
I1221 20:43:41.279712 22711 net.cpp:100] Creating Layer scale_conv_5a_3x3_reduce
I1221 20:43:41.279726 22711 net.cpp:434] scale_conv_5a_3x3_reduce <- conv_5a_3x3_reduce
I1221 20:43:41.279739 22711 net.cpp:395] scale_conv_5a_3x3_reduce -> conv_5a_3x3_reduce (in-place)
I1221 20:43:41.279803 22711 layer_factory.hpp:77] Creating layer scale_conv_5a_3x3_reduce
I1221 20:43:41.279969 22711 net.cpp:150] Setting up scale_conv_5a_3x3_reduce
I1221 20:43:41.279992 22711 net.cpp:157] Top shape: 30 192 7 7 (282240)
I1221 20:43:41.280004 22711 net.cpp:165] Memory required for data: 3478702440
I1221 20:43:41.280020 22711 layer_factory.hpp:77] Creating layer relu_5a_3x3_reduce
I1221 20:43:41.280117 22711 net.cpp:100] Creating Layer relu_5a_3x3_reduce
I1221 20:43:41.280133 22711 net.cpp:434] relu_5a_3x3_reduce <- conv_5a_3x3_reduce
I1221 20:43:41.280149 22711 net.cpp:395] relu_5a_3x3_reduce -> conv_5a_3x3_reduce (in-place)
I1221 20:43:41.280166 22711 net.cpp:150] Setting up relu_5a_3x3_reduce
I1221 20:43:41.280186 22711 net.cpp:157] Top shape: 30 192 7 7 (282240)
I1221 20:43:41.280199 22711 net.cpp:165] Memory required for data: 3479831400
I1221 20:43:41.280211 22711 layer_factory.hpp:77] Creating layer conv_5a_3x3
I1221 20:43:41.280227 22711 net.cpp:100] Creating Layer conv_5a_3x3
I1221 20:43:41.280241 22711 net.cpp:434] conv_5a_3x3 <- conv_5a_3x3_reduce
I1221 20:43:41.280256 22711 net.cpp:408] conv_5a_3x3 -> conv_5a_3x3
I1221 20:43:41.282443 22711 net.cpp:150] Setting up conv_5a_3x3
I1221 20:43:41.282471 22711 net.cpp:157] Top shape: 30 320 7 7 (470400)
I1221 20:43:41.282485 22711 net.cpp:165] Memory required for data: 3481713000
I1221 20:43:41.282500 22711 layer_factory.hpp:77] Creating layer bn_5a_3x3
I1221 20:43:41.282516 22711 net.cpp:100] Creating Layer bn_5a_3x3
I1221 20:43:41.282536 22711 net.cpp:434] bn_5a_3x3 <- conv_5a_3x3
I1221 20:43:41.282549 22711 net.cpp:395] bn_5a_3x3 -> conv_5a_3x3 (in-place)
I1221 20:43:41.282805 22711 net.cpp:150] Setting up bn_5a_3x3
I1221 20:43:41.282827 22711 net.cpp:157] Top shape: 30 320 7 7 (470400)
I1221 20:43:41.282841 22711 net.cpp:165] Memory required for data: 3483594600
I1221 20:43:41.282863 22711 layer_factory.hpp:77] Creating layer scale_conv_5a_3x3
I1221 20:43:41.282891 22711 net.cpp:100] Creating Layer scale_conv_5a_3x3
I1221 20:43:41.282903 22711 net.cpp:434] scale_conv_5a_3x3 <- conv_5a_3x3
I1221 20:43:41.282917 22711 net.cpp:395] scale_conv_5a_3x3 -> conv_5a_3x3 (in-place)
I1221 20:43:41.282990 22711 layer_factory.hpp:77] Creating layer scale_conv_5a_3x3
I1221 20:43:41.283160 22711 net.cpp:150] Setting up scale_conv_5a_3x3
I1221 20:43:41.283190 22711 net.cpp:157] Top shape: 30 320 7 7 (470400)
I1221 20:43:41.283210 22711 net.cpp:165] Memory required for data: 3485476200
I1221 20:43:41.283237 22711 layer_factory.hpp:77] Creating layer relu_5a_3x3
I1221 20:43:41.283277 22711 net.cpp:100] Creating Layer relu_5a_3x3
I1221 20:43:41.283298 22711 net.cpp:434] relu_5a_3x3 <- conv_5a_3x3
I1221 20:43:41.283320 22711 net.cpp:395] relu_5a_3x3 -> conv_5a_3x3 (in-place)
I1221 20:43:41.283345 22711 net.cpp:150] Setting up relu_5a_3x3
I1221 20:43:41.283368 22711 net.cpp:157] Top shape: 30 320 7 7 (470400)
I1221 20:43:41.283386 22711 net.cpp:165] Memory required for data: 3487357800
I1221 20:43:41.283403 22711 layer_factory.hpp:77] Creating layer conv_5a_double_3x3_reduce
I1221 20:43:41.283437 22711 net.cpp:100] Creating Layer conv_5a_double_3x3_reduce
I1221 20:43:41.283459 22711 net.cpp:434] conv_5a_double_3x3_reduce <- ch_concat_4e_chconcat_ch_concat_4e_chconcat_0_split_2
I1221 20:43:41.283488 22711 net.cpp:408] conv_5a_double_3x3_reduce -> conv_5a_double_3x3_reduce
I1221 20:43:41.285001 22711 net.cpp:150] Setting up conv_5a_double_3x3_reduce
I1221 20:43:41.285043 22711 net.cpp:157] Top shape: 30 160 7 7 (235200)
I1221 20:43:41.285063 22711 net.cpp:165] Memory required for data: 3488298600
I1221 20:43:41.285096 22711 layer_factory.hpp:77] Creating layer bn_5a_double_3x3_reduce
I1221 20:43:41.285122 22711 net.cpp:100] Creating Layer bn_5a_double_3x3_reduce
I1221 20:43:41.285143 22711 net.cpp:434] bn_5a_double_3x3_reduce <- conv_5a_double_3x3_reduce
I1221 20:43:41.285179 22711 net.cpp:395] bn_5a_double_3x3_reduce -> conv_5a_double_3x3_reduce (in-place)
I1221 20:43:41.285554 22711 net.cpp:150] Setting up bn_5a_double_3x3_reduce
I1221 20:43:41.285584 22711 net.cpp:157] Top shape: 30 160 7 7 (235200)
I1221 20:43:41.285604 22711 net.cpp:165] Memory required for data: 3489239400
I1221 20:43:41.285634 22711 layer_factory.hpp:77] Creating layer scale_conv_5a_double_3x3_reduce
I1221 20:43:41.285658 22711 net.cpp:100] Creating Layer scale_conv_5a_double_3x3_reduce
I1221 20:43:41.285678 22711 net.cpp:434] scale_conv_5a_double_3x3_reduce <- conv_5a_double_3x3_reduce
I1221 20:43:41.285706 22711 net.cpp:395] scale_conv_5a_double_3x3_reduce -> conv_5a_double_3x3_reduce (in-place)
I1221 20:43:41.285794 22711 layer_factory.hpp:77] Creating layer scale_conv_5a_double_3x3_reduce
I1221 20:43:41.286036 22711 net.cpp:150] Setting up scale_conv_5a_double_3x3_reduce
I1221 20:43:41.286067 22711 net.cpp:157] Top shape: 30 160 7 7 (235200)
I1221 20:43:41.286087 22711 net.cpp:165] Memory required for data: 3490180200
I1221 20:43:41.286113 22711 layer_factory.hpp:77] Creating layer relu_5a_double_3x3_reduce
I1221 20:43:41.286140 22711 net.cpp:100] Creating Layer relu_5a_double_3x3_reduce
I1221 20:43:41.286169 22711 net.cpp:434] relu_5a_double_3x3_reduce <- conv_5a_double_3x3_reduce
I1221 20:43:41.286200 22711 net.cpp:395] relu_5a_double_3x3_reduce -> conv_5a_double_3x3_reduce (in-place)
I1221 20:43:41.286228 22711 net.cpp:150] Setting up relu_5a_double_3x3_reduce
I1221 20:43:41.286262 22711 net.cpp:157] Top shape: 30 160 7 7 (235200)
I1221 20:43:41.286280 22711 net.cpp:165] Memory required for data: 3491121000
I1221 20:43:41.286298 22711 layer_factory.hpp:77] Creating layer conv_5a_double_3x3_0
I1221 20:43:41.286331 22711 net.cpp:100] Creating Layer conv_5a_double_3x3_0
I1221 20:43:41.286352 22711 net.cpp:434] conv_5a_double_3x3_0 <- conv_5a_double_3x3_reduce
I1221 20:43:41.286378 22711 net.cpp:408] conv_5a_double_3x3_0 -> conv_5a_double_3x3_0
I1221 20:43:41.288197 22711 net.cpp:150] Setting up conv_5a_double_3x3_0
I1221 20:43:41.288233 22711 net.cpp:157] Top shape: 30 224 7 7 (329280)
I1221 20:43:41.288261 22711 net.cpp:165] Memory required for data: 3492438120
I1221 20:43:41.288295 22711 layer_factory.hpp:77] Creating layer bn_5a_double_3x3_0
I1221 20:43:41.288323 22711 net.cpp:100] Creating Layer bn_5a_double_3x3_0
I1221 20:43:41.288343 22711 net.cpp:434] bn_5a_double_3x3_0 <- conv_5a_double_3x3_0
I1221 20:43:41.288368 22711 net.cpp:395] bn_5a_double_3x3_0 -> conv_5a_double_3x3_0 (in-place)
I1221 20:43:41.288687 22711 net.cpp:150] Setting up bn_5a_double_3x3_0
I1221 20:43:41.288712 22711 net.cpp:157] Top shape: 30 224 7 7 (329280)
I1221 20:43:41.288723 22711 net.cpp:165] Memory required for data: 3493755240
I1221 20:43:41.288741 22711 layer_factory.hpp:77] Creating layer scale_conv_5a_double_3x3_0
I1221 20:43:41.288760 22711 net.cpp:100] Creating Layer scale_conv_5a_double_3x3_0
I1221 20:43:41.288774 22711 net.cpp:434] scale_conv_5a_double_3x3_0 <- conv_5a_double_3x3_0
I1221 20:43:41.288789 22711 net.cpp:395] scale_conv_5a_double_3x3_0 -> conv_5a_double_3x3_0 (in-place)
I1221 20:43:41.290669 22711 layer_factory.hpp:77] Creating layer scale_conv_5a_double_3x3_0
I1221 20:43:41.290870 22711 net.cpp:150] Setting up scale_conv_5a_double_3x3_0
I1221 20:43:41.290894 22711 net.cpp:157] Top shape: 30 224 7 7 (329280)
I1221 20:43:41.290905 22711 net.cpp:165] Memory required for data: 3495072360
I1221 20:43:41.290921 22711 layer_factory.hpp:77] Creating layer relu_5a_double_3x3_0
I1221 20:43:41.290940 22711 net.cpp:100] Creating Layer relu_5a_double_3x3_0
I1221 20:43:41.290952 22711 net.cpp:434] relu_5a_double_3x3_0 <- conv_5a_double_3x3_0
I1221 20:43:41.290966 22711 net.cpp:395] relu_5a_double_3x3_0 -> conv_5a_double_3x3_0 (in-place)
I1221 20:43:41.290982 22711 net.cpp:150] Setting up relu_5a_double_3x3_0
I1221 20:43:41.290997 22711 net.cpp:157] Top shape: 30 224 7 7 (329280)
I1221 20:43:41.291008 22711 net.cpp:165] Memory required for data: 3496389480
I1221 20:43:41.291019 22711 layer_factory.hpp:77] Creating layer conv_5a_double_3x3_1
I1221 20:43:41.291039 22711 net.cpp:100] Creating Layer conv_5a_double_3x3_1
I1221 20:43:41.291052 22711 net.cpp:434] conv_5a_double_3x3_1 <- conv_5a_double_3x3_0
I1221 20:43:41.291069 22711 net.cpp:408] conv_5a_double_3x3_1 -> conv_5a_double_3x3_1
I1221 20:43:41.292891 22711 net.cpp:150] Setting up conv_5a_double_3x3_1
I1221 20:43:41.292930 22711 net.cpp:157] Top shape: 30 224 7 7 (329280)
I1221 20:43:41.292943 22711 net.cpp:165] Memory required for data: 3497706600
I1221 20:43:41.292958 22711 layer_factory.hpp:77] Creating layer bn_5a_double_3x3_1
I1221 20:43:41.292979 22711 net.cpp:100] Creating Layer bn_5a_double_3x3_1
I1221 20:43:41.292992 22711 net.cpp:434] bn_5a_double_3x3_1 <- conv_5a_double_3x3_1
I1221 20:43:41.293006 22711 net.cpp:395] bn_5a_double_3x3_1 -> conv_5a_double_3x3_1 (in-place)
I1221 20:43:41.293265 22711 net.cpp:150] Setting up bn_5a_double_3x3_1
I1221 20:43:41.293287 22711 net.cpp:157] Top shape: 30 224 7 7 (329280)
I1221 20:43:41.293308 22711 net.cpp:165] Memory required for data: 3499023720
I1221 20:43:41.293325 22711 layer_factory.hpp:77] Creating layer scale_conv_5a_double_3x3_1
I1221 20:43:41.293341 22711 net.cpp:100] Creating Layer scale_conv_5a_double_3x3_1
I1221 20:43:41.293354 22711 net.cpp:434] scale_conv_5a_double_3x3_1 <- conv_5a_double_3x3_1
I1221 20:43:41.293371 22711 net.cpp:395] scale_conv_5a_double_3x3_1 -> conv_5a_double_3x3_1 (in-place)
I1221 20:43:41.293437 22711 layer_factory.hpp:77] Creating layer scale_conv_5a_double_3x3_1
I1221 20:43:41.293609 22711 net.cpp:150] Setting up scale_conv_5a_double_3x3_1
I1221 20:43:41.293632 22711 net.cpp:157] Top shape: 30 224 7 7 (329280)
I1221 20:43:41.293642 22711 net.cpp:165] Memory required for data: 3500340840
I1221 20:43:41.293658 22711 layer_factory.hpp:77] Creating layer relu_5a_double_3x3_1
I1221 20:43:41.293680 22711 net.cpp:100] Creating Layer relu_5a_double_3x3_1
I1221 20:43:41.293692 22711 net.cpp:434] relu_5a_double_3x3_1 <- conv_5a_double_3x3_1
I1221 20:43:41.293709 22711 net.cpp:395] relu_5a_double_3x3_1 -> conv_5a_double_3x3_1 (in-place)
I1221 20:43:41.293735 22711 net.cpp:150] Setting up relu_5a_double_3x3_1
I1221 20:43:41.293751 22711 net.cpp:157] Top shape: 30 224 7 7 (329280)
I1221 20:43:41.293762 22711 net.cpp:165] Memory required for data: 3501657960
I1221 20:43:41.293774 22711 layer_factory.hpp:77] Creating layer ave_pool_5a_pool
I1221 20:43:41.293789 22711 net.cpp:100] Creating Layer ave_pool_5a_pool
I1221 20:43:41.293802 22711 net.cpp:434] ave_pool_5a_pool <- ch_concat_4e_chconcat_ch_concat_4e_chconcat_0_split_3
I1221 20:43:41.293823 22711 net.cpp:408] ave_pool_5a_pool -> ave_pool_5a_pool
I1221 20:43:41.293867 22711 net.cpp:150] Setting up ave_pool_5a_pool
I1221 20:43:41.293886 22711 net.cpp:157] Top shape: 30 960 7 7 (1411200)
I1221 20:43:41.293897 22711 net.cpp:165] Memory required for data: 3507302760
I1221 20:43:41.293910 22711 layer_factory.hpp:77] Creating layer conv_5a_proj
I1221 20:43:41.293931 22711 net.cpp:100] Creating Layer conv_5a_proj
I1221 20:43:41.293944 22711 net.cpp:434] conv_5a_proj <- ave_pool_5a_pool
I1221 20:43:41.293959 22711 net.cpp:408] conv_5a_proj -> conv_5a_proj
I1221 20:43:41.295034 22711 net.cpp:150] Setting up conv_5a_proj
I1221 20:43:41.295065 22711 net.cpp:157] Top shape: 30 128 7 7 (188160)
I1221 20:43:41.295078 22711 net.cpp:165] Memory required for data: 3508055400
I1221 20:43:41.295092 22711 layer_factory.hpp:77] Creating layer bn_5a_proj
I1221 20:43:41.295109 22711 net.cpp:100] Creating Layer bn_5a_proj
I1221 20:43:41.295122 22711 net.cpp:434] bn_5a_proj <- conv_5a_proj
I1221 20:43:41.295140 22711 net.cpp:395] bn_5a_proj -> conv_5a_proj (in-place)
I1221 20:43:41.295394 22711 net.cpp:150] Setting up bn_5a_proj
I1221 20:43:41.295416 22711 net.cpp:157] Top shape: 30 128 7 7 (188160)
I1221 20:43:41.295433 22711 net.cpp:165] Memory required for data: 3508808040
I1221 20:43:41.295450 22711 layer_factory.hpp:77] Creating layer scale_conv_5a_proj
I1221 20:43:41.295465 22711 net.cpp:100] Creating Layer scale_conv_5a_proj
I1221 20:43:41.295478 22711 net.cpp:434] scale_conv_5a_proj <- conv_5a_proj
I1221 20:43:41.295492 22711 net.cpp:395] scale_conv_5a_proj -> conv_5a_proj (in-place)
I1221 20:43:41.295557 22711 layer_factory.hpp:77] Creating layer scale_conv_5a_proj
I1221 20:43:41.295704 22711 net.cpp:150] Setting up scale_conv_5a_proj
I1221 20:43:41.295725 22711 net.cpp:157] Top shape: 30 128 7 7 (188160)
I1221 20:43:41.295737 22711 net.cpp:165] Memory required for data: 3509560680
I1221 20:43:41.295758 22711 layer_factory.hpp:77] Creating layer relu_5a_proj
I1221 20:43:41.295783 22711 net.cpp:100] Creating Layer relu_5a_proj
I1221 20:43:41.295795 22711 net.cpp:434] relu_5a_proj <- conv_5a_proj
I1221 20:43:41.295822 22711 net.cpp:395] relu_5a_proj -> conv_5a_proj (in-place)
I1221 20:43:41.295840 22711 net.cpp:150] Setting up relu_5a_proj
I1221 20:43:41.295855 22711 net.cpp:157] Top shape: 30 128 7 7 (188160)
I1221 20:43:41.295866 22711 net.cpp:165] Memory required for data: 3510313320
I1221 20:43:41.295876 22711 layer_factory.hpp:77] Creating layer ch_concat_5a_chconcat
I1221 20:43:41.295891 22711 net.cpp:100] Creating Layer ch_concat_5a_chconcat
I1221 20:43:41.295902 22711 net.cpp:434] ch_concat_5a_chconcat <- conv_5a_1x1
I1221 20:43:41.295915 22711 net.cpp:434] ch_concat_5a_chconcat <- conv_5a_3x3
I1221 20:43:41.295928 22711 net.cpp:434] ch_concat_5a_chconcat <- conv_5a_double_3x3_1
I1221 20:43:41.295941 22711 net.cpp:434] ch_concat_5a_chconcat <- conv_5a_proj
I1221 20:43:41.295959 22711 net.cpp:408] ch_concat_5a_chconcat -> ch_concat_5a_chconcat
I1221 20:43:41.296002 22711 net.cpp:150] Setting up ch_concat_5a_chconcat
I1221 20:43:41.296025 22711 net.cpp:157] Top shape: 30 1024 7 7 (1505280)
I1221 20:43:41.296037 22711 net.cpp:165] Memory required for data: 3516334440
I1221 20:43:41.296049 22711 layer_factory.hpp:77] Creating layer ch_concat_5a_chconcat_ch_concat_5a_chconcat_0_split
I1221 20:43:41.296068 22711 net.cpp:100] Creating Layer ch_concat_5a_chconcat_ch_concat_5a_chconcat_0_split
I1221 20:43:41.296082 22711 net.cpp:434] ch_concat_5a_chconcat_ch_concat_5a_chconcat_0_split <- ch_concat_5a_chconcat
I1221 20:43:41.296099 22711 net.cpp:408] ch_concat_5a_chconcat_ch_concat_5a_chconcat_0_split -> ch_concat_5a_chconcat_ch_concat_5a_chconcat_0_split_0
I1221 20:43:41.296128 22711 net.cpp:408] ch_concat_5a_chconcat_ch_concat_5a_chconcat_0_split -> ch_concat_5a_chconcat_ch_concat_5a_chconcat_0_split_1
I1221 20:43:41.296147 22711 net.cpp:408] ch_concat_5a_chconcat_ch_concat_5a_chconcat_0_split -> ch_concat_5a_chconcat_ch_concat_5a_chconcat_0_split_2
I1221 20:43:41.296165 22711 net.cpp:408] ch_concat_5a_chconcat_ch_concat_5a_chconcat_0_split -> ch_concat_5a_chconcat_ch_concat_5a_chconcat_0_split_3
I1221 20:43:41.296260 22711 net.cpp:150] Setting up ch_concat_5a_chconcat_ch_concat_5a_chconcat_0_split
I1221 20:43:41.296280 22711 net.cpp:157] Top shape: 30 1024 7 7 (1505280)
I1221 20:43:41.296294 22711 net.cpp:157] Top shape: 30 1024 7 7 (1505280)
I1221 20:43:41.296308 22711 net.cpp:157] Top shape: 30 1024 7 7 (1505280)
I1221 20:43:41.296319 22711 net.cpp:157] Top shape: 30 1024 7 7 (1505280)
I1221 20:43:41.296330 22711 net.cpp:165] Memory required for data: 3540418920
I1221 20:43:41.296341 22711 layer_factory.hpp:77] Creating layer conv_5b_1x1
I1221 20:43:41.296363 22711 net.cpp:100] Creating Layer conv_5b_1x1
I1221 20:43:41.296376 22711 net.cpp:434] conv_5b_1x1 <- ch_concat_5a_chconcat_ch_concat_5a_chconcat_0_split_0
I1221 20:43:41.296392 22711 net.cpp:408] conv_5b_1x1 -> conv_5b_1x1
I1221 20:43:41.297865 22711 net.cpp:150] Setting up conv_5b_1x1
I1221 20:43:41.297894 22711 net.cpp:157] Top shape: 30 352 7 7 (517440)
I1221 20:43:41.297906 22711 net.cpp:165] Memory required for data: 3542488680
I1221 20:43:41.297922 22711 layer_factory.hpp:77] Creating layer bn_5b_1x1
I1221 20:43:41.297945 22711 net.cpp:100] Creating Layer bn_5b_1x1
I1221 20:43:41.297958 22711 net.cpp:434] bn_5b_1x1 <- conv_5b_1x1
I1221 20:43:41.297972 22711 net.cpp:395] bn_5b_1x1 -> conv_5b_1x1 (in-place)
I1221 20:43:41.298246 22711 net.cpp:150] Setting up bn_5b_1x1
I1221 20:43:41.298270 22711 net.cpp:157] Top shape: 30 352 7 7 (517440)
I1221 20:43:41.298282 22711 net.cpp:165] Memory required for data: 3544558440
I1221 20:43:41.298300 22711 layer_factory.hpp:77] Creating layer scale_conv_5b_1x1
I1221 20:43:41.298318 22711 net.cpp:100] Creating Layer scale_conv_5b_1x1
I1221 20:43:41.298331 22711 net.cpp:434] scale_conv_5b_1x1 <- conv_5b_1x1
I1221 20:43:41.298346 22711 net.cpp:395] scale_conv_5b_1x1 -> conv_5b_1x1 (in-place)
I1221 20:43:41.298415 22711 layer_factory.hpp:77] Creating layer scale_conv_5b_1x1
I1221 20:43:41.298590 22711 net.cpp:150] Setting up scale_conv_5b_1x1
I1221 20:43:41.298614 22711 net.cpp:157] Top shape: 30 352 7 7 (517440)
I1221 20:43:41.298626 22711 net.cpp:165] Memory required for data: 3546628200
I1221 20:43:41.298646 22711 layer_factory.hpp:77] Creating layer relu_5b_1x1
I1221 20:43:41.298663 22711 net.cpp:100] Creating Layer relu_5b_1x1
I1221 20:43:41.298678 22711 net.cpp:434] relu_5b_1x1 <- conv_5b_1x1
I1221 20:43:41.298691 22711 net.cpp:395] relu_5b_1x1 -> conv_5b_1x1 (in-place)
I1221 20:43:41.298710 22711 net.cpp:150] Setting up relu_5b_1x1
I1221 20:43:41.298724 22711 net.cpp:157] Top shape: 30 352 7 7 (517440)
I1221 20:43:41.298737 22711 net.cpp:165] Memory required for data: 3548697960
I1221 20:43:41.298748 22711 layer_factory.hpp:77] Creating layer conv_5b_3x3_reduce
I1221 20:43:41.298763 22711 net.cpp:100] Creating Layer conv_5b_3x3_reduce
I1221 20:43:41.298776 22711 net.cpp:434] conv_5b_3x3_reduce <- ch_concat_5a_chconcat_ch_concat_5a_chconcat_0_split_1
I1221 20:43:41.298795 22711 net.cpp:408] conv_5b_3x3_reduce -> conv_5b_3x3_reduce
I1221 20:43:41.299932 22711 net.cpp:150] Setting up conv_5b_3x3_reduce
I1221 20:43:41.299959 22711 net.cpp:157] Top shape: 30 192 7 7 (282240)
I1221 20:43:41.299971 22711 net.cpp:165] Memory required for data: 3549826920
I1221 20:43:41.299988 22711 layer_factory.hpp:77] Creating layer bn_5b_3x3_reduce
I1221 20:43:41.300011 22711 net.cpp:100] Creating Layer bn_5b_3x3_reduce
I1221 20:43:41.300025 22711 net.cpp:434] bn_5b_3x3_reduce <- conv_5b_3x3_reduce
I1221 20:43:41.300043 22711 net.cpp:395] bn_5b_3x3_reduce -> conv_5b_3x3_reduce (in-place)
I1221 20:43:41.300309 22711 net.cpp:150] Setting up bn_5b_3x3_reduce
I1221 20:43:41.300336 22711 net.cpp:157] Top shape: 30 192 7 7 (282240)
I1221 20:43:41.300349 22711 net.cpp:165] Memory required for data: 3550955880
I1221 20:43:41.300366 22711 layer_factory.hpp:77] Creating layer scale_conv_5b_3x3_reduce
I1221 20:43:41.300390 22711 net.cpp:100] Creating Layer scale_conv_5b_3x3_reduce
I1221 20:43:41.300402 22711 net.cpp:434] scale_conv_5b_3x3_reduce <- conv_5b_3x3_reduce
I1221 20:43:41.300416 22711 net.cpp:395] scale_conv_5b_3x3_reduce -> conv_5b_3x3_reduce (in-place)
I1221 20:43:41.300482 22711 layer_factory.hpp:77] Creating layer scale_conv_5b_3x3_reduce
I1221 20:43:41.300657 22711 net.cpp:150] Setting up scale_conv_5b_3x3_reduce
I1221 20:43:41.300680 22711 net.cpp:157] Top shape: 30 192 7 7 (282240)
I1221 20:43:41.300693 22711 net.cpp:165] Memory required for data: 3552084840
I1221 20:43:41.300709 22711 layer_factory.hpp:77] Creating layer relu_5b_3x3_reduce
I1221 20:43:41.300731 22711 net.cpp:100] Creating Layer relu_5b_3x3_reduce
I1221 20:43:41.300745 22711 net.cpp:434] relu_5b_3x3_reduce <- conv_5b_3x3_reduce
I1221 20:43:41.300758 22711 net.cpp:395] relu_5b_3x3_reduce -> conv_5b_3x3_reduce (in-place)
I1221 20:43:41.300779 22711 net.cpp:150] Setting up relu_5b_3x3_reduce
I1221 20:43:41.300793 22711 net.cpp:157] Top shape: 30 192 7 7 (282240)
I1221 20:43:41.300808 22711 net.cpp:165] Memory required for data: 3553213800
I1221 20:43:41.300819 22711 layer_factory.hpp:77] Creating layer conv_5b_3x3
I1221 20:43:41.300840 22711 net.cpp:100] Creating Layer conv_5b_3x3
I1221 20:43:41.300853 22711 net.cpp:434] conv_5b_3x3 <- conv_5b_3x3_reduce
I1221 20:43:41.300868 22711 net.cpp:408] conv_5b_3x3 -> conv_5b_3x3
I1221 20:43:41.302817 22711 net.cpp:150] Setting up conv_5b_3x3
I1221 20:43:41.302845 22711 net.cpp:157] Top shape: 30 320 7 7 (470400)
I1221 20:43:41.302857 22711 net.cpp:165] Memory required for data: 3555095400
I1221 20:43:41.302873 22711 layer_factory.hpp:77] Creating layer bn_5b_3x3
I1221 20:43:41.302897 22711 net.cpp:100] Creating Layer bn_5b_3x3
I1221 20:43:41.302911 22711 net.cpp:434] bn_5b_3x3 <- conv_5b_3x3
I1221 20:43:41.302924 22711 net.cpp:395] bn_5b_3x3 -> conv_5b_3x3 (in-place)
I1221 20:43:41.303189 22711 net.cpp:150] Setting up bn_5b_3x3
I1221 20:43:41.303215 22711 net.cpp:157] Top shape: 30 320 7 7 (470400)
I1221 20:43:41.303226 22711 net.cpp:165] Memory required for data: 3556977000
I1221 20:43:41.303244 22711 layer_factory.hpp:77] Creating layer scale_conv_5b_3x3
I1221 20:43:41.303261 22711 net.cpp:100] Creating Layer scale_conv_5b_3x3
I1221 20:43:41.303273 22711 net.cpp:434] scale_conv_5b_3x3 <- conv_5b_3x3
I1221 20:43:41.303287 22711 net.cpp:395] scale_conv_5b_3x3 -> conv_5b_3x3 (in-place)
I1221 20:43:41.303361 22711 layer_factory.hpp:77] Creating layer scale_conv_5b_3x3
I1221 20:43:41.303534 22711 net.cpp:150] Setting up scale_conv_5b_3x3
I1221 20:43:41.303556 22711 net.cpp:157] Top shape: 30 320 7 7 (470400)
I1221 20:43:41.303567 22711 net.cpp:165] Memory required for data: 3558858600
I1221 20:43:41.303582 22711 layer_factory.hpp:77] Creating layer relu_5b_3x3
I1221 20:43:41.303597 22711 net.cpp:100] Creating Layer relu_5b_3x3
I1221 20:43:41.303609 22711 net.cpp:434] relu_5b_3x3 <- conv_5b_3x3
I1221 20:43:41.303622 22711 net.cpp:395] relu_5b_3x3 -> conv_5b_3x3 (in-place)
I1221 20:43:41.303637 22711 net.cpp:150] Setting up relu_5b_3x3
I1221 20:43:41.303652 22711 net.cpp:157] Top shape: 30 320 7 7 (470400)
I1221 20:43:41.303663 22711 net.cpp:165] Memory required for data: 3560740200
I1221 20:43:41.303673 22711 layer_factory.hpp:77] Creating layer conv_5b_double_3x3_reduce
I1221 20:43:41.303701 22711 net.cpp:100] Creating Layer conv_5b_double_3x3_reduce
I1221 20:43:41.303717 22711 net.cpp:434] conv_5b_double_3x3_reduce <- ch_concat_5a_chconcat_ch_concat_5a_chconcat_0_split_2
I1221 20:43:41.303736 22711 net.cpp:408] conv_5b_double_3x3_reduce -> conv_5b_double_3x3_reduce
I1221 20:43:41.304878 22711 net.cpp:150] Setting up conv_5b_double_3x3_reduce
I1221 20:43:41.304904 22711 net.cpp:157] Top shape: 30 192 7 7 (282240)
I1221 20:43:41.304925 22711 net.cpp:165] Memory required for data: 3561869160
I1221 20:43:41.304941 22711 layer_factory.hpp:77] Creating layer bn_5b_double_3x3_reduce
I1221 20:43:41.304957 22711 net.cpp:100] Creating Layer bn_5b_double_3x3_reduce
I1221 20:43:41.304970 22711 net.cpp:434] bn_5b_double_3x3_reduce <- conv_5b_double_3x3_reduce
I1221 20:43:41.304989 22711 net.cpp:395] bn_5b_double_3x3_reduce -> conv_5b_double_3x3_reduce (in-place)
I1221 20:43:41.305255 22711 net.cpp:150] Setting up bn_5b_double_3x3_reduce
I1221 20:43:41.305277 22711 net.cpp:157] Top shape: 30 192 7 7 (282240)
I1221 20:43:41.305289 22711 net.cpp:165] Memory required for data: 3562998120
I1221 20:43:41.305306 22711 layer_factory.hpp:77] Creating layer scale_conv_5b_double_3x3_reduce
I1221 20:43:41.305325 22711 net.cpp:100] Creating Layer scale_conv_5b_double_3x3_reduce
I1221 20:43:41.305340 22711 net.cpp:434] scale_conv_5b_double_3x3_reduce <- conv_5b_double_3x3_reduce
I1221 20:43:41.305356 22711 net.cpp:395] scale_conv_5b_double_3x3_reduce -> conv_5b_double_3x3_reduce (in-place)
I1221 20:43:41.305428 22711 layer_factory.hpp:77] Creating layer scale_conv_5b_double_3x3_reduce
I1221 20:43:41.305594 22711 net.cpp:150] Setting up scale_conv_5b_double_3x3_reduce
I1221 20:43:41.305616 22711 net.cpp:157] Top shape: 30 192 7 7 (282240)
I1221 20:43:41.305629 22711 net.cpp:165] Memory required for data: 3564127080
I1221 20:43:41.305644 22711 layer_factory.hpp:77] Creating layer relu_5b_double_3x3_reduce
I1221 20:43:41.305661 22711 net.cpp:100] Creating Layer relu_5b_double_3x3_reduce
I1221 20:43:41.305675 22711 net.cpp:434] relu_5b_double_3x3_reduce <- conv_5b_double_3x3_reduce
I1221 20:43:41.305691 22711 net.cpp:395] relu_5b_double_3x3_reduce -> conv_5b_double_3x3_reduce (in-place)
I1221 20:43:41.305708 22711 net.cpp:150] Setting up relu_5b_double_3x3_reduce
I1221 20:43:41.305722 22711 net.cpp:157] Top shape: 30 192 7 7 (282240)
I1221 20:43:41.305733 22711 net.cpp:165] Memory required for data: 3565256040
I1221 20:43:41.305745 22711 layer_factory.hpp:77] Creating layer conv_5b_double_3x3_0
I1221 20:43:41.305761 22711 net.cpp:100] Creating Layer conv_5b_double_3x3_0
I1221 20:43:41.305773 22711 net.cpp:434] conv_5b_double_3x3_0 <- conv_5b_double_3x3_reduce
I1221 20:43:41.305793 22711 net.cpp:408] conv_5b_double_3x3_0 -> conv_5b_double_3x3_0
I1221 20:43:41.307320 22711 net.cpp:150] Setting up conv_5b_double_3x3_0
I1221 20:43:41.307349 22711 net.cpp:157] Top shape: 30 224 7 7 (329280)
I1221 20:43:41.307363 22711 net.cpp:165] Memory required for data: 3566573160
I1221 20:43:41.307379 22711 layer_factory.hpp:77] Creating layer bn_5b_double_3x3_0
I1221 20:43:41.307397 22711 net.cpp:100] Creating Layer bn_5b_double_3x3_0
I1221 20:43:41.307410 22711 net.cpp:434] bn_5b_double_3x3_0 <- conv_5b_double_3x3_0
I1221 20:43:41.307425 22711 net.cpp:395] bn_5b_double_3x3_0 -> conv_5b_double_3x3_0 (in-place)
I1221 20:43:41.307682 22711 net.cpp:150] Setting up bn_5b_double_3x3_0
I1221 20:43:41.307708 22711 net.cpp:157] Top shape: 30 224 7 7 (329280)
I1221 20:43:41.307719 22711 net.cpp:165] Memory required for data: 3567890280
I1221 20:43:41.307737 22711 layer_factory.hpp:77] Creating layer scale_conv_5b_double_3x3_0
I1221 20:43:41.307756 22711 net.cpp:100] Creating Layer scale_conv_5b_double_3x3_0
I1221 20:43:41.307770 22711 net.cpp:434] scale_conv_5b_double_3x3_0 <- conv_5b_double_3x3_0
I1221 20:43:41.307785 22711 net.cpp:395] scale_conv_5b_double_3x3_0 -> conv_5b_double_3x3_0 (in-place)
I1221 20:43:41.307847 22711 layer_factory.hpp:77] Creating layer scale_conv_5b_double_3x3_0
I1221 20:43:41.308022 22711 net.cpp:150] Setting up scale_conv_5b_double_3x3_0
I1221 20:43:41.308043 22711 net.cpp:157] Top shape: 30 224 7 7 (329280)
I1221 20:43:41.308054 22711 net.cpp:165] Memory required for data: 3569207400
I1221 20:43:41.308069 22711 layer_factory.hpp:77] Creating layer relu_5b_double_3x3_0
I1221 20:43:41.308087 22711 net.cpp:100] Creating Layer relu_5b_double_3x3_0
I1221 20:43:41.308100 22711 net.cpp:434] relu_5b_double_3x3_0 <- conv_5b_double_3x3_0
I1221 20:43:41.308133 22711 net.cpp:395] relu_5b_double_3x3_0 -> conv_5b_double_3x3_0 (in-place)
I1221 20:43:41.308152 22711 net.cpp:150] Setting up relu_5b_double_3x3_0
I1221 20:43:41.308166 22711 net.cpp:157] Top shape: 30 224 7 7 (329280)
I1221 20:43:41.308178 22711 net.cpp:165] Memory required for data: 3570524520
I1221 20:43:41.308195 22711 layer_factory.hpp:77] Creating layer conv_5b_double_3x3_1
I1221 20:43:41.308213 22711 net.cpp:100] Creating Layer conv_5b_double_3x3_1
I1221 20:43:41.308225 22711 net.cpp:434] conv_5b_double_3x3_1 <- conv_5b_double_3x3_0
I1221 20:43:41.308244 22711 net.cpp:408] conv_5b_double_3x3_1 -> conv_5b_double_3x3_1
I1221 20:43:41.309890 22711 net.cpp:150] Setting up conv_5b_double_3x3_1
I1221 20:43:41.309916 22711 net.cpp:157] Top shape: 30 224 7 7 (329280)
I1221 20:43:41.309927 22711 net.cpp:165] Memory required for data: 3571841640
I1221 20:43:41.309942 22711 layer_factory.hpp:77] Creating layer bn_5b_double_3x3_1
I1221 20:43:41.309962 22711 net.cpp:100] Creating Layer bn_5b_double_3x3_1
I1221 20:43:41.309976 22711 net.cpp:434] bn_5b_double_3x3_1 <- conv_5b_double_3x3_1
I1221 20:43:41.309990 22711 net.cpp:395] bn_5b_double_3x3_1 -> conv_5b_double_3x3_1 (in-place)
I1221 20:43:41.310250 22711 net.cpp:150] Setting up bn_5b_double_3x3_1
I1221 20:43:41.310272 22711 net.cpp:157] Top shape: 30 224 7 7 (329280)
I1221 20:43:41.310284 22711 net.cpp:165] Memory required for data: 3573158760
I1221 20:43:41.310302 22711 layer_factory.hpp:77] Creating layer scale_conv_5b_double_3x3_1
I1221 20:43:41.310317 22711 net.cpp:100] Creating Layer scale_conv_5b_double_3x3_1
I1221 20:43:41.310329 22711 net.cpp:434] scale_conv_5b_double_3x3_1 <- conv_5b_double_3x3_1
I1221 20:43:41.310343 22711 net.cpp:395] scale_conv_5b_double_3x3_1 -> conv_5b_double_3x3_1 (in-place)
I1221 20:43:41.310420 22711 layer_factory.hpp:77] Creating layer scale_conv_5b_double_3x3_1
I1221 20:43:41.310582 22711 net.cpp:150] Setting up scale_conv_5b_double_3x3_1
I1221 20:43:41.310606 22711 net.cpp:157] Top shape: 30 224 7 7 (329280)
I1221 20:43:41.310617 22711 net.cpp:165] Memory required for data: 3574475880
I1221 20:43:41.310633 22711 layer_factory.hpp:77] Creating layer relu_5b_double_3x3_1
I1221 20:43:41.310647 22711 net.cpp:100] Creating Layer relu_5b_double_3x3_1
I1221 20:43:41.310660 22711 net.cpp:434] relu_5b_double_3x3_1 <- conv_5b_double_3x3_1
I1221 20:43:41.310678 22711 net.cpp:395] relu_5b_double_3x3_1 -> conv_5b_double_3x3_1 (in-place)
I1221 20:43:41.310694 22711 net.cpp:150] Setting up relu_5b_double_3x3_1
I1221 20:43:41.310708 22711 net.cpp:157] Top shape: 30 224 7 7 (329280)
I1221 20:43:41.310719 22711 net.cpp:165] Memory required for data: 3575793000
I1221 20:43:41.310730 22711 layer_factory.hpp:77] Creating layer max_pool_5b_pool
I1221 20:43:41.310762 22711 net.cpp:100] Creating Layer max_pool_5b_pool
I1221 20:43:41.310775 22711 net.cpp:434] max_pool_5b_pool <- ch_concat_5a_chconcat_ch_concat_5a_chconcat_0_split_3
I1221 20:43:41.310792 22711 net.cpp:408] max_pool_5b_pool -> max_pool_5b_pool
I1221 20:43:41.310858 22711 net.cpp:150] Setting up max_pool_5b_pool
I1221 20:43:41.310878 22711 net.cpp:157] Top shape: 30 1024 7 7 (1505280)
I1221 20:43:41.310890 22711 net.cpp:165] Memory required for data: 3581814120
I1221 20:43:41.310901 22711 layer_factory.hpp:77] Creating layer conv_5b_proj
I1221 20:43:41.310917 22711 net.cpp:100] Creating Layer conv_5b_proj
I1221 20:43:41.310930 22711 net.cpp:434] conv_5b_proj <- max_pool_5b_pool
I1221 20:43:41.310946 22711 net.cpp:408] conv_5b_proj -> conv_5b_proj
I1221 20:43:41.311378 22711 net.cpp:150] Setting up conv_5b_proj
I1221 20:43:41.311400 22711 net.cpp:157] Top shape: 30 128 7 7 (188160)
I1221 20:43:41.311411 22711 net.cpp:165] Memory required for data: 3582566760
I1221 20:43:41.311426 22711 layer_factory.hpp:77] Creating layer bn_5b_proj
I1221 20:43:41.311450 22711 net.cpp:100] Creating Layer bn_5b_proj
I1221 20:43:41.311463 22711 net.cpp:434] bn_5b_proj <- conv_5b_proj
I1221 20:43:41.311477 22711 net.cpp:395] bn_5b_proj -> conv_5b_proj (in-place)
I1221 20:43:41.311723 22711 net.cpp:150] Setting up bn_5b_proj
I1221 20:43:41.311755 22711 net.cpp:157] Top shape: 30 128 7 7 (188160)
I1221 20:43:41.311767 22711 net.cpp:165] Memory required for data: 3583319400
I1221 20:43:41.311785 22711 layer_factory.hpp:77] Creating layer scale_conv_5b_proj
I1221 20:43:41.311800 22711 net.cpp:100] Creating Layer scale_conv_5b_proj
I1221 20:43:41.311812 22711 net.cpp:434] scale_conv_5b_proj <- conv_5b_proj
I1221 20:43:41.311830 22711 net.cpp:395] scale_conv_5b_proj -> conv_5b_proj (in-place)
I1221 20:43:41.311894 22711 layer_factory.hpp:77] Creating layer scale_conv_5b_proj
I1221 20:43:41.312052 22711 net.cpp:150] Setting up scale_conv_5b_proj
I1221 20:43:41.312073 22711 net.cpp:157] Top shape: 30 128 7 7 (188160)
I1221 20:43:41.312085 22711 net.cpp:165] Memory required for data: 3584072040
I1221 20:43:41.312100 22711 layer_factory.hpp:77] Creating layer relu_5b_proj
I1221 20:43:41.312119 22711 net.cpp:100] Creating Layer relu_5b_proj
I1221 20:43:41.312130 22711 net.cpp:434] relu_5b_proj <- conv_5b_proj
I1221 20:43:41.312144 22711 net.cpp:395] relu_5b_proj -> conv_5b_proj (in-place)
I1221 20:43:41.312160 22711 net.cpp:150] Setting up relu_5b_proj
I1221 20:43:41.312175 22711 net.cpp:157] Top shape: 30 128 7 7 (188160)
I1221 20:43:41.312191 22711 net.cpp:165] Memory required for data: 3584824680
I1221 20:43:41.312201 22711 layer_factory.hpp:77] Creating layer ch_concat_5b_chconcat
I1221 20:43:41.312219 22711 net.cpp:100] Creating Layer ch_concat_5b_chconcat
I1221 20:43:41.312232 22711 net.cpp:434] ch_concat_5b_chconcat <- conv_5b_1x1
I1221 20:43:41.312245 22711 net.cpp:434] ch_concat_5b_chconcat <- conv_5b_3x3
I1221 20:43:41.312258 22711 net.cpp:434] ch_concat_5b_chconcat <- conv_5b_double_3x3_1
I1221 20:43:41.312271 22711 net.cpp:434] ch_concat_5b_chconcat <- conv_5b_proj
I1221 20:43:41.312285 22711 net.cpp:408] ch_concat_5b_chconcat -> ch_concat_5b_chconcat
I1221 20:43:41.312332 22711 net.cpp:150] Setting up ch_concat_5b_chconcat
I1221 20:43:41.312351 22711 net.cpp:157] Top shape: 30 1024 7 7 (1505280)
I1221 20:43:41.312363 22711 net.cpp:165] Memory required for data: 3590845800
I1221 20:43:41.312374 22711 layer_factory.hpp:77] Creating layer global_pool
I1221 20:43:41.312388 22711 net.cpp:100] Creating Layer global_pool
I1221 20:43:41.312400 22711 net.cpp:434] global_pool <- ch_concat_5b_chconcat
I1221 20:43:41.312415 22711 net.cpp:408] global_pool -> global_pool
I1221 20:43:41.312455 22711 net.cpp:150] Setting up global_pool
I1221 20:43:41.312474 22711 net.cpp:157] Top shape: 30 1024 1 1 (30720)
I1221 20:43:41.312486 22711 net.cpp:165] Memory required for data: 3590968680
I1221 20:43:41.312505 22711 layer_factory.hpp:77] Creating layer fc2
I1221 20:43:41.312526 22711 net.cpp:100] Creating Layer fc2
I1221 20:43:41.312539 22711 net.cpp:434] fc2 <- global_pool
I1221 20:43:41.312554 22711 net.cpp:408] fc2 -> fc2
I1221 20:43:41.312793 22711 net.cpp:150] Setting up fc2
I1221 20:43:41.312819 22711 net.cpp:157] Top shape: 30 7 (210)
I1221 20:43:41.312830 22711 net.cpp:165] Memory required for data: 3590969520
I1221 20:43:41.312846 22711 layer_factory.hpp:77] Creating layer fc2_fc2_0_split
I1221 20:43:41.312861 22711 net.cpp:100] Creating Layer fc2_fc2_0_split
I1221 20:43:41.312873 22711 net.cpp:434] fc2_fc2_0_split <- fc2
I1221 20:43:41.312892 22711 net.cpp:408] fc2_fc2_0_split -> fc2_fc2_0_split_0
I1221 20:43:41.312913 22711 net.cpp:408] fc2_fc2_0_split -> fc2_fc2_0_split_1
I1221 20:43:41.312973 22711 net.cpp:150] Setting up fc2_fc2_0_split
I1221 20:43:41.312993 22711 net.cpp:157] Top shape: 30 7 (210)
I1221 20:43:41.313004 22711 net.cpp:157] Top shape: 30 7 (210)
I1221 20:43:41.313015 22711 net.cpp:165] Memory required for data: 3590971200
I1221 20:43:41.313026 22711 layer_factory.hpp:77] Creating layer accuracy
I1221 20:43:41.313048 22711 net.cpp:100] Creating Layer accuracy
I1221 20:43:41.313061 22711 net.cpp:434] accuracy <- fc2_fc2_0_split_0
I1221 20:43:41.313076 22711 net.cpp:434] accuracy <- label_data_train_1_split_0
I1221 20:43:41.313091 22711 net.cpp:408] accuracy -> accuracy
…
