…
I1227 01:38:18.066650  2908 net.cpp:322] The NetState phase (0) differed from the phase (1) specified by a rule in layer data_test
I1227 01:38:18.068434  2908 net.cpp:58] Initializing net from parameters: 
name: "Inception21k"
state {
  phase: TRAIN
  level: 0
  stage: ""
}
layer {
  name: "data_train"
  type: "ImageData"
  top: "data"
  top: "label"
  include {
    phase: TRAIN
  }
  transform_param {
    mean_value: 129
  }
  image_data_param {
    source: "../AFEW_Detect/Train/imlist_train.txt"
    batch_size: 30
    shuffle: true
    new_height: 224
    new_width: 224
    is_color: true
    root_folder: "../AFEW_Detect/Train/"
  }
}
layer {
  name: "conv_conv1"
  type: "Convolution"
  bottom: "data"
  top: "conv_conv1"
  convolution_param {
    num_output: 96
    pad: 3
    kernel_size: 7
    stride: 2
  }
}
layer {
  name: "bn_conv1"
  type: "BatchNorm"
  bottom: "conv_conv1"
  top: "conv_conv1"
  batch_norm_param {
    use_global_stats: true
  }
}
layer {
  name: "scale_conv_conv1"
  type: "Scale"
  bottom: "conv_conv1"
  top: "conv_conv1"
  scale_param {
    bias_term: true
  }
}
layer {
  name: "relu_conv1"
  type: "ReLU"
  bottom: "conv_conv1"
  top: "conv_conv1"
}
layer {
  name: "pool1"
  type: "Pooling"
  bottom: "conv_conv1"
  top: "pool1"
  pooling_param {
    pool: MAX
    kernel_size: 3
    stride: 2
    pad: 0
  }
}
layer {
  name: "conv_conv2red"
  type: "Convolution"
  bottom: "pool1"
  top: "conv_conv2red"
  convolution_param {
    num_output: 128
    pad: 0
    kernel_size: 1
    stride: 1
  }
}
layer {
  name: "bn_conv2red"
  type: "BatchNorm"
  bottom: "conv_conv2red"
  top: "conv_conv2red"
  batch_norm_param {
    use_global_stats: true
  }
}
layer {
  name: "scale_conv_conv2red"
  type: "Scale"
  bottom: "conv_conv2red"
  top: "conv_conv2red"
  scale_param {
    bias_term: true
  }
}
layer {
  name: "relu_conv2red"
  type: "ReLU"
  bottom: "conv_conv2red"
  top: "conv_conv2red"
}
layer {
  name: "conv_conv2"
  type: "Convolution"
  bottom: "conv_conv2red"
  top: "conv_conv2"
  convolution_param {
    num_output: 288
    pad: 1
    kernel_size: 3
    stride: 1
  }
}
layer {
  name: "bn_conv2"
  type: "BatchNorm"
  bottom: "conv_conv2"
  top: "conv_conv2"
  batch_norm_param {
    use_global_stats: true
  }
}
layer {
  name: "scale_conv_conv2"
  type: "Scale"
  bottom: "conv_conv2"
  top: "conv_conv2"
  scale_param {
    bias_term: true
  }
}
layer {
  name: "relu_conv2"
  type: "ReLU"
  bottom: "conv_conv2"
  top: "conv_conv2"
}
layer {
  name: "pool2"
  type: "Pooling"
  bottom: "conv_conv2"
  top: "pool2"
  pooling_param {
    pool: MAX
    kernel_size: 3
    stride: 2
    pad: 0
  }
}
layer {
  name: "conv_3a_1x1"
  type: "Convolution"
  bottom: "pool2"
  top: "conv_3a_1x1"
  convolution_param {
    num_output: 96
    pad: 0
    kernel_size: 1
    stride: 1
  }
}
layer {
  name: "bn_3a_1x1"
  type: "BatchNorm"
  bottom: "conv_3a_1x1"
  top: "conv_3a_1x1"
  batch_norm_param {
    use_global_stats: true
  }
}
layer {
  name: "scale_conv_3a_1x1"
  type: "Scale"
  bottom: "conv_3a_1x1"
  top: "conv_3a_1x1"
  scale_param {
    bias_term: true
  }
}
layer {
  name: "relu_3a_1x1"
  type: "ReLU"
  bottom: "conv_3a_1x1"
  top: "conv_3a_1x1"
}
layer {
  name: "conv_3a_3x3_reduce"
  type: "Convolution"
  bottom: "pool2"
  top: "conv_3a_3x3_reduce"
  convolution_param {
    num_output: 96
    pad: 0
    kernel_size: 1
    stride: 1
  }
}
layer {
  name: "bn_3a_3x3_reduce"
  type: "BatchNorm"
  bottom: "conv_3a_3x3_reduce"
  top: "conv_3a_3x3_reduce"
  batch_norm_param {
    use_global_stats: true
  }
}
layer {
  name: "scale_conv_3a_3x3_reduce"
  type: "Scale"
  bottom: "conv_3a_3x3_reduce"
  top: "conv_3a_3x3_reduce"
  scale_param {
    bias_term: true
  }
}
layer {
  name: "relu_3a_3x3_reduce"
  type: "ReLU"
  bottom: "conv_3a_3x3_reduce"
  top: "conv_3a_3x3_reduce"
}
layer {
  name: "conv_3a_3x3"
  type: "Convolution"
  bottom: "conv_3a_3x3_reduce"
  top: "conv_3a_3x3"
  convolution_param {
    num_output: 96
    pad: 1
    kernel_size: 3
    stride: 1
  }
}
layer {
  name: "bn_3a_3x3"
  type: "BatchNorm"
  bottom: "conv_3a_3x3"
  top: "conv_3a_3x3"
  batch_norm_param {
    use_global_stats: true
  }
}
layer {
  name: "scale_conv_3a_3x3"
  type: "Scale"
  bottom: "conv_3a_3x3"
  top: "conv_3a_3x3"
  scale_param {
    bias_term: true
  }
}
layer {
  name: "relu_3a_3x3"
  type: "ReLU"
  bottom: "conv_3a_3x3"
  top: "conv_3a_3x3"
}
layer {
  name: "conv_3a_double_3x3_reduce"
  type: "Convolution"
  bottom: "pool2"
  top: "conv_3a_double_3x3_reduce"
  convolution_param {
    num_output: 96
    pad: 0
    kernel_size: 1
    stride: 1
  }
}
layer {
  name: "bn_3a_double_3x3_reduce"
  type: "BatchNorm"
  bottom: "conv_3a_double_3x3_reduce"
  top: "conv_3a_double_3x3_reduce"
  batch_norm_param {
    use_global_stats: true
  }
}
layer {
  name: "scale_conv_3a_double_3x3_reduce"
  type: "Scale"
  bottom: "conv_3a_double_3x3_reduce"
  top: "conv_3a_double_3x3_reduce"
  scale_param {
    bias_term: true
  }
}
layer {
  name: "relu_3a_double_3x3_reduce"
  type: "ReLU"
  bottom: "conv_3a_double_3x3_reduce"
  top: "conv_3a_double_3x3_reduce"
}
layer {
  name: "conv_3a_double_3x3_0"
  type: "Convolution"
  bottom: "conv_3a_double_3x3_reduce"
  top: "conv_3a_double_3x3_0"
  convolution_param {
    num_output: 144
    pad: 1
    kernel_size: 3
    stride: 1
  }
}
layer {
  name: "bn_3a_double_3x3_0"
  type: "BatchNorm"
  bottom: "conv_3a_double_3x3_0"
  top: "conv_3a_double_3x3_0"
  batch_norm_param {
    use_global_stats: true
  }
}
layer {
  name: "scale_conv_3a_double_3x3_0"
  type: "Scale"
  bottom: "conv_3a_double_3x3_0"
  top: "conv_3a_double_3x3_0"
  scale_param {
    bias_term: true
  }
}
layer {
  name: "relu_3a_double_3x3_0"
  type: "ReLU"
  bottom: "conv_3a_double_3x3_0"
  top: "conv_3a_double_3x3_0"
}
layer {
  name: "conv_3a_double_3x3_1"
  type: "Convolution"
  bottom: "conv_3a_double_3x3_0"
  top: "conv_3a_double_3x3_1"
  convolution_param {
    num_output: 144
    pad: 1
    kernel_size: 3
    stride: 1
  }
}
layer {
  name: "bn_3a_double_3x3_1"
  type: "BatchNorm"
  bottom: "conv_3a_double_3x3_1"
  top: "conv_3a_double_3x3_1"
  batch_norm_param {
    use_global_stats: true
  }
}
layer {
  name: "scale_conv_3a_double_3x3_1"
  type: "Scale"
  bottom: "conv_3a_double_3x3_1"
  top: "conv_3a_double_3x3_1"
  scale_param {
    bias_term: true
  }
}
layer {
  name: "relu_3a_double_3x3_1"
  type: "ReLU"
  bottom: "conv_3a_double_3x3_1"
  top: "conv_3a_double_3x3_1"
}
layer {
  name: "ave_pool_3a_pool"
  type: "Pooling"
  bottom: "pool2"
  top: "ave_pool_3a_pool"
  pooling_param {
    pool: AVE
    kernel_size: 3
    stride: 1
    pad: 1
  }
}
layer {
  name: "conv_3a_proj"
  type: "Convolution"
  bottom: "ave_pool_3a_pool"
  top: "conv_3a_proj"
  convolution_param {
    num_output: 48
    pad: 0
    kernel_size: 1
    stride: 1
  }
}
layer {
  name: "bn_3a_proj"
  type: "BatchNorm"
  bottom: "conv_3a_proj"
  top: "conv_3a_proj"
  batch_norm_param {
    use_global_stats: true
  }
}
layer {
  name: "scale_conv_3a_proj"
  type: "Scale"
  bottom: "conv_3a_proj"
  top: "conv_3a_proj"
  scale_param {
    bias_term: true
  }
}
layer {
  name: "relu_3a_proj"
  type: "ReLU"
  bottom: "conv_3a_proj"
  top: "conv_3a_proj"
}
layer {
  name: "ch_concat_3a_chconcat"
  type: "Concat"
  bottom: "conv_3a_1x1"
  bottom: "conv_3a_3x3"
  bottom: "conv_3a_double_3x3_1"
  bottom: "conv_3a_proj"
  top: "ch_concat_3a_chconcat"
}
layer {
  name: "conv_3b_1x1"
  type: "Convolution"
  bottom: "ch_concat_3a_chconcat"
  top: "conv_3b_1x1"
  convolution_param {
    num_output: 96
    pad: 0
    kernel_size: 1
    stride: 1
  }
}
layer {
  name: "bn_3b_1x1"
  type: "BatchNorm"
  bottom: "conv_3b_1x1"
  top: "conv_3b_1x1"
  batch_norm_param {
    use_global_stats: true
  }
}
layer {
  name: "scale_conv_3b_1x1"
  type: "Scale"
  bottom: "conv_3b_1x1"
  top: "conv_3b_1x1"
  scale_param {
    bias_term: true
  }
}
layer {
  name: "relu_3b_1x1"
  type: "ReLU"
  bottom: "conv_3b_1x1"
  top: "conv_3b_1x1"
}
layer {
  name: "conv_3b_3x3_reduce"
  type: "Convolution"
  bottom: "ch_concat_3a_chconcat"
  top: "conv_3b_3x3_reduce"
  convolution_param {
    num_output: 96
    pad: 0
    kernel_size: 1
    stride: 1
  }
}
layer {
  name: "bn_3b_3x3_reduce"
  type: "BatchNorm"
  bottom: "conv_3b_3x3_reduce"
  top: "conv_3b_3x3_reduce"
  batch_norm_param {
    use_global_stats: true
  }
}
layer {
  name: "scale_conv_3b_3x3_reduce"
  type: "Scale"
  bottom: "conv_3b_3x3_reduce"
  top: "conv_3b_3x3_reduce"
  scale_param {
    bias_term: true
  }
}
layer {
  name: "relu_3b_3x3_reduce"
  type: "ReLU"
  bottom: "conv_3b_3x3_reduce"
  top: "conv_3b_3x3_reduce"
}
layer {
  name: "conv_3b_3x3"
  type: "Convolution"
  bottom: "conv_3b_3x3_reduce"
  top: "conv_3b_3x3"
  convolution_param {
    num_output: 144
    pad: 1
    kernel_size: 3
    stride: 1
  }
}
layer {
  name: "bn_3b_3x3"
  type: "BatchNorm"
  bottom: "conv_3b_3x3"
  top: "conv_3b_3x3"
  batch_norm_param {
    use_global_stats: true
  }
}
layer {
  name: "scale_conv_3b_3x3"
  type: "Scale"
  bottom: "conv_3b_3x3"
  top: "conv_3b_3x3"
  scale_param {
    bias_term: true
  }
}
layer {
  name: "relu_3b_3x3"
  type: "ReLU"
  bottom: "conv_3b_3x3"
  top: "conv_3b_3x3"
}
layer {
  name: "conv_3b_double_3x3_reduce"
  type: "Convolution"
  bottom: "ch_concat_3a_chconcat"
  top: "conv_3b_double_3x3_reduce"
  convolution_param {
    num_output: 96
    pad: 0
    kernel_size: 1
    stride: 1
  }
}
layer {
  name: "bn_3b_double_3x3_reduce"
  type: "BatchNorm"
  bottom: "conv_3b_double_3x3_reduce"
  top: "conv_3b_double_3x3_reduce"
  batch_norm_param {
    use_global_stats: true
  }
}
layer {
  name: "scale_conv_3b_double_3x3_reduce"
  type: "Scale"
  bottom: "conv_3b_double_3x3_reduce"
  top: "conv_3b_double_3x3_reduce"
  scale_param {
    bias_term: true
  }
}
layer {
  name: "relu_3b_double_3x3_reduce"
  type: "ReLU"
  bottom: "conv_3b_double_3x3_reduce"
  top: "conv_3b_double_3x3_reduce"
}
layer {
  name: "conv_3b_double_3x3_0"
  type: "Convolution"
  bottom: "conv_3b_double_3x3_reduce"
  top: "conv_3b_double_3x3_0"
  convolution_param {
    num_output: 144
    pad: 1
    kernel_size: 3
    stride: 1
  }
}
layer {
  name: "bn_3b_double_3x3_0"
  type: "BatchNorm"
  bottom: "conv_3b_double_3x3_0"
  top: "conv_3b_double_3x3_0"
  batch_norm_param {
    use_global_stats: true
  }
}
layer {
  name: "scale_conv_3b_double_3x3_0"
  type: "Scale"
  bottom: "conv_3b_double_3x3_0"
  top: "conv_3b_double_3x3_0"
  scale_param {
    bias_term: true
  }
}
layer {
  name: "relu_3b_double_3x3_0"
  type: "ReLU"
  bottom: "conv_3b_double_3x3_0"
  top: "conv_3b_double_3x3_0"
}
layer {
  name: "conv_3b_double_3x3_1"
  type: "Convolution"
  bottom: "conv_3b_double_3x3_0"
  top: "conv_3b_double_3x3_1"
  convolution_param {
    num_output: 144
    pad: 1
    kernel_size: 3
    stride: 1
  }
}
layer {
  name: "bn_3b_double_3x3_1"
  type: "BatchNorm"
  bottom: "conv_3b_double_3x3_1"
  top: "conv_3b_double_3x3_1"
  batch_norm_param {
    use_global_stats: true
  }
}
layer {
  name: "scale_conv_3b_double_3x3_1"
  type: "Scale"
  bottom: "conv_3b_double_3x3_1"
  top: "conv_3b_double_3x3_1"
  scale_param {
    bias_term: true
  }
}
layer {
  name: "relu_3b_double_3x3_1"
  type: "ReLU"
  bottom: "conv_3b_double_3x3_1"
  top: "conv_3b_double_3x3_1"
}
layer {
  name: "ave_pool_3b_pool"
  type: "Pooling"
  bottom: "ch_concat_3a_chconcat"
  top: "ave_pool_3b_pool"
  pooling_param {
    pool: AVE
    kernel_size: 3
    stride: 1
    pad: 1
  }
}
layer {
  name: "conv_3b_proj"
  type: "Convolution"
  bottom: "ave_pool_3b_pool"
  top: "conv_3b_proj"
  convolution_param {
    num_output: 96
    pad: 0
    kernel_size: 1
    stride: 1
  }
}
layer {
  name: "bn_3b_proj"
  type: "BatchNorm"
  bottom: "conv_3b_proj"
  top: "conv_3b_proj"
  batch_norm_param {
    use_global_stats: true
  }
}
layer {
  name: "scale_conv_3b_proj"
  type: "Scale"
  bottom: "conv_3b_proj"
  top: "conv_3b_proj"
  scale_param {
    bias_term: true
  }
}
layer {
  name: "relu_3b_proj"
  type: "ReLU"
  bottom: "conv_3b_proj"
  top: "conv_3b_proj"
}
layer {
  name: "ch_concat_3b_chconcat"
  type: "Concat"
  bottom: "conv_3b_1x1"
  bottom: "conv_3b_3x3"
  bottom: "conv_3b_double_3x3_1"
  bottom: "conv_3b_proj"
  top: "ch_concat_3b_chconcat"
}
layer {
  name: "conv_3c_3x3_reduce"
  type: "Convolution"
  bottom: "ch_concat_3b_chconcat"
  top: "conv_3c_3x3_reduce"
  convolution_param {
    num_output: 192
    pad: 0
    kernel_size: 1
    stride: 1
  }
}
layer {
  name: "bn_3c_3x3_reduce"
  type: "BatchNorm"
  bottom: "conv_3c_3x3_reduce"
  top: "conv_3c_3x3_reduce"
  batch_norm_param {
    use_global_stats: true
  }
}
layer {
  name: "scale_conv_3c_3x3_reduce"
  type: "Scale"
  bottom: "conv_3c_3x3_reduce"
  top: "conv_3c_3x3_reduce"
  scale_param {
    bias_term: true
  }
}
layer {
  name: "relu_3c_3x3_reduce"
  type: "ReLU"
  bottom: "conv_3c_3x3_reduce"
  top: "conv_3c_3x3_reduce"
}
layer {
  name: "conv_3c_3x3"
  type: "Convolution"
  bottom: "conv_3c_3x3_reduce"
  top: "conv_3c_3x3"
  convolution_param {
    num_output: 240
    pad: 1
    kernel_size: 3
    stride: 2
  }
}
layer {
  name: "bn_3c_3x3"
  type: "BatchNorm"
  bottom: "conv_3c_3x3"
  top: "conv_3c_3x3"
  batch_norm_param {
    use_global_stats: true
  }
}
layer {
  name: "scale_conv_3c_3x3"
  type: "Scale"
  bottom: "conv_3c_3x3"
  top: "conv_3c_3x3"
  scale_param {
    bias_term: true
  }
}
layer {
  name: "relu_3c_3x3"
  type: "ReLU"
  bottom: "conv_3c_3x3"
  top: "conv_3c_3x3"
}
layer {
  name: "conv_3c_double_3x3_reduce"
  type: "Convolution"
  bottom: "ch_concat_3b_chconcat"
  top: "conv_3c_double_3x3_reduce"
  convolution_param {
    num_output: 96
    pad: 0
    kernel_size: 1
    stride: 1
  }
}
layer {
  name: "bn_3c_double_3x3_reduce"
  type: "BatchNorm"
  bottom: "conv_3c_double_3x3_reduce"
  top: "conv_3c_double_3x3_reduce"
  batch_norm_param {
    use_global_stats: true
  }
}
layer {
  name: "scale_conv_3c_double_3x3_reduce"
  type: "Scale"
  bottom: "conv_3c_double_3x3_reduce"
  top: "conv_3c_double_3x3_reduce"
  scale_param {
    bias_term: true
  }
}
layer {
  name: "relu_3c_double_3x3_reduce"
  type: "ReLU"
  bottom: "conv_3c_double_3x3_reduce"
  top: "conv_3c_double_3x3_reduce"
}
layer {
  name: "conv_3c_double_3x3_0"
  type: "Convolution"
  bottom: "conv_3c_double_3x3_reduce"
  top: "conv_3c_double_3x3_0"
  convolution_param {
    num_output: 144
    pad: 1
    kernel_size: 3
    stride: 1
  }
}
layer {
  name: "bn_3c_double_3x3_0"
  type: "BatchNorm"
  bottom: "conv_3c_double_3x3_0"
  top: "conv_3c_double_3x3_0"
  batch_norm_param {
    use_global_stats: true
  }
}
layer {
  name: "scale_conv_3c_double_3x3_0"
  type: "Scale"
  bottom: "conv_3c_double_3x3_0"
  top: "conv_3c_double_3x3_0"
  scale_param {
    bias_term: true
  }
}
layer {
  name: "relu_3c_double_3x3_0"
  type: "ReLU"
  bottom: "conv_3c_double_3x3_0"
  top: "conv_3c_double_3x3_0"
}
layer {
  name: "conv_3c_double_3x3_1"
  type: "Convolution"
  bottom: "conv_3c_double_3x3_0"
  top: "conv_3c_double_3x3_1"
  convolution_param {
    num_output: 144
    pad: 1
    kernel_size: 3
    stride: 2
  }
}
layer {
  name: "bn_3c_double_3x3_1"
  type: "BatchNorm"
  bottom: "conv_3c_double_3x3_1"
  top: "conv_3c_double_3x3_1"
  batch_norm_param {
    use_global_stats: true
  }
}
layer {
  name: "scale_conv_3c_double_3x3_1"
  type: "Scale"
  bottom: "conv_3c_double_3x3_1"
  top: "conv_3c_double_3x3_1"
  scale_param {
    bias_term: true
  }
}
layer {
  name: "relu_3c_double_3x3_1"
  type: "ReLU"
  bottom: "conv_3c_double_3x3_1"
  top: "conv_3c_double_3x3_1"
}
layer {
  name: "max_pool_3c_pool"
  type: "Pooling"
  bottom: "ch_concat_3b_chconcat"
  top: "max_pool_3c_pool"
  pooling_param {
    pool: MAX
    kernel_size: 3
    stride: 2
    pad: 0
  }
}
layer {
  name: "ch_concat_3c_chconcat"
  type: "Concat"
  bottom: "conv_3c_3x3"
  bottom: "conv_3c_double_3x3_1"
  bottom: "max_pool_3c_pool"
  top: "ch_concat_3c_chconcat"
}
layer {
  name: "conv_4a_1x1"
  type: "Convolution"
  bottom: "ch_concat_3c_chconcat"
  top: "conv_4a_1x1"
  convolution_param {
    num_output: 224
    pad: 0
    kernel_size: 1
    stride: 1
  }
}
layer {
  name: "bn_4a_1x1"
  type: "BatchNorm"
  bottom: "conv_4a_1x1"
  top: "conv_4a_1x1"
  batch_norm_param {
    use_global_stats: true
  }
}
layer {
  name: "scale_conv_4a_1x1"
  type: "Scale"
  bottom: "conv_4a_1x1"
  top: "conv_4a_1x1"
  scale_param {
    bias_term: true
  }
}
layer {
  name: "relu_4a_1x1"
  type: "ReLU"
  bottom: "conv_4a_1x1"
  top: "conv_4a_1x1"
}
layer {
  name: "conv_4a_3x3_reduce"
  type: "Convolution"
  bottom: "ch_concat_3c_chconcat"
  top: "conv_4a_3x3_reduce"
  convolution_param {
    num_output: 64
    pad: 0
    kernel_size: 1
    stride: 1
  }
}
layer {
  name: "bn_4a_3x3_reduce"
  type: "BatchNorm"
  bottom: "conv_4a_3x3_reduce"
  top: "conv_4a_3x3_reduce"
  batch_norm_param {
    use_global_stats: true
  }
}
layer {
  name: "scale_conv_4a_3x3_reduce"
  type: "Scale"
  bottom: "conv_4a_3x3_reduce"
  top: "conv_4a_3x3_reduce"
  scale_param {
    bias_term: true
  }
}
layer {
  name: "relu_4a_3x3_reduce"
  type: "ReLU"
  bottom: "conv_4a_3x3_reduce"
  top: "conv_4a_3x3_reduce"
}
layer {
  name: "conv_4a_3x3"
  type: "Convolution"
  bottom: "conv_4a_3x3_reduce"
  top: "conv_4a_3x3"
  convolution_param {
    num_output: 96
    pad: 1
    kernel_size: 3
    stride: 1
  }
}
layer {
  name: "bn_4a_3x3"
  type: "BatchNorm"
  bottom: "conv_4a_3x3"
  top: "conv_4a_3x3"
  batch_norm_param {
    use_global_stats: true
  }
}
layer {
  name: "scale_conv_4a_3x3"
  type: "Scale"
  bottom: "conv_4a_3x3"
  top: "conv_4a_3x3"
  scale_param {
    bias_term: true
  }
}
layer {
  name: "relu_4a_3x3"
  type: "ReLU"
  bottom: "conv_4a_3x3"
  top: "conv_4a_3x3"
}
layer {
  name: "conv_4a_double_3x3_reduce"
  type: "Convolution"
  bottom: "ch_concat_3c_chconcat"
  top: "conv_4a_double_3x3_reduce"
  convolution_param {
    num_output: 96
    pad: 0
    kernel_size: 1
    stride: 1
  }
}
layer {
  name: "bn_4a_double_3x3_reduce"
  type: "BatchNorm"
  bottom: "conv_4a_double_3x3_reduce"
  top: "conv_4a_double_3x3_reduce"
  batch_norm_param {
    use_global_stats: true
  }
}
layer {
  name: "scale_conv_4a_double_3x3_reduce"
  type: "Scale"
  bottom: "conv_4a_double_3x3_reduce"
  top: "conv_4a_double_3x3_reduce"
  scale_param {
    bias_term: true
  }
}
layer {
  name: "relu_4a_double_3x3_reduce"
  type: "ReLU"
  bottom: "conv_4a_double_3x3_reduce"
  top: "conv_4a_double_3x3_reduce"
}
layer {
  name: "conv_4a_double_3x3_0"
  type: "Convolution"
  bottom: "conv_4a_double_3x3_reduce"
  top: "conv_4a_double_3x3_0"
  convolution_param {
    num_output: 128
    pad: 1
    kernel_size: 3
    stride: 1
  }
}
layer {
  name: "bn_4a_double_3x3_0"
  type: "BatchNorm"
  bottom: "conv_4a_double_3x3_0"
  top: "conv_4a_double_3x3_0"
  batch_norm_param {
    use_global_stats: true
  }
}
layer {
  name: "scale_conv_4a_double_3x3_0"
  type: "Scale"
  bottom: "conv_4a_double_3x3_0"
  top: "conv_4a_double_3x3_0"
  scale_param {
    bias_term: true
  }
}
layer {
  name: "relu_4a_double_3x3_0"
  type: "ReLU"
  bottom: "conv_4a_double_3x3_0"
  top: "conv_4a_double_3x3_0"
}
layer {
  name: "conv_4a_double_3x3_1"
  type: "Convolution"
  bottom: "conv_4a_double_3x3_0"
  top: "conv_4a_double_3x3_1"
  convolution_param {
    num_output: 128
    pad: 1
    kernel_size: 3
    stride: 1
  }
}
layer {
  name: "bn_4a_double_3x3_1"
  type: "BatchNorm"
  bottom: "conv_4a_double_3x3_1"
  top: "conv_4a_double_3x3_1"
  batch_norm_param {
    use_global_stats: true
  }
}
layer {
  name: "scale_conv_4a_double_3x3_1"
  type: "Scale"
  bottom: "conv_4a_double_3x3_1"
  top: "conv_4a_double_3x3_1"
  scale_param {
    bias_term: true
  }
}
layer {
  name: "relu_4a_double_3x3_1"
  type: "ReLU"
  bottom: "conv_4a_double_3x3_1"
  top: "conv_4a_double_3x3_1"
}
layer {
  name: "ave_pool_4a_pool"
  type: "Pooling"
  bottom: "ch_concat_3c_chconcat"
  top: "ave_pool_4a_pool"
  pooling_param {
    pool: AVE
    kernel_size: 3
    stride: 1
    pad: 1
  }
}
layer {
  name: "conv_4a_proj"
  type: "Convolution"
  bottom: "ave_pool_4a_pool"
  top: "conv_4a_proj"
  convolution_param {
    num_output: 128
    pad: 0
    kernel_size: 1
    stride: 1
  }
}
layer {
  name: "bn_4a_proj"
  type: "BatchNorm"
  bottom: "conv_4a_proj"
  top: "conv_4a_proj"
  batch_norm_param {
    use_global_stats: true
  }
}
layer {
  name: "scale_conv_4a_proj"
  type: "Scale"
  bottom: "conv_4a_proj"
  top: "conv_4a_proj"
  scale_param {
    bias_term: true
  }
}
layer {
  name: "relu_4a_proj"
  type: "ReLU"
  bottom: "conv_4a_proj"
  top: "conv_4a_proj"
}
layer {
  name: "ch_concat_4a_chconcat"
  type: "Concat"
  bottom: "conv_4a_1x1"
  bottom: "conv_4a_3x3"
  bottom: "conv_4a_double_3x3_1"
  bottom: "conv_4a_proj"
  top: "ch_concat_4a_chconcat"
}
layer {
  name: "conv_4b_1x1"
  type: "Convolution"
  bottom: "ch_concat_4a_chconcat"
  top: "conv_4b_1x1"
  convolution_param {
    num_output: 192
    pad: 0
    kernel_size: 1
    stride: 1
  }
}
layer {
  name: "bn_4b_1x1"
  type: "BatchNorm"
  bottom: "conv_4b_1x1"
  top: "conv_4b_1x1"
  batch_norm_param {
    use_global_stats: true
  }
}
layer {
  name: "scale_conv_4b_1x1"
  type: "Scale"
  bottom: "conv_4b_1x1"
  top: "conv_4b_1x1"
  scale_param {
    bias_term: true
  }
}
layer {
  name: "relu_4b_1x1"
  type: "ReLU"
  bottom: "conv_4b_1x1"
  top: "conv_4b_1x1"
}
layer {
  name: "conv_4b_3x3_reduce"
  type: "Convolution"
  bottom: "ch_concat_4a_chconcat"
  top: "conv_4b_3x3_reduce"
  convolution_param {
    num_output: 96
    pad: 0
    kernel_size: 1
    stride: 1
  }
}
layer {
  name: "bn_4b_3x3_reduce"
  type: "BatchNorm"
  bottom: "conv_4b_3x3_reduce"
  top: "conv_4b_3x3_reduce"
  batch_norm_param {
    use_global_stats: true
  }
}
layer {
  name: "scale_conv_4b_3x3_reduce"
  type: "Scale"
  bottom: "conv_4b_3x3_reduce"
  top: "conv_4b_3x3_reduce"
  scale_param {
    bias_term: true
  }
}
layer {
  name: "relu_4b_3x3_reduce"
  type: "ReLU"
  bottom: "conv_4b_3x3_reduce"
  top: "conv_4b_3x3_reduce"
}
layer {
  name: "conv_4b_3x3"
  type: "Convolution"
  bottom: "conv_4b_3x3_reduce"
  top: "conv_4b_3x3"
  convolution_param {
    num_output: 128
    pad: 1
    kernel_size: 3
    stride: 1
  }
}
layer {
  name: "bn_4b_3x3"
  type: "BatchNorm"
  bottom: "conv_4b_3x3"
  top: "conv_4b_3x3"
  batch_norm_param {
    use_global_stats: true
  }
}
layer {
  name: "scale_conv_4b_3x3"
  type: "Scale"
  bottom: "conv_4b_3x3"
  top: "conv_4b_3x3"
  scale_param {
    bias_term: true
  }
}
layer {
  name: "relu_4b_3x3"
  type: "ReLU"
  bottom: "conv_4b_3x3"
  top: "conv_4b_3x3"
}
layer {
  name: "conv_4b_double_3x3_reduce"
  type: "Convolution"
  bottom: "ch_concat_4a_chconcat"
  top: "conv_4b_double_3x3_reduce"
  convolution_param {
    num_output: 96
    pad: 0
    kernel_size: 1
    stride: 1
  }
}
layer {
  name: "bn_4b_double_3x3_reduce"
  type: "BatchNorm"
  bottom: "conv_4b_double_3x3_reduce"
  top: "conv_4b_double_3x3_reduce"
  batch_norm_param {
    use_global_stats: true
  }
}
layer {
  name: "scale_conv_4b_double_3x3_reduce"
  type: "Scale"
  bottom: "conv_4b_double_3x3_reduce"
  top: "conv_4b_double_3x3_reduce"
  scale_param {
    bias_term: true
  }
}
layer {
  name: "relu_4b_double_3x3_reduce"
  type: "ReLU"
  bottom: "conv_4b_double_3x3_reduce"
  top: "conv_4b_double_3x3_reduce"
}
layer {
  name: "conv_4b_double_3x3_0"
  type: "Convolution"
  bottom: "conv_4b_double_3x3_reduce"
  top: "conv_4b_double_3x3_0"
  convolution_param {
    num_output: 128
    pad: 1
    kernel_size: 3
    stride: 1
  }
}
layer {
  name: "bn_4b_double_3x3_0"
  type: "BatchNorm"
  bottom: "conv_4b_double_3x3_0"
  top: "conv_4b_double_3x3_0"
  batch_norm_param {
    use_global_stats: true
  }
}
layer {
  name: "scale_conv_4b_double_3x3_0"
  type: "Scale"
  bottom: "conv_4b_double_3x3_0"
  top: "conv_4b_double_3x3_0"
  scale_param {
    bias_term: true
  }
}
layer {
  name: "relu_4b_double_3x3_0"
  type: "ReLU"
  bottom: "conv_4b_double_3x3_0"
  top: "conv_4b_double_3x3_0"
}
layer {
  name: "conv_4b_double_3x3_1"
  type: "Convolution"
  bottom: "conv_4b_double_3x3_0"
  top: "conv_4b_double_3x3_1"
  convolution_param {
    num_output: 128
    pad: 1
    kernel_size: 3
    stride: 1
  }
}
layer {
  name: "bn_4b_double_3x3_1"
  type: "BatchNorm"
  bottom: "conv_4b_double_3x3_1"
  top: "conv_4b_double_3x3_1"
  batch_norm_param {
    use_global_stats: true
  }
}
layer {
  name: "scale_conv_4b_double_3x3_1"
  type: "Scale"
  bottom: "conv_4b_double_3x3_1"
  top: "conv_4b_double_3x3_1"
  scale_param {
    bias_term: true
  }
}
layer {
  name: "relu_4b_double_3x3_1"
  type: "ReLU"
  bottom: "conv_4b_double_3x3_1"
  top: "conv_4b_double_3x3_1"
}
layer {
  name: "ave_pool_4b_pool"
  type: "Pooling"
  bottom: "ch_concat_4a_chconcat"
  top: "ave_pool_4b_pool"
  pooling_param {
    pool: AVE
    kernel_size: 3
    stride: 1
    pad: 1
  }
}
layer {
  name: "conv_4b_proj"
  type: "Convolution"
  bottom: "ave_pool_4b_pool"
  top: "conv_4b_proj"
  convolution_param {
    num_output: 128
    pad: 0
    kernel_size: 1
    stride: 1
  }
}
layer {
  name: "bn_4b_proj"
  type: "BatchNorm"
  bottom: "conv_4b_proj"
  top: "conv_4b_proj"
  batch_norm_param {
    use_global_stats: true
  }
}
layer {
  name: "scale_conv_4b_proj"
  type: "Scale"
  bottom: "conv_4b_proj"
  top: "conv_4b_proj"
  scale_param {
    bias_term: true
  }
}
layer {
  name: "relu_4b_proj"
  type: "ReLU"
  bottom: "conv_4b_proj"
  top: "conv_4b_proj"
}
layer {
  name: "ch_concat_4b_chconcat"
  type: "Concat"
  bottom: "conv_4b_1x1"
  bottom: "conv_4b_3x3"
  bottom: "conv_4b_double_3x3_1"
  bottom: "conv_4b_proj"
  top: "ch_concat_4b_chconcat"
}
layer {
  name: "conv_4c_1x1"
  type: "Convolution"
  bottom: "ch_concat_4b_chconcat"
  top: "conv_4c_1x1"
  convolution_param {
    num_output: 160
    pad: 0
    kernel_size: 1
    stride: 1
  }
}
layer {
  name: "bn_4c_1x1"
  type: "BatchNorm"
  bottom: "conv_4c_1x1"
  top: "conv_4c_1x1"
  batch_norm_param {
    use_global_stats: true
  }
}
layer {
  name: "scale_conv_4c_1x1"
  type: "Scale"
  bottom: "conv_4c_1x1"
  top: "conv_4c_1x1"
  scale_param {
    bias_term: true
  }
}
layer {
  name: "relu_4c_1x1"
  type: "ReLU"
  bottom: "conv_4c_1x1"
  top: "conv_4c_1x1"
}
layer {
  name: "conv_4c_3x3_reduce"
  type: "Convolution"
  bottom: "ch_concat_4b_chconcat"
  top: "conv_4c_3x3_reduce"
  convolution_param {
    num_output: 128
    pad: 0
    kernel_size: 1
    stride: 1
  }
}
layer {
  name: "bn_4c_3x3_reduce"
  type: "BatchNorm"
  bottom: "conv_4c_3x3_reduce"
  top: "conv_4c_3x3_reduce"
  batch_norm_param {
    use_global_stats: true
  }
}
layer {
  name: "scale_conv_4c_3x3_reduce"
  type: "Scale"
  bottom: "conv_4c_3x3_reduce"
  top: "conv_4c_3x3_reduce"
  scale_param {
    bias_term: true
  }
}
layer {
  name: "relu_4c_3x3_reduce"
  type: "ReLU"
  bottom: "conv_4c_3x3_reduce"
  top: "conv_4c_3x3_reduce"
}
layer {
  name: "conv_4c_3x3"
  type: "Convolution"
  bottom: "conv_4c_3x3_reduce"
  top: "conv_4c_3x3"
  convolution_param {
    num_output: 160
    pad: 1
    kernel_size: 3
    stride: 1
  }
}
layer {
  name: "bn_4c_3x3"
  type: "BatchNorm"
  bottom: "conv_4c_3x3"
  top: "conv_4c_3x3"
  batch_norm_param {
    use_global_stats: true
  }
}
layer {
  name: "scale_conv_4c_3x3"
  type: "Scale"
  bottom: "conv_4c_3x3"
  top: "conv_4c_3x3"
  scale_param {
    bias_term: true
  }
}
layer {
  name: "relu_4c_3x3"
  type: "ReLU"
  bottom: "conv_4c_3x3"
  top: "conv_4c_3x3"
}
layer {
  name: "conv_4c_double_3x3_reduce"
  type: "Convolution"
  bottom: "ch_concat_4b_chconcat"
  top: "conv_4c_double_3x3_reduce"
  convolution_param {
    num_output: 128
    pad: 0
    kernel_size: 1
    stride: 1
  }
}
layer {
  name: "bn_4c_double_3x3_reduce"
  type: "BatchNorm"
  bottom: "conv_4c_double_3x3_reduce"
  top: "conv_4c_double_3x3_reduce"
  batch_norm_param {
    use_global_stats: true
  }
}
layer {
  name: "scale_conv_4c_double_3x3_reduce"
  type: "Scale"
  bottom: "conv_4c_double_3x3_reduce"
  top: "conv_4c_double_3x3_reduce"
  scale_param {
    bias_term: true
  }
}
layer {
  name: "relu_4c_double_3x3_reduce"
  type: "ReLU"
  bottom: "conv_4c_double_3x3_reduce"
  top: "conv_4c_double_3x3_reduce"
}
layer {
  name: "conv_4c_double_3x3_0"
  type: "Convolution"
  bottom: "conv_4c_double_3x3_reduce"
  top: "conv_4c_double_3x3_0"
  convolution_param {
    num_output: 160
    pad: 1
    kernel_size: 3
    stride: 1
  }
}
layer {
  name: "bn_4c_double_3x3_0"
  type: "BatchNorm"
  bottom: "conv_4c_double_3x3_0"
  top: "conv_4c_double_3x3_0"
  batch_norm_param {
    use_global_stats: true
  }
}
layer {
  name: "scale_conv_4c_double_3x3_0"
  type: "Scale"
  bottom: "conv_4c_double_3x3_0"
  top: "conv_4c_double_3x3_0"
  scale_param {
    bias_term: true
  }
}
layer {
  name: "relu_4c_double_3x3_0"
  type: "ReLU"
  bottom: "conv_4c_double_3x3_0"
  top: "conv_4c_double_3x3_0"
}
layer {
  name: "conv_4c_double_3x3_1"
  type: "Convolution"
  bottom: "conv_4c_double_3x3_0"
  top: "conv_4c_double_3x3_1"
  convolution_param {
    num_output: 160
    pad: 1
    kernel_size: 3
    stride: 1
  }
}
layer {
  name: "bn_4c_double_3x3_1"
  type: "BatchNorm"
  bottom: "conv_4c_double_3x3_1"
  top: "conv_4c_double_3x3_1"
  batch_norm_param {
    use_global_stats: true
  }
}
layer {
  name: "scale_conv_4c_double_3x3_1"
  type: "Scale"
  bottom: "conv_4c_double_3x3_1"
  top: "conv_4c_double_3x3_1"
  scale_param {
    bias_term: true
  }
}
layer {
  name: "relu_4c_double_3x3_1"
  type: "ReLU"
  bottom: "conv_4c_double_3x3_1"
  top: "conv_4c_double_3x3_1"
}
layer {
  name: "ave_pool_4c_pool"
  type: "Pooling"
  bottom: "ch_concat_4b_chconcat"
  top: "ave_pool_4c_pool"
  pooling_param {
    pool: AVE
    kernel_size: 3
    stride: 1
    pad: 1
  }
}
layer {
  name: "conv_4c_proj"
  type: "Convolution"
  bottom: "ave_pool_4c_pool"
  top: "conv_4c_proj"
  convolution_param {
    num_output: 128
    pad: 0
    kernel_size: 1
    stride: 1
  }
}
layer {
  name: "bn_4c_proj"
  type: "BatchNorm"
  bottom: "conv_4c_proj"
  top: "conv_4c_proj"
  batch_norm_param {
    us
I1227 01:38:18.074751  2908 layer_factory.hpp:77] Creating layer data_train
I1227 01:38:18.074820  2908 net.cpp:100] Creating Layer data_train
I1227 01:38:18.074842  2908 net.cpp:408] data_train -> data
I1227 01:38:18.074890  2908 net.cpp:408] data_train -> label
I1227 01:38:18.074923  2908 image_data_layer.cpp:38] Opening file ../AFEW_Detect/Train/imlist_train.txt
I1227 01:38:18.083557  2908 image_data_layer.cpp:53] Shuffling data
I1227 01:38:18.087673  2908 image_data_layer.cpp:58] A total of 15726 images.
I1227 01:38:18.106683  2908 image_data_layer.cpp:85] output data size: 30,3,224,224
I1227 01:38:18.146952  2908 net.cpp:150] Setting up data_train
I1227 01:38:18.147023  2908 net.cpp:157] Top shape: 30 3 224 224 (4515840)
I1227 01:38:18.147040  2908 net.cpp:157] Top shape: 30 (30)
I1227 01:38:18.147053  2908 net.cpp:165] Memory required for data: 18063480
I1227 01:38:18.147074  2908 layer_factory.hpp:77] Creating layer label_data_train_1_split
I1227 01:38:18.147106  2908 net.cpp:100] Creating Layer label_data_train_1_split
I1227 01:38:18.147124  2908 net.cpp:434] label_data_train_1_split <- label
I1227 01:38:18.147177  2908 net.cpp:408] label_data_train_1_split -> label_data_train_1_split_0
I1227 01:38:18.147214  2908 net.cpp:408] label_data_train_1_split -> label_data_train_1_split_1
I1227 01:38:18.147327  2908 net.cpp:150] Setting up label_data_train_1_split
I1227 01:38:18.147348  2908 net.cpp:157] Top shape: 30 (30)
I1227 01:38:18.147361  2908 net.cpp:157] Top shape: 30 (30)
I1227 01:38:18.147372  2908 net.cpp:165] Memory required for data: 18063720
I1227 01:38:18.147383  2908 layer_factory.hpp:77] Creating layer conv_conv1
I1227 01:38:18.147429  2908 net.cpp:100] Creating Layer conv_conv1
I1227 01:38:18.147444  2908 net.cpp:434] conv_conv1 <- data
I1227 01:38:18.147459  2908 net.cpp:408] conv_conv1 -> conv_conv1
I1227 01:38:18.148473  2908 net.cpp:150] Setting up conv_conv1
I1227 01:38:18.148500  2908 net.cpp:157] Top shape: 30 96 112 112 (36126720)
I1227 01:38:18.148530  2908 net.cpp:165] Memory required for data: 162570600
I1227 01:38:18.148567  2908 layer_factory.hpp:77] Creating layer bn_conv1
I1227 01:38:18.148588  2908 net.cpp:100] Creating Layer bn_conv1
I1227 01:38:18.148602  2908 net.cpp:434] bn_conv1 <- conv_conv1
I1227 01:38:18.148617  2908 net.cpp:395] bn_conv1 -> conv_conv1 (in-place)
I1227 01:38:18.148933  2908 net.cpp:150] Setting up bn_conv1
I1227 01:38:18.148955  2908 net.cpp:157] Top shape: 30 96 112 112 (36126720)
I1227 01:38:18.148985  2908 net.cpp:165] Memory required for data: 307077480
I1227 01:38:18.149009  2908 layer_factory.hpp:77] Creating layer scale_conv_conv1
I1227 01:38:18.149035  2908 net.cpp:100] Creating Layer scale_conv_conv1
I1227 01:38:18.149049  2908 net.cpp:434] scale_conv_conv1 <- conv_conv1
I1227 01:38:18.149063  2908 net.cpp:395] scale_conv_conv1 -> conv_conv1 (in-place)
I1227 01:38:18.149130  2908 layer_factory.hpp:77] Creating layer scale_conv_conv1
I1227 01:38:18.149315  2908 net.cpp:150] Setting up scale_conv_conv1
I1227 01:38:18.149338  2908 net.cpp:157] Top shape: 30 96 112 112 (36126720)
I1227 01:38:18.149350  2908 net.cpp:165] Memory required for data: 451584360
I1227 01:38:18.149366  2908 layer_factory.hpp:77] Creating layer relu_conv1
I1227 01:38:18.149384  2908 net.cpp:100] Creating Layer relu_conv1
I1227 01:38:18.149404  2908 net.cpp:434] relu_conv1 <- conv_conv1
I1227 01:38:18.149432  2908 net.cpp:395] relu_conv1 -> conv_conv1 (in-place)
I1227 01:38:18.149449  2908 net.cpp:150] Setting up relu_conv1
I1227 01:38:18.149463  2908 net.cpp:157] Top shape: 30 96 112 112 (36126720)
I1227 01:38:18.149474  2908 net.cpp:165] Memory required for data: 596091240
I1227 01:38:18.149488  2908 layer_factory.hpp:77] Creating layer pool1
I1227 01:38:18.149504  2908 net.cpp:100] Creating Layer pool1
I1227 01:38:18.149516  2908 net.cpp:434] pool1 <- conv_conv1
I1227 01:38:18.149530  2908 net.cpp:408] pool1 -> pool1
I1227 01:38:18.149596  2908 net.cpp:150] Setting up pool1
I1227 01:38:18.149616  2908 net.cpp:157] Top shape: 30 96 56 56 (9031680)
I1227 01:38:18.149628  2908 net.cpp:165] Memory required for data: 632217960
I1227 01:38:18.149639  2908 layer_factory.hpp:77] Creating layer conv_conv2red
I1227 01:38:18.149657  2908 net.cpp:100] Creating Layer conv_conv2red
I1227 01:38:18.149668  2908 net.cpp:434] conv_conv2red <- pool1
I1227 01:38:18.149683  2908 net.cpp:408] conv_conv2red -> conv_conv2red
I1227 01:38:18.150748  2908 net.cpp:150] Setting up conv_conv2red
I1227 01:38:18.150777  2908 net.cpp:157] Top shape: 30 128 56 56 (12042240)
I1227 01:38:18.150790  2908 net.cpp:165] Memory required for data: 680386920
I1227 01:38:18.150810  2908 layer_factory.hpp:77] Creating layer bn_conv2red
I1227 01:38:18.150833  2908 net.cpp:100] Creating Layer bn_conv2red
I1227 01:38:18.150847  2908 net.cpp:434] bn_conv2red <- conv_conv2red
I1227 01:38:18.150864  2908 net.cpp:395] bn_conv2red -> conv_conv2red (in-place)
I1227 01:38:18.153151  2908 net.cpp:150] Setting up bn_conv2red
I1227 01:38:18.153201  2908 net.cpp:157] Top shape: 30 128 56 56 (12042240)
I1227 01:38:18.153218  2908 net.cpp:165] Memory required for data: 728555880
I1227 01:38:18.153245  2908 layer_factory.hpp:77] Creating layer scale_conv_conv2red
I1227 01:38:18.153264  2908 net.cpp:100] Creating Layer scale_conv_conv2red
I1227 01:38:18.153276  2908 net.cpp:434] scale_conv_conv2red <- conv_conv2red
I1227 01:38:18.153298  2908 net.cpp:395] scale_conv_conv2red -> conv_conv2red (in-place)
I1227 01:38:18.153357  2908 layer_factory.hpp:77] Creating layer scale_conv_conv2red
I1227 01:38:18.153502  2908 net.cpp:150] Setting up scale_conv_conv2red
I1227 01:38:18.153524  2908 net.cpp:157] Top shape: 30 128 56 56 (12042240)
I1227 01:38:18.153535  2908 net.cpp:165] Memory required for data: 776724840
I1227 01:38:18.153550  2908 layer_factory.hpp:77] Creating layer relu_conv2red
I1227 01:38:18.153565  2908 net.cpp:100] Creating Layer relu_conv2red
I1227 01:38:18.153576  2908 net.cpp:434] relu_conv2red <- conv_conv2red
I1227 01:38:18.153590  2908 net.cpp:395] relu_conv2red -> conv_conv2red (in-place)
I1227 01:38:18.153617  2908 net.cpp:150] Setting up relu_conv2red
I1227 01:38:18.153633  2908 net.cpp:157] Top shape: 30 128 56 56 (12042240)
I1227 01:38:18.153645  2908 net.cpp:165] Memory required for data: 824893800
I1227 01:38:18.153656  2908 layer_factory.hpp:77] Creating layer conv_conv2
I1227 01:38:18.153681  2908 net.cpp:100] Creating Layer conv_conv2
I1227 01:38:18.153693  2908 net.cpp:434] conv_conv2 <- conv_conv2red
I1227 01:38:18.153712  2908 net.cpp:408] conv_conv2 -> conv_conv2
I1227 01:38:18.155647  2908 net.cpp:150] Setting up conv_conv2
I1227 01:38:18.155674  2908 net.cpp:157] Top shape: 30 288 56 56 (27095040)
I1227 01:38:18.155688  2908 net.cpp:165] Memory required for data: 933273960
I1227 01:38:18.155704  2908 layer_factory.hpp:77] Creating layer bn_conv2
I1227 01:38:18.155725  2908 net.cpp:100] Creating Layer bn_conv2
I1227 01:38:18.155740  2908 net.cpp:434] bn_conv2 <- conv_conv2
I1227 01:38:18.155755  2908 net.cpp:395] bn_conv2 -> conv_conv2 (in-place)
I1227 01:38:18.155977  2908 net.cpp:150] Setting up bn_conv2
I1227 01:38:18.155998  2908 net.cpp:157] Top shape: 30 288 56 56 (27095040)
I1227 01:38:18.156010  2908 net.cpp:165] Memory required for data: 1041654120
I1227 01:38:18.156051  2908 layer_factory.hpp:77] Creating layer scale_conv_conv2
I1227 01:38:18.156069  2908 net.cpp:100] Creating Layer scale_conv_conv2
I1227 01:38:18.156080  2908 net.cpp:434] scale_conv_conv2 <- conv_conv2
I1227 01:38:18.156107  2908 net.cpp:395] scale_conv_conv2 -> conv_conv2 (in-place)
I1227 01:38:18.156170  2908 layer_factory.hpp:77] Creating layer scale_conv_conv2
I1227 01:38:18.156334  2908 net.cpp:150] Setting up scale_conv_conv2
I1227 01:38:18.156359  2908 net.cpp:157] Top shape: 30 288 56 56 (27095040)
I1227 01:38:18.156371  2908 net.cpp:165] Memory required for data: 1150034280
I1227 01:38:18.156388  2908 layer_factory.hpp:77] Creating layer relu_conv2
I1227 01:38:18.156404  2908 net.cpp:100] Creating Layer relu_conv2
I1227 01:38:18.156414  2908 net.cpp:434] relu_conv2 <- conv_conv2
I1227 01:38:18.156428  2908 net.cpp:395] relu_conv2 -> conv_conv2 (in-place)
I1227 01:38:18.156443  2908 net.cpp:150] Setting up relu_conv2
I1227 01:38:18.156457  2908 net.cpp:157] Top shape: 30 288 56 56 (27095040)
I1227 01:38:18.156468  2908 net.cpp:165] Memory required for data: 1258414440
I1227 01:38:18.156479  2908 layer_factory.hpp:77] Creating layer pool2
I1227 01:38:18.156497  2908 net.cpp:100] Creating Layer pool2
I1227 01:38:18.156509  2908 net.cpp:434] pool2 <- conv_conv2
I1227 01:38:18.156523  2908 net.cpp:408] pool2 -> pool2
I1227 01:38:18.156580  2908 net.cpp:150] Setting up pool2
I1227 01:38:18.156600  2908 net.cpp:157] Top shape: 30 288 28 28 (6773760)
I1227 01:38:18.156611  2908 net.cpp:165] Memory required for data: 1285509480
I1227 01:38:18.156623  2908 layer_factory.hpp:77] Creating layer pool2_pool2_0_split
I1227 01:38:18.156641  2908 net.cpp:100] Creating Layer pool2_pool2_0_split
I1227 01:38:18.156653  2908 net.cpp:434] pool2_pool2_0_split <- pool2
I1227 01:38:18.156668  2908 net.cpp:408] pool2_pool2_0_split -> pool2_pool2_0_split_0
I1227 01:38:18.156689  2908 net.cpp:408] pool2_pool2_0_split -> pool2_pool2_0_split_1
I1227 01:38:18.156708  2908 net.cpp:408] pool2_pool2_0_split -> pool2_pool2_0_split_2
I1227 01:38:18.156725  2908 net.cpp:408] pool2_pool2_0_split -> pool2_pool2_0_split_3
I1227 01:38:18.156800  2908 net.cpp:150] Setting up pool2_pool2_0_split
I1227 01:38:18.156817  2908 net.cpp:157] Top shape: 30 288 28 28 (6773760)
I1227 01:38:18.156831  2908 net.cpp:157] Top shape: 30 288 28 28 (6773760)
I1227 01:38:18.156844  2908 net.cpp:157] Top shape: 30 288 28 28 (6773760)
I1227 01:38:18.156857  2908 net.cpp:157] Top shape: 30 288 28 28 (6773760)
I1227 01:38:18.156869  2908 net.cpp:165] Memory required for data: 1393889640
I1227 01:38:18.156880  2908 layer_factory.hpp:77] Creating layer conv_3a_1x1
I1227 01:38:18.156903  2908 net.cpp:100] Creating Layer conv_3a_1x1
I1227 01:38:18.156915  2908 net.cpp:434] conv_3a_1x1 <- pool2_pool2_0_split_0
I1227 01:38:18.156934  2908 net.cpp:408] conv_3a_1x1 -> conv_3a_1x1
I1227 01:38:18.157868  2908 net.cpp:150] Setting up conv_3a_1x1
I1227 01:38:18.157894  2908 net.cpp:157] Top shape: 30 96 28 28 (2257920)
I1227 01:38:18.157907  2908 net.cpp:165] Memory required for data: 1402921320
I1227 01:38:18.157922  2908 layer_factory.hpp:77] Creating layer bn_3a_1x1
I1227 01:38:18.157938  2908 net.cpp:100] Creating Layer bn_3a_1x1
I1227 01:38:18.157949  2908 net.cpp:434] bn_3a_1x1 <- conv_3a_1x1
I1227 01:38:18.157968  2908 net.cpp:395] bn_3a_1x1 -> conv_3a_1x1 (in-place)
I1227 01:38:18.158195  2908 net.cpp:150] Setting up bn_3a_1x1
I1227 01:38:18.158215  2908 net.cpp:157] Top shape: 30 96 28 28 (2257920)
I1227 01:38:18.158227  2908 net.cpp:165] Memory required for data: 1411953000
I1227 01:38:18.158246  2908 layer_factory.hpp:77] Creating layer scale_conv_3a_1x1
I1227 01:38:18.158262  2908 net.cpp:100] Creating Layer scale_conv_3a_1x1
I1227 01:38:18.158272  2908 net.cpp:434] scale_conv_3a_1x1 <- conv_3a_1x1
I1227 01:38:18.158291  2908 net.cpp:395] scale_conv_3a_1x1 -> conv_3a_1x1 (in-place)
I1227 01:38:18.158349  2908 layer_factory.hpp:77] Creating layer scale_conv_3a_1x1
I1227 01:38:18.158498  2908 net.cpp:150] Setting up scale_conv_3a_1x1
I1227 01:38:18.158519  2908 net.cpp:157] Top shape: 30 96 28 28 (2257920)
I1227 01:38:18.158531  2908 net.cpp:165] Memory required for data: 1420984680
I1227 01:38:18.158547  2908 layer_factory.hpp:77] Creating layer relu_3a_1x1
I1227 01:38:18.158565  2908 net.cpp:100] Creating Layer relu_3a_1x1
I1227 01:38:18.158577  2908 net.cpp:434] relu_3a_1x1 <- conv_3a_1x1
I1227 01:38:18.158591  2908 net.cpp:395] relu_3a_1x1 -> conv_3a_1x1 (in-place)
I1227 01:38:18.158607  2908 net.cpp:150] Setting up relu_3a_1x1
I1227 01:38:18.158622  2908 net.cpp:157] Top shape: 30 96 28 28 (2257920)
I1227 01:38:18.158632  2908 net.cpp:165] Memory required for data: 1430016360
I1227 01:38:18.158644  2908 layer_factory.hpp:77] Creating layer conv_3a_3x3_reduce
I1227 01:38:18.158663  2908 net.cpp:100] Creating Layer conv_3a_3x3_reduce
I1227 01:38:18.158676  2908 net.cpp:434] conv_3a_3x3_reduce <- pool2_pool2_0_split_1
I1227 01:38:18.158691  2908 net.cpp:408] conv_3a_3x3_reduce -> conv_3a_3x3_reduce
I1227 01:38:18.158967  2908 net.cpp:150] Setting up conv_3a_3x3_reduce
I1227 01:38:18.158993  2908 net.cpp:157] Top shape: 30 96 28 28 (2257920)
I1227 01:38:18.159004  2908 net.cpp:165] Memory required for data: 1439048040
I1227 01:38:18.159019  2908 layer_factory.hpp:77] Creating layer bn_3a_3x3_reduce
I1227 01:38:18.159034  2908 net.cpp:100] Creating Layer bn_3a_3x3_reduce
I1227 01:38:18.159045  2908 net.cpp:434] bn_3a_3x3_reduce <- conv_3a_3x3_reduce
I1227 01:38:18.159062  2908 net.cpp:395] bn_3a_3x3_reduce -> conv_3a_3x3_reduce (in-place)
I1227 01:38:18.159303  2908 net.cpp:150] Setting up bn_3a_3x3_reduce
I1227 01:38:18.159329  2908 net.cpp:157] Top shape: 30 96 28 28 (2257920)
I1227 01:38:18.159343  2908 net.cpp:165] Memory required for data: 1448079720
I1227 01:38:18.159368  2908 layer_factory.hpp:77] Creating layer scale_conv_3a_3x3_reduce
I1227 01:38:18.159386  2908 net.cpp:100] Creating Layer scale_conv_3a_3x3_reduce
I1227 01:38:18.159399  2908 net.cpp:434] scale_conv_3a_3x3_reduce <- conv_3a_3x3_reduce
I1227 01:38:18.159415  2908 net.cpp:395] scale_conv_3a_3x3_reduce -> conv_3a_3x3_reduce (in-place)
I1227 01:38:18.159476  2908 layer_factory.hpp:77] Creating layer scale_conv_3a_3x3_reduce
I1227 01:38:18.159627  2908 net.cpp:150] Setting up scale_conv_3a_3x3_reduce
I1227 01:38:18.159652  2908 net.cpp:157] Top shape: 30 96 28 28 (2257920)
I1227 01:38:18.159665  2908 net.cpp:165] Memory required for data: 1457111400
I1227 01:38:18.159680  2908 layer_factory.hpp:77] Creating layer relu_3a_3x3_reduce
I1227 01:38:18.159695  2908 net.cpp:100] Creating Layer relu_3a_3x3_reduce
I1227 01:38:18.159708  2908 net.cpp:434] relu_3a_3x3_reduce <- conv_3a_3x3_reduce
I1227 01:38:18.159723  2908 net.cpp:395] relu_3a_3x3_reduce -> conv_3a_3x3_reduce (in-place)
I1227 01:38:18.159737  2908 net.cpp:150] Setting up relu_3a_3x3_reduce
I1227 01:38:18.159752  2908 net.cpp:157] Top shape: 30 96 28 28 (2257920)
I1227 01:38:18.159772  2908 net.cpp:165] Memory required for data: 1466143080
I1227 01:38:18.159785  2908 layer_factory.hpp:77] Creating layer conv_3a_3x3
I1227 01:38:18.159806  2908 net.cpp:100] Creating Layer conv_3a_3x3
I1227 01:38:18.159818  2908 net.cpp:434] conv_3a_3x3 <- conv_3a_3x3_reduce
I1227 01:38:18.159834  2908 net.cpp:408] conv_3a_3x3 -> conv_3a_3x3
I1227 01:38:18.160951  2908 net.cpp:150] Setting up conv_3a_3x3
I1227 01:38:18.160981  2908 net.cpp:157] Top shape: 30 96 28 28 (2257920)
I1227 01:38:18.160995  2908 net.cpp:165] Memory required for data: 1475174760
I1227 01:38:18.161011  2908 layer_factory.hpp:77] Creating layer bn_3a_3x3
I1227 01:38:18.161038  2908 net.cpp:100] Creating Layer bn_3a_3x3
I1227 01:38:18.161051  2908 net.cpp:434] bn_3a_3x3 <- conv_3a_3x3
I1227 01:38:18.161072  2908 net.cpp:395] bn_3a_3x3 -> conv_3a_3x3 (in-place)
I1227 01:38:18.161309  2908 net.cpp:150] Setting up bn_3a_3x3
I1227 01:38:18.161334  2908 net.cpp:157] Top shape: 30 96 28 28 (2257920)
I1227 01:38:18.161345  2908 net.cpp:165] Memory required for data: 1484206440
I1227 01:38:18.161361  2908 layer_factory.hpp:77] Creating layer scale_conv_3a_3x3
I1227 01:38:18.161377  2908 net.cpp:100] Creating Layer scale_conv_3a_3x3
I1227 01:38:18.161388  2908 net.cpp:434] scale_conv_3a_3x3 <- conv_3a_3x3
I1227 01:38:18.161417  2908 net.cpp:395] scale_conv_3a_3x3 -> conv_3a_3x3 (in-place)
I1227 01:38:18.161473  2908 layer_factory.hpp:77] Creating layer scale_conv_3a_3x3
I1227 01:38:18.161623  2908 net.cpp:150] Setting up scale_conv_3a_3x3
I1227 01:38:18.161648  2908 net.cpp:157] Top shape: 30 96 28 28 (2257920)
I1227 01:38:18.161659  2908 net.cpp:165] Memory required for data: 1493238120
I1227 01:38:18.161674  2908 layer_factory.hpp:77] Creating layer relu_3a_3x3
I1227 01:38:18.161690  2908 net.cpp:100] Creating Layer relu_3a_3x3
I1227 01:38:18.161702  2908 net.cpp:434] relu_3a_3x3 <- conv_3a_3x3
I1227 01:38:18.161718  2908 net.cpp:395] relu_3a_3x3 -> conv_3a_3x3 (in-place)
I1227 01:38:18.161736  2908 net.cpp:150] Setting up relu_3a_3x3
I1227 01:38:18.161753  2908 net.cpp:157] Top shape: 30 96 28 28 (2257920)
I1227 01:38:18.161764  2908 net.cpp:165] Memory required for data: 1502269800
I1227 01:38:18.161775  2908 layer_factory.hpp:77] Creating layer conv_3a_double_3x3_reduce
I1227 01:38:18.161795  2908 net.cpp:100] Creating Layer conv_3a_double_3x3_reduce
I1227 01:38:18.161808  2908 net.cpp:434] conv_3a_double_3x3_reduce <- pool2_pool2_0_split_2
I1227 01:38:18.161824  2908 net.cpp:408] conv_3a_double_3x3_reduce -> conv_3a_double_3x3_reduce
I1227 01:38:18.162097  2908 net.cpp:150] Setting up conv_3a_double_3x3_reduce
I1227 01:38:18.162123  2908 net.cpp:157] Top shape: 30 96 28 28 (2257920)
I1227 01:38:18.162135  2908 net.cpp:165] Memory required for data: 1511301480
I1227 01:38:18.162152  2908 layer_factory.hpp:77] Creating layer bn_3a_double_3x3_reduce
I1227 01:38:18.162168  2908 net.cpp:100] Creating Layer bn_3a_double_3x3_reduce
I1227 01:38:18.162189  2908 net.cpp:434] bn_3a_double_3x3_reduce <- conv_3a_double_3x3_reduce
I1227 01:38:18.162209  2908 net.cpp:395] bn_3a_double_3x3_reduce -> conv_3a_double_3x3_reduce (in-place)
I1227 01:38:18.162425  2908 net.cpp:150] Setting up bn_3a_double_3x3_reduce
I1227 01:38:18.162448  2908 net.cpp:157] Top shape: 30 96 28 28 (2257920)
I1227 01:38:18.162461  2908 net.cpp:165] Memory required for data: 1520333160
I1227 01:38:18.162478  2908 layer_factory.hpp:77] Creating layer scale_conv_3a_double_3x3_reduce
I1227 01:38:18.162494  2908 net.cpp:100] Creating Layer scale_conv_3a_double_3x3_reduce
I1227 01:38:18.162506  2908 net.cpp:434] scale_conv_3a_double_3x3_reduce <- conv_3a_double_3x3_reduce
I1227 01:38:18.162525  2908 net.cpp:395] scale_conv_3a_double_3x3_reduce -> conv_3a_double_3x3_reduce (in-place)
I1227 01:38:18.162582  2908 layer_factory.hpp:77] Creating layer scale_conv_3a_double_3x3_reduce
I1227 01:38:18.162734  2908 net.cpp:150] Setting up scale_conv_3a_double_3x3_reduce
I1227 01:38:18.162756  2908 net.cpp:157] Top shape: 30 96 28 28 (2257920)
I1227 01:38:18.162770  2908 net.cpp:165] Memory required for data: 1529364840
I1227 01:38:18.162793  2908 layer_factory.hpp:77] Creating layer relu_3a_double_3x3_reduce
I1227 01:38:18.162820  2908 net.cpp:100] Creating Layer relu_3a_double_3x3_reduce
I1227 01:38:18.162835  2908 net.cpp:434] relu_3a_double_3x3_reduce <- conv_3a_double_3x3_reduce
I1227 01:38:18.162850  2908 net.cpp:395] relu_3a_double_3x3_reduce -> conv_3a_double_3x3_reduce (in-place)
I1227 01:38:18.162868  2908 net.cpp:150] Setting up relu_3a_double_3x3_reduce
I1227 01:38:18.162881  2908 net.cpp:157] Top shape: 30 96 28 28 (2257920)
I1227 01:38:18.162894  2908 net.cpp:165] Memory required for data: 1538396520
I1227 01:38:18.162904  2908 layer_factory.hpp:77] Creating layer conv_3a_double_3x3_0
I1227 01:38:18.162925  2908 net.cpp:100] Creating Layer conv_3a_double_3x3_0
I1227 01:38:18.162937  2908 net.cpp:434] conv_3a_double_3x3_0 <- conv_3a_double_3x3_reduce
I1227 01:38:18.162955  2908 net.cpp:408] conv_3a_double_3x3_0 -> conv_3a_double_3x3_0
I1227 01:38:18.163314  2908 net.cpp:150] Setting up conv_3a_double_3x3_0
I1227 01:38:18.163338  2908 net.cpp:157] Top shape: 30 144 28 28 (3386880)
I1227 01:38:18.163350  2908 net.cpp:165] Memory required for data: 1551944040
I1227 01:38:18.163364  2908 layer_factory.hpp:77] Creating layer bn_3a_double_3x3_0
I1227 01:38:18.163384  2908 net.cpp:100] Creating Layer bn_3a_double_3x3_0
I1227 01:38:18.163398  2908 net.cpp:434] bn_3a_double_3x3_0 <- conv_3a_double_3x3_0
I1227 01:38:18.163414  2908 net.cpp:395] bn_3a_double_3x3_0 -> conv_3a_double_3x3_0 (in-place)
I1227 01:38:18.163645  2908 net.cpp:150] Setting up bn_3a_double_3x3_0
I1227 01:38:18.163671  2908 net.cpp:157] Top shape: 30 144 28 28 (3386880)
I1227 01:38:18.163684  2908 net.cpp:165] Memory required for data: 1565491560
I1227 01:38:18.163702  2908 layer_factory.hpp:77] Creating layer scale_conv_3a_double_3x3_0
I1227 01:38:18.163719  2908 net.cpp:100] Creating Layer scale_conv_3a_double_3x3_0
I1227 01:38:18.163733  2908 net.cpp:434] scale_conv_3a_double_3x3_0 <- conv_3a_double_3x3_0
I1227 01:38:18.163749  2908 net.cpp:395] scale_conv_3a_double_3x3_0 -> conv_3a_double_3x3_0 (in-place)
I1227 01:38:18.163810  2908 layer_factory.hpp:77] Creating layer scale_conv_3a_double_3x3_0
I1227 01:38:18.163955  2908 net.cpp:150] Setting up scale_conv_3a_double_3x3_0
I1227 01:38:18.163980  2908 net.cpp:157] Top shape: 30 144 28 28 (3386880)
I1227 01:38:18.163990  2908 net.cpp:165] Memory required for data: 1579039080
I1227 01:38:18.164006  2908 layer_factory.hpp:77] Creating layer relu_3a_double_3x3_0
I1227 01:38:18.164024  2908 net.cpp:100] Creating Layer relu_3a_double_3x3_0
I1227 01:38:18.164037  2908 net.cpp:434] relu_3a_double_3x3_0 <- conv_3a_double_3x3_0
I1227 01:38:18.164052  2908 net.cpp:395] relu_3a_double_3x3_0 -> conv_3a_double_3x3_0 (in-place)
I1227 01:38:18.164067  2908 net.cpp:150] Setting up relu_3a_double_3x3_0
I1227 01:38:18.164082  2908 net.cpp:157] Top shape: 30 144 28 28 (3386880)
I1227 01:38:18.164093  2908 net.cpp:165] Memory required for data: 1592586600
I1227 01:38:18.164103  2908 layer_factory.hpp:77] Creating layer conv_3a_double_3x3_1
I1227 01:38:18.164124  2908 net.cpp:100] Creating Layer conv_3a_double_3x3_1
I1227 01:38:18.164137  2908 net.cpp:434] conv_3a_double_3x3_1 <- conv_3a_double_3x3_0
I1227 01:38:18.164152  2908 net.cpp:408] conv_3a_double_3x3_1 -> conv_3a_double_3x3_1
I1227 01:38:18.165176  2908 net.cpp:150] Setting up conv_3a_double_3x3_1
I1227 01:38:18.165211  2908 net.cpp:157] Top shape: 30 144 28 28 (3386880)
I1227 01:38:18.165225  2908 net.cpp:165] Memory required for data: 1606134120
I1227 01:38:18.165241  2908 layer_factory.hpp:77] Creating layer bn_3a_double_3x3_1
I1227 01:38:18.165259  2908 net.cpp:100] Creating Layer bn_3a_double_3x3_1
I1227 01:38:18.165273  2908 net.cpp:434] bn_3a_double_3x3_1 <- conv_3a_double_3x3_1
I1227 01:38:18.165290  2908 net.cpp:395] bn_3a_double_3x3_1 -> conv_3a_double_3x3_1 (in-place)
I1227 01:38:18.165508  2908 net.cpp:150] Setting up bn_3a_double_3x3_1
I1227 01:38:18.165531  2908 net.cpp:157] Top shape: 30 144 28 28 (3386880)
I1227 01:38:18.165551  2908 net.cpp:165] Memory required for data: 1619681640
I1227 01:38:18.165570  2908 layer_factory.hpp:77] Creating layer scale_conv_3a_double_3x3_1
I1227 01:38:18.165587  2908 net.cpp:100] Creating Layer scale_conv_3a_double_3x3_1
I1227 01:38:18.165599  2908 net.cpp:434] scale_conv_3a_double_3x3_1 <- conv_3a_double_3x3_1
I1227 01:38:18.165618  2908 net.cpp:395] scale_conv_3a_double_3x3_1 -> conv_3a_double_3x3_1 (in-place)
I1227 01:38:18.165673  2908 layer_factory.hpp:77] Creating layer scale_conv_3a_double_3x3_1
I1227 01:38:18.165820  2908 net.cpp:150] Setting up scale_conv_3a_double_3x3_1
I1227 01:38:18.165844  2908 net.cpp:157] Top shape: 30 144 28 28 (3386880)
I1227 01:38:18.165856  2908 net.cpp:165] Memory required for data: 1633229160
I1227 01:38:18.165871  2908 layer_factory.hpp:77] Creating layer relu_3a_double_3x3_1
I1227 01:38:18.165887  2908 net.cpp:100] Creating Layer relu_3a_double_3x3_1
I1227 01:38:18.165900  2908 net.cpp:434] relu_3a_double_3x3_1 <- conv_3a_double_3x3_1
I1227 01:38:18.165917  2908 net.cpp:395] relu_3a_double_3x3_1 -> conv_3a_double_3x3_1 (in-place)
I1227 01:38:18.165935  2908 net.cpp:150] Setting up relu_3a_double_3x3_1
I1227 01:38:18.165948  2908 net.cpp:157] Top shape: 30 144 28 28 (3386880)
I1227 01:38:18.165961  2908 net.cpp:165] Memory required for data: 1646776680
I1227 01:38:18.165974  2908 layer_factory.hpp:77] Creating layer ave_pool_3a_pool
I1227 01:38:18.165992  2908 net.cpp:100] Creating Layer ave_pool_3a_pool
I1227 01:38:18.166005  2908 net.cpp:434] ave_pool_3a_pool <- pool2_pool2_0_split_3
I1227 01:38:18.166019  2908 net.cpp:408] ave_pool_3a_pool -> ave_pool_3a_pool
I1227 01:38:18.166062  2908 net.cpp:150] Setting up ave_pool_3a_pool
I1227 01:38:18.166085  2908 net.cpp:157] Top shape: 30 288 28 28 (6773760)
I1227 01:38:18.166096  2908 net.cpp:165] Memory required for data: 1673871720
I1227 01:38:18.166107  2908 layer_factory.hpp:77] Creating layer conv_3a_proj
I1227 01:38:18.166124  2908 net.cpp:100] Creating Layer conv_3a_proj
I1227 01:38:18.166136  2908 net.cpp:434] conv_3a_proj <- ave_pool_3a_pool
I1227 01:38:18.166152  2908 net.cpp:408] conv_3a_proj -> conv_3a_proj
I1227 01:38:18.166442  2908 net.cpp:150] Setting up conv_3a_proj
I1227 01:38:18.166468  2908 net.cpp:157] Top shape: 30 48 28 28 (1128960)
I1227 01:38:18.166481  2908 net.cpp:165] Memory required for data: 1678387560
I1227 01:38:18.166510  2908 layer_factory.hpp:77] Creating layer bn_3a_proj
I1227 01:38:18.166528  2908 net.cpp:100] Creating Layer bn_3a_proj
I1227 01:38:18.166541  2908 net.cpp:434] bn_3a_proj <- conv_3a_proj
I1227 01:38:18.166559  2908 net.cpp:395] bn_3a_proj -> conv_3a_proj (in-place)
I1227 01:38:18.166780  2908 net.cpp:150] Setting up bn_3a_proj
I1227 01:38:18.166805  2908 net.cpp:157] Top shape: 30 48 28 28 (1128960)
I1227 01:38:18.166816  2908 net.cpp:165] Memory required for data: 1682903400
I1227 01:38:18.166834  2908 layer_factory.hpp:77] Creating layer scale_conv_3a_proj
I1227 01:38:18.166851  2908 net.cpp:100] Creating Layer scale_conv_3a_proj
I1227 01:38:18.166863  2908 net.cpp:434] scale_conv_3a_proj <- conv_3a_proj
I1227 01:38:18.166884  2908 net.cpp:395] scale_conv_3a_proj -> conv_3a_proj (in-place)
I1227 01:38:18.166939  2908 layer_factory.hpp:77] Creating layer scale_conv_3a_proj
I1227 01:38:18.167093  2908 net.cpp:150] Setting up scale_conv_3a_proj
I1227 01:38:18.167115  2908 net.cpp:157] Top shape: 30 48 28 28 (1128960)
I1227 01:38:18.167127  2908 net.cpp:165] Memory required for data: 1687419240
I1227 01:38:18.167143  2908 layer_factory.hpp:77] Creating layer relu_3a_proj
I1227 01:38:18.167165  2908 net.cpp:100] Creating Layer relu_3a_proj
I1227 01:38:18.167176  2908 net.cpp:434] relu_3a_proj <- conv_3a_proj
I1227 01:38:18.167199  2908 net.cpp:395] relu_3a_proj -> conv_3a_proj (in-place)
I1227 01:38:18.167232  2908 net.cpp:150] Setting up relu_3a_proj
I1227 01:38:18.167245  2908 net.cpp:157] Top shape: 30 48 28 28 (1128960)
I1227 01:38:18.167256  2908 net.cpp:165] Memory required for data: 1691935080
I1227 01:38:18.167268  2908 layer_factory.hpp:77] Creating layer ch_concat_3a_chconcat
I1227 01:38:18.167291  2908 net.cpp:100] Creating Layer ch_concat_3a_chconcat
I1227 01:38:18.167304  2908 net.cpp:434] ch_concat_3a_chconcat <- conv_3a_1x1
I1227 01:38:18.167330  2908 net.cpp:434] ch_concat_3a_chconcat <- conv_3a_3x3
I1227 01:38:18.167345  2908 net.cpp:434] ch_concat_3a_chconcat <- conv_3a_double_3x3_1
I1227 01:38:18.167357  2908 net.cpp:434] ch_concat_3a_chconcat <- conv_3a_proj
I1227 01:38:18.167374  2908 net.cpp:408] ch_concat_3a_chconcat -> ch_concat_3a_chconcat
I1227 01:38:18.167415  2908 net.cpp:150] Setting up ch_concat_3a_chconcat
I1227 01:38:18.167435  2908 net.cpp:157] Top shape: 30 384 28 28 (9031680)
I1227 01:38:18.167446  2908 net.cpp:165] Memory required for data: 1728061800
I1227 01:38:18.167457  2908 layer_factory.hpp:77] Creating layer ch_concat_3a_chconcat_ch_concat_3a_chconcat_0_split
I1227 01:38:18.167477  2908 net.cpp:100] Creating Layer ch_concat_3a_chconcat_ch_concat_3a_chconcat_0_split
I1227 01:38:18.167490  2908 net.cpp:434] ch_concat_3a_chconcat_ch_concat_3a_chconcat_0_split <- ch_concat_3a_chconcat
I1227 01:38:18.167505  2908 net.cpp:408] ch_concat_3a_chconcat_ch_concat_3a_chconcat_0_split -> ch_concat_3a_chconcat_ch_concat_3a_chconcat_0_split_0
I1227 01:38:18.167523  2908 net.cpp:408] ch_concat_3a_chconcat_ch_concat_3a_chconcat_0_split -> ch_concat_3a_chconcat_ch_concat_3a_chconcat_0_split_1
I1227 01:38:18.167549  2908 net.cpp:408] ch_concat_3a_chconcat_ch_concat_3a_chconcat_0_split -> ch_concat_3a_chconcat_ch_concat_3a_chconcat_0_split_2
I1227 01:38:18.167567  2908 net.cpp:408] ch_concat_3a_chconcat_ch_concat_3a_chconcat_0_split -> ch_concat_3a_chconcat_ch_concat_3a_chconcat_0_split_3
I1227 01:38:18.167644  2908 net.cpp:150] Setting up ch_concat_3a_chconcat_ch_concat_3a_chconcat_0_split
I1227 01:38:18.167664  2908 net.cpp:157] Top shape: 30 384 28 28 (9031680)
I1227 01:38:18.167676  2908 net.cpp:157] Top shape: 30 384 28 28 (9031680)
I1227 01:38:18.167690  2908 net.cpp:157] Top shape: 30 384 28 28 (9031680)
I1227 01:38:18.167701  2908 net.cpp:157] Top shape: 30 384 28 28 (9031680)
I1227 01:38:18.167712  2908 net.cpp:165] Memory required for data: 1872568680
I1227 01:38:18.167723  2908 layer_factory.hpp:77] Creating layer conv_3b_1x1
I1227 01:38:18.167744  2908 net.cpp:100] Creating Layer conv_3b_1x1
I1227 01:38:18.167771  2908 net.cpp:434] conv_3b_1x1 <- ch_concat_3a_chconcat_ch_concat_3a_chconcat_0_split_0
I1227 01:38:18.167788  2908 net.cpp:408] conv_3b_1x1 -> conv_3b_1x1
I1227 01:38:18.168112  2908 net.cpp:150] Setting up conv_3b_1x1
I1227 01:38:18.168136  2908 net.cpp:157] Top shape: 30 96 28 28 (2257920)
I1227 01:38:18.168149  2908 net.cpp:165] Memory required for data: 1881600360
I1227 01:38:18.168164  2908 layer_factory.hpp:77] Creating layer bn_3b_1x1
I1227 01:38:18.168198  2908 net.cpp:100] Creating Layer bn_3b_1x1
I1227 01:38:18.168215  2908 net.cpp:434] bn_3b_1x1 <- conv_3b_1x1
I1227 01:38:18.168236  2908 net.cpp:395] bn_3b_1x1 -> conv_3b_1x1 (in-place)
I1227 01:38:18.168483  2908 net.cpp:150] Setting up bn_3b_1x1
I1227 01:38:18.168506  2908 net.cpp:157] Top shape: 30 96 28 28 (2257920)
I1227 01:38:18.168519  2908 net.cpp:165] Memory required for data: 1890632040
I1227 01:38:18.168535  2908 layer_factory.hpp:77] Creating layer scale_conv_3b_1x1
I1227 01:38:18.168558  2908 net.cpp:100] Creating Layer scale_conv_3b_1x1
I1227 01:38:18.168572  2908 net.cpp:434] scale_conv_3b_1x1 <- conv_3b_1x1
I1227 01:38:18.168588  2908 net.cpp:395] scale_conv_3b_1x1 -> conv_3b_1x1 (in-place)
I1227 01:38:18.168648  2908 layer_factory.hpp:77] Creating layer scale_conv_3b_1x1
I1227 01:38:18.168799  2908 net.cpp:150] Setting up scale_conv_3b_1x1
I1227 01:38:18.168823  2908 net.cpp:157] Top shape: 30 96 28 28 (2257920)
I1227 01:38:18.168835  2908 net.cpp:165] Memory required for data: 1899663720
I1227 01:38:18.168850  2908 layer_factory.hpp:77] Creating layer relu_3b_1x1
I1227 01:38:18.168866  2908 net.cpp:100] Creating Layer relu_3b_1x1
I1227 01:38:18.168877  2908 net.cpp:434] relu_3b_1x1 <- conv_3b_1x1
I1227 01:38:18.168895  2908 net.cpp:395] relu_3b_1x1 -> conv_3b_1x1 (in-place)
I1227 01:38:18.168918  2908 net.cpp:150] Setting up relu_3b_1x1
I1227 01:38:18.168933  2908 net.cpp:157] Top shape: 30 96 28 28 (2257920)
I1227 01:38:18.168946  2908 net.cpp:165] Memory required for data: 1908695400
I1227 01:38:18.168957  2908 layer_factory.hpp:77] Creating layer conv_3b_3x3_reduce
I1227 01:38:18.168975  2908 net.cpp:100] Creating Layer conv_3b_3x3_reduce
I1227 01:38:18.168987  2908 net.cpp:434] conv_3b_3x3_reduce <- ch_concat_3a_chconcat_ch_concat_3a_chconcat_0_split_1
I1227 01:38:18.169008  2908 net.cpp:408] conv_3b_3x3_reduce -> conv_3b_3x3_reduce
I1227 01:38:18.169312  2908 net.cpp:150] Setting up conv_3b_3x3_reduce
I1227 01:38:18.169337  2908 net.cpp:157] Top shape: 30 96 28 28 (2257920)
I1227 01:38:18.169348  2908 net.cpp:165] Memory required for data: 1917727080
I1227 01:38:18.169363  2908 layer_factory.hpp:77] Creating layer bn_3b_3x3_reduce
I1227 01:38:18.169384  2908 net.cpp:100] Creating Layer bn_3b_3x3_reduce
I1227 01:38:18.169399  2908 net.cpp:434] bn_3b_3x3_reduce <- conv_3b_3x3_reduce
I1227 01:38:18.169412  2908 net.cpp:395] bn_3b_3x3_reduce -> conv_3b_3x3_reduce (in-place)
I1227 01:38:18.169661  2908 net.cpp:150] Setting up bn_3b_3x3_reduce
I1227 01:38:18.169685  2908 net.cpp:157] Top shape: 30 96 28 28 (2257920)
I1227 01:38:18.169699  2908 net.cpp:165] Memory required for data: 1926758760
I1227 01:38:18.169718  2908 layer_factory.hpp:77] Creating layer scale_conv_3b_3x3_reduce
I1227 01:38:18.169737  2908 net.cpp:100] Creating Layer scale_conv_3b_3x3_reduce
I1227 01:38:18.169751  2908 net.cpp:434] scale_conv_3b_3x3_reduce <- conv_3b_3x3_reduce
I1227 01:38:18.169765  2908 net.cpp:395] scale_conv_3b_3x3_reduce -> conv_3b_3x3_reduce (in-place)
I1227 01:38:18.169824  2908 layer_factory.hpp:77] Creating layer scale_conv_3b_3x3_reduce
I1227 01:38:18.169978  2908 net.cpp:150] Setting up scale_conv_3b_3x3_reduce
I1227 01:38:18.170001  2908 net.cpp:157] Top shape: 30 96 28 28 (2257920)
I1227 01:38:18.170014  2908 net.cpp:165] Memory required for data: 1935790440
I1227 01:38:18.170029  2908 layer_factory.hpp:77] Creating layer relu_3b_3x3_reduce
I1227 01:38:18.170047  2908 net.cpp:100] Creating Layer relu_3b_3x3_reduce
I1227 01:38:18.170058  2908 net.cpp:434] relu_3b_3x3_reduce <- conv_3b_3x3_reduce
I1227 01:38:18.170075  2908 net.cpp:395] relu_3b_3x3_reduce -> conv_3b_3x3_reduce (in-place)
I1227 01:38:18.170094  2908 net.cpp:150] Setting up relu_3b_3x3_reduce
I1227 01:38:18.170107  2908 net.cpp:157] Top shape: 30 96 28 28 (2257920)
I1227 01:38:18.170119  2908 net.cpp:165] Memory required for data: 1944822120
I1227 01:38:18.170130  2908 layer_factory.hpp:77] Creating layer conv_3b_3x3
I1227 01:38:18.170148  2908 net.cpp:100] Creating Layer conv_3b_3x3
I1227 01:38:18.170162  2908 net.cpp:434] conv_3b_3x3 <- conv_3b_3x3_reduce
I1227 01:38:18.170186  2908 net.cpp:408] conv_3b_3x3 -> conv_3b_3x3
I1227 01:38:18.171196  2908 net.cpp:150] Setting up conv_3b_3x3
I1227 01:38:18.171224  2908 net.cpp:157] Top shape: 30 144 28 28 (3386880)
I1227 01:38:18.171237  2908 net.cpp:165] Memory required for data: 1958369640
I1227 01:38:18.171253  2908 layer_factory.hpp:77] Creating layer bn_3b_3x3
I1227 01:38:18.171272  2908 net.cpp:100] Creating Layer bn_3b_3x3
I1227 01:38:18.171285  2908 net.cpp:434] bn_3b_3x3 <- conv_3b_3x3
I1227 01:38:18.171300  2908 net.cpp:395] bn_3b_3x3 -> conv_3b_3x3 (in-place)
I1227 01:38:18.171519  2908 net.cpp:150] Setting up bn_3b_3x3
I1227 01:38:18.171545  2908 net.cpp:157] Top shape: 30 144 28 28 (3386880)
I1227 01:38:18.171558  2908 net.cpp:165] Memory required for data: 1971917160
I1227 01:38:18.171576  2908 layer_factory.hpp:77] Creating layer scale_conv_3b_3x3
I1227 01:38:18.171592  2908 net.cpp:100] Creating Layer scale_conv_3b_3x3
I1227 01:38:18.171604  2908 net.cpp:434] scale_conv_3b_3x3 <- conv_3b_3x3
I1227 01:38:18.171618  2908 net.cpp:395] scale_conv_3b_3x3 -> conv_3b_3x3 (in-place)
I1227 01:38:18.171680  2908 layer_factory.hpp:77] Creating layer scale_conv_3b_3x3
I1227 01:38:18.171843  2908 net.cpp:150] Setting up scale_conv_3b_3x3
I1227 01:38:18.171869  2908 net.cpp:157] Top shape: 30 144 28 28 (3386880)
I1227 01:38:18.171905  2908 net.cpp:165] Memory required for data: 1985464680
I1227 01:38:18.171923  2908 layer_factory.hpp:77] Creating layer relu_3b_3x3
I1227 01:38:18.171937  2908 net.cpp:100] Creating Layer relu_3b_3x3
I1227 01:38:18.171950  2908 net.cpp:434] relu_3b_3x3 <- conv_3b_3x3
I1227 01:38:18.171963  2908 net.cpp:395] relu_3b_3x3 -> conv_3b_3x3 (in-place)
I1227 01:38:18.171978  2908 net.cpp:150] Setting up relu_3b_3x3
I1227 01:38:18.171993  2908 net.cpp:157] Top shape: 30 144 28 28 (3386880)
I1227 01:38:18.172004  2908 net.cpp:165] Memory required for data: 1999012200
I1227 01:38:18.172015  2908 layer_factory.hpp:77] Creating layer conv_3b_double_3x3_reduce
I1227 01:38:18.172036  2908 net.cpp:100] Creating Layer conv_3b_double_3x3_reduce
I1227 01:38:18.172050  2908 net.cpp:434] conv_3b_double_3x3_reduce <- ch_concat_3a_chconcat_ch_concat_3a_chconcat_0_split_2
I1227 01:38:18.172070  2908 net.cpp:408] conv_3b_double_3x3_reduce -> conv_3b_double_3x3_reduce
I1227 01:38:18.172384  2908 net.cpp:150] Setting up conv_3b_double_3x3_reduce
I1227 01:38:18.172408  2908 net.cpp:157] Top shape: 30 96 28 28 (2257920)
I1227 01:38:18.172420  2908 net.cpp:165] Memory required for data: 2008043880
I1227 01:38:18.172435  2908 layer_factory.hpp:77] Creating layer bn_3b_double_3x3_reduce
I1227 01:38:18.172456  2908 net.cpp:100] Creating Layer bn_3b_double_3x3_reduce
I1227 01:38:18.172469  2908 net.cpp:434] bn_3b_double_3x3_reduce <- conv_3b_double_3x3_reduce
I1227 01:38:18.172487  2908 net.cpp:395] bn_3b_double_3x3_reduce -> conv_3b_double_3x3_reduce (in-place)
I1227 01:38:18.172699  2908 net.cpp:150] Setting up bn_3b_double_3x3_reduce
I1227 01:38:18.172722  2908 net.cpp:157] Top shape: 30 96 28 28 (2257920)
I1227 01:38:18.172734  2908 net.cpp:165] Memory required for data: 2017075560
I1227 01:38:18.172750  2908 layer_factory.hpp:77] Creating layer scale_conv_3b_double_3x3_reduce
I1227 01:38:18.172765  2908 net.cpp:100] Creating Layer scale_conv_3b_double_3x3_reduce
I1227 01:38:18.172777  2908 net.cpp:434] scale_conv_3b_double_3x3_reduce <- conv_3b_double_3x3_reduce
I1227 01:38:18.172791  2908 net.cpp:395] scale_conv_3b_double_3x3_reduce -> conv_3b_double_3x3_reduce (in-place)
I1227 01:38:18.172852  2908 layer_factory.hpp:77] Creating layer scale_conv_3b_double_3x3_reduce
I1227 01:38:18.173018  2908 net.cpp:150] Setting up scale_conv_3b_double_3x3_reduce
I1227 01:38:18.173041  2908 net.cpp:157] Top shape: 30 96 28 28 (2257920)
I1227 01:38:18.173053  2908 net.cpp:165] Memory required for data: 2026107240
I1227 01:38:18.173069  2908 layer_factory.hpp:77] Creating layer relu_3b_double_3x3_reduce
I1227 01:38:18.173090  2908 net.cpp:100] Creating Layer relu_3b_double_3x3_reduce
I1227 01:38:18.173102  2908 net.cpp:434] relu_3b_double_3x3_reduce <- conv_3b_double_3x3_reduce
I1227 01:38:18.173117  2908 net.cpp:395] relu_3b_double_3x3_reduce -> conv_3b_double_3x3_reduce (in-place)
I1227 01:38:18.173133  2908 net.cpp:150] Setting up relu_3b_double_3x3_reduce
I1227 01:38:18.173148  2908 net.cpp:157] Top shape: 30 96 28 28 (2257920)
I1227 01:38:18.173161  2908 net.cpp:165] Memory required for data: 2035138920
I1227 01:38:18.173172  2908 layer_factory.hpp:77] Creating layer conv_3b_double_3x3_0
I1227 01:38:18.173212  2908 net.cpp:100] Creating Layer conv_3b_double_3x3_0
I1227 01:38:18.173228  2908 net.cpp:434] conv_3b_double_3x3_0 <- conv_3b_double_3x3_reduce
I1227 01:38:18.173243  2908 net.cpp:408] conv_3b_double_3x3_0 -> conv_3b_double_3x3_0
I1227 01:38:18.173601  2908 net.cpp:150] Setting up conv_3b_double_3x3_0
I1227 01:38:18.173627  2908 net.cpp:157] Top shape: 30 144 28 28 (3386880)
I1227 01:38:18.173640  2908 net.cpp:165] Memory required for data: 2048686440
I1227 01:38:18.173655  2908 layer_factory.hpp:77] Creating layer bn_3b_double_3x3_0
I1227 01:38:18.173674  2908 net.cpp:100] Creating Layer bn_3b_double_3x3_0
I1227 01:38:18.173687  2908 net.cpp:434] bn_3b_double_3x3_0 <- conv_3b_double_3x3_0
I1227 01:38:18.173703  2908 net.cpp:395] bn_3b_double_3x3_0 -> conv_3b_double_3x3_0 (in-place)
I1227 01:38:18.173936  2908 net.cpp:150] Setting up bn_3b_double_3x3_0
I1227 01:38:18.173960  2908 net.cpp:157] Top shape: 30 144 28 28 (3386880)
I1227 01:38:18.173972  2908 net.cpp:165] Memory required for data: 2062233960
I1227 01:38:18.173990  2908 layer_factory.hpp:77] Creating layer scale_conv_3b_double_3x3_0
I1227 01:38:18.174010  2908 net.cpp:100] Creating Layer scale_conv_3b_double_3x3_0
I1227 01:38:18.174022  2908 net.cpp:434] scale_conv_3b_double_3x3_0 <- conv_3b_double_3x3_0
I1227 01:38:18.174037  2908 net.cpp:395] scale_conv_3b_double_3x3_0 -> conv_3b_double_3x3_0 (in-place)
I1227 01:38:18.174098  2908 layer_factory.hpp:77] Creating layer scale_conv_3b_double_3x3_0
I1227 01:38:18.174259  2908 net.cpp:150] Setting up scale_conv_3b_double_3x3_0
I1227 01:38:18.174283  2908 net.cpp:157] Top shape: 30 144 28 28 (3386880)
I1227 01:38:18.174295  2908 net.cpp:165] Memory required for data: 2075781480
I1227 01:38:18.174311  2908 layer_factory.hpp:77] Creating layer relu_3b_double_3x3_0
I1227 01:38:18.174330  2908 net.cpp:100] Creating Layer relu_3b_double_3x3_0
I1227 01:38:18.174345  2908 net.cpp:434] relu_3b_double_3x3_0 <- conv_3b_double_3x3_0
I1227 01:38:18.174362  2908 net.cpp:395] relu_3b_double_3x3_0 -> conv_3b_double_3x3_0 (in-place)
I1227 01:38:18.174379  2908 net.cpp:150] Setting up relu_3b_double_3x3_0
I1227 01:38:18.174394  2908 net.cpp:157] Top shape: 30 144 28 28 (3386880)
I1227 01:38:18.174406  2908 net.cpp:165] Memory required for data: 2089329000
I1227 01:38:18.174418  2908 layer_factory.hpp:77] Creating layer conv_3b_double_3x3_1
I1227 01:38:18.174434  2908 net.cpp:100] Creating Layer conv_3b_double_3x3_1
I1227 01:38:18.174446  2908 net.cpp:434] conv_3b_double_3x3_1 <- conv_3b_double_3x3_0
I1227 01:38:18.174465  2908 net.cpp:408] conv_3b_double_3x3_1 -> conv_3b_double_3x3_1
I1227 01:38:18.175489  2908 net.cpp:150] Setting up conv_3b_double_3x3_1
I1227 01:38:18.175518  2908 net.cpp:157] Top shape: 30 144 28 28 (3386880)
I1227 01:38:18.175530  2908 net.cpp:165] Memory required for data: 2102876520
I1227 01:38:18.175546  2908 layer_factory.hpp:77] Creating layer bn_3b_double_3x3_1
I1227 01:38:18.175568  2908 net.cpp:100] Creating Layer bn_3b_double_3x3_1
I1227 01:38:18.175582  2908 net.cpp:434] bn_3b_double_3x3_1 <- conv_3b_double_3x3_1
I1227 01:38:18.175597  2908 net.cpp:395] bn_3b_double_3x3_1 -> conv_3b_double_3x3_1 (in-place)
I1227 01:38:18.175827  2908 net.cpp:150] Setting up bn_3b_double_3x3_1
I1227 01:38:18.175851  2908 net.cpp:157] Top shape: 30 144 28 28 (3386880)
I1227 01:38:18.175864  2908 net.cpp:165] Memory required for data: 2116424040
I1227 01:38:18.175881  2908 layer_factory.hpp:77] Creating layer scale_conv_3b_double_3x3_1
I1227 01:38:18.175897  2908 net.cpp:100] Creating Layer scale_conv_3b_double_3x3_1
I1227 01:38:18.175909  2908 net.cpp:434] scale_conv_3b_double_3x3_1 <- conv_3b_double_3x3_1
I1227 01:38:18.175923  2908 net.cpp:395] scale_conv_3b_double_3x3_1 -> conv_3b_double_3x3_1 (in-place)
I1227 01:38:18.175987  2908 layer_factory.hpp:77] Creating layer scale_conv_3b_double_3x3_1
I1227 01:38:18.176138  2908 net.cpp:150] Setting up scale_conv_3b_double_3x3_1
I1227 01:38:18.176162  2908 net.cpp:157] Top shape: 30 144 28 28 (3386880)
I1227 01:38:18.176174  2908 net.cpp:165] Memory required for data: 2129971560
I1227 01:38:18.176195  2908 layer_factory.hpp:77] Creating layer relu_3b_double_3x3_1
I1227 01:38:18.176213  2908 net.cpp:100] Creating Layer relu_3b_double_3x3_1
I1227 01:38:18.176224  2908 net.cpp:434] relu_3b_double_3x3_1 <- conv_3b_double_3x3_1
I1227 01:38:18.176242  2908 net.cpp:395] relu_3b_double_3x3_1 -> conv_3b_double_3x3_1 (in-place)
I1227 01:38:18.176259  2908 net.cpp:150] Setting up relu_3b_double_3x3_1
I1227 01:38:18.176273  2908 net.cpp:157] Top shape: 30 144 28 28 (3386880)
I1227 01:38:18.176285  2908 net.cpp:165] Memory required for data: 2143519080
I1227 01:38:18.176295  2908 layer_factory.hpp:77] Creating layer ave_pool_3b_pool
I1227 01:38:18.176311  2908 net.cpp:100] Creating Layer ave_pool_3b_pool
I1227 01:38:18.176323  2908 net.cpp:434] ave_pool_3b_pool <- ch_concat_3a_chconcat_ch_concat_3a_chconcat_0_split_3
I1227 01:38:18.176352  2908 net.cpp:408] ave_pool_3b_pool -> ave_pool_3b_pool
I1227 01:38:18.176405  2908 net.cpp:150] Setting up ave_pool_3b_pool
I1227 01:38:18.176426  2908 net.cpp:157] Top shape: 30 384 28 28 (9031680)
I1227 01:38:18.176439  2908 net.cpp:165] Memory required for data: 2179645800
I1227 01:38:18.176450  2908 layer_factory.hpp:77] Creating layer conv_3b_proj
I1227 01:38:18.176467  2908 net.cpp:100] Creating Layer conv_3b_proj
I1227 01:38:18.176479  2908 net.cpp:434] conv_3b_proj <- ave_pool_3b_pool
I1227 01:38:18.176498  2908 net.cpp:408] conv_3b_proj -> conv_3b_proj
I1227 01:38:18.176836  2908 net.cpp:150] Setting up conv_3b_proj
I1227 01:38:18.176863  2908 net.cpp:157] Top shape: 30 96 28 28 (2257920)
I1227 01:38:18.176875  2908 net.cpp:165] Memory required for data: 2188677480
I1227 01:38:18.176890  2908 layer_factory.hpp:77] Creating layer bn_3b_proj
I1227 01:38:18.176908  2908 net.cpp:100] Creating Layer bn_3b_proj
I1227 01:38:18.176919  2908 net.cpp:434] bn_3b_proj <- conv_3b_proj
I1227 01:38:18.176937  2908 net.cpp:395] bn_3b_proj -> conv_3b_proj (in-place)
I1227 01:38:18.177170  2908 net.cpp:150] Setting up bn_3b_proj
I1227 01:38:18.177201  2908 net.cpp:157] Top shape: 30 96 28 28 (2257920)
I1227 01:38:18.177217  2908 net.cpp:165] Memory required for data: 2197709160
I1227 01:38:18.177235  2908 layer_factory.hpp:77] Creating layer scale_conv_3b_proj
I1227 01:38:18.177254  2908 net.cpp:100] Creating Layer scale_conv_3b_proj
I1227 01:38:18.177266  2908 net.cpp:434] scale_conv_3b_proj <- conv_3b_proj
I1227 01:38:18.177284  2908 net.cpp:395] scale_conv_3b_proj -> conv_3b_proj (in-place)
I1227 01:38:18.177342  2908 layer_factory.hpp:77] Creating layer scale_conv_3b_proj
I1227 01:38:18.177496  2908 net.cpp:150] Setting up scale_conv_3b_proj
I1227 01:38:18.177520  2908 net.cpp:157] Top shape: 30 96 28 28 (2257920)
I1227 01:38:18.177533  2908 net.cpp:165] Memory required for data: 2206740840
I1227 01:38:18.177548  2908 layer_factory.hpp:77] Creating layer relu_3b_proj
I1227 01:38:18.177564  2908 net.cpp:100] Creating Layer relu_3b_proj
I1227 01:38:18.177577  2908 net.cpp:434] relu_3b_proj <- conv_3b_proj
I1227 01:38:18.177593  2908 net.cpp:395] relu_3b_proj -> conv_3b_proj (in-place)
I1227 01:38:18.177610  2908 net.cpp:150] Setting up relu_3b_proj
I1227 01:38:18.177624  2908 net.cpp:157] Top shape: 30 96 28 28 (2257920)
I1227 01:38:18.177637  2908 net.cpp:165] Memory required for data: 2215772520
I1227 01:38:18.177649  2908 layer_factory.hpp:77] Creating layer ch_concat_3b_chconcat
I1227 01:38:18.177665  2908 net.cpp:100] Creating Layer ch_concat_3b_chconcat
I1227 01:38:18.177677  2908 net.cpp:434] ch_concat_3b_chconcat <- conv_3b_1x1
I1227 01:38:18.177690  2908 net.cpp:434] ch_concat_3b_chconcat <- conv_3b_3x3
I1227 01:38:18.177703  2908 net.cpp:434] ch_concat_3b_chconcat <- conv_3b_double_3x3_1
I1227 01:38:18.177716  2908 net.cpp:434] ch_concat_3b_chconcat <- conv_3b_proj
I1227 01:38:18.177732  2908 net.cpp:408] ch_concat_3b_chconcat -> ch_concat_3b_chconcat
I1227 01:38:18.177772  2908 net.cpp:150] Setting up ch_concat_3b_chconcat
I1227 01:38:18.177791  2908 net.cpp:157] Top shape: 30 480 28 28 (11289600)
I1227 01:38:18.177803  2908 net.cpp:165] Memory required for data: 2260930920
I1227 01:38:18.177814  2908 layer_factory.hpp:77] Creating layer ch_concat_3b_chconcat_ch_concat_3b_chconcat_0_split
I1227 01:38:18.177834  2908 net.cpp:100] Creating Layer ch_concat_3b_chconcat_ch_concat_3b_chconcat_0_split
I1227 01:38:18.177846  2908 net.cpp:434] ch_concat_3b_chconcat_ch_concat_3b_chconcat_0_split <- ch_concat_3b_chconcat
I1227 01:38:18.177861  2908 net.cpp:408] ch_concat_3b_chconcat_ch_concat_3b_chconcat_0_split -> ch_concat_3b_chconcat_ch_concat_3b_chconcat_0_split_0
I1227 01:38:18.177881  2908 net.cpp:408] ch_concat_3b_chconcat_ch_concat_3b_chconcat_0_split -> ch_concat_3b_chconcat_ch_concat_3b_chconcat_0_split_1
I1227 01:38:18.177898  2908 net.cpp:408] ch_concat_3b_chconcat_ch_concat_3b_chconcat_0_split -> ch_concat_3b_chconcat_ch_concat_3b_chconcat_0_split_2
I1227 01:38:18.177974  2908 net.cpp:150] Setting up ch_concat_3b_chconcat_ch_concat_3b_chconcat_0_split
I1227 01:38:18.177994  2908 net.cpp:157] Top shape: 30 480 28 28 (11289600)
I1227 01:38:18.178007  2908 net.cpp:157] Top shape: 30 480 28 28 (11289600)
I1227 01:38:18.178020  2908 net.cpp:157] Top shape: 30 480 28 28 (11289600)
I1227 01:38:18.178031  2908 net.cpp:165] Memory required for data: 2396406120
I1227 01:38:18.178042  2908 layer_factory.hpp:77] Creating layer conv_3c_3x3_reduce
I1227 01:38:18.178063  2908 net.cpp:100] Creating Layer conv_3c_3x3_reduce
I1227 01:38:18.178076  2908 net.cpp:434] conv_3c_3x3_reduce <- ch_concat_3b_chconcat_ch_concat_3b_chconcat_0_split_0
I1227 01:38:18.178092  2908 net.cpp:408] conv_3c_3x3_reduce -> conv_3c_3x3_reduce
I1227 01:38:18.179074  2908 net.cpp:150] Setting up conv_3c_3x3_reduce
I1227 01:38:18.179100  2908 net.cpp:157] Top shape: 30 192 28 28 (4515840)
I1227 01:38:18.179113  2908 net.cpp:165] Memory required for data: 2414469480
I1227 01:38:18.179129  2908 layer_factory.hpp:77] Creating layer bn_3c_3x3_reduce
I1227 01:38:18.179148  2908 net.cpp:100] Creating Layer bn_3c_3x3_reduce
I1227 01:38:18.179162  2908 net.cpp:434] bn_3c_3x3_reduce <- conv_3c_3x3_reduce
I1227 01:38:18.179178  2908 net.cpp:395] bn_3c_3x3_reduce -> conv_3c_3x3_reduce (in-place)
I1227 01:38:18.179427  2908 net.cpp:150] Setting up bn_3c_3x3_reduce
I1227 01:38:18.179451  2908 net.cpp:157] Top shape: 30 192 28 28 (4515840)
I1227 01:38:18.179464  2908 net.cpp:165] Memory required for data: 2432532840
I1227 01:38:18.179481  2908 layer_factory.hpp:77] Creating layer scale_conv_3c_3x3_reduce
I1227 01:38:18.179502  2908 net.cpp:100] Creating Layer scale_conv_3c_3x3_reduce
I1227 01:38:18.179517  2908 net.cpp:434] scale_conv_3c_3x3_reduce <- conv_3c_3x3_reduce
I1227 01:38:18.179532  2908 net.cpp:395] scale_conv_3c_3x3_reduce -> conv_3c_3x3_reduce (in-place)
I1227 01:38:18.179591  2908 layer_factory.hpp:77] Creating layer scale_conv_3c_3x3_reduce
I1227 01:38:18.179745  2908 net.cpp:150] Setting up scale_conv_3c_3x3_reduce
I1227 01:38:18.179769  2908 net.cpp:157] Top shape: 30 192 28 28 (4515840)
I1227 01:38:18.179781  2908 net.cpp:165] Memory required for data: 2450596200
I1227 01:38:18.179796  2908 layer_factory.hpp:77] Creating layer relu_3c_3x3_reduce
I1227 01:38:18.179814  2908 net.cpp:100] Creating Layer relu_3c_3x3_reduce
I1227 01:38:18.179826  2908 net.cpp:434] relu_3c_3x3_reduce <- conv_3c_3x3_reduce
I1227 01:38:18.179843  2908 net.cpp:395] relu_3c_3x3_reduce -> conv_3c_3x3_reduce (in-place)
I1227 01:38:18.179860  2908 net.cpp:150] Setting up relu_3c_3x3_reduce
I1227 01:38:18.179874  2908 net.cpp:157] Top shape: 30 192 28 28 (4515840)
I1227 01:38:18.179886  2908 net.cpp:165] Memory required for data: 2468659560
I1227 01:38:18.179898  2908 layer_factory.hpp:77] Creating layer conv_3c_3x3
I1227 01:38:18.179913  2908 net.cpp:100] Creating Layer conv_3c_3x3
I1227 01:38:18.179925  2908 net.cpp:434] conv_3c_3x3 <- conv_3c_3x3_reduce
I1227 01:38:18.179944  2908 net.cpp:408] conv_3c_3x3 -> conv_3c_3x3
I1227 01:38:18.181409  2908 net.cpp:150] Setting up conv_3c_3x3
I1227 01:38:18.181452  2908 net.cpp:157] Top shape: 30 240 14 14 (1411200)
I1227 01:38:18.181463  2908 net.cpp:165] Memory required for data: 2474304360
I1227 01:38:18.181479  2908 layer_factory.hpp:77] Creating layer bn_3c_3x3
I1227 01:38:18.181498  2908 net.cpp:100] Creating Layer bn_3c_3x3
I1227 01:38:18.181510  2908 net.cpp:434] bn_3c_3x3 <- conv_3c_3x3
I1227 01:38:18.181525  2908 net.cpp:395] bn_3c_3x3 -> conv_3c_3x3 (in-place)
I1227 01:38:18.181766  2908 net.cpp:150] Setting up bn_3c_3x3
I1227 01:38:18.181789  2908 net.cpp:157] Top shape: 30 240 14 14 (1411200)
I1227 01:38:18.181802  2908 net.cpp:165] Memory required for data: 2479949160
I1227 01:38:18.181845  2908 layer_factory.hpp:77] Creating layer scale_conv_3c_3x3
I1227 01:38:18.181866  2908 net.cpp:100] Creating Layer scale_conv_3c_3x3
I1227 01:38:18.181881  2908 net.cpp:434] scale_conv_3c_3x3 <- conv_3c_3x3
I1227 01:38:18.181898  2908 net.cpp:395] scale_conv_3c_3x3 -> conv_3c_3x3 (in-place)
I1227 01:38:18.181977  2908 layer_factory.hpp:77] Creating layer scale_conv_3c_3x3
I1227 01:38:18.182126  2908 net.cpp:150] Setting up scale_conv_3c_3x3
I1227 01:38:18.182149  2908 net.cpp:157] Top shape: 30 240 14 14 (1411200)
I1227 01:38:18.182162  2908 net.cpp:165] Memory required for data: 2485593960
I1227 01:38:18.182178  2908 layer_factory.hpp:77] Creating layer relu_3c_3x3
I1227 01:38:18.182202  2908 net.cpp:100] Creating Layer relu_3c_3x3
I1227 01:38:18.182216  2908 net.cpp:434] relu_3c_3x3 <- conv_3c_3x3
I1227 01:38:18.182230  2908 net.cpp:395] relu_3c_3x3 -> conv_3c_3x3 (in-place)
I1227 01:38:18.182245  2908 net.cpp:150] Setting up relu_3c_3x3
I1227 01:38:18.182260  2908 net.cpp:157] Top shape: 30 240 14 14 (1411200)
I1227 01:38:18.182271  2908 net.cpp:165] Memory required for data: 2491238760
I1227 01:38:18.182282  2908 layer_factory.hpp:77] Creating layer conv_3c_double_3x3_reduce
I1227 01:38:18.182302  2908 net.cpp:100] Creating Layer conv_3c_double_3x3_reduce
I1227 01:38:18.182315  2908 net.cpp:434] conv_3c_double_3x3_reduce <- ch_concat_3b_chconcat_ch_concat_3b_chconcat_0_split_1
I1227 01:38:18.182334  2908 net.cpp:408] conv_3c_double_3x3_reduce -> conv_3c_double_3x3_reduce
I1227 01:38:18.183315  2908 net.cpp:150] Setting up conv_3c_double_3x3_reduce
I1227 01:38:18.183342  2908 net.cpp:157] Top shape: 30 96 28 28 (2257920)
I1227 01:38:18.183353  2908 net.cpp:165] Memory required for data: 2500270440
I1227 01:38:18.183369  2908 layer_factory.hpp:77] Creating layer bn_3c_double_3x3_reduce
I1227 01:38:18.183390  2908 net.cpp:100] Creating Layer bn_3c_double_3x3_reduce
I1227 01:38:18.183406  2908 net.cpp:434] bn_3c_double_3x3_reduce <- conv_3c_double_3x3_reduce
I1227 01:38:18.183423  2908 net.cpp:395] bn_3c_double_3x3_reduce -> conv_3c_double_3x3_reduce (in-place)
I1227 01:38:18.183678  2908 net.cpp:150] Setting up bn_3c_double_3x3_reduce
I1227 01:38:18.183699  2908 net.cpp:157] Top shape: 30 96 28 28 (2257920)
I1227 01:38:18.183712  2908 net.cpp:165] Memory required for data: 2509302120
I1227 01:38:18.183728  2908 layer_factory.hpp:77] Creating layer scale_conv_3c_double_3x3_reduce
I1227 01:38:18.183756  2908 net.cpp:100] Creating Layer scale_conv_3c_double_3x3_reduce
I1227 01:38:18.183770  2908 net.cpp:434] scale_conv_3c_double_3x3_reduce <- conv_3c_double_3x3_reduce
I1227 01:38:18.183784  2908 net.cpp:395] scale_conv_3c_double_3x3_reduce -> conv_3c_double_3x3_reduce (in-place)
I1227 01:38:18.183851  2908 layer_factory.hpp:77] Creating layer scale_conv_3c_double_3x3_reduce
I1227 01:38:18.184005  2908 net.cpp:150] Setting up scale_conv_3c_double_3x3_reduce
I1227 01:38:18.184026  2908 net.cpp:157] Top shape: 30 96 28 28 (2257920)
I1227 01:38:18.184051  2908 net.cpp:165] Memory required for data: 2518333800
I1227 01:38:18.184067  2908 layer_factory.hpp:77] Creating layer relu_3c_double_3x3_reduce
I1227 01:38:18.184083  2908 net.cpp:100] Creating Layer relu_3c_double_3x3_reduce
I1227 01:38:18.184095  2908 net.cpp:434] relu_3c_double_3x3_reduce <- conv_3c_double_3x3_reduce
I1227 01:38:18.184109  2908 net.cpp:395] relu_3c_double_3x3_reduce -> conv_3c_double_3x3_reduce (in-place)
I1227 01:38:18.184125  2908 net.cpp:150] Setting up relu_3c_double_3x3_reduce
I1227 01:38:18.184139  2908 net.cpp:157] Top shape: 30 96 28 28 (2257920)
I1227 01:38:18.184149  2908 net.cpp:165] Memory required for data: 2527365480
I1227 01:38:18.184160  2908 layer_factory.hpp:77] Creating layer conv_3c_double_3x3_0
I1227 01:38:18.184200  2908 net.cpp:100] Creating Layer conv_3c_double_3x3_0
I1227 01:38:18.184216  2908 net.cpp:434] conv_3c_double_3x3_0 <- conv_3c_double_3x3_reduce
I1227 01:38:18.184231  2908 net.cpp:408] conv_3c_double_3x3_0 -> conv_3c_double_3x3_0
I1227 01:38:18.184614  2908 net.cpp:150] Setting up conv_3c_double_3x3_0
I1227 01:38:18.184638  2908 net.cpp:157] Top shape: 30 144 28 28 (3386880)
I1227 01:38:18.184649  2908 net.cpp:165] Memory required for data: 2540913000
I1227 01:38:18.184665  2908 layer_factory.hpp:77] Creating layer bn_3c_double_3x3_0
I1227 01:38:18.184684  2908 net.cpp:100] Creating Layer bn_3c_double_3x3_0
I1227 01:38:18.184706  2908 net.cpp:434] bn_3c_double_3x3_0 <- conv_3c_double_3x3_0
I1227 01:38:18.184725  2908 net.cpp:395] bn_3c_double_3x3_0 -> conv_3c_double_3x3_0 (in-place)
I1227 01:38:18.184955  2908 net.cpp:150] Setting up bn_3c_double_3x3_0
I1227 01:38:18.184976  2908 net.cpp:157] Top shape: 30 144 28 28 (3386880)
I1227 01:38:18.184990  2908 net.cpp:165] Memory required for data: 2554460520
I1227 01:38:18.185009  2908 layer_factory.hpp:77] Creating layer scale_conv_3c_double_3x3_0
I1227 01:38:18.185024  2908 net.cpp:100] Creating Layer scale_conv_3c_double_3x3_0
I1227 01:38:18.185036  2908 net.cpp:434] scale_conv_3c_double_3x3_0 <- conv_3c_double_3x3_0
I1227 01:38:18.185050  2908 net.cpp:395] scale_conv_3c_double_3x3_0 -> conv_3c_double_3x3_0 (in-place)
I1227 01:38:18.185114  2908 layer_factory.hpp:77] Creating layer scale_conv_3c_double_3x3_0
I1227 01:38:18.185277  2908 net.cpp:150] Setting up scale_conv_3c_double_3x3_0
I1227 01:38:18.185299  2908 net.cpp:157] Top shape: 30 144 28 28 (3386880)
I1227 01:38:18.185310  2908 net.cpp:165] Memory required for data: 2568008040
I1227 01:38:18.185326  2908 layer_factory.hpp:77] Creating layer relu_3c_double_3x3_0
I1227 01:38:18.185344  2908 net.cpp:100] Creating Layer relu_3c_double_3x3_0
I1227 01:38:18.185356  2908 net.cpp:434] relu_3c_double_3x3_0 <- conv_3c_double_3x3_0
I1227 01:38:18.185370  2908 net.cpp:395] relu_3c_double_3x3_0 -> conv_3c_double_3x3_0 (in-place)
I1227 01:38:18.185386  2908 net.cpp:150] Setting up relu_3c_double_3x3_0
I1227 01:38:18.185400  2908 net.cpp:157] Top shape: 30 144 28 28 (3386880)
I1227 01:38:18.185411  2908 net.cpp:165] Memory required for data: 2581555560
I1227 01:38:18.185422  2908 layer_factory.hpp:77] Creating layer conv_3c_double_3x3_1
I1227 01:38:18.185442  2908 net.cpp:100] Creating Layer conv_3c_double_3x3_1
I1227 01:38:18.185456  2908 net.cpp:434] conv_3c_double_3x3_1 <- conv_3c_double_3x3_0
I1227 01:38:18.185472  2908 net.cpp:408] conv_3c_double_3x3_1 -> conv_3c_double_3x3_1
I1227 01:38:18.186483  2908 net.cpp:150] Setting up conv_3c_double_3x3_1
I1227 01:38:18.186511  2908 net.cpp:157] Top shape: 30 144 14 14 (846720)
I1227 01:38:18.186524  2908 net.cpp:165] Memory required for data: 2584942440
I1227 01:38:18.186540  2908 layer_factory.hpp:77] Creating layer bn_3c_double_3x3_1
I1227 01:38:18.186556  2908 net.cpp:100] Creating Layer bn_3c_double_3x3_1
I1227 01:38:18.186569  2908 net.cpp:434] bn_3c_double_3x3_1 <- conv_3c_double_3x3_1
I1227 01:38:18.186586  2908 net.cpp:395] bn_3c_double_3x3_1 -> conv_3c_double_3x3_1 (in-place)
I1227 01:38:18.186816  2908 net.cpp:150] Setting up bn_3c_double_3x3_1
I1227 01:38:18.186837  2908 net.cpp:157] Top shape: 30 144 14 14 (846720)
I1227 01:38:18.186849  2908 net.cpp:165] Memory required for data: 2588329320
I1227 01:38:18.186866  2908 layer_factory.hpp:77] Creating layer scale_conv_3c_double_3x3_1
I1227 01:38:18.186883  2908 net.cpp:100] Creating Layer scale_conv_3c_double_3x3_1
I1227 01:38:18.186898  2908 net.cpp:434] scale_conv_3c_double_3x3_1 <- conv_3c_double_3x3_1
I1227 01:38:18.186916  2908 net.cpp:395] scale_conv_3c_double_3x3_1 -> conv_3c_double_3x3_1 (in-place)
I1227 01:38:18.186974  2908 layer_factory.hpp:77] Creating layer scale_conv_3c_double_3x3_1
I1227 01:38:18.187126  2908 net.cpp:150] Setting up scale_conv_3c_double_3x3_1
I1227 01:38:18.187149  2908 net.cpp:157] Top shape: 30 144 14 14 (846720)
I1227 01:38:18.187160  2908 net.cpp:165] Memory required for data: 2591716200
I1227 01:38:18.187175  2908 layer_factory.hpp:77] Creating layer relu_3c_double_3x3_1
I1227 01:38:18.187199  2908 net.cpp:100] Creating Layer relu_3c_double_3x3_1
I1227 01:38:18.187213  2908 net.cpp:434] relu_3c_double_3x3_1 <- conv_3c_double_3x3_1
I1227 01:38:18.187227  2908 net.cpp:395] relu_3c_double_3x3_1 -> conv_3c_double_3x3_1 (in-place)
I1227 01:38:18.187243  2908 net.cpp:150] Setting up relu_3c_double_3x3_1
I1227 01:38:18.187258  2908 net.cpp:157] Top shape: 30 144 14 14 (846720)
I1227 01:38:18.187269  2908 net.cpp:165] Memory required for data: 2595103080
I1227 01:38:18.187280  2908 layer_factory.hpp:77] Creating layer max_pool_3c_pool
I1227 01:38:18.187306  2908 net.cpp:100] Creating Layer max_pool_3c_pool
I1227 01:38:18.187319  2908 net.cpp:434] max_pool_3c_pool <- ch_concat_3b_chconcat_ch_concat_3b_chconcat_0_split_2
I1227 01:38:18.187335  2908 net.cpp:408] max_pool_3c_pool -> max_pool_3c_pool
I1227 01:38:18.187397  2908 net.cpp:150] Setting up max_pool_3c_pool
I1227 01:38:18.187417  2908 net.cpp:157] Top shape: 30 480 14 14 (2822400)
I1227 01:38:18.187428  2908 net.cpp:165] Memory required for data: 2606392680
I1227 01:38:18.187439  2908 layer_factory.hpp:77] Creating layer ch_concat_3c_chconcat
I1227 01:38:18.187468  2908 net.cpp:100] Creating Layer ch_concat_3c_chconcat
I1227 01:38:18.187484  2908 net.cpp:434] ch_concat_3c_chconcat <- conv_3c_3x3
I1227 01:38:18.187495  2908 net.cpp:434] ch_concat_3c_chconcat <- conv_3c_double_3x3_1
I1227 01:38:18.187508  2908 net.cpp:434] ch_concat_3c_chconcat <- max_pool_3c_pool
I1227 01:38:18.187539  2908 net.cpp:408] ch_concat_3c_chconcat -> ch_concat_3c_chconcat
I1227 01:38:18.187580  2908 net.cpp:150] Setting up ch_concat_3c_chconcat
I1227 01:38:18.187599  2908 net.cpp:157] Top shape: 30 864 14 14 (5080320)
I1227 01:38:18.187611  2908 net.cpp:165] Memory required for data: 2626713960
I1227 01:38:18.187623  2908 layer_factory.hpp:77] Creating layer ch_concat_3c_chconcat_ch_concat_3c_chconcat_0_split
I1227 01:38:18.187638  2908 net.cpp:100] Creating Layer ch_concat_3c_chconcat_ch_concat_3c_chconcat_0_split
I1227 01:38:18.187650  2908 net.cpp:434] ch_concat_3c_chconcat_ch_concat_3c_chconcat_0_split <- ch_concat_3c_chconcat
I1227 01:38:18.187682  2908 net.cpp:408] ch_concat_3c_chconcat_ch_concat_3c_chconcat_0_split -> ch_concat_3c_chconcat_ch_concat_3c_chconcat_0_split_0
I1227 01:38:18.187702  2908 net.cpp:408] ch_concat_3c_chconcat_ch_concat_3c_chconcat_0_split -> ch_concat_3c_chconcat_ch_concat_3c_chconcat_0_split_1
I1227 01:38:18.187721  2908 net.cpp:408] ch_concat_3c_chconcat_ch_concat_3c_chconcat_0_split -> ch_concat_3c_chconcat_ch_concat_3c_chconcat_0_split_2
I1227 01:38:18.187741  2908 net.cpp:408] ch_concat_3c_chconcat_ch_concat_3c_chconcat_0_split -> ch_concat_3c_chconcat_ch_concat_3c_chconcat_0_split_3
I1227 01:38:18.187821  2908 net.cpp:150] Setting up ch_concat_3c_chconcat_ch_concat_3c_chconcat_0_split
I1227 01:38:18.187841  2908 net.cpp:157] Top shape: 30 864 14 14 (5080320)
I1227 01:38:18.187855  2908 net.cpp:157] Top shape: 30 864 14 14 (5080320)
I1227 01:38:18.187866  2908 net.cpp:157] Top shape: 30 864 14 14 (5080320)
I1227 01:38:18.187880  2908 net.cpp:157] Top shape: 30 864 14 14 (5080320)
I1227 01:38:18.187889  2908 net.cpp:165] Memory required for data: 2707999080
I1227 01:38:18.187901  2908 layer_factory.hpp:77] Creating layer conv_4a_1x1
I1227 01:38:18.187921  2908 net.cpp:100] Creating Layer conv_4a_1x1
I1227 01:38:18.187933  2908 net.cpp:434] conv_4a_1x1 <- ch_concat_3c_chconcat_ch_concat_3c_chconcat_0_split_0
I1227 01:38:18.187949  2908 net.cpp:408] conv_4a_1x1 -> conv_4a_1x1
I1227 01:38:18.188990  2908 net.cpp:150] Setting up conv_4a_1x1
I1227 01:38:18.189016  2908 net.cpp:157] Top shape: 30 224 14 14 (1317120)
I1227 01:38:18.189029  2908 net.cpp:165] Memory required for data: 2713267560
I1227 01:38:18.189044  2908 layer_factory.hpp:77] Creating layer bn_4a_1x1
I1227 01:38:18.189064  2908 net.cpp:100] Creating Layer bn_4a_1x1
I1227 01:38:18.189079  2908 net.cpp:434] bn_4a_1x1 <- conv_4a_1x1
I1227 01:38:18.189092  2908 net.cpp:395] bn_4a_1x1 -> conv_4a_1x1 (in-place)
I1227 01:38:18.189334  2908 net.cpp:150] Setting up bn_4a_1x1
I1227 01:38:18.189357  2908 net.cpp:157] Top shape: 30 224 14 14 (1317120)
I1227 01:38:18.189368  2908 net.cpp:165] Memory required for data: 2718536040
I1227 01:38:18.189386  2908 layer_factory.hpp:77] Creating layer scale_conv_4a_1x1
I1227 01:38:18.189405  2908 net.cpp:100] Creating Layer scale_conv_4a_1x1
I1227 01:38:18.189417  2908 net.cpp:434] scale_conv_4a_1x1 <- conv_4a_1x1
I1227 01:38:18.189432  2908 net.cpp:395] scale_conv_4a_1x1 -> conv_4a_1x1 (in-place)
I1227 01:38:18.189493  2908 layer_factory.hpp:77] Creating layer scale_conv_4a_1x1
I1227 01:38:18.189659  2908 net.cpp:150] Setting up scale_conv_4a_1x1
I1227 01:38:18.189680  2908 net.cpp:157] Top shape: 30 224 14 14 (1317120)
I1227 01:38:18.189692  2908 net.cpp:165] Memory required for data: 2723804520
I1227 01:38:18.189707  2908 layer_factory.hpp:77] Creating layer relu_4a_1x1
I1227 01:38:18.189723  2908 net.cpp:100] Creating Layer relu_4a_1x1
I1227 01:38:18.189734  2908 net.cpp:434] relu_4a_1x1 <- conv_4a_1x1
I1227 01:38:18.189750  2908 net.cpp:395] relu_4a_1x1 -> conv_4a_1x1 (in-place)
I1227 01:38:18.189766  2908 net.cpp:150] Setting up relu_4a_1x1
I1227 01:38:18.189781  2908 net.cpp:157] Top shape: 30 224 14 14 (1317120)
I1227 01:38:18.189792  2908 net.cpp:165] Memory required for data: 2729073000
I1227 01:38:18.189803  2908 layer_factory.hpp:77] Creating layer conv_4a_3x3_reduce
I1227 01:38:18.189821  2908 net.cpp:100] Creating Layer conv_4a_3x3_reduce
I1227 01:38:18.189832  2908 net.cpp:434] conv_4a_3x3_reduce <- ch_concat_3c_chconcat_ch_concat_3c_chconcat_0_split_1
I1227 01:38:18.189851  2908 net.cpp:408] conv_4a_3x3_reduce -> conv_4a_3x3_reduce
I1227 01:38:18.190176  2908 net.cpp:150] Setting up conv_4a_3x3_reduce
I1227 01:38:18.190206  2908 net.cpp:157] Top shape: 30 64 14 14 (376320)
I1227 01:38:18.190218  2908 net.cpp:165] Memory required for data: 2730578280
I1227 01:38:18.190234  2908 layer_factory.hpp:77] Creating layer bn_4a_3x3_reduce
I1227 01:38:18.190253  2908 net.cpp:100] Creating Layer bn_4a_3x3_reduce
I1227 01:38:18.190268  2908 net.cpp:434] bn_4a_3x3_reduce <- conv_4a_3x3_reduce
I1227 01:38:18.190282  2908 net.cpp:395] bn_4a_3x3_reduce -> conv_4a_3x3_reduce (in-place)
I1227 01:38:18.190513  2908 net.cpp:150] Setting up bn_4a_3x3_reduce
I1227 01:38:18.190534  2908 net.cpp:157] Top shape: 30 64 14 14 (376320)
I1227 01:38:18.190546  2908 net.cpp:165] Memory required for data: 2732083560
I1227 01:38:18.190563  2908 layer_factory.hpp:77] Creating layer scale_conv_4a_3x3_reduce
I1227 01:38:18.190582  2908 net.cpp:100] Creating Layer scale_conv_4a_3x3_reduce
I1227 01:38:18.190595  2908 net.cpp:434] scale_conv_4a_3x3_reduce <- conv_4a_3x3_reduce
I1227 01:38:18.190609  2908 net.cpp:395] scale_conv_4a_3x3_reduce -> conv_4a_3x3_reduce (in-place)
I1227 01:38:18.190670  2908 layer_factory.hpp:77] Creating layer scale_conv_4a_3x3_reduce
I1227 01:38:18.190834  2908 net.cpp:150] Setting up scale_conv_4a_3x3_reduce
I1227 01:38:18.190855  2908 net.cpp:157] Top shape: 30 64 14 14 (376320)
I1227 01:38:18.190866  2908 net.cpp:165] Memory required for data: 2733588840
I1227 01:38:18.190881  2908 layer_factory.hpp:77] Creating layer relu_4a_3x3_reduce
I1227 01:38:18.190896  2908 net.cpp:100] Creating Layer relu_4a_3x3_reduce
I1227 01:38:18.190908  2908 net.cpp:434] relu_4a_3x3_reduce <- conv_4a_3x3_reduce
I1227 01:38:18.190925  2908 net.cpp:395] relu_4a_3x3_reduce -> conv_4a_3x3_reduce (in-place)
I1227 01:38:18.190943  2908 net.cpp:150] Setting up relu_4a_3x3_reduce
I1227 01:38:18.190956  2908 net.cpp:157] Top shape: 30 64 14 14 (376320)
I1227 01:38:18.190968  2908 net.cpp:165] Memory required for data: 2735094120
I1227 01:38:18.190979  2908 layer_factory.hpp:77] Creating layer conv_4a_3x3
I1227 01:38:18.190995  2908 net.cpp:100] Creating Layer conv_4a_3x3
I1227 01:38:18.191007  2908 net.cpp:434] conv_4a_3x3 <- conv_4a_3x3_reduce
I1227 01:38:18.191025  2908 net.cpp:408] conv_4a_3x3 -> conv_4a_3x3
I1227 01:38:18.191354  2908 net.cpp:150] Setting up conv_4a_3x3
I1227 01:38:18.191376  2908 net.cpp:157] Top shape: 30 96 14 14 (564480)
I1227 01:38:18.191388  2908 net.cpp:165] Memory required for data: 2737352040
I1227 01:38:18.191404  2908 layer_factory.hpp:77] Creating layer bn_4a_3x3
I1227 01:38:18.191419  2908 net.cpp:100] Creating Layer bn_4a_3x3
I1227 01:38:18.191431  2908 net.cpp:434] bn_4a_3x3 <- conv_4a_3x3
I1227 01:38:18.191448  2908 net.cpp:395] bn_4a_3x3 -> conv_4a_3x3 (in-place)
I1227 01:38:18.191684  2908 net.cpp:150] Setting up bn_4a_3x3
I1227 01:38:18.191705  2908 net.cpp:157] Top shape: 30 96 14 14 (564480)
I1227 01:38:18.191716  2908 net.cpp:165] Memory required for data: 2739609960
I1227 01:38:18.191742  2908 layer_factory.hpp:77] Creating layer scale_conv_4a_3x3
I1227 01:38:18.191758  2908 net.cpp:100] Creating Layer scale_conv_4a_3x3
I1227 01:38:18.191771  2908 net.cpp:434] scale_conv_4a_3x3 <- conv_4a_3x3
I1227 01:38:18.191788  2908 net.cpp:395] scale_conv_4a_3x3 -> conv_4a_3x3 (in-place)
I1227 01:38:18.191849  2908 layer_factory.hpp:77] Creating layer scale_conv_4a_3x3
I1227 01:38:18.192005  2908 net.cpp:150] Setting up scale_conv_4a_3x3
I1227 01:38:18.192025  2908 net.cpp:157] Top shape: 30 96 14 14 (564480)
I1227 01:38:18.192037  2908 net.cpp:165] Memory required for data: 2741867880
I1227 01:38:18.192054  2908 layer_factory.hpp:77] Creating layer relu_4a_3x3
I1227 01:38:18.192070  2908 net.cpp:100] Creating Layer relu_4a_3x3
I1227 01:38:18.192083  2908 net.cpp:434] relu_4a_3x3 <- conv_4a_3x3
I1227 01:38:18.192098  2908 net.cpp:395] relu_4a_3x3 -> conv_4a_3x3 (in-place)
I1227 01:38:18.192113  2908 net.cpp:150] Setting up relu_4a_3x3
I1227 01:38:18.192128  2908 net.cpp:157] Top shape: 30 96 14 14 (564480)
I1227 01:38:18.192139  2908 net.cpp:165] Memory required for data: 2744125800
I1227 01:38:18.192150  2908 layer_factory.hpp:77] Creating layer conv_4a_double_3x3_reduce
I1227 01:38:18.192169  2908 net.cpp:100] Creating Layer conv_4a_double_3x3_reduce
I1227 01:38:18.192188  2908 net.cpp:434] conv_4a_double_3x3_reduce <- ch_concat_3c_chconcat_ch_concat_3c_chconcat_0_split_2
I1227 01:38:18.192206  2908 net.cpp:408] conv_4a_double_3x3_reduce -> conv_4a_double_3x3_reduce
I1227 01:38:18.193156  2908 net.cpp:150] Setting up conv_4a_double_3x3_reduce
I1227 01:38:18.193192  2908 net.cpp:157] Top shape: 30 96 14 14 (564480)
I1227 01:38:18.193205  2908 net.cpp:165] Memory required for data: 2746383720
I1227 01:38:18.193222  2908 layer_factory.hpp:77] Creating layer bn_4a_double_3x3_reduce
I1227 01:38:18.193240  2908 net.cpp:100] Creating Layer bn_4a_double_3x3_reduce
I1227 01:38:18.193255  2908 net.cpp:434] bn_4a_double_3x3_reduce <- conv_4a_double_3x3_reduce
I1227 01:38:18.193272  2908 net.cpp:395] bn_4a_double_3x3_reduce -> conv_4a_double_3x3_reduce (in-place)
I1227 01:38:18.193511  2908 net.cpp:150] Setting up bn_4a_double_3x3_reduce
I1227 01:38:18.193538  2908 net.cpp:157] Top shape: 30 96 14 14 (564480)
I1227 01:38:18.193552  2908 net.cpp:165] Memory required for data: 2748641640
I1227 01:38:18.193568  2908 layer_factory.hpp:77] Creating layer scale_conv_4a_double_3x3_reduce
I1227 01:38:18.193595  2908 net.cpp:100] Creating Layer scale_conv_4a_double_3x3_reduce
I1227 01:38:18.193608  2908 net.cpp:434] scale_conv_4a_double_3x3_reduce <- conv_4a_double_3x3_reduce
I1227 01:38:18.193622  2908 net.cpp:395] scale_conv_4a_double_3x3_reduce -> conv_4a_double_3x3_reduce (in-place)
I1227 01:38:18.193686  2908 layer_factory.hpp:77] Creating layer scale_conv_4a_double_3x3_reduce
I1227 01:38:18.193838  2908 net.cpp:150] Setting up scale_conv_4a_double_3x3_reduce
I1227 01:38:18.193862  2908 net.cpp:157] Top shape: 30 96 14 14 (564480)
I1227 01:38:18.193874  2908 net.cpp:165] Memory required for data: 2750899560
I1227 01:38:18.193889  2908 layer_factory.hpp:77] Creating layer relu_4a_double_3x3_reduce
I1227 01:38:18.193909  2908 net.cpp:100] Creating Layer relu_4a_double_3x3_reduce
I1227 01:38:18.193922  2908 net.cpp:434] relu_4a_double_3x3_reduce <- conv_4a_double_3x3_reduce
I1227 01:38:18.193936  2908 net.cpp:395] relu_4a_double_3x3_reduce -> conv_4a_double_3x3_reduce (in-place)
I1227 01:38:18.193953  2908 net.cpp:150] Setting up relu_4a_double_3x3_reduce
I1227 01:38:18.193969  2908 net.cpp:157] Top shape: 30 96 14 14 (564480)
I1227 01:38:18.193980  2908 net.cpp:165] Memory required for data: 2753157480
I1227 01:38:18.193991  2908 layer_factory.hpp:77] Creating layer conv_4a_double_3x3_0
I1227 01:38:18.194010  2908 net.cpp:100] Creating Layer conv_4a_double_3x3_0
I1227 01:38:18.194023  2908 net.cpp:434] conv_4a_double_3x3_0 <- conv_4a_double_3x3_reduce
I1227 01:38:18.194039  2908 net.cpp:408] conv_4a_double_3x3_0 -> conv_4a_double_3x3_0
I1227 01:38:18.194422  2908 net.cpp:150] Setting up conv_4a_double_3x3_0
I1227 01:38:18.194456  2908 net.cpp:157] Top shape: 30 128 14 14 (752640)
I1227 01:38:18.194470  2908 net.cpp:165] Memory required for data: 2756168040
I1227 01:38:18.194486  2908 layer_factory.hpp:77] Creating layer bn_4a_double_3x3_0
I1227 01:38:18.194505  2908 net.cpp:100] Creating Layer bn_4a_double_3x3_0
I1227 01:38:18.194519  2908 net.cpp:434] bn_4a_double_3x3_0 <- conv_4a_double_3x3_0
I1227 01:38:18.194535  2908 net.cpp:395] bn_4a_double_3x3_0 -> conv_4a_double_3x3_0 (in-place)
I1227 01:38:18.194773  2908 net.cpp:150] Setting up bn_4a_double_3x3_0
I1227 01:38:18.194797  2908 net.cpp:157] Top shape: 30 128 14 14 (752640)
I1227 01:38:18.194808  2908 net.cpp:165] Memory required for data: 2759178600
I1227 01:38:18.194824  2908 layer_factory.hpp:77] Creating layer scale_conv_4a_double_3x3_0
I1227 01:38:18.194842  2908 net.cpp:100] Creating Layer scale_conv_4a_double_3x3_0
I1227 01:38:18.194855  2908 net.cpp:434] scale_conv_4a_double_3x3_0 <- conv_4a_double_3x3_0
I1227 01:38:18.194871  2908 net.cpp:395] scale_conv_4a_double_3x3_0 -> conv_4a_double_3x3_0 (in-place)
I1227 01:38:18.194947  2908 layer_factory.hpp:77] Creating layer scale_conv_4a_double_3x3_0
I1227 01:38:18.195108  2908 net.cpp:150] Setting up scale_conv_4a_double_3x3_0
I1227 01:38:18.195142  2908 net.cpp:157] Top shape: 30 128 14 14 (752640)
I1227 01:38:18.195159  2908 net.cpp:165] Memory required for data: 2762189160
I1227 01:38:18.195192  2908 layer_factory.hpp:77] Creating layer relu_4a_double_3x3_0
I1227 01:38:18.195220  2908 net.cpp:100] Creating Layer relu_4a_double_3x3_0
I1227 01:38:18.195242  2908 net.cpp:434] relu_4a_double_3x3_0 <- conv_4a_double_3x3_0
I1227 01:38:18.195267  2908 net.cpp:395] relu_4a_double_3x3_0 -> conv_4a_double_3x3_0 (in-place)
I1227 01:38:18.195286  2908 net.cpp:150] Setting up relu_4a_double_3x3_0
I1227 01:38:18.195302  2908 net.cpp:157] Top shape: 30 128 14 14 (752640)
I1227 01:38:18.195312  2908 net.cpp:165] Memory required for data: 2765199720
I1227 01:38:18.195328  2908 layer_factory.hpp:77] Creating layer conv_4a_double_3x3_1
I1227 01:38:18.195358  2908 net.cpp:100] Creating Layer conv_4a_double_3x3_1
I1227 01:38:18.195387  2908 net.cpp:434] conv_4a_double_3x3_1 <- conv_4a_double_3x3_0
I1227 01:38:18.195417  2908 net.cpp:408] conv_4a_double_3x3_1 -> conv_4a_double_3x3_1
I1227 01:38:18.196581  2908 net.cpp:150] Setting up conv_4a_double_3x3_1
I1227 01:38:18.196611  2908 net.cpp:157] Top shape: 30 128 14 14 (752640)
I1227 01:38:18.196624  2908 net.cpp:165] Memory required for data: 2768210280
I1227 01:38:18.196640  2908 layer_factory.hpp:77] Creating layer bn_4a_double_3x3_1
I1227 01:38:18.196657  2908 net.cpp:100] Creating Layer bn_4a_double_3x3_1
I1227 01:38:18.196671  2908 net.cpp:434] bn_4a_double_3x3_1 <- conv_4a_double_3x3_1
I1227 01:38:18.196688  2908 net.cpp:395] bn_4a_double_3x3_1 -> conv_4a_double_3x3_1 (in-place)
I1227 01:38:18.196921  2908 net.cpp:150] Setting up bn_4a_double_3x3_1
I1227 01:38:18.196945  2908 net.cpp:157] Top shape: 30 128 14 14 (752640)
I1227 01:38:18.196959  2908 net.cpp:165] Memory required for data: 2771220840
I1227 01:38:18.196975  2908 layer_factory.hpp:77] Creating layer scale_conv_4a_double_3x3_1
I1227 01:38:18.196992  2908 net.cpp:100] Creating Layer scale_conv_4a_double_3x3_1
I1227 01:38:18.197005  2908 net.cpp:434] scale_conv_4a_double_3x3_1 <- conv_4a_double_3x3_1
I1227 01:38:18.197022  2908 net.cpp:395] scale_conv_4a_double_3x3_1 -> conv_4a_double_3x3_1 (in-place)
I1227 01:38:18.197082  2908 layer_factory.hpp:77] Creating layer scale_conv_4a_double_3x3_1
I1227 01:38:18.197234  2908 net.cpp:150] Setting up scale_conv_4a_double_3x3_1
I1227 01:38:18.197263  2908 net.cpp:157] Top shape: 30 128 14 14 (752640)
I1227 01:38:18.197274  2908 net.cpp:165] Memory required for data: 2774231400
I1227 01:38:18.197289  2908 layer_factory.hpp:77] Creating layer relu_4a_double_3x3_1
I1227 01:38:18.197309  2908 net.cpp:100] Creating Layer relu_4a_double_3x3_1
I1227 01:38:18.197322  2908 net.cpp:434] relu_4a_double_3x3_1 <- conv_4a_double_3x3_1
I1227 01:38:18.197336  2908 net.cpp:395] relu_4a_double_3x3_1 -> conv_4a_double_3x3_1 (in-place)
I1227 01:38:18.197361  2908 net.cpp:150] Setting up relu_4a_double_3x3_1
I1227 01:38:18.197377  2908 net.cpp:157] Top shape: 30 128 14 14 (752640)
I1227 01:38:18.197388  2908 net.cpp:165] Memory required for data: 2777241960
I1227 01:38:18.197399  2908 layer_factory.hpp:77] Creating layer ave_pool_4a_pool
I1227 01:38:18.197430  2908 net.cpp:100] Creating Layer ave_pool_4a_pool
I1227 01:38:18.197445  2908 net.cpp:434] ave_pool_4a_pool <- ch_concat_3c_chconcat_ch_concat_3c_chconcat_0_split_3
I1227 01:38:18.197461  2908 net.cpp:408] ave_pool_4a_pool -> ave_pool_4a_pool
I1227 01:38:18.197509  2908 net.cpp:150] Setting up ave_pool_4a_pool
I1227 01:38:18.197528  2908 net.cpp:157] Top shape: 30 864 14 14 (5080320)
I1227 01:38:18.197540  2908 net.cpp:165] Memory required for data: 2797563240
I1227 01:38:18.197551  2908 layer_factory.hpp:77] Creating layer conv_4a_proj
I1227 01:38:18.197572  2908 net.cpp:100] Creating Layer conv_4a_proj
I1227 01:38:18.197585  2908 net.cpp:434] conv_4a_proj <- ave_pool_4a_pool
I1227 01:38:18.197602  2908 net.cpp:408] conv_4a_proj -> conv_4a_proj
I1227 01:38:18.197957  2908 net.cpp:150] Setting up conv_4a_proj
I1227 01:38:18.197980  2908 net.cpp:157] Top shape: 30 128 14 14 (752640)
I1227 01:38:18.197993  2908 net.cpp:165] Memory required for data: 2800573800
I1227 01:38:18.198006  2908 layer_factory.hpp:77] Creating layer bn_4a_proj
I1227 01:38:18.198063  2908 net.cpp:100] Creating Layer bn_4a_proj
I1227 01:38:18.198079  2908 net.cpp:434] bn_4a_proj <- conv_4a_proj
I1227 01:38:18.198094  2908 net.cpp:395] bn_4a_proj -> conv_4a_proj (in-place)
I1227 01:38:18.198329  2908 net.cpp:150] Setting up bn_4a_proj
I1227 01:38:18.198354  2908 net.cpp:157] Top shape: 30 128 14 14 (752640)
I1227 01:38:18.198366  2908 net.cpp:165] Memory required for data: 2803584360
I1227 01:38:18.198385  2908 layer_factory.hpp:77] Creating layer scale_conv_4a_proj
I1227 01:38:18.198400  2908 net.cpp:100] Creating Layer scale_conv_4a_proj
I1227 01:38:18.198413  2908 net.cpp:434] scale_conv_4a_proj <- conv_4a_proj
I1227 01:38:18.198429  2908 net.cpp:395] scale_conv_4a_proj -> conv_4a_proj (in-place)
I1227 01:38:18.198493  2908 layer_factory.hpp:77] Creating layer scale_conv_4a_proj
I1227 01:38:18.198638  2908 net.cpp:150] Setting up scale_conv_4a_proj
I1227 01:38:18.198659  2908 net.cpp:157] Top shape: 30 128 14 14 (752640)
I1227 01:38:18.198670  2908 net.cpp:165] Memory required for data: 2806594920
I1227 01:38:18.198688  2908 layer_factory.hpp:77] Creating layer relu_4a_proj
I1227 01:38:18.198705  2908 net.cpp:100] Creating Layer relu_4a_proj
I1227 01:38:18.198719  2908 net.cpp:434] relu_4a_proj <- conv_4a_proj
I1227 01:38:18.198734  2908 net.cpp:395] relu_4a_proj -> conv_4a_proj (in-place)
I1227 01:38:18.198748  2908 net.cpp:150] Setting up relu_4a_proj
I1227 01:38:18.198762  2908 net.cpp:157] Top shape: 30 128 14 14 (752640)
I1227 01:38:18.198774  2908 net.cpp:165] Memory required for data: 2809605480
I1227 01:38:18.198787  2908 layer_factory.hpp:77] Creating layer ch_concat_4a_chconcat
I1227 01:38:18.198804  2908 net.cpp:100] Creating Layer ch_concat_4a_chconcat
I1227 01:38:18.198817  2908 net.cpp:434] ch_concat_4a_chconcat <- conv_4a_1x1
I1227 01:38:18.198830  2908 net.cpp:434] ch_concat_4a_chconcat <- conv_4a_3x3
I1227 01:38:18.198845  2908 net.cpp:434] ch_concat_4a_chconcat <- conv_4a_double_3x3_1
I1227 01:38:18.198858  2908 net.cpp:434] ch_concat_4a_chconcat <- conv_4a_proj
I1227 01:38:18.198879  2908 net.cpp:408] ch_concat_4a_chconcat -> ch_concat_4a_chconcat
I1227 01:38:18.198926  2908 net.cpp:150] Setting up ch_concat_4a_chconcat
I1227 01:38:18.198946  2908 net.cpp:157] Top shape: 30 576 14 14 (3386880)
I1227 01:38:18.198957  2908 net.cpp:165] Memory required for data: 2823153000
I1227 01:38:18.198968  2908 layer_factory.hpp:77] Creating layer ch_concat_4a_chconcat_ch_concat_4a_chconcat_0_split
I1227 01:38:18.198997  2908 net.cpp:100] Creating Layer ch_concat_4a_chconcat_ch_concat_4a_chconcat_0_split
I1227 01:38:18.199009  2908 net.cpp:434] ch_concat_4a_chconcat_ch_concat_4a_chconcat_0_split <- ch_concat_4a_chconcat
I1227 01:38:18.199033  2908 net.cpp:408] ch_concat_4a_chconcat_ch_concat_4a_chconcat_0_split -> ch_concat_4a_chconcat_ch_concat_4a_chconcat_0_split_0
I1227 01:38:18.199050  2908 net.cpp:408] ch_concat_4a_chconcat_ch_concat_4a_chconcat_0_split -> ch_concat_4a_chconcat_ch_concat_4a_chconcat_0_split_1
I1227 01:38:18.199072  2908 net.cpp:408] ch_concat_4a_chconcat_ch_concat_4a_chconcat_0_split -> ch_concat_4a_chconcat_ch_concat_4a_chconcat_0_split_2
I1227 01:38:18.199090  2908 net.cpp:408] ch_concat_4a_chconcat_ch_concat_4a_chconcat_0_split -> ch_concat_4a_chconcat_ch_concat_4a_chconcat_0_split_3
I1227 01:38:18.199168  2908 net.cpp:150] Setting up ch_concat_4a_chconcat_ch_concat_4a_chconcat_0_split
I1227 01:38:18.199194  2908 net.cpp:157] Top shape: 30 576 14 14 (3386880)
I1227 01:38:18.199208  2908 net.cpp:157] Top shape: 30 576 14 14 (3386880)
I1227 01:38:18.199220  2908 net.cpp:157] Top shape: 30 576 14 14 (3386880)
I1227 01:38:18.199232  2908 net.cpp:157] Top shape: 30 576 14 14 (3386880)
I1227 01:38:18.199244  2908 net.cpp:165] Memory required for data: 2877343080
I1227 01:38:18.199254  2908 layer_factory.hpp:77] Creating layer conv_4b_1x1
I1227 01:38:18.199272  2908 net.cpp:100] Creating Layer conv_4b_1x1
I1227 01:38:18.199285  2908 net.cpp:434] conv_4b_1x1 <- ch_concat_4a_chconcat_ch_concat_4a_chconcat_0_split_0
I1227 01:38:18.199306  2908 net.cpp:408] conv_4b_1x1 -> conv_4b_1x1
I1227 01:38:18.200417  2908 net.cpp:150] Setting up conv_4b_1x1
I1227 01:38:18.200454  2908 net.cpp:157] Top shape: 30 192 14 14 (1128960)
I1227 01:38:18.200476  2908 net.cpp:165] Memory required for data: 2881858920
I1227 01:38:18.200508  2908 layer_factory.hpp:77] Creating layer bn_4b_1x1
I1227 01:38:18.200534  2908 net.cpp:100] Creating Layer bn_4b_1x1
I1227 01:38:18.200559  2908 net.cpp:434] bn_4b_1x1 <- conv_4b_1x1
I1227 01:38:18.200593  2908 net.cpp:395] bn_4b_1x1 -> conv_4b_1x1 (in-place)
I1227 01:38:18.200844  2908 net.cpp:150] Setting up bn_4b_1x1
I1227 01:38:18.200865  2908 net.cpp:157] Top shape: 30 192 14 14 (1128960)
I1227 01:38:18.200876  2908 net.cpp:165] Memory required for data: 2886374760
I1227 01:38:18.200896  2908 layer_factory.hpp:77] Creating layer scale_conv_4b_1x1
I1227 01:38:18.200916  2908 net.cpp:100] Creating Layer scale_conv_4b_1x1
I1227 01:38:18.200928  2908 net.cpp:434] scale_conv_4b_1x1 <- conv_4b_1x1
I1227 01:38:18.200947  2908 net.cpp:395] scale_conv_4b_1x1 -> conv_4b_1x1 (in-place)
I1227 01:38:18.201007  2908 layer_factory.hpp:77] Creating layer scale_conv_4b_1x1
I1227 01:38:18.201162  2908 net.cpp:150] Setting up scale_conv_4b_1x1
I1227 01:38:18.201203  2908 net.cpp:157] Top shape: 30 192 14 14 (1128960)
I1227 01:38:18.201216  2908 net.cpp:165] Memory required for data: 2890890600
I1227 01:38:18.201232  2908 layer_factory.hpp:77] Creating layer relu_4b_1x1
I1227 01:38:18.201246  2908 net.cpp:100] Creating Layer relu_4b_1x1
I1227 01:38:18.201258  2908 net.cpp:434] relu_4b_1x1 <- conv_4b_1x1
I1227 01:38:18.201275  2908 net.cpp:395] relu_4b_1x1 -> conv_4b_1x1 (in-place)
I1227 01:38:18.201292  2908 net.cpp:150] Setting up relu_4b_1x1
I1227 01:38:18.201305  2908 net.cpp:157] Top shape: 30 192 14 14 (1128960)
I1227 01:38:18.201315  2908 net.cpp:165] Memory required for data: 2895406440
I1227 01:38:18.201326  2908 layer_factory.hpp:77] Creating layer conv_4b_3x3_reduce
I1227 01:38:18.201345  2908 net.cpp:100] Creating Layer conv_4b_3x3_reduce
I1227 01:38:18.201359  2908 net.cpp:434] conv_4b_3x3_reduce <- ch_concat_4a_chconcat_ch_concat_4a_chconcat_0_split_1
I1227 01:38:18.201372  2908 net.cpp:408] conv_4b_3x3_reduce -> conv_4b_3x3_reduce
I1227 01:38:18.201725  2908 net.cpp:150] Setting up conv_4b_3x3_reduce
I1227 01:38:18.201747  2908 net.cpp:157] Top shape: 30 96 14 14 (564480)
I1227 01:38:18.201758  2908 net.cpp:165] Memory required for data: 2897664360
I1227 01:38:18.201774  2908 layer_factory.hpp:77] Creating layer bn_4b_3x3_reduce
I1227 01:38:18.201793  2908 net.cpp:100] Creating Layer bn_4b_3x3_reduce
I1227 01:38:18.201807  2908 net.cpp:434] bn_4b_3x3_reduce <- conv_4b_3x3_reduce
I1227 01:38:18.201829  2908 net.cpp:395] bn_4b_3x3_reduce -> conv_4b_3x3_reduce (in-place)
I1227 01:38:18.202069  2908 net.cpp:150] Setting up bn_4b_3x3_reduce
I1227 01:38:18.202091  2908 net.cpp:157] Top shape: 30 96 14 14 (564480)
I1227 01:38:18.202103  2908 net.cpp:165] Memory required for data: 2899922280
I1227 01:38:18.202121  2908 layer_factory.hpp:77] Creating layer scale_conv_4b_3x3_reduce
I1227 01:38:18.202136  2908 net.cpp:100] Creating Layer scale_conv_4b_3x3_reduce
I1227 01:38:18.202149  2908 net.cpp:434] scale_conv_4b_3x3_reduce <- conv_4b_3x3_reduce
I1227 01:38:18.202167  2908 net.cpp:395] scale_conv_4b_3x3_reduce -> conv_4b_3x3_reduce (in-place)
I1227 01:38:18.202236  2908 layer_factory.hpp:77] Creating layer scale_conv_4b_3x3_reduce
I1227 01:38:18.202392  2908 net.cpp:150] Setting up scale_conv_4b_3x3_reduce
I1227 01:38:18.202414  2908 net.cpp:157] Top shape: 30 96 14 14 (564480)
I1227 01:38:18.202425  2908 net.cpp:165] Memory required for data: 2902180200
I1227 01:38:18.202441  2908 layer_factory.hpp:77] Creating layer relu_4b_3x3_reduce
I1227 01:38:18.202455  2908 net.cpp:100] Creating Layer relu_4b_3x3_reduce
I1227 01:38:18.202467  2908 net.cpp:434] relu_4b_3x3_reduce <- conv_4b_3x3_reduce
I1227 01:38:18.202486  2908 net.cpp:395] relu_4b_3x3_reduce -> conv_4b_3x3_reduce (in-place)
I1227 01:38:18.202502  2908 net.cpp:150] Setting up relu_4b_3x3_reduce
I1227 01:38:18.202517  2908 net.cpp:157] Top shape: 30 96 14 14 (564480)
I1227 01:38:18.202527  2908 net.cpp:165] Memory required for data: 2904438120
I1227 01:38:18.202539  2908 layer_factory.hpp:77] Creating layer conv_4b_3x3
I1227 01:38:18.202558  2908 net.cpp:100] Creating Layer conv_4b_3x3
I1227 01:38:18.202571  2908 net.cpp:434] conv_4b_3x3 <- conv_4b_3x3_reduce
I1227 01:38:18.202586  2908 net.cpp:408] conv_4b_3x3 -> conv_4b_3x3
I1227 01:38:18.202980  2908 net.cpp:150] Setting up conv_4b_3x3
I1227 01:38:18.203004  2908 net.cpp:157] Top shape: 30 128 14 14 (752640)
I1227 01:38:18.203016  2908 net.cpp:165] Memory required for data: 2907448680
I1227 01:38:18.203032  2908 layer_factory.hpp:77] Creating layer bn_4b_3x3
I1227 01:38:18.203050  2908 net.cpp:100] Creating Layer bn_4b_3x3
I1227 01:38:18.203063  2908 net.cpp:434] bn_4b_3x3 <- conv_4b_3x3
I1227 01:38:18.203078  2908 net.cpp:395] bn_4b_3x3 -> conv_4b_3x3 (in-place)
I1227 01:38:18.203315  2908 net.cpp:150] Setting up bn_4b_3x3
I1227 01:38:18.203336  2908 net.cpp:157] Top shape: 30 128 14 14 (752640)
I1227 01:38:18.203348  2908 net.cpp:165] Memory required for data: 2910459240
I1227 01:38:18.203366  2908 layer_factory.hpp:77] Creating layer scale_conv_4b_3x3
I1227 01:38:18.203398  2908 net.cpp:100] Creating Layer scale_conv_4b_3x3
I1227 01:38:18.203411  2908 net.cpp:434] scale_conv_4b_3x3 <- conv_4b_3x3
I1227 01:38:18.203425  2908 net.cpp:395] scale_conv_4b_3x3 -> conv_4b_3x3 (in-place)
I1227 01:38:18.203487  2908 layer_factory.hpp:77] Creating layer scale_conv_4b_3x3
I1227 01:38:18.203629  2908 net.cpp:150] Setting up scale_conv_4b_3x3
I1227 01:38:18.203649  2908 net.cpp:157] Top shape: 30 128 14 14 (752640)
I1227 01:38:18.203660  2908 net.cpp:165] Memory required for data: 2913469800
I1227 01:38:18.203675  2908 layer_factory.hpp:77] Creating layer relu_4b_3x3
I1227 01:38:18.203688  2908 net.cpp:100] Creating Layer relu_4b_3x3
I1227 01:38:18.203701  2908 net.cpp:434] relu_4b_3x3 <- conv_4b_3x3
I1227 01:38:18.203716  2908 net.cpp:395] relu_4b_3x3 -> conv_4b_3x3 (in-place)
I1227 01:38:18.203732  2908 net.cpp:150] Setting up relu_4b_3x3
I1227 01:38:18.203747  2908 net.cpp:157] Top shape: 30 128 14 14 (752640)
I1227 01:38:18.203758  2908 net.cpp:165] Memory required for data: 2916480360
I1227 01:38:18.203768  2908 layer_factory.hpp:77] Creating layer conv_4b_double_3x3_reduce
I1227 01:38:18.203786  2908 net.cpp:100] Creating Layer conv_4b_double_3x3_reduce
I1227 01:38:18.203799  2908 net.cpp:434] conv_4b_double_3x3_reduce <- ch_concat_4a_chconcat_ch_concat_4a_chconcat_0_split_2
I1227 01:38:18.203815  2908 net.cpp:408] conv_4b_double_3x3_reduce -> conv_4b_double_3x3_reduce
I1227 01:38:18.204787  2908 net.cpp:150] Setting up conv_4b_double_3x3_reduce
I1227 01:38:18.204813  2908 net.cpp:157] Top shape: 30 96 14 14 (564480)
I1227 01:38:18.204825  2908 net.cpp:165] Memory required for data: 2918738280
I1227 01:38:18.204841  2908 layer_factory.hpp:77] Creating layer bn_4b_double_3x3_reduce
I1227 01:38:18.204861  2908 net.cpp:100] Creating Layer bn_4b_double_3x3_reduce
I1227 01:38:18.204876  2908 net.cpp:434] bn_4b_double_3x3_reduce <- conv_4b_double_3x3_reduce
I1227 01:38:18.204891  2908 net.cpp:395] bn_4b_double_3x3_reduce -> conv_4b_double_3x3_reduce (in-place)
I1227 01:38:18.205140  2908 net.cpp:150] Setting up bn_4b_double_3x3_reduce
I1227 01:38:18.205163  2908 net.cpp:157] Top shape: 30 96 14 14 (564480)
I1227 01:38:18.205173  2908 net.cpp:165] Memory required for data: 2920996200
I1227 01:38:18.205199  2908 layer_factory.hpp:77] Creating layer scale_conv_4b_double_3x3_reduce
I1227 01:38:18.205222  2908 net.cpp:100] Creating Layer scale_conv_4b_double_3x3_reduce
I1227 01:38:18.205236  2908 net.cpp:434] scale_conv_4b_double_3x3_reduce <- conv_4b_double_3x3_reduce
I1227 01:38:18.205250  2908 net.cpp:395] scale_conv_4b_double_3x3_reduce -> conv_4b_double_3x3_reduce (in-place)
I1227 01:38:18.205314  2908 layer_factory.hpp:77] Creating layer scale_conv_4b_double_3x3_reduce
I1227 01:38:18.205479  2908 net.cpp:150] Setting up scale_conv_4b_double_3x3_reduce
I1227 01:38:18.205500  2908 net.cpp:157] Top shape: 30 96 14 14 (564480)
I1227 01:38:18.205513  2908 net.cpp:165] Memory required for data: 2923254120
I1227 01:38:18.205528  2908 layer_factory.hpp:77] Creating layer relu_4b_double_3x3_reduce
I1227 01:38:18.205543  2908 net.cpp:100] Creating Layer relu_4b_double_3x3_reduce
I1227 01:38:18.205554  2908 net.cpp:434] relu_4b_double_3x3_reduce <- conv_4b_double_3x3_reduce
I1227 01:38:18.205571  2908 net.cpp:395] relu_4b_double_3x3_reduce -> conv_4b_double_3x3_reduce (in-place)
I1227 01:38:18.205588  2908 net.cpp:150] Setting up relu_4b_double_3x3_reduce
I1227 01:38:18.205616  2908 net.cpp:157] Top shape: 30 96 14 14 (564480)
I1227 01:38:18.205627  2908 net.cpp:165] Memory required for data: 2925512040
I1227 01:38:18.205638  2908 layer_factory.hpp:77] Creating layer conv_4b_double_3x3_0
I1227 01:38:18.205654  2908 net.cpp:100] Creating Layer conv_4b_double_3x3_0
I1227 01:38:18.205665  2908 net.cpp:434] conv_4b_double_3x3_0 <- conv_4b_double_3x3_reduce
I1227 01:38:18.205683  2908 net.cpp:408] conv_4b_double_3x3_0 -> conv_4b_double_3x3_0
I1227 01:38:18.206679  2908 net.cpp:150] Setting up conv_4b_double_3x3_0
I1227 01:38:18.206709  2908 net.cpp:157] Top shape: 30 128 14 14 (752640)
I1227 01:38:18.206722  2908 net.cpp:165] Memory required for data: 2928522600
I1227 01:38:18.206743  2908 layer_factory.hpp:77] Creating layer bn_4b_double_3x3_0
I1227 01:38:18.206764  2908 net.cpp:100] Creating Layer bn_4b_double_3x3_0
I1227 01:38:18.206779  2908 net.cpp:434] bn_4b_double_3x3_0 <- conv_4b_double_3x3_0
I1227 01:38:18.206795  2908 net.cpp:395] bn_4b_double_3x3_0 -> conv_4b_double_3x3_0 (in-place)
I1227 01:38:18.207029  2908 net.cpp:150] Setting up bn_4b_double_3x3_0
I1227 01:38:18.207053  2908 net.cpp:157] Top shape: 30 128 14 14 (752640)
I1227 01:38:18.207065  2908 net.cpp:165] Memory required for data: 2931533160
I1227 01:38:18.207082  2908 layer_factory.hpp:77] Creating layer scale_conv_4b_double_3x3_0
I1227 01:38:18.207103  2908 net.cpp:100] Creating Layer scale_conv_4b_double_3x3_0
I1227 01:38:18.207116  2908 net.cpp:434] scale_conv_4b_double_3x3_0 <- conv_4b_double_3x3_0
I1227 01:38:18.207131  2908 net.cpp:395] scale_conv_4b_double_3x3_0 -> conv_4b_double_3x3_0 (in-place)
I1227 01:38:18.207202  2908 layer_factory.hpp:77] Creating layer scale_conv_4b_double_3x3_0
I1227 01:38:18.207378  2908 net.cpp:150] Setting up scale_conv_4b_double_3x3_0
I1227 01:38:18.207402  2908 net.cpp:157] Top shape: 30 128 14 14 (752640)
I1227 01:38:18.207414  2908 net.cpp:165] Memory required for data: 2934543720
I1227 01:38:18.207432  2908 layer_factory.hpp:77] Creating layer relu_4b_double_3x3_0
I1227 01:38:18.207459  2908 net.cpp:100] Creating Layer relu_4b_double_3x3_0
I1227 01:38:18.207473  2908 net.cpp:434] relu_4b_double_3x3_0 <- conv_4b_double_3x3_0
I1227 01:38:18.207487  2908 net.cpp:395] relu_4b_double_3x3_0 -> conv_4b_double_3x3_0 (in-place)
I1227 01:38:18.207504  2908 net.cpp:150] Setting up relu_4b_double_3x3_0
I1227 01:38:18.207520  2908 net.cpp:157] Top shape: 30 128 14 14 (752640)
I1227 01:38:18.207530  2908 net.cpp:165] Memory required for data: 2937554280
I1227 01:38:18.207542  2908 layer_factory.hpp:77] Creating layer conv_4b_double_3x3_1
I1227 01:38:18.207561  2908 net.cpp:100] Creating Layer conv_4b_double_3x3_1
I1227 01:38:18.207574  2908 net.cpp:434] conv_4b_double_3x3_1 <- conv_4b_double_3x3_0
I1227 01:38:18.207589  2908 net.cpp:408] conv_4b_double_3x3_1 -> conv_4b_double_3x3_1
I1227 01:38:18.207984  2908 net.cpp:150] Setting up conv_4b_double_3x3_1
I1227 01:38:18.208009  2908 net.cpp:157] Top shape: 30 128 14 14 (752640)
I1227 01:38:18.208024  2908 net.cpp:165] Memory required for data: 2940564840
I1227 01:38:18.208039  2908 layer_factory.hpp:77] Creating layer bn_4b_double_3x3_1
I1227 01:38:18.208058  2908 net.cpp:100] Creating Layer bn_4b_double_3x3_1
I1227 01:38:18.208071  2908 net.cpp:434] bn_4b_double_3x3_1 <- conv_4b_double_3x3_1
I1227 01:38:18.208099  2908 net.cpp:395] bn_4b_double_3x3_1 -> conv_4b_double_3x3_1 (in-place)
I1227 01:38:18.208351  2908 net.cpp:150] Setting up bn_4b_double_3x3_1
I1227 01:38:18.208389  2908 net.cpp:157] Top shape: 30 128 14 14 (752640)
I1227 01:38:18.208401  2908 net.cpp:165] Memory required for data: 2943575400
I1227 01:38:18.208418  2908 layer_factory.hpp:77] Creating layer scale_conv_4b_double_3x3_1
I1227 01:38:18.208434  2908 net.cpp:100] Creating Layer scale_conv_4b_double_3x3_1
I1227 01:38:18.208446  2908 net.cpp:434] scale_conv_4b_double_3x3_1 <- conv_4b_double_3x3_1
I1227 01:38:18.208459  2908 net.cpp:395] scale_conv_4b_double_3x3_1 -> conv_4b_double_3x3_1 (in-place)
I1227 01:38:18.208523  2908 layer_factory.hpp:77] Creating layer scale_conv_4b_double_3x3_1
I1227 01:38:18.208696  2908 net.cpp:150] Setting up scale_conv_4b_double_3x3_1
I1227 01:38:18.208721  2908 net.cpp:157] Top shape: 30 128 14 14 (752640)
I1227 01:38:18.208734  2908 net.cpp:165] Memory required for data: 2946585960
I1227 01:38:18.208750  2908 layer_factory.hpp:77] Creating layer relu_4b_double_3x3_1
I1227 01:38:18.208767  2908 net.cpp:100] Creating Layer relu_4b_double_3x3_1
I1227 01:38:18.208780  2908 net.cpp:434] relu_4b_double_3x3_1 <- conv_4b_double_3x3_1
I1227 01:38:18.208797  2908 net.cpp:395] relu_4b_double_3x3_1 -> conv_4b_double_3x3_1 (in-place)
I1227 01:38:18.208816  2908 net.cpp:150] Setting up relu_4b_double_3x3_1
I1227 01:38:18.208830  2908 net.cpp:157] Top shape: 30 128 14 14 (752640)
I1227 01:38:18.208842  2908 net.cpp:165] Memory required for data: 2949596520
I1227 01:38:18.208853  2908 layer_factory.hpp:77] Creating layer ave_pool_4b_pool
I1227 01:38:18.208868  2908 net.cpp:100] Creating Layer ave_pool_4b_pool
I1227 01:38:18.208880  2908 net.cpp:434] ave_pool_4b_pool <- ch_concat_4a_chconcat_ch_concat_4a_chconcat_0_split_3
I1227 01:38:18.208900  2908 net.cpp:408] ave_pool_4b_pool -> ave_pool_4b_pool
I1227 01:38:18.208945  2908 net.cpp:150] Setting up ave_pool_4b_pool
I1227 01:38:18.208968  2908 net.cpp:157] Top shape: 30 576 14 14 (3386880)
I1227 01:38:18.208979  2908 net.cpp:165] Memory required for data: 2963144040
I1227 01:38:18.208991  2908 layer_factory.hpp:77] Creating layer conv_4b_proj
I1227 01:38:18.209007  2908 net.cpp:100] Creating Layer conv_4b_proj
I1227 01:38:18.209019  2908 net.cpp:434] conv_4b_proj <- ave_pool_4b_pool
I1227 01:38:18.209038  2908 net.cpp:408] conv_4b_proj -> conv_4b_proj
I1227 01:38:18.209409  2908 net.cpp:150] Setting up conv_4b_proj
I1227 01:38:18.209435  2908 net.cpp:157] Top shape: 30 128 14 14 (752640)
I1227 01:38:18.209448  2908 net.cpp:165] Memory required for data: 2966154600
I1227 01:38:18.209463  2908 layer_factory.hpp:77] Creating layer bn_4b_proj
I1227 01:38:18.209481  2908 net.cpp:100] Creating Layer bn_4b_proj
I1227 01:38:18.209493  2908 net.cpp:434] bn_4b_proj <- conv_4b_proj
I1227 01:38:18.209519  2908 net.cpp:395] bn_4b_proj -> conv_4b_proj (in-place)
I1227 01:38:18.209780  2908 net.cpp:150] Setting up bn_4b_proj
I1227 01:38:18.209805  2908 net.cpp:157] Top shape: 30 128 14 14 (752640)
I1227 01:38:18.209816  2908 net.cpp:165] Memory required for data: 2969165160
I1227 01:38:18.209834  2908 layer_factory.hpp:77] Creating layer scale_conv_4b_proj
I1227 01:38:18.209851  2908 net.cpp:100] Creating Layer scale_conv_4b_proj
I1227 01:38:18.209862  2908 net.cpp:434] scale_conv_4b_proj <- conv_4b_proj
I1227 01:38:18.209877  2908 net.cpp:395] scale_conv_4b_proj -> conv_4b_proj (in-place)
I1227 01:38:18.209939  2908 layer_factory.hpp:77] Creating layer scale_conv_4b_proj
I1227 01:38:18.210088  2908 net.cpp:150] Setting up scale_conv_4b_proj
I1227 01:38:18.210124  2908 net.cpp:157] Top shape: 30 128 14 14 (752640)
I1227 01:38:18.210137  2908 net.cpp:165] Memory required for data: 2972175720
I1227 01:38:18.210152  2908 layer_factory.hpp:77] Creating layer relu_4b_proj
I1227 01:38:18.210166  2908 net.cpp:100] Creating Layer relu_4b_proj
I1227 01:38:18.210178  2908 net.cpp:434] relu_4b_proj <- conv_4b_proj
I1227 01:38:18.210213  2908 net.cpp:395] relu_4b_proj -> conv_4b_proj (in-place)
I1227 01:38:18.210232  2908 net.cpp:150] Setting up relu_4b_proj
I1227 01:38:18.210245  2908 net.cpp:157] Top shape: 30 128 14 14 (752640)
I1227 01:38:18.210258  2908 net.cpp:165] Memory required for data: 2975186280
I1227 01:38:18.210269  2908 layer_factory.hpp:77] Creating layer ch_concat_4b_chconcat
I1227 01:38:18.210283  2908 net.cpp:100] Creating Layer ch_concat_4b_chconcat
I1227 01:38:18.210295  2908 net.cpp:434] ch_concat_4b_chconcat <- conv_4b_1x1
I1227 01:38:18.210309  2908 net.cpp:434] ch_concat_4b_chconcat <- conv_4b_3x3
I1227 01:38:18.210321  2908 net.cpp:434] ch_concat_4b_chconcat <- conv_4b_double_3x3_1
I1227 01:38:18.210335  2908 net.cpp:434] ch_concat_4b_chconcat <- conv_4b_proj
I1227 01:38:18.210352  2908 net.cpp:408] ch_concat_4b_chconcat -> ch_concat_4b_chconcat
I1227 01:38:18.210396  2908 net.cpp:150] Setting up ch_concat_4b_chconcat
I1227 01:38:18.210418  2908 net.cpp:157] Top shape: 30 576 14 14 (3386880)
I1227 01:38:18.210430  2908 net.cpp:165] Memory required for data: 2988733800
I1227 01:38:18.210441  2908 layer_factory.hpp:77] Creating layer ch_concat_4b_chconcat_ch_concat_4b_chconcat_0_split
I1227 01:38:18.210458  2908 net.cpp:100] Creating Layer ch_concat_4b_chconcat_ch_concat_4b_chconcat_0_split
I1227 01:38:18.210470  2908 net.cpp:434] ch_concat_4b_chconcat_ch_concat_4b_chconcat_0_split <- ch_concat_4b_chconcat
I1227 01:38:18.210501  2908 net.cpp:408] ch_concat_4b_chconcat_ch_concat_4b_chconcat_0_split -> ch_concat_4b_chconcat_ch_concat_4b_chconcat_0_split_0
I1227 01:38:18.210522  2908 net.cpp:408] ch_concat_4b_chconcat_ch_concat_4b_chconcat_0_split -> ch_concat_4b_chconcat_ch_concat_4b_chconcat_0_split_1
I1227 01:38:18.210541  2908 net.cpp:408] ch_concat_4b_chconcat_ch_concat_4b_chconcat_0_split -> ch_concat_4b_chconcat_ch_concat_4b_chconcat_0_split_2
I1227 01:38:18.210558  2908 net.cpp:408] ch_concat_4b_chconcat_ch_concat_4b_chconcat_0_split -> ch_concat_4b_chconcat_ch_concat_4b_chconcat_0_split_3
I1227 01:38:18.210638  2908 net.cpp:150] Setting up ch_concat_4b_chconcat_ch_concat_4b_chconcat_0_split
I1227 01:38:18.210676  2908 net.cpp:157] Top shape: 30 576 14 14 (3386880)
I1227 01:38:18.210691  2908 net.cpp:157] Top shape: 30 576 14 14 (3386880)
I1227 01:38:18.210706  2908 net.cpp:157] Top shape: 30 576 14 14 (3386880)
I1227 01:38:18.210719  2908 net.cpp:157] Top shape: 30 576 14 14 (3386880)
I1227 01:38:18.210729  2908 net.cpp:165] Memory required for data: 3042923880
I1227 01:38:18.210741  2908 layer_factory.hpp:77] Creating layer conv_4c_1x1
I1227 01:38:18.210762  2908 net.cpp:100] Creating Layer conv_4c_1x1
I1227 01:38:18.210777  2908 net.cpp:434] conv_4c_1x1 <- ch_concat_4b_chconcat_ch_concat_4b_chconcat_0_split_0
I1227 01:38:18.210791  2908 net.cpp:408] conv_4c_1x1 -> conv_4c_1x1
I1227 01:38:18.211773  2908 net.cpp:150] Setting up conv_4c_1x1
I1227 01:38:18.211809  2908 net.cpp:157] Top shape: 30 160 14 14 (940800)
I1227 01:38:18.211822  2908 net.cpp:165] Memory required for data: 3046687080
I1227 01:38:18.211840  2908 layer_factory.hpp:77] Creating layer bn_4c_1x1
I1227 01:38:18.211859  2908 net.cpp:100] Creating Layer bn_4c_1x1
I1227 01:38:18.211874  2908 net.cpp:434] bn_4c_1x1 <- conv_4c_1x1
I1227 01:38:18.211890  2908 net.cpp:395] bn_4c_1x1 -> conv_4c_1x1 (in-place)
I1227 01:38:18.212142  2908 net.cpp:150] Setting up bn_4c_1x1
I1227 01:38:18.212167  2908 net.cpp:157] Top shape: 30 160 14 14 (940800)
I1227 01:38:18.212178  2908 net.cpp:165] Memory required for data: 3050450280
I1227 01:38:18.212242  2908 layer_factory.hpp:77] Creating layer scale_conv_4c_1x1
I1227 01:38:18.212265  2908 net.cpp:100] Creating Layer scale_conv_4c_1x1
I1227 01:38:18.212278  2908 net.cpp:434] scale_conv_4c_1x1 <- conv_4c_1x1
I1227 01:38:18.212292  2908 net.cpp:395] scale_conv_4c_1x1 -> conv_4c_1x1 (in-place)
I1227 01:38:18.212360  2908 layer_factory.hpp:77] Creating layer scale_conv_4c_1x1
I1227 01:38:18.212527  2908 net.cpp:150] Setting up scale_conv_4c_1x1
I1227 01:38:18.212553  2908 net.cpp:157] Top shape: 30 160 14 14 (940800)
I1227 01:38:18.212564  2908 net.cpp:165] Memory required for data: 3054213480
I1227 01:38:18.212581  2908 layer_factory.hpp:77] Creating layer relu_4c_1x1
I1227 01:38:18.212596  2908 net.cpp:100] Creating Layer relu_4c_1x1
I1227 01:38:18.212610  2908 net.cpp:434] relu_4c_1x1 <- conv_4c_1x1
I1227 01:38:18.212625  2908 net.cpp:395] relu_4c_1x1 -> conv_4c_1x1 (in-place)
I1227 01:38:18.212643  2908 net.cpp:150] Setting up relu_4c_1x1
I1227 01:38:18.212657  2908 net.cpp:157] Top shape: 30 160 14 14 (940800)
I1227 01:38:18.212668  2908 net.cpp:165] Memory required for data: 3057976680
I1227 01:38:18.212679  2908 layer_factory.hpp:77] Creating layer conv_4c_3x3_reduce
I1227 01:38:18.212695  2908 net.cpp:100] Creating Layer conv_4c_3x3_reduce
I1227 01:38:18.212708  2908 net.cpp:434] conv_4c_3x3_reduce <- ch_concat_4b_chconcat_ch_concat_4b_chconcat_0_split_1
I1227 01:38:18.212728  2908 net.cpp:408] conv_4c_3x3_reduce -> conv_4c_3x3_reduce
I1227 01:38:18.213071  2908 net.cpp:150] Setting up conv_4c_3x3_reduce
I1227 01:38:18.213096  2908 net.cpp:157] Top shape: 30 128 14 14 (752640)
I1227 01:38:18.213109  2908 net.cpp:165] Memory required for data: 3060987240
I1227 01:38:18.213124  2908 layer_factory.hpp:77] Creating layer bn_4c_3x3_reduce
I1227 01:38:18.213141  2908 net.cpp:100] Creating Layer bn_4c_3x3_reduce
I1227 01:38:18.213155  2908 net.cpp:434] bn_4c_3x3_reduce <- conv_4c_3x3_reduce
I1227 01:38:18.213176  2908 net.cpp:395] bn_4c_3x3_reduce -> conv_4c_3x3_reduce (in-place)
I1227 01:38:18.213424  2908 net.cpp:150] Setting up bn_4c_3x3_reduce
I1227 01:38:18.213449  2908 net.cpp:157] Top shape: 30 128 14 14 (752640)
I1227 01:38:18.213460  2908 net.cpp:165] Memory required for data: 3063997800
I1227 01:38:18.213477  2908 layer_factory.hpp:77] Creating layer scale_conv_4c_3x3_reduce
I1227 01:38:18.213495  2908 net.cpp:100] Creating Layer scale_conv_4c_3x3_reduce
I1227 01:38:18.213506  2908 net.cpp:434] scale_conv_4c_3x3_reduce <- conv_4c_3x3_reduce
I1227 01:38:18.213521  2908 net.cpp:395] scale_conv_4c_3x3_reduce -> conv_4c_3x3_reduce (in-place)
I1227 01:38:18.213587  2908 layer_factory.hpp:77] Creating layer scale_conv_4c_3x3_reduce
I1227 01:38:18.213742  2908 net.cpp:150] Setting up scale_conv_4c_3x3_reduce
I1227 01:38:18.213767  2908 net.cpp:157] Top shape: 30 128 14 14 (752640)
I1227 01:38:18.213778  2908 net.cpp:165] Memory required for data: 3067008360
I1227 01:38:18.213793  2908 layer_factory.hpp:77] Creating layer relu_4c_3x3_reduce
I1227 01:38:18.213814  2908 net.cpp:100] Creating Layer relu_4c_3x3_reduce
I1227 01:38:18.213826  2908 net.cpp:434] relu_4c_3x3_reduce <- conv_4c_3x3_reduce
I1227 01:38:18.213840  2908 net.cpp:395] relu_4c_3x3_reduce -> conv_4c_3x3_reduce (in-place)
I1227 01:38:18.213858  2908 net.cpp:150] Setting up relu_4c_3x3_reduce
I1227 01:38:18.213872  2908 net.cpp:157] Top shape: 30 128 14 14 (752640)
I1227 01:38:18.213883  2908 net.cpp:165] Memory required for data: 3070018920
I1227 01:38:18.213903  2908 layer_factory.hpp:77] Creating layer conv_4c_3x3
I1227 01:38:18.213923  2908 net.cpp:100] Creating Layer conv_4c_3x3
I1227 01:38:18.213937  2908 net.cpp:434] conv_4c_3x3 <- conv_4c_3x3_reduce
I1227 01:38:18.213953  2908 net.cpp:408] conv_4c_3x3 -> conv_4c_3x3
I1227 01:38:18.215075  2908 net.cpp:150] Setting up conv_4c_3x3
I1227 01:38:18.215104  2908 net.cpp:157] Top shape: 30 160 14 14 (940800)
I1227 01:38:18.215117  2908 net.cpp:165] Memory required for data: 3073782120
I1227 01:38:18.215134  2908 layer_factory.hpp:77] Creating layer bn_4c_3x3
I1227 01:38:18.215152  2908 net.cpp:100] Creating Layer bn_4c_3x3
I1227 01:38:18.215167  2908 net.cpp:434] bn_4c_3x3 <- conv_4c_3x3
I1227 01:38:18.215188  2908 net.cpp:395] bn_4c_3x3 -> conv_4c_3x3 (in-place)
I1227 01:38:18.215451  2908 net.cpp:150] Setting up bn_4c_3x3
I1227 01:38:18.215476  2908 net.cpp:157] Top shape: 30 160 14 14 (940800)
I1227 01:38:18.215487  2908 net.cpp:165] Memory required for data: 3077545320
I1227 01:38:18.215505  2908 layer_factory.hpp:77] Creating layer scale_conv_4c_3x3
I1227 01:38:18.215522  2908 net.cpp:100] Creating Layer scale_conv_4c_3x3
I1227 01:38:18.215533  2908 net.cpp:434] scale_conv_4c_3x3 <- conv_4c_3x3
I1227 01:38:18.215548  2908 net.cpp:395] scale_conv_4c_3x3 -> conv_4c_3x3 (in-place)
I1227 01:38:18.215615  2908 layer_factory.hpp:77] Creating layer scale_conv_4c_3x3
I1227 01:38:18.215781  2908 net.cpp:150] Setting up scale_conv_4c_3x3
I1227 01:38:18.215806  2908 net.cpp:157] Top shape: 30 160 14 14 (940800)
I1227 01:38:18.215817  2908 net.cpp:165] Memory required for data: 3081308520
I1227 01:38:18.215833  2908 layer_factory.hpp:77] Creating layer relu_4c_3x3
I1227 01:38:18.215850  2908 net.cpp:100] Creating Layer relu_4c_3x3
I1227 01:38:18.215862  2908 net.cpp:434] relu_4c_3x3 <- conv_4c_3x3
I1227 01:38:18.215879  2908 net.cpp:395] relu_4c_3x3 -> conv_4c_3x3 (in-place)
I1227 01:38:18.215896  2908 net.cpp:150] Setting up relu_4c_3x3
I1227 01:38:18.215912  2908 net.cpp:157] Top shape: 30 160 14 14 (940800)
I1227 01:38:18.215924  2908 net.cpp:165] Memory required for data: 3085071720
I1227 01:38:18.215934  2908 layer_factory.hpp:77] Creating layer conv_4c_double_3x3_reduce
I1227 01:38:18.215950  2908 net.cpp:100] Creating Layer conv_4c_double_3x3_reduce
I1227 01:38:18.215966  2908 net.cpp:434] conv_4c_double_3x3_reduce <- ch_concat_4b_chconcat_ch_concat_4b_chconcat_0_split_2
I1227 01:38:18.215983  2908 net.cpp:408] conv_4c_double_3x3_reduce -> conv_4c_double_3x3_reduce
I1227 01:38:18.216346  2908 net.cpp:150] Setting up conv_4c_double_3x3_reduce
I1227 01:38:18.216372  2908 net.cpp:157] Top shape: 30 128 14 14 (752640)
I1227 01:38:18.216385  2908 net.cpp:165] Memory required for data: 3088082280
I1227 01:38:18.216400  2908 layer_factory.hpp:77] Creating layer bn_4c_double_3x3_reduce
I1227 01:38:18.216416  2908 net.cpp:100] Creating Layer bn_4c_double_3x3_reduce
I1227 01:38:18.216434  2908 net.cpp:434] bn_4c_double_3x3_reduce <- conv_4c_double_3x3_reduce
I1227 01:38:18.216449  2908 net.cpp:395] bn_4c_double_3x3_reduce -> conv_4c_double_3x3_reduce (in-place)
I1227 01:38:18.216701  2908 net.cpp:150] Setting up bn_4c_double_3x3_reduce
I1227 01:38:18.216723  2908 net.cpp:157] Top shape: 30 128 14 14 (752640)
I1227 01:38:18.216737  2908 net.cpp:165] Memory required for data: 3091092840
I1227 01:38:18.216756  2908 layer_factory.hpp:77] Creating layer scale_conv_4c_double_3x3_reduce
I1227 01:38:18.216776  2908 net.cpp:100] Creating Layer scale_conv_4c_double_3x3_reduce
I1227 01:38:18.216791  2908 net.cpp:434] scale_conv_4c_double_3x3_reduce <- conv_4c_double_3x3_reduce
I1227 01:38:18.216805  2908 net.cpp:395] scale_conv_4c_double_3x3_reduce -> conv_4c_double_3x3_reduce (in-place)
I1227 01:38:18.216883  2908 layer_factory.hpp:77] Creating layer scale_conv_4c_double_3x3_reduce
I1227 01:38:18.217061  2908 net.cpp:150] Setting up scale_conv_4c_double_3x3_reduce
I1227 01:38:18.217084  2908 net.cpp:157] Top shape: 30 128 14 14 (752640)
I1227 01:38:18.217097  2908 net.cpp:165] Memory required for data: 3094103400
I1227 01:38:18.217120  2908 layer_factory.hpp:77] Creating layer relu_4c_double_3x3_reduce
I1227 01:38:18.217140  2908 net.cpp:100] Creating Layer relu_4c_double_3x3_reduce
I1227 01:38:18.217154  2908 net.cpp:434] relu_4c_double_3x3_reduce <- conv_4c_double_3x3_reduce
I1227 01:38:18.217167  2908 net.cpp:395] relu_4c_double_3x3_reduce -> conv_4c_double_3x3_reduce (in-place)
I1227 01:38:18.217190  2908 net.cpp:150] Setting up relu_4c_double_3x3_reduce
I1227 01:38:18.217206  2908 net.cpp:157] Top shape: 30 128 14 14 (752640)
I1227 01:38:18.217217  2908 net.cpp:165] Memory required for data: 3097113960
I1227 01:38:18.217229  2908 layer_factory.hpp:77] Creating layer conv_4c_double_3x3_0
I1227 01:38:18.217248  2908 net.cpp:100] Creating Layer conv_4c_double_3x3_0
I1227 01:38:18.217262  2908 net.cpp:434] conv_4c_double_3x3_0 <- conv_4c_double_3x3_reduce
I1227 01:38:18.217283  2908 net.cpp:408] conv_4c_double_3x3_0 -> conv_4c_double_3x3_0
I1227 01:38:18.220239  2908 net.cpp:150] Setting up conv_4c_double_3x3_0
I1227 01:38:18.220273  2908 net.cpp:157] Top shape: 30 160 14 14 (940800)
I1227 01:38:18.220284  2908 net.cpp:165] Memory required for data: 3100877160
I1227 01:38:18.220302  2908 layer_factory.hpp:77] Creating layer bn_4c_double_3x3_0
I1227 01:38:18.220327  2908 net.cpp:100] Creating Layer bn_4c_double_3x3_0
I1227 01:38:18.220341  2908 net.cpp:434] bn_4c_double_3x3_0 <- conv_4c_double_3x3_0
I1227 01:38:18.220362  2908 net.cpp:395] bn_4c_double_3x3_0 -> conv_4c_double_3x3_0 (in-place)
I1227 01:38:18.220669  2908 net.cpp:150] Setting up bn_4c_double_3x3_0
I1227 01:38:18.220710  2908 net.cpp:157] Top shape: 30 160 14 14 (940800)
I1227 01:38:18.220736  2908 net.cpp:165] Memory required for data: 3104640360
I1227 01:38:18.220753  2908 layer_factory.hpp:77] Creating layer scale_conv_4c_double_3x3_0
I1227 01:38:18.220767  2908 net.cpp:100] Creating Layer scale_conv_4c_double_3x3_0
I1227 01:38:18.220775  2908 net.cpp:434] scale_conv_4c_double_3x3_0 <- conv_4c_double_3x3_0
I1227 01:38:18.220785  2908 net.cpp:395] scale_conv_4c_double_3x3_0 -> conv_4c_double_3x3_0 (in-place)
I1227 01:38:18.220880  2908 layer_factory.hpp:77] Creating layer scale_conv_4c_double_3x3_0
I1227 01:38:18.221082  2908 net.cpp:150] Setting up scale_conv_4c_double_3x3_0
I1227 01:38:18.221098  2908 net.cpp:157] Top shape: 30 160 14 14 (940800)
I1227 01:38:18.221105  2908 net.cpp:165] Memory required for data: 3108403560
I1227 01:38:18.221117  2908 layer_factory.hpp:77] Creating layer relu_4c_double_3x3_0
I1227 01:38:18.221129  2908 net.cpp:100] Creating Layer relu_4c_double_3x3_0
I1227 01:38:18.221138  2908 net.cpp:434] relu_4c_double_3x3_0 <- conv_4c_double_3x3_0
I1227 01:38:18.221146  2908 net.cpp:395] relu_4c_double_3x3_0 -> conv_4c_double_3x3_0 (in-place)
I1227 01:38:18.221158  2908 net.cpp:150] Setting up relu_4c_double_3x3_0
I1227 01:38:18.221168  2908 net.cpp:157] Top shape: 30 160 14 14 (940800)
I1227 01:38:18.221174  2908 net.cpp:165] Memory required for data: 3112166760
I1227 01:38:18.221194  2908 layer_factory.hpp:77] Creating layer conv_4c_double_3x3_1
I1227 01:38:18.221212  2908 net.cpp:100] Creating Layer conv_4c_double_3x3_1
I1227 01:38:18.221220  2908 net.cpp:434] conv_4c_double_3x3_1 <- conv_4c_double_3x3_0
I1227 01:38:18.221231  2908 net.cpp:408] conv_4c_double_3x3_1 -> conv_4c_double_3x3_1
I1227 01:38:18.222476  2908 net.cpp:150] Setting up conv_4c_double_3x3_1
I1227 01:38:18.222502  2908 net.cpp:157] Top shape: 30 160 14 14 (940800)
I1227 01:38:18.222513  2908 net.cpp:165] Memory required for data: 3115929960
I1227 01:38:18.222532  2908 layer_factory.hpp:77] Creating layer bn_4c_double_3x3_1
I1227 01:38:18.222548  2908 net.cpp:100] Creating Layer bn_4c_double_3x3_1
I1227 01:38:18.222560  2908 net.cpp:434] bn_4c_double_3x3_1 <- conv_4c_double_3x3_1
I1227 01:38:18.222579  2908 net.cpp:395] bn_4c_double_3x3_1 -> conv_4c_double_3x3_1 (in-place)
I1227 01:38:18.222872  2908 net.cpp:150] Setting up bn_4c_double_3x3_1
I1227 01:38:18.222888  2908 net.cpp:157] Top shape: 30 160 14 14 (940800)
I1227 01:38:18.222895  2908 net.cpp:165] Memory required for data: 3119693160
I1227 01:38:18.222918  2908 layer_factory.hpp:77] Creating layer scale_conv_4c_double_3x3_1
I1227 01:38:18.222929  2908 net.cpp:100] Creating Layer scale_conv_4c_double_3x3_1
I1227 01:38:18.222937  2908 net.cpp:434] scale_conv_4c_double_3x3_1 <- conv_4c_double_3x3_1
I1227 01:38:18.222951  2908 net.cpp:395] scale_conv_4c_double_3x3_1 -> conv_4c_double_3x3_1 (in-place)
I1227 01:38:18.223018  2908 layer_factory.hpp:77] Creating layer scale_conv_4c_double_3x3_1
I1227 01:38:18.223173  2908 net.cpp:150] Setting up scale_conv_4c_double_3x3_1
I1227 01:38:18.223201  2908 net.cpp:157] Top shape: 30 160 14 14 (940800)
I1227 01:38:18.223208  2908 net.cpp:165] Memory required for data: 3123456360
I1227 01:38:18.223219  2908 layer_factory.hpp:77] Creating layer relu_4c_double_3x3_1
I1227 01:38:18.223230  2908 net.cpp:100] Creating Layer relu_4c_double_3x3_1
I1227 01:38:18.223237  2908 net.cpp:434] relu_4c_double_3x3_1 <- conv_4c_double_3x3_1
I1227 01:38:18.223249  2908 net.cpp:395] relu_4c_double_3x3_1 -> conv_4c_double_3x3_1 (in-place)
I1227 01:38:18.223261  2908 net.cpp:150] Setting up relu_4c_double_3x3_1
I1227 01:38:18.223270  2908 net.cpp:157] Top shape: 30 160 14 14 (940800)
I1227 01:38:18.223278  2908 net.cpp:165] Memory required for data: 3127219560
I1227 01:38:18.223284  2908 layer_factory.hpp:77] Creating layer ave_pool_4c_pool
I1227 01:38:18.223297  2908 net.cpp:100] Creating Layer ave_pool_4c_pool
I1227 01:38:18.223305  2908 net.cpp:434] ave_pool_4c_pool <- ch_concat_4b_chconcat_ch_concat_4b_chconcat_0_split_3
I1227 01:38:18.223317  2908 net.cpp:408] ave_pool_4c_pool -> ave_pool_4c_pool
I1227 01:38:18.223361  2908 net.cpp:150] Setting up ave_pool_4c_pool
I1227 01:38:18.223373  2908 net.cpp:157] Top shape: 30 576 14 14 (3386880)
I1227 01:38:18.223379  2908 net.cpp:165] Memory required for data: 3140767080
I1227 01:38:18.223387  2908 layer_factory.hpp:77] Creating layer conv_4c_proj
I1227 01:38:18.223398  2908 net.cpp:100] Creating Layer conv_4c_proj
I1227 01:38:18.223407  2908 net.cpp:434] conv_4c_proj <- ave_pool_4c_pool
I1227 01:38:18.223417  2908 net.cpp:408] conv_4c_proj -> conv_4c_proj
I1227 01:38:18.223779  2908 net.cpp:150] Setting up conv_4c_proj
I1227 01:38:18.223794  2908 net.cpp:157] Top shape: 30 128 14 14 (752640)
I1227 01:38:18.223801  2908 net.cpp:165] Memory required for data: 3143777640
I1227 01:38:18.223812  2908 layer_factory.hpp:77] Creating layer bn_4c_proj
I1227 01:38:18.223825  2908 net.cpp:100] Creating Layer bn_4c_proj
I1227 01:38:18.223834  2908 net.cpp:434] bn_4c_proj <- conv_4c_proj
I1227 01:38:18.223842  2908 net.cpp:395] bn_4c_proj -> conv_4c_proj (in-place)
I1227 01:38:18.224155  2908 net.cpp:150] Setting up bn_4c_proj
I1227 01:38:18.224195  2908 net.cpp:157] Top shape: 30 128 14 14 (752640)
I1227 01:38:18.224205  2908 net.cpp:165] Memory required for data: 3146788200
I1227 01:38:18.224220  2908 layer_factory.hpp:77] Creating layer scale_conv_4c_proj
I1227 01:38:18.224236  2908 net.cpp:100] Creating Layer scale_conv_4c_proj
I1227 01:38:18.224243  2908 net.cpp:434] scale_conv_4c_proj <- conv_4c_proj
I1227 01:38:18.224253  2908 net.cpp:395] scale_conv_4c_proj -> conv_4c_proj (in-place)
I1227 01:38:18.224316  2908 layer_factory.hpp:77] Creating layer scale_conv_4c_proj
I1227 01:38:18.224463  2908 net.cpp:150] Setting up scale_conv_4c_proj
I1227 01:38:18.224478  2908 net.cpp:157] Top shape: 30 128 14 14 (752640)
I1227 01:38:18.224483  2908 net.cpp:165] Memory required for data: 3149798760
I1227 01:38:18.224494  2908 layer_factory.hpp:77] Creating layer relu_4c_proj
I1227 01:38:18.224509  2908 net.cpp:100] Creating Layer relu_4c_proj
I1227 01:38:18.224516  2908 net.cpp:434] relu_4c_proj <- conv_4c_proj
I1227 01:38:18.224525  2908 net.cpp:395] relu_4c_proj -> conv_4c_proj (in-place)
I1227 01:38:18.224536  2908 net.cpp:150] Setting up relu_4c_proj
I1227 01:38:18.224545  2908 net.cpp:157] Top shape: 30 128 14 14 (752640)
I1227 01:38:18.224551  2908 net.cpp:165] Memory required for data: 3152809320
I1227 01:38:18.224557  2908 layer_factory.hpp:77] Creating layer ch_concat_4c_chconcat
I1227 01:38:18.224580  2908 net.cpp:100] Creating Layer ch_concat_4c_chconcat
I1227 01:38:18.224591  2908 net.cpp:434] ch_concat_4c_chconcat <- conv_4c_1x1
I1227 01:38:18.224599  2908 net.cpp:434] ch_concat_4c_chconcat <- conv_4c_3x3
I1227 01:38:18.224607  2908 net.cpp:434] ch_concat_4c_chconcat <- conv_4c_double_3x3_1
I1227 01:38:18.224616  2908 net.cpp:434] ch_concat_4c_chconcat <- conv_4c_proj
I1227 01:38:18.224625  2908 net.cpp:408] ch_concat_4c_chconcat -> ch_concat_4c_chconcat
I1227 01:38:18.224666  2908 net.cpp:150] Setting up ch_concat_4c_chconcat
I1227 01:38:18.224679  2908 net.cpp:157] Top shape: 30 608 14 14 (3575040)
I1227 01:38:18.224686  2908 net.cpp:165] Memory required for data: 3167109480
I1227 01:38:18.224692  2908 layer_factory.hpp:77] Creating layer ch_concat_4c_chconcat_ch_concat_4c_chconcat_0_split
I1227 01:38:18.224704  2908 net.cpp:100] Creating Layer ch_concat_4c_chconcat_ch_concat_4c_chconcat_0_split
I1227 01:38:18.224711  2908 net.cpp:434] ch_concat_4c_chconcat_ch_concat_4c_chconcat_0_split <- ch_concat_4c_chconcat
I1227 01:38:18.224721  2908 net.cpp:408] ch_concat_4c_chconcat_ch_concat_4c_chconcat_0_split -> ch_concat_4c_chconcat_ch_concat_4c_chconcat_0_split_0
I1227 01:38:18.224735  2908 net.cpp:408] ch_concat_4c_chconcat_ch_concat_4c_chconcat_0_split -> ch_concat_4c_chconcat_ch_concat_4c_chconcat_0_split_1
I1227 01:38:18.224746  2908 net.cpp:408] ch_concat_4c_chconcat_ch_concat_4c_chconcat_0_split -> ch_concat_4c_chconcat_ch_concat_4c_chconcat_0_split_2
I1227 01:38:18.224762  2908 net.cpp:408] ch_concat_4c_chconcat_ch_concat_4c_chconcat_0_split -> ch_concat_4c_chconcat_ch_concat_4c_chconcat_0_split_3
I1227 01:38:18.224841  2908 net.cpp:150] Setting up ch_concat_4c_chconcat_ch_concat_4c_chconcat_0_split
I1227 01:38:18.224855  2908 net.cpp:157] Top shape: 30 608 14 14 (3575040)
I1227 01:38:18.224864  2908 net.cpp:157] Top shape: 30 608 14 14 (3575040)
I1227 01:38:18.224871  2908 net.cpp:157] Top shape: 30 608 14 14 (3575040)
I1227 01:38:18.224879  2908 net.cpp:157] Top shape: 30 608 14 14 (3575040)
I1227 01:38:18.224885  2908 net.cpp:165] Memory required for data: 3224310120
I1227 01:38:18.224891  2908 layer_factory.hpp:77] Creating layer conv_4d_1x1
I1227 01:38:18.224906  2908 net.cpp:100] Creating Layer conv_4d_1x1
I1227 01:38:18.224915  2908 net.cpp:434] conv_4d_1x1 <- ch_concat_4c_chconcat_ch_concat_4c_chconcat_0_split_0
I1227 01:38:18.224927  2908 net.cpp:408] conv_4d_1x1 -> conv_4d_1x1
I1227 01:38:18.225291  2908 net.cpp:150] Setting up conv_4d_1x1
I1227 01:38:18.225307  2908 net.cpp:157] Top shape: 30 96 14 14 (564480)
I1227 01:38:18.225313  2908 net.cpp:165] Memory required for data: 3226568040
I1227 01:38:18.225324  2908 layer_factory.hpp:77] Creating layer bn_4d_1x1
I1227 01:38:18.225337  2908 net.cpp:100] Creating Layer bn_4d_1x1
I1227 01:38:18.225345  2908 net.cpp:434] bn_4d_1x1 <- conv_4d_1x1
I1227 01:38:18.225358  2908 net.cpp:395] bn_4d_1x1 -> conv_4d_1x1 (in-place)
I1227 01:38:18.225600  2908 net.cpp:150] Setting up bn_4d_1x1
I1227 01:38:18.225616  2908 net.cpp:157] Top shape: 30 96 14 14 (564480)
…
I1227 01:38:18.238893  2908 net.cpp:165] Memory required for data: 3384246120
I1227 01:38:18.238909  2908 layer_factory.hpp:77] Creating layer bn_4e_3x3
I1227 01:38:18.238929  2908 net.cpp:100] Creating Layer bn_4e_3x3
I1227 01:38:18.238941  2908 net.cpp:434] bn_4e_3x3 <- conv_4e_3x3
I1227 01:38:18.238955  2908 net.cpp:395] bn_4e_3x3 -> conv_4e_3x3 (in-place)
I1227 01:38:18.239212  2908 net.cpp:150] Setting up bn_4e_3x3
I1227 01:38:18.239234  2908 net.cpp:157] Top shape: 30 192 7 7 (282240)
I1227 01:38:18.239248  2908 net.cpp:165] Memory required for data: 3385375080
I1227 01:38:18.239265  2908 layer_factory.hpp:77] Creating layer scale_conv_4e_3x3
I1227 01:38:18.239280  2908 net.cpp:100] Creating Layer scale_conv_4e_3x3
I1227 01:38:18.239292  2908 net.cpp:434] scale_conv_4e_3x3 <- conv_4e_3x3
I1227 01:38:18.239305  2908 net.cpp:395] scale_conv_4e_3x3 -> conv_4e_3x3 (in-place)
I1227 01:38:18.239375  2908 layer_factory.hpp:77] Creating layer scale_conv_4e_3x3
I1227 01:38:18.239521  2908 net.cpp:150] Setting up scale_conv_4e_3x3
I1227 01:38:18.239543  2908 net.cpp:157] Top shape: 30 192 7 7 (282240)
I1227 01:38:18.239554  2908 net.cpp:165] Memory required for data: 3386504040
I1227 01:38:18.239569  2908 layer_factory.hpp:77] Creating layer relu_4e_3x3
I1227 01:38:18.239584  2908 net.cpp:100] Creating Layer relu_4e_3x3
I1227 01:38:18.239596  2908 net.cpp:434] relu_4e_3x3 <- conv_4e_3x3
I1227 01:38:18.239609  2908 net.cpp:395] relu_4e_3x3 -> conv_4e_3x3 (in-place)
I1227 01:38:18.239624  2908 net.cpp:150] Setting up relu_4e_3x3
I1227 01:38:18.239639  2908 net.cpp:157] Top shape: 30 192 7 7 (282240)
I1227 01:38:18.239650  2908 net.cpp:165] Memory required for data: 3387633000
I1227 01:38:18.239660  2908 layer_factory.hpp:77] Creating layer conv_4e_double_3x3_reduce
I1227 01:38:18.239678  2908 net.cpp:100] Creating Layer conv_4e_double_3x3_reduce
I1227 01:38:18.239691  2908 net.cpp:434] conv_4e_double_3x3_reduce <- ch_concat_4d_chconcat_ch_concat_4d_chconcat_0_split_1
I1227 01:38:18.239709  2908 net.cpp:408] conv_4e_double_3x3_reduce -> conv_4e_double_3x3_reduce
I1227 01:38:18.240068  2908 net.cpp:150] Setting up conv_4e_double_3x3_reduce
I1227 01:38:18.240093  2908 net.cpp:157] Top shape: 30 192 14 14 (1128960)
I1227 01:38:18.240106  2908 net.cpp:165] Memory required for data: 3392148840
I1227 01:38:18.240123  2908 layer_factory.hpp:77] Creating layer bn_4e_double_3x3_reduce
I1227 01:38:18.240142  2908 net.cpp:100] Creating Layer bn_4e_double_3x3_reduce
I1227 01:38:18.240155  2908 net.cpp:434] bn_4e_double_3x3_reduce <- conv_4e_double_3x3_reduce
I1227 01:38:18.240170  2908 net.cpp:395] bn_4e_double_3x3_reduce -> conv_4e_double_3x3_reduce (in-place)
I1227 01:38:18.240408  2908 net.cpp:150] Setting up bn_4e_double_3x3_reduce
I1227 01:38:18.240432  2908 net.cpp:157] Top shape: 30 192 14 14 (1128960)
I1227 01:38:18.240445  2908 net.cpp:165] Memory required for data: 3396664680
I1227 01:38:18.240463  2908 layer_factory.hpp:77] Creating layer scale_conv_4e_double_3x3_reduce
I1227 01:38:18.240479  2908 net.cpp:100] Creating Layer scale_conv_4e_double_3x3_reduce
I1227 01:38:18.240494  2908 net.cpp:434] scale_conv_4e_double_3x3_reduce <- conv_4e_double_3x3_reduce
I1227 01:38:18.240507  2908 net.cpp:395] scale_conv_4e_double_3x3_reduce -> conv_4e_double_3x3_reduce (in-place)
I1227 01:38:18.240571  2908 layer_factory.hpp:77] Creating layer scale_conv_4e_double_3x3_reduce
I1227 01:38:18.240732  2908 net.cpp:150] Setting up scale_conv_4e_double_3x3_reduce
I1227 01:38:18.240754  2908 net.cpp:157] Top shape: 30 192 14 14 (1128960)
I1227 01:38:18.240767  2908 net.cpp:165] Memory required for data: 3401180520
I1227 01:38:18.240782  2908 layer_factory.hpp:77] Creating layer relu_4e_double_3x3_reduce
I1227 01:38:18.240797  2908 net.cpp:100] Creating Layer relu_4e_double_3x3_reduce
I1227 01:38:18.240808  2908 net.cpp:434] relu_4e_double_3x3_reduce <- conv_4e_double_3x3_reduce
I1227 01:38:18.240825  2908 net.cpp:395] relu_4e_double_3x3_reduce -> conv_4e_double_3x3_reduce (in-place)
I1227 01:38:18.240842  2908 net.cpp:150] Setting up relu_4e_double_3x3_reduce
I1227 01:38:18.240855  2908 net.cpp:157] Top shape: 30 192 14 14 (1128960)
I1227 01:38:18.240866  2908 net.cpp:165] Memory required for data: 3405696360
I1227 01:38:18.240878  2908 layer_factory.hpp:77] Creating layer conv_4e_double_3x3_0
I1227 01:38:18.240895  2908 net.cpp:100] Creating Layer conv_4e_double_3x3_0
I1227 01:38:18.240906  2908 net.cpp:434] conv_4e_double_3x3_0 <- conv_4e_double_3x3_reduce
I1227 01:38:18.240923  2908 net.cpp:408] conv_4e_double_3x3_0 -> conv_4e_double_3x3_0
I1227 01:38:18.242455  2908 net.cpp:150] Setting up conv_4e_double_3x3_0
I1227 01:38:18.242486  2908 net.cpp:157] Top shape: 30 256 14 14 (1505280)
I1227 01:38:18.242498  2908 net.cpp:165] Memory required for data: 3411717480
I1227 01:38:18.242516  2908 layer_factory.hpp:77] Creating layer bn_4e_double_3x3_0
I1227 01:38:18.242530  2908 net.cpp:100] Creating Layer bn_4e_double_3x3_0
I1227 01:38:18.242552  2908 net.cpp:434] bn_4e_double_3x3_0 <- conv_4e_double_3x3_0
I1227 01:38:18.242571  2908 net.cpp:395] bn_4e_double_3x3_0 -> conv_4e_double_3x3_0 (in-place)
I1227 01:38:18.242786  2908 net.cpp:150] Setting up bn_4e_double_3x3_0
I1227 01:38:18.242810  2908 net.cpp:157] Top shape: 30 256 14 14 (1505280)
I1227 01:38:18.242823  2908 net.cpp:165] Memory required for data: 3417738600
I1227 01:38:18.242841  2908 layer_factory.hpp:77] Creating layer scale_conv_4e_double_3x3_0
I1227 01:38:18.242857  2908 net.cpp:100] Creating Layer scale_conv_4e_double_3x3_0
I1227 01:38:18.242871  2908 net.cpp:434] scale_conv_4e_double_3x3_0 <- conv_4e_double_3x3_0
I1227 01:38:18.242883  2908 net.cpp:395] scale_conv_4e_double_3x3_0 -> conv_4e_double_3x3_0 (in-place)
I1227 01:38:18.242945  2908 layer_factory.hpp:77] Creating layer scale_conv_4e_double_3x3_0
I1227 01:38:18.243082  2908 net.cpp:150] Setting up scale_conv_4e_double_3x3_0
I1227 01:38:18.243104  2908 net.cpp:157] Top shape: 30 256 14 14 (1505280)
I1227 01:38:18.243129  2908 net.cpp:165] Memory required for data: 3423759720
I1227 01:38:18.243146  2908 layer_factory.hpp:77] Creating layer relu_4e_double_3x3_0
I1227 01:38:18.243165  2908 net.cpp:100] Creating Layer relu_4e_double_3x3_0
I1227 01:38:18.243177  2908 net.cpp:434] relu_4e_double_3x3_0 <- conv_4e_double_3x3_0
I1227 01:38:18.243199  2908 net.cpp:395] relu_4e_double_3x3_0 -> conv_4e_double_3x3_0 (in-place)
I1227 01:38:18.243217  2908 net.cpp:150] Setting up relu_4e_double_3x3_0
I1227 01:38:18.243232  2908 net.cpp:157] Top shape: 30 256 14 14 (1505280)
I1227 01:38:18.243242  2908 net.cpp:165] Memory required for data: 3429780840
I1227 01:38:18.243253  2908 layer_factory.hpp:77] Creating layer conv_4e_double_3x3_1
I1227 01:38:18.243273  2908 net.cpp:100] Creating Layer conv_4e_double_3x3_1
I1227 01:38:18.243286  2908 net.cpp:434] conv_4e_double_3x3_1 <- conv_4e_double_3x3_0
I1227 01:38:18.243301  2908 net.cpp:408] conv_4e_double_3x3_1 -> conv_4e_double_3x3_1
I1227 01:38:18.245190  2908 net.cpp:150] Setting up conv_4e_double_3x3_1
I1227 01:38:18.245218  2908 net.cpp:157] Top shape: 30 256 7 7 (376320)
I1227 01:38:18.245230  2908 net.cpp:165] Memory required for data: 3431286120
I1227 01:38:18.245246  2908 layer_factory.hpp:77] Creating layer bn_4e_double_3x3_1
I1227 01:38:18.245266  2908 net.cpp:100] Creating Layer bn_4e_double_3x3_1
I1227 01:38:18.245280  2908 net.cpp:434] bn_4e_double_3x3_1 <- conv_4e_double_3x3_1
I1227 01:38:18.245295  2908 net.cpp:395] bn_4e_double_3x3_1 -> conv_4e_double_3x3_1 (in-place)
I1227 01:38:18.245522  2908 net.cpp:150] Setting up bn_4e_double_3x3_1
I1227 01:38:18.245546  2908 net.cpp:157] Top shape: 30 256 7 7 (376320)
I1227 01:38:18.245559  2908 net.cpp:165] Memory required for data: 3432791400
I1227 01:38:18.245578  2908 layer_factory.hpp:77] Creating layer scale_conv_4e_double_3x3_1
I1227 01:38:18.245594  2908 net.cpp:100] Creating Layer scale_conv_4e_double_3x3_1
I1227 01:38:18.245606  2908 net.cpp:434] scale_conv_4e_double_3x3_1 <- conv_4e_double_3x3_1
I1227 01:38:18.245622  2908 net.cpp:395] scale_conv_4e_double_3x3_1 -> conv_4e_double_3x3_1 (in-place)
I1227 01:38:18.245687  2908 layer_factory.hpp:77] Creating layer scale_conv_4e_double_3x3_1
I1227 01:38:18.245831  2908 net.cpp:150] Setting up scale_conv_4e_double_3x3_1
I1227 01:38:18.245851  2908 net.cpp:157] Top shape: 30 256 7 7 (376320)
I1227 01:38:18.245862  2908 net.cpp:165] Memory required for data: 3434296680
I1227 01:38:18.245878  2908 layer_factory.hpp:77] Creating layer relu_4e_double_3x3_1
I1227 01:38:18.245896  2908 net.cpp:100] Creating Layer relu_4e_double_3x3_1
I1227 01:38:18.245909  2908 net.cpp:434] relu_4e_double_3x3_1 <- conv_4e_double_3x3_1
I1227 01:38:18.245925  2908 net.cpp:395] relu_4e_double_3x3_1 -> conv_4e_double_3x3_1 (in-place)
I1227 01:38:18.245942  2908 net.cpp:150] Setting up relu_4e_double_3x3_1
I1227 01:38:18.245956  2908 net.cpp:157] Top shape: 30 256 7 7 (376320)
I1227 01:38:18.245967  2908 net.cpp:165] Memory required for data: 3435801960
I1227 01:38:18.245978  2908 layer_factory.hpp:77] Creating layer max_pool_4e_pool
I1227 01:38:18.246002  2908 net.cpp:100] Creating Layer max_pool_4e_pool
I1227 01:38:18.246016  2908 net.cpp:434] max_pool_4e_pool <- ch_concat_4d_chconcat_ch_concat_4d_chconcat_0_split_2
I1227 01:38:18.246031  2908 net.cpp:408] max_pool_4e_pool -> max_pool_4e_pool
I1227 01:38:18.246104  2908 net.cpp:150] Setting up max_pool_4e_pool
I1227 01:38:18.246122  2908 net.cpp:157] Top shape: 30 512 7 7 (752640)
I1227 01:38:18.246134  2908 net.cpp:165] Memory required for data: 3438812520
I1227 01:38:18.246145  2908 layer_factory.hpp:77] Creating layer ch_concat_4e_chconcat
I1227 01:38:18.246158  2908 net.cpp:100] Creating Layer ch_concat_4e_chconcat
I1227 01:38:18.246170  2908 net.cpp:434] ch_concat_4e_chconcat <- conv_4e_3x3
I1227 01:38:18.246188  2908 net.cpp:434] ch_concat_4e_chconcat <- conv_4e_double_3x3_1
I1227 01:38:18.246203  2908 net.cpp:434] ch_concat_4e_chconcat <- max_pool_4e_pool
I1227 01:38:18.246223  2908 net.cpp:408] ch_concat_4e_chconcat -> ch_concat_4e_chconcat
I1227 01:38:18.246263  2908 net.cpp:150] Setting up ch_concat_4e_chconcat
I1227 01:38:18.246281  2908 net.cpp:157] Top shape: 30 960 7 7 (1411200)
I1227 01:38:18.246292  2908 net.cpp:165] Memory required for data: 3444457320
I1227 01:38:18.246304  2908 layer_factory.hpp:77] Creating layer ch_concat_4e_chconcat_ch_concat_4e_chconcat_0_split
I1227 01:38:18.246333  2908 net.cpp:100] Creating Layer ch_concat_4e_chconcat_ch_concat_4e_chconcat_0_split
I1227 01:38:18.246345  2908 net.cpp:434] ch_concat_4e_chconcat_ch_concat_4e_chconcat_0_split <- ch_concat_4e_chconcat
I1227 01:38:18.246364  2908 net.cpp:408] ch_concat_4e_chconcat_ch_concat_4e_chconcat_0_split -> ch_concat_4e_chconcat_ch_concat_4e_chconcat_0_split_0
I1227 01:38:18.246384  2908 net.cpp:408] ch_concat_4e_chconcat_ch_concat_4e_chconcat_0_split -> ch_concat_4e_chconcat_ch_concat_4e_chconcat_0_split_1
I1227 01:38:18.246402  2908 net.cpp:408] ch_concat_4e_chconcat_ch_concat_4e_chconcat_0_split -> ch_concat_4e_chconcat_ch_concat_4e_chconcat_0_split_2
I1227 01:38:18.246420  2908 net.cpp:408] ch_concat_4e_chconcat_ch_concat_4e_chconcat_0_split -> ch_concat_4e_chconcat_ch_concat_4e_chconcat_0_split_3
I1227 01:38:18.246500  2908 net.cpp:150] Setting up ch_concat_4e_chconcat_ch_concat_4e_chconcat_0_split
I1227 01:38:18.246518  2908 net.cpp:157] Top shape: 30 960 7 7 (1411200)
I1227 01:38:18.246531  2908 net.cpp:157] Top shape: 30 960 7 7 (1411200)
I1227 01:38:18.246544  2908 net.cpp:157] Top shape: 30 960 7 7 (1411200)
I1227 01:38:18.246557  2908 net.cpp:157] Top shape: 30 960 7 7 (1411200)
I1227 01:38:18.246568  2908 net.cpp:165] Memory required for data: 3467036520
I1227 01:38:18.246579  2908 layer_factory.hpp:77] Creating layer conv_5a_1x1
I1227 01:38:18.246600  2908 net.cpp:100] Creating Layer conv_5a_1x1
I1227 01:38:18.246614  2908 net.cpp:434] conv_5a_1x1 <- ch_concat_4e_chconcat_ch_concat_4e_chconcat_0_split_0
I1227 01:38:18.246646  2908 net.cpp:408] conv_5a_1x1 -> conv_5a_1x1
I1227 01:38:18.247944  2908 net.cpp:150] Setting up conv_5a_1x1
I1227 01:38:18.247972  2908 net.cpp:157] Top shape: 30 352 7 7 (517440)
I1227 01:38:18.247983  2908 net.cpp:165] Memory required for data: 3469106280
I1227 01:38:18.247999  2908 layer_factory.hpp:77] Creating layer bn_5a_1x1
I1227 01:38:18.248018  2908 net.cpp:100] Creating Layer bn_5a_1x1
I1227 01:38:18.248033  2908 net.cpp:434] bn_5a_1x1 <- conv_5a_1x1
I1227 01:38:18.248059  2908 net.cpp:395] bn_5a_1x1 -> conv_5a_1x1 (in-place)
I1227 01:38:18.248306  2908 net.cpp:150] Setting up bn_5a_1x1
I1227 01:38:18.248327  2908 net.cpp:157] Top shape: 30 352 7 7 (517440)
I1227 01:38:18.248338  2908 net.cpp:165] Memory required for data: 3471176040
I1227 01:38:18.248355  2908 layer_factory.hpp:77] Creating layer scale_conv_5a_1x1
I1227 01:38:18.248378  2908 net.cpp:100] Creating Layer scale_conv_5a_1x1
I1227 01:38:18.248390  2908 net.cpp:434] scale_conv_5a_1x1 <- conv_5a_1x1
I1227 01:38:18.248405  2908 net.cpp:395] scale_conv_5a_1x1 -> conv_5a_1x1 (in-place)
I1227 01:38:18.248486  2908 layer_factory.hpp:77] Creating layer scale_conv_5a_1x1
I1227 01:38:18.248659  2908 net.cpp:150] Setting up scale_conv_5a_1x1
I1227 01:38:18.248682  2908 net.cpp:157] Top shape: 30 352 7 7 (517440)
I1227 01:38:18.248693  2908 net.cpp:165] Memory required for data: 3473245800
I1227 01:38:18.248708  2908 layer_factory.hpp:77] Creating layer relu_5a_1x1
I1227 01:38:18.248723  2908 net.cpp:100] Creating Layer relu_5a_1x1
I1227 01:38:18.248735  2908 net.cpp:434] relu_5a_1x1 <- conv_5a_1x1
I1227 01:38:18.248766  2908 net.cpp:395] relu_5a_1x1 -> conv_5a_1x1 (in-place)
I1227 01:38:18.248783  2908 net.cpp:150] Setting up relu_5a_1x1
I1227 01:38:18.248797  2908 net.cpp:157] Top shape: 30 352 7 7 (517440)
I1227 01:38:18.248808  2908 net.cpp:165] Memory required for data: 3475315560
I1227 01:38:18.248818  2908 layer_factory.hpp:77] Creating layer conv_5a_3x3_reduce
I1227 01:38:18.248834  2908 net.cpp:100] Creating Layer conv_5a_3x3_reduce
I1227 01:38:18.248849  2908 net.cpp:434] conv_5a_3x3_reduce <- ch_concat_4e_chconcat_ch_concat_4e_chconcat_0_split_1
I1227 01:38:18.248883  2908 net.cpp:408] conv_5a_3x3_reduce -> conv_5a_3x3_reduce
I1227 01:38:18.249945  2908 net.cpp:150] Setting up conv_5a_3x3_reduce
I1227 01:38:18.249971  2908 net.cpp:157] Top shape: 30 192 7 7 (282240)
I1227 01:38:18.249984  2908 net.cpp:165] Memory required for data: 3476444520
I1227 01:38:18.250000  2908 layer_factory.hpp:77] Creating layer bn_5a_3x3_reduce
I1227 01:38:18.250020  2908 net.cpp:100] Creating Layer bn_5a_3x3_reduce
I1227 01:38:18.250032  2908 net.cpp:434] bn_5a_3x3_reduce <- conv_5a_3x3_reduce
I1227 01:38:18.250047  2908 net.cpp:395] bn_5a_3x3_reduce -> conv_5a_3x3_reduce (in-place)
I1227 01:38:18.250293  2908 net.cpp:150] Setting up bn_5a_3x3_reduce
I1227 01:38:18.250326  2908 net.cpp:157] Top shape: 30 192 7 7 (282240)
I1227 01:38:18.250339  2908 net.cpp:165] Memory required for data: 3477573480
I1227 01:38:18.250356  2908 layer_factory.hpp:77] Creating layer scale_conv_5a_3x3_reduce
I1227 01:38:18.250372  2908 net.cpp:100] Creating Layer scale_conv_5a_3x3_reduce
I1227 01:38:18.250397  2908 net.cpp:434] scale_conv_5a_3x3_reduce <- conv_5a_3x3_reduce
I1227 01:38:18.250412  2908 net.cpp:395] scale_conv_5a_3x3_reduce -> conv_5a_3x3_reduce (in-place)
I1227 01:38:18.250478  2908 layer_factory.hpp:77] Creating layer scale_conv_5a_3x3_reduce
I1227 01:38:18.250633  2908 net.cpp:150] Setting up scale_conv_5a_3x3_reduce
I1227 01:38:18.250654  2908 net.cpp:157] Top shape: 30 192 7 7 (282240)
I1227 01:38:18.250666  2908 net.cpp:165] Memory required for data: 3478702440
I1227 01:38:18.250684  2908 layer_factory.hpp:77] Creating layer relu_5a_3x3_reduce
I1227 01:38:18.250788  2908 net.cpp:100] Creating Layer relu_5a_3x3_reduce
I1227 01:38:18.250808  2908 net.cpp:434] relu_5a_3x3_reduce <- conv_5a_3x3_reduce
I1227 01:38:18.250825  2908 net.cpp:395] relu_5a_3x3_reduce -> conv_5a_3x3_reduce (in-place)
I1227 01:38:18.250841  2908 net.cpp:150] Setting up relu_5a_3x3_reduce
I1227 01:38:18.250856  2908 net.cpp:157] Top shape: 30 192 7 7 (282240)
I1227 01:38:18.250869  2908 net.cpp:165] Memory required for data: 3479831400
I1227 01:38:18.250880  2908 layer_factory.hpp:77] Creating layer conv_5a_3x3
I1227 01:38:18.250897  2908 net.cpp:100] Creating Layer conv_5a_3x3
I1227 01:38:18.250910  2908 net.cpp:434] conv_5a_3x3 <- conv_5a_3x3_reduce
I1227 01:38:18.250926  2908 net.cpp:408] conv_5a_3x3 -> conv_5a_3x3
I1227 01:38:18.252796  2908 net.cpp:150] Setting up conv_5a_3x3
I1227 01:38:18.252822  2908 net.cpp:157] Top shape: 30 320 7 7 (470400)
I1227 01:38:18.252835  2908 net.cpp:165] Memory required for data: 3481713000
I1227 01:38:18.252851  2908 layer_factory.hpp:77] Creating layer bn_5a_3x3
I1227 01:38:18.252866  2908 net.cpp:100] Creating Layer bn_5a_3x3
I1227 01:38:18.252879  2908 net.cpp:434] bn_5a_3x3 <- conv_5a_3x3
I1227 01:38:18.252897  2908 net.cpp:395] bn_5a_3x3 -> conv_5a_3x3 (in-place)
I1227 01:38:18.253154  2908 net.cpp:150] Setting up bn_5a_3x3
I1227 01:38:18.253175  2908 net.cpp:157] Top shape: 30 320 7 7 (470400)
I1227 01:38:18.253193  2908 net.cpp:165] Memory required for data: 3483594600
I1227 01:38:18.253211  2908 layer_factory.hpp:77] Creating layer scale_conv_5a_3x3
I1227 01:38:18.253235  2908 net.cpp:100] Creating Layer scale_conv_5a_3x3
I1227 01:38:18.253247  2908 net.cpp:434] scale_conv_5a_3x3 <- conv_5a_3x3
I1227 01:38:18.253264  2908 net.cpp:395] scale_conv_5a_3x3 -> conv_5a_3x3 (in-place)
I1227 01:38:18.253327  2908 layer_factory.hpp:77] Creating layer scale_conv_5a_3x3
I1227 01:38:18.253489  2908 net.cpp:150] Setting up scale_conv_5a_3x3
I1227 01:38:18.253509  2908 net.cpp:157] Top shape: 30 320 7 7 (470400)
I1227 01:38:18.253520  2908 net.cpp:165] Memory required for data: 3485476200
I1227 01:38:18.253536  2908 layer_factory.hpp:77] Creating layer relu_5a_3x3
I1227 01:38:18.253551  2908 net.cpp:100] Creating Layer relu_5a_3x3
I1227 01:38:18.253561  2908 net.cpp:434] relu_5a_3x3 <- conv_5a_3x3
I1227 01:38:18.253577  2908 net.cpp:395] relu_5a_3x3 -> conv_5a_3x3 (in-place)
I1227 01:38:18.253593  2908 net.cpp:150] Setting up relu_5a_3x3
I1227 01:38:18.253607  2908 net.cpp:157] Top shape: 30 320 7 7 (470400)
I1227 01:38:18.253618  2908 net.cpp:165] Memory required for data: 3487357800
I1227 01:38:18.253628  2908 layer_factory.hpp:77] Creating layer conv_5a_double_3x3_reduce
I1227 01:38:18.253648  2908 net.cpp:100] Creating Layer conv_5a_double_3x3_reduce
I1227 01:38:18.253661  2908 net.cpp:434] conv_5a_double_3x3_reduce <- ch_concat_4e_chconcat_ch_concat_4e_chconcat_0_split_2
I1227 01:38:18.253676  2908 net.cpp:408] conv_5a_double_3x3_reduce -> conv_5a_double_3x3_reduce
I1227 01:38:18.254756  2908 net.cpp:150] Setting up conv_5a_double_3x3_reduce
I1227 01:38:18.254782  2908 net.cpp:157] Top shape: 30 160 7 7 (235200)
I1227 01:38:18.254794  2908 net.cpp:165] Memory required for data: 3488298600
I1227 01:38:18.254811  2908 layer_factory.hpp:77] Creating layer bn_5a_double_3x3_reduce
I1227 01:38:18.254829  2908 net.cpp:100] Creating Layer bn_5a_double_3x3_reduce
I1227 01:38:18.254843  2908 net.cpp:434] bn_5a_double_3x3_reduce <- conv_5a_double_3x3_reduce
I1227 01:38:18.254860  2908 net.cpp:395] bn_5a_double_3x3_reduce -> conv_5a_double_3x3_reduce (in-place)
I1227 01:38:18.255105  2908 net.cpp:150] Setting up bn_5a_double_3x3_reduce
I1227 01:38:18.255127  2908 net.cpp:157] Top shape: 30 160 7 7 (235200)
I1227 01:38:18.255152  2908 net.cpp:165] Memory required for data: 3489239400
I1227 01:38:18.255172  2908 layer_factory.hpp:77] Creating layer scale_conv_5a_double_3x3_reduce
I1227 01:38:18.255198  2908 net.cpp:100] Creating Layer scale_conv_5a_double_3x3_reduce
I1227 01:38:18.255211  2908 net.cpp:434] scale_conv_5a_double_3x3_reduce <- conv_5a_double_3x3_reduce
I1227 01:38:18.255226  2908 net.cpp:395] scale_conv_5a_double_3x3_reduce -> conv_5a_double_3x3_reduce (in-place)
I1227 01:38:18.255287  2908 layer_factory.hpp:77] Creating layer scale_conv_5a_double_3x3_reduce
I1227 01:38:18.255460  2908 net.cpp:150] Setting up scale_conv_5a_double_3x3_reduce
I1227 01:38:18.255484  2908 net.cpp:157] Top shape: 30 160 7 7 (235200)
I1227 01:38:18.255496  2908 net.cpp:165] Memory required for data: 3490180200
I1227 01:38:18.255512  2908 layer_factory.hpp:77] Creating layer relu_5a_double_3x3_reduce
I1227 01:38:18.255532  2908 net.cpp:100] Creating Layer relu_5a_double_3x3_reduce
I1227 01:38:18.255545  2908 net.cpp:434] relu_5a_double_3x3_reduce <- conv_5a_double_3x3_reduce
I1227 01:38:18.255559  2908 net.cpp:395] relu_5a_double_3x3_reduce -> conv_5a_double_3x3_reduce (in-place)
I1227 01:38:18.255576  2908 net.cpp:150] Setting up relu_5a_double_3x3_reduce
I1227 01:38:18.255590  2908 net.cpp:157] Top shape: 30 160 7 7 (235200)
I1227 01:38:18.255601  2908 net.cpp:165] Memory required for data: 3491121000
I1227 01:38:18.255614  2908 layer_factory.hpp:77] Creating layer conv_5a_double_3x3_0
I1227 01:38:18.255632  2908 net.cpp:100] Creating Layer conv_5a_double_3x3_0
I1227 01:38:18.255646  2908 net.cpp:434] conv_5a_double_3x3_0 <- conv_5a_double_3x3_reduce
I1227 01:38:18.255664  2908 net.cpp:408] conv_5a_double_3x3_0 -> conv_5a_double_3x3_0
I1227 01:38:18.256898  2908 net.cpp:150] Setting up conv_5a_double_3x3_0
I1227 01:38:18.256939  2908 net.cpp:157] Top shape: 30 224 7 7 (329280)
I1227 01:38:18.256959  2908 net.cpp:165] Memory required for data: 3492438120
I1227 01:38:18.256978  2908 layer_factory.hpp:77] Creating layer bn_5a_double_3x3_0
I1227 01:38:18.256997  2908 net.cpp:100] Creating Layer bn_5a_double_3x3_0
I1227 01:38:18.257011  2908 net.cpp:434] bn_5a_double_3x3_0 <- conv_5a_double_3x3_0
I1227 01:38:18.257027  2908 net.cpp:395] bn_5a_double_3x3_0 -> conv_5a_double_3x3_0 (in-place)
I1227 01:38:18.257277  2908 net.cpp:150] Setting up bn_5a_double_3x3_0
I1227 01:38:18.257302  2908 net.cpp:157] Top shape: 30 224 7 7 (329280)
I1227 01:38:18.257314  2908 net.cpp:165] Memory required for data: 3493755240
I1227 01:38:18.257331  2908 layer_factory.hpp:77] Creating layer scale_conv_5a_double_3x3_0
I1227 01:38:18.257351  2908 net.cpp:100] Creating Layer scale_conv_5a_double_3x3_0
I1227 01:38:18.257364  2908 net.cpp:434] scale_conv_5a_double_3x3_0 <- conv_5a_double_3x3_0
I1227 01:38:18.257381  2908 net.cpp:395] scale_conv_5a_double_3x3_0 -> conv_5a_double_3x3_0 (in-place)
I1227 01:38:18.257446  2908 layer_factory.hpp:77] Creating layer scale_conv_5a_double_3x3_0
I1227 01:38:18.257604  2908 net.cpp:150] Setting up scale_conv_5a_double_3x3_0
I1227 01:38:18.257628  2908 net.cpp:157] Top shape: 30 224 7 7 (329280)
I1227 01:38:18.257640  2908 net.cpp:165] Memory required for data: 3495072360
I1227 01:38:18.257655  2908 layer_factory.hpp:77] Creating layer relu_5a_double_3x3_0
I1227 01:38:18.257685  2908 net.cpp:100] Creating Layer relu_5a_double_3x3_0
I1227 01:38:18.257699  2908 net.cpp:434] relu_5a_double_3x3_0 <- conv_5a_double_3x3_0
I1227 01:38:18.257719  2908 net.cpp:395] relu_5a_double_3x3_0 -> conv_5a_double_3x3_0 (in-place)
I1227 01:38:18.257735  2908 net.cpp:150] Setting up relu_5a_double_3x3_0
I1227 01:38:18.257750  2908 net.cpp:157] Top shape: 30 224 7 7 (329280)
I1227 01:38:18.257762  2908 net.cpp:165] Memory required for data: 3496389480
I1227 01:38:18.257773  2908 layer_factory.hpp:77] Creating layer conv_5a_double_3x3_1
I1227 01:38:18.257792  2908 net.cpp:100] Creating Layer conv_5a_double_3x3_1
I1227 01:38:18.257804  2908 net.cpp:434] conv_5a_double_3x3_1 <- conv_5a_double_3x3_0
I1227 01:38:18.257819  2908 net.cpp:408] conv_5a_double_3x3_1 -> conv_5a_double_3x3_1
I1227 01:38:18.259382  2908 net.cpp:150] Setting up conv_5a_double_3x3_1
I1227 01:38:18.259410  2908 net.cpp:157] Top shape: 30 224 7 7 (329280)
I1227 01:38:18.259423  2908 net.cpp:165] Memory required for data: 3497706600
I1227 01:38:18.259443  2908 layer_factory.hpp:77] Creating layer bn_5a_double_3x3_1
I1227 01:38:18.259462  2908 net.cpp:100] Creating Layer bn_5a_double_3x3_1
I1227 01:38:18.259477  2908 net.cpp:434] bn_5a_double_3x3_1 <- conv_5a_double_3x3_1
I1227 01:38:18.259493  2908 net.cpp:395] bn_5a_double_3x3_1 -> conv_5a_double_3x3_1 (in-place)
I1227 01:38:18.259738  2908 net.cpp:150] Setting up bn_5a_double_3x3_1
I1227 01:38:18.259763  2908 net.cpp:157] Top shape: 30 224 7 7 (329280)
I1227 01:38:18.259775  2908 net.cpp:165] Memory required for data: 3499023720
I1227 01:38:18.259793  2908 layer_factory.hpp:77] Creating layer scale_conv_5a_double_3x3_1
I1227 01:38:18.259814  2908 net.cpp:100] Creating Layer scale_conv_5a_double_3x3_1
I1227 01:38:18.259826  2908 net.cpp:434] scale_conv_5a_double_3x3_1 <- conv_5a_double_3x3_1
I1227 01:38:18.259840  2908 net.cpp:395] scale_conv_5a_double_3x3_1 -> conv_5a_double_3x3_1 (in-place)
I1227 01:38:18.259903  2908 layer_factory.hpp:77] Creating layer scale_conv_5a_double_3x3_1
I1227 01:38:18.260064  2908 net.cpp:150] Setting up scale_conv_5a_double_3x3_1
I1227 01:38:18.260088  2908 net.cpp:157] Top shape: 30 224 7 7 (329280)
I1227 01:38:18.260100  2908 net.cpp:165] Memory required for data: 3500340840
I1227 01:38:18.260115  2908 layer_factory.hpp:77] Creating layer relu_5a_double_3x3_1
I1227 01:38:18.260130  2908 net.cpp:100] Creating Layer relu_5a_double_3x3_1
I1227 01:38:18.260143  2908 net.cpp:434] relu_5a_double_3x3_1 <- conv_5a_double_3x3_1
I1227 01:38:18.260159  2908 net.cpp:395] relu_5a_double_3x3_1 -> conv_5a_double_3x3_1 (in-place)
I1227 01:38:18.260193  2908 net.cpp:150] Setting up relu_5a_double_3x3_1
I1227 01:38:18.260210  2908 net.cpp:157] Top shape: 30 224 7 7 (329280)
I1227 01:38:18.260221  2908 net.cpp:165] Memory required for data: 3501657960
I1227 01:38:18.260233  2908 layer_factory.hpp:77] Creating layer ave_pool_5a_pool
I1227 01:38:18.260251  2908 net.cpp:100] Creating Layer ave_pool_5a_pool
I1227 01:38:18.260263  2908 net.cpp:434] ave_pool_5a_pool <- ch_concat_4e_chconcat_ch_concat_4e_chconcat_0_split_3
I1227 01:38:18.260279  2908 net.cpp:408] ave_pool_5a_pool -> ave_pool_5a_pool
I1227 01:38:18.260329  2908 net.cpp:150] Setting up ave_pool_5a_pool
I1227 01:38:18.260349  2908 net.cpp:157] Top shape: 30 960 7 7 (1411200)
I1227 01:38:18.260360  2908 net.cpp:165] Memory required for data: 3507302760
I1227 01:38:18.260371  2908 layer_factory.hpp:77] Creating layer conv_5a_proj
I1227 01:38:18.260388  2908 net.cpp:100] Creating Layer conv_5a_proj
I1227 01:38:18.260401  2908 net.cpp:434] conv_5a_proj <- ave_pool_5a_pool
I1227 01:38:18.260421  2908 net.cpp:408] conv_5a_proj -> conv_5a_proj
I1227 01:38:18.261451  2908 net.cpp:150] Setting up conv_5a_proj
I1227 01:38:18.261476  2908 net.cpp:157] Top shape: 30 128 7 7 (188160)
I1227 01:38:18.261487  2908 net.cpp:165] Memory required for data: 3508055400
I1227 01:38:18.261503  2908 layer_factory.hpp:77] Creating layer bn_5a_proj
I1227 01:38:18.261523  2908 net.cpp:100] Creating Layer bn_5a_proj
I1227 01:38:18.261551  2908 net.cpp:434] bn_5a_proj <- conv_5a_proj
I1227 01:38:18.261569  2908 net.cpp:395] bn_5a_proj -> conv_5a_proj (in-place)
I1227 01:38:18.261790  2908 net.cpp:150] Setting up bn_5a_proj
I1227 01:38:18.261811  2908 net.cpp:157] Top shape: 30 128 7 7 (188160)
I1227 01:38:18.261821  2908 net.cpp:165] Memory required for data: 3508808040
I1227 01:38:18.261837  2908 layer_factory.hpp:77] Creating layer scale_conv_5a_proj
I1227 01:38:18.261855  2908 net.cpp:100] Creating Layer scale_conv_5a_proj
I1227 01:38:18.261868  2908 net.cpp:434] scale_conv_5a_proj <- conv_5a_proj
I1227 01:38:18.261881  2908 net.cpp:395] scale_conv_5a_proj -> conv_5a_proj (in-place)
I1227 01:38:18.261942  2908 layer_factory.hpp:77] Creating layer scale_conv_5a_proj
I1227 01:38:18.262086  2908 net.cpp:150] Setting up scale_conv_5a_proj
I1227 01:38:18.262106  2908 net.cpp:157] Top shape: 30 128 7 7 (188160)
I1227 01:38:18.262117  2908 net.cpp:165] Memory required for data: 3509560680
I1227 01:38:18.262132  2908 layer_factory.hpp:77] Creating layer relu_5a_proj
I1227 01:38:18.262146  2908 net.cpp:100] Creating Layer relu_5a_proj
I1227 01:38:18.262158  2908 net.cpp:434] relu_5a_proj <- conv_5a_proj
I1227 01:38:18.262174  2908 net.cpp:395] relu_5a_proj -> conv_5a_proj (in-place)
I1227 01:38:18.262210  2908 net.cpp:150] Setting up relu_5a_proj
I1227 01:38:18.262226  2908 net.cpp:157] Top shape: 30 128 7 7 (188160)
I1227 01:38:18.262238  2908 net.cpp:165] Memory required for data: 3510313320
I1227 01:38:18.262249  2908 layer_factory.hpp:77] Creating layer ch_concat_5a_chconcat
I1227 01:38:18.262264  2908 net.cpp:100] Creating Layer ch_concat_5a_chconcat
I1227 01:38:18.262276  2908 net.cpp:434] ch_concat_5a_chconcat <- conv_5a_1x1
I1227 01:38:18.262290  2908 net.cpp:434] ch_concat_5a_chconcat <- conv_5a_3x3
I1227 01:38:18.262308  2908 net.cpp:434] ch_concat_5a_chconcat <- conv_5a_double_3x3_1
I1227 01:38:18.262322  2908 net.cpp:434] ch_concat_5a_chconcat <- conv_5a_proj
I1227 01:38:18.262341  2908 net.cpp:408] ch_concat_5a_chconcat -> ch_concat_5a_chconcat
I1227 01:38:18.262387  2908 net.cpp:150] Setting up ch_concat_5a_chconcat
I1227 01:38:18.262405  2908 net.cpp:157] Top shape: 30 1024 7 7 (1505280)
I1227 01:38:18.262416  2908 net.cpp:165] Memory required for data: 3516334440
I1227 01:38:18.262428  2908 layer_factory.hpp:77] Creating layer ch_concat_5a_chconcat_ch_concat_5a_chconcat_0_split
I1227 01:38:18.262451  2908 net.cpp:100] Creating Layer ch_concat_5a_chconcat_ch_concat_5a_chconcat_0_split
I1227 01:38:18.262465  2908 net.cpp:434] ch_concat_5a_chconcat_ch_concat_5a_chconcat_0_split <- ch_concat_5a_chconcat
I1227 01:38:18.262480  2908 net.cpp:408] ch_concat_5a_chconcat_ch_concat_5a_chconcat_0_split -> ch_concat_5a_chconcat_ch_concat_5a_chconcat_0_split_0
I1227 01:38:18.262508  2908 net.cpp:408] ch_concat_5a_chconcat_ch_concat_5a_chconcat_0_split -> ch_concat_5a_chconcat_ch_concat_5a_chconcat_0_split_1
I1227 01:38:18.262528  2908 net.cpp:408] ch_concat_5a_chconcat_ch_concat_5a_chconcat_0_split -> ch_concat_5a_chconcat_ch_concat_5a_chconcat_0_split_2
I1227 01:38:18.262547  2908 net.cpp:408] ch_concat_5a_chconcat_ch_concat_5a_chconcat_0_split -> ch_concat_5a_chconcat_ch_concat_5a_chconcat_0_split_3
I1227 01:38:18.262640  2908 net.cpp:150] Setting up ch_concat_5a_chconcat_ch_concat_5a_chconcat_0_split
I1227 01:38:18.262661  2908 net.cpp:157] Top shape: 30 1024 7 7 (1505280)
I1227 01:38:18.262676  2908 net.cpp:157] Top shape: 30 1024 7 7 (1505280)
I1227 01:38:18.262689  2908 net.cpp:157] Top shape: 30 1024 7 7 (1505280)
I1227 01:38:18.262704  2908 net.cpp:157] Top shape: 30 1024 7 7 (1505280)
I1227 01:38:18.262715  2908 net.cpp:165] Memory required for data: 3540418920
I1227 01:38:18.262725  2908 layer_factory.hpp:77] Creating layer conv_5b_1x1
I1227 01:38:18.262742  2908 net.cpp:100] Creating Layer conv_5b_1x1
I1227 01:38:18.262754  2908 net.cpp:434] conv_5b_1x1 <- ch_concat_5a_chconcat_ch_concat_5a_chconcat_0_split_0
I1227 01:38:18.262773  2908 net.cpp:408] conv_5b_1x1 -> conv_5b_1x1
I1227 01:38:18.264122  2908 net.cpp:150] Setting up conv_5b_1x1
I1227 01:38:18.264148  2908 net.cpp:157] Top shape: 30 352 7 7 (517440)
I1227 01:38:18.264160  2908 net.cpp:165] Memory required for data: 3542488680
I1227 01:38:18.264196  2908 layer_factory.hpp:77] Creating layer bn_5b_1x1
I1227 01:38:18.264215  2908 net.cpp:100] Creating Layer bn_5b_1x1
I1227 01:38:18.264228  2908 net.cpp:434] bn_5b_1x1 <- conv_5b_1x1
I1227 01:38:18.264256  2908 net.cpp:395] bn_5b_1x1 -> conv_5b_1x1 (in-place)
I1227 01:38:18.264511  2908 net.cpp:150] Setting up bn_5b_1x1
I1227 01:38:18.264533  2908 net.cpp:157] Top shape: 30 352 7 7 (517440)
I1227 01:38:18.264544  2908 net.cpp:165] Memory required for data: 3544558440
I1227 01:38:18.264562  2908 layer_factory.hpp:77] Creating layer scale_conv_5b_1x1
I1227 01:38:18.264577  2908 net.cpp:100] Creating Layer scale_conv_5b_1x1
I1227 01:38:18.264590  2908 net.cpp:434] scale_conv_5b_1x1 <- conv_5b_1x1
I1227 01:38:18.264603  2908 net.cpp:395] scale_conv_5b_1x1 -> conv_5b_1x1 (in-place)
I1227 01:38:18.264675  2908 layer_factory.hpp:77] Creating layer scale_conv_5b_1x1
I1227 01:38:18.264859  2908 net.cpp:150] Setting up scale_conv_5b_1x1
I1227 01:38:18.264885  2908 net.cpp:157] Top shape: 30 352 7 7 (517440)
I1227 01:38:18.264897  2908 net.cpp:165] Memory required for data: 3546628200
I1227 01:38:18.264914  2908 layer_factory.hpp:77] Creating layer relu_5b_1x1
I1227 01:38:18.264927  2908 net.cpp:100] Creating Layer relu_5b_1x1
I1227 01:38:18.264940  2908 net.cpp:434] relu_5b_1x1 <- conv_5b_1x1
I1227 01:38:18.264953  2908 net.cpp:395] relu_5b_1x1 -> conv_5b_1x1 (in-place)
I1227 01:38:18.264968  2908 net.cpp:150] Setting up relu_5b_1x1
I1227 01:38:18.264982  2908 net.cpp:157] Top shape: 30 352 7 7 (517440)
I1227 01:38:18.264994  2908 net.cpp:165] Memory required for data: 3548697960
I1227 01:38:18.265005  2908 layer_factory.hpp:77] Creating layer conv_5b_3x3_reduce
I1227 01:38:18.265025  2908 net.cpp:100] Creating Layer conv_5b_3x3_reduce
I1227 01:38:18.265039  2908 net.cpp:434] conv_5b_3x3_reduce <- ch_concat_5a_chconcat_ch_concat_5a_chconcat_0_split_1
I1227 01:38:18.265071  2908 net.cpp:408] conv_5b_3x3_reduce -> conv_5b_3x3_reduce
I1227 01:38:18.266124  2908 net.cpp:150] Setting up conv_5b_3x3_reduce
I1227 01:38:18.266149  2908 net.cpp:157] Top shape: 30 192 7 7 (282240)
I1227 01:38:18.266161  2908 net.cpp:165] Memory required for data: 3549826920
I1227 01:38:18.266176  2908 layer_factory.hpp:77] Creating layer bn_5b_3x3_reduce
I1227 01:38:18.266201  2908 net.cpp:100] Creating Layer bn_5b_3x3_reduce
I1227 01:38:18.266214  2908 net.cpp:434] bn_5b_3x3_reduce <- conv_5b_3x3_reduce
I1227 01:38:18.266244  2908 net.cpp:395] bn_5b_3x3_reduce -> conv_5b_3x3_reduce (in-place)
I1227 01:38:18.266496  2908 net.cpp:150] Setting up bn_5b_3x3_reduce
I1227 01:38:18.266517  2908 net.cpp:157] Top shape: 30 192 7 7 (282240)
I1227 01:38:18.266530  2908 net.cpp:165] Memory required for data: 3550955880
I1227 01:38:18.266561  2908 layer_factory.hpp:77] Creating layer scale_conv_5b_3x3_reduce
I1227 01:38:18.266577  2908 net.cpp:100] Creating Layer scale_conv_5b_3x3_reduce
I1227 01:38:18.266588  2908 net.cpp:434] scale_conv_5b_3x3_reduce <- conv_5b_3x3_reduce
I1227 01:38:18.266618  2908 net.cpp:395] scale_conv_5b_3x3_reduce -> conv_5b_3x3_reduce (in-place)
I1227 01:38:18.266682  2908 layer_factory.hpp:77] Creating layer scale_conv_5b_3x3_reduce
I1227 01:38:18.266844  2908 net.cpp:150] Setting up scale_conv_5b_3x3_reduce
I1227 01:38:18.266865  2908 net.cpp:157] Top shape: 30 192 7 7 (282240)
I1227 01:38:18.266876  2908 net.cpp:165] Memory required for data: 3552084840
I1227 01:38:18.266891  2908 layer_factory.hpp:77] Creating layer relu_5b_3x3_reduce
I1227 01:38:18.266921  2908 net.cpp:100] Creating Layer relu_5b_3x3_reduce
I1227 01:38:18.266932  2908 net.cpp:434] relu_5b_3x3_reduce <- conv_5b_3x3_reduce
I1227 01:38:18.266952  2908 net.cpp:395] relu_5b_3x3_reduce -> conv_5b_3x3_reduce (in-place)
I1227 01:38:18.266968  2908 net.cpp:150] Setting up relu_5b_3x3_reduce
I1227 01:38:18.266981  2908 net.cpp:157] Top shape: 30 192 7 7 (282240)
I1227 01:38:18.266993  2908 net.cpp:165] Memory required for data: 3553213800
I1227 01:38:18.267002  2908 layer_factory.hpp:77] Creating layer conv_5b_3x3
I1227 01:38:18.267021  2908 net.cpp:100] Creating Layer conv_5b_3x3
I1227 01:38:18.267033  2908 net.cpp:434] conv_5b_3x3 <- conv_5b_3x3_reduce
I1227 01:38:18.267048  2908 net.cpp:408] conv_5b_3x3 -> conv_5b_3x3
I1227 01:38:18.268918  2908 net.cpp:150] Setting up conv_5b_3x3
I1227 01:38:18.268944  2908 net.cpp:157] Top shape: 30 320 7 7 (470400)
I1227 01:38:18.268956  2908 net.cpp:165] Memory required for data: 3555095400
I1227 01:38:18.268975  2908 layer_factory.hpp:77] Creating layer bn_5b_3x3
I1227 01:38:18.268993  2908 net.cpp:100] Creating Layer bn_5b_3x3
I1227 01:38:18.269007  2908 net.cpp:434] bn_5b_3x3 <- conv_5b_3x3
I1227 01:38:18.269021  2908 net.cpp:395] bn_5b_3x3 -> conv_5b_3x3 (in-place)
I1227 01:38:18.269287  2908 net.cpp:150] Setting up bn_5b_3x3
I1227 01:38:18.269312  2908 net.cpp:157] Top shape: 30 320 7 7 (470400)
I1227 01:38:18.269340  2908 net.cpp:165] Memory required for data: 3556977000
I1227 01:38:18.269356  2908 layer_factory.hpp:77] Creating layer scale_conv_5b_3x3
I1227 01:38:18.269378  2908 net.cpp:100] Creating Layer scale_conv_5b_3x3
I1227 01:38:18.269392  2908 net.cpp:434] scale_conv_5b_3x3 <- conv_5b_3x3
I1227 01:38:18.269405  2908 net.cpp:395] scale_conv_5b_3x3 -> conv_5b_3x3 (in-place)
I1227 01:38:18.269472  2908 layer_factory.hpp:77] Creating layer scale_conv_5b_3x3
I1227 01:38:18.269634  2908 net.cpp:150] Setting up scale_conv_5b_3x3
I1227 01:38:18.269657  2908 net.cpp:157] Top shape: 30 320 7 7 (470400)
I1227 01:38:18.269670  2908 net.cpp:165] Memory required for data: 3558858600
I1227 01:38:18.269685  2908 layer_factory.hpp:77] Creating layer relu_5b_3x3
I1227 01:38:18.269702  2908 net.cpp:100] Creating Layer relu_5b_3x3
I1227 01:38:18.269716  2908 net.cpp:434] relu_5b_3x3 <- conv_5b_3x3
I1227 01:38:18.269728  2908 net.cpp:395] relu_5b_3x3 -> conv_5b_3x3 (in-place)
I1227 01:38:18.269745  2908 net.cpp:150] Setting up relu_5b_3x3
I1227 01:38:18.269759  2908 net.cpp:157] Top shape: 30 320 7 7 (470400)
I1227 01:38:18.269770  2908 net.cpp:165] Memory required for data: 3560740200
I1227 01:38:18.269780  2908 layer_factory.hpp:77] Creating layer conv_5b_double_3x3_reduce
I1227 01:38:18.269814  2908 net.cpp:100] Creating Layer conv_5b_double_3x3_reduce
I1227 01:38:18.269827  2908 net.cpp:434] conv_5b_double_3x3_reduce <- ch_concat_5a_chconcat_ch_concat_5a_chconcat_0_split_2
I1227 01:38:18.269848  2908 net.cpp:408] conv_5b_double_3x3_reduce -> conv_5b_double_3x3_reduce
I1227 01:38:18.270903  2908 net.cpp:150] Setting up conv_5b_double_3x3_reduce
I1227 01:38:18.270932  2908 net.cpp:157] Top shape: 30 192 7 7 (282240)
I1227 01:38:18.270953  2908 net.cpp:165] Memory required for data: 3561869160
I1227 01:38:18.270970  2908 layer_factory.hpp:77] Creating layer bn_5b_double_3x3_reduce
I1227 01:38:18.270990  2908 net.cpp:100] Creating Layer bn_5b_double_3x3_reduce
I1227 01:38:18.271004  2908 net.cpp:434] bn_5b_double_3x3_reduce <- conv_5b_double_3x3_reduce
I1227 01:38:18.271023  2908 net.cpp:395] bn_5b_double_3x3_reduce -> conv_5b_double_3x3_reduce (in-place)
I1227 01:38:18.271284  2908 net.cpp:150] Setting up bn_5b_double_3x3_reduce
I1227 01:38:18.271308  2908 net.cpp:157] Top shape: 30 192 7 7 (282240)
I1227 01:38:18.271319  2908 net.cpp:165] Memory required for data: 3562998120
I1227 01:38:18.271337  2908 layer_factory.hpp:77] Creating layer scale_conv_5b_double_3x3_reduce
I1227 01:38:18.271354  2908 net.cpp:100] Creating Layer scale_conv_5b_double_3x3_reduce
I1227 01:38:18.271366  2908 net.cpp:434] scale_conv_5b_double_3x3_reduce <- conv_5b_double_3x3_reduce
I1227 01:38:18.271379  2908 net.cpp:395] scale_conv_5b_double_3x3_reduce -> conv_5b_double_3x3_reduce (in-place)
I1227 01:38:18.271446  2908 layer_factory.hpp:77] Creating layer scale_conv_5b_double_3x3_reduce
I1227 01:38:18.271598  2908 net.cpp:150] Setting up scale_conv_5b_double_3x3_reduce
I1227 01:38:18.271623  2908 net.cpp:157] Top shape: 30 192 7 7 (282240)
I1227 01:38:18.271636  2908 net.cpp:165] Memory required for data: 3564127080
I1227 01:38:18.271651  2908 layer_factory.hpp:77] Creating layer relu_5b_double_3x3_reduce
I1227 01:38:18.271667  2908 net.cpp:100] Creating Layer relu_5b_double_3x3_reduce
I1227 01:38:18.271678  2908 net.cpp:434] relu_5b_double_3x3_reduce <- conv_5b_double_3x3_reduce
I1227 01:38:18.271692  2908 net.cpp:395] relu_5b_double_3x3_reduce -> conv_5b_double_3x3_reduce (in-place)
I1227 01:38:18.271708  2908 net.cpp:150] Setting up relu_5b_double_3x3_reduce
I1227 01:38:18.271724  2908 net.cpp:157] Top shape: 30 192 7 7 (282240)
I1227 01:38:18.271736  2908 net.cpp:165] Memory required for data: 3565256040
I1227 01:38:18.271747  2908 layer_factory.hpp:77] Creating layer conv_5b_double_3x3_0
I1227 01:38:18.271766  2908 net.cpp:100] Creating Layer conv_5b_double_3x3_0
I1227 01:38:18.271778  2908 net.cpp:434] conv_5b_double_3x3_0 <- conv_5b_double_3x3_reduce
I1227 01:38:18.271795  2908 net.cpp:408] conv_5b_double_3x3_0 -> conv_5b_double_3x3_0
I1227 01:38:18.273250  2908 net.cpp:150] Setting up conv_5b_double_3x3_0
I1227 01:38:18.273280  2908 net.cpp:157] Top shape: 30 224 7 7 (329280)
I1227 01:38:18.273293  2908 net.cpp:165] Memory required for data: 3566573160
I1227 01:38:18.273309  2908 layer_factory.hpp:77] Creating layer bn_5b_double_3x3_0
I1227 01:38:18.273326  2908 net.cpp:100] Creating Layer bn_5b_double_3x3_0
I1227 01:38:18.273340  2908 net.cpp:434] bn_5b_double_3x3_0 <- conv_5b_double_3x3_0
I1227 01:38:18.273360  2908 net.cpp:395] bn_5b_double_3x3_0 -> conv_5b_double_3x3_0 (in-place)
I1227 01:38:18.273603  2908 net.cpp:150] Setting up bn_5b_double_3x3_0
I1227 01:38:18.273627  2908 net.cpp:157] Top shape: 30 224 7 7 (329280)
I1227 01:38:18.273638  2908 net.cpp:165] Memory required for data: 3567890280
I1227 01:38:18.273656  2908 layer_factory.hpp:77] Creating layer scale_conv_5b_double_3x3_0
I1227 01:38:18.273674  2908 net.cpp:100] Creating Layer scale_conv_5b_double_3x3_0
I1227 01:38:18.273685  2908 net.cpp:434] scale_conv_5b_double_3x3_0 <- conv_5b_double_3x3_0
I1227 01:38:18.273699  2908 net.cpp:395] scale_conv_5b_double_3x3_0 -> conv_5b_double_3x3_0 (in-place)
I1227 01:38:18.273775  2908 layer_factory.hpp:77] Creating layer scale_conv_5b_double_3x3_0
I1227 01:38:18.273936  2908 net.cpp:150] Setting up scale_conv_5b_double_3x3_0
I1227 01:38:18.273963  2908 net.cpp:157] Top shape: 30 224 7 7 (329280)
I1227 01:38:18.273975  2908 net.cpp:165] Memory required for data: 3569207400
I1227 01:38:18.273990  2908 layer_factory.hpp:77] Creating layer relu_5b_double_3x3_0
I1227 01:38:18.274005  2908 net.cpp:100] Creating Layer relu_5b_double_3x3_0
I1227 01:38:18.274018  2908 net.cpp:434] relu_5b_double_3x3_0 <- conv_5b_double_3x3_0
I1227 01:38:18.274039  2908 net.cpp:395] relu_5b_double_3x3_0 -> conv_5b_double_3x3_0 (in-place)
I1227 01:38:18.274070  2908 net.cpp:150] Setting up relu_5b_double_3x3_0
I1227 01:38:18.274085  2908 net.cpp:157] Top shape: 30 224 7 7 (329280)
I1227 01:38:18.274097  2908 net.cpp:165] Memory required for data: 3570524520
I1227 01:38:18.274109  2908 layer_factory.hpp:77] Creating layer conv_5b_double_3x3_1
I1227 01:38:18.274130  2908 net.cpp:100] Creating Layer conv_5b_double_3x3_1
I1227 01:38:18.274143  2908 net.cpp:434] conv_5b_double_3x3_1 <- conv_5b_double_3x3_0
I1227 01:38:18.274161  2908 net.cpp:408] conv_5b_double_3x3_1 -> conv_5b_double_3x3_1
I1227 01:38:18.275714  2908 net.cpp:150] Setting up conv_5b_double_3x3_1
I1227 01:38:18.275739  2908 net.cpp:157] Top shape: 30 224 7 7 (329280)
I1227 01:38:18.275750  2908 net.cpp:165] Memory required for data: 3571841640
I1227 01:38:18.275765  2908 layer_factory.hpp:77] Creating layer bn_5b_double_3x3_1
I1227 01:38:18.275780  2908 net.cpp:100] Creating Layer bn_5b_double_3x3_1
I1227 01:38:18.275792  2908 net.cpp:434] bn_5b_double_3x3_1 <- conv_5b_double_3x3_1
I1227 01:38:18.275810  2908 net.cpp:395] bn_5b_double_3x3_1 -> conv_5b_double_3x3_1 (in-place)
I1227 01:38:18.276046  2908 net.cpp:150] Setting up bn_5b_double_3x3_1
I1227 01:38:18.276067  2908 net.cpp:157] Top shape: 30 224 7 7 (329280)
I1227 01:38:18.276078  2908 net.cpp:165] Memory required for data: 3573158760
I1227 01:38:18.276095  2908 layer_factory.hpp:77] Creating layer scale_conv_5b_double_3x3_1
I1227 01:38:18.276110  2908 net.cpp:100] Creating Layer scale_conv_5b_double_3x3_1
I1227 01:38:18.276123  2908 net.cpp:434] scale_conv_5b_double_3x3_1 <- conv_5b_double_3x3_1
I1227 01:38:18.276139  2908 net.cpp:395] scale_conv_5b_double_3x3_1 -> conv_5b_double_3x3_1 (in-place)
I1227 01:38:18.276223  2908 layer_factory.hpp:77] Creating layer scale_conv_5b_double_3x3_1
I1227 01:38:18.276412  2908 net.cpp:150] Setting up scale_conv_5b_double_3x3_1
I1227 01:38:18.276433  2908 net.cpp:157] Top shape: 30 224 7 7 (329280)
I1227 01:38:18.276445  2908 net.cpp:165] Memory required for data: 3574475880
I1227 01:38:18.276460  2908 layer_factory.hpp:77] Creating layer relu_5b_double_3x3_1
I1227 01:38:18.276479  2908 net.cpp:100] Creating Layer relu_5b_double_3x3_1
I1227 01:38:18.276506  2908 net.cpp:434] relu_5b_double_3x3_1 <- conv_5b_double_3x3_1
I1227 01:38:18.276521  2908 net.cpp:395] relu_5b_double_3x3_1 -> conv_5b_double_3x3_1 (in-place)
I1227 01:38:18.276537  2908 net.cpp:150] Setting up relu_5b_double_3x3_1
I1227 01:38:18.276551  2908 net.cpp:157] Top shape: 30 224 7 7 (329280)
I1227 01:38:18.276562  2908 net.cpp:165] Memory required for data: 3575793000
I1227 01:38:18.276572  2908 layer_factory.hpp:77] Creating layer max_pool_5b_pool
I1227 01:38:18.276592  2908 net.cpp:100] Creating Layer max_pool_5b_pool
I1227 01:38:18.276603  2908 net.cpp:434] max_pool_5b_pool <- ch_concat_5a_chconcat_ch_concat_5a_chconcat_0_split_3
I1227 01:38:18.276618  2908 net.cpp:408] max_pool_5b_pool -> max_pool_5b_pool
I1227 01:38:18.276680  2908 net.cpp:150] Setting up max_pool_5b_pool
I1227 01:38:18.276700  2908 net.cpp:157] Top shape: 30 1024 7 7 (1505280)
I1227 01:38:18.276711  2908 net.cpp:165] Memory required for data: 3581814120
I1227 01:38:18.276721  2908 layer_factory.hpp:77] Creating layer conv_5b_proj
I1227 01:38:18.276741  2908 net.cpp:100] Creating Layer conv_5b_proj
I1227 01:38:18.276754  2908 net.cpp:434] conv_5b_proj <- max_pool_5b_pool
I1227 01:38:18.276769  2908 net.cpp:408] conv_5b_proj -> conv_5b_proj
I1227 01:38:18.277154  2908 net.cpp:150] Setting up conv_5b_proj
I1227 01:38:18.277207  2908 net.cpp:157] Top shape: 30 128 7 7 (188160)
I1227 01:38:18.277220  2908 net.cpp:165] Memory required for data: 3582566760
I1227 01:38:18.277236  2908 layer_factory.hpp:77] Creating layer bn_5b_proj
I1227 01:38:18.277254  2908 net.cpp:100] Creating Layer bn_5b_proj
I1227 01:38:18.277268  2908 net.cpp:434] bn_5b_proj <- conv_5b_proj
I1227 01:38:18.277282  2908 net.cpp:395] bn_5b_proj -> conv_5b_proj (in-place)
I1227 01:38:18.277519  2908 net.cpp:150] Setting up bn_5b_proj
I1227 01:38:18.277549  2908 net.cpp:157] Top shape: 30 128 7 7 (188160)
I1227 01:38:18.277560  2908 net.cpp:165] Memory required for data: 3583319400
I1227 01:38:18.277578  2908 layer_factory.hpp:77] Creating layer scale_conv_5b_proj
I1227 01:38:18.277595  2908 net.cpp:100] Creating Layer scale_conv_5b_proj
I1227 01:38:18.277606  2908 net.cpp:434] scale_conv_5b_proj <- conv_5b_proj
I1227 01:38:18.277624  2908 net.cpp:395] scale_conv_5b_proj -> conv_5b_proj (in-place)
I1227 01:38:18.277699  2908 layer_factory.hpp:77] Creating layer scale_conv_5b_proj
I1227 01:38:18.277851  2908 net.cpp:150] Setting up scale_conv_5b_proj
I1227 01:38:18.277875  2908 net.cpp:157] Top shape: 30 128 7 7 (188160)
I1227 01:38:18.277887  2908 net.cpp:165] Memory required for data: 3584072040
I1227 01:38:18.277902  2908 layer_factory.hpp:77] Creating layer relu_5b_proj
I1227 01:38:18.277916  2908 net.cpp:100] Creating Layer relu_5b_proj
I1227 01:38:18.277928  2908 net.cpp:434] relu_5b_proj <- conv_5b_proj
I1227 01:38:18.277941  2908 net.cpp:395] relu_5b_proj -> conv_5b_proj (in-place)
I1227 01:38:18.277956  2908 net.cpp:150] Setting up relu_5b_proj
I1227 01:38:18.277969  2908 net.cpp:157] Top shape: 30 128 7 7 (188160)
I1227 01:38:18.277981  2908 net.cpp:165] Memory required for data: 3584824680
I1227 01:38:18.277990  2908 layer_factory.hpp:77] Creating layer ch_concat_5b_chconcat
I1227 01:38:18.278004  2908 net.cpp:100] Creating Layer ch_concat_5b_chconcat
I1227 01:38:18.278017  2908 net.cpp:434] ch_concat_5b_chconcat <- conv_5b_1x1
I1227 01:38:18.278028  2908 net.cpp:434] ch_concat_5b_chconcat <- conv_5b_3x3
I1227 01:38:18.278041  2908 net.cpp:434] ch_concat_5b_chconcat <- conv_5b_double_3x3_1
I1227 01:38:18.278053  2908 net.cpp:434] ch_concat_5b_chconcat <- conv_5b_proj
I1227 01:38:18.278071  2908 net.cpp:408] ch_concat_5b_chconcat -> ch_concat_5b_chconcat
I1227 01:38:18.278118  2908 net.cpp:150] Setting up ch_concat_5b_chconcat
I1227 01:38:18.278137  2908 net.cpp:157] Top shape: 30 1024 7 7 (1505280)
I1227 01:38:18.278148  2908 net.cpp:165] Memory required for data: 3590845800
I1227 01:38:18.278159  2908 layer_factory.hpp:77] Creating layer global_pool
I1227 01:38:18.278173  2908 net.cpp:100] Creating Layer global_pool
I1227 01:38:18.278190  2908 net.cpp:434] global_pool <- ch_concat_5b_chconcat
I1227 01:38:18.278211  2908 net.cpp:408] global_pool -> global_pool
I1227 01:38:18.278254  2908 net.cpp:150] Setting up global_pool
I1227 01:38:18.278271  2908 net.cpp:157] Top shape: 30 1024 1 1 (30720)
I1227 01:38:18.278282  2908 net.cpp:165] Memory required for data: 3590968680
I1227 01:38:18.278293  2908 layer_factory.hpp:77] Creating layer fc2
I1227 01:38:18.278312  2908 net.cpp:100] Creating Layer fc2
I1227 01:38:18.278337  2908 net.cpp:434] fc2 <- global_pool
I1227 01:38:18.278357  2908 net.cpp:408] fc2 -> fc2
I1227 01:38:18.278605  2908 net.cpp:150] Setting up fc2
I1227 01:38:18.278640  2908 net.cpp:157] Top shape: 30 7 (210)
I1227 01:38:18.278651  2908 net.cpp:165] Memory required for data: 3590969520
I1227 01:38:18.278666  2908 layer_factory.hpp:77] Creating layer fc2_fc2_0_split
I1227 01:38:18.278687  2908 net.cpp:100] Creating Layer fc2_fc2_0_split
I1227 01:38:18.278699  2908 net.cpp:434] fc2_fc2_0_split <- fc2
I1227 01:38:18.278713  2908 net.cpp:408] fc2_fc2_0_split -> fc2_fc2_0_split_0
I1227 01:38:18.278733  2908 net.cpp:408] fc2_fc2_0_split -> fc2_fc2_0_split_1
I1227 01:38:18.278792  2908 net.cpp:150] Setting up fc2_fc2_0_split
I1227 01:38:18.278811  2908 net.cpp:157] Top shape: 30 7 (210)
I1227 01:38:18.278823  2908 net.cpp:157] Top shape: 30 7 (210)
I1227 01:38:18.278833  2908 net.cpp:165] Memory required for data: 3590971200
I1227 01:38:18.278843  2908 layer_factory.hpp:77] Creating layer accuracy
I1227 01:38:18.278858  2908 net.cpp:100] Creating Layer accuracy
I1227 01:38:18.278870  2908 net.cpp:434] accuracy <- fc2_fc2_0_split_0
I1227 01:38:18.278882  2908 net.cpp:434] accuracy <- label_data_train_1_split_0
I1227 01:38:18.278898  2908 net.cpp:408] accuracy -> accuracy
…
