…
I1214 22:59:43.000684  5284 net.cpp:322] The NetState phase (0) differed from the phase (1) specified by a rule in layer data_test
I1214 22:59:43.002105  5284 net.cpp:58] Initializing net from parameters: 
name: "Face"
state {
  phase: TRAIN
  level: 0
  stage: ""
}
layer {
  name: "data_train"
  type: "ImageData"
  top: "data"
  top: "label"
  include {
    phase: TRAIN
  }
  transform_param {
    mean_value: 129
  }
  image_data_param {
    source: "../fer2013/list_train.txt"
    batch_size: 60
    shuffle: true
    new_height: 112
    new_width: 96
    is_color: true
    root_folder: "../fer2013/fer2013_ims/"
  }
}
layer {
  name: "conv1a"
  type: "Convolution"
  bottom: "data"
  top: "conv1a"
  param {
    lr_mult: 1
    decay_mult: 1
  }
  param {
    lr_mult: 2
    decay_mult: 0
  }
  convolution_param {
    num_output: 32
    kernel_size: 3
    stride: 1
    weight_filler {
      type: "xavier"
    }
    bias_filler {
      type: "constant"
      value: 0
    }
  }
}
layer {
  name: "relu1a"
  type: "PReLU"
  bottom: "conv1a"
  top: "conv1a"
}
layer {
  name: "conv1b"
  type: "Convolution"
  bottom: "conv1a"
  top: "conv1b"
  param {
    lr_mult: 1
    decay_mult: 1
  }
  param {
    lr_mult: 2
    decay_mult: 0
  }
  convolution_param {
    num_output: 64
    kernel_size: 3
    stride: 1
    weight_filler {
      type: "xavier"
    }
    bias_filler {
      type: "constant"
      value: 0
    }
  }
}
layer {
  name: "relu1b"
  type: "PReLU"
  bottom: "conv1b"
  top: "conv1b"
}
layer {
  name: "pool1b"
  type: "Pooling"
  bottom: "conv1b"
  top: "pool1b"
  pooling_param {
    pool: MAX
    kernel_size: 2
    stride: 2
  }
}
layer {
  name: "conv2_1"
  type: "Convolution"
  bottom: "pool1b"
  top: "conv2_1"
  param {
    lr_mult: 1
    decay_mult: 1
  }
  param {
    lr_mult: 0
    decay_mult: 0
  }
  convolution_param {
    num_output: 64
    pad: 1
    kernel_size: 3
    stride: 1
    weight_filler {
      type: "gaussian"
      std: 0.01
    }
    bias_filler {
      type: "constant"
      value: 0
    }
  }
}
layer {
  name: "relu2_1"
  type: "PReLU"
  bottom: "conv2_1"
  top: "conv2_1"
}
layer {
  name: "conv2_2"
  type: "Convolution"
  bottom: "conv2_1"
  top: "conv2_2"
  param {
    lr_mult: 1
    decay_mult: 1
  }
  param {
    lr_mult: 0
    decay_mult: 0
  }
  convolution_param {
    num_output: 64
    pad: 1
    kernel_size: 3
    stride: 1
    weight_filler {
      type: "gaussian"
      std: 0.01
    }
    bias_filler {
      type: "constant"
      value: 0
    }
  }
}
layer {
  name: "relu2_2"
  type: "PReLU"
  bottom: "conv2_2"
  top: "conv2_2"
}
layer {
  name: "res2_2"
  type: "Eltwise"
  bottom: "pool1b"
  bottom: "conv2_2"
  top: "res2_2"
  eltwise_param {
    operation: SUM
  }
}
layer {
  name: "conv2"
  type: "Convolution"
  bottom: "res2_2"
  top: "conv2"
  param {
    lr_mult: 1
    decay_mult: 1
  }
  param {
    lr_mult: 2
    decay_mult: 0
  }
  convolution_param {
    num_output: 128
    kernel_size: 3
    stride: 1
    weight_filler {
      type: "xavier"
    }
    bias_filler {
      type: "constant"
      value: 0
    }
  }
}
layer {
  name: "relu2"
  type: "PReLU"
  bottom: "conv2"
  top: "conv2"
}
layer {
  name: "pool2"
  type: "Pooling"
  bottom: "conv2"
  top: "pool2"
  pooling_param {
    pool: MAX
    kernel_size: 2
    stride: 2
  }
}
layer {
  name: "conv3_1"
  type: "Convolution"
  bottom: "pool2"
  top: "conv3_1"
  param {
    lr_mult: 1
    decay_mult: 1
  }
  param {
    lr_mult: 0
    decay_mult: 0
  }
  convolution_param {
    num_output: 128
    pad: 1
    kernel_size: 3
    stride: 1
    weight_filler {
      type: "gaussian"
      std: 0.01
    }
    bias_filler {
      type: "constant"
      value: 0
    }
  }
}
layer {
  name: "relu3_1"
  type: "PReLU"
  bottom: "conv3_1"
  top: "conv3_1"
}
layer {
  name: "conv3_2"
  type: "Convolution"
  bottom: "conv3_1"
  top: "conv3_2"
  param {
    lr_mult: 1
    decay_mult: 1
  }
  param {
    lr_mult: 0
    decay_mult: 0
  }
  convolution_param {
    num_output: 128
    pad: 1
    kernel_size: 3
    stride: 1
    weight_filler {
      type: "gaussian"
      std: 0.01
    }
    bias_filler {
      type: "constant"
      value: 0
    }
  }
}
layer {
  name: "relu3_2"
  type: "PReLU"
  bottom: "conv3_2"
  top: "conv3_2"
}
layer {
  name: "res3_2"
  type: "Eltwise"
  bottom: "pool2"
  bottom: "conv3_2"
  top: "res3_2"
  eltwise_param {
    operation: SUM
  }
}
layer {
  name: "conv3_3"
  type: "Convolution"
  bottom: "res3_2"
  top: "conv3_3"
  param {
    lr_mult: 1
    decay_mult: 1
  }
  param {
    lr_mult: 0
    decay_mult: 0
  }
  convolution_param {
    num_output: 128
    pad: 1
    kernel_size: 3
    stride: 1
    weight_filler {
      type: "gaussian"
      std: 0.01
    }
    bias_filler {
      type: "constant"
      value: 0
    }
  }
}
layer {
  name: "relu3_3"
  type: "PReLU"
  bottom: "conv3_3"
  top: "conv3_3"
}
layer {
  name: "conv3_4"
  type: "Convolution"
  bottom: "conv3_3"
  top: "conv3_4"
  param {
    lr_mult: 1
    decay_mult: 1
  }
  param {
    lr_mult: 0
    decay_mult: 0
  }
  convolution_param {
    num_output: 128
    pad: 1
    kernel_size: 3
    stride: 1
    weight_filler {
      type: "gaussian"
      std: 0.01
    }
    bias_filler {
      type: "constant"
      value: 0
    }
  }
}
layer {
  name: "relu3_4"
  type: "PReLU"
  bottom: "conv3_4"
  top: "conv3_4"
}
layer {
  name: "res3_4"
  type: "Eltwise"
  bottom: "res3_2"
  bottom: "conv3_4"
  top: "res3_4"
  eltwise_param {
    operation: SUM
  }
}
layer {
  name: "conv3"
  type: "Convolution"
  bottom: "res3_4"
  top: "conv3"
  param {
    lr_mult: 1
    decay_mult: 1
  }
  param {
    lr_mult: 2
    decay_mult: 0
  }
  convolution_param {
    num_output: 256
    kernel_size: 3
    stride: 1
    weight_filler {
      type: "xavier"
    }
    bias_filler {
      type: "constant"
      value: 0
    }
  }
}
layer {
  name: "relu3"
  type: "PReLU"
  bottom: "conv3"
  top: "conv3"
}
layer {
  name: "pool3"
  type: "Pooling"
  bottom: "conv3"
  top: "pool3"
  pooling_param {
    pool: MAX
    kernel_size: 2
    stride: 2
  }
}
layer {
  name: "conv4_1"
  type: "Convolution"
  bottom: "pool3"
  top: "conv4_1"
  param {
    lr_mult: 1
    decay_mult: 1
  }
  param {
    lr_mult: 0
    decay_mult: 0
  }
  convolution_param {
    num_output: 256
    pad: 1
    kernel_size: 3
    stride: 1
    weight_filler {
      type: "gaussian"
      std: 0.01
    }
    bias_filler {
      type: "constant"
      value: 0
    }
  }
}
layer {
  name: "relu4_1"
  type: "PReLU"
  bottom: "conv4_1"
  top: "conv4_1"
}
layer {
  name: "conv4_2"
  type: "Convolution"
  bottom: "conv4_1"
  top: "conv4_2"
  param {
    lr_mult: 1
    decay_mult: 1
  }
  param {
    lr_mult: 0
    decay_mult: 0
  }
  convolution_param {
    num_output: 256
    pad: 1
    kernel_size: 3
    stride: 1
    weight_filler {
      type: "gaussian"
      std: 0.01
    }
    bias_filler {
      type: "constant"
      value: 0
    }
  }
}
layer {
  name: "relu4_2"
  type: "PReLU"
  bottom: "conv4_2"
  top: "conv4_2"
}
layer {
  name: "res4_2"
  type: "Eltwise"
  bottom: "pool3"
  bottom: "conv4_2"
  top: "res4_2"
  eltwise_param {
    operation: SUM
  }
}
layer {
  name: "conv4_3"
  type: "Convolution"
  bottom: "res4_2"
  top: "conv4_3"
  param {
    lr_mult: 1
    decay_mult: 1
  }
  param {
    lr_mult: 0
    decay_mult: 0
  }
  convolution_param {
    num_output: 256
    pad: 1
    kernel_size: 3
    stride: 1
    weight_filler {
      type: "gaussian"
      std: 0.01
    }
    bias_filler {
      type: "constant"
      value: 0
    }
  }
}
layer {
  name: "relu4_3"
  type: "PReLU"
  bottom: "conv4_3"
  top: "conv4_3"
}
layer {
  name: "conv4_4"
  type: "Convolution"
  bottom: "conv4_3"
  top: "conv4_4"
  param {
    lr_mult: 1
    decay_mult: 1
  }
  param {
    lr_mult: 0
    decay_mult: 0
  }
  convolution_param {
    num_output: 256
    pad: 1
    kernel_size: 3
    stride: 1
    weight_filler {
      type: "gaussian"
      std: 0.01
    }
    bias_filler {
      type: "constant"
      value: 0
    }
  }
}
layer {
  name: "relu4_4"
  type: "PReLU"
  bottom: "conv4_4"
  top: "conv4_4"
}
layer {
  name: "res4_4"
  type: "Eltwise"
  bottom: "res4_2"
  bottom: "conv4_4"
  top: "res4_4"
  eltwise_param {
    operation: SUM
  }
}
layer {
  name: "conv4_5"
  type: "Convolution"
  bottom: "res4_4"
  top: "conv4_5"
  param {
    lr_mult: 1
    decay_mult: 1
  }
  param {
    lr_mult: 0
    decay_mult: 0
  }
  convolution_param {
    num_output: 256
    pad: 1
    kernel_size: 3
    stride: 1
    weight_filler {
      type: "gaussian"
      std: 0.01
    }
    bias_filler {
      type: "constant"
      value: 0
    }
  }
}
layer {
  name: "relu4_5"
  type: "PReLU"
  bottom: "conv4_5"
  top: "conv4_5"
}
layer {
  name: "conv4_6"
  type: "Convolution"
  bottom: "conv4_5"
  top: "conv4_6"
  param {
    lr_mult: 1
    decay_mult: 1
  }
  param {
    lr_mult: 0
    decay_mult: 0
  }
  convolution_param {
    num_output: 256
    pad: 1
    kernel_size: 3
    stride: 1
    weight_filler {
      type: "gaussian"
      std: 0.01
    }
    bias_filler {
      type: "constant"
      value: 0
    }
  }
}
layer {
  name: "relu4_6"
  type: "PReLU"
  bottom: "conv4_6"
  top: "conv4_6"
}
layer {
  name: "res4_6"
  type: "Eltwise"
  bottom: "res4_4"
  bottom: "conv4_6"
  top: "res4_6"
  eltwise_param {
    operation: SUM
  }
}
layer {
  name: "conv4_7"
  type: "Convolution"
  bottom: "res4_6"
  top: "conv4_7"
  param {
    lr_mult: 1
    decay_mult: 1
  }
  param {
    lr_mult: 0
    decay_mult: 0
  }
  convolution_param {
    num_output: 256
    pad: 1
    kernel_size: 3
    stride: 1
    weight_filler {
      type: "gaussian"
      std: 0.01
    }
    bias_filler {
      type: "constant"
      value: 0
    }
  }
}
layer {
  name: "relu4_7"
  type: "PReLU"
  bottom: "conv4_7"
  top: "conv4_7"
}
layer {
  name: "conv4_8"
  type: "Convolution"
  bottom: "conv4_7"
  top: "conv4_8"
  param {
    lr_mult: 1
    decay_mult: 1
  }
  param {
    lr_mult: 0
    decay_mult: 0
  }
  convolution_param {
    num_output: 256
    pad: 1
    kernel_size: 3
    stride: 1
    weight_filler {
      type: "gaussian"
      std: 0.01
    }
    bias_filler {
      type: "constant"
      value: 0
    }
  }
}
layer {
  name: "relu4_8"
  type: "PReLU"
  bottom: "conv4_8"
  top: "conv4_8"
}
layer {
  name: "res4_8"
  type: "Eltwise"
  bottom: "res4_6"
  bottom: "conv4_8"
  top: "res4_8"
  eltwise_param {
    operation: SUM
  }
}
layer {
  name: "conv4_9"
  type: "Convolution"
  bottom: "res4_8"
  top: "conv4_9"
  param {
    lr_mult: 1
    decay_mult: 1
  }
  param {
    lr_mult: 0
    decay_mult: 0
  }
  convolution_param {
    num_output: 256
    pad: 1
    kernel_size: 3
    stride: 1
    weight_filler {
      type: "gaussian"
      std: 0.01
    }
    bias_filler {
      type: "constant"
      value: 0
    }
  }
}
layer {
  name: "relu4_9"
  type: "PReLU"
  bottom: "conv4_9"
  top: "conv4_9"
}
layer {
  name: "conv4_10"
  type: "Convolution"
  bottom: "conv4_9"
  top: "conv4_10"
  param {
    lr_mult: 1
    decay_mult: 1
  }
  param {
    lr_mult: 0
    decay_mult: 0
  }
  convolution_param {
    num_output: 256
    pad: 1
    kernel_size: 3
    stride: 1
    weight_filler {
      type: "gaussian"
      std: 0.01
    }
    bias_filler {
      type: "constant"
      value: 0
    }
  }
}
layer {
  name: "relu4_10"
  type: "PReLU"
  bottom: "conv4_10"
  top: "conv4_10"
}
layer {
  name: "res4_10"
  type: "Eltwise"
  bottom: "res4_8"
  bottom: "conv4_10"
  top: "res4_10"
  eltwise_param {
    operation: SUM
  }
}
layer {
  name: "conv4"
  type: "Convolution"
  bottom: "res4_10"
  top: "conv4"
  param {
    lr_mult: 1
    decay_mult: 1
  }
  param {
    lr_mult: 2
    decay_mult: 0
  }
  convolution_param {
    num_output: 512
    kernel_size: 3
    stride: 1
    weight_filler {
      type: "xavier"
    }
    bias_filler {
      type: "constant"
      value: 0
    }
  }
}
layer {
  name: "relu4"
  type: "PReLU"
  bottom: "conv4"
  top: "conv4"
}
layer {
  name: "pool4"
  type: "Pooling"
  bottom: "conv4"
  top: "pool4"
  pooling_param {
    pool: MAX
    kernel_size: 2
    stride: 2
  }
}
layer {
  name: "conv5_1"
  type: "Convolution"
  bottom: "pool4"
  top: "conv5_1"
  param {
    lr_mult: 1
    decay_mult: 1
  }
  param {
    lr_mult: 0
    decay_mult: 0
  }
  convolution_param {
    num_output: 512
    pad: 1
    kernel_size: 3
    stride: 1
    weight_filler {
      type: "gaussian"
      std: 0.01
    }
    bias_filler {
      type: "constant"
      value: 0
    }
  }
}
layer {
  name: "relu5_1"
  type: "PReLU"
  bottom: "conv5_1"
  top: "conv5_1"
}
layer {
  name: "conv5_2"
  type: "Convolution"
  bottom: "conv5_1"
  top: "conv5_2"
  param {
    lr_mult: 1
    decay_mult: 1
  }
  param {
    lr_mult: 0
    decay_mult: 0
  }
  convolution_param {
    num_output: 512
    pad: 1
    kernel_size: 3
    stride: 1
    weight_filler {
      type: "gaussian"
      std: 0.01
    }
    bias_filler {
      type: "constant"
      value: 0
    }
  }
}
layer {
  name: "relu5_2"
  type: "PReLU"
  bottom: "conv5_2"
  top: "conv5_2"
}
layer {
  name: "res5_2"
  type: "Eltwise"
  bottom: "pool4"
  bottom: "conv5_2"
  top: "res5_2"
  eltwise_param {
    operation: SUM
  }
}
layer {
  name: "conv5_3"
  type: "Convolution"
  bottom: "res5_2"
  top: "conv5_3"
  param {
    lr_mult: 1
    decay_mult: 1
  }
  param {
    lr_mult: 0
    decay_mult: 0
  }
  convolution_param {
    num_output: 512
    pad: 1
    kernel_size: 3
    stride: 1
    weight_filler {
      type: "gaussian"
      std: 0.01
    }
    bias_filler {
      type: "constant"
      value: 0
    }
  }
}
layer {
  name: "relu5_3"
  type: "PReLU"
  bottom: "conv5_3"
  top: "conv5_3"
}
layer {
  name: "conv5_4"
  type: "Convolution"
  bottom: "conv5_3"
  top: "conv5_4"
  param {
    lr_mult: 1
    decay_mult: 1
  }
  param {
    lr_mult: 0
    decay_mult: 0
  }
  convolution_param {
    num_output: 512
    pad: 1
    kernel_size: 3
    stride: 1
    weight_filler {
      type: "gaussian"
      std: 0.01
    }
    bias_filler {
      type: "constant"
      value: 0
    }
  }
}
layer {
  name: "relu5_4"
  type: "PReLU"
  bottom: "conv5_4"
  top: "conv5_4"
}
layer {
  name: "res5_4"
  type: "Eltwise"
  bottom: "res5_2"
  bottom: "conv5_4"
  top: "res5_4"
  eltwise_param {
    operation: SUM
  }
}
layer {
  name: "conv5_5"
  type: "Convolution"
  bottom: "res5_4"
  top: "conv5_5"
  param {
    lr_mult: 1
    decay_mult: 1
  }
  param {
    lr_mult: 0
    decay_mult: 0
  }
  convolution_param {
    num_output: 512
    pad: 1
    kernel_size: 3
    stride: 1
    weight_filler {
      type: "gaussian"
      std: 0.01
    }
    bias_filler {
      type: "constant"
      value: 0
    }
  }
}
layer {
  name: "relu5_5"
  type: "PReLU"
  bottom: "conv5_5"
  top: "conv5_5"
}
layer {
  name: "conv5_6"
  type: "Convolution"
  bottom: "conv5_5"
  top: "conv5_6"
  param {
    lr_mult: 1
    decay_mult: 1
  }
  param {
    lr_mult: 0
    decay_mult: 0
  }
  convolution_param {
    num_output: 512
    pad: 1
    kernel_size: 3
    stride: 1
    weight_filler {
      type: "gaussian"
      std: 0.01
    }
    bias_filler {
      type: "constant"
      value: 0
    }
  }
}
layer {
  name: "relu5_6"
  type: "PReLU"
  bottom: "conv5_6"
  top: "conv5_6"
}
layer {
  name: "res5_6"
  type: "Eltwise"
  bottom: "res5_4"
  bottom: "conv5_6"
  top: "res5_6"
  eltwise_param {
    operation: SUM
  }
}
layer {
  name: "fc5"
  type: "InnerProduct"
  bottom: "res5_6"
  top: "fc5"
  param {
    lr_mult: 1
    decay_mult: 1
  }
  param {
    lr_mult: 2
    decay_mult: 0
  }
  inner_product_param {
    num_output: 512
    weight_filler {
      type: "xavier"
    }
    bias_filler {
      type: "constant"
      value: 0
    }
  }
}
layer {
  name: "fc_add"
  type: "InnerProduct"
  bottom: "fc5"
  top: "fc_add"
  param {
    lr_mult: 1
    decay_mult: 1
  }
  param {
    lr_mult: 2
    decay_mult: 0
  }
  inner_product_param {
    num_output: 7
    weight_filler {
      type: "xavier"
    }
    bias_filler {
      type: "constant"
      value: 0
    }
  }
}
layer {
  name: "loss"
  type: "SoftmaxWithLoss"
  bottom: "fc_add"
  bottom: "label"
}
I1214 22:59:43.003715  5284 layer_factory.hpp:77] Creating layer data_train
I1214 22:59:43.003821  5284 net.cpp:100] Creating Layer data_train
I1214 22:59:43.003860  5284 net.cpp:408] data_train -> data
I1214 22:59:43.003924  5284 net.cpp:408] data_train -> label
I1214 22:59:43.003978  5284 image_data_layer.cpp:38] Opening file ../fer2013/list_train.txt
I1214 22:59:43.015290  5284 image_data_layer.cpp:53] Shuffling data
I1214 22:59:43.018852  5284 image_data_layer.cpp:58] A total of 35887 images.
I1214 22:59:43.039876  5284 image_data_layer.cpp:85] output data size: 60,3,112,96
I1214 22:59:43.060899  5284 net.cpp:150] Setting up data_train
I1214 22:59:43.060977  5284 net.cpp:157] Top shape: 60 3 112 96 (1935360)
I1214 22:59:43.060997  5284 net.cpp:157] Top shape: 60 (60)
I1214 22:59:43.061017  5284 net.cpp:165] Memory required for data: 7741680
I1214 22:59:43.061038  5284 layer_factory.hpp:77] Creating layer conv1a
I1214 22:59:43.061094  5284 net.cpp:100] Creating Layer conv1a
I1214 22:59:43.061115  5284 net.cpp:434] conv1a <- data
I1214 22:59:43.061149  5284 net.cpp:408] conv1a -> conv1a
I1214 22:59:43.063190  5284 net.cpp:150] Setting up conv1a
I1214 22:59:43.063223  5284 net.cpp:157] Top shape: 60 32 110 94 (19852800)
I1214 22:59:43.063238  5284 net.cpp:165] Memory required for data: 87152880
I1214 22:59:43.063278  5284 layer_factory.hpp:77] Creating layer relu1a
I1214 22:59:43.063302  5284 net.cpp:100] Creating Layer relu1a
I1214 22:59:43.063318  5284 net.cpp:434] relu1a <- conv1a
I1214 22:59:43.063339  5284 net.cpp:395] relu1a -> conv1a (in-place)
I1214 22:59:43.065433  5284 net.cpp:150] Setting up relu1a
I1214 22:59:43.065476  5284 net.cpp:157] Top shape: 60 32 110 94 (19852800)
I1214 22:59:43.065485  5284 net.cpp:165] Memory required for data: 166564080
I1214 22:59:43.065503  5284 layer_factory.hpp:77] Creating layer conv1b
I1214 22:59:43.065531  5284 net.cpp:100] Creating Layer conv1b
I1214 22:59:43.065541  5284 net.cpp:434] conv1b <- conv1a
I1214 22:59:43.065554  5284 net.cpp:408] conv1b -> conv1b
I1214 22:59:43.067508  5284 net.cpp:150] Setting up conv1b
I1214 22:59:43.067545  5284 net.cpp:157] Top shape: 60 64 108 92 (38154240)
I1214 22:59:43.067559  5284 net.cpp:165] Memory required for data: 319181040
I1214 22:59:43.067587  5284 layer_factory.hpp:77] Creating layer relu1b
I1214 22:59:43.067618  5284 net.cpp:100] Creating Layer relu1b
I1214 22:59:43.067633  5284 net.cpp:434] relu1b <- conv1b
I1214 22:59:43.067652  5284 net.cpp:395] relu1b -> conv1b (in-place)
I1214 22:59:43.070436  5284 net.cpp:150] Setting up relu1b
I1214 22:59:43.070477  5284 net.cpp:157] Top shape: 60 64 108 92 (38154240)
I1214 22:59:43.070492  5284 net.cpp:165] Memory required for data: 471798000
I1214 22:59:43.070509  5284 layer_factory.hpp:77] Creating layer pool1b
I1214 22:59:43.070530  5284 net.cpp:100] Creating Layer pool1b
I1214 22:59:43.070545  5284 net.cpp:434] pool1b <- conv1b
I1214 22:59:43.070569  5284 net.cpp:408] pool1b -> pool1b
I1214 22:59:43.070655  5284 net.cpp:150] Setting up pool1b
I1214 22:59:43.070688  5284 net.cpp:157] Top shape: 60 64 54 46 (9538560)
I1214 22:59:43.070704  5284 net.cpp:165] Memory required for data: 509952240
I1214 22:59:43.070719  5284 layer_factory.hpp:77] Creating layer pool1b_pool1b_0_split
I1214 22:59:43.070737  5284 net.cpp:100] Creating Layer pool1b_pool1b_0_split
I1214 22:59:43.070751  5284 net.cpp:434] pool1b_pool1b_0_split <- pool1b
I1214 22:59:43.070772  5284 net.cpp:408] pool1b_pool1b_0_split -> pool1b_pool1b_0_split_0
I1214 22:59:43.070811  5284 net.cpp:408] pool1b_pool1b_0_split -> pool1b_pool1b_0_split_1
I1214 22:59:43.070904  5284 net.cpp:150] Setting up pool1b_pool1b_0_split
I1214 22:59:43.070960  5284 net.cpp:157] Top shape: 60 64 54 46 (9538560)
I1214 22:59:43.070988  5284 net.cpp:157] Top shape: 60 64 54 46 (9538560)
I1214 22:59:43.071010  5284 net.cpp:165] Memory required for data: 586260720
I1214 22:59:43.071033  5284 layer_factory.hpp:77] Creating layer conv2_1
I1214 22:59:43.071081  5284 net.cpp:100] Creating Layer conv2_1
I1214 22:59:43.071102  5284 net.cpp:434] conv2_1 <- pool1b_pool1b_0_split_0
I1214 22:59:43.071123  5284 net.cpp:408] conv2_1 -> conv2_1
I1214 22:59:43.073906  5284 net.cpp:150] Setting up conv2_1
I1214 22:59:43.073956  5284 net.cpp:157] Top shape: 60 64 54 46 (9538560)
I1214 22:59:43.073983  5284 net.cpp:165] Memory required for data: 624414960
I1214 22:59:43.074018  5284 layer_factory.hpp:77] Creating layer relu2_1
I1214 22:59:43.074064  5284 net.cpp:100] Creating Layer relu2_1
I1214 22:59:43.074092  5284 net.cpp:434] relu2_1 <- conv2_1
I1214 22:59:43.074123  5284 net.cpp:395] relu2_1 -> conv2_1 (in-place)
I1214 22:59:43.075691  5284 net.cpp:150] Setting up relu2_1
I1214 22:59:43.075744  5284 net.cpp:157] Top shape: 60 64 54 46 (9538560)
I1214 22:59:43.075773  5284 net.cpp:165] Memory required for data: 662569200
I1214 22:59:43.075809  5284 layer_factory.hpp:77] Creating layer conv2_2
I1214 22:59:43.075860  5284 net.cpp:100] Creating Layer conv2_2
I1214 22:59:43.075891  5284 net.cpp:434] conv2_2 <- conv2_1
I1214 22:59:43.075932  5284 net.cpp:408] conv2_2 -> conv2_2
I1214 22:59:43.077399  5284 net.cpp:150] Setting up conv2_2
I1214 22:59:43.077445  5284 net.cpp:157] Top shape: 60 64 54 46 (9538560)
I1214 22:59:43.077482  5284 net.cpp:165] Memory required for data: 700723440
I1214 22:59:43.077517  5284 layer_factory.hpp:77] Creating layer relu2_2
I1214 22:59:43.077550  5284 net.cpp:100] Creating Layer relu2_2
I1214 22:59:43.077584  5284 net.cpp:434] relu2_2 <- conv2_2
I1214 22:59:43.077612  5284 net.cpp:395] relu2_2 -> conv2_2 (in-place)
I1214 22:59:43.079219  5284 net.cpp:150] Setting up relu2_2
I1214 22:59:43.079272  5284 net.cpp:157] Top shape: 60 64 54 46 (9538560)
I1214 22:59:43.079298  5284 net.cpp:165] Memory required for data: 738877680
I1214 22:59:43.079329  5284 layer_factory.hpp:77] Creating layer res2_2
I1214 22:59:43.079365  5284 net.cpp:100] Creating Layer res2_2
I1214 22:59:43.079393  5284 net.cpp:434] res2_2 <- pool1b_pool1b_0_split_1
I1214 22:59:43.079421  5284 net.cpp:434] res2_2 <- conv2_2
I1214 22:59:43.079452  5284 net.cpp:408] res2_2 -> res2_2
I1214 22:59:43.079538  5284 net.cpp:150] Setting up res2_2
I1214 22:59:43.079574  5284 net.cpp:157] Top shape: 60 64 54 46 (9538560)
I1214 22:59:43.079598  5284 net.cpp:165] Memory required for data: 777031920
I1214 22:59:43.079619  5284 layer_factory.hpp:77] Creating layer conv2
I1214 22:59:43.079666  5284 net.cpp:100] Creating Layer conv2
I1214 22:59:43.079694  5284 net.cpp:434] conv2 <- res2_2
I1214 22:59:43.079732  5284 net.cpp:408] conv2 -> conv2
I1214 22:59:43.081073  5284 net.cpp:150] Setting up conv2
I1214 22:59:43.081107  5284 net.cpp:157] Top shape: 60 128 52 44 (17571840)
I1214 22:59:43.081123  5284 net.cpp:165] Memory required for data: 847319280
I1214 22:59:43.081145  5284 layer_factory.hpp:77] Creating layer relu2
I1214 22:59:43.081162  5284 net.cpp:100] Creating Layer relu2
I1214 22:59:43.081176  5284 net.cpp:434] relu2 <- conv2
I1214 22:59:43.081202  5284 net.cpp:395] relu2 -> conv2 (in-place)
I1214 22:59:43.082487  5284 net.cpp:150] Setting up relu2
I1214 22:59:43.082520  5284 net.cpp:157] Top shape: 60 128 52 44 (17571840)
I1214 22:59:43.082535  5284 net.cpp:165] Memory required for data: 917606640
I1214 22:59:43.082552  5284 layer_factory.hpp:77] Creating layer pool2
I1214 22:59:43.082572  5284 net.cpp:100] Creating Layer pool2
I1214 22:59:43.082587  5284 net.cpp:434] pool2 <- conv2
I1214 22:59:43.082608  5284 net.cpp:408] pool2 -> pool2
I1214 22:59:43.082682  5284 net.cpp:150] Setting up pool2
I1214 22:59:43.082706  5284 net.cpp:157] Top shape: 60 128 26 22 (4392960)
I1214 22:59:43.082720  5284 net.cpp:165] Memory required for data: 935178480
I1214 22:59:43.082746  5284 layer_factory.hpp:77] Creating layer pool2_pool2_0_split
I1214 22:59:43.082769  5284 net.cpp:100] Creating Layer pool2_pool2_0_split
I1214 22:59:43.082785  5284 net.cpp:434] pool2_pool2_0_split <- pool2
I1214 22:59:43.082805  5284 net.cpp:408] pool2_pool2_0_split -> pool2_pool2_0_split_0
I1214 22:59:43.082833  5284 net.cpp:408] pool2_pool2_0_split -> pool2_pool2_0_split_1
I1214 22:59:43.082892  5284 net.cpp:150] Setting up pool2_pool2_0_split
I1214 22:59:43.082919  5284 net.cpp:157] Top shape: 60 128 26 22 (4392960)
I1214 22:59:43.082937  5284 net.cpp:157] Top shape: 60 128 26 22 (4392960)
I1214 22:59:43.082950  5284 net.cpp:165] Memory required for data: 970322160
I1214 22:59:43.082963  5284 layer_factory.hpp:77] Creating layer conv3_1
I1214 22:59:43.082994  5284 net.cpp:100] Creating Layer conv3_1
I1214 22:59:43.083011  5284 net.cpp:434] conv3_1 <- pool2_pool2_0_split_0
I1214 22:59:43.083030  5284 net.cpp:408] conv3_1 -> conv3_1
I1214 22:59:43.086474  5284 net.cpp:150] Setting up conv3_1
I1214 22:59:43.086509  5284 net.cpp:157] Top shape: 60 128 26 22 (4392960)
I1214 22:59:43.086524  5284 net.cpp:165] Memory required for data: 987894000
I1214 22:59:43.086552  5284 layer_factory.hpp:77] Creating layer relu3_1
I1214 22:59:43.086572  5284 net.cpp:100] Creating Layer relu3_1
I1214 22:59:43.086586  5284 net.cpp:434] relu3_1 <- conv3_1
I1214 22:59:43.086607  5284 net.cpp:395] relu3_1 -> conv3_1 (in-place)
I1214 22:59:43.086794  5284 net.cpp:150] Setting up relu3_1
I1214 22:59:43.086820  5284 net.cpp:157] Top shape: 60 128 26 22 (4392960)
I1214 22:59:43.086833  5284 net.cpp:165] Memory required for data: 1005465840
I1214 22:59:43.086849  5284 layer_factory.hpp:77] Creating layer conv3_2
I1214 22:59:43.086876  5284 net.cpp:100] Creating Layer conv3_2
I1214 22:59:43.086891  5284 net.cpp:434] conv3_2 <- conv3_1
I1214 22:59:43.086927  5284 net.cpp:408] conv3_2 -> conv3_2
I1214 22:59:43.090497  5284 net.cpp:150] Setting up conv3_2
I1214 22:59:43.090533  5284 net.cpp:157] Top shape: 60 128 26 22 (4392960)
I1214 22:59:43.090548  5284 net.cpp:165] Memory required for data: 1023037680
I1214 22:59:43.090565  5284 layer_factory.hpp:77] Creating layer relu3_2
I1214 22:59:43.090589  5284 net.cpp:100] Creating Layer relu3_2
I1214 22:59:43.090605  5284 net.cpp:434] relu3_2 <- conv3_2
I1214 22:59:43.090622  5284 net.cpp:395] relu3_2 -> conv3_2 (in-place)
I1214 22:59:43.090822  5284 net.cpp:150] Setting up relu3_2
I1214 22:59:43.090847  5284 net.cpp:157] Top shape: 60 128 26 22 (4392960)
I1214 22:59:43.090860  5284 net.cpp:165] Memory required for data: 1040609520
I1214 22:59:43.090876  5284 layer_factory.hpp:77] Creating layer res3_2
I1214 22:59:43.090895  5284 net.cpp:100] Creating Layer res3_2
I1214 22:59:43.090919  5284 net.cpp:434] res3_2 <- pool2_pool2_0_split_1
I1214 22:59:43.090934  5284 net.cpp:434] res3_2 <- conv3_2
I1214 22:59:43.090955  5284 net.cpp:408] res3_2 -> res3_2
I1214 22:59:43.091011  5284 net.cpp:150] Setting up res3_2
I1214 22:59:43.091034  5284 net.cpp:157] Top shape: 60 128 26 22 (4392960)
I1214 22:59:43.091048  5284 net.cpp:165] Memory required for data: 1058181360
I1214 22:59:43.091061  5284 layer_factory.hpp:77] Creating layer res3_2_res3_2_0_split
I1214 22:59:43.091079  5284 net.cpp:100] Creating Layer res3_2_res3_2_0_split
I1214 22:59:43.091092  5284 net.cpp:434] res3_2_res3_2_0_split <- res3_2
I1214 22:59:43.091117  5284 net.cpp:408] res3_2_res3_2_0_split -> res3_2_res3_2_0_split_0
I1214 22:59:43.091140  5284 net.cpp:408] res3_2_res3_2_0_split -> res3_2_res3_2_0_split_1
I1214 22:59:43.091215  5284 net.cpp:150] Setting up res3_2_res3_2_0_split
I1214 22:59:43.091239  5284 net.cpp:157] Top shape: 60 128 26 22 (4392960)
I1214 22:59:43.091254  5284 net.cpp:157] Top shape: 60 128 26 22 (4392960)
I1214 22:59:43.091267  5284 net.cpp:165] Memory required for data: 1093325040
I1214 22:59:43.091279  5284 layer_factory.hpp:77] Creating layer conv3_3
I1214 22:59:43.091306  5284 net.cpp:100] Creating Layer conv3_3
I1214 22:59:43.091322  5284 net.cpp:434] conv3_3 <- res3_2_res3_2_0_split_0
I1214 22:59:43.091361  5284 net.cpp:408] conv3_3 -> conv3_3
I1214 22:59:43.094808  5284 net.cpp:150] Setting up conv3_3
I1214 22:59:43.094843  5284 net.cpp:157] Top shape: 60 128 26 22 (4392960)
I1214 22:59:43.094859  5284 net.cpp:165] Memory required for data: 1110896880
I1214 22:59:43.094877  5284 layer_factory.hpp:77] Creating layer relu3_3
I1214 22:59:43.094900  5284 net.cpp:100] Creating Layer relu3_3
I1214 22:59:43.094916  5284 net.cpp:434] relu3_3 <- conv3_3
I1214 22:59:43.094933  5284 net.cpp:395] relu3_3 -> conv3_3 (in-place)
I1214 22:59:43.095146  5284 net.cpp:150] Setting up relu3_3
I1214 22:59:43.095173  5284 net.cpp:157] Top shape: 60 128 26 22 (4392960)
I1214 22:59:43.095193  5284 net.cpp:165] Memory required for data: 1128468720
I1214 22:59:43.095211  5284 layer_factory.hpp:77] Creating layer conv3_4
I1214 22:59:43.095237  5284 net.cpp:100] Creating Layer conv3_4
I1214 22:59:43.095253  5284 net.cpp:434] conv3_4 <- conv3_3
I1214 22:59:43.095278  5284 net.cpp:408] conv3_4 -> conv3_4
I1214 22:59:43.098692  5284 net.cpp:150] Setting up conv3_4
I1214 22:59:43.098726  5284 net.cpp:157] Top shape: 60 128 26 22 (4392960)
I1214 22:59:43.098742  5284 net.cpp:165] Memory required for data: 1146040560
I1214 22:59:43.098762  5284 layer_factory.hpp:77] Creating layer relu3_4
I1214 22:59:43.098784  5284 net.cpp:100] Creating Layer relu3_4
I1214 22:59:43.098799  5284 net.cpp:434] relu3_4 <- conv3_4
I1214 22:59:43.098815  5284 net.cpp:395] relu3_4 -> conv3_4 (in-place)
I1214 22:59:43.098996  5284 net.cpp:150] Setting up relu3_4
I1214 22:59:43.099025  5284 net.cpp:157] Top shape: 60 128 26 22 (4392960)
I1214 22:59:43.099042  5284 net.cpp:165] Memory required for data: 1163612400
I1214 22:59:43.099061  5284 layer_factory.hpp:77] Creating layer res3_4
I1214 22:59:43.099082  5284 net.cpp:100] Creating Layer res3_4
I1214 22:59:43.099098  5284 net.cpp:434] res3_4 <- res3_2_res3_2_0_split_1
I1214 22:59:43.099113  5284 net.cpp:434] res3_4 <- conv3_4
I1214 22:59:43.099129  5284 net.cpp:408] res3_4 -> res3_4
I1214 22:59:43.099189  5284 net.cpp:150] Setting up res3_4
I1214 22:59:43.099211  5284 net.cpp:157] Top shape: 60 128 26 22 (4392960)
I1214 22:59:43.099225  5284 net.cpp:165] Memory required for data: 1181184240
I1214 22:59:43.099237  5284 layer_factory.hpp:77] Creating layer conv3
I1214 22:59:43.099273  5284 net.cpp:100] Creating Layer conv3
I1214 22:59:43.099290  5284 net.cpp:434] conv3 <- res3_4
I1214 22:59:43.099314  5284 net.cpp:408] conv3 -> conv3
I1214 22:59:43.103140  5284 net.cpp:150] Setting up conv3
I1214 22:59:43.103176  5284 net.cpp:157] Top shape: 60 256 24 20 (7372800)
I1214 22:59:43.103205  5284 net.cpp:165] Memory required for data: 1210675440
I1214 22:59:43.103224  5284 layer_factory.hpp:77] Creating layer relu3
I1214 22:59:43.103242  5284 net.cpp:100] Creating Layer relu3
I1214 22:59:43.103255  5284 net.cpp:434] relu3 <- conv3
I1214 22:59:43.103271  5284 net.cpp:395] relu3 -> conv3 (in-place)
I1214 22:59:43.104434  5284 net.cpp:150] Setting up relu3
I1214 22:59:43.104465  5284 net.cpp:157] Top shape: 60 256 24 20 (7372800)
I1214 22:59:43.104485  5284 net.cpp:165] Memory required for data: 1240166640
I1214 22:59:43.104503  5284 layer_factory.hpp:77] Creating layer pool3
I1214 22:59:43.104527  5284 net.cpp:100] Creating Layer pool3
I1214 22:59:43.104542  5284 net.cpp:434] pool3 <- conv3
I1214 22:59:43.104560  5284 net.cpp:408] pool3 -> pool3
I1214 22:59:43.104631  5284 net.cpp:150] Setting up pool3
I1214 22:59:43.104653  5284 net.cpp:157] Top shape: 60 256 12 10 (1843200)
I1214 22:59:43.104666  5284 net.cpp:165] Memory required for data: 1247539440
I1214 22:59:43.104678  5284 layer_factory.hpp:77] Creating layer pool3_pool3_0_split
I1214 22:59:43.104696  5284 net.cpp:100] Creating Layer pool3_pool3_0_split
I1214 22:59:43.104709  5284 net.cpp:434] pool3_pool3_0_split <- pool3
I1214 22:59:43.104730  5284 net.cpp:408] pool3_pool3_0_split -> pool3_pool3_0_split_0
I1214 22:59:43.104761  5284 net.cpp:408] pool3_pool3_0_split -> pool3_pool3_0_split_1
I1214 22:59:43.104835  5284 net.cpp:150] Setting up pool3_pool3_0_split
I1214 22:59:43.104867  5284 net.cpp:157] Top shape: 60 256 12 10 (1843200)
I1214 22:59:43.104893  5284 net.cpp:157] Top shape: 60 256 12 10 (1843200)
I1214 22:59:43.104907  5284 net.cpp:165] Memory required for data: 1262285040
I1214 22:59:43.104918  5284 layer_factory.hpp:77] Creating layer conv4_1
I1214 22:59:43.104945  5284 net.cpp:100] Creating Layer conv4_1
I1214 22:59:43.104961  5284 net.cpp:434] conv4_1 <- pool3_pool3_0_split_0
I1214 22:59:43.104985  5284 net.cpp:408] conv4_1 -> conv4_1
I1214 22:59:43.116082  5284 net.cpp:150] Setting up conv4_1
I1214 22:59:43.116123  5284 net.cpp:157] Top shape: 60 256 12 10 (1843200)
I1214 22:59:43.116140  5284 net.cpp:165] Memory required for data: 1269657840
I1214 22:59:43.116159  5284 layer_factory.hpp:77] Creating layer relu4_1
I1214 22:59:43.116202  5284 net.cpp:100] Creating Layer relu4_1
I1214 22:59:43.116221  5284 net.cpp:434] relu4_1 <- conv4_1
I1214 22:59:43.116238  5284 net.cpp:395] relu4_1 -> conv4_1 (in-place)
I1214 22:59:43.116408  5284 net.cpp:150] Setting up relu4_1
I1214 22:59:43.116437  5284 net.cpp:157] Top shape: 60 256 12 10 (1843200)
I1214 22:59:43.116451  5284 net.cpp:165] Memory required for data: 1277030640
I1214 22:59:43.116485  5284 layer_factory.hpp:77] Creating layer conv4_2
I1214 22:59:43.116525  5284 net.cpp:100] Creating Layer conv4_2
I1214 22:59:43.116541  5284 net.cpp:434] conv4_2 <- conv4_1
I1214 22:59:43.116560  5284 net.cpp:408] conv4_2 -> conv4_2
I1214 22:59:43.127619  5284 net.cpp:150] Setting up conv4_2
I1214 22:59:43.127653  5284 net.cpp:157] Top shape: 60 256 12 10 (1843200)
I1214 22:59:43.127668  5284 net.cpp:165] Memory required for data: 1284403440
I1214 22:59:43.127688  5284 layer_factory.hpp:77] Creating layer relu4_2
I1214 22:59:43.127707  5284 net.cpp:100] Creating Layer relu4_2
I1214 22:59:43.127722  5284 net.cpp:434] relu4_2 <- conv4_2
I1214 22:59:43.127743  5284 net.cpp:395] relu4_2 -> conv4_2 (in-place)
I1214 22:59:43.127912  5284 net.cpp:150] Setting up relu4_2
I1214 22:59:43.127936  5284 net.cpp:157] Top shape: 60 256 12 10 (1843200)
I1214 22:59:43.127949  5284 net.cpp:165] Memory required for data: 1291776240
I1214 22:59:43.127965  5284 layer_factory.hpp:77] Creating layer res4_2
I1214 22:59:43.127985  5284 net.cpp:100] Creating Layer res4_2
I1214 22:59:43.128000  5284 net.cpp:434] res4_2 <- pool3_pool3_0_split_1
I1214 22:59:43.128015  5284 net.cpp:434] res4_2 <- conv4_2
I1214 22:59:43.128036  5284 net.cpp:408] res4_2 -> res4_2
I1214 22:59:43.128087  5284 net.cpp:150] Setting up res4_2
I1214 22:59:43.128108  5284 net.cpp:157] Top shape: 60 256 12 10 (1843200)
I1214 22:59:43.128121  5284 net.cpp:165] Memory required for data: 1299149040
I1214 22:59:43.128134  5284 layer_factory.hpp:77] Creating layer res4_2_res4_2_0_split
I1214 22:59:43.128155  5284 net.cpp:100] Creating Layer res4_2_res4_2_0_split
I1214 22:59:43.128168  5284 net.cpp:434] res4_2_res4_2_0_split <- res4_2
I1214 22:59:43.128195  5284 net.cpp:408] res4_2_res4_2_0_split -> res4_2_res4_2_0_split_0
I1214 22:59:43.128217  5284 net.cpp:408] res4_2_res4_2_0_split -> res4_2_res4_2_0_split_1
I1214 22:59:43.128279  5284 net.cpp:150] Setting up res4_2_res4_2_0_split
I1214 22:59:43.128301  5284 net.cpp:157] Top shape: 60 256 12 10 (1843200)
I1214 22:59:43.128320  5284 net.cpp:157] Top shape: 60 256 12 10 (1843200)
I1214 22:59:43.128334  5284 net.cpp:165] Memory required for data: 1313894640
I1214 22:59:43.128350  5284 layer_factory.hpp:77] Creating layer conv4_3
I1214 22:59:43.128377  5284 net.cpp:100] Creating Layer conv4_3
I1214 22:59:43.128392  5284 net.cpp:434] conv4_3 <- res4_2_res4_2_0_split_0
I1214 22:59:43.128412  5284 net.cpp:408] conv4_3 -> conv4_3
I1214 22:59:43.139312  5284 net.cpp:150] Setting up conv4_3
I1214 22:59:43.139349  5284 net.cpp:157] Top shape: 60 256 12 10 (1843200)
I1214 22:59:43.139364  5284 net.cpp:165] Memory required for data: 1321267440
I1214 22:59:43.139382  5284 layer_factory.hpp:77] Creating layer relu4_3
I1214 22:59:43.139401  5284 net.cpp:100] Creating Layer relu4_3
I1214 22:59:43.139415  5284 net.cpp:434] relu4_3 <- conv4_3
I1214 22:59:43.139446  5284 net.cpp:395] relu4_3 -> conv4_3 (in-place)
I1214 22:59:43.139614  5284 net.cpp:150] Setting up relu4_3
I1214 22:59:43.139639  5284 net.cpp:157] Top shape: 60 256 12 10 (1843200)
I1214 22:59:43.139652  5284 net.cpp:165] Memory required for data: 1328640240
I1214 22:59:43.139668  5284 layer_factory.hpp:77] Creating layer conv4_4
I1214 22:59:43.139695  5284 net.cpp:100] Creating Layer conv4_4
I1214 22:59:43.139710  5284 net.cpp:434] conv4_4 <- conv4_3
I1214 22:59:43.139734  5284 net.cpp:408] conv4_4 -> conv4_4
I1214 22:59:43.150992  5284 net.cpp:150] Setting up conv4_4
I1214 22:59:43.151031  5284 net.cpp:157] Top shape: 60 256 12 10 (1843200)
I1214 22:59:43.151046  5284 net.cpp:165] Memory required for data: 1336013040
I1214 22:59:43.151069  5284 layer_factory.hpp:77] Creating layer relu4_4
I1214 22:59:43.151087  5284 net.cpp:100] Creating Layer relu4_4
I1214 22:59:43.151101  5284 net.cpp:434] relu4_4 <- conv4_4
I1214 22:59:43.151121  5284 net.cpp:395] relu4_4 -> conv4_4 (in-place)
I1214 22:59:43.151293  5284 net.cpp:150] Setting up relu4_4
I1214 22:59:43.151319  5284 net.cpp:157] Top shape: 60 256 12 10 (1843200)
I1214 22:59:43.151332  5284 net.cpp:165] Memory required for data: 1343385840
I1214 22:59:43.151347  5284 layer_factory.hpp:77] Creating layer res4_4
I1214 22:59:43.151370  5284 net.cpp:100] Creating Layer res4_4
I1214 22:59:43.151386  5284 net.cpp:434] res4_4 <- res4_2_res4_2_0_split_1
I1214 22:59:43.151401  5284 net.cpp:434] res4_4 <- conv4_4
I1214 22:59:43.151417  5284 net.cpp:408] res4_4 -> res4_4
I1214 22:59:43.151465  5284 net.cpp:150] Setting up res4_4
I1214 22:59:43.151487  5284 net.cpp:157] Top shape: 60 256 12 10 (1843200)
I1214 22:59:43.151500  5284 net.cpp:165] Memory required for data: 1350758640
I1214 22:59:43.151513  5284 layer_factory.hpp:77] Creating layer res4_4_res4_4_0_split
I1214 22:59:43.151530  5284 net.cpp:100] Creating Layer res4_4_res4_4_0_split
I1214 22:59:43.151545  5284 net.cpp:434] res4_4_res4_4_0_split <- res4_4
I1214 22:59:43.151564  5284 net.cpp:408] res4_4_res4_4_0_split -> res4_4_res4_4_0_split_0
I1214 22:59:43.151585  5284 net.cpp:408] res4_4_res4_4_0_split -> res4_4_res4_4_0_split_1
I1214 22:59:43.151651  5284 net.cpp:150] Setting up res4_4_res4_4_0_split
I1214 22:59:43.151674  5284 net.cpp:157] Top shape: 60 256 12 10 (1843200)
I1214 22:59:43.151690  5284 net.cpp:157] Top shape: 60 256 12 10 (1843200)
I1214 22:59:43.151702  5284 net.cpp:165] Memory required for data: 1365504240
I1214 22:59:43.151715  5284 layer_factory.hpp:77] Creating layer conv4_5
I1214 22:59:43.151741  5284 net.cpp:100] Creating Layer conv4_5
I1214 22:59:43.151757  5284 net.cpp:434] conv4_5 <- res4_4_res4_4_0_split_0
I1214 22:59:43.151775  5284 net.cpp:408] conv4_5 -> conv4_5
I1214 22:59:43.165191  5284 net.cpp:150] Setting up conv4_5
I1214 22:59:43.165230  5284 net.cpp:157] Top shape: 60 256 12 10 (1843200)
I1214 22:59:43.165246  5284 net.cpp:165] Memory required for data: 1372877040
I1214 22:59:43.165266  5284 layer_factory.hpp:77] Creating layer relu4_5
I1214 22:59:43.165285  5284 net.cpp:100] Creating Layer relu4_5
I1214 22:59:43.165299  5284 net.cpp:434] relu4_5 <- conv4_5
I1214 22:59:43.165319  5284 net.cpp:395] relu4_5 -> conv4_5 (in-place)
I1214 22:59:43.165489  5284 net.cpp:150] Setting up relu4_5
I1214 22:59:43.165514  5284 net.cpp:157] Top shape: 60 256 12 10 (1843200)
I1214 22:59:43.165527  5284 net.cpp:165] Memory required for data: 1380249840
I1214 22:59:43.165544  5284 layer_factory.hpp:77] Creating layer conv4_6
I1214 22:59:43.165570  5284 net.cpp:100] Creating Layer conv4_6
I1214 22:59:43.165585  5284 net.cpp:434] conv4_6 <- conv4_5
I1214 22:59:43.165609  5284 net.cpp:408] conv4_6 -> conv4_6
I1214 22:59:43.176664  5284 net.cpp:150] Setting up conv4_6
I1214 22:59:43.176700  5284 net.cpp:157] Top shape: 60 256 12 10 (1843200)
I1214 22:59:43.176720  5284 net.cpp:165] Memory required for data: 1387622640
I1214 22:59:43.176739  5284 layer_factory.hpp:77] Creating layer relu4_6
I1214 22:59:43.176761  5284 net.cpp:100] Creating Layer relu4_6
I1214 22:59:43.176777  5284 net.cpp:434] relu4_6 <- conv4_6
I1214 22:59:43.176806  5284 net.cpp:395] relu4_6 -> conv4_6 (in-place)
I1214 22:59:43.177774  5284 net.cpp:150] Setting up relu4_6
I1214 22:59:43.177808  5284 net.cpp:157] Top shape: 60 256 12 10 (1843200)
I1214 22:59:43.177820  5284 net.cpp:165] Memory required for data: 1394995440
I1214 22:59:43.177837  5284 layer_factory.hpp:77] Creating layer res4_6
I1214 22:59:43.177861  5284 net.cpp:100] Creating Layer res4_6
I1214 22:59:43.177876  5284 net.cpp:434] res4_6 <- res4_4_res4_4_0_split_1
I1214 22:59:43.177891  5284 net.cpp:434] res4_6 <- conv4_6
I1214 22:59:43.177908  5284 net.cpp:408] res4_6 -> res4_6
I1214 22:59:43.177959  5284 net.cpp:150] Setting up res4_6
I1214 22:59:43.177981  5284 net.cpp:157] Top shape: 60 256 12 10 (1843200)
I1214 22:59:43.177994  5284 net.cpp:165] Memory required for data: 1402368240
I1214 22:59:43.178007  5284 layer_factory.hpp:77] Creating layer res4_6_res4_6_0_split
I1214 22:59:43.178025  5284 net.cpp:100] Creating Layer res4_6_res4_6_0_split
I1214 22:59:43.178038  5284 net.cpp:434] res4_6_res4_6_0_split <- res4_6
I1214 22:59:43.178059  5284 net.cpp:408] res4_6_res4_6_0_split -> res4_6_res4_6_0_split_0
I1214 22:59:43.178081  5284 net.cpp:408] res4_6_res4_6_0_split -> res4_6_res4_6_0_split_1
I1214 22:59:43.178145  5284 net.cpp:150] Setting up res4_6_res4_6_0_split
I1214 22:59:43.178167  5284 net.cpp:157] Top shape: 60 256 12 10 (1843200)
I1214 22:59:43.178189  5284 net.cpp:157] Top shape: 60 256 12 10 (1843200)
I1214 22:59:43.178202  5284 net.cpp:165] Memory required for data: 1417113840
I1214 22:59:43.178215  5284 layer_factory.hpp:77] Creating layer conv4_7
I1214 22:59:43.178242  5284 net.cpp:100] Creating Layer conv4_7
I1214 22:59:43.178258  5284 net.cpp:434] conv4_7 <- res4_6_res4_6_0_split_0
I1214 22:59:43.178282  5284 net.cpp:408] conv4_7 -> conv4_7
I1214 22:59:43.189985  5284 net.cpp:150] Setting up conv4_7
I1214 22:59:43.190024  5284 net.cpp:157] Top shape: 60 256 12 10 (1843200)
I1214 22:59:43.190039  5284 net.cpp:165] Memory required for data: 1424486640
I1214 22:59:43.190059  5284 layer_factory.hpp:77] Creating layer relu4_7
I1214 22:59:43.190078  5284 net.cpp:100] Creating Layer relu4_7
I1214 22:59:43.190091  5284 net.cpp:434] relu4_7 <- conv4_7
I1214 22:59:43.190112  5284 net.cpp:395] relu4_7 -> conv4_7 (in-place)
I1214 22:59:43.190281  5284 net.cpp:150] Setting up relu4_7
I1214 22:59:43.190311  5284 net.cpp:157] Top shape: 60 256 12 10 (1843200)
I1214 22:59:43.190325  5284 net.cpp:165] Memory required for data: 1431859440
I1214 22:59:43.190348  5284 layer_factory.hpp:77] Creating layer conv4_8
I1214 22:59:43.190376  5284 net.cpp:100] Creating Layer conv4_8
I1214 22:59:43.190392  5284 net.cpp:434] conv4_8 <- conv4_7
I1214 22:59:43.190412  5284 net.cpp:408] conv4_8 -> conv4_8
I1214 22:59:43.201695  5284 net.cpp:150] Setting up conv4_8
I1214 22:59:43.201730  5284 net.cpp:157] Top shape: 60 256 12 10 (1843200)
I1214 22:59:43.201745  5284 net.cpp:165] Memory required for data: 1439232240
I1214 22:59:43.201764  5284 layer_factory.hpp:77] Creating layer relu4_8
I1214 22:59:43.201786  5284 net.cpp:100] Creating Layer relu4_8
I1214 22:59:43.201802  5284 net.cpp:434] relu4_8 <- conv4_8
I1214 22:59:43.201818  5284 net.cpp:395] relu4_8 -> conv4_8 (in-place)
I1214 22:59:43.201982  5284 net.cpp:150] Setting up relu4_8
I1214 22:59:43.202008  5284 net.cpp:157] Top shape: 60 256 12 10 (1843200)
I1214 22:59:43.202020  5284 net.cpp:165] Memory required for data: 1446605040
I1214 22:59:43.202036  5284 layer_factory.hpp:77] Creating layer res4_8
I1214 22:59:43.202054  5284 net.cpp:100] Creating Layer res4_8
I1214 22:59:43.202069  5284 net.cpp:434] res4_8 <- res4_6_res4_6_0_split_1
I1214 22:59:43.202082  5284 net.cpp:434] res4_8 <- conv4_8
I1214 22:59:43.202103  5284 net.cpp:408] res4_8 -> res4_8
I1214 22:59:43.202153  5284 net.cpp:150] Setting up res4_8
I1214 22:59:43.202178  5284 net.cpp:157] Top shape: 60 256 12 10 (1843200)
I1214 22:59:43.202198  5284 net.cpp:165] Memory required for data: 1453977840
I1214 22:59:43.202211  5284 layer_factory.hpp:77] Creating layer res4_8_res4_8_0_split
I1214 22:59:43.202241  5284 net.cpp:100] Creating Layer res4_8_res4_8_0_split
I1214 22:59:43.202255  5284 net.cpp:434] res4_8_res4_8_0_split <- res4_8
I1214 22:59:43.202272  5284 net.cpp:408] res4_8_res4_8_0_split -> res4_8_res4_8_0_split_0
I1214 22:59:43.202296  5284 net.cpp:408] res4_8_res4_8_0_split -> res4_8_res4_8_0_split_1
I1214 22:59:43.202359  5284 net.cpp:150] Setting up res4_8_res4_8_0_split
I1214 22:59:43.202381  5284 net.cpp:157] Top shape: 60 256 12 10 (1843200)
I1214 22:59:43.202396  5284 net.cpp:157] Top shape: 60 256 12 10 (1843200)
I1214 22:59:43.202409  5284 net.cpp:165] Memory required for data: 1468723440
I1214 22:59:43.202421  5284 layer_factory.hpp:77] Creating layer conv4_9
I1214 22:59:43.202461  5284 net.cpp:100] Creating Layer conv4_9
I1214 22:59:43.202476  5284 net.cpp:434] conv4_9 <- res4_8_res4_8_0_split_0
I1214 22:59:43.202496  5284 net.cpp:408] conv4_9 -> conv4_9
I1214 22:59:43.213608  5284 net.cpp:150] Setting up conv4_9
I1214 22:59:43.213646  5284 net.cpp:157] Top shape: 60 256 12 10 (1843200)
I1214 22:59:43.213662  5284 net.cpp:165] Memory required for data: 1476096240
I1214 22:59:43.213681  5284 layer_factory.hpp:77] Creating layer relu4_9
I1214 22:59:43.213701  5284 net.cpp:100] Creating Layer relu4_9
I1214 22:59:43.213714  5284 net.cpp:434] relu4_9 <- conv4_9
I1214 22:59:43.213731  5284 net.cpp:395] relu4_9 -> conv4_9 (in-place)
I1214 22:59:43.213904  5284 net.cpp:150] Setting up relu4_9
I1214 22:59:43.213929  5284 net.cpp:157] Top shape: 60 256 12 10 (1843200)
I1214 22:59:43.213943  5284 net.cpp:165] Memory required for data: 1483469040
I1214 22:59:43.213959  5284 layer_factory.hpp:77] Creating layer conv4_10
I1214 22:59:43.213985  5284 net.cpp:100] Creating Layer conv4_10
I1214 22:59:43.214001  5284 net.cpp:434] conv4_10 <- conv4_9
I1214 22:59:43.214025  5284 net.cpp:408] conv4_10 -> conv4_10
I1214 22:59:43.224980  5284 net.cpp:150] Setting up conv4_10
I1214 22:59:43.225015  5284 net.cpp:157] Top shape: 60 256 12 10 (1843200)
I1214 22:59:43.225030  5284 net.cpp:165] Memory required for data: 1490841840
I1214 22:59:43.225049  5284 layer_factory.hpp:77] Creating layer relu4_10
I1214 22:59:43.225066  5284 net.cpp:100] Creating Layer relu4_10
I1214 22:59:43.225080  5284 net.cpp:434] relu4_10 <- conv4_10
I1214 22:59:43.225101  5284 net.cpp:395] relu4_10 -> conv4_10 (in-place)
I1214 22:59:43.225278  5284 net.cpp:150] Setting up relu4_10
I1214 22:59:43.225303  5284 net.cpp:157] Top shape: 60 256 12 10 (1843200)
I1214 22:59:43.225317  5284 net.cpp:165] Memory required for data: 1498214640
I1214 22:59:43.225333  5284 layer_factory.hpp:77] Creating layer res4_10
I1214 22:59:43.225354  5284 net.cpp:100] Creating Layer res4_10
I1214 22:59:43.225369  5284 net.cpp:434] res4_10 <- res4_8_res4_8_0_split_1
I1214 22:59:43.225384  5284 net.cpp:434] res4_10 <- conv4_10
I1214 22:59:43.225401  5284 net.cpp:408] res4_10 -> res4_10
I1214 22:59:43.225451  5284 net.cpp:150] Setting up res4_10
I1214 22:59:43.225473  5284 net.cpp:157] Top shape: 60 256 12 10 (1843200)
I1214 22:59:43.225486  5284 net.cpp:165] Memory required for data: 1505587440
I1214 22:59:43.225499  5284 layer_factory.hpp:77] Creating layer conv4
I1214 22:59:43.225525  5284 net.cpp:100] Creating Layer conv4
I1214 22:59:43.225540  5284 net.cpp:434] conv4 <- res4_10
I1214 22:59:43.225564  5284 net.cpp:408] conv4 -> conv4
I1214 22:59:43.238958  5284 net.cpp:150] Setting up conv4
I1214 22:59:43.238996  5284 net.cpp:157] Top shape: 60 512 10 8 (2457600)
I1214 22:59:43.239009  5284 net.cpp:165] Memory required for data: 1515417840
I1214 22:59:43.239028  5284 layer_factory.hpp:77] Creating layer relu4
I1214 22:59:43.239050  5284 net.cpp:100] Creating Layer relu4
I1214 22:59:43.239066  5284 net.cpp:434] relu4 <- conv4
I1214 22:59:43.239083  5284 net.cpp:395] relu4 -> conv4 (in-place)
I1214 22:59:43.239281  5284 net.cpp:150] Setting up relu4
I1214 22:59:43.239313  5284 net.cpp:157] Top shape: 60 512 10 8 (2457600)
I1214 22:59:43.239326  5284 net.cpp:165] Memory required for data: 1525248240
I1214 22:59:43.239343  5284 layer_factory.hpp:77] Creating layer pool4
I1214 22:59:43.239375  5284 net.cpp:100] Creating Layer pool4
I1214 22:59:43.239390  5284 net.cpp:434] pool4 <- conv4
I1214 22:59:43.239408  5284 net.cpp:408] pool4 -> pool4
I1214 22:59:43.239478  5284 net.cpp:150] Setting up pool4
I1214 22:59:43.239500  5284 net.cpp:157] Top shape: 60 512 5 4 (614400)
I1214 22:59:43.239513  5284 net.cpp:165] Memory required for data: 1527705840
I1214 22:59:43.239526  5284 layer_factory.hpp:77] Creating layer pool4_pool4_0_split
I1214 22:59:43.239550  5284 net.cpp:100] Creating Layer pool4_pool4_0_split
I1214 22:59:43.239565  5284 net.cpp:434] pool4_pool4_0_split <- pool4
I1214 22:59:43.239583  5284 net.cpp:408] pool4_pool4_0_split -> pool4_pool4_0_split_0
I1214 22:59:43.239603  5284 net.cpp:408] pool4_pool4_0_split -> pool4_pool4_0_split_1
I1214 22:59:43.239668  5284 net.cpp:150] Setting up pool4_pool4_0_split
I1214 22:59:43.239691  5284 net.cpp:157] Top shape: 60 512 5 4 (614400)
I1214 22:59:43.239706  5284 net.cpp:157] Top shape: 60 512 5 4 (614400)
I1214 22:59:43.239718  5284 net.cpp:165] Memory required for data: 1532621040
I1214 22:59:43.239732  5284 layer_factory.hpp:77] Creating layer conv5_1
I1214 22:59:43.239778  5284 net.cpp:100] Creating Layer conv5_1
I1214 22:59:43.239795  5284 net.cpp:434] conv5_1 <- pool4_pool4_0_split_0
I1214 22:59:43.239815  5284 net.cpp:408] conv5_1 -> conv5_1
I1214 22:59:43.285286  5284 net.cpp:150] Setting up conv5_1
I1214 22:59:43.285353  5284 net.cpp:157] Top shape: 60 512 5 4 (614400)
I1214 22:59:43.285369  5284 net.cpp:165] Memory required for data: 1535078640
I1214 22:59:43.285419  5284 layer_factory.hpp:77] Creating layer relu5_1
I1214 22:59:43.285449  5284 net.cpp:100] Creating Layer relu5_1
I1214 22:59:43.285465  5284 net.cpp:434] relu5_1 <- conv5_1
I1214 22:59:43.285485  5284 net.cpp:395] relu5_1 -> conv5_1 (in-place)
I1214 22:59:43.285676  5284 net.cpp:150] Setting up relu5_1
I1214 22:59:43.285701  5284 net.cpp:157] Top shape: 60 512 5 4 (614400)
I1214 22:59:43.285715  5284 net.cpp:165] Memory required for data: 1537536240
I1214 22:59:43.285732  5284 layer_factory.hpp:77] Creating layer conv5_2
I1214 22:59:43.285763  5284 net.cpp:100] Creating Layer conv5_2
I1214 22:59:43.285778  5284 net.cpp:434] conv5_2 <- conv5_1
I1214 22:59:43.285801  5284 net.cpp:408] conv5_2 -> conv5_2
I1214 22:59:43.329994  5284 net.cpp:150] Setting up conv5_2
I1214 22:59:43.330065  5284 net.cpp:157] Top shape: 60 512 5 4 (614400)
I1214 22:59:43.330081  5284 net.cpp:165] Memory required for data: 1539993840
I1214 22:59:43.330106  5284 layer_factory.hpp:77] Creating layer relu5_2
I1214 22:59:43.330129  5284 net.cpp:100] Creating Layer relu5_2
I1214 22:59:43.330145  5284 net.cpp:434] relu5_2 <- conv5_2
I1214 22:59:43.330169  5284 net.cpp:395] relu5_2 -> conv5_2 (in-place)
I1214 22:59:43.330351  5284 net.cpp:150] Setting up relu5_2
I1214 22:59:43.330376  5284 net.cpp:157] Top shape: 60 512 5 4 (614400)
I1214 22:59:43.330392  5284 net.cpp:165] Memory required for data: 1542451440
I1214 22:59:43.330410  5284 layer_factory.hpp:77] Creating layer res5_2
I1214 22:59:43.330430  5284 net.cpp:100] Creating Layer res5_2
I1214 22:59:43.330445  5284 net.cpp:434] res5_2 <- pool4_pool4_0_split_1
I1214 22:59:43.330463  5284 net.cpp:434] res5_2 <- conv5_2
I1214 22:59:43.330482  5284 net.cpp:408] res5_2 -> res5_2
I1214 22:59:43.330535  5284 net.cpp:150] Setting up res5_2
I1214 22:59:43.330559  5284 net.cpp:157] Top shape: 60 512 5 4 (614400)
I1214 22:59:43.330571  5284 net.cpp:165] Memory required for data: 1544909040
I1214 22:59:43.330585  5284 layer_factory.hpp:77] Creating layer res5_2_res5_2_0_split
I1214 22:59:43.330603  5284 net.cpp:100] Creating Layer res5_2_res5_2_0_split
I1214 22:59:43.330616  5284 net.cpp:434] res5_2_res5_2_0_split <- res5_2
I1214 22:59:43.330637  5284 net.cpp:408] res5_2_res5_2_0_split -> res5_2_res5_2_0_split_0
I1214 22:59:43.330658  5284 net.cpp:408] res5_2_res5_2_0_split -> res5_2_res5_2_0_split_1
I1214 22:59:43.330724  5284 net.cpp:150] Setting up res5_2_res5_2_0_split
I1214 22:59:43.330746  5284 net.cpp:157] Top shape: 60 512 5 4 (614400)
I1214 22:59:43.330778  5284 net.cpp:157] Top shape: 60 512 5 4 (614400)
I1214 22:59:43.330792  5284 net.cpp:165] Memory required for data: 1549824240
I1214 22:59:43.330806  5284 layer_factory.hpp:77] Creating layer conv5_3
I1214 22:59:43.330835  5284 net.cpp:100] Creating Layer conv5_3
I1214 22:59:43.330852  5284 net.cpp:434] conv5_3 <- res5_2_res5_2_0_split_0
I1214 22:59:43.330870  5284 net.cpp:408] conv5_3 -> conv5_3
I1214 22:59:43.375171  5284 net.cpp:150] Setting up conv5_3
I1214 22:59:43.375265  5284 net.cpp:157] Top shape: 60 512 5 4 (614400)
I1214 22:59:43.375293  5284 net.cpp:165] Memory required for data: 1552281840
I1214 22:59:43.375334  5284 layer_factory.hpp:77] Creating layer relu5_3
I1214 22:59:43.375373  5284 net.cpp:100] Creating Layer relu5_3
I1214 22:59:43.375401  5284 net.cpp:434] relu5_3 <- conv5_3
I1214 22:59:43.375439  5284 net.cpp:395] relu5_3 -> conv5_3 (in-place)
I1214 22:59:43.375699  5284 net.cpp:150] Setting up relu5_3
I1214 22:59:43.375740  5284 net.cpp:157] Top shape: 60 512 5 4 (614400)
I1214 22:59:43.375762  5284 net.cpp:165] Memory required for data: 1554739440
I1214 22:59:43.375790  5284 layer_factory.hpp:77] Creating layer conv5_4
I1214 22:59:43.375846  5284 net.cpp:100] Creating Layer conv5_4
I1214 22:59:43.375874  5284 net.cpp:434] conv5_4 <- conv5_3
I1214 22:59:43.375915  5284 net.cpp:408] conv5_4 -> conv5_4
I1214 22:59:43.435267  5284 net.cpp:150] Setting up conv5_4
I1214 22:59:43.435360  5284 net.cpp:157] Top shape: 60 512 5 4 (614400)
I1214 22:59:43.435385  5284 net.cpp:165] Memory required for data: 1557197040
I1214 22:59:43.435423  5284 layer_factory.hpp:77] Creating layer relu5_4
I1214 22:59:43.435459  5284 net.cpp:100] Creating Layer relu5_4
I1214 22:59:43.435484  5284 net.cpp:434] relu5_4 <- conv5_4
I1214 22:59:43.435521  5284 net.cpp:395] relu5_4 -> conv5_4 (in-place)
I1214 22:59:43.435775  5284 net.cpp:150] Setting up relu5_4
I1214 22:59:43.435817  5284 net.cpp:157] Top shape: 60 512 5 4 (614400)
I1214 22:59:43.435840  5284 net.cpp:165] Memory required for data: 1559654640
I1214 22:59:43.435865  5284 layer_factory.hpp:77] Creating layer res5_4
I1214 22:59:43.435899  5284 net.cpp:100] Creating Layer res5_4
I1214 22:59:43.435922  5284 net.cpp:434] res5_4 <- res5_2_res5_2_0_split_1
I1214 22:59:43.435945  5284 net.cpp:434] res5_4 <- conv5_4
I1214 22:59:43.435978  5284 net.cpp:408] res5_4 -> res5_4
I1214 22:59:43.436054  5284 net.cpp:150] Setting up res5_4
I1214 22:59:43.436086  5284 net.cpp:157] Top shape: 60 512 5 4 (614400)
I1214 22:59:43.436107  5284 net.cpp:165] Memory required for data: 1562112240
I1214 22:59:43.436130  5284 layer_factory.hpp:77] Creating layer res5_4_res5_4_0_split
I1214 22:59:43.436163  5284 net.cpp:100] Creating Layer res5_4_res5_4_0_split
I1214 22:59:43.436194  5284 net.cpp:434] res5_4_res5_4_0_split <- res5_4
I1214 22:59:43.436224  5284 net.cpp:408] res5_4_res5_4_0_split -> res5_4_res5_4_0_split_0
I1214 22:59:43.436257  5284 net.cpp:408] res5_4_res5_4_0_split -> res5_4_res5_4_0_split_1
I1214 22:59:43.436358  5284 net.cpp:150] Setting up res5_4_res5_4_0_split
I1214 22:59:43.436391  5284 net.cpp:157] Top shape: 60 512 5 4 (614400)
I1214 22:59:43.436417  5284 net.cpp:157] Top shape: 60 512 5 4 (614400)
I1214 22:59:43.436439  5284 net.cpp:165] Memory required for data: 1567027440
I1214 22:59:43.436460  5284 layer_factory.hpp:77] Creating layer conv5_5
I1214 22:59:43.436504  5284 net.cpp:100] Creating Layer conv5_5
I1214 22:59:43.436532  5284 net.cpp:434] conv5_5 <- res5_4_res5_4_0_split_0
I1214 22:59:43.436566  5284 net.cpp:408] conv5_5 -> conv5_5
I1214 22:59:43.480376  5284 net.cpp:150] Setting up conv5_5
I1214 22:59:43.480458  5284 net.cpp:157] Top shape: 60 512 5 4 (614400)
I1214 22:59:43.480473  5284 net.cpp:165] Memory required for data: 1569485040
I1214 22:59:43.480499  5284 layer_factory.hpp:77] Creating layer relu5_5
I1214 22:59:43.480526  5284 net.cpp:100] Creating Layer relu5_5
I1214 22:59:43.480543  5284 net.cpp:434] relu5_5 <- conv5_5
I1214 22:59:43.480563  5284 net.cpp:395] relu5_5 -> conv5_5 (in-place)
I1214 22:59:43.480726  5284 net.cpp:150] Setting up relu5_5
I1214 22:59:43.480772  5284 net.cpp:157] Top shape: 60 512 5 4 (614400)
I1214 22:59:43.480785  5284 net.cpp:165] Memory required for data: 1571942640
I1214 22:59:43.480801  5284 layer_factory.hpp:77] Creating layer conv5_6
I1214 22:59:43.480844  5284 net.cpp:100] Creating Layer conv5_6
I1214 22:59:43.480860  5284 net.cpp:434] conv5_6 <- conv5_5
I1214 22:59:43.480880  5284 net.cpp:408] conv5_6 -> conv5_6
I1214 22:59:43.525079  5284 net.cpp:150] Setting up conv5_6
I1214 22:59:43.525152  5284 net.cpp:157] Top shape: 60 512 5 4 (614400)
I1214 22:59:43.525168  5284 net.cpp:165] Memory required for data: 1574400240
I1214 22:59:43.525199  5284 layer_factory.hpp:77] Creating layer relu5_6
I1214 22:59:43.525229  5284 net.cpp:100] Creating Layer relu5_6
I1214 22:59:43.525248  5284 net.cpp:434] relu5_6 <- conv5_6
I1214 22:59:43.525308  5284 net.cpp:395] relu5_6 -> conv5_6 (in-place)
I1214 22:59:43.525476  5284 net.cpp:150] Setting up relu5_6
I1214 22:59:43.525501  5284 net.cpp:157] Top shape: 60 512 5 4 (614400)
I1214 22:59:43.525514  5284 net.cpp:165] Memory required for data: 1576857840
I1214 22:59:43.525530  5284 layer_factory.hpp:77] Creating layer res5_6
I1214 22:59:43.525557  5284 net.cpp:100] Creating Layer res5_6
I1214 22:59:43.525573  5284 net.cpp:434] res5_6 <- res5_4_res5_4_0_split_1
I1214 22:59:43.525590  5284 net.cpp:434] res5_6 <- conv5_6
I1214 22:59:43.525607  5284 net.cpp:408] res5_6 -> res5_6
I1214 22:59:43.525660  5284 net.cpp:150] Setting up res5_6
I1214 22:59:43.525681  5284 net.cpp:157] Top shape: 60 512 5 4 (614400)
I1214 22:59:43.525694  5284 net.cpp:165] Memory required for data: 1579315440
I1214 22:59:43.525707  5284 layer_factory.hpp:77] Creating layer fc5
I1214 22:59:43.525732  5284 net.cpp:100] Creating Layer fc5
I1214 22:59:43.525748  5284 net.cpp:434] fc5 <- res5_6
I1214 22:59:43.525768  5284 net.cpp:408] fc5 -> fc5
I1214 22:59:43.587133  5284 net.cpp:150] Setting up fc5
I1214 22:59:43.587224  5284 net.cpp:157] Top shape: 60 512 (30720)
I1214 22:59:43.587239  5284 net.cpp:165] Memory required for data: 1579438320
I1214 22:59:43.587265  5284 layer_factory.hpp:77] Creating layer fc_add
I1214 22:59:43.587293  5284 net.cpp:100] Creating Layer fc_add
I1214 22:59:43.587309  5284 net.cpp:434] fc_add <- fc5
I1214 22:59:43.587335  5284 net.cpp:408] fc_add -> fc_add
I1214 22:59:43.587569  5284 net.cpp:150] Setting up fc_add
I1214 22:59:43.587594  5284 net.cpp:157] Top shape: 60 7 (420)
I1214 22:59:43.587605  5284 net.cpp:165] Memory required for data: 1579440000
I1214 22:59:43.587623  5284 layer_factory.hpp:77] Creating layer loss
I1214 22:59:43.587647  5284 net.cpp:100] Creating Layer loss
I1214 22:59:43.587661  5284 net.cpp:434] loss <- fc_add
I1214 22:59:43.587677  5284 net.cpp:434] loss <- label
I1214 22:59:43.587699  5284 net.cpp:408] loss -> (automatic)
I1214 22:59:43.587723  5284 layer_factory.hpp:77] Creating layer loss
…
I1214 22:59:43.590759  5284 net.cpp:322] The NetState phase (1) differed from the phase (0) specified by a rule in layer data_train
I1214 22:59:43.591576  5284 net.cpp:58] Initializing net from parameters: 
name: "Face"
state {
  phase: TEST
}
layer {
  name: "data_test"
  type: "ImageData"
  top: "data"
  top: "label"
  include {
    phase: TEST
  }
  transform_param {
    mean_value: 129
  }
  image_data_param {
    source: "../fer2013/list_test.txt"
    batch_size: 1
    shuffle: true
    new_height: 112
    new_width: 96
    is_color: true
    root_folder: "../fer2013/fer2013_ims/"
  }
}
layer {
  name: "conv1a"
  type: "Convolution"
  bottom: "data"
  top: "conv1a"
  param {
    lr_mult: 1
    decay_mult: 1
  }
  param {
    lr_mult: 2
    decay_mult: 0
  }
  convolution_param {
    num_output: 32
    kernel_size: 3
    stride: 1
    weight_filler {
      type: "xavier"
    }
    bias_filler {
      type: "constant"
      value: 0
    }
  }
}
layer {
  name: "relu1a"
  type: "PReLU"
  bottom: "conv1a"
  top: "conv1a"
}
layer {
  name: "conv1b"
  type: "Convolution"
  bottom: "conv1a"
  top: "conv1b"
  param {
    lr_mult: 1
    decay_mult: 1
  }
  param {
    lr_mult: 2
    decay_mult: 0
  }
  convolution_param {
    num_output: 64
    kernel_size: 3
    stride: 1
    weight_filler {
      type: "xavier"
    }
    bias_filler {
      type: "constant"
      value: 0
    }
  }
}
layer {
  name: "relu1b"
  type: "PReLU"
  bottom: "conv1b"
  top: "conv1b"
}
layer {
  name: "pool1b"
  type: "Pooling"
  bottom: "conv1b"
  top: "pool1b"
  pooling_param {
    pool: MAX
    kernel_size: 2
    stride: 2
  }
}
layer {
  name: "conv2_1"
  type: "Convolution"
  bottom: "pool1b"
  top: "conv2_1"
  param {
    lr_mult: 1
    decay_mult: 1
  }
  param {
    lr_mult: 0
    decay_mult: 0
  }
  convolution_param {
    num_output: 64
    pad: 1
    kernel_size: 3
    stride: 1
    weight_filler {
      type: "gaussian"
      std: 0.01
    }
    bias_filler {
      type: "constant"
      value: 0
    }
  }
}
layer {
  name: "relu2_1"
  type: "PReLU"
  bottom: "conv2_1"
  top: "conv2_1"
}
layer {
  name: "conv2_2"
  type: "Convolution"
  bottom: "conv2_1"
  top: "conv2_2"
  param {
    lr_mult: 1
    decay_mult: 1
  }
  param {
    lr_mult: 0
    decay_mult: 0
  }
  convolution_param {
    num_output: 64
    pad: 1
    kernel_size: 3
    stride: 1
    weight_filler {
      type: "gaussian"
      std: 0.01
    }
    bias_filler {
      type: "constant"
      value: 0
    }
  }
}
layer {
  name: "relu2_2"
  type: "PReLU"
  bottom: "conv2_2"
  top: "conv2_2"
}
layer {
  name: "res2_2"
  type: "Eltwise"
  bottom: "pool1b"
  bottom: "conv2_2"
  top: "res2_2"
  eltwise_param {
    operation: SUM
  }
}
layer {
  name: "conv2"
  type: "Convolution"
  bottom: "res2_2"
  top: "conv2"
  param {
    lr_mult: 1
    decay_mult: 1
  }
  param {
    lr_mult: 2
    decay_mult: 0
  }
  convolution_param {
    num_output: 128
    kernel_size: 3
    stride: 1
    weight_filler {
      type: "xavier"
    }
    bias_filler {
      type: "constant"
      value: 0
    }
  }
}
layer {
  name: "relu2"
  type: "PReLU"
  bottom: "conv2"
  top: "conv2"
}
layer {
  name: "pool2"
  type: "Pooling"
  bottom: "conv2"
  top: "pool2"
  pooling_param {
    pool: MAX
    kernel_size: 2
    stride: 2
  }
}
layer {
  name: "conv3_1"
  type: "Convolution"
  bottom: "pool2"
  top: "conv3_1"
  param {
    lr_mult: 1
    decay_mult: 1
  }
  param {
    lr_mult: 0
    decay_mult: 0
  }
  convolution_param {
    num_output: 128
    pad: 1
    kernel_size: 3
    stride: 1
    weight_filler {
      type: "gaussian"
      std: 0.01
    }
    bias_filler {
      type: "constant"
      value: 0
    }
  }
}
layer {
  name: "relu3_1"
  type: "PReLU"
  bottom: "conv3_1"
  top: "conv3_1"
}
layer {
  name: "conv3_2"
  type: "Convolution"
  bottom: "conv3_1"
  top: "conv3_2"
  param {
    lr_mult: 1
    decay_mult: 1
  }
  param {
    lr_mult: 0
    decay_mult: 0
  }
  convolution_param {
    num_output: 128
    pad: 1
    kernel_size: 3
    stride: 1
    weight_filler {
      type: "gaussian"
      std: 0.01
    }
    bias_filler {
      type: "constant"
      value: 0
    }
  }
}
layer {
  name: "relu3_2"
  type: "PReLU"
  bottom: "conv3_2"
  top: "conv3_2"
}
layer {
  name: "res3_2"
  type: "Eltwise"
  bottom: "pool2"
  bottom: "conv3_2"
  top: "res3_2"
  eltwise_param {
    operation: SUM
  }
}
layer {
  name: "conv3_3"
  type: "Convolution"
  bottom: "res3_2"
  top: "conv3_3"
  param {
    lr_mult: 1
    decay_mult: 1
  }
  param {
    lr_mult: 0
    decay_mult: 0
  }
  convolution_param {
    num_output: 128
    pad: 1
    kernel_size: 3
    stride: 1
    weight_filler {
      type: "gaussian"
      std: 0.01
    }
    bias_filler {
      type: "constant"
      value: 0
    }
  }
}
layer {
  name: "relu3_3"
  type: "PReLU"
  bottom: "conv3_3"
  top: "conv3_3"
}
layer {
  name: "conv3_4"
  type: "Convolution"
  bottom: "conv3_3"
  top: "conv3_4"
  param {
    lr_mult: 1
    decay_mult: 1
  }
  param {
    lr_mult: 0
    decay_mult: 0
  }
  convolution_param {
    num_output: 128
    pad: 1
    kernel_size: 3
    stride: 1
    weight_filler {
      type: "gaussian"
      std: 0.01
    }
    bias_filler {
      type: "constant"
      value: 0
    }
  }
}
layer {
  name: "relu3_4"
  type: "PReLU"
  bottom: "conv3_4"
  top: "conv3_4"
}
layer {
  name: "res3_4"
  type: "Eltwise"
  bottom: "res3_2"
  bottom: "conv3_4"
  top: "res3_4"
  eltwise_param {
    operation: SUM
  }
}
layer {
  name: "conv3"
  type: "Convolution"
  bottom: "res3_4"
  top: "conv3"
  param {
    lr_mult: 1
    decay_mult: 1
  }
  param {
    lr_mult: 2
    decay_mult: 0
  }
  convolution_param {
    num_output: 256
    kernel_size: 3
    stride: 1
    weight_filler {
      type: "xavier"
    }
    bias_filler {
      type: "constant"
      value: 0
    }
  }
}
layer {
  name: "relu3"
  type: "PReLU"
  bottom: "conv3"
  top: "conv3"
}
layer {
  name: "pool3"
  type: "Pooling"
  bottom: "conv3"
  top: "pool3"
  pooling_param {
    pool: MAX
    kernel_size: 2
    stride: 2
  }
}
layer {
  name: "conv4_1"
  type: "Convolution"
  bottom: "pool3"
  top: "conv4_1"
  param {
    lr_mult: 1
    decay_mult: 1
  }
  param {
    lr_mult: 0
    decay_mult: 0
  }
  convolution_param {
    num_output: 256
    pad: 1
    kernel_size: 3
    stride: 1
    weight_filler {
      type: "gaussian"
      std: 0.01
    }
    bias_filler {
      type: "constant"
      value: 0
    }
  }
}
layer {
  name: "relu4_1"
  type: "PReLU"
  bottom: "conv4_1"
  top: "conv4_1"
}
layer {
  name: "conv4_2"
  type: "Convolution"
  bottom: "conv4_1"
  top: "conv4_2"
  param {
    lr_mult: 1
    decay_mult: 1
  }
  param {
    lr_mult: 0
    decay_mult: 0
  }
  convolution_param {
    num_output: 256
    pad: 1
    kernel_size: 3
    stride: 1
    weight_filler {
      type: "gaussian"
      std: 0.01
    }
    bias_filler {
      type: "constant"
      value: 0
    }
  }
}
layer {
  name: "relu4_2"
  type: "PReLU"
  bottom: "conv4_2"
  top: "conv4_2"
}
layer {
  name: "res4_2"
  type: "Eltwise"
  bottom: "pool3"
  bottom: "conv4_2"
  top: "res4_2"
  eltwise_param {
    operation: SUM
  }
}
layer {
  name: "conv4_3"
  type: "Convolution"
  bottom: "res4_2"
  top: "conv4_3"
  param {
    lr_mult: 1
    decay_mult: 1
  }
  param {
    lr_mult: 0
    decay_mult: 0
  }
  convolution_param {
    num_output: 256
    pad: 1
    kernel_size: 3
    stride: 1
    weight_filler {
      type: "gaussian"
      std: 0.01
    }
    bias_filler {
      type: "constant"
      value: 0
    }
  }
}
layer {
  name: "relu4_3"
  type: "PReLU"
  bottom: "conv4_3"
  top: "conv4_3"
}
layer {
  name: "conv4_4"
  type: "Convolution"
  bottom: "conv4_3"
  top: "conv4_4"
  param {
    lr_mult: 1
    decay_mult: 1
  }
  param {
    lr_mult: 0
    decay_mult: 0
  }
  convolution_param {
    num_output: 256
    pad: 1
    kernel_size: 3
    stride: 1
    weight_filler {
      type: "gaussian"
      std: 0.01
    }
    bias_filler {
      type: "constant"
      value: 0
    }
  }
}
layer {
  name: "relu4_4"
  type: "PReLU"
  bottom: "conv4_4"
  top: "conv4_4"
}
layer {
  name: "res4_4"
  type: "Eltwise"
  bottom: "res4_2"
  bottom: "conv4_4"
  top: "res4_4"
  eltwise_param {
    operation: SUM
  }
}
layer {
  name: "conv4_5"
  type: "Convolution"
  bottom: "res4_4"
  top: "conv4_5"
  param {
    lr_mult: 1
    decay_mult: 1
  }
  param {
    lr_mult: 0
    decay_mult: 0
  }
  convolution_param {
    num_output: 256
    pad: 1
    kernel_size: 3
    stride: 1
    weight_filler {
      type: "gaussian"
      std: 0.01
    }
    bias_filler {
      type: "constant"
      value: 0
    }
  }
}
layer {
  name: "relu4_5"
  type: "PReLU"
  bottom: "conv4_5"
  top: "conv4_5"
}
layer {
  name: "conv4_6"
  type: "Convolution"
  bottom: "conv4_5"
  top: "conv4_6"
  param {
    lr_mult: 1
    decay_mult: 1
  }
  param {
    lr_mult: 0
    decay_mult: 0
  }
  convolution_param {
    num_output: 256
    pad: 1
    kernel_size: 3
    stride: 1
    weight_filler {
      type: "gaussian"
      std: 0.01
    }
    bias_filler {
      type: "constant"
      value: 0
    }
  }
}
layer {
  name: "relu4_6"
  type: "PReLU"
  bottom: "conv4_6"
  top: "conv4_6"
}
layer {
  name: "res4_6"
  type: "Eltwise"
  bottom: "res4_4"
  bottom: "conv4_6"
  top: "res4_6"
  eltwise_param {
    operation: SUM
  }
}
layer {
  name: "conv4_7"
  type: "Convolution"
  bottom: "res4_6"
  top: "conv4_7"
  param {
    lr_mult: 1
    decay_mult: 1
  }
  param {
    lr_mult: 0
    decay_mult: 0
  }
  convolution_param {
    num_output: 256
    pad: 1
    kernel_size: 3
    stride: 1
    weight_filler {
      type: "gaussian"
      std: 0.01
    }
    bias_filler {
      type: "constant"
      value: 0
    }
  }
}
layer {
  name: "relu4_7"
  type: "PReLU"
  bottom: "conv4_7"
  top: "conv4_7"
}
layer {
  name: "conv4_8"
  type: "Convolution"
  bottom: "conv4_7"
  top: "conv4_8"
  param {
    lr_mult: 1
    decay_mult: 1
  }
  param {
    lr_mult: 0
    decay_mult: 0
  }
  convolution_param {
    num_output: 256
    pad: 1
    kernel_size: 3
    stride: 1
    weight_filler {
      type: "gaussian"
      std: 0.01
    }
    bias_filler {
      type: "constant"
      value: 0
    }
  }
}
layer {
  name: "relu4_8"
  type: "PReLU"
  bottom: "conv4_8"
  top: "conv4_8"
}
layer {
  name: "res4_8"
  type: "Eltwise"
  bottom: "res4_6"
  bottom: "conv4_8"
  top: "res4_8"
  eltwise_param {
    operation: SUM
  }
}
layer {
  name: "conv4_9"
  type: "Convolution"
  bottom: "res4_8"
  top: "conv4_9"
  param {
    lr_mult: 1
    decay_mult: 1
  }
  param {
    lr_mult: 0
    decay_mult: 0
  }
  convolution_param {
    num_output: 256
    pad: 1
    kernel_size: 3
    stride: 1
    weight_filler {
      type: "gaussian"
      std: 0.01
    }
    bias_filler {
      type: "constant"
      value: 0
    }
  }
}
layer {
  name: "relu4_9"
  type: "PReLU"
  bottom: "conv4_9"
  top: "conv4_9"
}
layer {
  name: "conv4_10"
  type: "Convolution"
  bottom: "conv4_9"
  top: "conv4_10"
  param {
    lr_mult: 1
    decay_mult: 1
  }
  param {
    lr_mult: 0
    decay_mult: 0
  }
  convolution_param {
    num_output: 256
    pad: 1
    kernel_size: 3
    stride: 1
    weight_filler {
      type: "gaussian"
      std: 0.01
    }
    bias_filler {
      type: "constant"
      value: 0
    }
  }
}
layer {
  name: "relu4_10"
  type: "PReLU"
  bottom: "conv4_10"
  top: "conv4_10"
}
layer {
  name: "res4_10"
  type: "Eltwise"
  bottom: "res4_8"
  bottom: "conv4_10"
  top: "res4_10"
  eltwise_param {
    operation: SUM
  }
}
layer {
  name: "conv4"
  type: "Convolution"
  bottom: "res4_10"
  top: "conv4"
  param {
    lr_mult: 1
    decay_mult: 1
  }
  param {
    lr_mult: 2
    decay_mult: 0
  }
  convolution_param {
    num_output: 512
    kernel_size: 3
    stride: 1
    weight_filler {
      type: "xavier"
    }
    bias_filler {
      type: "constant"
      value: 0
    }
  }
}
layer {
  name: "relu4"
  type: "PReLU"
  bottom: "conv4"
  top: "conv4"
}
layer {
  name: "pool4"
  type: "Pooling"
  bottom: "conv4"
  top: "pool4"
  pooling_param {
    pool: MAX
    kernel_size: 2
    stride: 2
  }
}
layer {
  name: "conv5_1"
  type: "Convolution"
  bottom: "pool4"
  top: "conv5_1"
  param {
    lr_mult: 1
    decay_mult: 1
  }
  param {
    lr_mult: 0
    decay_mult: 0
  }
  convolution_param {
    num_output: 512
    pad: 1
    kernel_size: 3
    stride: 1
    weight_filler {
      type: "gaussian"
      std: 0.01
    }
    bias_filler {
      type: "constant"
      value: 0
    }
  }
}
layer {
  name: "relu5_1"
  type: "PReLU"
  bottom: "conv5_1"
  top: "conv5_1"
}
layer {
  name: "conv5_2"
  type: "Convolution"
  bottom: "conv5_1"
  top: "conv5_2"
  param {
    lr_mult: 1
    decay_mult: 1
  }
  param {
    lr_mult: 0
    decay_mult: 0
  }
  convolution_param {
    num_output: 512
    pad: 1
    kernel_size: 3
    stride: 1
    weight_filler {
      type: "gaussian"
      std: 0.01
    }
    bias_filler {
      type: "constant"
      value: 0
    }
  }
}
layer {
  name: "relu5_2"
  type: "PReLU"
  bottom: "conv5_2"
  top: "conv5_2"
}
layer {
  name: "res5_2"
  type: "Eltwise"
  bottom: "pool4"
  bottom: "conv5_2"
  top: "res5_2"
  eltwise_param {
    operation: SUM
  }
}
layer {
  name: "conv5_3"
  type: "Convolution"
  bottom: "res5_2"
  top: "conv5_3"
  param {
    lr_mult: 1
    decay_mult: 1
  }
  param {
    lr_mult: 0
    decay_mult: 0
  }
  convolution_param {
    num_output: 512
    pad: 1
    kernel_size: 3
    stride: 1
    weight_filler {
      type: "gaussian"
      std: 0.01
    }
    bias_filler {
      type: "constant"
      value: 0
    }
  }
}
layer {
  name: "relu5_3"
  type: "PReLU"
  bottom: "conv5_3"
  top: "conv5_3"
}
layer {
  name: "conv5_4"
  type: "Convolution"
  bottom: "conv5_3"
  top: "conv5_4"
  param {
    lr_mult: 1
    decay_mult: 1
  }
  param {
    lr_mult: 0
    decay_mult: 0
  }
  convolution_param {
    num_output: 512
    pad: 1
    kernel_size: 3
    stride: 1
    weight_filler {
      type: "gaussian"
      std: 0.01
    }
    bias_filler {
      type: "constant"
      value: 0
    }
  }
}
layer {
  name: "relu5_4"
  type: "PReLU"
  bottom: "conv5_4"
  top: "conv5_4"
}
layer {
  name: "res5_4"
  type: "Eltwise"
  bottom: "res5_2"
  bottom: "conv5_4"
  top: "res5_4"
  eltwise_param {
    operation: SUM
  }
}
layer {
  name: "conv5_5"
  type: "Convolution"
  bottom: "res5_4"
  top: "conv5_5"
  param {
    lr_mult: 1
    decay_mult: 1
  }
  param {
    lr_mult: 0
    decay_mult: 0
  }
  convolution_param {
    num_output: 512
    pad: 1
    kernel_size: 3
    stride: 1
    weight_filler {
      type: "gaussian"
      std: 0.01
    }
    bias_filler {
      type: "constant"
      value: 0
    }
  }
}
layer {
  name: "relu5_5"
  type: "PReLU"
  bottom: "conv5_5"
  top: "conv5_5"
}
layer {
  name: "conv5_6"
  type: "Convolution"
  bottom: "conv5_5"
  top: "conv5_6"
  param {
    lr_mult: 1
    decay_mult: 1
  }
  param {
    lr_mult: 0
    decay_mult: 0
  }
  convolution_param {
    num_output: 512
    pad: 1
    kernel_size: 3
    stride: 1
    weight_filler {
      type: "gaussian"
      std: 0.01
    }
    bias_filler {
      type: "constant"
      value: 0
    }
  }
}
layer {
  name: "relu5_6"
  type: "PReLU"
  bottom: "conv5_6"
  top: "conv5_6"
}
layer {
  name: "res5_6"
  type: "Eltwise"
  bottom: "res5_4"
  bottom: "conv5_6"
  top: "res5_6"
  eltwise_param {
    operation: SUM
  }
}
layer {
  name: "fc5"
  type: "InnerProduct"
  bottom: "res5_6"
  top: "fc5"
  param {
    lr_mult: 1
    decay_mult: 1
  }
  param {
    lr_mult: 2
    decay_mult: 0
  }
  inner_product_param {
    num_output: 512
    weight_filler {
      type: "xavier"
    }
    bias_filler {
      type: "constant"
      value: 0
    }
  }
}
layer {
  name: "fc_add"
  type: "InnerProduct"
  bottom: "fc5"
  top: "fc_add"
  param {
    lr_mult: 1
    decay_mult: 1
  }
  param {
    lr_mult: 2
    decay_mult: 0
  }
  inner_product_param {
    num_output: 7
    weight_filler {
      type: "xavier"
    }
    bias_filler {
      type: "constant"
      value: 0
    }
  }
}
layer {
  name: "loss"
  type: "SoftmaxWithLoss"
  bottom: "fc_add"
  bottom: "label"
}
I1214 22:59:43.595474  5284 layer_factory.hpp:77] Creating layer data_test
I1214 22:59:43.595516  5284 net.cpp:100] Creating Layer data_test
I1214 22:59:43.595536  5284 net.cpp:408] data_test -> data
I1214 22:59:43.595561  5284 net.cpp:408] data_test -> label
I1214 22:59:43.595594  5284 image_data_layer.cpp:38] Opening file ../fer2013/list_test.txt
I1214 22:59:43.596431  5284 image_data_layer.cpp:53] Shuffling data
I1214 22:59:43.596679  5284 image_data_layer.cpp:58] A total of 3589 images.
I1214 22:59:43.597023  5284 image_data_layer.cpp:85] output data size: 1,3,112,96
I1214 22:59:43.598726  5284 net.cpp:150] Setting up data_test
I1214 22:59:43.598760  5284 net.cpp:157] Top shape: 1 3 112 96 (32256)
I1214 22:59:43.598780  5284 net.cpp:157] Top shape: 1 (1)
I1214 22:59:43.598794  5284 net.cpp:165] Memory required for data: 129028
I1214 22:59:43.598809  5284 layer_factory.hpp:77] Creating layer conv1a
I1214 22:59:43.598835  5284 net.cpp:100] Creating Layer conv1a
I1214 22:59:43.598850  5284 net.cpp:434] conv1a <- data
I1214 22:59:43.598870  5284 net.cpp:408] conv1a -> conv1a
I1214 22:59:43.599390  5284 net.cpp:150] Setting up conv1a
I1214 22:59:43.599421  5284 net.cpp:157] Top shape: 1 32 110 94 (330880)
I1214 22:59:43.599436  5284 net.cpp:165] Memory required for data: 1452548
I1214 22:59:43.599460  5284 layer_factory.hpp:77] Creating layer relu1a
I1214 22:59:43.599480  5284 net.cpp:100] Creating Layer relu1a
I1214 22:59:43.599495  5284 net.cpp:434] relu1a <- conv1a
I1214 22:59:43.599514  5284 net.cpp:395] relu1a -> conv1a (in-place)
I1214 22:59:43.600941  5284 net.cpp:150] Setting up relu1a
I1214 22:59:43.600975  5284 net.cpp:157] Top shape: 1 32 110 94 (330880)
I1214 22:59:43.600989  5284 net.cpp:165] Memory required for data: 2776068
I1214 22:59:43.601012  5284 layer_factory.hpp:77] Creating layer conv1b
I1214 22:59:43.601038  5284 net.cpp:100] Creating Layer conv1b
I1214 22:59:43.601054  5284 net.cpp:434] conv1b <- conv1a
I1214 22:59:43.601073  5284 net.cpp:408] conv1b -> conv1b
I1214 22:59:43.601706  5284 net.cpp:150] Setting up conv1b
I1214 22:59:43.601733  5284 net.cpp:157] Top shape: 1 64 108 92 (635904)
I1214 22:59:43.601748  5284 net.cpp:165] Memory required for data: 5319684
I1214 22:59:43.601770  5284 layer_factory.hpp:77] Creating layer relu1b
I1214 22:59:43.601794  5284 net.cpp:100] Creating Layer relu1b
I1214 22:59:43.601809  5284 net.cpp:434] relu1b <- conv1b
I1214 22:59:43.601825  5284 net.cpp:395] relu1b -> conv1b (in-place)
I1214 22:59:43.604276  5284 net.cpp:150] Setting up relu1b
I1214 22:59:43.604326  5284 net.cpp:157] Top shape: 1 64 108 92 (635904)
I1214 22:59:43.604341  5284 net.cpp:165] Memory required for data: 7863300
I1214 22:59:43.604359  5284 layer_factory.hpp:77] Creating layer pool1b
I1214 22:59:43.604380  5284 net.cpp:100] Creating Layer pool1b
I1214 22:59:43.604394  5284 net.cpp:434] pool1b <- conv1b
I1214 22:59:43.604413  5284 net.cpp:408] pool1b -> pool1b
I1214 22:59:43.604488  5284 net.cpp:150] Setting up pool1b
I1214 22:59:43.604513  5284 net.cpp:157] Top shape: 1 64 54 46 (158976)
I1214 22:59:43.604526  5284 net.cpp:165] Memory required for data: 8499204
I1214 22:59:43.604539  5284 layer_factory.hpp:77] Creating layer pool1b_pool1b_0_split
I1214 22:59:43.604559  5284 net.cpp:100] Creating Layer pool1b_pool1b_0_split
I1214 22:59:43.604573  5284 net.cpp:434] pool1b_pool1b_0_split <- pool1b
I1214 22:59:43.604589  5284 net.cpp:408] pool1b_pool1b_0_split -> pool1b_pool1b_0_split_0
I1214 22:59:43.604609  5284 net.cpp:408] pool1b_pool1b_0_split -> pool1b_pool1b_0_split_1
I1214 22:59:43.604681  5284 net.cpp:150] Setting up pool1b_pool1b_0_split
I1214 22:59:43.604703  5284 net.cpp:157] Top shape: 1 64 54 46 (158976)
I1214 22:59:43.604719  5284 net.cpp:157] Top shape: 1 64 54 46 (158976)
I1214 22:59:43.604732  5284 net.cpp:165] Memory required for data: 9771012
I1214 22:59:43.604745  5284 layer_factory.hpp:77] Creating layer conv2_1
I1214 22:59:43.604770  5284 net.cpp:100] Creating Layer conv2_1
I1214 22:59:43.604786  5284 net.cpp:434] conv2_1 <- pool1b_pool1b_0_split_0
I1214 22:59:43.604807  5284 net.cpp:408] conv2_1 -> conv2_1
I1214 22:59:43.605759  5284 net.cpp:150] Setting up conv2_1
I1214 22:59:43.605787  5284 net.cpp:157] Top shape: 1 64 54 46 (158976)
I1214 22:59:43.605799  5284 net.cpp:165] Memory required for data: 10406916
I1214 22:59:43.605818  5284 layer_factory.hpp:77] Creating layer relu2_1
I1214 22:59:43.605842  5284 net.cpp:100] Creating Layer relu2_1
I1214 22:59:43.605857  5284 net.cpp:434] relu2_1 <- conv2_1
I1214 22:59:43.605873  5284 net.cpp:395] relu2_1 -> conv2_1 (in-place)
I1214 22:59:43.606964  5284 net.cpp:150] Setting up relu2_1
I1214 22:59:43.607000  5284 net.cpp:157] Top shape: 1 64 54 46 (158976)
I1214 22:59:43.607015  5284 net.cpp:165] Memory required for data: 11042820
I1214 22:59:43.607039  5284 layer_factory.hpp:77] Creating layer conv2_2
I1214 22:59:43.607069  5284 net.cpp:100] Creating Layer conv2_2
I1214 22:59:43.607085  5284 net.cpp:434] conv2_2 <- conv2_1
I1214 22:59:43.607107  5284 net.cpp:408] conv2_2 -> conv2_2
I1214 22:59:43.608044  5284 net.cpp:150] Setting up conv2_2
I1214 22:59:43.608072  5284 net.cpp:157] Top shape: 1 64 54 46 (158976)
I1214 22:59:43.608085  5284 net.cpp:165] Memory required for data: 11678724
I1214 22:59:43.608103  5284 layer_factory.hpp:77] Creating layer relu2_2
I1214 22:59:43.608120  5284 net.cpp:100] Creating Layer relu2_2
I1214 22:59:43.608134  5284 net.cpp:434] relu2_2 <- conv2_2
I1214 22:59:43.608153  5284 net.cpp:395] relu2_2 -> conv2_2 (in-place)
I1214 22:59:43.609251  5284 net.cpp:150] Setting up relu2_2
I1214 22:59:43.609283  5284 net.cpp:157] Top shape: 1 64 54 46 (158976)
I1214 22:59:43.609297  5284 net.cpp:165] Memory required for data: 12314628
I1214 22:59:43.609313  5284 layer_factory.hpp:77] Creating layer res2_2
I1214 22:59:43.609338  5284 net.cpp:100] Creating Layer res2_2
I1214 22:59:43.609351  5284 net.cpp:434] res2_2 <- pool1b_pool1b_0_split_1
I1214 22:59:43.609366  5284 net.cpp:434] res2_2 <- conv2_2
I1214 22:59:43.609382  5284 net.cpp:408] res2_2 -> res2_2
I1214 22:59:43.609436  5284 net.cpp:150] Setting up res2_2
I1214 22:59:43.609459  5284 net.cpp:157] Top shape: 1 64 54 46 (158976)
I1214 22:59:43.609472  5284 net.cpp:165] Memory required for data: 12950532
I1214 22:59:43.609485  5284 layer_factory.hpp:77] Creating layer conv2
I1214 22:59:43.609511  5284 net.cpp:100] Creating Layer conv2
I1214 22:59:43.609532  5284 net.cpp:434] conv2 <- res2_2
I1214 22:59:43.609555  5284 net.cpp:408] conv2 -> conv2
I1214 22:59:43.610558  5284 net.cpp:150] Setting up conv2
I1214 22:59:43.610597  5284 net.cpp:157] Top shape: 1 128 52 44 (292864)
I1214 22:59:43.610615  5284 net.cpp:165] Memory required for data: 14121988
I1214 22:59:43.610632  5284 layer_factory.hpp:77] Creating layer relu2
I1214 22:59:43.610651  5284 net.cpp:100] Creating Layer relu2
I1214 22:59:43.610664  5284 net.cpp:434] relu2 <- conv2
I1214 22:59:43.610679  5284 net.cpp:395] relu2 -> conv2 (in-place)
I1214 22:59:43.611960  5284 net.cpp:150] Setting up relu2
I1214 22:59:43.611991  5284 net.cpp:157] Top shape: 1 128 52 44 (292864)
I1214 22:59:43.612005  5284 net.cpp:165] Memory required for data: 15293444
I1214 22:59:43.612022  5284 layer_factory.hpp:77] Creating layer pool2
I1214 22:59:43.612041  5284 net.cpp:100] Creating Layer pool2
I1214 22:59:43.612054  5284 net.cpp:434] pool2 <- conv2
I1214 22:59:43.612076  5284 net.cpp:408] pool2 -> pool2
I1214 22:59:43.612148  5284 net.cpp:150] Setting up pool2
I1214 22:59:43.612170  5284 net.cpp:157] Top shape: 1 128 26 22 (73216)
I1214 22:59:43.612195  5284 net.cpp:165] Memory required for data: 15586308
I1214 22:59:43.612210  5284 layer_factory.hpp:77] Creating layer pool2_pool2_0_split
I1214 22:59:43.612231  5284 net.cpp:100] Creating Layer pool2_pool2_0_split
I1214 22:59:43.612247  5284 net.cpp:434] pool2_pool2_0_split <- pool2
I1214 22:59:43.612267  5284 net.cpp:408] pool2_pool2_0_split -> pool2_pool2_0_split_0
I1214 22:59:43.612288  5284 net.cpp:408] pool2_pool2_0_split -> pool2_pool2_0_split_1
I1214 22:59:43.612354  5284 net.cpp:150] Setting up pool2_pool2_0_split
I1214 22:59:43.612376  5284 net.cpp:157] Top shape: 1 128 26 22 (73216)
I1214 22:59:43.612391  5284 net.cpp:157] Top shape: 1 128 26 22 (73216)
I1214 22:59:43.612404  5284 net.cpp:165] Memory required for data: 16172036
I1214 22:59:43.612417  5284 layer_factory.hpp:77] Creating layer conv3_1
I1214 22:59:43.612452  5284 net.cpp:100] Creating Layer conv3_1
I1214 22:59:43.612468  5284 net.cpp:434] conv3_1 <- pool2_pool2_0_split_0
I1214 22:59:43.612488  5284 net.cpp:408] conv3_1 -> conv3_1
I1214 22:59:43.615911  5284 net.cpp:150] Setting up conv3_1
I1214 22:59:43.615947  5284 net.cpp:157] Top shape: 1 128 26 22 (73216)
I1214 22:59:43.615962  5284 net.cpp:165] Memory required for data: 16464900
I1214 22:59:43.615993  5284 layer_factory.hpp:77] Creating layer relu3_1
I1214 22:59:43.616011  5284 net.cpp:100] Creating Layer relu3_1
I1214 22:59:43.616025  5284 net.cpp:434] relu3_1 <- conv3_1
I1214 22:59:43.616046  5284 net.cpp:395] relu3_1 -> conv3_1 (in-place)
I1214 22:59:43.616262  5284 net.cpp:150] Setting up relu3_1
I1214 22:59:43.616291  5284 net.cpp:157] Top shape: 1 128 26 22 (73216)
I1214 22:59:43.616305  5284 net.cpp:165] Memory required for data: 16757764
I1214 22:59:43.616322  5284 layer_factory.hpp:77] Creating layer conv3_2
I1214 22:59:43.616349  5284 net.cpp:100] Creating Layer conv3_2
I1214 22:59:43.616365  5284 net.cpp:434] conv3_2 <- conv3_1
I1214 22:59:43.616389  5284 net.cpp:408] conv3_2 -> conv3_2
I1214 22:59:43.619851  5284 net.cpp:150] Setting up conv3_2
I1214 22:59:43.619885  5284 net.cpp:157] Top shape: 1 128 26 22 (73216)
I1214 22:59:43.619900  5284 net.cpp:165] Memory required for data: 17050628
I1214 22:59:43.619918  5284 layer_factory.hpp:77] Creating layer relu3_2
I1214 22:59:43.619940  5284 net.cpp:100] Creating Layer relu3_2
I1214 22:59:43.619956  5284 net.cpp:434] relu3_2 <- conv3_2
I1214 22:59:43.619971  5284 net.cpp:395] relu3_2 -> conv3_2 (in-place)
I1214 22:59:43.620178  5284 net.cpp:150] Setting up relu3_2
I1214 22:59:43.620209  5284 net.cpp:157] Top shape: 1 128 26 22 (73216)
I1214 22:59:43.620223  5284 net.cpp:165] Memory required for data: 17343492
I1214 22:59:43.620239  5284 layer_factory.hpp:77] Creating layer res3_2
I1214 22:59:43.620257  5284 net.cpp:100] Creating Layer res3_2
I1214 22:59:43.620271  5284 net.cpp:434] res3_2 <- pool2_pool2_0_split_1
I1214 22:59:43.620286  5284 net.cpp:434] res3_2 <- conv3_2
I1214 22:59:43.620308  5284 net.cpp:408] res3_2 -> res3_2
I1214 22:59:43.620365  5284 net.cpp:150] Setting up res3_2
I1214 22:59:43.620389  5284 net.cpp:157] Top shape: 1 128 26 22 (73216)
I1214 22:59:43.620415  5284 net.cpp:165] Memory required for data: 17636356
I1214 22:59:43.620429  5284 layer_factory.hpp:77] Creating layer res3_2_res3_2_0_split
I1214 22:59:43.620447  5284 net.cpp:100] Creating Layer res3_2_res3_2_0_split
I1214 22:59:43.620461  5284 net.cpp:434] res3_2_res3_2_0_split <- res3_2
I1214 22:59:43.620491  5284 net.cpp:408] res3_2_res3_2_0_split -> res3_2_res3_2_0_split_0
I1214 22:59:43.620513  5284 net.cpp:408] res3_2_res3_2_0_split -> res3_2_res3_2_0_split_1
I1214 22:59:43.620584  5284 net.cpp:150] Setting up res3_2_res3_2_0_split
I1214 22:59:43.620607  5284 net.cpp:157] Top shape: 1 128 26 22 (73216)
I1214 22:59:43.620622  5284 net.cpp:157] Top shape: 1 128 26 22 (73216)
I1214 22:59:43.620635  5284 net.cpp:165] Memory required for data: 18222084
I1214 22:59:43.620648  5284 layer_factory.hpp:77] Creating layer conv3_3
I1214 22:59:43.620674  5284 net.cpp:100] Creating Layer conv3_3
I1214 22:59:43.620690  5284 net.cpp:434] conv3_3 <- res3_2_res3_2_0_split_0
I1214 22:59:43.620709  5284 net.cpp:408] conv3_3 -> conv3_3
I1214 22:59:43.624162  5284 net.cpp:150] Setting up conv3_3
I1214 22:59:43.624199  5284 net.cpp:157] Top shape: 1 128 26 22 (73216)
I1214 22:59:43.624214  5284 net.cpp:165] Memory required for data: 18514948
I1214 22:59:43.624233  5284 layer_factory.hpp:77] Creating layer relu3_3
I1214 22:59:43.624254  5284 net.cpp:100] Creating Layer relu3_3
I1214 22:59:43.624267  5284 net.cpp:434] relu3_3 <- conv3_3
I1214 22:59:43.624289  5284 net.cpp:395] relu3_3 -> conv3_3 (in-place)
I1214 22:59:43.624490  5284 net.cpp:150] Setting up relu3_3
I1214 22:59:43.624519  5284 net.cpp:157] Top shape: 1 128 26 22 (73216)
I1214 22:59:43.624533  5284 net.cpp:165] Memory required for data: 18807812
I1214 22:59:43.624549  5284 layer_factory.hpp:77] Creating layer conv3_4
I1214 22:59:43.624577  5284 net.cpp:100] Creating Layer conv3_4
I1214 22:59:43.624593  5284 net.cpp:434] conv3_4 <- conv3_3
I1214 22:59:43.624611  5284 net.cpp:408] conv3_4 -> conv3_4
I1214 22:59:43.628062  5284 net.cpp:150] Setting up conv3_4
I1214 22:59:43.628096  5284 net.cpp:157] Top shape: 1 128 26 22 (73216)
I1214 22:59:43.628110  5284 net.cpp:165] Memory required for data: 19100676
I1214 22:59:43.628129  5284 layer_factory.hpp:77] Creating layer relu3_4
I1214 22:59:43.628146  5284 net.cpp:100] Creating Layer relu3_4
I1214 22:59:43.628160  5284 net.cpp:434] relu3_4 <- conv3_4
I1214 22:59:43.628185  5284 net.cpp:395] relu3_4 -> conv3_4 (in-place)
I1214 22:59:43.628388  5284 net.cpp:150] Setting up relu3_4
I1214 22:59:43.628414  5284 net.cpp:157] Top shape: 1 128 26 22 (73216)
I1214 22:59:43.628427  5284 net.cpp:165] Memory required for data: 19393540
I1214 22:59:43.628443  5284 layer_factory.hpp:77] Creating layer res3_4
I1214 22:59:43.628468  5284 net.cpp:100] Creating Layer res3_4
I1214 22:59:43.628482  5284 net.cpp:434] res3_4 <- res3_2_res3_2_0_split_1
I1214 22:59:43.628497  5284 net.cpp:434] res3_4 <- conv3_4
I1214 22:59:43.628514  5284 net.cpp:408] res3_4 -> res3_4
I1214 22:59:43.628571  5284 net.cpp:150] Setting up res3_4
I1214 22:59:43.628593  5284 net.cpp:157] Top shape: 1 128 26 22 (73216)
I1214 22:59:43.628607  5284 net.cpp:165] Memory required for data: 19686404
I1214 22:59:43.628619  5284 layer_factory.hpp:77] Creating layer conv3
I1214 22:59:43.628645  5284 net.cpp:100] Creating Layer conv3
I1214 22:59:43.628661  5284 net.cpp:434] conv3 <- res3_4
I1214 22:59:43.628684  5284 net.cpp:408] conv3 -> conv3
I1214 22:59:43.632562  5284 net.cpp:150] Setting up conv3
I1214 22:59:43.632596  5284 net.cpp:157] Top shape: 1 256 24 20 (122880)
I1214 22:59:43.632609  5284 net.cpp:165] Memory required for data: 20177924
I1214 22:59:43.632628  5284 layer_factory.hpp:77] Creating layer relu3
I1214 22:59:43.632650  5284 net.cpp:100] Creating Layer relu3
I1214 22:59:43.632665  5284 net.cpp:434] relu3 <- conv3
I1214 22:59:43.632681  5284 net.cpp:395] relu3 -> conv3 (in-place)
I1214 22:59:43.632987  5284 net.cpp:150] Setting up relu3
I1214 22:59:43.633013  5284 net.cpp:157] Top shape: 1 256 24 20 (122880)
I1214 22:59:43.633026  5284 net.cpp:165] Memory required for data: 20669444
I1214 22:59:43.633056  5284 layer_factory.hpp:77] Creating layer pool3
I1214 22:59:43.633081  5284 net.cpp:100] Creating Layer pool3
I1214 22:59:43.633096  5284 net.cpp:434] pool3 <- conv3
I1214 22:59:43.633116  5284 net.cpp:408] pool3 -> pool3
I1214 22:59:43.633196  5284 net.cpp:150] Setting up pool3
I1214 22:59:43.633220  5284 net.cpp:157] Top shape: 1 256 12 10 (30720)
I1214 22:59:43.633234  5284 net.cpp:165] Memory required for data: 20792324
I1214 22:59:43.633245  5284 layer_factory.hpp:77] Creating layer pool3_pool3_0_split
I1214 22:59:43.633267  5284 net.cpp:100] Creating Layer pool3_pool3_0_split
I1214 22:59:43.633281  5284 net.cpp:434] pool3_pool3_0_split <- pool3
I1214 22:59:43.633297  5284 net.cpp:408] pool3_pool3_0_split -> pool3_pool3_0_split_0
I1214 22:59:43.633317  5284 net.cpp:408] pool3_pool3_0_split -> pool3_pool3_0_split_1
I1214 22:59:43.633388  5284 net.cpp:150] Setting up pool3_pool3_0_split
I1214 22:59:43.633411  5284 net.cpp:157] Top shape: 1 256 12 10 (30720)
I1214 22:59:43.633426  5284 net.cpp:157] Top shape: 1 256 12 10 (30720)
I1214 22:59:43.633438  5284 net.cpp:165] Memory required for data: 21038084
I1214 22:59:43.633451  5284 layer_factory.hpp:77] Creating layer conv4_1
I1214 22:59:43.633478  5284 net.cpp:100] Creating Layer conv4_1
I1214 22:59:43.633494  5284 net.cpp:434] conv4_1 <- pool3_pool3_0_split_0
I1214 22:59:43.633522  5284 net.cpp:408] conv4_1 -> conv4_1
I1214 22:59:43.644805  5284 net.cpp:150] Setting up conv4_1
I1214 22:59:43.644872  5284 net.cpp:157] Top shape: 1 256 12 10 (30720)
I1214 22:59:43.644887  5284 net.cpp:165] Memory required for data: 21160964
I1214 22:59:43.644912  5284 layer_factory.hpp:77] Creating layer relu4_1
I1214 22:59:43.644953  5284 net.cpp:100] Creating Layer relu4_1
I1214 22:59:43.644971  5284 net.cpp:434] relu4_1 <- conv4_1
I1214 22:59:43.644991  5284 net.cpp:395] relu4_1 -> conv4_1 (in-place)
I1214 22:59:43.645196  5284 net.cpp:150] Setting up relu4_1
I1214 22:59:43.645221  5284 net.cpp:157] Top shape: 1 256 12 10 (30720)
I1214 22:59:43.645234  5284 net.cpp:165] Memory required for data: 21283844
I1214 22:59:43.645267  5284 layer_factory.hpp:77] Creating layer conv4_2
I1214 22:59:43.645301  5284 net.cpp:100] Creating Layer conv4_2
I1214 22:59:43.645318  5284 net.cpp:434] conv4_2 <- conv4_1
I1214 22:59:43.645342  5284 net.cpp:408] conv4_2 -> conv4_2
I1214 22:59:43.656899  5284 net.cpp:150] Setting up conv4_2
I1214 22:59:43.656973  5284 net.cpp:157] Top shape: 1 256 12 10 (30720)
I1214 22:59:43.656988  5284 net.cpp:165] Memory required for data: 21406724
I1214 22:59:43.657012  5284 layer_factory.hpp:77] Creating layer relu4_2
I1214 22:59:43.657037  5284 net.cpp:100] Creating Layer relu4_2
I1214 22:59:43.657052  5284 net.cpp:434] relu4_2 <- conv4_2
I1214 22:59:43.657073  5284 net.cpp:395] relu4_2 -> conv4_2 (in-place)
I1214 22:59:43.657284  5284 net.cpp:150] Setting up relu4_2
I1214 22:59:43.657310  5284 net.cpp:157] Top shape: 1 256 12 10 (30720)
I1214 22:59:43.657325  5284 net.cpp:165] Memory required for data: 21529604
I1214 22:59:43.657341  5284 layer_factory.hpp:77] Creating layer res4_2
I1214 22:59:43.657361  5284 net.cpp:100] Creating Layer res4_2
I1214 22:59:43.657376  5284 net.cpp:434] res4_2 <- pool3_pool3_0_split_1
I1214 22:59:43.657392  5284 net.cpp:434] res4_2 <- conv4_2
I1214 22:59:43.657413  5284 net.cpp:408] res4_2 -> res4_2
I1214 22:59:43.657464  5284 net.cpp:150] Setting up res4_2
I1214 22:59:43.657486  5284 net.cpp:157] Top shape: 1 256 12 10 (30720)
I1214 22:59:43.657500  5284 net.cpp:165] Memory required for data: 21652484
I1214 22:59:43.657513  5284 layer_factory.hpp:77] Creating layer res4_2_res4_2_0_split
I1214 22:59:43.657537  5284 net.cpp:100] Creating Layer res4_2_res4_2_0_split
I1214 22:59:43.657552  5284 net.cpp:434] res4_2_res4_2_0_split <- res4_2
I1214 22:59:43.657573  5284 net.cpp:408] res4_2_res4_2_0_split -> res4_2_res4_2_0_split_0
I1214 22:59:43.657593  5284 net.cpp:408] res4_2_res4_2_0_split -> res4_2_res4_2_0_split_1
I1214 22:59:43.657660  5284 net.cpp:150] Setting up res4_2_res4_2_0_split
I1214 22:59:43.657706  5284 net.cpp:157] Top shape: 1 256 12 10 (30720)
I1214 22:59:43.657724  5284 net.cpp:157] Top shape: 1 256 12 10 (30720)
I1214 22:59:43.657738  5284 net.cpp:165] Memory required for data: 21898244
I1214 22:59:43.657752  5284 layer_factory.hpp:77] Creating layer conv4_3
I1214 22:59:43.657788  5284 net.cpp:100] Creating Layer conv4_3
I1214 22:59:43.657804  5284 net.cpp:434] conv4_3 <- res4_2_res4_2_0_split_0
I1214 22:59:43.657824  5284 net.cpp:408] conv4_3 -> conv4_3
I1214 22:59:43.669406  5284 net.cpp:150] Setting up conv4_3
I1214 22:59:43.669479  5284 net.cpp:157] Top shape: 1 256 12 10 (30720)
I1214 22:59:43.669493  5284 net.cpp:165] Memory required for data: 22021124
I1214 22:59:43.669517  5284 layer_factory.hpp:77] Creating layer relu4_3
I1214 22:59:43.669546  5284 net.cpp:100] Creating Layer relu4_3
I1214 22:59:43.669564  5284 net.cpp:434] relu4_3 <- conv4_3
I1214 22:59:43.669584  5284 net.cpp:395] relu4_3 -> conv4_3 (in-place)
I1214 22:59:43.669785  5284 net.cpp:150] Setting up relu4_3
I1214 22:59:43.669811  5284 net.cpp:157] Top shape: 1 256 12 10 (30720)
I1214 22:59:43.669824  5284 net.cpp:165] Memory required for data: 22144004
I1214 22:59:43.669839  5284 layer_factory.hpp:77] Creating layer conv4_4
I1214 22:59:43.669872  5284 net.cpp:100] Creating Layer conv4_4
I1214 22:59:43.669888  5284 net.cpp:434] conv4_4 <- conv4_3
I1214 22:59:43.669914  5284 net.cpp:408] conv4_4 -> conv4_4
I1214 22:59:43.681399  5284 net.cpp:150] Setting up conv4_4
I1214 22:59:43.681480  5284 net.cpp:157] Top shape: 1 256 12 10 (30720)
I1214 22:59:43.681495  5284 net.cpp:165] Memory required for data: 22266884
I1214 22:59:43.681519  5284 layer_factory.hpp:77] Creating layer relu4_4
I1214 22:59:43.681542  5284 net.cpp:100] Creating Layer relu4_4
I1214 22:59:43.681558  5284 net.cpp:434] relu4_4 <- conv4_4
I1214 22:59:43.681578  5284 net.cpp:395] relu4_4 -> conv4_4 (in-place)
I1214 22:59:43.681783  5284 net.cpp:150] Setting up relu4_4
I1214 22:59:43.681809  5284 net.cpp:157] Top shape: 1 256 12 10 (30720)
I1214 22:59:43.681823  5284 net.cpp:165] Memory required for data: 22389764
I1214 22:59:43.681838  5284 layer_factory.hpp:77] Creating layer res4_4
I1214 22:59:43.681861  5284 net.cpp:100] Creating Layer res4_4
I1214 22:59:43.681876  5284 net.cpp:434] res4_4 <- res4_2_res4_2_0_split_1
I1214 22:59:43.681892  5284 net.cpp:434] res4_4 <- conv4_4
I1214 22:59:43.681908  5284 net.cpp:408] res4_4 -> res4_4
I1214 22:59:43.681972  5284 net.cpp:150] Setting up res4_4
I1214 22:59:43.681995  5284 net.cpp:157] Top shape: 1 256 12 10 (30720)
I1214 22:59:43.682008  5284 net.cpp:165] Memory required for data: 22512644
I1214 22:59:43.682021  5284 layer_factory.hpp:77] Creating layer res4_4_res4_4_0_split
I1214 22:59:43.682039  5284 net.cpp:100] Creating Layer res4_4_res4_4_0_split
I1214 22:59:43.682054  5284 net.cpp:434] res4_4_res4_4_0_split <- res4_4
I1214 22:59:43.682075  5284 net.cpp:408] res4_4_res4_4_0_split -> res4_4_res4_4_0_split_0
I1214 22:59:43.682096  5284 net.cpp:408] res4_4_res4_4_0_split -> res4_4_res4_4_0_split_1
I1214 22:59:43.682164  5284 net.cpp:150] Setting up res4_4_res4_4_0_split
I1214 22:59:43.682193  5284 net.cpp:157] Top shape: 1 256 12 10 (30720)
I1214 22:59:43.682209  5284 net.cpp:157] Top shape: 1 256 12 10 (30720)
I1214 22:59:43.682222  5284 net.cpp:165] Memory required for data: 22758404
I1214 22:59:43.682235  5284 layer_factory.hpp:77] Creating layer conv4_5
I1214 22:59:43.682266  5284 net.cpp:100] Creating Layer conv4_5
I1214 22:59:43.682282  5284 net.cpp:434] conv4_5 <- res4_4_res4_4_0_split_0
I1214 22:59:43.682308  5284 net.cpp:408] conv4_5 -> conv4_5
I1214 22:59:43.693469  5284 net.cpp:150] Setting up conv4_5
I1214 22:59:43.693501  5284 net.cpp:157] Top shape: 1 256 12 10 (30720)
I1214 22:59:43.693516  5284 net.cpp:165] Memory required for data: 22881284
I1214 22:59:43.693534  5284 layer_factory.hpp:77] Creating layer relu4_5
I1214 22:59:43.693552  5284 net.cpp:100] Creating Layer relu4_5
I1214 22:59:43.693567  5284 net.cpp:434] relu4_5 <- conv4_5
I1214 22:59:43.693586  5284 net.cpp:395] relu4_5 -> conv4_5 (in-place)
I1214 22:59:43.694576  5284 net.cpp:150] Setting up relu4_5
I1214 22:59:43.694607  5284 net.cpp:157] Top shape: 1 256 12 10 (30720)
I1214 22:59:43.694622  5284 net.cpp:165] Memory required for data: 23004164
I1214 22:59:43.694638  5284 layer_factory.hpp:77] Creating layer conv4_6
I1214 22:59:43.694669  5284 net.cpp:100] Creating Layer conv4_6
I1214 22:59:43.694684  5284 net.cpp:434] conv4_6 <- conv4_5
I1214 22:59:43.694703  5284 net.cpp:408] conv4_6 -> conv4_6
I1214 22:59:43.705714  5284 net.cpp:150] Setting up conv4_6
I1214 22:59:43.705746  5284 net.cpp:157] Top shape: 1 256 12 10 (30720)
I1214 22:59:43.705761  5284 net.cpp:165] Memory required for data: 23127044
I1214 22:59:43.705780  5284 layer_factory.hpp:77] Creating layer relu4_6
I1214 22:59:43.705797  5284 net.cpp:100] Creating Layer relu4_6
I1214 22:59:43.705811  5284 net.cpp:434] relu4_6 <- conv4_6
I1214 22:59:43.705832  5284 net.cpp:395] relu4_6 -> conv4_6 (in-place)
I1214 22:59:43.706001  5284 net.cpp:150] Setting up relu4_6
I1214 22:59:43.706027  5284 net.cpp:157] Top shape: 1 256 12 10 (30720)
I1214 22:59:43.706042  5284 net.cpp:165] Memory required for data: 23249924
I1214 22:59:43.706056  5284 layer_factory.hpp:77] Creating layer res4_6
I1214 22:59:43.706079  5284 net.cpp:100] Creating Layer res4_6
I1214 22:59:43.706094  5284 net.cpp:434] res4_6 <- res4_4_res4_4_0_split_1
I1214 22:59:43.706110  5284 net.cpp:434] res4_6 <- conv4_6
I1214 22:59:43.706125  5284 net.cpp:408] res4_6 -> res4_6
I1214 22:59:43.706179  5284 net.cpp:150] Setting up res4_6
I1214 22:59:43.706208  5284 net.cpp:157] Top shape: 1 256 12 10 (30720)
I1214 22:59:43.706221  5284 net.cpp:165] Memory required for data: 23372804
I1214 22:59:43.706234  5284 layer_factory.hpp:77] Creating layer res4_6_res4_6_0_split
I1214 22:59:43.706256  5284 net.cpp:100] Creating Layer res4_6_res4_6_0_split
I1214 22:59:43.706270  5284 net.cpp:434] res4_6_res4_6_0_split <- res4_6
I1214 22:59:43.706287  5284 net.cpp:408] res4_6_res4_6_0_split -> res4_6_res4_6_0_split_0
I1214 22:59:43.706310  5284 net.cpp:408] res4_6_res4_6_0_split -> res4_6_res4_6_0_split_1
I1214 22:59:43.706379  5284 net.cpp:150] Setting up res4_6_res4_6_0_split
I1214 22:59:43.706403  5284 net.cpp:157] Top shape: 1 256 12 10 (30720)
I1214 22:59:43.706418  5284 net.cpp:157] Top shape: 1 256 12 10 (30720)
I1214 22:59:43.706430  5284 net.cpp:165] Memory required for data: 23618564
I1214 22:59:43.706442  5284 layer_factory.hpp:77] Creating layer conv4_7
I1214 22:59:43.706470  5284 net.cpp:100] Creating Layer conv4_7
I1214 22:59:43.706486  5284 net.cpp:434] conv4_7 <- res4_6_res4_6_0_split_0
I1214 22:59:43.706509  5284 net.cpp:408] conv4_7 -> conv4_7
I1214 22:59:43.717514  5284 net.cpp:150] Setting up conv4_7
I1214 22:59:43.717546  5284 net.cpp:157] Top shape: 1 256 12 10 (30720)
I1214 22:59:43.717561  5284 net.cpp:165] Memory required for data: 23741444
I1214 22:59:43.717579  5284 layer_factory.hpp:77] Creating layer relu4_7
I1214 22:59:43.717602  5284 net.cpp:100] Creating Layer relu4_7
I1214 22:59:43.717617  5284 net.cpp:434] relu4_7 <- conv4_7
I1214 22:59:43.717633  5284 net.cpp:395] relu4_7 -> conv4_7 (in-place)
I1214 22:59:43.717813  5284 net.cpp:150] Setting up relu4_7
I1214 22:59:43.717836  5284 net.cpp:157] Top shape: 1 256 12 10 (30720)
I1214 22:59:43.717849  5284 net.cpp:165] Memory required for data: 23864324
I1214 22:59:43.717865  5284 layer_factory.hpp:77] Creating layer conv4_8
I1214 22:59:43.717893  5284 net.cpp:100] Creating Layer conv4_8
I1214 22:59:43.717910  5284 net.cpp:434] conv4_8 <- conv4_7
I1214 22:59:43.717928  5284 net.cpp:408] conv4_8 -> conv4_8
I1214 22:59:43.729012  5284 net.cpp:150] Setting up conv4_8
I1214 22:59:43.729049  5284 net.cpp:157] Top shape: 1 256 12 10 (30720)
I1214 22:59:43.729065  5284 net.cpp:165] Memory required for data: 23987204
I1214 22:59:43.729084  5284 layer_factory.hpp:77] Creating layer relu4_8
I1214 22:59:43.729102  5284 net.cpp:100] Creating Layer relu4_8
I1214 22:59:43.729116  5284 net.cpp:434] relu4_8 <- conv4_8
I1214 22:59:43.729132  5284 net.cpp:395] relu4_8 -> conv4_8 (in-place)
I1214 22:59:43.729341  5284 net.cpp:150] Setting up relu4_8
I1214 22:59:43.729367  5284 net.cpp:157] Top shape: 1 256 12 10 (30720)
I1214 22:59:43.729379  5284 net.cpp:165] Memory required for data: 24110084
I1214 22:59:43.729395  5284 layer_factory.hpp:77] Creating layer res4_8
I1214 22:59:43.729418  5284 net.cpp:100] Creating Layer res4_8
I1214 22:59:43.729434  5284 net.cpp:434] res4_8 <- res4_6_res4_6_0_split_1
I1214 22:59:43.729449  5284 net.cpp:434] res4_8 <- conv4_8
I1214 22:59:43.729468  5284 net.cpp:408] res4_8 -> res4_8
I1214 22:59:43.729518  5284 net.cpp:150] Setting up res4_8
I1214 22:59:43.729540  5284 net.cpp:157] Top shape: 1 256 12 10 (30720)
I1214 22:59:43.729553  5284 net.cpp:165] Memory required for data: 24232964
I1214 22:59:43.729567  5284 layer_factory.hpp:77] Creating layer res4_8_res4_8_0_split
I1214 22:59:43.729588  5284 net.cpp:100] Creating Layer res4_8_res4_8_0_split
I1214 22:59:43.729604  5284 net.cpp:434] res4_8_res4_8_0_split <- res4_8
I1214 22:59:43.729624  5284 net.cpp:408] res4_8_res4_8_0_split -> res4_8_res4_8_0_split_0
I1214 22:59:43.729643  5284 net.cpp:408] res4_8_res4_8_0_split -> res4_8_res4_8_0_split_1
I1214 22:59:43.729712  5284 net.cpp:150] Setting up res4_8_res4_8_0_split
I1214 22:59:43.729734  5284 net.cpp:157] Top shape: 1 256 12 10 (30720)
I1214 22:59:43.729750  5284 net.cpp:157] Top shape: 1 256 12 10 (30720)
I1214 22:59:43.729763  5284 net.cpp:165] Memory required for data: 24478724
I1214 22:59:43.729775  5284 layer_factory.hpp:77] Creating layer conv4_9
I1214 22:59:43.729801  5284 net.cpp:100] Creating Layer conv4_9
I1214 22:59:43.729816  5284 net.cpp:434] conv4_9 <- res4_8_res4_8_0_split_0
I1214 22:59:43.729840  5284 net.cpp:408] conv4_9 -> conv4_9
I1214 22:59:43.740829  5284 net.cpp:150] Setting up conv4_9
I1214 22:59:43.740862  5284 net.cpp:157] Top shape: 1 256 12 10 (30720)
I1214 22:59:43.740876  5284 net.cpp:165] Memory required for data: 24601604
I1214 22:59:43.740895  5284 layer_factory.hpp:77] Creating layer relu4_9
I1214 22:59:43.740917  5284 net.cpp:100] Creating Layer relu4_9
I1214 22:59:43.740933  5284 net.cpp:434] relu4_9 <- conv4_9
I1214 22:59:43.740949  5284 net.cpp:395] relu4_9 -> conv4_9 (in-place)
I1214 22:59:43.741137  5284 net.cpp:150] Setting up relu4_9
I1214 22:59:43.741161  5284 net.cpp:157] Top shape: 1 256 12 10 (30720)
I1214 22:59:43.741174  5284 net.cpp:165] Memory required for data: 24724484
I1214 22:59:43.741196  5284 layer_factory.hpp:77] Creating layer conv4_10
I1214 22:59:43.741225  5284 net.cpp:100] Creating Layer conv4_10
I1214 22:59:43.741241  5284 net.cpp:434] conv4_10 <- conv4_9
I1214 22:59:43.741264  5284 net.cpp:408] conv4_10 -> conv4_10
I1214 22:59:43.752270  5284 net.cpp:150] Setting up conv4_10
I1214 22:59:43.752303  5284 net.cpp:157] Top shape: 1 256 12 10 (30720)
I1214 22:59:43.752317  5284 net.cpp:165] Memory required for data: 24847364
I1214 22:59:43.752336  5284 layer_factory.hpp:77] Creating layer relu4_10
I1214 22:59:43.752354  5284 net.cpp:100] Creating Layer relu4_10
I1214 22:59:43.752368  5284 net.cpp:434] relu4_10 <- conv4_10
I1214 22:59:43.752388  5284 net.cpp:395] relu4_10 -> conv4_10 (in-place)
I1214 22:59:43.752576  5284 net.cpp:150] Setting up relu4_10
I1214 22:59:43.752601  5284 net.cpp:157] Top shape: 1 256 12 10 (30720)
I1214 22:59:43.752614  5284 net.cpp:165] Memory required for data: 24970244
I1214 22:59:43.752631  5284 layer_factory.hpp:77] Creating layer res4_10
I1214 22:59:43.752650  5284 net.cpp:100] Creating Layer res4_10
I1214 22:59:43.752663  5284 net.cpp:434] res4_10 <- res4_8_res4_8_0_split_1
I1214 22:59:43.752678  5284 net.cpp:434] res4_10 <- conv4_10
I1214 22:59:43.752699  5284 net.cpp:408] res4_10 -> res4_10
I1214 22:59:43.752755  5284 net.cpp:150] Setting up res4_10
I1214 22:59:43.752777  5284 net.cpp:157] Top shape: 1 256 12 10 (30720)
I1214 22:59:43.752790  5284 net.cpp:165] Memory required for data: 25093124
I1214 22:59:43.752804  5284 layer_factory.hpp:77] Creating layer conv4
I1214 22:59:43.752830  5284 net.cpp:100] Creating Layer conv4
I1214 22:59:43.752846  5284 net.cpp:434] conv4 <- res4_10
I1214 22:59:43.752881  5284 net.cpp:408] conv4 -> conv4
I1214 22:59:43.766732  5284 net.cpp:150] Setting up conv4
I1214 22:59:43.766770  5284 net.cpp:157] Top shape: 1 512 10 8 (40960)
I1214 22:59:43.766785  5284 net.cpp:165] Memory required for data: 25256964
I1214 22:59:43.766805  5284 layer_factory.hpp:77] Creating layer relu4
I1214 22:59:43.766827  5284 net.cpp:100] Creating Layer relu4
I1214 22:59:43.766841  5284 net.cpp:434] relu4 <- conv4
I1214 22:59:43.766858  5284 net.cpp:395] relu4 -> conv4 (in-place)
I1214 22:59:43.767071  5284 net.cpp:150] Setting up relu4
I1214 22:59:43.767096  5284 net.cpp:157] Top shape: 1 512 10 8 (40960)
I1214 22:59:43.767109  5284 net.cpp:165] Memory required for data: 25420804
I1214 22:59:43.767127  5284 layer_factory.hpp:77] Creating layer pool4
I1214 22:59:43.767149  5284 net.cpp:100] Creating Layer pool4
I1214 22:59:43.767165  5284 net.cpp:434] pool4 <- conv4
I1214 22:59:43.767192  5284 net.cpp:408] pool4 -> pool4
I1214 22:59:43.767271  5284 net.cpp:150] Setting up pool4
I1214 22:59:43.767294  5284 net.cpp:157] Top shape: 1 512 5 4 (10240)
I1214 22:59:43.767307  5284 net.cpp:165] Memory required for data: 25461764
I1214 22:59:43.767320  5284 layer_factory.hpp:77] Creating layer pool4_pool4_0_split
I1214 22:59:43.767341  5284 net.cpp:100] Creating Layer pool4_pool4_0_split
I1214 22:59:43.767356  5284 net.cpp:434] pool4_pool4_0_split <- pool4
I1214 22:59:43.767372  5284 net.cpp:408] pool4_pool4_0_split -> pool4_pool4_0_split_0
I1214 22:59:43.767392  5284 net.cpp:408] pool4_pool4_0_split -> pool4_pool4_0_split_1
I1214 22:59:43.767464  5284 net.cpp:150] Setting up pool4_pool4_0_split
I1214 22:59:43.767488  5284 net.cpp:157] Top shape: 1 512 5 4 (10240)
I1214 22:59:43.767503  5284 net.cpp:157] Top shape: 1 512 5 4 (10240)
I1214 22:59:43.767514  5284 net.cpp:165] Memory required for data: 25543684
I1214 22:59:43.767527  5284 layer_factory.hpp:77] Creating layer conv5_1
I1214 22:59:43.767575  5284 net.cpp:100] Creating Layer conv5_1
I1214 22:59:43.767591  5284 net.cpp:434] conv5_1 <- pool4_pool4_0_split_0
I1214 22:59:43.767611  5284 net.cpp:408] conv5_1 -> conv5_1
I1214 22:59:43.815464  5284 net.cpp:150] Setting up conv5_1
I1214 22:59:43.815585  5284 net.cpp:157] Top shape: 1 512 5 4 (10240)
I1214 22:59:43.815603  5284 net.cpp:165] Memory required for data: 25584644
I1214 22:59:43.815821  5284 layer_factory.hpp:77] Creating layer relu5_1
I1214 22:59:43.815903  5284 net.cpp:100] Creating Layer relu5_1
I1214 22:59:43.815943  5284 net.cpp:434] relu5_1 <- conv5_1
I1214 22:59:43.815971  5284 net.cpp:395] relu5_1 -> conv5_1 (in-place)
I1214 22:59:43.816383  5284 net.cpp:150] Setting up relu5_1
I1214 22:59:43.816411  5284 net.cpp:157] Top shape: 1 512 5 4 (10240)
I1214 22:59:43.816423  5284 net.cpp:165] Memory required for data: 25625604
I1214 22:59:43.816448  5284 layer_factory.hpp:77] Creating layer conv5_2
I1214 22:59:43.816489  5284 net.cpp:100] Creating Layer conv5_2
I1214 22:59:43.816507  5284 net.cpp:434] conv5_2 <- conv5_1
I1214 22:59:43.816526  5284 net.cpp:408] conv5_2 -> conv5_2
I1214 22:59:43.860020  5284 net.cpp:150] Setting up conv5_2
I1214 22:59:43.860090  5284 net.cpp:157] Top shape: 1 512 5 4 (10240)
I1214 22:59:43.860105  5284 net.cpp:165] Memory required for data: 25666564
I1214 22:59:43.860128  5284 layer_factory.hpp:77] Creating layer relu5_2
I1214 22:59:43.860152  5284 net.cpp:100] Creating Layer relu5_2
I1214 22:59:43.860167  5284 net.cpp:434] relu5_2 <- conv5_2
I1214 22:59:43.860193  5284 net.cpp:395] relu5_2 -> conv5_2 (in-place)
I1214 22:59:43.860371  5284 net.cpp:150] Setting up relu5_2
I1214 22:59:43.860396  5284 net.cpp:157] Top shape: 1 512 5 4 (10240)
I1214 22:59:43.860409  5284 net.cpp:165] Memory required for data: 25707524
I1214 22:59:43.860425  5284 layer_factory.hpp:77] Creating layer res5_2
I1214 22:59:43.860463  5284 net.cpp:100] Creating Layer res5_2
I1214 22:59:43.860492  5284 net.cpp:434] res5_2 <- pool4_pool4_0_split_1
I1214 22:59:43.860510  5284 net.cpp:434] res5_2 <- conv5_2
I1214 22:59:43.860528  5284 net.cpp:408] res5_2 -> res5_2
I1214 22:59:43.860606  5284 net.cpp:150] Setting up res5_2
I1214 22:59:43.860630  5284 net.cpp:157] Top shape: 1 512 5 4 (10240)
I1214 22:59:43.860641  5284 net.cpp:165] Memory required for data: 25748484
I1214 22:59:43.860663  5284 layer_factory.hpp:77] Creating layer res5_2_res5_2_0_split
I1214 22:59:43.860683  5284 net.cpp:100] Creating Layer res5_2_res5_2_0_split
I1214 22:59:43.860697  5284 net.cpp:434] res5_2_res5_2_0_split <- res5_2
I1214 22:59:43.860718  5284 net.cpp:408] res5_2_res5_2_0_split -> res5_2_res5_2_0_split_0
I1214 22:59:43.860739  5284 net.cpp:408] res5_2_res5_2_0_split -> res5_2_res5_2_0_split_1
I1214 22:59:43.860810  5284 net.cpp:150] Setting up res5_2_res5_2_0_split
I1214 22:59:43.860833  5284 net.cpp:157] Top shape: 1 512 5 4 (10240)
I1214 22:59:43.860848  5284 net.cpp:157] Top shape: 1 512 5 4 (10240)
I1214 22:59:43.860862  5284 net.cpp:165] Memory required for data: 25830404
I1214 22:59:43.860874  5284 layer_factory.hpp:77] Creating layer conv5_3
I1214 22:59:43.860904  5284 net.cpp:100] Creating Layer conv5_3
I1214 22:59:43.860920  5284 net.cpp:434] conv5_3 <- res5_2_res5_2_0_split_0
I1214 22:59:43.860944  5284 net.cpp:408] conv5_3 -> conv5_3
I1214 22:59:43.904932  5284 net.cpp:150] Setting up conv5_3
I1214 22:59:43.905001  5284 net.cpp:157] Top shape: 1 512 5 4 (10240)
I1214 22:59:43.905016  5284 net.cpp:165] Memory required for data: 25871364
I1214 22:59:43.905041  5284 layer_factory.hpp:77] Creating layer relu5_3
I1214 22:59:43.905066  5284 net.cpp:100] Creating Layer relu5_3
I1214 22:59:43.905081  5284 net.cpp:434] relu5_3 <- conv5_3
I1214 22:59:43.905103  5284 net.cpp:395] relu5_3 -> conv5_3 (in-place)
I1214 22:59:43.905288  5284 net.cpp:150] Setting up relu5_3
I1214 22:59:43.905314  5284 net.cpp:157] Top shape: 1 512 5 4 (10240)
I1214 22:59:43.905328  5284 net.cpp:165] Memory required for data: 25912324
I1214 22:59:43.905342  5284 layer_factory.hpp:77] Creating layer conv5_4
I1214 22:59:43.905375  5284 net.cpp:100] Creating Layer conv5_4
I1214 22:59:43.905391  5284 net.cpp:434] conv5_4 <- conv5_3
I1214 22:59:43.905419  5284 net.cpp:408] conv5_4 -> conv5_4
I1214 22:59:43.948460  5284 net.cpp:150] Setting up conv5_4
I1214 22:59:43.948524  5284 net.cpp:157] Top shape: 1 512 5 4 (10240)
I1214 22:59:43.948539  5284 net.cpp:165] Memory required for data: 25953284
I1214 22:59:43.948578  5284 layer_factory.hpp:77] Creating layer relu5_4
I1214 22:59:43.948606  5284 net.cpp:100] Creating Layer relu5_4
I1214 22:59:43.948623  5284 net.cpp:434] relu5_4 <- conv5_4
I1214 22:59:43.948642  5284 net.cpp:395] relu5_4 -> conv5_4 (in-place)
I1214 22:59:43.948824  5284 net.cpp:150] Setting up relu5_4
I1214 22:59:43.948849  5284 net.cpp:157] Top shape: 1 512 5 4 (10240)
I1214 22:59:43.948863  5284 net.cpp:165] Memory required for data: 25994244
I1214 22:59:43.948879  5284 layer_factory.hpp:77] Creating layer res5_4
I1214 22:59:43.948912  5284 net.cpp:100] Creating Layer res5_4
I1214 22:59:43.948928  5284 net.cpp:434] res5_4 <- res5_2_res5_2_0_split_1
I1214 22:59:43.948943  5284 net.cpp:434] res5_4 <- conv5_4
I1214 22:59:43.948961  5284 net.cpp:408] res5_4 -> res5_4
I1214 22:59:43.949017  5284 net.cpp:150] Setting up res5_4
I1214 22:59:43.949039  5284 net.cpp:157] Top shape: 1 512 5 4 (10240)
I1214 22:59:43.949053  5284 net.cpp:165] Memory required for data: 26035204
I1214 22:59:43.949066  5284 layer_factory.hpp:77] Creating layer res5_4_res5_4_0_split
I1214 22:59:43.949084  5284 net.cpp:100] Creating Layer res5_4_res5_4_0_split
I1214 22:59:43.949097  5284 net.cpp:434] res5_4_res5_4_0_split <- res5_4
I1214 22:59:43.949118  5284 net.cpp:408] res5_4_res5_4_0_split -> res5_4_res5_4_0_split_0
I1214 22:59:43.949139  5284 net.cpp:408] res5_4_res5_4_0_split -> res5_4_res5_4_0_split_1
I1214 22:59:43.949229  5284 net.cpp:150] Setting up res5_4_res5_4_0_split
I1214 22:59:43.949254  5284 net.cpp:157] Top shape: 1 512 5 4 (10240)
I1214 22:59:43.949268  5284 net.cpp:157] Top shape: 1 512 5 4 (10240)
I1214 22:59:43.949281  5284 net.cpp:165] Memory required for data: 26117124
I1214 22:59:43.949302  5284 layer_factory.hpp:77] Creating layer conv5_5
I1214 22:59:43.949350  5284 net.cpp:100] Creating Layer conv5_5
I1214 22:59:43.949368  5284 net.cpp:434] conv5_5 <- res5_4_res5_4_0_split_0
I1214 22:59:43.949390  5284 net.cpp:408] conv5_5 -> conv5_5
I1214 22:59:43.992092  5284 net.cpp:150] Setting up conv5_5
I1214 22:59:43.992157  5284 net.cpp:157] Top shape: 1 512 5 4 (10240)
I1214 22:59:43.992172  5284 net.cpp:165] Memory required for data: 26158084
I1214 22:59:43.992202  5284 layer_factory.hpp:77] Creating layer relu5_5
I1214 22:59:43.992226  5284 net.cpp:100] Creating Layer relu5_5
I1214 22:59:43.992243  5284 net.cpp:434] relu5_5 <- conv5_5
I1214 22:59:43.992266  5284 net.cpp:395] relu5_5 -> conv5_5 (in-place)
I1214 22:59:43.992445  5284 net.cpp:150] Setting up relu5_5
I1214 22:59:43.992470  5284 net.cpp:157] Top shape: 1 512 5 4 (10240)
I1214 22:59:43.992483  5284 net.cpp:165] Memory required for data: 26199044
I1214 22:59:43.992519  5284 layer_factory.hpp:77] Creating layer conv5_6
I1214 22:59:43.992552  5284 net.cpp:100] Creating Layer conv5_6
I1214 22:59:43.992568  5284 net.cpp:434] conv5_6 <- conv5_5
I1214 22:59:43.992590  5284 net.cpp:408] conv5_6 -> conv5_6
I1214 22:59:44.035079  5284 net.cpp:150] Setting up conv5_6
I1214 22:59:44.035146  5284 net.cpp:157] Top shape: 1 512 5 4 (10240)
I1214 22:59:44.035162  5284 net.cpp:165] Memory required for data: 26240004
I1214 22:59:44.035192  5284 layer_factory.hpp:77] Creating layer relu5_6
I1214 22:59:44.035215  5284 net.cpp:100] Creating Layer relu5_6
I1214 22:59:44.035231  5284 net.cpp:434] relu5_6 <- conv5_6
I1214 22:59:44.035254  5284 net.cpp:395] relu5_6 -> conv5_6 (in-place)
I1214 22:59:44.035437  5284 net.cpp:150] Setting up relu5_6
I1214 22:59:44.035462  5284 net.cpp:157] Top shape: 1 512 5 4 (10240)
I1214 22:59:44.035476  5284 net.cpp:165] Memory required for data: 26280964
I1214 22:59:44.035492  5284 layer_factory.hpp:77] Creating layer res5_6
I1214 22:59:44.035514  5284 net.cpp:100] Creating Layer res5_6
I1214 22:59:44.035531  5284 net.cpp:434] res5_6 <- res5_4_res5_4_0_split_1
I1214 22:59:44.035547  5284 net.cpp:434] res5_6 <- conv5_6
I1214 22:59:44.035563  5284 net.cpp:408] res5_6 -> res5_6
I1214 22:59:44.035620  5284 net.cpp:150] Setting up res5_6
I1214 22:59:44.035642  5284 net.cpp:157] Top shape: 1 512 5 4 (10240)
I1214 22:59:44.035655  5284 net.cpp:165] Memory required for data: 26321924
I1214 22:59:44.035668  5284 layer_factory.hpp:77] Creating layer fc5
I1214 22:59:44.035691  5284 net.cpp:100] Creating Layer fc5
I1214 22:59:44.035706  5284 net.cpp:434] fc5 <- res5_6
I1214 22:59:44.035724  5284 net.cpp:408] fc5 -> fc5
I1214 22:59:44.097457  5284 net.cpp:150] Setting up fc5
I1214 22:59:44.097525  5284 net.cpp:157] Top shape: 1 512 (512)
I1214 22:59:44.097539  5284 net.cpp:165] Memory required for data: 26323972
I1214 22:59:44.097565  5284 layer_factory.hpp:77] Creating layer fc_add
I1214 22:59:44.097614  5284 net.cpp:100] Creating Layer fc_add
I1214 22:59:44.097632  5284 net.cpp:434] fc_add <- fc5
I1214 22:59:44.097653  5284 net.cpp:408] fc_add -> fc_add
I1214 22:59:44.097961  5284 net.cpp:150] Setting up fc_add
I1214 22:59:44.097987  5284 net.cpp:157] Top shape: 1 7 (7)
I1214 22:59:44.098000  5284 net.cpp:165] Memory required for data: 26324000
I1214 22:59:44.098017  5284 layer_factory.hpp:77] Creating layer loss
I1214 22:59:44.098037  5284 net.cpp:100] Creating Layer loss
I1214 22:59:44.098052  5284 net.cpp:434] loss <- fc_add
I1214 22:59:44.098067  5284 net.cpp:434] loss <- label
I1214 22:59:44.098083  5284 net.cpp:408] loss -> (automatic)
I1214 22:59:44.098104  5284 layer_factory.hpp:77] Creating layer loss
…
