…
I1214 22:10:58.042836 32654 net.cpp:322] The NetState phase (0) differed from the phase (1) specified by a rule in layer data_test
I1214 22:10:58.044616 32654 net.cpp:58] Initializing net from parameters: 
name: "Inception21k"
state {
  phase: TRAIN
  level: 0
  stage: ""
}
layer {
  name: "data_train"
  type: "ImageData"
  top: "data"
  top: "label"
  include {
    phase: TRAIN
  }
  transform_param {
    mean_value: 129
  }
  image_data_param {
    source: "../fer2013/list_train.txt"
    batch_size: 60
    shuffle: true
    new_height: 224
    new_width: 224
    is_color: true
    root_folder: "../fer2013/fer2013_ims/"
  }
}
layer {
  name: "conv_conv1"
  type: "Convolution"
  bottom: "data"
  top: "conv_conv1"
  convolution_param {
    num_output: 96
    pad: 3
    kernel_size: 7
    stride: 2
  }
}
layer {
  name: "bn_conv1"
  type: "BatchNorm"
  bottom: "conv_conv1"
  top: "conv_conv1"
  batch_norm_param {
    use_global_stats: true
  }
}
layer {
  name: "scale_conv_conv1"
  type: "Scale"
  bottom: "conv_conv1"
  top: "conv_conv1"
  scale_param {
    bias_term: true
  }
}
layer {
  name: "relu_conv1"
  type: "ReLU"
  bottom: "conv_conv1"
  top: "conv_conv1"
}
layer {
  name: "pool1"
  type: "Pooling"
  bottom: "conv_conv1"
  top: "pool1"
  pooling_param {
    pool: MAX
    kernel_size: 3
    stride: 2
    pad: 0
  }
}
layer {
  name: "conv_conv2red"
  type: "Convolution"
  bottom: "pool1"
  top: "conv_conv2red"
  convolution_param {
    num_output: 128
    pad: 0
    kernel_size: 1
    stride: 1
  }
}
layer {
  name: "bn_conv2red"
  type: "BatchNorm"
  bottom: "conv_conv2red"
  top: "conv_conv2red"
  batch_norm_param {
    use_global_stats: true
  }
}
layer {
  name: "scale_conv_conv2red"
  type: "Scale"
  bottom: "conv_conv2red"
  top: "conv_conv2red"
  scale_param {
    bias_term: true
  }
}
layer {
  name: "relu_conv2red"
  type: "ReLU"
  bottom: "conv_conv2red"
  top: "conv_conv2red"
}
layer {
  name: "conv_conv2"
  type: "Convolution"
  bottom: "conv_conv2red"
  top: "conv_conv2"
  convolution_param {
    num_output: 288
    pad: 1
    kernel_size: 3
    stride: 1
  }
}
layer {
  name: "bn_conv2"
  type: "BatchNorm"
  bottom: "conv_conv2"
  top: "conv_conv2"
  batch_norm_param {
    use_global_stats: true
  }
}
layer {
  name: "scale_conv_conv2"
  type: "Scale"
  bottom: "conv_conv2"
  top: "conv_conv2"
  scale_param {
    bias_term: true
  }
}
layer {
  name: "relu_conv2"
  type: "ReLU"
  bottom: "conv_conv2"
  top: "conv_conv2"
}
layer {
  name: "pool2"
  type: "Pooling"
  bottom: "conv_conv2"
  top: "pool2"
  pooling_param {
    pool: MAX
    kernel_size: 3
    stride: 2
    pad: 0
  }
}
layer {
  name: "conv_3a_1x1"
  type: "Convolution"
  bottom: "pool2"
  top: "conv_3a_1x1"
  convolution_param {
    num_output: 96
    pad: 0
    kernel_size: 1
    stride: 1
  }
}
layer {
  name: "bn_3a_1x1"
  type: "BatchNorm"
  bottom: "conv_3a_1x1"
  top: "conv_3a_1x1"
  batch_norm_param {
    use_global_stats: true
  }
}
layer {
  name: "scale_conv_3a_1x1"
  type: "Scale"
  bottom: "conv_3a_1x1"
  top: "conv_3a_1x1"
  scale_param {
    bias_term: true
  }
}
layer {
  name: "relu_3a_1x1"
  type: "ReLU"
  bottom: "conv_3a_1x1"
  top: "conv_3a_1x1"
}
layer {
  name: "conv_3a_3x3_reduce"
  type: "Convolution"
  bottom: "pool2"
  top: "conv_3a_3x3_reduce"
  convolution_param {
    num_output: 96
    pad: 0
    kernel_size: 1
    stride: 1
  }
}
layer {
  name: "bn_3a_3x3_reduce"
  type: "BatchNorm"
  bottom: "conv_3a_3x3_reduce"
  top: "conv_3a_3x3_reduce"
  batch_norm_param {
    use_global_stats: true
  }
}
layer {
  name: "scale_conv_3a_3x3_reduce"
  type: "Scale"
  bottom: "conv_3a_3x3_reduce"
  top: "conv_3a_3x3_reduce"
  scale_param {
    bias_term: true
  }
}
layer {
  name: "relu_3a_3x3_reduce"
  type: "ReLU"
  bottom: "conv_3a_3x3_reduce"
  top: "conv_3a_3x3_reduce"
}
layer {
  name: "conv_3a_3x3"
  type: "Convolution"
  bottom: "conv_3a_3x3_reduce"
  top: "conv_3a_3x3"
  convolution_param {
    num_output: 96
    pad: 1
    kernel_size: 3
    stride: 1
  }
}
layer {
  name: "bn_3a_3x3"
  type: "BatchNorm"
  bottom: "conv_3a_3x3"
  top: "conv_3a_3x3"
  batch_norm_param {
    use_global_stats: true
  }
}
layer {
  name: "scale_conv_3a_3x3"
  type: "Scale"
  bottom: "conv_3a_3x3"
  top: "conv_3a_3x3"
  scale_param {
    bias_term: true
  }
}
layer {
  name: "relu_3a_3x3"
  type: "ReLU"
  bottom: "conv_3a_3x3"
  top: "conv_3a_3x3"
}
layer {
  name: "conv_3a_double_3x3_reduce"
  type: "Convolution"
  bottom: "pool2"
  top: "conv_3a_double_3x3_reduce"
  convolution_param {
    num_output: 96
    pad: 0
    kernel_size: 1
    stride: 1
  }
}
layer {
  name: "bn_3a_double_3x3_reduce"
  type: "BatchNorm"
  bottom: "conv_3a_double_3x3_reduce"
  top: "conv_3a_double_3x3_reduce"
  batch_norm_param {
    use_global_stats: true
  }
}
layer {
  name: "scale_conv_3a_double_3x3_reduce"
  type: "Scale"
  bottom: "conv_3a_double_3x3_reduce"
  top: "conv_3a_double_3x3_reduce"
  scale_param {
    bias_term: true
  }
}
layer {
  name: "relu_3a_double_3x3_reduce"
  type: "ReLU"
  bottom: "conv_3a_double_3x3_reduce"
  top: "conv_3a_double_3x3_reduce"
}
layer {
  name: "conv_3a_double_3x3_0"
  type: "Convolution"
  bottom: "conv_3a_double_3x3_reduce"
  top: "conv_3a_double_3x3_0"
  convolution_param {
    num_output: 144
    pad: 1
    kernel_size: 3
    stride: 1
  }
}
layer {
  name: "bn_3a_double_3x3_0"
  type: "BatchNorm"
  bottom: "conv_3a_double_3x3_0"
  top: "conv_3a_double_3x3_0"
  batch_norm_param {
    use_global_stats: true
  }
}
layer {
  name: "scale_conv_3a_double_3x3_0"
  type: "Scale"
  bottom: "conv_3a_double_3x3_0"
  top: "conv_3a_double_3x3_0"
  scale_param {
    bias_term: true
  }
}
layer {
  name: "relu_3a_double_3x3_0"
  type: "ReLU"
  bottom: "conv_3a_double_3x3_0"
  top: "conv_3a_double_3x3_0"
}
layer {
  name: "conv_3a_double_3x3_1"
  type: "Convolution"
  bottom: "conv_3a_double_3x3_0"
  top: "conv_3a_double_3x3_1"
  convolution_param {
    num_output: 144
    pad: 1
    kernel_size: 3
    stride: 1
  }
}
layer {
  name: "bn_3a_double_3x3_1"
  type: "BatchNorm"
  bottom: "conv_3a_double_3x3_1"
  top: "conv_3a_double_3x3_1"
  batch_norm_param {
    use_global_stats: true
  }
}
layer {
  name: "scale_conv_3a_double_3x3_1"
  type: "Scale"
  bottom: "conv_3a_double_3x3_1"
  top: "conv_3a_double_3x3_1"
  scale_param {
    bias_term: true
  }
}
layer {
  name: "relu_3a_double_3x3_1"
  type: "ReLU"
  bottom: "conv_3a_double_3x3_1"
  top: "conv_3a_double_3x3_1"
}
layer {
  name: "ave_pool_3a_pool"
  type: "Pooling"
  bottom: "pool2"
  top: "ave_pool_3a_pool"
  pooling_param {
    pool: AVE
    kernel_size: 3
    stride: 1
    pad: 1
  }
}
layer {
  name: "conv_3a_proj"
  type: "Convolution"
  bottom: "ave_pool_3a_pool"
  top: "conv_3a_proj"
  convolution_param {
    num_output: 48
    pad: 0
    kernel_size: 1
    stride: 1
  }
}
layer {
  name: "bn_3a_proj"
  type: "BatchNorm"
  bottom: "conv_3a_proj"
  top: "conv_3a_proj"
  batch_norm_param {
    use_global_stats: true
  }
}
layer {
  name: "scale_conv_3a_proj"
  type: "Scale"
  bottom: "conv_3a_proj"
  top: "conv_3a_proj"
  scale_param {
    bias_term: true
  }
}
layer {
  name: "relu_3a_proj"
  type: "ReLU"
  bottom: "conv_3a_proj"
  top: "conv_3a_proj"
}
layer {
  name: "ch_concat_3a_chconcat"
  type: "Concat"
  bottom: "conv_3a_1x1"
  bottom: "conv_3a_3x3"
  bottom: "conv_3a_double_3x3_1"
  bottom: "conv_3a_proj"
  top: "ch_concat_3a_chconcat"
}
layer {
  name: "conv_3b_1x1"
  type: "Convolution"
  bottom: "ch_concat_3a_chconcat"
  top: "conv_3b_1x1"
  convolution_param {
    num_output: 96
    pad: 0
    kernel_size: 1
    stride: 1
  }
}
layer {
  name: "bn_3b_1x1"
  type: "BatchNorm"
  bottom: "conv_3b_1x1"
  top: "conv_3b_1x1"
  batch_norm_param {
    use_global_stats: true
  }
}
layer {
  name: "scale_conv_3b_1x1"
  type: "Scale"
  bottom: "conv_3b_1x1"
  top: "conv_3b_1x1"
  scale_param {
    bias_term: true
  }
}
layer {
  name: "relu_3b_1x1"
  type: "ReLU"
  bottom: "conv_3b_1x1"
  top: "conv_3b_1x1"
}
layer {
  name: "conv_3b_3x3_reduce"
  type: "Convolution"
  bottom: "ch_concat_3a_chconcat"
  top: "conv_3b_3x3_reduce"
  convolution_param {
    num_output: 96
    pad: 0
    kernel_size: 1
    stride: 1
  }
}
layer {
  name: "bn_3b_3x3_reduce"
  type: "BatchNorm"
  bottom: "conv_3b_3x3_reduce"
  top: "conv_3b_3x3_reduce"
  batch_norm_param {
    use_global_stats: true
  }
}
layer {
  name: "scale_conv_3b_3x3_reduce"
  type: "Scale"
  bottom: "conv_3b_3x3_reduce"
  top: "conv_3b_3x3_reduce"
  scale_param {
    bias_term: true
  }
}
layer {
  name: "relu_3b_3x3_reduce"
  type: "ReLU"
  bottom: "conv_3b_3x3_reduce"
  top: "conv_3b_3x3_reduce"
}
layer {
  name: "conv_3b_3x3"
  type: "Convolution"
  bottom: "conv_3b_3x3_reduce"
  top: "conv_3b_3x3"
  convolution_param {
    num_output: 144
    pad: 1
    kernel_size: 3
    stride: 1
  }
}
layer {
  name: "bn_3b_3x3"
  type: "BatchNorm"
  bottom: "conv_3b_3x3"
  top: "conv_3b_3x3"
  batch_norm_param {
    use_global_stats: true
  }
}
layer {
  name: "scale_conv_3b_3x3"
  type: "Scale"
  bottom: "conv_3b_3x3"
  top: "conv_3b_3x3"
  scale_param {
    bias_term: true
  }
}
layer {
  name: "relu_3b_3x3"
  type: "ReLU"
  bottom: "conv_3b_3x3"
  top: "conv_3b_3x3"
}
layer {
  name: "conv_3b_double_3x3_reduce"
  type: "Convolution"
  bottom: "ch_concat_3a_chconcat"
  top: "conv_3b_double_3x3_reduce"
  convolution_param {
    num_output: 96
    pad: 0
    kernel_size: 1
    stride: 1
  }
}
layer {
  name: "bn_3b_double_3x3_reduce"
  type: "BatchNorm"
  bottom: "conv_3b_double_3x3_reduce"
  top: "conv_3b_double_3x3_reduce"
  batch_norm_param {
    use_global_stats: true
  }
}
layer {
  name: "scale_conv_3b_double_3x3_reduce"
  type: "Scale"
  bottom: "conv_3b_double_3x3_reduce"
  top: "conv_3b_double_3x3_reduce"
  scale_param {
    bias_term: true
  }
}
layer {
  name: "relu_3b_double_3x3_reduce"
  type: "ReLU"
  bottom: "conv_3b_double_3x3_reduce"
  top: "conv_3b_double_3x3_reduce"
}
layer {
  name: "conv_3b_double_3x3_0"
  type: "Convolution"
  bottom: "conv_3b_double_3x3_reduce"
  top: "conv_3b_double_3x3_0"
  convolution_param {
    num_output: 144
    pad: 1
    kernel_size: 3
    stride: 1
  }
}
layer {
  name: "bn_3b_double_3x3_0"
  type: "BatchNorm"
  bottom: "conv_3b_double_3x3_0"
  top: "conv_3b_double_3x3_0"
  batch_norm_param {
    use_global_stats: true
  }
}
layer {
  name: "scale_conv_3b_double_3x3_0"
  type: "Scale"
  bottom: "conv_3b_double_3x3_0"
  top: "conv_3b_double_3x3_0"
  scale_param {
    bias_term: true
  }
}
layer {
  name: "relu_3b_double_3x3_0"
  type: "ReLU"
  bottom: "conv_3b_double_3x3_0"
  top: "conv_3b_double_3x3_0"
}
layer {
  name: "conv_3b_double_3x3_1"
  type: "Convolution"
  bottom: "conv_3b_double_3x3_0"
  top: "conv_3b_double_3x3_1"
  convolution_param {
    num_output: 144
    pad: 1
    kernel_size: 3
    stride: 1
  }
}
layer {
  name: "bn_3b_double_3x3_1"
  type: "BatchNorm"
  bottom: "conv_3b_double_3x3_1"
  top: "conv_3b_double_3x3_1"
  batch_norm_param {
    use_global_stats: true
  }
}
layer {
  name: "scale_conv_3b_double_3x3_1"
  type: "Scale"
  bottom: "conv_3b_double_3x3_1"
  top: "conv_3b_double_3x3_1"
  scale_param {
    bias_term: true
  }
}
layer {
  name: "relu_3b_double_3x3_1"
  type: "ReLU"
  bottom: "conv_3b_double_3x3_1"
  top: "conv_3b_double_3x3_1"
}
layer {
  name: "ave_pool_3b_pool"
  type: "Pooling"
  bottom: "ch_concat_3a_chconcat"
  top: "ave_pool_3b_pool"
  pooling_param {
    pool: AVE
    kernel_size: 3
    stride: 1
    pad: 1
  }
}
layer {
  name: "conv_3b_proj"
  type: "Convolution"
  bottom: "ave_pool_3b_pool"
  top: "conv_3b_proj"
  convolution_param {
    num_output: 96
    pad: 0
    kernel_size: 1
    stride: 1
  }
}
layer {
  name: "bn_3b_proj"
  type: "BatchNorm"
  bottom: "conv_3b_proj"
  top: "conv_3b_proj"
  batch_norm_param {
    use_global_stats: true
  }
}
layer {
  name: "scale_conv_3b_proj"
  type: "Scale"
  bottom: "conv_3b_proj"
  top: "conv_3b_proj"
  scale_param {
    bias_term: true
  }
}
layer {
  name: "relu_3b_proj"
  type: "ReLU"
  bottom: "conv_3b_proj"
  top: "conv_3b_proj"
}
layer {
  name: "ch_concat_3b_chconcat"
  type: "Concat"
  bottom: "conv_3b_1x1"
  bottom: "conv_3b_3x3"
  bottom: "conv_3b_double_3x3_1"
  bottom: "conv_3b_proj"
  top: "ch_concat_3b_chconcat"
}
layer {
  name: "conv_3c_3x3_reduce"
  type: "Convolution"
  bottom: "ch_concat_3b_chconcat"
  top: "conv_3c_3x3_reduce"
  convolution_param {
    num_output: 192
    pad: 0
    kernel_size: 1
    stride: 1
  }
}
layer {
  name: "bn_3c_3x3_reduce"
  type: "BatchNorm"
  bottom: "conv_3c_3x3_reduce"
  top: "conv_3c_3x3_reduce"
  batch_norm_param {
    use_global_stats: true
  }
}
layer {
  name: "scale_conv_3c_3x3_reduce"
  type: "Scale"
  bottom: "conv_3c_3x3_reduce"
  top: "conv_3c_3x3_reduce"
  scale_param {
    bias_term: true
  }
}
layer {
  name: "relu_3c_3x3_reduce"
  type: "ReLU"
  bottom: "conv_3c_3x3_reduce"
  top: "conv_3c_3x3_reduce"
}
layer {
  name: "conv_3c_3x3"
  type: "Convolution"
  bottom: "conv_3c_3x3_reduce"
  top: "conv_3c_3x3"
  convolution_param {
    num_output: 240
    pad: 1
    kernel_size: 3
    stride: 2
  }
}
layer {
  name: "bn_3c_3x3"
  type: "BatchNorm"
  bottom: "conv_3c_3x3"
  top: "conv_3c_3x3"
  batch_norm_param {
    use_global_stats: true
  }
}
layer {
  name: "scale_conv_3c_3x3"
  type: "Scale"
  bottom: "conv_3c_3x3"
  top: "conv_3c_3x3"
  scale_param {
    bias_term: true
  }
}
layer {
  name: "relu_3c_3x3"
  type: "ReLU"
  bottom: "conv_3c_3x3"
  top: "conv_3c_3x3"
}
layer {
  name: "conv_3c_double_3x3_reduce"
  type: "Convolution"
  bottom: "ch_concat_3b_chconcat"
  top: "conv_3c_double_3x3_reduce"
  convolution_param {
    num_output: 96
    pad: 0
    kernel_size: 1
    stride: 1
  }
}
layer {
  name: "bn_3c_double_3x3_reduce"
  type: "BatchNorm"
  bottom: "conv_3c_double_3x3_reduce"
  top: "conv_3c_double_3x3_reduce"
  batch_norm_param {
    use_global_stats: true
  }
}
layer {
  name: "scale_conv_3c_double_3x3_reduce"
  type: "Scale"
  bottom: "conv_3c_double_3x3_reduce"
  top: "conv_3c_double_3x3_reduce"
  scale_param {
    bias_term: true
  }
}
layer {
  name: "relu_3c_double_3x3_reduce"
  type: "ReLU"
  bottom: "conv_3c_double_3x3_reduce"
  top: "conv_3c_double_3x3_reduce"
}
layer {
  name: "conv_3c_double_3x3_0"
  type: "Convolution"
  bottom: "conv_3c_double_3x3_reduce"
  top: "conv_3c_double_3x3_0"
  convolution_param {
    num_output: 144
    pad: 1
    kernel_size: 3
    stride: 1
  }
}
layer {
  name: "bn_3c_double_3x3_0"
  type: "BatchNorm"
  bottom: "conv_3c_double_3x3_0"
  top: "conv_3c_double_3x3_0"
  batch_norm_param {
    use_global_stats: true
  }
}
layer {
  name: "scale_conv_3c_double_3x3_0"
  type: "Scale"
  bottom: "conv_3c_double_3x3_0"
  top: "conv_3c_double_3x3_0"
  scale_param {
    bias_term: true
  }
}
layer {
  name: "relu_3c_double_3x3_0"
  type: "ReLU"
  bottom: "conv_3c_double_3x3_0"
  top: "conv_3c_double_3x3_0"
}
layer {
  name: "conv_3c_double_3x3_1"
  type: "Convolution"
  bottom: "conv_3c_double_3x3_0"
  top: "conv_3c_double_3x3_1"
  convolution_param {
    num_output: 144
    pad: 1
    kernel_size: 3
    stride: 2
  }
}
layer {
  name: "bn_3c_double_3x3_1"
  type: "BatchNorm"
  bottom: "conv_3c_double_3x3_1"
  top: "conv_3c_double_3x3_1"
  batch_norm_param {
    use_global_stats: true
  }
}
layer {
  name: "scale_conv_3c_double_3x3_1"
  type: "Scale"
  bottom: "conv_3c_double_3x3_1"
  top: "conv_3c_double_3x3_1"
  scale_param {
    bias_term: true
  }
}
layer {
  name: "relu_3c_double_3x3_1"
  type: "ReLU"
  bottom: "conv_3c_double_3x3_1"
  top: "conv_3c_double_3x3_1"
}
layer {
  name: "max_pool_3c_pool"
  type: "Pooling"
  bottom: "ch_concat_3b_chconcat"
  top: "max_pool_3c_pool"
  pooling_param {
    pool: MAX
    kernel_size: 3
    stride: 2
    pad: 0
  }
}
layer {
  name: "ch_concat_3c_chconcat"
  type: "Concat"
  bottom: "conv_3c_3x3"
  bottom: "conv_3c_double_3x3_1"
  bottom: "max_pool_3c_pool"
  top: "ch_concat_3c_chconcat"
}
layer {
  name: "conv_4a_1x1"
  type: "Convolution"
  bottom: "ch_concat_3c_chconcat"
  top: "conv_4a_1x1"
  convolution_param {
    num_output: 224
    pad: 0
    kernel_size: 1
    stride: 1
  }
}
layer {
  name: "bn_4a_1x1"
  type: "BatchNorm"
  bottom: "conv_4a_1x1"
  top: "conv_4a_1x1"
  batch_norm_param {
    use_global_stats: true
  }
}
layer {
  name: "scale_conv_4a_1x1"
  type: "Scale"
  bottom: "conv_4a_1x1"
  top: "conv_4a_1x1"
  scale_param {
    bias_term: true
  }
}
layer {
  name: "relu_4a_1x1"
  type: "ReLU"
  bottom: "conv_4a_1x1"
  top: "conv_4a_1x1"
}
layer {
  name: "conv_4a_3x3_reduce"
  type: "Convolution"
  bottom: "ch_concat_3c_chconcat"
  top: "conv_4a_3x3_reduce"
  convolution_param {
    num_output: 64
    pad: 0
    kernel_size: 1
    stride: 1
  }
}
layer {
  name: "bn_4a_3x3_reduce"
  type: "BatchNorm"
  bottom: "conv_4a_3x3_reduce"
  top: "conv_4a_3x3_reduce"
  batch_norm_param {
    use_global_stats: true
  }
}
layer {
  name: "scale_conv_4a_3x3_reduce"
  type: "Scale"
  bottom: "conv_4a_3x3_reduce"
  top: "conv_4a_3x3_reduce"
  scale_param {
    bias_term: true
  }
}
layer {
  name: "relu_4a_3x3_reduce"
  type: "ReLU"
  bottom: "conv_4a_3x3_reduce"
  top: "conv_4a_3x3_reduce"
}
layer {
  name: "conv_4a_3x3"
  type: "Convolution"
  bottom: "conv_4a_3x3_reduce"
  top: "conv_4a_3x3"
  convolution_param {
    num_output: 96
    pad: 1
    kernel_size: 3
    stride: 1
  }
}
layer {
  name: "bn_4a_3x3"
  type: "BatchNorm"
  bottom: "conv_4a_3x3"
  top: "conv_4a_3x3"
  batch_norm_param {
    use_global_stats: true
  }
}
layer {
  name: "scale_conv_4a_3x3"
  type: "Scale"
  bottom: "conv_4a_3x3"
  top: "conv_4a_3x3"
  scale_param {
    bias_term: true
  }
}
layer {
  name: "relu_4a_3x3"
  type: "ReLU"
  bottom: "conv_4a_3x3"
  top: "conv_4a_3x3"
}
layer {
  name: "conv_4a_double_3x3_reduce"
  type: "Convolution"
  bottom: "ch_concat_3c_chconcat"
  top: "conv_4a_double_3x3_reduce"
  convolution_param {
    num_output: 96
    pad: 0
    kernel_size: 1
    stride: 1
  }
}
layer {
  name: "bn_4a_double_3x3_reduce"
  type: "BatchNorm"
  bottom: "conv_4a_double_3x3_reduce"
  top: "conv_4a_double_3x3_reduce"
  batch_norm_param {
    use_global_stats: true
  }
}
layer {
  name: "scale_conv_4a_double_3x3_reduce"
  type: "Scale"
  bottom: "conv_4a_double_3x3_reduce"
  top: "conv_4a_double_3x3_reduce"
  scale_param {
    bias_term: true
  }
}
layer {
  name: "relu_4a_double_3x3_reduce"
  type: "ReLU"
  bottom: "conv_4a_double_3x3_reduce"
  top: "conv_4a_double_3x3_reduce"
}
layer {
  name: "conv_4a_double_3x3_0"
  type: "Convolution"
  bottom: "conv_4a_double_3x3_reduce"
  top: "conv_4a_double_3x3_0"
  convolution_param {
    num_output: 128
    pad: 1
    kernel_size: 3
    stride: 1
  }
}
layer {
  name: "bn_4a_double_3x3_0"
  type: "BatchNorm"
  bottom: "conv_4a_double_3x3_0"
  top: "conv_4a_double_3x3_0"
  batch_norm_param {
    use_global_stats: true
  }
}
layer {
  name: "scale_conv_4a_double_3x3_0"
  type: "Scale"
  bottom: "conv_4a_double_3x3_0"
  top: "conv_4a_double_3x3_0"
  scale_param {
    bias_term: true
  }
}
layer {
  name: "relu_4a_double_3x3_0"
  type: "ReLU"
  bottom: "conv_4a_double_3x3_0"
  top: "conv_4a_double_3x3_0"
}
layer {
  name: "conv_4a_double_3x3_1"
  type: "Convolution"
  bottom: "conv_4a_double_3x3_0"
  top: "conv_4a_double_3x3_1"
  convolution_param {
    num_output: 128
    pad: 1
    kernel_size: 3
    stride: 1
  }
}
layer {
  name: "bn_4a_double_3x3_1"
  type: "BatchNorm"
  bottom: "conv_4a_double_3x3_1"
  top: "conv_4a_double_3x3_1"
  batch_norm_param {
    use_global_stats: true
  }
}
layer {
  name: "scale_conv_4a_double_3x3_1"
  type: "Scale"
  bottom: "conv_4a_double_3x3_1"
  top: "conv_4a_double_3x3_1"
  scale_param {
    bias_term: true
  }
}
layer {
  name: "relu_4a_double_3x3_1"
  type: "ReLU"
  bottom: "conv_4a_double_3x3_1"
  top: "conv_4a_double_3x3_1"
}
layer {
  name: "ave_pool_4a_pool"
  type: "Pooling"
  bottom: "ch_concat_3c_chconcat"
  top: "ave_pool_4a_pool"
  pooling_param {
    pool: AVE
    kernel_size: 3
    stride: 1
    pad: 1
  }
}
layer {
  name: "conv_4a_proj"
  type: "Convolution"
  bottom: "ave_pool_4a_pool"
  top: "conv_4a_proj"
  convolution_param {
    num_output: 128
    pad: 0
    kernel_size: 1
    stride: 1
  }
}
layer {
  name: "bn_4a_proj"
  type: "BatchNorm"
  bottom: "conv_4a_proj"
  top: "conv_4a_proj"
  batch_norm_param {
    use_global_stats: true
  }
}
layer {
  name: "scale_conv_4a_proj"
  type: "Scale"
  bottom: "conv_4a_proj"
  top: "conv_4a_proj"
  scale_param {
    bias_term: true
  }
}
layer {
  name: "relu_4a_proj"
  type: "ReLU"
  bottom: "conv_4a_proj"
  top: "conv_4a_proj"
}
layer {
  name: "ch_concat_4a_chconcat"
  type: "Concat"
  bottom: "conv_4a_1x1"
  bottom: "conv_4a_3x3"
  bottom: "conv_4a_double_3x3_1"
  bottom: "conv_4a_proj"
  top: "ch_concat_4a_chconcat"
}
layer {
  name: "conv_4b_1x1"
  type: "Convolution"
  bottom: "ch_concat_4a_chconcat"
  top: "conv_4b_1x1"
  convolution_param {
    num_output: 192
    pad: 0
    kernel_size: 1
    stride: 1
  }
}
layer {
  name: "bn_4b_1x1"
  type: "BatchNorm"
  bottom: "conv_4b_1x1"
  top: "conv_4b_1x1"
  batch_norm_param {
    use_global_stats: true
  }
}
layer {
  name: "scale_conv_4b_1x1"
  type: "Scale"
  bottom: "conv_4b_1x1"
  top: "conv_4b_1x1"
  scale_param {
    bias_term: true
  }
}
layer {
  name: "relu_4b_1x1"
  type: "ReLU"
  bottom: "conv_4b_1x1"
  top: "conv_4b_1x1"
}
layer {
  name: "conv_4b_3x3_reduce"
  type: "Convolution"
  bottom: "ch_concat_4a_chconcat"
  top: "conv_4b_3x3_reduce"
  convolution_param {
    num_output: 96
    pad: 0
    kernel_size: 1
    stride: 1
  }
}
layer {
  name: "bn_4b_3x3_reduce"
  type: "BatchNorm"
  bottom: "conv_4b_3x3_reduce"
  top: "conv_4b_3x3_reduce"
  batch_norm_param {
    use_global_stats: true
  }
}
layer {
  name: "scale_conv_4b_3x3_reduce"
  type: "Scale"
  bottom: "conv_4b_3x3_reduce"
  top: "conv_4b_3x3_reduce"
  scale_param {
    bias_term: true
  }
}
layer {
  name: "relu_4b_3x3_reduce"
  type: "ReLU"
  bottom: "conv_4b_3x3_reduce"
  top: "conv_4b_3x3_reduce"
}
layer {
  name: "conv_4b_3x3"
  type: "Convolution"
  bottom: "conv_4b_3x3_reduce"
  top: "conv_4b_3x3"
  convolution_param {
    num_output: 128
    pad: 1
    kernel_size: 3
    stride: 1
  }
}
layer {
  name: "bn_4b_3x3"
  type: "BatchNorm"
  bottom: "conv_4b_3x3"
  top: "conv_4b_3x3"
  batch_norm_param {
    use_global_stats: true
  }
}
layer {
  name: "scale_conv_4b_3x3"
  type: "Scale"
  bottom: "conv_4b_3x3"
  top: "conv_4b_3x3"
  scale_param {
    bias_term: true
  }
}
layer {
  name: "relu_4b_3x3"
  type: "ReLU"
  bottom: "conv_4b_3x3"
  top: "conv_4b_3x3"
}
layer {
  name: "conv_4b_double_3x3_reduce"
  type: "Convolution"
  bottom: "ch_concat_4a_chconcat"
  top: "conv_4b_double_3x3_reduce"
  convolution_param {
    num_output: 96
    pad: 0
    kernel_size: 1
    stride: 1
  }
}
layer {
  name: "bn_4b_double_3x3_reduce"
  type: "BatchNorm"
  bottom: "conv_4b_double_3x3_reduce"
  top: "conv_4b_double_3x3_reduce"
  batch_norm_param {
    use_global_stats: true
  }
}
layer {
  name: "scale_conv_4b_double_3x3_reduce"
  type: "Scale"
  bottom: "conv_4b_double_3x3_reduce"
  top: "conv_4b_double_3x3_reduce"
  scale_param {
    bias_term: true
  }
}
layer {
  name: "relu_4b_double_3x3_reduce"
  type: "ReLU"
  bottom: "conv_4b_double_3x3_reduce"
  top: "conv_4b_double_3x3_reduce"
}
layer {
  name: "conv_4b_double_3x3_0"
  type: "Convolution"
  bottom: "conv_4b_double_3x3_reduce"
  top: "conv_4b_double_3x3_0"
  convolution_param {
    num_output: 128
    pad: 1
    kernel_size: 3
    stride: 1
  }
}
layer {
  name: "bn_4b_double_3x3_0"
  type: "BatchNorm"
  bottom: "conv_4b_double_3x3_0"
  top: "conv_4b_double_3x3_0"
  batch_norm_param {
    use_global_stats: true
  }
}
layer {
  name: "scale_conv_4b_double_3x3_0"
  type: "Scale"
  bottom: "conv_4b_double_3x3_0"
  top: "conv_4b_double_3x3_0"
  scale_param {
    bias_term: true
  }
}
layer {
  name: "relu_4b_double_3x3_0"
  type: "ReLU"
  bottom: "conv_4b_double_3x3_0"
  top: "conv_4b_double_3x3_0"
}
layer {
  name: "conv_4b_double_3x3_1"
  type: "Convolution"
  bottom: "conv_4b_double_3x3_0"
  top: "conv_4b_double_3x3_1"
  convolution_param {
    num_output: 128
    pad: 1
    kernel_size: 3
    stride: 1
  }
}
layer {
  name: "bn_4b_double_3x3_1"
  type: "BatchNorm"
  bottom: "conv_4b_double_3x3_1"
  top: "conv_4b_double_3x3_1"
  batch_norm_param {
    use_global_stats: true
  }
}
layer {
  name: "scale_conv_4b_double_3x3_1"
  type: "Scale"
  bottom: "conv_4b_double_3x3_1"
  top: "conv_4b_double_3x3_1"
  scale_param {
    bias_term: true
  }
}
layer {
  name: "relu_4b_double_3x3_1"
  type: "ReLU"
  bottom: "conv_4b_double_3x3_1"
  top: "conv_4b_double_3x3_1"
}
layer {
  name: "ave_pool_4b_pool"
  type: "Pooling"
  bottom: "ch_concat_4a_chconcat"
  top: "ave_pool_4b_pool"
  pooling_param {
    pool: AVE
    kernel_size: 3
    stride: 1
    pad: 1
  }
}
layer {
  name: "conv_4b_proj"
  type: "Convolution"
  bottom: "ave_pool_4b_pool"
  top: "conv_4b_proj"
  convolution_param {
    num_output: 128
    pad: 0
    kernel_size: 1
    stride: 1
  }
}
layer {
  name: "bn_4b_proj"
  type: "BatchNorm"
  bottom: "conv_4b_proj"
  top: "conv_4b_proj"
  batch_norm_param {
    use_global_stats: true
  }
}
layer {
  name: "scale_conv_4b_proj"
  type: "Scale"
  bottom: "conv_4b_proj"
  top: "conv_4b_proj"
  scale_param {
    bias_term: true
  }
}
layer {
  name: "relu_4b_proj"
  type: "ReLU"
  bottom: "conv_4b_proj"
  top: "conv_4b_proj"
}
layer {
  name: "ch_concat_4b_chconcat"
  type: "Concat"
  bottom: "conv_4b_1x1"
  bottom: "conv_4b_3x3"
  bottom: "conv_4b_double_3x3_1"
  bottom: "conv_4b_proj"
  top: "ch_concat_4b_chconcat"
}
layer {
  name: "conv_4c_1x1"
  type: "Convolution"
  bottom: "ch_concat_4b_chconcat"
  top: "conv_4c_1x1"
  convolution_param {
    num_output: 160
    pad: 0
    kernel_size: 1
    stride: 1
  }
}
layer {
  name: "bn_4c_1x1"
  type: "BatchNorm"
  bottom: "conv_4c_1x1"
  top: "conv_4c_1x1"
  batch_norm_param {
    use_global_stats: true
  }
}
layer {
  name: "scale_conv_4c_1x1"
  type: "Scale"
  bottom: "conv_4c_1x1"
  top: "conv_4c_1x1"
  scale_param {
    bias_term: true
  }
}
layer {
  name: "relu_4c_1x1"
  type: "ReLU"
  bottom: "conv_4c_1x1"
  top: "conv_4c_1x1"
}
layer {
  name: "conv_4c_3x3_reduce"
  type: "Convolution"
  bottom: "ch_concat_4b_chconcat"
  top: "conv_4c_3x3_reduce"
  convolution_param {
    num_output: 128
    pad: 0
    kernel_size: 1
    stride: 1
  }
}
layer {
  name: "bn_4c_3x3_reduce"
  type: "BatchNorm"
  bottom: "conv_4c_3x3_reduce"
  top: "conv_4c_3x3_reduce"
  batch_norm_param {
    use_global_stats: true
  }
}
layer {
  name: "scale_conv_4c_3x3_reduce"
  type: "Scale"
  bottom: "conv_4c_3x3_reduce"
  top: "conv_4c_3x3_reduce"
  scale_param {
    bias_term: true
  }
}
layer {
  name: "relu_4c_3x3_reduce"
  type: "ReLU"
  bottom: "conv_4c_3x3_reduce"
  top: "conv_4c_3x3_reduce"
}
layer {
  name: "conv_4c_3x3"
  type: "Convolution"
  bottom: "conv_4c_3x3_reduce"
  top: "conv_4c_3x3"
  convolution_param {
    num_output: 160
    pad: 1
    kernel_size: 3
    stride: 1
  }
}
layer {
  name: "bn_4c_3x3"
  type: "BatchNorm"
  bottom: "conv_4c_3x3"
  top: "conv_4c_3x3"
  batch_norm_param {
    use_global_stats: true
  }
}
layer {
  name: "scale_conv_4c_3x3"
  type: "Scale"
  bottom: "conv_4c_3x3"
  top: "conv_4c_3x3"
  scale_param {
    bias_term: true
  }
}
layer {
  name: "relu_4c_3x3"
  type: "ReLU"
  bottom: "conv_4c_3x3"
  top: "conv_4c_3x3"
}
layer {
  name: "conv_4c_double_3x3_reduce"
  type: "Convolution"
  bottom: "ch_concat_4b_chconcat"
  top: "conv_4c_double_3x3_reduce"
  convolution_param {
    num_output: 128
    pad: 0
    kernel_size: 1
    stride: 1
  }
}
layer {
  name: "bn_4c_double_3x3_reduce"
  type: "BatchNorm"
  bottom: "conv_4c_double_3x3_reduce"
  top: "conv_4c_double_3x3_reduce"
  batch_norm_param {
    use_global_stats: true
  }
}
layer {
  name: "scale_conv_4c_double_3x3_reduce"
  type: "Scale"
  bottom: "conv_4c_double_3x3_reduce"
  top: "conv_4c_double_3x3_reduce"
  scale_param {
    bias_term: true
  }
}
layer {
  name: "relu_4c_double_3x3_reduce"
  type: "ReLU"
  bottom: "conv_4c_double_3x3_reduce"
  top: "conv_4c_double_3x3_reduce"
}
layer {
  name: "conv_4c_double_3x3_0"
  type: "Convolution"
  bottom: "conv_4c_double_3x3_reduce"
  top: "conv_4c_double_3x3_0"
  convolution_param {
    num_output: 160
    pad: 1
    kernel_size: 3
    stride: 1
  }
}
layer {
  name: "bn_4c_double_3x3_0"
  type: "BatchNorm"
  bottom: "conv_4c_double_3x3_0"
  top: "conv_4c_double_3x3_0"
  batch_norm_param {
    use_global_stats: true
  }
}
layer {
  name: "scale_conv_4c_double_3x3_0"
  type: "Scale"
  bottom: "conv_4c_double_3x3_0"
  top: "conv_4c_double_3x3_0"
  scale_param {
    bias_term: true
  }
}
layer {
  name: "relu_4c_double_3x3_0"
  type: "ReLU"
  bottom: "conv_4c_double_3x3_0"
  top: "conv_4c_double_3x3_0"
}
layer {
  name: "conv_4c_double_3x3_1"
  type: "Convolution"
  bottom: "conv_4c_double_3x3_0"
  top: "conv_4c_double_3x3_1"
  convolution_param {
    num_output: 160
    pad: 1
    kernel_size: 3
    stride: 1
  }
}
layer {
  name: "bn_4c_double_3x3_1"
  type: "BatchNorm"
  bottom: "conv_4c_double_3x3_1"
  top: "conv_4c_double_3x3_1"
  batch_norm_param {
    use_global_stats: true
  }
}
layer {
  name: "scale_conv_4c_double_3x3_1"
  type: "Scale"
  bottom: "conv_4c_double_3x3_1"
  top: "conv_4c_double_3x3_1"
  scale_param {
    bias_term: true
  }
}
layer {
  name: "relu_4c_double_3x3_1"
  type: "ReLU"
  bottom: "conv_4c_double_3x3_1"
  top: "conv_4c_double_3x3_1"
}
layer {
  name: "ave_pool_4c_pool"
  type: "Pooling"
  bottom: "ch_concat_4b_chconcat"
  top: "ave_pool_4c_pool"
  pooling_param {
    pool: AVE
    kernel_size: 3
    stride: 1
    pad: 1
  }
}
layer {
  name: "conv_4c_proj"
  type: "Convolution"
  bottom: "ave_pool_4c_pool"
  top: "conv_4c_proj"
  convolution_param {
    num_output: 128
    pad: 0
    kernel_size: 1
    stride: 1
  }
}
layer {
  name: "bn_4c_proj"
  type: "BatchNorm"
  bottom: "conv_4c_proj"
  top: "conv_4c_proj"
  batch_norm_param {
    use_global_s
I1214 22:10:58.050405 32654 layer_factory.hpp:77] Creating layer data_train
I1214 22:10:58.050462 32654 net.cpp:100] Creating Layer data_train
I1214 22:10:58.050483 32654 net.cpp:408] data_train -> data
I1214 22:10:58.050526 32654 net.cpp:408] data_train -> label
I1214 22:10:58.050568 32654 image_data_layer.cpp:38] Opening file ../fer2013/list_train.txt
I1214 22:10:58.057854 32654 image_data_layer.cpp:53] Shuffling data
I1214 22:10:58.060195 32654 image_data_layer.cpp:58] A total of 35887 images.
I1214 22:10:58.075708 32654 image_data_layer.cpp:85] output data size: 60,3,224,224
I1214 22:10:58.154302 32654 net.cpp:150] Setting up data_train
I1214 22:10:58.154376 32654 net.cpp:157] Top shape: 60 3 224 224 (9031680)
I1214 22:10:58.154393 32654 net.cpp:157] Top shape: 60 (60)
I1214 22:10:58.154404 32654 net.cpp:165] Memory required for data: 36126960
I1214 22:10:58.154422 32654 layer_factory.hpp:77] Creating layer conv_conv1
I1214 22:10:58.154461 32654 net.cpp:100] Creating Layer conv_conv1
I1214 22:10:58.154477 32654 net.cpp:434] conv_conv1 <- data
I1214 22:10:58.154508 32654 net.cpp:408] conv_conv1 -> conv_conv1
I1214 22:10:58.155540 32654 net.cpp:150] Setting up conv_conv1
I1214 22:10:58.155571 32654 net.cpp:157] Top shape: 60 96 112 112 (72253440)
I1214 22:10:58.155585 32654 net.cpp:165] Memory required for data: 325140720
I1214 22:10:58.155624 32654 layer_factory.hpp:77] Creating layer bn_conv1
I1214 22:10:58.155650 32654 net.cpp:100] Creating Layer bn_conv1
I1214 22:10:58.155663 32654 net.cpp:434] bn_conv1 <- conv_conv1
I1214 22:10:58.155679 32654 net.cpp:395] bn_conv1 -> conv_conv1 (in-place)
I1214 22:10:58.155925 32654 net.cpp:150] Setting up bn_conv1
I1214 22:10:58.155946 32654 net.cpp:157] Top shape: 60 96 112 112 (72253440)
I1214 22:10:58.155958 32654 net.cpp:165] Memory required for data: 614154480
I1214 22:10:58.155983 32654 layer_factory.hpp:77] Creating layer scale_conv_conv1
I1214 22:10:58.156005 32654 net.cpp:100] Creating Layer scale_conv_conv1
I1214 22:10:58.156018 32654 net.cpp:434] scale_conv_conv1 <- conv_conv1
I1214 22:10:58.156046 32654 net.cpp:395] scale_conv_conv1 -> conv_conv1 (in-place)
I1214 22:10:58.156111 32654 layer_factory.hpp:77] Creating layer scale_conv_conv1
I1214 22:10:58.156288 32654 net.cpp:150] Setting up scale_conv_conv1
I1214 22:10:58.156311 32654 net.cpp:157] Top shape: 60 96 112 112 (72253440)
I1214 22:10:58.156323 32654 net.cpp:165] Memory required for data: 903168240
I1214 22:10:58.156340 32654 layer_factory.hpp:77] Creating layer relu_conv1
I1214 22:10:58.156359 32654 net.cpp:100] Creating Layer relu_conv1
I1214 22:10:58.156373 32654 net.cpp:434] relu_conv1 <- conv_conv1
I1214 22:10:58.156388 32654 net.cpp:395] relu_conv1 -> conv_conv1 (in-place)
I1214 22:10:58.156404 32654 net.cpp:150] Setting up relu_conv1
I1214 22:10:58.156419 32654 net.cpp:157] Top shape: 60 96 112 112 (72253440)
I1214 22:10:58.156430 32654 net.cpp:165] Memory required for data: 1192182000
I1214 22:10:58.156441 32654 layer_factory.hpp:77] Creating layer pool1
I1214 22:10:58.156457 32654 net.cpp:100] Creating Layer pool1
I1214 22:10:58.156469 32654 net.cpp:434] pool1 <- conv_conv1
I1214 22:10:58.156484 32654 net.cpp:408] pool1 -> pool1
I1214 22:10:58.160030 32654 net.cpp:150] Setting up pool1
I1214 22:10:58.160059 32654 net.cpp:157] Top shape: 60 96 56 56 (18063360)
I1214 22:10:58.160073 32654 net.cpp:165] Memory required for data: 1264435440
I1214 22:10:58.160084 32654 layer_factory.hpp:77] Creating layer conv_conv2red
I1214 22:10:58.160104 32654 net.cpp:100] Creating Layer conv_conv2red
I1214 22:10:58.160117 32654 net.cpp:434] conv_conv2red <- pool1
I1214 22:10:58.160137 32654 net.cpp:408] conv_conv2red -> conv_conv2red
I1214 22:10:58.161090 32654 net.cpp:150] Setting up conv_conv2red
I1214 22:10:58.161118 32654 net.cpp:157] Top shape: 60 128 56 56 (24084480)
I1214 22:10:58.161131 32654 net.cpp:165] Memory required for data: 1360773360
I1214 22:10:58.161151 32654 layer_factory.hpp:77] Creating layer bn_conv2red
I1214 22:10:58.161170 32654 net.cpp:100] Creating Layer bn_conv2red
I1214 22:10:58.161188 32654 net.cpp:434] bn_conv2red <- conv_conv2red
I1214 22:10:58.161206 32654 net.cpp:395] bn_conv2red -> conv_conv2red (in-place)
I1214 22:10:58.161424 32654 net.cpp:150] Setting up bn_conv2red
I1214 22:10:58.161447 32654 net.cpp:157] Top shape: 60 128 56 56 (24084480)
I1214 22:10:58.161458 32654 net.cpp:165] Memory required for data: 1457111280
I1214 22:10:58.161475 32654 layer_factory.hpp:77] Creating layer scale_conv_conv2red
I1214 22:10:58.161494 32654 net.cpp:100] Creating Layer scale_conv_conv2red
I1214 22:10:58.161507 32654 net.cpp:434] scale_conv_conv2red <- conv_conv2red
I1214 22:10:58.161522 32654 net.cpp:395] scale_conv_conv2red -> conv_conv2red (in-place)
I1214 22:10:58.161581 32654 layer_factory.hpp:77] Creating layer scale_conv_conv2red
I1214 22:10:58.161720 32654 net.cpp:150] Setting up scale_conv_conv2red
I1214 22:10:58.161741 32654 net.cpp:157] Top shape: 60 128 56 56 (24084480)
I1214 22:10:58.161752 32654 net.cpp:165] Memory required for data: 1553449200
I1214 22:10:58.161768 32654 layer_factory.hpp:77] Creating layer relu_conv2red
I1214 22:10:58.161801 32654 net.cpp:100] Creating Layer relu_conv2red
I1214 22:10:58.161821 32654 net.cpp:434] relu_conv2red <- conv_conv2red
I1214 22:10:58.161840 32654 net.cpp:395] relu_conv2red -> conv_conv2red (in-place)
I1214 22:10:58.161856 32654 net.cpp:150] Setting up relu_conv2red
I1214 22:10:58.161871 32654 net.cpp:157] Top shape: 60 128 56 56 (24084480)
I1214 22:10:58.161882 32654 net.cpp:165] Memory required for data: 1649787120
I1214 22:10:58.161895 32654 layer_factory.hpp:77] Creating layer conv_conv2
I1214 22:10:58.161914 32654 net.cpp:100] Creating Layer conv_conv2
I1214 22:10:58.161927 32654 net.cpp:434] conv_conv2 <- conv_conv2red
I1214 22:10:58.161942 32654 net.cpp:408] conv_conv2 -> conv_conv2
I1214 22:10:58.164022 32654 net.cpp:150] Setting up conv_conv2
I1214 22:10:58.164052 32654 net.cpp:157] Top shape: 60 288 56 56 (54190080)
I1214 22:10:58.164065 32654 net.cpp:165] Memory required for data: 1866547440
I1214 22:10:58.164091 32654 layer_factory.hpp:77] Creating layer bn_conv2
I1214 22:10:58.164108 32654 net.cpp:100] Creating Layer bn_conv2
I1214 22:10:58.164120 32654 net.cpp:434] bn_conv2 <- conv_conv2
I1214 22:10:58.164139 32654 net.cpp:395] bn_conv2 -> conv_conv2 (in-place)
I1214 22:10:58.164371 32654 net.cpp:150] Setting up bn_conv2
I1214 22:10:58.164392 32654 net.cpp:157] Top shape: 60 288 56 56 (54190080)
I1214 22:10:58.164404 32654 net.cpp:165] Memory required for data: 2083307760
I1214 22:10:58.164434 32654 layer_factory.hpp:77] Creating layer scale_conv_conv2
I1214 22:10:58.164453 32654 net.cpp:100] Creating Layer scale_conv_conv2
I1214 22:10:58.164464 32654 net.cpp:434] scale_conv_conv2 <- conv_conv2
I1214 22:10:58.164479 32654 net.cpp:395] scale_conv_conv2 -> conv_conv2 (in-place)
I1214 22:10:58.164536 32654 layer_factory.hpp:77] Creating layer scale_conv_conv2
I1214 22:10:58.164690 32654 net.cpp:150] Setting up scale_conv_conv2
I1214 22:10:58.164710 32654 net.cpp:157] Top shape: 60 288 56 56 (54190080)
I1214 22:10:58.164722 32654 net.cpp:165] Memory required for data: 2300068080
I1214 22:10:58.164737 32654 layer_factory.hpp:77] Creating layer relu_conv2
I1214 22:10:58.164752 32654 net.cpp:100] Creating Layer relu_conv2
I1214 22:10:58.164763 32654 net.cpp:434] relu_conv2 <- conv_conv2
I1214 22:10:58.164785 32654 net.cpp:395] relu_conv2 -> conv_conv2 (in-place)
I1214 22:10:58.164808 32654 net.cpp:150] Setting up relu_conv2
I1214 22:10:58.164824 32654 net.cpp:157] Top shape: 60 288 56 56 (54190080)
I1214 22:10:58.164834 32654 net.cpp:165] Memory required for data: 2516828400
I1214 22:10:58.164845 32654 layer_factory.hpp:77] Creating layer pool2
I1214 22:10:58.164860 32654 net.cpp:100] Creating Layer pool2
I1214 22:10:58.164872 32654 net.cpp:434] pool2 <- conv_conv2
I1214 22:10:58.164887 32654 net.cpp:408] pool2 -> pool2
I1214 22:10:58.164943 32654 net.cpp:150] Setting up pool2
I1214 22:10:58.164963 32654 net.cpp:157] Top shape: 60 288 28 28 (13547520)
I1214 22:10:58.164973 32654 net.cpp:165] Memory required for data: 2571018480
I1214 22:10:58.164985 32654 layer_factory.hpp:77] Creating layer pool2_pool2_0_split
I1214 22:10:58.165004 32654 net.cpp:100] Creating Layer pool2_pool2_0_split
I1214 22:10:58.165016 32654 net.cpp:434] pool2_pool2_0_split <- pool2
I1214 22:10:58.165030 32654 net.cpp:408] pool2_pool2_0_split -> pool2_pool2_0_split_0
I1214 22:10:58.165047 32654 net.cpp:408] pool2_pool2_0_split -> pool2_pool2_0_split_1
I1214 22:10:58.165066 32654 net.cpp:408] pool2_pool2_0_split -> pool2_pool2_0_split_2
I1214 22:10:58.165084 32654 net.cpp:408] pool2_pool2_0_split -> pool2_pool2_0_split_3
I1214 22:10:58.165160 32654 net.cpp:150] Setting up pool2_pool2_0_split
I1214 22:10:58.165186 32654 net.cpp:157] Top shape: 60 288 28 28 (13547520)
I1214 22:10:58.165202 32654 net.cpp:157] Top shape: 60 288 28 28 (13547520)
I1214 22:10:58.165215 32654 net.cpp:157] Top shape: 60 288 28 28 (13547520)
I1214 22:10:58.165227 32654 net.cpp:157] Top shape: 60 288 28 28 (13547520)
I1214 22:10:58.165238 32654 net.cpp:165] Memory required for data: 2787778800
I1214 22:10:58.165249 32654 layer_factory.hpp:77] Creating layer conv_3a_1x1
I1214 22:10:58.165274 32654 net.cpp:100] Creating Layer conv_3a_1x1
I1214 22:10:58.165288 32654 net.cpp:434] conv_3a_1x1 <- pool2_pool2_0_split_0
I1214 22:10:58.165307 32654 net.cpp:408] conv_3a_1x1 -> conv_3a_1x1
I1214 22:10:58.166282 32654 net.cpp:150] Setting up conv_3a_1x1
I1214 22:10:58.166311 32654 net.cpp:157] Top shape: 60 96 28 28 (4515840)
I1214 22:10:58.166324 32654 net.cpp:165] Memory required for data: 2805842160
I1214 22:10:58.166340 32654 layer_factory.hpp:77] Creating layer bn_3a_1x1
I1214 22:10:58.166357 32654 net.cpp:100] Creating Layer bn_3a_1x1
I1214 22:10:58.166368 32654 net.cpp:434] bn_3a_1x1 <- conv_3a_1x1
I1214 22:10:58.166383 32654 net.cpp:395] bn_3a_1x1 -> conv_3a_1x1 (in-place)
I1214 22:10:58.166605 32654 net.cpp:150] Setting up bn_3a_1x1
I1214 22:10:58.166626 32654 net.cpp:157] Top shape: 60 96 28 28 (4515840)
I1214 22:10:58.166641 32654 net.cpp:165] Memory required for data: 2823905520
I1214 22:10:58.166669 32654 layer_factory.hpp:77] Creating layer scale_conv_3a_1x1
I1214 22:10:58.166687 32654 net.cpp:100] Creating Layer scale_conv_3a_1x1
I1214 22:10:58.166699 32654 net.cpp:434] scale_conv_3a_1x1 <- conv_3a_1x1
I1214 22:10:58.166716 32654 net.cpp:395] scale_conv_3a_1x1 -> conv_3a_1x1 (in-place)
I1214 22:10:58.166774 32654 layer_factory.hpp:77] Creating layer scale_conv_3a_1x1
I1214 22:10:58.166936 32654 net.cpp:150] Setting up scale_conv_3a_1x1
I1214 22:10:58.166960 32654 net.cpp:157] Top shape: 60 96 28 28 (4515840)
I1214 22:10:58.166971 32654 net.cpp:165] Memory required for data: 2841968880
I1214 22:10:58.166990 32654 layer_factory.hpp:77] Creating layer relu_3a_1x1
I1214 22:10:58.167006 32654 net.cpp:100] Creating Layer relu_3a_1x1
I1214 22:10:58.167018 32654 net.cpp:434] relu_3a_1x1 <- conv_3a_1x1
I1214 22:10:58.167035 32654 net.cpp:395] relu_3a_1x1 -> conv_3a_1x1 (in-place)
I1214 22:10:58.167052 32654 net.cpp:150] Setting up relu_3a_1x1
I1214 22:10:58.167068 32654 net.cpp:157] Top shape: 60 96 28 28 (4515840)
I1214 22:10:58.167078 32654 net.cpp:165] Memory required for data: 2860032240
I1214 22:10:58.167089 32654 layer_factory.hpp:77] Creating layer conv_3a_3x3_reduce
I1214 22:10:58.167109 32654 net.cpp:100] Creating Layer conv_3a_3x3_reduce
I1214 22:10:58.167122 32654 net.cpp:434] conv_3a_3x3_reduce <- pool2_pool2_0_split_1
I1214 22:10:58.167138 32654 net.cpp:408] conv_3a_3x3_reduce -> conv_3a_3x3_reduce
I1214 22:10:58.167413 32654 net.cpp:150] Setting up conv_3a_3x3_reduce
I1214 22:10:58.167438 32654 net.cpp:157] Top shape: 60 96 28 28 (4515840)
I1214 22:10:58.167449 32654 net.cpp:165] Memory required for data: 2878095600
I1214 22:10:58.167471 32654 layer_factory.hpp:77] Creating layer bn_3a_3x3_reduce
I1214 22:10:58.167501 32654 net.cpp:100] Creating Layer bn_3a_3x3_reduce
I1214 22:10:58.167527 32654 net.cpp:434] bn_3a_3x3_reduce <- conv_3a_3x3_reduce
I1214 22:10:58.167551 32654 net.cpp:395] bn_3a_3x3_reduce -> conv_3a_3x3_reduce (in-place)
I1214 22:10:58.167793 32654 net.cpp:150] Setting up bn_3a_3x3_reduce
I1214 22:10:58.167819 32654 net.cpp:157] Top shape: 60 96 28 28 (4515840)
I1214 22:10:58.167832 32654 net.cpp:165] Memory required for data: 2896158960
I1214 22:10:58.167860 32654 layer_factory.hpp:77] Creating layer scale_conv_3a_3x3_reduce
I1214 22:10:58.167877 32654 net.cpp:100] Creating Layer scale_conv_3a_3x3_reduce
I1214 22:10:58.167891 32654 net.cpp:434] scale_conv_3a_3x3_reduce <- conv_3a_3x3_reduce
I1214 22:10:58.167907 32654 net.cpp:395] scale_conv_3a_3x3_reduce -> conv_3a_3x3_reduce (in-place)
I1214 22:10:58.167966 32654 layer_factory.hpp:77] Creating layer scale_conv_3a_3x3_reduce
I1214 22:10:58.168118 32654 net.cpp:150] Setting up scale_conv_3a_3x3_reduce
I1214 22:10:58.168143 32654 net.cpp:157] Top shape: 60 96 28 28 (4515840)
I1214 22:10:58.168156 32654 net.cpp:165] Memory required for data: 2914222320
I1214 22:10:58.168175 32654 layer_factory.hpp:77] Creating layer relu_3a_3x3_reduce
I1214 22:10:58.168200 32654 net.cpp:100] Creating Layer relu_3a_3x3_reduce
I1214 22:10:58.168215 32654 net.cpp:434] relu_3a_3x3_reduce <- conv_3a_3x3_reduce
I1214 22:10:58.168229 32654 net.cpp:395] relu_3a_3x3_reduce -> conv_3a_3x3_reduce (in-place)
I1214 22:10:58.168246 32654 net.cpp:150] Setting up relu_3a_3x3_reduce
I1214 22:10:58.168259 32654 net.cpp:157] Top shape: 60 96 28 28 (4515840)
I1214 22:10:58.168270 32654 net.cpp:165] Memory required for data: 2932285680
I1214 22:10:58.168282 32654 layer_factory.hpp:77] Creating layer conv_3a_3x3
I1214 22:10:58.168303 32654 net.cpp:100] Creating Layer conv_3a_3x3
I1214 22:10:58.168315 32654 net.cpp:434] conv_3a_3x3 <- conv_3a_3x3_reduce
I1214 22:10:58.168330 32654 net.cpp:408] conv_3a_3x3 -> conv_3a_3x3
I1214 22:10:58.169334 32654 net.cpp:150] Setting up conv_3a_3x3
I1214 22:10:58.169361 32654 net.cpp:157] Top shape: 60 96 28 28 (4515840)
I1214 22:10:58.169373 32654 net.cpp:165] Memory required for data: 2950349040
I1214 22:10:58.169389 32654 layer_factory.hpp:77] Creating layer bn_3a_3x3
I1214 22:10:58.169409 32654 net.cpp:100] Creating Layer bn_3a_3x3
I1214 22:10:58.169430 32654 net.cpp:434] bn_3a_3x3 <- conv_3a_3x3
I1214 22:10:58.169445 32654 net.cpp:395] bn_3a_3x3 -> conv_3a_3x3 (in-place)
I1214 22:10:58.169667 32654 net.cpp:150] Setting up bn_3a_3x3
I1214 22:10:58.169689 32654 net.cpp:157] Top shape: 60 96 28 28 (4515840)
I1214 22:10:58.169701 32654 net.cpp:165] Memory required for data: 2968412400
I1214 22:10:58.169718 32654 layer_factory.hpp:77] Creating layer scale_conv_3a_3x3
I1214 22:10:58.169734 32654 net.cpp:100] Creating Layer scale_conv_3a_3x3
I1214 22:10:58.169746 32654 net.cpp:434] scale_conv_3a_3x3 <- conv_3a_3x3
I1214 22:10:58.169760 32654 net.cpp:395] scale_conv_3a_3x3 -> conv_3a_3x3 (in-place)
I1214 22:10:58.169821 32654 layer_factory.hpp:77] Creating layer scale_conv_3a_3x3
I1214 22:10:58.169972 32654 net.cpp:150] Setting up scale_conv_3a_3x3
I1214 22:10:58.169996 32654 net.cpp:157] Top shape: 60 96 28 28 (4515840)
I1214 22:10:58.170007 32654 net.cpp:165] Memory required for data: 2986475760
I1214 22:10:58.170023 32654 layer_factory.hpp:77] Creating layer relu_3a_3x3
I1214 22:10:58.170038 32654 net.cpp:100] Creating Layer relu_3a_3x3
I1214 22:10:58.170050 32654 net.cpp:434] relu_3a_3x3 <- conv_3a_3x3
I1214 22:10:58.170064 32654 net.cpp:395] relu_3a_3x3 -> conv_3a_3x3 (in-place)
I1214 22:10:58.170079 32654 net.cpp:150] Setting up relu_3a_3x3
I1214 22:10:58.170094 32654 net.cpp:157] Top shape: 60 96 28 28 (4515840)
I1214 22:10:58.170104 32654 net.cpp:165] Memory required for data: 3004539120
I1214 22:10:58.170115 32654 layer_factory.hpp:77] Creating layer conv_3a_double_3x3_reduce
I1214 22:10:58.170135 32654 net.cpp:100] Creating Layer conv_3a_double_3x3_reduce
I1214 22:10:58.170148 32654 net.cpp:434] conv_3a_double_3x3_reduce <- pool2_pool2_0_split_2
I1214 22:10:58.170167 32654 net.cpp:408] conv_3a_double_3x3_reduce -> conv_3a_double_3x3_reduce
I1214 22:10:58.170449 32654 net.cpp:150] Setting up conv_3a_double_3x3_reduce
I1214 22:10:58.170475 32654 net.cpp:157] Top shape: 60 96 28 28 (4515840)
I1214 22:10:58.170486 32654 net.cpp:165] Memory required for data: 3022602480
I1214 22:10:58.170502 32654 layer_factory.hpp:77] Creating layer bn_3a_double_3x3_reduce
I1214 22:10:58.170521 32654 net.cpp:100] Creating Layer bn_3a_double_3x3_reduce
I1214 22:10:58.170536 32654 net.cpp:434] bn_3a_double_3x3_reduce <- conv_3a_double_3x3_reduce
I1214 22:10:58.170549 32654 net.cpp:395] bn_3a_double_3x3_reduce -> conv_3a_double_3x3_reduce (in-place)
I1214 22:10:58.170768 32654 net.cpp:150] Setting up bn_3a_double_3x3_reduce
I1214 22:10:58.170790 32654 net.cpp:157] Top shape: 60 96 28 28 (4515840)
I1214 22:10:58.170802 32654 net.cpp:165] Memory required for data: 3040665840
I1214 22:10:58.170820 32654 layer_factory.hpp:77] Creating layer scale_conv_3a_double_3x3_reduce
I1214 22:10:58.170836 32654 net.cpp:100] Creating Layer scale_conv_3a_double_3x3_reduce
I1214 22:10:58.170848 32654 net.cpp:434] scale_conv_3a_double_3x3_reduce <- conv_3a_double_3x3_reduce
I1214 22:10:58.170862 32654 net.cpp:395] scale_conv_3a_double_3x3_reduce -> conv_3a_double_3x3_reduce (in-place)
I1214 22:10:58.170922 32654 layer_factory.hpp:77] Creating layer scale_conv_3a_double_3x3_reduce
I1214 22:10:58.171072 32654 net.cpp:150] Setting up scale_conv_3a_double_3x3_reduce
I1214 22:10:58.171095 32654 net.cpp:157] Top shape: 60 96 28 28 (4515840)
I1214 22:10:58.171106 32654 net.cpp:165] Memory required for data: 3058729200
I1214 22:10:58.171121 32654 layer_factory.hpp:77] Creating layer relu_3a_double_3x3_reduce
I1214 22:10:58.171138 32654 net.cpp:100] Creating Layer relu_3a_double_3x3_reduce
I1214 22:10:58.171149 32654 net.cpp:434] relu_3a_double_3x3_reduce <- conv_3a_double_3x3_reduce
I1214 22:10:58.171162 32654 net.cpp:395] relu_3a_double_3x3_reduce -> conv_3a_double_3x3_reduce (in-place)
I1214 22:10:58.171178 32654 net.cpp:150] Setting up relu_3a_double_3x3_reduce
I1214 22:10:58.171200 32654 net.cpp:157] Top shape: 60 96 28 28 (4515840)
I1214 22:10:58.171212 32654 net.cpp:165] Memory required for data: 3076792560
I1214 22:10:58.171223 32654 layer_factory.hpp:77] Creating layer conv_3a_double_3x3_0
I1214 22:10:58.171259 32654 net.cpp:100] Creating Layer conv_3a_double_3x3_0
I1214 22:10:58.171274 32654 net.cpp:434] conv_3a_double_3x3_0 <- conv_3a_double_3x3_reduce
I1214 22:10:58.171293 32654 net.cpp:408] conv_3a_double_3x3_0 -> conv_3a_double_3x3_0
I1214 22:10:58.171654 32654 net.cpp:150] Setting up conv_3a_double_3x3_0
I1214 22:10:58.171679 32654 net.cpp:157] Top shape: 60 144 28 28 (6773760)
I1214 22:10:58.171691 32654 net.cpp:165] Memory required for data: 3103887600
I1214 22:10:58.171706 32654 layer_factory.hpp:77] Creating layer bn_3a_double_3x3_0
I1214 22:10:58.171722 32654 net.cpp:100] Creating Layer bn_3a_double_3x3_0
I1214 22:10:58.171735 32654 net.cpp:434] bn_3a_double_3x3_0 <- conv_3a_double_3x3_0
I1214 22:10:58.171752 32654 net.cpp:395] bn_3a_double_3x3_0 -> conv_3a_double_3x3_0 (in-place)
I1214 22:10:58.171974 32654 net.cpp:150] Setting up bn_3a_double_3x3_0
I1214 22:10:58.171998 32654 net.cpp:157] Top shape: 60 144 28 28 (6773760)
I1214 22:10:58.172009 32654 net.cpp:165] Memory required for data: 3130982640
I1214 22:10:58.172030 32654 layer_factory.hpp:77] Creating layer scale_conv_3a_double_3x3_0
I1214 22:10:58.172055 32654 net.cpp:100] Creating Layer scale_conv_3a_double_3x3_0
I1214 22:10:58.172075 32654 net.cpp:434] scale_conv_3a_double_3x3_0 <- conv_3a_double_3x3_0
I1214 22:10:58.172101 32654 net.cpp:395] scale_conv_3a_double_3x3_0 -> conv_3a_double_3x3_0 (in-place)
I1214 22:10:58.172190 32654 layer_factory.hpp:77] Creating layer scale_conv_3a_double_3x3_0
I1214 22:10:58.172365 32654 net.cpp:150] Setting up scale_conv_3a_double_3x3_0
I1214 22:10:58.172389 32654 net.cpp:157] Top shape: 60 144 28 28 (6773760)
I1214 22:10:58.172400 32654 net.cpp:165] Memory required for data: 3158077680
I1214 22:10:58.172416 32654 layer_factory.hpp:77] Creating layer relu_3a_double_3x3_0
I1214 22:10:58.172435 32654 net.cpp:100] Creating Layer relu_3a_double_3x3_0
I1214 22:10:58.172449 32654 net.cpp:434] relu_3a_double_3x3_0 <- conv_3a_double_3x3_0
I1214 22:10:58.172463 32654 net.cpp:395] relu_3a_double_3x3_0 -> conv_3a_double_3x3_0 (in-place)
I1214 22:10:58.172479 32654 net.cpp:150] Setting up relu_3a_double_3x3_0
I1214 22:10:58.172494 32654 net.cpp:157] Top shape: 60 144 28 28 (6773760)
I1214 22:10:58.172505 32654 net.cpp:165] Memory required for data: 3185172720
I1214 22:10:58.172516 32654 layer_factory.hpp:77] Creating layer conv_3a_double_3x3_1
I1214 22:10:58.172536 32654 net.cpp:100] Creating Layer conv_3a_double_3x3_1
I1214 22:10:58.172549 32654 net.cpp:434] conv_3a_double_3x3_1 <- conv_3a_double_3x3_0
I1214 22:10:58.172565 32654 net.cpp:408] conv_3a_double_3x3_1 -> conv_3a_double_3x3_1
I1214 22:10:58.173625 32654 net.cpp:150] Setting up conv_3a_double_3x3_1
I1214 22:10:58.173666 32654 net.cpp:157] Top shape: 60 144 28 28 (6773760)
I1214 22:10:58.173678 32654 net.cpp:165] Memory required for data: 3212267760
I1214 22:10:58.173694 32654 layer_factory.hpp:77] Creating layer bn_3a_double_3x3_1
I1214 22:10:58.173713 32654 net.cpp:100] Creating Layer bn_3a_double_3x3_1
I1214 22:10:58.173727 32654 net.cpp:434] bn_3a_double_3x3_1 <- conv_3a_double_3x3_1
I1214 22:10:58.173741 32654 net.cpp:395] bn_3a_double_3x3_1 -> conv_3a_double_3x3_1 (in-place)
I1214 22:10:58.173964 32654 net.cpp:150] Setting up bn_3a_double_3x3_1
I1214 22:10:58.173986 32654 net.cpp:157] Top shape: 60 144 28 28 (6773760)
I1214 22:10:58.174001 32654 net.cpp:165] Memory required for data: 3239362800
I1214 22:10:58.174021 32654 layer_factory.hpp:77] Creating layer scale_conv_3a_double_3x3_1
I1214 22:10:58.174036 32654 net.cpp:100] Creating Layer scale_conv_3a_double_3x3_1
I1214 22:10:58.174048 32654 net.cpp:434] scale_conv_3a_double_3x3_1 <- conv_3a_double_3x3_1
I1214 22:10:58.174062 32654 net.cpp:395] scale_conv_3a_double_3x3_1 -> conv_3a_double_3x3_1 (in-place)
I1214 22:10:58.174124 32654 layer_factory.hpp:77] Creating layer scale_conv_3a_double_3x3_1
I1214 22:10:58.174288 32654 net.cpp:150] Setting up scale_conv_3a_double_3x3_1
I1214 22:10:58.174310 32654 net.cpp:157] Top shape: 60 144 28 28 (6773760)
I1214 22:10:58.174321 32654 net.cpp:165] Memory required for data: 3266457840
I1214 22:10:58.174345 32654 layer_factory.hpp:77] Creating layer relu_3a_double_3x3_1
I1214 22:10:58.174362 32654 net.cpp:100] Creating Layer relu_3a_double_3x3_1
I1214 22:10:58.174374 32654 net.cpp:434] relu_3a_double_3x3_1 <- conv_3a_double_3x3_1
I1214 22:10:58.174388 32654 net.cpp:395] relu_3a_double_3x3_1 -> conv_3a_double_3x3_1 (in-place)
I1214 22:10:58.174403 32654 net.cpp:150] Setting up relu_3a_double_3x3_1
I1214 22:10:58.174418 32654 net.cpp:157] Top shape: 60 144 28 28 (6773760)
I1214 22:10:58.174429 32654 net.cpp:165] Memory required for data: 3293552880
I1214 22:10:58.174439 32654 layer_factory.hpp:77] Creating layer ave_pool_3a_pool
I1214 22:10:58.174458 32654 net.cpp:100] Creating Layer ave_pool_3a_pool
I1214 22:10:58.174473 32654 net.cpp:434] ave_pool_3a_pool <- pool2_pool2_0_split_3
I1214 22:10:58.174487 32654 net.cpp:408] ave_pool_3a_pool -> ave_pool_3a_pool
I1214 22:10:58.174530 32654 net.cpp:150] Setting up ave_pool_3a_pool
I1214 22:10:58.174548 32654 net.cpp:157] Top shape: 60 288 28 28 (13547520)
I1214 22:10:58.174561 32654 net.cpp:165] Memory required for data: 3347742960
I1214 22:10:58.174571 32654 layer_factory.hpp:77] Creating layer conv_3a_proj
I1214 22:10:58.174592 32654 net.cpp:100] Creating Layer conv_3a_proj
I1214 22:10:58.174604 32654 net.cpp:434] conv_3a_proj <- ave_pool_3a_pool
I1214 22:10:58.174620 32654 net.cpp:408] conv_3a_proj -> conv_3a_proj
I1214 22:10:58.174899 32654 net.cpp:150] Setting up conv_3a_proj
I1214 22:10:58.174923 32654 net.cpp:157] Top shape: 60 48 28 28 (2257920)
I1214 22:10:58.174935 32654 net.cpp:165] Memory required for data: 3356774640
I1214 22:10:58.174967 32654 layer_factory.hpp:77] Creating layer bn_3a_proj
I1214 22:10:58.174985 32654 net.cpp:100] Creating Layer bn_3a_proj
I1214 22:10:58.174998 32654 net.cpp:434] bn_3a_proj <- conv_3a_proj
I1214 22:10:58.175022 32654 net.cpp:395] bn_3a_proj -> conv_3a_proj (in-place)
I1214 22:10:58.175253 32654 net.cpp:150] Setting up bn_3a_proj
I1214 22:10:58.175277 32654 net.cpp:157] Top shape: 60 48 28 28 (2257920)
I1214 22:10:58.175288 32654 net.cpp:165] Memory required for data: 3365806320
I1214 22:10:58.175307 32654 layer_factory.hpp:77] Creating layer scale_conv_3a_proj
I1214 22:10:58.175323 32654 net.cpp:100] Creating Layer scale_conv_3a_proj
I1214 22:10:58.175334 32654 net.cpp:434] scale_conv_3a_proj <- conv_3a_proj
I1214 22:10:58.175348 32654 net.cpp:395] scale_conv_3a_proj -> conv_3a_proj (in-place)
I1214 22:10:58.175410 32654 layer_factory.hpp:77] Creating layer scale_conv_3a_proj
I1214 22:10:58.175570 32654 net.cpp:150] Setting up scale_conv_3a_proj
I1214 22:10:58.175592 32654 net.cpp:157] Top shape: 60 48 28 28 (2257920)
I1214 22:10:58.175604 32654 net.cpp:165] Memory required for data: 3374838000
I1214 22:10:58.175619 32654 layer_factory.hpp:77] Creating layer relu_3a_proj
I1214 22:10:58.175634 32654 net.cpp:100] Creating Layer relu_3a_proj
I1214 22:10:58.175647 32654 net.cpp:434] relu_3a_proj <- conv_3a_proj
I1214 22:10:58.175660 32654 net.cpp:395] relu_3a_proj -> conv_3a_proj (in-place)
I1214 22:10:58.175675 32654 net.cpp:150] Setting up relu_3a_proj
I1214 22:10:58.175691 32654 net.cpp:157] Top shape: 60 48 28 28 (2257920)
I1214 22:10:58.175703 32654 net.cpp:165] Memory required for data: 3383869680
I1214 22:10:58.175714 32654 layer_factory.hpp:77] Creating layer ch_concat_3a_chconcat
I1214 22:10:58.175732 32654 net.cpp:100] Creating Layer ch_concat_3a_chconcat
I1214 22:10:58.175745 32654 net.cpp:434] ch_concat_3a_chconcat <- conv_3a_1x1
I1214 22:10:58.175758 32654 net.cpp:434] ch_concat_3a_chconcat <- conv_3a_3x3
I1214 22:10:58.175770 32654 net.cpp:434] ch_concat_3a_chconcat <- conv_3a_double_3x3_1
I1214 22:10:58.175783 32654 net.cpp:434] ch_concat_3a_chconcat <- conv_3a_proj
I1214 22:10:58.175797 32654 net.cpp:408] ch_concat_3a_chconcat -> ch_concat_3a_chconcat
I1214 22:10:58.175839 32654 net.cpp:150] Setting up ch_concat_3a_chconcat
I1214 22:10:58.175858 32654 net.cpp:157] Top shape: 60 384 28 28 (18063360)
I1214 22:10:58.175869 32654 net.cpp:165] Memory required for data: 3456123120
I1214 22:10:58.175889 32654 layer_factory.hpp:77] Creating layer ch_concat_3a_chconcat_ch_concat_3a_chconcat_0_split
I1214 22:10:58.175909 32654 net.cpp:100] Creating Layer ch_concat_3a_chconcat_ch_concat_3a_chconcat_0_split
I1214 22:10:58.175922 32654 net.cpp:434] ch_concat_3a_chconcat_ch_concat_3a_chconcat_0_split <- ch_concat_3a_chconcat
I1214 22:10:58.175937 32654 net.cpp:408] ch_concat_3a_chconcat_ch_concat_3a_chconcat_0_split -> ch_concat_3a_chconcat_ch_concat_3a_chconcat_0_split_0
I1214 22:10:58.175956 32654 net.cpp:408] ch_concat_3a_chconcat_ch_concat_3a_chconcat_0_split -> ch_concat_3a_chconcat_ch_concat_3a_chconcat_0_split_1
I1214 22:10:58.175974 32654 net.cpp:408] ch_concat_3a_chconcat_ch_concat_3a_chconcat_0_split -> ch_concat_3a_chconcat_ch_concat_3a_chconcat_0_split_2
I1214 22:10:58.175992 32654 net.cpp:408] ch_concat_3a_chconcat_ch_concat_3a_chconcat_0_split -> ch_concat_3a_chconcat_ch_concat_3a_chconcat_0_split_3
I1214 22:10:58.176081 32654 net.cpp:150] Setting up ch_concat_3a_chconcat_ch_concat_3a_chconcat_0_split
I1214 22:10:58.176101 32654 net.cpp:157] Top shape: 60 384 28 28 (18063360)
I1214 22:10:58.176115 32654 net.cpp:157] Top shape: 60 384 28 28 (18063360)
I1214 22:10:58.176128 32654 net.cpp:157] Top shape: 60 384 28 28 (18063360)
I1214 22:10:58.176142 32654 net.cpp:157] Top shape: 60 384 28 28 (18063360)
I1214 22:10:58.176153 32654 net.cpp:165] Memory required for data: 3745136880
I1214 22:10:58.176164 32654 layer_factory.hpp:77] Creating layer conv_3b_1x1
I1214 22:10:58.176187 32654 net.cpp:100] Creating Layer conv_3b_1x1
I1214 22:10:58.176203 32654 net.cpp:434] conv_3b_1x1 <- ch_concat_3a_chconcat_ch_concat_3a_chconcat_0_split_0
I1214 22:10:58.176225 32654 net.cpp:408] conv_3b_1x1 -> conv_3b_1x1
I1214 22:10:58.176519 32654 net.cpp:150] Setting up conv_3b_1x1
I1214 22:10:58.176544 32654 net.cpp:157] Top shape: 60 96 28 28 (4515840)
I1214 22:10:58.176555 32654 net.cpp:165] Memory required for data: 3763200240
I1214 22:10:58.176571 32654 layer_factory.hpp:77] Creating layer bn_3b_1x1
I1214 22:10:58.176586 32654 net.cpp:100] Creating Layer bn_3b_1x1
I1214 22:10:58.176599 32654 net.cpp:434] bn_3b_1x1 <- conv_3b_1x1
I1214 22:10:58.176616 32654 net.cpp:395] bn_3b_1x1 -> conv_3b_1x1 (in-place)
I1214 22:10:58.176836 32654 net.cpp:150] Setting up bn_3b_1x1
I1214 22:10:58.176862 32654 net.cpp:157] Top shape: 60 96 28 28 (4515840)
I1214 22:10:58.176883 32654 net.cpp:165] Memory required for data: 3781263600
I1214 22:10:58.176909 32654 layer_factory.hpp:77] Creating layer scale_conv_3b_1x1
I1214 22:10:58.176936 32654 net.cpp:100] Creating Layer scale_conv_3b_1x1
I1214 22:10:58.176955 32654 net.cpp:434] scale_conv_3b_1x1 <- conv_3b_1x1
I1214 22:10:58.176980 32654 net.cpp:395] scale_conv_3b_1x1 -> conv_3b_1x1 (in-place)
I1214 22:10:58.177053 32654 layer_factory.hpp:77] Creating layer scale_conv_3b_1x1
I1214 22:10:58.177228 32654 net.cpp:150] Setting up scale_conv_3b_1x1
I1214 22:10:58.177253 32654 net.cpp:157] Top shape: 60 96 28 28 (4515840)
I1214 22:10:58.177263 32654 net.cpp:165] Memory required for data: 3799326960
I1214 22:10:58.177279 32654 layer_factory.hpp:77] Creating layer relu_3b_1x1
I1214 22:10:58.177297 32654 net.cpp:100] Creating Layer relu_3b_1x1
I1214 22:10:58.177311 32654 net.cpp:434] relu_3b_1x1 <- conv_3b_1x1
I1214 22:10:58.177325 32654 net.cpp:395] relu_3b_1x1 -> conv_3b_1x1 (in-place)
I1214 22:10:58.177340 32654 net.cpp:150] Setting up relu_3b_1x1
I1214 22:10:58.177355 32654 net.cpp:157] Top shape: 60 96 28 28 (4515840)
I1214 22:10:58.177366 32654 net.cpp:165] Memory required for data: 3817390320
I1214 22:10:58.177377 32654 layer_factory.hpp:77] Creating layer conv_3b_3x3_reduce
I1214 22:10:58.177397 32654 net.cpp:100] Creating Layer conv_3b_3x3_reduce
I1214 22:10:58.177409 32654 net.cpp:434] conv_3b_3x3_reduce <- ch_concat_3a_chconcat_ch_concat_3a_chconcat_0_split_1
I1214 22:10:58.177425 32654 net.cpp:408] conv_3b_3x3_reduce -> conv_3b_3x3_reduce
I1214 22:10:58.177719 32654 net.cpp:150] Setting up conv_3b_3x3_reduce
I1214 22:10:58.177743 32654 net.cpp:157] Top shape: 60 96 28 28 (4515840)
I1214 22:10:58.177763 32654 net.cpp:165] Memory required for data: 3835453680
I1214 22:10:58.177779 32654 layer_factory.hpp:77] Creating layer bn_3b_3x3_reduce
I1214 22:10:58.177795 32654 net.cpp:100] Creating Layer bn_3b_3x3_reduce
I1214 22:10:58.177809 32654 net.cpp:434] bn_3b_3x3_reduce <- conv_3b_3x3_reduce
I1214 22:10:58.177826 32654 net.cpp:395] bn_3b_3x3_reduce -> conv_3b_3x3_reduce (in-place)
I1214 22:10:58.178058 32654 net.cpp:150] Setting up bn_3b_3x3_reduce
I1214 22:10:58.178082 32654 net.cpp:157] Top shape: 60 96 28 28 (4515840)
I1214 22:10:58.178094 32654 net.cpp:165] Memory required for data: 3853517040
I1214 22:10:58.178112 32654 layer_factory.hpp:77] Creating layer scale_conv_3b_3x3_reduce
I1214 22:10:58.178128 32654 net.cpp:100] Creating Layer scale_conv_3b_3x3_reduce
I1214 22:10:58.178139 32654 net.cpp:434] scale_conv_3b_3x3_reduce <- conv_3b_3x3_reduce
I1214 22:10:58.178158 32654 net.cpp:395] scale_conv_3b_3x3_reduce -> conv_3b_3x3_reduce (in-place)
I1214 22:10:58.178225 32654 layer_factory.hpp:77] Creating layer scale_conv_3b_3x3_reduce
I1214 22:10:58.178380 32654 net.cpp:150] Setting up scale_conv_3b_3x3_reduce
I1214 22:10:58.178402 32654 net.cpp:157] Top shape: 60 96 28 28 (4515840)
I1214 22:10:58.178414 32654 net.cpp:165] Memory required for data: 3871580400
I1214 22:10:58.178429 32654 layer_factory.hpp:77] Creating layer relu_3b_3x3_reduce
I1214 22:10:58.178448 32654 net.cpp:100] Creating Layer relu_3b_3x3_reduce
I1214 22:10:58.178462 32654 net.cpp:434] relu_3b_3x3_reduce <- conv_3b_3x3_reduce
I1214 22:10:58.178475 32654 net.cpp:395] relu_3b_3x3_reduce -> conv_3b_3x3_reduce (in-place)
I1214 22:10:58.178490 32654 net.cpp:150] Setting up relu_3b_3x3_reduce
I1214 22:10:58.178505 32654 net.cpp:157] Top shape: 60 96 28 28 (4515840)
I1214 22:10:58.178516 32654 net.cpp:165] Memory required for data: 3889643760
I1214 22:10:58.178529 32654 layer_factory.hpp:77] Creating layer conv_3b_3x3
I1214 22:10:58.178550 32654 net.cpp:100] Creating Layer conv_3b_3x3
I1214 22:10:58.178565 32654 net.cpp:434] conv_3b_3x3 <- conv_3b_3x3_reduce
I1214 22:10:58.178580 32654 net.cpp:408] conv_3b_3x3 -> conv_3b_3x3
I1214 22:10:58.179767 32654 net.cpp:150] Setting up conv_3b_3x3
I1214 22:10:58.179802 32654 net.cpp:157] Top shape: 60 144 28 28 (6773760)
I1214 22:10:58.179814 32654 net.cpp:165] Memory required for data: 3916738800
I1214 22:10:58.179831 32654 layer_factory.hpp:77] Creating layer bn_3b_3x3
I1214 22:10:58.179850 32654 net.cpp:100] Creating Layer bn_3b_3x3
I1214 22:10:58.179865 32654 net.cpp:434] bn_3b_3x3 <- conv_3b_3x3
I1214 22:10:58.179883 32654 net.cpp:395] bn_3b_3x3 -> conv_3b_3x3 (in-place)
I1214 22:10:58.180135 32654 net.cpp:150] Setting up bn_3b_3x3
I1214 22:10:58.180158 32654 net.cpp:157] Top shape: 60 144 28 28 (6773760)
I1214 22:10:58.180169 32654 net.cpp:165] Memory required for data: 3943833840
I1214 22:10:58.180194 32654 layer_factory.hpp:77] Creating layer scale_conv_3b_3x3
I1214 22:10:58.180217 32654 net.cpp:100] Creating Layer scale_conv_3b_3x3
I1214 22:10:58.180229 32654 net.cpp:434] scale_conv_3b_3x3 <- conv_3b_3x3
I1214 22:10:58.180244 32654 net.cpp:395] scale_conv_3b_3x3 -> conv_3b_3x3 (in-place)
I1214 22:10:58.180302 32654 layer_factory.hpp:77] Creating layer scale_conv_3b_3x3
I1214 22:10:58.180455 32654 net.cpp:150] Setting up scale_conv_3b_3x3
I1214 22:10:58.180479 32654 net.cpp:157] Top shape: 60 144 28 28 (6773760)
I1214 22:10:58.180490 32654 net.cpp:165] Memory required for data: 3970928880
I1214 22:10:58.180506 32654 layer_factory.hpp:77] Creating layer relu_3b_3x3
I1214 22:10:58.180521 32654 net.cpp:100] Creating Layer relu_3b_3x3
I1214 22:10:58.180534 32654 net.cpp:434] relu_3b_3x3 <- conv_3b_3x3
I1214 22:10:58.180552 32654 net.cpp:395] relu_3b_3x3 -> conv_3b_3x3 (in-place)
I1214 22:10:58.180568 32654 net.cpp:150] Setting up relu_3b_3x3
I1214 22:10:58.180583 32654 net.cpp:157] Top shape: 60 144 28 28 (6773760)
I1214 22:10:58.180593 32654 net.cpp:165] Memory required for data: 3998023920
I1214 22:10:58.180604 32654 layer_factory.hpp:77] Creating layer conv_3b_double_3x3_reduce
I1214 22:10:58.180631 32654 net.cpp:100] Creating Layer conv_3b_double_3x3_reduce
I1214 22:10:58.180644 32654 net.cpp:434] conv_3b_double_3x3_reduce <- ch_concat_3a_chconcat_ch_concat_3a_chconcat_0_split_2
I1214 22:10:58.180665 32654 net.cpp:408] conv_3b_double_3x3_reduce -> conv_3b_double_3x3_reduce
I1214 22:10:58.180968 32654 net.cpp:150] Setting up conv_3b_double_3x3_reduce
I1214 22:10:58.180994 32654 net.cpp:157] Top shape: 60 96 28 28 (4515840)
I1214 22:10:58.181005 32654 net.cpp:165] Memory required for data: 4016087280
I1214 22:10:58.181020 32654 layer_factory.hpp:77] Creating layer bn_3b_double_3x3_reduce
I1214 22:10:58.181041 32654 net.cpp:100] Creating Layer bn_3b_double_3x3_reduce
I1214 22:10:58.181054 32654 net.cpp:434] bn_3b_double_3x3_reduce <- conv_3b_double_3x3_reduce
I1214 22:10:58.181068 32654 net.cpp:395] bn_3b_double_3x3_reduce -> conv_3b_double_3x3_reduce (in-place)
I1214 22:10:58.181303 32654 net.cpp:150] Setting up bn_3b_double_3x3_reduce
I1214 22:10:58.181324 32654 net.cpp:157] Top shape: 60 96 28 28 (4515840)
I1214 22:10:58.181335 32654 net.cpp:165] Memory required for data: 4034150640
I1214 22:10:58.181352 32654 layer_factory.hpp:77] Creating layer scale_conv_3b_double_3x3_reduce
I1214 22:10:58.181372 32654 net.cpp:100] Creating Layer scale_conv_3b_double_3x3_reduce
I1214 22:10:58.181386 32654 net.cpp:434] scale_conv_3b_double_3x3_reduce <- conv_3b_double_3x3_reduce
I1214 22:10:58.181401 32654 net.cpp:395] scale_conv_3b_double_3x3_reduce -> conv_3b_double_3x3_reduce (in-place)
I1214 22:10:58.181475 32654 layer_factory.hpp:77] Creating layer scale_conv_3b_double_3x3_reduce
I1214 22:10:58.181670 32654 net.cpp:150] Setting up scale_conv_3b_double_3x3_reduce
I1214 22:10:58.181694 32654 net.cpp:157] Top shape: 60 96 28 28 (4515840)
I1214 22:10:58.181705 32654 net.cpp:165] Memory required for data: 4052214000
I1214 22:10:58.181720 32654 layer_factory.hpp:77] Creating layer relu_3b_double_3x3_reduce
I1214 22:10:58.181736 32654 net.cpp:100] Creating Layer relu_3b_double_3x3_reduce
I1214 22:10:58.181748 32654 net.cpp:434] relu_3b_double_3x3_reduce <- conv_3b_double_3x3_reduce
I1214 22:10:58.181773 32654 net.cpp:395] relu_3b_double_3x3_reduce -> conv_3b_double_3x3_reduce (in-place)
I1214 22:10:58.181790 32654 net.cpp:150] Setting up relu_3b_double_3x3_reduce
I1214 22:10:58.181804 32654 net.cpp:157] Top shape: 60 96 28 28 (4515840)
I1214 22:10:58.181815 32654 net.cpp:165] Memory required for data: 4070277360
I1214 22:10:58.181828 32654 layer_factory.hpp:77] Creating layer conv_3b_double_3x3_0
I1214 22:10:58.181843 32654 net.cpp:100] Creating Layer conv_3b_double_3x3_0
I1214 22:10:58.181855 32654 net.cpp:434] conv_3b_double_3x3_0 <- conv_3b_double_3x3_reduce
I1214 22:10:58.181875 32654 net.cpp:408] conv_3b_double_3x3_0 -> conv_3b_double_3x3_0
I1214 22:10:58.182232 32654 net.cpp:150] Setting up conv_3b_double_3x3_0
I1214 22:10:58.182255 32654 net.cpp:157] Top shape: 60 144 28 28 (6773760)
I1214 22:10:58.182267 32654 net.cpp:165] Memory required for data: 4097372400
I1214 22:10:58.182282 32654 layer_factory.hpp:77] Creating layer bn_3b_double_3x3_0
I1214 22:10:58.182320 32654 net.cpp:100] Creating Layer bn_3b_double_3x3_0
I1214 22:10:58.182335 32654 net.cpp:434] bn_3b_double_3x3_0 <- conv_3b_double_3x3_0
I1214 22:10:58.182350 32654 net.cpp:395] bn_3b_double_3x3_0 -> conv_3b_double_3x3_0 (in-place)
I1214 22:10:58.182581 32654 net.cpp:150] Setting up bn_3b_double_3x3_0
I1214 22:10:58.182602 32654 net.cpp:157] Top shape: 60 144 28 28 (6773760)
I1214 22:10:58.182613 32654 net.cpp:165] Memory required for data: 4124467440
I1214 22:10:58.182631 32654 layer_factory.hpp:77] Creating layer scale_conv_3b_double_3x3_0
I1214 22:10:58.182646 32654 net.cpp:100] Creating Layer scale_conv_3b_double_3x3_0
I1214 22:10:58.182659 32654 net.cpp:434] scale_conv_3b_double_3x3_0 <- conv_3b_double_3x3_0
I1214 22:10:58.182677 32654 net.cpp:395] scale_conv_3b_double_3x3_0 -> conv_3b_double_3x3_0 (in-place)
I1214 22:10:58.182737 32654 layer_factory.hpp:77] Creating layer scale_conv_3b_double_3x3_0
I1214 22:10:58.182909 32654 net.cpp:150] Setting up scale_conv_3b_double_3x3_0
I1214 22:10:58.182937 32654 net.cpp:157] Top shape: 60 144 28 28 (6773760)
I1214 22:10:58.182950 32654 net.cpp:165] Memory required for data: 4151562480
I1214 22:10:58.182965 32654 layer_factory.hpp:77] Creating layer relu_3b_double_3x3_0
I1214 22:10:58.182984 32654 net.cpp:100] Creating Layer relu_3b_double_3x3_0
I1214 22:10:58.182998 32654 net.cpp:434] relu_3b_double_3x3_0 <- conv_3b_double_3x3_0
I1214 22:10:58.183012 32654 net.cpp:395] relu_3b_double_3x3_0 -> conv_3b_double_3x3_0 (in-place)
I1214 22:10:58.183028 32654 net.cpp:150] Setting up relu_3b_double_3x3_0
I1214 22:10:58.183043 32654 net.cpp:157] Top shape: 60 144 28 28 (6773760)
I1214 22:10:58.183054 32654 net.cpp:165] Memory required for data: 4178657520
I1214 22:10:58.183065 32654 layer_factory.hpp:77] Creating layer conv_3b_double_3x3_1
I1214 22:10:58.183087 32654 net.cpp:100] Creating Layer conv_3b_double_3x3_1
I1214 22:10:58.183100 32654 net.cpp:434] conv_3b_double_3x3_1 <- conv_3b_double_3x3_0
I1214 22:10:58.183115 32654 net.cpp:408] conv_3b_double_3x3_1 -> conv_3b_double_3x3_1
I1214 22:10:58.184460 32654 net.cpp:150] Setting up conv_3b_double_3x3_1
I1214 22:10:58.184489 32654 net.cpp:157] Top shape: 60 144 28 28 (6773760)
I1214 22:10:58.184500 32654 net.cpp:165] Memory required for data: 4205752560
I1214 22:10:58.184516 32654 layer_factory.hpp:77] Creating layer bn_3b_double_3x3_1
I1214 22:10:58.184538 32654 net.cpp:100] Creating Layer bn_3b_double_3x3_1
I1214 22:10:58.184552 32654 net.cpp:434] bn_3b_double_3x3_1 <- conv_3b_double_3x3_1
I1214 22:10:58.184572 32654 net.cpp:395] bn_3b_double_3x3_1 -> conv_3b_double_3x3_1 (in-place)
I1214 22:10:58.184805 32654 net.cpp:150] Setting up bn_3b_double_3x3_1
I1214 22:10:58.184840 32654 net.cpp:157] Top shape: 60 144 28 28 (6773760)
I1214 22:10:58.184854 32654 net.cpp:165] Memory required for data: 4232847600
I1214 22:10:58.184870 32654 layer_factory.hpp:77] Creating layer scale_conv_3b_double_3x3_1
I1214 22:10:58.184886 32654 net.cpp:100] Creating Layer scale_conv_3b_double_3x3_1
I1214 22:10:58.184900 32654 net.cpp:434] scale_conv_3b_double_3x3_1 <- conv_3b_double_3x3_1
I1214 22:10:58.184913 32654 net.cpp:395] scale_conv_3b_double_3x3_1 -> conv_3b_double_3x3_1 (in-place)
I1214 22:10:58.184975 32654 layer_factory.hpp:77] Creating layer scale_conv_3b_double_3x3_1
I1214 22:10:58.185130 32654 net.cpp:150] Setting up scale_conv_3b_double_3x3_1
I1214 22:10:58.185151 32654 net.cpp:157] Top shape: 60 144 28 28 (6773760)
I1214 22:10:58.185163 32654 net.cpp:165] Memory required for data: 4259942640
I1214 22:10:58.185178 32654 layer_factory.hpp:77] Creating layer relu_3b_double_3x3_1
I1214 22:10:58.185204 32654 net.cpp:100] Creating Layer relu_3b_double_3x3_1
I1214 22:10:58.185222 32654 net.cpp:434] relu_3b_double_3x3_1 <- conv_3b_double_3x3_1
I1214 22:10:58.185245 32654 net.cpp:395] relu_3b_double_3x3_1 -> conv_3b_double_3x3_1 (in-place)
I1214 22:10:58.185262 32654 net.cpp:150] Setting up relu_3b_double_3x3_1
I1214 22:10:58.185276 32654 net.cpp:157] Top shape: 60 144 28 28 (6773760)
I1214 22:10:58.185287 32654 net.cpp:165] Memory required for data: 4287037680
I1214 22:10:58.185298 32654 layer_factory.hpp:77] Creating layer ave_pool_3b_pool
I1214 22:10:58.185319 32654 net.cpp:100] Creating Layer ave_pool_3b_pool
I1214 22:10:58.185333 32654 net.cpp:434] ave_pool_3b_pool <- ch_concat_3a_chconcat_ch_concat_3a_chconcat_0_split_3
I1214 22:10:58.185348 32654 net.cpp:408] ave_pool_3b_pool -> ave_pool_3b_pool
I1214 22:10:58.185389 32654 net.cpp:150] Setting up ave_pool_3b_pool
I1214 22:10:58.185408 32654 net.cpp:157] Top shape: 60 384 28 28 (18063360)
I1214 22:10:58.185420 32654 net.cpp:165] Memory required for data: 4359291120
I1214 22:10:58.185431 32654 layer_factory.hpp:77] Creating layer conv_3b_proj
I1214 22:10:58.185451 32654 net.cpp:100] Creating Layer conv_3b_proj
I1214 22:10:58.185464 32654 net.cpp:434] conv_3b_proj <- ave_pool_3b_pool
I1214 22:10:58.185480 32654 net.cpp:408] conv_3b_proj -> conv_3b_proj
I1214 22:10:58.185791 32654 net.cpp:150] Setting up conv_3b_proj
I1214 22:10:58.185823 32654 net.cpp:157] Top shape: 60 96 28 28 (4515840)
I1214 22:10:58.185835 32654 net.cpp:165] Memory required for data: 4377354480
I1214 22:10:58.185850 32654 layer_factory.hpp:77] Creating layer bn_3b_proj
I1214 22:10:58.185873 32654 net.cpp:100] Creating Layer bn_3b_proj
I1214 22:10:58.185886 32654 net.cpp:434] bn_3b_proj <- conv_3b_proj
I1214 22:10:58.185900 32654 net.cpp:395] bn_3b_proj -> conv_3b_proj (in-place)
I1214 22:10:58.186148 32654 net.cpp:150] Setting up bn_3b_proj
I1214 22:10:58.186168 32654 net.cpp:157] Top shape: 60 96 28 28 (4515840)
I1214 22:10:58.186187 32654 net.cpp:165] Memory required for data: 4395417840
I1214 22:10:58.186204 32654 layer_factory.hpp:77] Creating layer scale_conv_3b_proj
I1214 22:10:58.186225 32654 net.cpp:100] Creating Layer scale_conv_3b_proj
I1214 22:10:58.186239 32654 net.cpp:434] scale_conv_3b_proj <- conv_3b_proj
I1214 22:10:58.186254 32654 net.cpp:395] scale_conv_3b_proj -> conv_3b_proj (in-place)
I1214 22:10:58.186332 32654 layer_factory.hpp:77] Creating layer scale_conv_3b_proj
I1214 22:10:58.186518 32654 net.cpp:150] Setting up scale_conv_3b_proj
I1214 22:10:58.186542 32654 net.cpp:157] Top shape: 60 96 28 28 (4515840)
I1214 22:10:58.186553 32654 net.cpp:165] Memory required for data: 4413481200
I1214 22:10:58.186568 32654 layer_factory.hpp:77] Creating layer relu_3b_proj
I1214 22:10:58.186583 32654 net.cpp:100] Creating Layer relu_3b_proj
I1214 22:10:58.186596 32654 net.cpp:434] relu_3b_proj <- conv_3b_proj
I1214 22:10:58.186614 32654 net.cpp:395] relu_3b_proj -> conv_3b_proj (in-place)
I1214 22:10:58.186630 32654 net.cpp:150] Setting up relu_3b_proj
I1214 22:10:58.186645 32654 net.cpp:157] Top shape: 60 96 28 28 (4515840)
I1214 22:10:58.186655 32654 net.cpp:165] Memory required for data: 4431544560
I1214 22:10:58.186666 32654 layer_factory.hpp:77] Creating layer ch_concat_3b_chconcat
I1214 22:10:58.186681 32654 net.cpp:100] Creating Layer ch_concat_3b_chconcat
I1214 22:10:58.186692 32654 net.cpp:434] ch_concat_3b_chconcat <- conv_3b_1x1
I1214 22:10:58.186705 32654 net.cpp:434] ch_concat_3b_chconcat <- conv_3b_3x3
I1214 22:10:58.186718 32654 net.cpp:434] ch_concat_3b_chconcat <- conv_3b_double_3x3_1
I1214 22:10:58.186738 32654 net.cpp:434] ch_concat_3b_chconcat <- conv_3b_proj
I1214 22:10:58.186758 32654 net.cpp:408] ch_concat_3b_chconcat -> ch_concat_3b_chconcat
I1214 22:10:58.186811 32654 net.cpp:150] Setting up ch_concat_3b_chconcat
I1214 22:10:58.186832 32654 net.cpp:157] Top shape: 60 480 28 28 (22579200)
I1214 22:10:58.186843 32654 net.cpp:165] Memory required for data: 4521861360
I1214 22:10:58.186854 32654 layer_factory.hpp:77] Creating layer ch_concat_3b_chconcat_ch_concat_3b_chconcat_0_split
I1214 22:10:58.186871 32654 net.cpp:100] Creating Layer ch_concat_3b_chconcat_ch_concat_3b_chconcat_0_split
I1214 22:10:58.186882 32654 net.cpp:434] ch_concat_3b_chconcat_ch_concat_3b_chconcat_0_split <- ch_concat_3b_chconcat
I1214 22:10:58.186902 32654 net.cpp:408] ch_concat_3b_chconcat_ch_concat_3b_chconcat_0_split -> ch_concat_3b_chconcat_ch_concat_3b_chconcat_0_split_0
I1214 22:10:58.186921 32654 net.cpp:408] ch_concat_3b_chconcat_ch_concat_3b_chconcat_0_split -> ch_concat_3b_chconcat_ch_concat_3b_chconcat_0_split_1
I1214 22:10:58.186939 32654 net.cpp:408] ch_concat_3b_chconcat_ch_concat_3b_chconcat_0_split -> ch_concat_3b_chconcat_ch_concat_3b_chconcat_0_split_2
I1214 22:10:58.187005 32654 net.cpp:150] Setting up ch_concat_3b_chconcat_ch_concat_3b_chconcat_0_split
I1214 22:10:58.187024 32654 net.cpp:157] Top shape: 60 480 28 28 (22579200)
I1214 22:10:58.187037 32654 net.cpp:157] Top shape: 60 480 28 28 (22579200)
I1214 22:10:58.187050 32654 net.cpp:157] Top shape: 60 480 28 28 (22579200)
I1214 22:10:58.187067 32654 net.cpp:165] Memory required for data: 4792811760
I1214 22:10:58.187078 32654 layer_factory.hpp:77] Creating layer conv_3c_3x3_reduce
I1214 22:10:58.187109 32654 net.cpp:100] Creating Layer conv_3c_3x3_reduce
I1214 22:10:58.187124 32654 net.cpp:434] conv_3c_3x3_reduce <- ch_concat_3b_chconcat_ch_concat_3b_chconcat_0_split_0
I1214 22:10:58.187144 32654 net.cpp:408] conv_3c_3x3_reduce -> conv_3c_3x3_reduce
I1214 22:10:58.188398 32654 net.cpp:150] Setting up conv_3c_3x3_reduce
I1214 22:10:58.188426 32654 net.cpp:157] Top shape: 60 192 28 28 (9031680)
I1214 22:10:58.188438 32654 net.cpp:165] Memory required for data: 4828938480
I1214 22:10:58.188454 32654 layer_factory.hpp:77] Creating layer bn_3c_3x3_reduce
I1214 22:10:58.188470 32654 net.cpp:100] Creating Layer bn_3c_3x3_reduce
I1214 22:10:58.188483 32654 net.cpp:434] bn_3c_3x3_reduce <- conv_3c_3x3_reduce
I1214 22:10:58.188503 32654 net.cpp:395] bn_3c_3x3_reduce -> conv_3c_3x3_reduce (in-place)
I1214 22:10:58.188745 32654 net.cpp:150] Setting up bn_3c_3x3_reduce
I1214 22:10:58.188768 32654 net.cpp:157] Top shape: 60 192 28 28 (9031680)
I1214 22:10:58.188781 32654 net.cpp:165] Memory required for data: 4865065200
I1214 22:10:58.188798 32654 layer_factory.hpp:77] Creating layer scale_conv_3c_3x3_reduce
I1214 22:10:58.188814 32654 net.cpp:100] Creating Layer scale_conv_3c_3x3_reduce
I1214 22:10:58.188827 32654 net.cpp:434] scale_conv_3c_3x3_reduce <- conv_3c_3x3_reduce
I1214 22:10:58.188848 32654 net.cpp:395] scale_conv_3c_3x3_reduce -> conv_3c_3x3_reduce (in-place)
I1214 22:10:58.188910 32654 layer_factory.hpp:77] Creating layer scale_conv_3c_3x3_reduce
I1214 22:10:58.189067 32654 net.cpp:150] Setting up scale_conv_3c_3x3_reduce
I1214 22:10:58.189090 32654 net.cpp:157] Top shape: 60 192 28 28 (9031680)
I1214 22:10:58.189101 32654 net.cpp:165] Memory required for data: 4901191920
I1214 22:10:58.189117 32654 layer_factory.hpp:77] Creating layer relu_3c_3x3_reduce
I1214 22:10:58.189137 32654 net.cpp:100] Creating Layer relu_3c_3x3_reduce
I1214 22:10:58.189151 32654 net.cpp:434] relu_3c_3x3_reduce <- conv_3c_3x3_reduce
I1214 22:10:58.189164 32654 net.cpp:395] relu_3c_3x3_reduce -> conv_3c_3x3_reduce (in-place)
I1214 22:10:58.189187 32654 net.cpp:150] Setting up relu_3c_3x3_reduce
I1214 22:10:58.189203 32654 net.cpp:157] Top shape: 60 192 28 28 (9031680)
I1214 22:10:58.189213 32654 net.cpp:165] Memory required for data: 4937318640
I1214 22:10:58.189224 32654 layer_factory.hpp:77] Creating layer conv_3c_3x3
I1214 22:10:58.189245 32654 net.cpp:100] Creating Layer conv_3c_3x3
I1214 22:10:58.189258 32654 net.cpp:434] conv_3c_3x3 <- conv_3c_3x3_reduce
I1214 22:10:58.189273 32654 net.cpp:408] conv_3c_3x3 -> conv_3c_3x3
I1214 22:10:58.191191 32654 net.cpp:150] Setting up conv_3c_3x3
I1214 22:10:58.191218 32654 net.cpp:157] Top shape: 60 240 14 14 (2822400)
I1214 22:10:58.191231 32654 net.cpp:165] Memory required for data: 4948608240
I1214 22:10:58.191246 32654 layer_factory.hpp:77] Creating layer bn_3c_3x3
I1214 22:10:58.191267 32654 net.cpp:100] Creating Layer bn_3c_3x3
I1214 22:10:58.191282 32654 net.cpp:434] bn_3c_3x3 <- conv_3c_3x3
I1214 22:10:58.191299 32654 net.cpp:395] bn_3c_3x3 -> conv_3c_3x3 (in-place)
I1214 22:10:58.191536 32654 net.cpp:150] Setting up bn_3c_3x3
I1214 22:10:58.191557 32654 net.cpp:157] Top shape: 60 240 14 14 (2822400)
I1214 22:10:58.191570 32654 net.cpp:165] Memory required for data: 4959897840
I1214 22:10:58.191617 32654 layer_factory.hpp:77] Creating layer scale_conv_3c_3x3
I1214 22:10:58.191638 32654 net.cpp:100] Creating Layer scale_conv_3c_3x3
I1214 22:10:58.191653 32654 net.cpp:434] scale_conv_3c_3x3 <- conv_3c_3x3
I1214 22:10:58.191668 32654 net.cpp:395] scale_conv_3c_3x3 -> conv_3c_3x3 (in-place)
I1214 22:10:58.191732 32654 layer_factory.hpp:77] Creating layer scale_conv_3c_3x3
I1214 22:10:58.191896 32654 net.cpp:150] Setting up scale_conv_3c_3x3
I1214 22:10:58.191918 32654 net.cpp:157] Top shape: 60 240 14 14 (2822400)
I1214 22:10:58.191934 32654 net.cpp:165] Memory required for data: 4971187440
I1214 22:10:58.191959 32654 layer_factory.hpp:77] Creating layer relu_3c_3x3
I1214 22:10:58.191977 32654 net.cpp:100] Creating Layer relu_3c_3x3
I1214 22:10:58.191989 32654 net.cpp:434] relu_3c_3x3 <- conv_3c_3x3
I1214 22:10:58.192008 32654 net.cpp:395] relu_3c_3x3 -> conv_3c_3x3 (in-place)
I1214 22:10:58.192025 32654 net.cpp:150] Setting up relu_3c_3x3
I1214 22:10:58.192040 32654 net.cpp:157] Top shape: 60 240 14 14 (2822400)
I1214 22:10:58.192061 32654 net.cpp:165] Memory required for data: 4982477040
I1214 22:10:58.192073 32654 layer_factory.hpp:77] Creating layer conv_3c_double_3x3_reduce
I1214 22:10:58.192096 32654 net.cpp:100] Creating Layer conv_3c_double_3x3_reduce
I1214 22:10:58.192111 32654 net.cpp:434] conv_3c_double_3x3_reduce <- ch_concat_3b_chconcat_ch_concat_3b_chconcat_0_split_1
I1214 22:10:58.192127 32654 net.cpp:408] conv_3c_double_3x3_reduce -> conv_3c_double_3x3_reduce
I1214 22:10:58.193334 32654 net.cpp:150] Setting up conv_3c_double_3x3_reduce
I1214 22:10:58.193362 32654 net.cpp:157] Top shape: 60 96 28 28 (4515840)
I1214 22:10:58.193374 32654 net.cpp:165] Memory required for data: 5000540400
I1214 22:10:58.193392 32654 layer_factory.hpp:77] Creating layer bn_3c_double_3x3_reduce
I1214 22:10:58.193421 32654 net.cpp:100] Creating Layer bn_3c_double_3x3_reduce
I1214 22:10:58.193436 32654 net.cpp:434] bn_3c_double_3x3_reduce <- conv_3c_double_3x3_reduce
I1214 22:10:58.193451 32654 net.cpp:395] bn_3c_double_3x3_reduce -> conv_3c_double_3x3_reduce (in-place)
I1214 22:10:58.193701 32654 net.cpp:150] Setting up bn_3c_double_3x3_reduce
I1214 22:10:58.193722 32654 net.cpp:157] Top shape: 60 96 28 28 (4515840)
I1214 22:10:58.193734 32654 net.cpp:165] Memory required for data: 5018603760
I1214 22:10:58.193752 32654 layer_factory.hpp:77] Creating layer scale_conv_3c_double_3x3_reduce
I1214 22:10:58.193771 32654 net.cpp:100] Creating Layer scale_conv_3c_double_3x3_reduce
I1214 22:10:58.193785 32654 net.cpp:434] scale_conv_3c_double_3x3_reduce <- conv_3c_double_3x3_reduce
I1214 22:10:58.193799 32654 net.cpp:395] scale_conv_3c_double_3x3_reduce -> conv_3c_double_3x3_reduce (in-place)
I1214 22:10:58.193866 32654 layer_factory.hpp:77] Creating layer scale_conv_3c_double_3x3_reduce
I1214 22:10:58.194038 32654 net.cpp:150] Setting up scale_conv_3c_double_3x3_reduce
I1214 22:10:58.194061 32654 net.cpp:157] Top shape: 60 96 28 28 (4515840)
I1214 22:10:58.194072 32654 net.cpp:165] Memory required for data: 5036667120
I1214 22:10:58.194088 32654 layer_factory.hpp:77] Creating layer relu_3c_double_3x3_reduce
I1214 22:10:58.194103 32654 net.cpp:100] Creating Layer relu_3c_double_3x3_reduce
I1214 22:10:58.194115 32654 net.cpp:434] relu_3c_double_3x3_reduce <- conv_3c_double_3x3_reduce
I1214 22:10:58.194133 32654 net.cpp:395] relu_3c_double_3x3_reduce -> conv_3c_double_3x3_reduce (in-place)
I1214 22:10:58.194150 32654 net.cpp:150] Setting up relu_3c_double_3x3_reduce
I1214 22:10:58.194165 32654 net.cpp:157] Top shape: 60 96 28 28 (4515840)
I1214 22:10:58.194176 32654 net.cpp:165] Memory required for data: 5054730480
I1214 22:10:58.194196 32654 layer_factory.hpp:77] Creating layer conv_3c_double_3x3_0
I1214 22:10:58.194214 32654 net.cpp:100] Creating Layer conv_3c_double_3x3_0
I1214 22:10:58.194227 32654 net.cpp:434] conv_3c_double_3x3_0 <- conv_3c_double_3x3_reduce
I1214 22:10:58.194248 32654 net.cpp:408] conv_3c_double_3x3_0 -> conv_3c_double_3x3_0
I1214 22:10:58.194648 32654 net.cpp:150] Setting up conv_3c_double_3x3_0
I1214 22:10:58.194670 32654 net.cpp:157] Top shape: 60 144 28 28 (6773760)
I1214 22:10:58.194682 32654 net.cpp:165] Memory required for data: 5081825520
I1214 22:10:58.194697 32654 layer_factory.hpp:77] Creating layer bn_3c_double_3x3_0
I1214 22:10:58.194718 32654 net.cpp:100] Creating Layer bn_3c_double_3x3_0
I1214 22:10:58.194732 32654 net.cpp:434] bn_3c_double_3x3_0 <- conv_3c_double_3x3_0
I1214 22:10:58.194746 32654 net.cpp:395] bn_3c_double_3x3_0 -> conv_3c_double_3x3_0 (in-place)
I1214 22:10:58.195013 32654 net.cpp:150] Setting up bn_3c_double_3x3_0
I1214 22:10:58.195034 32654 net.cpp:157] Top shape: 60 144 28 28 (6773760)
I1214 22:10:58.195046 32654 net.cpp:165] Memory required for data: 5108920560
I1214 22:10:58.195063 32654 layer_factory.hpp:77] Creating layer scale_conv_3c_double_3x3_0
I1214 22:10:58.195085 32654 net.cpp:100] Creating Layer scale_conv_3c_double_3x3_0
I1214 22:10:58.195103 32654 net.cpp:434] scale_conv_3c_double_3x3_0 <- conv_3c_double_3x3_0
I1214 22:10:58.195118 32654 net.cpp:395] scale_conv_3c_double_3x3_0 -> conv_3c_double_3x3_0 (in-place)
I1214 22:10:58.195194 32654 layer_factory.hpp:77] Creating layer scale_conv_3c_double_3x3_0
I1214 22:10:58.195369 32654 net.cpp:150] Setting up scale_conv_3c_double_3x3_0
I1214 22:10:58.195389 32654 net.cpp:157] Top shape: 60 144 28 28 (6773760)
I1214 22:10:58.195401 32654 net.cpp:165] Memory required for data: 5136015600
I1214 22:10:58.195416 32654 layer_factory.hpp:77] Creating layer relu_3c_double_3x3_0
I1214 22:10:58.195431 32654 net.cpp:100] Creating Layer relu_3c_double_3x3_0
I1214 22:10:58.195443 32654 net.cpp:434] relu_3c_double_3x3_0 <- conv_3c_double_3x3_0
I1214 22:10:58.195461 32654 net.cpp:395] relu_3c_double_3x3_0 -> conv_3c_double_3x3_0 (in-place)
I1214 22:10:58.195478 32654 net.cpp:150] Setting up relu_3c_double_3x3_0
I1214 22:10:58.195492 32654 net.cpp:157] Top shape: 60 144 28 28 (6773760)
I1214 22:10:58.195503 32654 net.cpp:165] Memory required for data: 5163110640
I1214 22:10:58.195514 32654 layer_factory.hpp:77] Creating layer conv_3c_double_3x3_1
I1214 22:10:58.195531 32654 net.cpp:100] Creating Layer conv_3c_double_3x3_1
I1214 22:10:58.195544 32654 net.cpp:434] conv_3c_double_3x3_1 <- conv_3c_double_3x3_0
I1214 22:10:58.195564 32654 net.cpp:408] conv_3c_double_3x3_1 -> conv_3c_double_3x3_1
I1214 22:10:58.196914 32654 net.cpp:150] Setting up conv_3c_double_3x3_1
I1214 22:10:58.196943 32654 net.cpp:157] Top shape: 60 144 14 14 (1693440)
I1214 22:10:58.196954 32654 net.cpp:165] Memory required for data: 5169884400
I1214 22:10:58.196970 32654 layer_factory.hpp:77] Creating layer bn_3c_double_3x3_1
I1214 22:10:58.196990 32654 net.cpp:100] Creating Layer bn_3c_double_3x3_1
I1214 22:10:58.197005 32654 net.cpp:434] bn_3c_double_3x3_1 <- conv_3c_double_3x3_1
I1214 22:10:58.197019 32654 net.cpp:395] bn_3c_double_3x3_1 -> conv_3c_double_3x3_1 (in-place)
I1214 22:10:58.197273 32654 net.cpp:150] Setting up bn_3c_double_3x3_1
I1214 22:10:58.197294 32654 net.cpp:157] Top shape: 60 144 14 14 (1693440)
I1214 22:10:58.197305 32654 net.cpp:165] Memory required for data: 5176658160
I1214 22:10:58.197324 32654 layer_factory.hpp:77] Creating layer scale_conv_3c_double_3x3_1
I1214 22:10:58.197340 32654 net.cpp:100] Creating Layer scale_conv_3c_double_3x3_1
I1214 22:10:58.197352 32654 net.cpp:434] scale_conv_3c_double_3x3_1 <- conv_3c_double_3x3_1
I1214 22:10:58.197366 32654 net.cpp:395] scale_conv_3c_double_3x3_1 -> conv_3c_double_3x3_1 (in-place)
I1214 22:10:58.197432 32654 layer_factory.hpp:77] Creating layer scale_conv_3c_double_3x3_1
I1214 22:10:58.197587 32654 net.cpp:150] Setting up scale_conv_3c_double_3x3_1
I1214 22:10:58.197607 32654 net.cpp:157] Top shape: 60 144 14 14 (1693440)
I1214 22:10:58.197618 32654 net.cpp:165] Memory required for data: 5183431920
I1214 22:10:58.197633 32654 layer_factory.hpp:77] Creating layer relu_3c_double_3x3_1
I1214 22:10:58.197649 32654 net.cpp:100] Creating Layer relu_3c_double_3x3_1
I1214 22:10:58.197660 32654 net.cpp:434] relu_3c_double_3x3_1 <- conv_3c_double_3x3_1
I1214 22:10:58.197685 32654 net.cpp:395] relu_3c_double_3x3_1 -> conv_3c_double_3x3_1 (in-place)
I1214 22:10:58.197702 32654 net.cpp:150] Setting up relu_3c_double_3x3_1
I1214 22:10:58.197723 32654 net.cpp:157] Top shape: 60 144 14 14 (1693440)
I1214 22:10:58.197741 32654 net.cpp:165] Memory required for data: 5190205680
I1214 22:10:58.197752 32654 layer_factory.hpp:77] Creating layer max_pool_3c_pool
I1214 22:10:58.197768 32654 net.cpp:100] Creating Layer max_pool_3c_pool
I1214 22:10:58.197780 32654 net.cpp:434] max_pool_3c_pool <- ch_concat_3b_chconcat_ch_concat_3b_chconcat_0_split_2
I1214 22:10:58.197800 32654 net.cpp:408] max_pool_3c_pool -> max_pool_3c_pool
I1214 22:10:58.197861 32654 net.cpp:150] Setting up max_pool_3c_pool
I1214 22:10:58.197897 32654 net.cpp:157] Top shape: 60 480 14 14 (5644800)
I1214 22:10:58.197911 32654 net.cpp:165] Memory required for data: 5212784880
I1214 22:10:58.197921 32654 layer_factory.hpp:77] Creating layer ch_concat_3c_chconcat
I1214 22:10:58.197937 32654 net.cpp:100] Creating Layer ch_concat_3c_chconcat
I1214 22:10:58.197958 32654 net.cpp:434] ch_concat_3c_chconcat <- conv_3c_3x3
I1214 22:10:58.197971 32654 net.cpp:434] ch_concat_3c_chconcat <- conv_3c_double_3x3_1
I1214 22:10:58.197984 32654 net.cpp:434] ch_concat_3c_chconcat <- max_pool_3c_pool
I1214 22:10:58.197999 32654 net.cpp:408] ch_concat_3c_chconcat -> ch_concat_3c_chconcat
I1214 22:10:58.198045 32654 net.cpp:150] Setting up ch_concat_3c_chconcat
I1214 22:10:58.198066 32654 net.cpp:157] Top shape: 60 864 14 14 (10160640)
I1214 22:10:58.198077 32654 net.cpp:165] Memory required for data: 5253427440
I1214 22:10:58.198088 32654 layer_factory.hpp:77] Creating layer ch_concat_3c_chconcat_ch_concat_3c_chconcat_0_split
I1214 22:10:58.198106 32654 net.cpp:100] Creating Layer ch_concat_3c_chconcat_ch_concat_3c_chconcat_0_split
I1214 22:10:58.198117 32654 net.cpp:434] ch_concat_3c_chconcat_ch_concat_3c_chconcat_0_split <- ch_concat_3c_chconcat
I1214 22:10:58.198132 32654 net.cpp:408] ch_concat_3c_chconcat_ch_concat_3c_chconcat_0_split -> ch_concat_3c_chconcat_ch_concat_3c_chconcat_0_split_0
I1214 22:10:58.198150 32654 net.cpp:408] ch_concat_3c_chconcat_ch_concat_3c_chconcat_0_split -> ch_concat_3c_chconcat_ch_concat_3c_chconcat_0_split_1
I1214 22:10:58.198173 32654 net.cpp:408] ch_concat_3c_chconcat_ch_concat_3c_chconcat_0_split -> ch_concat_3c_chconcat_ch_concat_3c_chconcat_0_split_2
I1214 22:10:58.198202 32654 net.cpp:408] ch_concat_3c_chconcat_ch_concat_3c_chconcat_0_split -> ch_concat_3c_chconcat_ch_concat_3c_chconcat_0_split_3
I1214 22:10:58.198292 32654 net.cpp:150] Setting up ch_concat_3c_chconcat_ch_concat_3c_chconcat_0_split
I1214 22:10:58.198312 32654 net.cpp:157] Top shape: 60 864 14 14 (10160640)
I1214 22:10:58.198324 32654 net.cpp:157] Top shape: 60 864 14 14 (10160640)
I1214 22:10:58.198338 32654 net.cpp:157] Top shape: 60 864 14 14 (10160640)
I1214 22:10:58.198350 32654 net.cpp:157] Top shape: 60 864 14 14 (10160640)
I1214 22:10:58.198360 32654 net.cpp:165] Memory required for data: 5415997680
I1214 22:10:58.198372 32654 layer_factory.hpp:77] Creating layer conv_4a_1x1
I1214 22:10:58.198392 32654 net.cpp:100] Creating Layer conv_4a_1x1
I1214 22:10:58.198406 32654 net.cpp:434] conv_4a_1x1 <- ch_concat_3c_chconcat_ch_concat_3c_chconcat_0_split_0
I1214 22:10:58.198426 32654 net.cpp:408] conv_4a_1x1 -> conv_4a_1x1
I1214 22:10:58.199726 32654 net.cpp:150] Setting up conv_4a_1x1
I1214 22:10:58.199754 32654 net.cpp:157] Top shape: 60 224 14 14 (2634240)
I1214 22:10:58.199766 32654 net.cpp:165] Memory required for data: 5426534640
I1214 22:10:58.199782 32654 layer_factory.hpp:77] Creating layer bn_4a_1x1
I1214 22:10:58.199798 32654 net.cpp:100] Creating Layer bn_4a_1x1
I1214 22:10:58.199811 32654 net.cpp:434] bn_4a_1x1 <- conv_4a_1x1
I1214 22:10:58.199829 32654 net.cpp:395] bn_4a_1x1 -> conv_4a_1x1 (in-place)
I1214 22:10:58.200072 32654 net.cpp:150] Setting up bn_4a_1x1
I1214 22:10:58.200095 32654 net.cpp:157] Top shape: 60 224 14 14 (2634240)
I1214 22:10:58.200108 32654 net.cpp:165] Memory required for data: 5437071600
I1214 22:10:58.200124 32654 layer_factory.hpp:77] Creating layer scale_conv_4a_1x1
I1214 22:10:58.200140 32654 net.cpp:100] Creating Layer scale_conv_4a_1x1
I1214 22:10:58.200152 32654 net.cpp:434] scale_conv_4a_1x1 <- conv_4a_1x1
I1214 22:10:58.200171 32654 net.cpp:395] scale_conv_4a_1x1 -> conv_4a_1x1 (in-place)
I1214 22:10:58.200242 32654 layer_factory.hpp:77] Creating layer scale_conv_4a_1x1
I1214 22:10:58.200455 32654 net.cpp:150] Setting up scale_conv_4a_1x1
I1214 22:10:58.200479 32654 net.cpp:157] Top shape: 60 224 14 14 (2634240)
I1214 22:10:58.200491 32654 net.cpp:165] Memory required for data: 5447608560
I1214 22:10:58.200507 32654 layer_factory.hpp:77] Creating layer relu_4a_1x1
I1214 22:10:58.200526 32654 net.cpp:100] Creating Layer relu_4a_1x1
I1214 22:10:58.200541 32654 net.cpp:434] relu_4a_1x1 <- conv_4a_1x1
I1214 22:10:58.200554 32654 net.cpp:395] relu_4a_1x1 -> conv_4a_1x1 (in-place)
I1214 22:10:58.200570 32654 net.cpp:150] Setting up relu_4a_1x1
I1214 22:10:58.200584 32654 net.cpp:157] Top shape: 60 224 14 14 (2634240)
I1214 22:10:58.200595 32654 net.cpp:165] Memory required for data: 5458145520
I1214 22:10:58.200619 32654 layer_factory.hpp:77] Creating layer conv_4a_3x3_reduce
I1214 22:10:58.200645 32654 net.cpp:100] Creating Layer conv_4a_3x3_reduce
I1214 22:10:58.200659 32654 net.cpp:434] conv_4a_3x3_reduce <- ch_concat_3c_chconcat_ch_concat_3c_chconcat_0_split_1
I1214 22:10:58.200675 32654 net.cpp:408] conv_4a_3x3_reduce -> conv_4a_3x3_reduce
I1214 22:10:58.201009 32654 net.cpp:150] Setting up conv_4a_3x3_reduce
I1214 22:10:58.201037 32654 net.cpp:157] Top shape: 60 64 14 14 (752640)
I1214 22:10:58.201050 32654 net.cpp:165] Memory required for data: 5461156080
I1214 22:10:58.201066 32654 layer_factory.hpp:77] Creating layer bn_4a_3x3_reduce
I1214 22:10:58.201081 32654 net.cpp:100] Creating Layer bn_4a_3x3_reduce
I1214 22:10:58.201094 32654 net.cpp:434] bn_4a_3x3_reduce <- conv_4a_3x3_reduce
I1214 22:10:58.201113 32654 net.cpp:395] bn_4a_3x3_reduce -> conv_4a_3x3_reduce (in-place)
I1214 22:10:58.201360 32654 net.cpp:150] Setting up bn_4a_3x3_reduce
I1214 22:10:58.201385 32654 net.cpp:157] Top shape: 60 64 14 14 (752640)
I1214 22:10:58.201396 32654 net.cpp:165] Memory required for data: 5464166640
I1214 22:10:58.201414 32654 layer_factory.hpp:77] Creating layer scale_conv_4a_3x3_reduce
I1214 22:10:58.201431 32654 net.cpp:100] Creating Layer scale_conv_4a_3x3_reduce
I1214 22:10:58.201442 32654 net.cpp:434] scale_conv_4a_3x3_reduce <- conv_4a_3x3_reduce
I1214 22:10:58.201462 32654 net.cpp:395] scale_conv_4a_3x3_reduce -> conv_4a_3x3_reduce (in-place)
I1214 22:10:58.201519 32654 layer_factory.hpp:77] Creating layer scale_conv_4a_3x3_reduce
I1214 22:10:58.201675 32654 net.cpp:150] Setting up scale_conv_4a_3x3_reduce
I1214 22:10:58.201699 32654 net.cpp:157] Top shape: 60 64 14 14 (752640)
I1214 22:10:58.201714 32654 net.cpp:165] Memory required for data: 5467177200
I1214 22:10:58.201728 32654 layer_factory.hpp:77] Creating layer relu_4a_3x3_reduce
I1214 22:10:58.201748 32654 net.cpp:100] Creating Layer relu_4a_3x3_reduce
I1214 22:10:58.201762 32654 net.cpp:434] relu_4a_3x3_reduce <- conv_4a_3x3_reduce
I1214 22:10:58.201779 32654 net.cpp:395] relu_4a_3x3_reduce -> conv_4a_3x3_reduce (in-place)
I1214 22:10:58.201795 32654 net.cpp:150] Setting up relu_4a_3x3_reduce
I1214 22:10:58.201810 32654 net.cpp:157] Top shape: 60 64 14 14 (752640)
I1214 22:10:58.201822 32654 net.cpp:165] Memory required for data: 5470187760
I1214 22:10:58.201833 32654 layer_factory.hpp:77] Creating layer conv_4a_3x3
I1214 22:10:58.201853 32654 net.cpp:100] Creating Layer conv_4a_3x3
I1214 22:10:58.201866 32654 net.cpp:434] conv_4a_3x3 <- conv_4a_3x3_reduce
I1214 22:10:58.201881 32654 net.cpp:408] conv_4a_3x3 -> conv_4a_3x3
I1214 22:10:58.202231 32654 net.cpp:150] Setting up conv_4a_3x3
I1214 22:10:58.202256 32654 net.cpp:157] Top shape: 60 96 14 14 (1128960)
I1214 22:10:58.202271 32654 net.cpp:165] Memory required for data: 5474703600
I1214 22:10:58.202287 32654 layer_factory.hpp:77] Creating layer bn_4a_3x3
I1214 22:10:58.202307 32654 net.cpp:100] Creating Layer bn_4a_3x3
I1214 22:10:58.202320 32654 net.cpp:434] bn_4a_3x3 <- conv_4a_3x3
I1214 22:10:58.202334 32654 net.cpp:395] bn_4a_3x3 -> conv_4a_3x3 (in-place)
I1214 22:10:58.202571 32654 net.cpp:150] Setting up bn_4a_3x3
I1214 22:10:58.202594 32654 net.cpp:157] Top shape: 60 96 14 14 (1128960)
I1214 22:10:58.202605 32654 net.cpp:165] Memory required for data: 5479219440
I1214 22:10:58.202623 32654 layer_factory.hpp:77] Creating layer scale_conv_4a_3x3
I1214 22:10:58.202639 32654 net.cpp:100] Creating Layer scale_conv_4a_3x3
I1214 22:10:58.202651 32654 net.cpp:434] scale_conv_4a_3x3 <- conv_4a_3x3
I1214 22:10:58.202671 32654 net.cpp:395] scale_conv_4a_3x3 -> conv_4a_3x3 (in-place)
I1214 22:10:58.202733 32654 layer_factory.hpp:77] Creating layer scale_conv_4a_3x3
I1214 22:10:58.202888 32654 net.cpp:150] Setting up scale_conv_4a_3x3
I1214 22:10:58.202910 32654 net.cpp:157] Top shape: 60 96 14 14 (1128960)
I1214 22:10:58.202922 32654 net.cpp:165] Memory required for data: 5483735280
I1214 22:10:58.202937 32654 layer_factory.hpp:77] Creating layer relu_4a_3x3
I1214 22:10:58.202961 32654 net.cpp:100] Creating Layer relu_4a_3x3
I1214 22:10:58.202975 32654 net.cpp:434] relu_4a_3x3 <- conv_4a_3x3
I1214 22:10:58.202991 32654 net.cpp:395] relu_4a_3x3 -> conv_4a_3x3 (in-place)
I1214 22:10:58.203008 32654 net.cpp:150] Setting up relu_4a_3x3
I1214 22:10:58.203023 32654 net.cpp:157] Top shape: 60 96 14 14 (1128960)
I1214 22:10:58.203034 32654 net.cpp:165] Memory required for data: 5488251120
I1214 22:10:58.203045 32654 layer_factory.hpp:77] Creating layer conv_4a_double_3x3_reduce
I1214 22:10:58.203065 32654 net.cpp:100] Creating Layer conv_4a_double_3x3_reduce
I1214 22:10:58.203079 32654 net.cpp:434] conv_4a_double_3x3_reduce <- ch_concat_3c_chconcat_ch_concat_3c_chconcat_0_split_2
I1214 22:10:58.203094 32654 net.cpp:408] conv_4a_double_3x3_reduce -> conv_4a_double_3x3_reduce
I1214 22:10:58.204332 32654 net.cpp:150] Setting up conv_4a_double_3x3_reduce
I1214 22:10:58.204360 32654 net.cpp:157] Top shape: 60 96 14 14 (1128960)
I1214 22:10:58.204371 32654 net.cpp:165] Memory required for data: 5492766960
I1214 22:10:58.204386 32654 layer_factory.hpp:77] Creating layer bn_4a_double_3x3_reduce
I1214 22:10:58.204408 32654 net.cpp:100] Creating Layer bn_4a_double_3x3_reduce
I1214 22:10:58.204422 32654 net.cpp:434] bn_4a_double_3x3_reduce <- conv_4a_double_3x3_reduce
I1214 22:10:58.204437 32654 net.cpp:395] bn_4a_double_3x3_reduce -> conv_4a_double_3x3_reduce (in-place)
I1214 22:10:58.204679 32654 net.cpp:150] Setting up bn_4a_double_3x3_reduce
I1214 22:10:58.204701 32654 net.cpp:157] Top shape: 60 96 14 14 (1128960)
I1214 22:10:58.204713 32654 net.cpp:165] Memory required for data: 5497282800
I1214 22:10:58.204730 32654 layer_factory.hpp:77] Creating layer scale_conv_4a_double_3x3_reduce
I1214 22:10:58.204751 32654 net.cpp:100] Creating Layer scale_conv_4a_double_3x3_reduce
I1214 22:10:58.204764 32654 net.cpp:434] scale_conv_4a_double_3x3_reduce <- conv_4a_double_3x3_reduce
I1214 22:10:58.204778 32654 net.cpp:395] scale_conv_4a_double_3x3_reduce -> conv_4a_double_3x3_reduce (in-place)
I1214 22:10:58.204841 32654 layer_factory.hpp:77] Creating layer scale_conv_4a_double_3x3_reduce
I1214 22:10:58.205008 32654 net.cpp:150] Setting up scale_conv_4a_double_3x3_reduce
I1214 22:10:58.205032 32654 net.cpp:157] Top shape: 60 96 14 14 (1128960)
I1214 22:10:58.205044 32654 net.cpp:165] Memory required for data: 5501798640
I1214 22:10:58.205060 32654 layer_factory.hpp:77] Creating layer relu_4a_double_3x3_reduce
I1214 22:10:58.205075 32654 net.cpp:100] Creating Layer relu_4a_double_3x3_reduce
I1214 22:10:58.205086 32654 net.cpp:434] relu_4a_double_3x3_reduce <- conv_4a_double_3x3_reduce
I1214 22:10:58.205114 32654 net.cpp:395] relu_4a_double_3x3_reduce -> conv_4a_double_3x3_reduce (in-place)
I1214 22:10:58.205142 32654 net.cpp:150] Setting up relu_4a_double_3x3_reduce
I1214 22:10:58.205163 32654 net.cpp:157] Top shape: 60 96 14 14 (1128960)
I1214 22:10:58.205186 32654 net.cpp:165] Memory required for data: 5506314480
I1214 22:10:58.205207 32654 layer_factory.hpp:77] Creating layer conv_4a_double_3x3_0
I1214 22:10:58.205240 32654 net.cpp:100] Creating Layer conv_4a_double_3x3_0
I1214 22:10:58.205255 32654 net.cpp:434] conv_4a_double_3x3_0 <- conv_4a_double_3x3_reduce
I1214 22:10:58.205276 32654 net.cpp:408] conv_4a_double_3x3_0 -> conv_4a_double_3x3_0
I1214 22:10:58.205634 32654 net.cpp:150] Setting up conv_4a_double_3x3_0
I1214 22:10:58.205657 32654 net.cpp:157] Top shape: 60 128 14 14 (1505280)
I1214 22:10:58.205668 32654 net.cpp:165] Memory required for data: 5512335600
I1214 22:10:58.205684 32654 layer_factory.hpp:77] Creating layer bn_4a_double_3x3_0
I1214 22:10:58.205699 32654 net.cpp:100] Creating Layer bn_4a_double_3x3_0
I1214 22:10:58.205713 32654 net.cpp:434] bn_4a_double_3x3_0 <- conv_4a_double_3x3_0
I1214 22:10:58.205732 32654 net.cpp:395] bn_4a_double_3x3_0 -> conv_4a_double_3x3_0 (in-place)
I1214 22:10:58.205972 32654 net.cpp:150] Setting up bn_4a_double_3x3_0
I1214 22:10:58.206002 32654 net.cpp:157] Top shape: 60 128 14 14 (1505280)
I1214 22:10:58.206023 32654 net.cpp:165] Memory required for data: 5518356720
I1214 22:10:58.206056 32654 layer_factory.hpp:77] Creating layer scale_conv_4a_double_3x3_0
I1214 22:10:58.206073 32654 net.cpp:100] Creating Layer scale_conv_4a_double_3x3_0
I1214 22:10:58.206086 32654 net.cpp:434] scale_conv_4a_double_3x3_0 <- conv_4a_double_3x3_0
I1214 22:10:58.206112 32654 net.cpp:395] scale_conv_4a_double_3x3_0 -> conv_4a_double_3x3_0 (in-place)
I1214 22:10:58.206172 32654 layer_factory.hpp:77] Creating layer scale_conv_4a_double_3x3_0
I1214 22:10:58.206324 32654 net.cpp:150] Setting up scale_conv_4a_double_3x3_0
I1214 22:10:58.206346 32654 net.cpp:157] Top shape: 60 128 14 14 (1505280)
I1214 22:10:58.206357 32654 net.cpp:165] Memory required for data: 5524377840
I1214 22:10:58.206373 32654 layer_factory.hpp:77] Creating layer relu_4a_double_3x3_0
I1214 22:10:58.206399 32654 net.cpp:100] Creating Layer relu_4a_double_3x3_0
I1214 22:10:58.206418 32654 net.cpp:434] relu_4a_double_3x3_0 <- conv_4a_double_3x3_0
I1214 22:10:58.206432 32654 net.cpp:395] relu_4a_double_3x3_0 -> conv_4a_double_3x3_0 (in-place)
I1214 22:10:58.206449 32654 net.cpp:150] Setting up relu_4a_double_3x3_0
I1214 22:10:58.206465 32654 net.cpp:157] Top shape: 60 128 14 14 (1505280)
I1214 22:10:58.206475 32654 net.cpp:165] Memory required for data: 5530398960
I1214 22:10:58.206486 32654 layer_factory.hpp:77] Creating layer conv_4a_double_3x3_1
I1214 22:10:58.206507 32654 net.cpp:100] Creating Layer conv_4a_double_3x3_1
I1214 22:10:58.206521 32654 net.cpp:434] conv_4a_double_3x3_1 <- conv_4a_double_3x3_0
I1214 22:10:58.206539 32654 net.cpp:408] conv_4a_double_3x3_1 -> conv_4a_double_3x3_1
I1214 22:10:58.207824 32654 net.cpp:150] Setting up conv_4a_double_3x3_1
I1214 22:10:58.207851 32654 net.cpp:157] Top shape: 60 128 14 14 (1505280)
I1214 22:10:58.207864 32654 net.cpp:165] Memory required for data: 5536420080
I1214 22:10:58.207880 32654 layer_factory.hpp:77] Creating layer bn_4a_double_3x3_1
I1214 22:10:58.207901 32654 net.cpp:100] Creating Layer bn_4a_double_3x3_1
I1214 22:10:58.207914 32654 net.cpp:434] bn_4a_double_3x3_1 <- conv_4a_double_3x3_1
I1214 22:10:58.207928 32654 net.cpp:395] bn_4a_double_3x3_1 -> conv_4a_double_3x3_1 (in-place)
I1214 22:10:58.208166 32654 net.cpp:150] Setting up bn_4a_double_3x3_1
I1214 22:10:58.208194 32654 net.cpp:157] Top shape: 60 128 14 14 (1505280)
I1214 22:10:58.208207 32654 net.cpp:165] Memory required for data: 5542441200
I1214 22:10:58.208226 32654 layer_factory.hpp:77] Creating layer scale_conv_4a_double_3x3_1
I1214 22:10:58.208242 32654 net.cpp:100] Creating Layer scale_conv_4a_double_3x3_1
I1214 22:10:58.208256 32654 net.cpp:434] scale_conv_4a_double_3x3_1 <- conv_4a_double_3x3_1
I1214 22:10:58.208269 32654 net.cpp:395] scale_conv_4a_double_3x3_1 -> conv_4a_double_3x3_1 (in-place)
I1214 22:10:58.208343 32654 layer_factory.hpp:77] Creating layer scale_conv_4a_double_3x3_1
I1214 22:10:58.208492 32654 net.cpp:150] Setting up scale_conv_4a_double_3x3_1
I1214 22:10:58.208513 32654 net.cpp:157] Top shape: 60 128 14 14 (1505280)
I1214 22:10:58.208524 32654 net.cpp:165] Memory required for data: 5548462320
I1214 22:10:58.208540 32654 layer_factory.hpp:77] Creating layer relu_4a_double_3x3_1
I1214 22:10:58.208555 32654 net.cpp:100] Creating Layer relu_4a_double_3x3_1
I1214 22:10:58.208567 32654 net.cpp:434] relu_4a_double_3x3_1 <- conv_4a_double_3x3_1
I1214 22:10:58.208585 32654 net.cpp:395] relu_4a_double_3x3_1 -> conv_4a_double_3x3_1 (in-place)
I1214 22:10:58.208602 32654 net.cpp:150] Setting up relu_4a_double_3x3_1
I1214 22:10:58.208616 32654 net.cpp:157] Top shape: 60 128 14 14 (1505280)
I1214 22:10:58.208633 32654 net.cpp:165] Memory required for data: 5554483440
I1214 22:10:58.208650 32654 layer_factory.hpp:77] Creating layer ave_pool_4a_pool
I1214 22:10:58.208667 32654 net.cpp:100] Creating Layer ave_pool_4a_pool
I1214 22:10:58.208679 32654 net.cpp:434] ave_pool_4a_pool <- ch_concat_3c_chconcat_ch_concat_3c_chconcat_0_split_3
I1214 22:10:58.208700 32654 net.cpp:408] ave_pool_4a_pool -> ave_pool_4a_pool
I1214 22:10:58.208745 32654 net.cpp:150] Setting up ave_pool_4a_pool
I1214 22:10:58.208773 32654 net.cpp:157] Top shape: 60 864 14 14 (10160640)
I1214 22:10:58.208786 32654 net.cpp:165] Memory required for data: 5595126000
I1214 22:10:58.208796 32654 layer_factory.hpp:77] Creating layer conv_4a_proj
I1214 22:10:58.208812 32654 net.cpp:100] Creating Layer conv_4a_proj
I1214 22:10:58.208825 32654 net.cpp:434] conv_4a_proj <- ave_pool_4a_pool
I1214 22:10:58.208858 32654 net.cpp:408] conv_4a_proj -> conv_4a_proj
I1214 22:10:58.209228 32654 net.cpp:150] Setting up conv_4a_proj
I1214 22:10:58.209251 32654 net.cpp:157] Top shape: 60 128 14 14 (1505280)
I1214 22:10:58.209262 32654 net.cpp:165] Memory required for data: 5601147120
I1214 22:10:58.209278 32654 layer_factory.hpp:77] Creating layer bn_4a_proj
I1214 22:10:58.209295 32654 net.cpp:100] Creating Layer bn_4a_proj
I1214 22:10:58.209306 32654 net.cpp:434] bn_4a_proj <- conv_4a_proj
I1214 22:10:58.209324 32654 net.cpp:395] bn_4a_proj -> conv_4a_proj (in-place)
I1214 22:10:58.209556 32654 net.cpp:150] Setting up bn_4a_proj
I1214 22:10:58.209578 32654 net.cpp:157] Top shape: 60 128 14 14 (1505280)
I1214 22:10:58.209589 32654 net.cpp:165] Memory required for data: 5607168240
I1214 22:10:58.209606 32654 layer_factory.hpp:77] Creating layer scale_conv_4a_proj
I1214 22:10:58.209666 32654 net.cpp:100] Creating Layer scale_conv_4a_proj
I1214 22:10:58.209682 32654 net.cpp:434] scale_conv_4a_proj <- conv_4a_proj
I1214 22:10:58.209697 32654 net.cpp:395] scale_conv_4a_proj -> conv_4a_proj (in-place)
I1214 22:10:58.209758 32654 layer_factory.hpp:77] Creating layer scale_conv_4a_proj
I1214 22:10:58.209909 32654 net.cpp:150] Setting up scale_conv_4a_proj
I1214 22:10:58.209930 32654 net.cpp:157] Top shape: 60 128 14 14 (1505280)
I1214 22:10:58.209942 32654 net.cpp:165] Memory required for data: 5613189360
I1214 22:10:58.209959 32654 layer_factory.hpp:77] Creating layer relu_4a_proj
I1214 22:10:58.209974 32654 net.cpp:100] Creating Layer relu_4a_proj
I1214 22:10:58.209985 32654 net.cpp:434] relu_4a_proj <- conv_4a_proj
I1214 22:10:58.210003 32654 net.cpp:395] relu_4a_proj -> conv_4a_proj (in-place)
I1214 22:10:58.210021 32654 net.cpp:150] Setting up relu_4a_proj
I1214 22:10:58.210034 32654 net.cpp:157] Top shape: 60 128 14 14 (1505280)
I1214 22:10:58.210045 32654 net.cpp:165] Memory required for data: 5619210480
I1214 22:10:58.210057 32654 layer_factory.hpp:77] Creating layer ch_concat_4a_chconcat
I1214 22:10:58.210072 32654 net.cpp:100] Creating Layer ch_concat_4a_chconcat
I1214 22:10:58.210083 32654 net.cpp:434] ch_concat_4a_chconcat <- conv_4a_1x1
I1214 22:10:58.210095 32654 net.cpp:434] ch_concat_4a_chconcat <- conv_4a_3x3
I1214 22:10:58.210108 32654 net.cpp:434] ch_concat_4a_chconcat <- conv_4a_double_3x3_1
I1214 22:10:58.210121 32654 net.cpp:434] ch_concat_4a_chconcat <- conv_4a_proj
I1214 22:10:58.210135 32654 net.cpp:408] ch_concat_4a_chconcat -> ch_concat_4a_chconcat
I1214 22:10:58.210191 32654 net.cpp:150] Setting up ch_concat_4a_chconcat
I1214 22:10:58.210212 32654 net.cpp:157] Top shape: 60 576 14 14 (6773760)
I1214 22:10:58.210224 32654 net.cpp:165] Memory required for data: 5646305520
I1214 22:10:58.210237 32654 layer_factory.hpp:77] Creating layer ch_concat_4a_chconcat_ch_concat_4a_chconcat_0_split
I1214 22:10:58.210259 32654 net.cpp:100] Creating Layer ch_concat_4a_chconcat_ch_concat_4a_chconcat_0_split
I1214 22:10:58.210276 32654 net.cpp:434] ch_concat_4a_chconcat_ch_concat_4a_chconcat_0_split <- ch_concat_4a_chconcat
I1214 22:10:58.210297 32654 net.cpp:408] ch_concat_4a_chconcat_ch_concat_4a_chconcat_0_split -> ch_concat_4a_chconcat_ch_concat_4a_chconcat_0_split_0
I1214 22:10:58.210316 32654 net.cpp:408] ch_concat_4a_chconcat_ch_concat_4a_chconcat_0_split -> ch_concat_4a_chconcat_ch_concat_4a_chconcat_0_split_1
I1214 22:10:58.210335 32654 net.cpp:408] ch_concat_4a_chconcat_ch_concat_4a_chconcat_0_split -> ch_concat_4a_chconcat_ch_concat_4a_chconcat_0_split_2
I1214 22:10:58.210353 32654 net.cpp:408] ch_concat_4a_chconcat_ch_concat_4a_chconcat_0_split -> ch_concat_4a_chconcat_ch_concat_4a_chconcat_0_split_3
I1214 22:10:58.210448 32654 net.cpp:150] Setting up ch_concat_4a_chconcat_ch_concat_4a_chconcat_0_split
I1214 22:10:58.210477 32654 net.cpp:157] Top shape: 60 576 14 14 (6773760)
I1214 22:10:58.210491 32654 net.cpp:157] Top shape: 60 576 14 14 (6773760)
I1214 22:10:58.210505 32654 net.cpp:157] Top shape: 60 576 14 14 (6773760)
I1214 22:10:58.210516 32654 net.cpp:157] Top shape: 60 576 14 14 (6773760)
I1214 22:10:58.210526 32654 net.cpp:165] Memory required for data: 5754685680
I1214 22:10:58.210538 32654 layer_factory.hpp:77] Creating layer conv_4b_1x1
I1214 22:10:58.210562 32654 net.cpp:100] Creating Layer conv_4b_1x1
I1214 22:10:58.210577 32654 net.cpp:434] conv_4b_1x1 <- ch_concat_4a_chconcat_ch_concat_4a_chconcat_0_split_0
I1214 22:10:58.210593 32654 net.cpp:408] conv_4b_1x1 -> conv_4b_1x1
I1214 22:10:58.211892 32654 net.cpp:150] Setting up conv_4b_1x1
I1214 22:10:58.211920 32654 net.cpp:157] Top shape: 60 192 14 14 (2257920)
I1214 22:10:58.211937 32654 net.cpp:165] Memory required for data: 5763717360
I1214 22:10:58.211954 32654 layer_factory.hpp:77] Creating layer bn_4b_1x1
I1214 22:10:58.211974 32654 net.cpp:100] Creating Layer bn_4b_1x1
I1214 22:10:58.211988 32654 net.cpp:434] bn_4b_1x1 <- conv_4b_1x1
I1214 22:10:58.212002 32654 net.cpp:395] bn_4b_1x1 -> conv_4b_1x1 (in-place)
I1214 22:10:58.212254 32654 net.cpp:150] Setting up bn_4b_1x1
I1214 22:10:58.212275 32654 net.cpp:157] Top shape: 60 192 14 14 (2257920)
I1214 22:10:58.212286 32654 net.cpp:165] Memory required for data: 5772749040
I1214 22:10:58.212304 32654 layer_factory.hpp:77] Creating layer scale_conv_4b_1x1
I1214 22:10:58.212321 32654 net.cpp:100] Creating Layer scale_conv_4b_1x1
I1214 22:10:58.212332 32654 net.cpp:434] scale_conv_4b_1x1 <- conv_4b_1x1
I1214 22:10:58.212347 32654 net.cpp:395] scale_conv_4b_1x1 -> conv_4b_1x1 (in-place)
I1214 22:10:58.212421 32654 layer_factory.hpp:77] Creating layer scale_conv_4b_1x1
I1214 22:10:58.212582 32654 net.cpp:150] Setting up scale_conv_4b_1x1
I1214 22:10:58.212604 32654 net.cpp:157] Top shape: 60 192 14 14 (2257920)
I1214 22:10:58.212615 32654 net.cpp:165] Memory required for data: 5781780720
I1214 22:10:58.212630 32654 layer_factory.hpp:77] Creating layer relu_4b_1x1
I1214 22:10:58.212646 32654 net.cpp:100] Creating Layer relu_4b_1x1
I1214 22:10:58.212657 32654 net.cpp:434] relu_4b_1x1 <- conv_4b_1x1
I1214 22:10:58.212671 32654 net.cpp:395] relu_4b_1x1 -> conv_4b_1x1 (in-place)
I1214 22:10:58.212687 32654 net.cpp:150] Setting up relu_4b_1x1
I1214 22:10:58.212700 32654 net.cpp:157] Top shape: 60 192 14 14 (2257920)
I1214 22:10:58.212712 32654 net.cpp:165] Memory required for data: 5790812400
I1214 22:10:58.212723 32654 layer_factory.hpp:77] Creating layer conv_4b_3x3_reduce
I1214 22:10:58.212749 32654 net.cpp:100] Creating Layer conv_4b_3x3_reduce
I1214 22:10:58.212764 32654 net.cpp:434] conv_4b_3x3_reduce <- ch_concat_4a_chconcat_ch_concat_4a_chconcat_0_split_1
I1214 22:10:58.212784 32654 net.cpp:408] conv_4b_3x3_reduce -> conv_4b_3x3_reduce
I1214 22:10:58.213138 32654 net.cpp:150] Setting up conv_4b_3x3_reduce
I1214 22:10:58.213165 32654 net.cpp:157] Top shape: 60 96 14 14 (1128960)
I1214 22:10:58.213187 32654 net.cpp:165] Memory required for data: 5795328240
I1214 22:10:58.213207 32654 layer_factory.hpp:77] Creating layer bn_4b_3x3_reduce
I1214 22:10:58.213228 32654 net.cpp:100] Creating Layer bn_4b_3x3_reduce
I1214 22:10:58.213243 32654 net.cpp:434] bn_4b_3x3_reduce <- conv_4b_3x3_reduce
I1214 22:10:58.213258 32654 net.cpp:395] bn_4b_3x3_reduce -> conv_4b_3x3_reduce (in-place)
I1214 22:10:58.213505 32654 net.cpp:150] Setting up bn_4b_3x3_reduce
I1214 22:10:58.213528 32654 net.cpp:157] Top shape: 60 96 14 14 (1128960)
I1214 22:10:58.213541 32654 net.cpp:165] Memory required for data: 5799844080
I1214 22:10:58.213558 32654 layer_factory.hpp:77] Creating layer scale_conv_4b_3x3_reduce
I1214 22:10:58.213574 32654 net.cpp:100] Creating Layer scale_conv_4b_3x3_reduce
I1214 22:10:58.213587 32654 net.cpp:434] scale_conv_4b_3x3_reduce <- conv_4b_3x3_reduce
I1214 22:10:58.213600 32654 net.cpp:395] scale_conv_4b_3x3_reduce -> conv_4b_3x3_reduce (in-place)
I1214 22:10:58.213676 32654 layer_factory.hpp:77] Creating layer scale_conv_4b_3x3_reduce
I1214 22:10:58.213838 32654 net.cpp:150] Setting up scale_conv_4b_3x3_reduce
I1214 22:10:58.213861 32654 net.cpp:157] Top shape: 60 96 14 14 (1128960)
I1214 22:10:58.213872 32654 net.cpp:165] Memory required for data: 5804359920
I1214 22:10:58.213888 32654 layer_factory.hpp:77] Creating layer relu_4b_3x3_reduce
I1214 22:10:58.213904 32654 net.cpp:100] Creating Layer relu_4b_3x3_reduce
I1214 22:10:58.213917 32654 net.cpp:434] relu_4b_3x3_reduce <- conv_4b_3x3_reduce
I1214 22:10:58.213930 32654 net.cpp:395] relu_4b_3x3_reduce -> conv_4b_3x3_reduce (in-place)
I1214 22:10:58.213946 32654 net.cpp:150] Setting up relu_4b_3x3_reduce
I1214 22:10:58.213960 32654 net.cpp:157] Top shape: 60 96 14 14 (1128960)
I1214 22:10:58.213971 32654 net.cpp:165] Memory required for data: 5808875760
I1214 22:10:58.213984 32654 layer_factory.hpp:77] Creating layer conv_4b_3x3
I1214 22:10:58.214004 32654 net.cpp:100] Creating Layer conv_4b_3x3
I1214 22:10:58.214017 32654 net.cpp:434] conv_4b_3x3 <- conv_4b_3x3_reduce
I1214 22:10:58.214036 32654 net.cpp:408] conv_4b_3x3 -> conv_4b_3x3
I1214 22:10:58.214403 32654 net.cpp:150] Setting up conv_4b_3x3
I1214 22:10:58.214428 32654 net.cpp:157] Top shape: 60 128 14 14 (1505280)
I1214 22:10:58.214440 32654 net.cpp:165] Memory required for data: 5814896880
I1214 22:10:58.214455 32654 layer_factory.hpp:77] Creating layer bn_4b_3x3
I1214 22:10:58.214478 32654 net.cpp:100] Creating Layer bn_4b_3x3
I1214 22:10:58.214493 32654 net.cpp:434] bn_4b_3x3 <- conv_4b_3x3
I1214 22:10:58.214511 32654 net.cpp:395] bn_4b_3x3 -> conv_4b_3x3 (in-place)
I1214 22:10:58.214754 32654 net.cpp:150] Setting up bn_4b_3x3
I1214 22:10:58.214777 32654 net.cpp:157] Top shape: 60 128 14 14 (1505280)
I1214 22:10:58.214789 32654 net.cpp:165] Memory required for data: 5820918000
I1214 22:10:58.214807 32654 layer_factory.hpp:77] Creating layer scale_conv_4b_3x3
I1214 22:10:58.214823 32654 net.cpp:100] Creating Layer scale_conv_4b_3x3
I1214 22:10:58.214835 32654 net.cpp:434] scale_conv_4b_3x3 <- conv_4b_3x3
I1214 22:10:58.214854 32654 net.cpp:395] scale_conv_4b_3x3 -> conv_4b_3x3 (in-place)
I1214 22:10:58.214918 32654 layer_factory.hpp:77] Creating layer scale_conv_4b_3x3
I1214 22:10:58.215070 32654 net.cpp:150] Setting up scale_conv_4b_3x3
I1214 22:10:58.215092 32654 net.cpp:157] Top shape: 60 128 14 14 (1505280)
I1214 22:10:58.215104 32654 net.cpp:165] Memory required for data: 5826939120
I1214 22:10:58.215119 32654 layer_factory.hpp:77] Creating layer relu_4b_3x3
I1214 22:10:58.215134 32654 net.cpp:100] Creating Layer relu_4b_3x3
I1214 22:10:58.215147 32654 net.cpp:434] relu_4b_3x3 <- conv_4b_3x3
I1214 22:10:58.215165 32654 net.cpp:395] relu_4b_3x3 -> conv_4b_3x3 (in-place)
I1214 22:10:58.215188 32654 net.cpp:150] Setting up relu_4b_3x3
I1214 22:10:58.215204 32654 net.cpp:157] Top shape: 60 128 14 14 (1505280)
I1214 22:10:58.215215 32654 net.cpp:165] Memory required for data: 5832960240
I1214 22:10:58.215226 32654 layer_factory.hpp:77] Creating layer conv_4b_double_3x3_reduce
I1214 22:10:58.215242 32654 net.cpp:100] Creating Layer conv_4b_double_3x3_reduce
I1214 22:10:58.215255 32654 net.cpp:434] conv_4b_double_3x3_reduce <- ch_concat_4a_chconcat_ch_concat_4a_chconcat_0_split_2
I1214 22:10:58.215276 32654 net.cpp:408] conv_4b_double_3x3_reduce -> conv_4b_double_3x3_reduce
I1214 22:10:58.216531 32654 net.cpp:150] Setting up conv_4b_double_3x3_reduce
I1214 22:10:58.216559 32654 net.cpp:157] Top shape: 60 96 14 14 (1128960)
I1214 22:10:58.216572 32654 net.cpp:165] Memory required for data: 5837476080
I1214 22:10:58.216588 32654 layer_factory.hpp:77] Creating layer bn_4b_double_3x3_reduce
I1214 22:10:58.216609 32654 net.cpp:100] Creating Layer bn_4b_double_3x3_reduce
I1214 22:10:58.216624 32654 net.cpp:434] bn_4b_double_3x3_reduce <- conv_4b_double_3x3_reduce
I1214 22:10:58.216639 32654 net.cpp:395] bn_4b_double_3x3_reduce -> conv_4b_double_3x3_reduce (in-place)
I1214 22:10:58.216895 32654 net.cpp:150] Setting up bn_4b_double_3x3_reduce
I1214 22:10:58.216928 32654 net.cpp:157] Top shape: 60 96 14 14 (1128960)
I1214 22:10:58.216939 32654 net.cpp:165] Memory required for data: 5841991920
I1214 22:10:58.216956 32654 layer_factory.hpp:77] Creating layer scale_conv_4b_double_3x3_reduce
I1214 22:10:58.216977 32654 net.cpp:100] Creating Layer scale_conv_4b_double_3x3_reduce
I1214 22:10:58.216991 32654 net.cpp:434] scale_conv_4b_double_3x3_reduce <- conv_4b_double_3x3_reduce
I1214 22:10:58.217006 32654 net.cpp:395] scale_conv_4b_double_3x3_reduce -> conv_4b_double_3x3_reduce (in-place)
I1214 22:10:58.217082 32654 layer_factory.hpp:77] Creating layer scale_conv_4b_double_3x3_reduce
I1214 22:10:58.217257 32654 net.cpp:150] Setting up scale_conv_4b_double_3x3_reduce
I1214 22:10:58.217290 32654 net.cpp:157] Top shape: 60 96 14 14 (1128960)
I1214 22:10:58.217303 32654 net.cpp:165] Memory required for data: 5846507760
I1214 22:10:58.217317 32654 layer_factory.hpp:77] Creating layer relu_4b_double_3x3_reduce
I1214 22:10:58.217334 32654 net.cpp:100] Creating Layer relu_4b_double_3x3_reduce
I1214 22:10:58.217346 32654 net.cpp:434] relu_4b_double_3x3_reduce <- conv_4b_double_3x3_reduce
I1214 22:10:58.217365 32654 net.cpp:395] relu_4b_double_3x3_reduce -> conv_4b_double_3x3_reduce (in-place)
I1214 22:10:58.217381 32654 net.cpp:150] Setting up relu_4b_double_3x3_reduce
I1214 22:10:58.217397 32654 net.cpp:157] Top shape: 60 96 14 14 (1128960)
I1214 22:10:58.217408 32654 net.cpp:165] Memory required for data: 5851023600
I1214 22:10:58.217419 32654 layer_factory.hpp:77] Creating layer conv_4b_double_3x3_0
I1214 22:10:58.217437 32654 net.cpp:100] Creating Layer conv_4b_double_3x3_0
I1214 22:10:58.217449 32654 net.cpp:434] conv_4b_double_3x3_0 <- conv_4b_double_3x3_reduce
I1214 22:10:58.217469 32654 net.cpp:408] conv_4b_double_3x3_0 -> conv_4b_double_3x3_0
I1214 22:10:58.218749 32654 net.cpp:150] Setting up conv_4b_double_3x3_0
I1214 22:10:58.218776 32654 net.cpp:157] Top shape: 60 128 14 14 (1505280)
I1214 22:10:58.218789 32654 net.cpp:165] Memory required for data: 5857044720
I1214 22:10:58.218806 32654 layer_factory.hpp:77] Creating layer bn_4b_double_3x3_0
I1214 22:10:58.218825 32654 net.cpp:100] Creating Layer bn_4b_double_3x3_0
I1214 22:10:58.218840 32654 net.cpp:434] bn_4b_double_3x3_0 <- conv_4b_double_3x3_0
I1214 22:10:58.218859 32654 net.cpp:395] bn_4b_double_3x3_0 -> conv_4b_double_3x3_0 (in-place)
I1214 22:10:58.219104 32654 net.cpp:150] Setting up bn_4b_double_3x3_0
I1214 22:10:58.219125 32654 net.cpp:157] Top shape: 60 128 14 14 (1505280)
I1214 22:10:58.219138 32654 net.cpp:165] Memory required for data: 5863065840
I1214 22:10:58.219156 32654 layer_factory.hpp:77] Creating layer scale_conv_4b_double_3x3_0
I1214 22:10:58.219172 32654 net.cpp:100] Creating Layer scale_conv_4b_double_3x3_0
I1214 22:10:58.219189 32654 net.cpp:434] scale_conv_4b_double_3x3_0 <- conv_4b_double_3x3_0
I1214 22:10:58.219209 32654 net.cpp:395] scale_conv_4b_double_3x3_0 -> conv_4b_double_3x3_0 (in-place)
I1214 22:10:58.219283 32654 layer_factory.hpp:77] Creating layer scale_conv_4b_double_3x3_0
I1214 22:10:58.219444 32654 net.cpp:150] Setting up scale_conv_4b_double_3x3_0
I1214 22:10:58.219465 32654 net.cpp:157] Top shape: 60 128 14 14 (1505280)
I1214 22:10:58.219475 32654 net.cpp:165] Memory required for data: 5869086960
I1214 22:10:58.219491 32654 layer_factory.hpp:77] Creating layer relu_4b_double_3x3_0
I1214 22:10:58.219506 32654 net.cpp:100] Creating Layer relu_4b_double_3x3_0
I1214 22:10:58.219518 32654 net.cpp:434] relu_4b_double_3x3_0 <- conv_4b_double_3x3_0
I1214 22:10:58.219537 32654 net.cpp:395] relu_4b_double_3x3_0 -> conv_4b_double_3x3_0 (in-place)
I1214 22:10:58.219553 32654 net.cpp:150] Setting up relu_4b_double_3x3_0
I1214 22:10:58.219568 32654 net.cpp:157] Top shape: 60 128 14 14 (1505280)
I1214 22:10:58.219579 32654 net.cpp:165] Memory required for data: 5875108080
I1214 22:10:58.219591 32654 layer_factory.hpp:77] Creating layer conv_4b_double_3x3_1
I1214 22:10:58.219622 32654 net.cpp:100] Creating Layer conv_4b_double_3x3_1
I1214 22:10:58.219637 32654 net.cpp:434] conv_4b_double_3x3_1 <- conv_4b_double_3x3_0
I1214 22:10:58.219662 32654 net.cpp:408] conv_4b_double_3x3_1 -> conv_4b_double_3x3_1
I1214 22:10:58.220057 32654 net.cpp:150] Setting up conv_4b_double_3x3_1
I1214 22:10:58.220079 32654 net.cpp:157] Top shape: 60 128 14 14 (1505280)
I1214 22:10:58.220090 32654 net.cpp:165] Memory required for data: 5881129200
I1214 22:10:58.220106 32654 layer_factory.hpp:77] Creating layer bn_4b_double_3x3_1
I1214 22:10:58.220126 32654 net.cpp:100] Creating Layer bn_4b_double_3x3_1
I1214 22:10:58.220140 32654 net.cpp:434] bn_4b_double_3x3_1 <- conv_4b_double_3x3_1
I1214 22:10:58.220166 32654 net.cpp:395] bn_4b_double_3x3_1 -> conv_4b_double_3x3_1 (in-place)
I1214 22:10:58.220469 32654 net.cpp:150] Setting up bn_4b_double_3x3_1
I1214 22:10:58.220492 32654 net.cpp:157] Top shape: 60 128 14 14 (1505280)
I1214 22:10:58.220504 32654 net.cpp:165] Memory required for data: 5887150320
I1214 22:10:58.220522 32654 layer_factory.hpp:77] Creating layer scale_conv_4b_double_3x3_1
I1214 22:10:58.220542 32654 net.cpp:100] Creating Layer scale_conv_4b_double_3x3_1
I1214 22:10:58.220556 32654 net.cpp:434] scale_conv_4b_double_3x3_1 <- conv_4b_double_3x3_1
I1214 22:10:58.220571 32654 net.cpp:395] scale_conv_4b_double_3x3_1 -> conv_4b_double_3x3_1 (in-place)
I1214 22:10:58.220635 32654 layer_factory.hpp:77] Creating layer scale_conv_4b_double_3x3_1
I1214 22:10:58.220798 32654 net.cpp:150] Setting up scale_conv_4b_double_3x3_1
I1214 22:10:58.220818 32654 net.cpp:157] Top shape: 60 128 14 14 (1505280)
I1214 22:10:58.220829 32654 net.cpp:165] Memory required for data: 5893171440
I1214 22:10:58.220845 32654 layer_factory.hpp:77] Creating layer relu_4b_double_3x3_1
I1214 22:10:58.220865 32654 net.cpp:100] Creating Layer relu_4b_double_3x3_1
I1214 22:10:58.220880 32654 net.cpp:434] relu_4b_double_3x3_1 <- conv_4b_double_3x3_1
I1214 22:10:58.220893 32654 net.cpp:395] relu_4b_double_3x3_1 -> conv_4b_double_3x3_1 (in-place)
I1214 22:10:58.220911 32654 net.cpp:150] Setting up relu_4b_double_3x3_1
I1214 22:10:58.220924 32654 net.cpp:157] Top shape: 60 128 14 14 (1505280)
I1214 22:10:58.220935 32654 net.cpp:165] Memory required for data: 5899192560
I1214 22:10:58.220947 32654 layer_factory.hpp:77] Creating layer ave_pool_4b_pool
I1214 22:10:58.220966 32654 net.cpp:100] Creating Layer ave_pool_4b_pool
I1214 22:10:58.220979 32654 net.cpp:434] ave_pool_4b_pool <- ch_concat_4a_chconcat_ch_concat_4a_chconcat_0_split_3
I1214 22:10:58.220995 32654 net.cpp:408] ave_pool_4b_pool -> ave_pool_4b_pool
I1214 22:10:58.221047 32654 net.cpp:150] Setting up ave_pool_4b_pool
I1214 22:10:58.221071 32654 net.cpp:157] Top shape: 60 576 14 14 (6773760)
I1214 22:10:58.221084 32654 net.cpp:165] Memory required for data: 5926287600
I1214 22:10:58.221096 32654 layer_factory.hpp:77] Creating layer conv_4b_proj
I1214 22:10:58.221112 32654 net.cpp:100] Creating Layer conv_4b_proj
I1214 22:10:58.221124 32654 net.cpp:434] conv_4b_proj <- ave_pool_4b_pool
I1214 22:10:58.221140 32654 net.cpp:408] conv_4b_proj -> conv_4b_proj
I1214 22:10:58.221520 32654 net.cpp:150] Setting up conv_4b_proj
I1214 22:10:58.221544 32654 net.cpp:157] Top shape: 60 128 14 14 (1505280)
I1214 22:10:58.221555 32654 net.cpp:165] Memory required for data: 5932308720
I1214 22:10:58.221571 32654 layer_factory.hpp:77] Creating layer bn_4b_proj
I1214 22:10:58.221590 32654 net.cpp:100] Creating Layer bn_4b_proj
I1214 22:10:58.221604 32654 net.cpp:434] bn_4b_proj <- conv_4b_proj
I1214 22:10:58.221618 32654 net.cpp:395] bn_4b_proj -> conv_4b_proj (in-place)
I1214 22:10:58.221859 32654 net.cpp:150] Setting up bn_4b_proj
I1214 22:10:58.221884 32654 net.cpp:157] Top shape: 60 128 14 14 (1505280)
I1214 22:10:58.221900 32654 net.cpp:165] Memory required for data: 5938329840
I1214 22:10:58.221940 32654 layer_factory.hpp:77] Creating layer scale_conv_4b_proj
I1214 22:10:58.221961 32654 net.cpp:100] Creating Layer scale_conv_4b_proj
I1214 22:10:58.221974 32654 net.cpp:434] scale_conv_4b_proj <- conv_4b_proj
I1214 22:10:58.221988 32654 net.cpp:395] scale_conv_4b_proj -> conv_4b_proj (in-place)
I1214 22:10:58.222067 32654 layer_factory.hpp:77] Creating layer scale_conv_4b_proj
I1214 22:10:58.222228 32654 net.cpp:150] Setting up scale_conv_4b_proj
I1214 22:10:58.222249 32654 net.cpp:157] Top shape: 60 128 14 14 (1505280)
I1214 22:10:58.222260 32654 net.cpp:165] Memory required for data: 5944350960
I1214 22:10:58.222276 32654 layer_factory.hpp:77] Creating layer relu_4b_proj
I1214 22:10:58.222295 32654 net.cpp:100] Creating Layer relu_4b_proj
I1214 22:10:58.222308 32654 net.cpp:434] relu_4b_proj <- conv_4b_proj
I1214 22:10:58.222322 32654 net.cpp:395] relu_4b_proj -> conv_4b_proj (in-place)
I1214 22:10:58.222338 32654 net.cpp:150] Setting up relu_4b_proj
I1214 22:10:58.222353 32654 net.cpp:157] Top shape: 60 128 14 14 (1505280)
I1214 22:10:58.222364 32654 net.cpp:165] Memory required for data: 5950372080
I1214 22:10:58.222375 32654 layer_factory.hpp:77] Creating layer ch_concat_4b_chconcat
I1214 22:10:58.222393 32654 net.cpp:100] Creating Layer ch_concat_4b_chconcat
I1214 22:10:58.222406 32654 net.cpp:434] ch_concat_4b_chconcat <- conv_4b_1x1
I1214 22:10:58.222420 32654 net.cpp:434] ch_concat_4b_chconcat <- conv_4b_3x3
I1214 22:10:58.222434 32654 net.cpp:434] ch_concat_4b_chconcat <- conv_4b_double_3x3_1
I1214 22:10:58.222446 32654 net.cpp:434] ch_concat_4b_chconcat <- conv_4b_proj
I1214 22:10:58.222460 32654 net.cpp:408] ch_concat_4b_chconcat -> ch_concat_4b_chconcat
I1214 22:10:58.222506 32654 net.cpp:150] Setting up ch_concat_4b_chconcat
I1214 22:10:58.222527 32654 net.cpp:157] Top shape: 60 576 14 14 (6773760)
I1214 22:10:58.222537 32654 net.cpp:165] Memory required for data: 5977467120
I1214 22:10:58.222548 32654 layer_factory.hpp:77] Creating layer ch_concat_4b_chconcat_ch_concat_4b_chconcat_0_split
I1214 22:10:58.222564 32654 net.cpp:100] Creating Layer ch_concat_4b_chconcat_ch_concat_4b_chconcat_0_split
I1214 22:10:58.222576 32654 net.cpp:434] ch_concat_4b_chconcat_ch_concat_4b_chconcat_0_split <- ch_concat_4b_chconcat
I1214 22:10:58.222591 32654 net.cpp:408] ch_concat_4b_chconcat_ch_concat_4b_chconcat_0_split -> ch_concat_4b_chconcat_ch_concat_4b_chconcat_0_split_0
I1214 22:10:58.222609 32654 net.cpp:408] ch_concat_4b_chconcat_ch_concat_4b_chconcat_0_split -> ch_concat_4b_chconcat_ch_concat_4b_chconcat_0_split_1
I1214 22:10:58.222632 32654 net.cpp:408] ch_concat_4b_chconcat_ch_concat_4b_chconcat_0_split -> ch_concat_4b_chconcat_ch_concat_4b_chconcat_0_split_2
I1214 22:10:58.222652 32654 net.cpp:408] ch_concat_4b_chconcat_ch_concat_4b_chconcat_0_split -> ch_concat_4b_chconcat_ch_concat_4b_chconcat_0_split_3
I1214 22:10:58.222746 32654 net.cpp:150] Setting up ch_concat_4b_chconcat_ch_concat_4b_chconcat_0_split
I1214 22:10:58.222769 32654 net.cpp:157] Top shape: 60 576 14 14 (6773760)
I1214 22:10:58.222781 32654 net.cpp:157] Top shape: 60 576 14 14 (6773760)
I1214 22:10:58.222795 32654 net.cpp:157] Top shape: 60 576 14 14 (6773760)
I1214 22:10:58.222807 32654 net.cpp:157] Top shape: 60 576 14 14 (6773760)
I1214 22:10:58.222817 32654 net.cpp:165] Memory required for data: 6085847280
I1214 22:10:58.222829 32654 layer_factory.hpp:77] Creating layer conv_4c_1x1
I1214 22:10:58.222862 32654 net.cpp:100] Creating Layer conv_4c_1x1
I1214 22:10:58.222877 32654 net.cpp:434] conv_4c_1x1 <- ch_concat_4b_chconcat_ch_concat_4b_chconcat_0_split_0
I1214 22:10:58.222898 32654 net.cpp:408] conv_4c_1x1 -> conv_4c_1x1
I1214 22:10:58.224153 32654 net.cpp:150] Setting up conv_4c_1x1
I1214 22:10:58.224195 32654 net.cpp:157] Top shape: 60 160 14 14 (1881600)
I1214 22:10:58.224210 32654 net.cpp:165] Memory required for data: 6093373680
I1214 22:10:58.224226 32654 layer_factory.hpp:77] Creating layer bn_4c_1x1
I1214 22:10:58.224242 32654 net.cpp:100] Creating Layer bn_4c_1x1
I1214 22:10:58.224256 32654 net.cpp:434] bn_4c_1x1 <- conv_4c_1x1
I1214 22:10:58.224273 32654 net.cpp:395] bn_4c_1x1 -> conv_4c_1x1 (in-place)
I1214 22:10:58.224529 32654 net.cpp:150] Setting up bn_4c_1x1
I1214 22:10:58.224550 32654 net.cpp:157] Top shape: 60 160 14 14 (1881600)
I1214 22:10:58.224562 32654 net.cpp:165] Memory required for data: 6100900080
I1214 22:10:58.224645 32654 layer_factory.hpp:77] Creating layer scale_conv_4c_1x1
I1214 22:10:58.224668 32654 net.cpp:100] Creating Layer scale_conv_4c_1x1
I1214 22:10:58.224680 32654 net.cpp:434] scale_conv_4c_1x1 <- conv_4c_1x1
I1214 22:10:58.224695 32654 net.cpp:395] scale_conv_4c_1x1 -> conv_4c_1x1 (in-place)
I1214 22:10:58.224762 32654 layer_factory.hpp:77] Creating layer scale_conv_4c_1x1
I1214 22:10:58.224988 32654 net.cpp:150] Setting up scale_conv_4c_1x1
I1214 22:10:58.225011 32654 net.cpp:157] Top shape: 60 160 14 14 (1881600)
I1214 22:10:58.225023 32654 net.cpp:165] Memory required for data: 6108426480
I1214 22:10:58.225039 32654 layer_factory.hpp:77] Creating layer relu_4c_1x1
I1214 22:10:58.225059 32654 net.cpp:100] Creating Layer relu_4c_1x1
I1214 22:10:58.225072 32654 net.cpp:434] relu_4c_1x1 <- conv_4c_1x1
I1214 22:10:58.225086 32654 net.cpp:395] relu_4c_1x1 -> conv_4c_1x1 (in-place)
I1214 22:10:58.225102 32654 net.cpp:150] Setting up relu_4c_1x1
I1214 22:10:58.225116 32654 net.cpp:157] Top shape: 60 160 14 14 (1881600)
I1214 22:10:58.225131 32654 net.cpp:165] Memory required for data: 6115952880
I1214 22:10:58.225143 32654 layer_factory.hpp:77] Creating layer conv_4c_3x3_reduce
I1214 22:10:58.225164 32654 net.cpp:100] Creating Layer conv_4c_3x3_reduce
I1214 22:10:58.225178 32654 net.cpp:434] conv_4c_3x3_reduce <- ch_concat_4b_chconcat_ch_concat_4b_chconcat_0_split_1
I1214 22:10:58.225201 32654 net.cpp:408] conv_4c_3x3_reduce -> conv_4c_3x3_reduce
I1214 22:10:58.225563 32654 net.cpp:150] Setting up conv_4c_3x3_reduce
I1214 22:10:58.225589 32654 net.cpp:157] Top shape: 60 128 14 14 (1505280)
I1214 22:10:58.225605 32654 net.cpp:165] Memory required for data: 6121974000
I1214 22:10:58.225622 32654 layer_factory.hpp:77] Creating layer bn_4c_3x3_reduce
I1214 22:10:58.225643 32654 net.cpp:100] Creating Layer bn_4c_3x3_reduce
I1214 22:10:58.225657 32654 net.cpp:434] bn_4c_3x3_reduce <- conv_4c_3x3_reduce
I1214 22:10:58.225672 32654 net.cpp:395] bn_4c_3x3_reduce -> conv_4c_3x3_reduce (in-place)
I1214 22:10:58.225914 32654 net.cpp:150] Setting up bn_4c_3x3_reduce
I1214 22:10:58.225939 32654 net.cpp:157] Top shape: 60 128 14 14 (1505280)
I1214 22:10:58.225950 32654 net.cpp:165] Memory required for data: 6127995120
I1214 22:10:58.225968 32654 layer_factory.hpp:77] Creating layer scale_conv_4c_3x3_reduce
I1214 22:10:58.225985 32654 net.cpp:100] Creating Layer scale_conv_4c_3x3_reduce
I1214 22:10:58.225998 32654 net.cpp:434] scale_conv_4c_3x3_reduce <- conv_4c_3x3_reduce
I1214 22:10:58.226012 32654 net.cpp:395] scale_conv_4c_3x3_reduce -> conv_4c_3x3_reduce (in-place)
I1214 22:10:58.226079 32654 layer_factory.hpp:77] Creating layer scale_conv_4c_3x3_reduce
I1214 22:10:58.226248 32654 net.cpp:150] Setting up scale_conv_4c_3x3_reduce
I1214 22:10:58.226271 32654 net.cpp:157] Top shape: 60 128 14 14 (1505280)
I1214 22:10:58.226284 32654 net.cpp:165] Memory required for data: 6134016240
I1214 22:10:58.226299 32654 layer_factory.hpp:77] Creating layer relu_4c_3x3_reduce
I1214 22:10:58.226313 32654 net.cpp:100] Creating Layer relu_4c_3x3_reduce
I1214 22:10:58.226326 32654 net.cpp:434] relu_4c_3x3_reduce <- conv_4c_3x3_reduce
I1214 22:10:58.226344 32654 net.cpp:395] relu_4c_3x3_reduce -> conv_4c_3x3_reduce (in-place)
I1214 22:10:58.226361 32654 net.cpp:150] Setting up relu_4c_3x3_reduce
I1214 22:10:58.226375 32654 net.cpp:157] Top shape: 60 128 14 14 (1505280)
I1214 22:10:58.226387 32654 net.cpp:165] Memory required for data: 6140037360
I1214 22:10:58.226398 32654 layer_factory.hpp:77] Creating layer conv_4c_3x3
I1214 22:10:58.226426 32654 net.cpp:100] Creating Layer conv_4c_3x3
I1214 22:10:58.226438 32654 net.cpp:434] conv_4c_3x3 <- conv_4c_3x3_reduce
I1214 22:10:58.226460 32654 net.cpp:408] conv_4c_3x3 -> conv_4c_3x3
I1214 22:10:58.227773 32654 net.cpp:150] Setting up conv_4c_3x3
I1214 22:10:58.227802 32654 net.cpp:157] Top shape: 60 160 14 14 (1881600)
I1214 22:10:58.227813 32654 net.cpp:165] Memory required for data: 6147563760
I1214 22:10:58.227829 32654 layer_factory.hpp:77] Creating layer bn_4c_3x3
I1214 22:10:58.227849 32654 net.cpp:100] Creating Layer bn_4c_3x3
I1214 22:10:58.227871 32654 net.cpp:434] bn_4c_3x3 <- conv_4c_3x3
I1214 22:10:58.227886 32654 net.cpp:395] bn_4c_3x3 -> conv_4c_3x3 (in-place)
I1214 22:10:58.228144 32654 net.cpp:150] Setting up bn_4c_3x3
I1214 22:10:58.228169 32654 net.cpp:157] Top shape: 60 160 14 14 (1881600)
I1214 22:10:58.228186 32654 net.cpp:165] Memory required for data: 6155090160
I1214 22:10:58.228206 32654 layer_factory.hpp:77] Creating layer scale_conv_4c_3x3
I1214 22:10:58.228224 32654 net.cpp:100] Creating Layer scale_conv_4c_3x3
I1214 22:10:58.228235 32654 net.cpp:434] scale_conv_4c_3x3 <- conv_4c_3x3
I1214 22:10:58.228250 32654 net.cpp:395] scale_conv_4c_3x3 -> conv_4c_3x3 (in-place)
I1214 22:10:58.228320 32654 layer_factory.hpp:77] Creating layer scale_conv_4c_3x3
I1214 22:10:58.228495 32654 net.cpp:150] Setting up scale_conv_4c_3x3
I1214 22:10:58.228523 32654 net.cpp:157] Top shape: 60 160 14 14 (1881600)
I1214 22:10:58.228535 32654 net.cpp:165] Memory required for data: 6162616560
I1214 22:10:58.228551 32654 layer_factory.hpp:77] Creating layer relu_4c_3x3
I1214 22:10:58.228566 32654 net.cpp:100] Creating Layer relu_4c_3x3
I1214 22:10:58.228579 32654 net.cpp:434] relu_4c_3x3 <- conv_4c_3x3
I1214 22:10:58.228592 32654 net.cpp:395] relu_4c_3x3 -> conv_4c_3x3 (in-place)
I1214 22:10:58.228607 32654 net.cpp:150] Setting up relu_4c_3x3
I1214 22:10:58.228622 32654 net.cpp:157] Top shape: 60 160 14 14 (1881600)
I1214 22:10:58.228633 32654 net.cpp:165] Memory required for data: 6170142960
I1214 22:10:58.228646 32654 layer_factory.hpp:77] Creating layer conv_4c_double_3x3_reduce
I1214 22:10:58.228667 32654 net.cpp:100] Creating Layer conv_4c_double_3x3_reduce
I1214 22:10:58.228680 32654 net.cpp:434] conv_4c_double_3x3_reduce <- ch_concat_4b_chconcat_ch_concat_4b_chconcat_0_split_2
I1214 22:10:58.228700 32654 net.cpp:408] conv_4c_double_3x3_reduce -> conv_4c_double_3x3_reduce
I1214 22:10:58.229053 32654 net.cpp:150] Setting up conv_4c_double_3x3_reduce
I1214 22:10:58.229075 32654 net.cpp:157] Top shape: 60 128 14 14 (1505280)
I1214 22:10:58.229086 32654 net.cpp:165] Memory required for data: 6176164080
I1214 22:10:58.229102 32654 layer_factory.hpp:77] Creating layer bn_4c_double_3x3_reduce
I1214 22:10:58.229122 32654 net.cpp:100] Creating Layer bn_4c_double_3x3_reduce
I1214 22:10:58.229136 32654 net.cpp:434] bn_4c_double_3x3_reduce <- conv_4c_double_3x3_reduce
I1214 22:10:58.229154 32654 net.cpp:395] bn_4c_double_3x3_reduce -> conv_4c_double_3x3_reduce (in-place)
I1214 22:10:58.229426 32654 net.cpp:150] Setting up bn_4c_double_3x3_reduce
I1214 22:10:58.229449 32654 net.cpp:157] Top shape: 60 128 14 14 (1505280)
I1214 22:10:58.229460 32654 net.cpp:165] Memory required for data: 6182185200
I1214 22:10:58.229478 32654 layer_factory.hpp:77] Creating layer scale_conv_4c_double_3x3_reduce
I1214 22:10:58.229495 32654 net.cpp:100] Creating Layer scale_conv_4c_double_3x3_reduce
I1214 22:10:58.229506 32654 net.cpp:434] scale_conv_4c_double_3x3_reduce <- conv_4c_double_3x3_reduce
I1214 22:10:58.229526 32654 net.cpp:395] scale_conv_4c_double_3x3_reduce -> conv_4c_double_3x3_reduce (in-place)
I1214 22:10:58.229591 32654 layer_factory.hpp:77] Creating layer scale_conv_4c_double_3x3_reduce
I1214 22:10:58.229763 32654 net.cpp:150] Setting up scale_conv_4c_double_3x3_reduce
I1214 22:10:58.229785 32654 net.cpp:157] Top shape: 60 128 14 14 (1505280)
I1214 22:10:58.229796 32654 net.cpp:165] Memory required for data: 6188206320
I1214 22:10:58.229811 32654 layer_factory.hpp:77] Creating layer relu_4c_double_3x3_reduce
I1214 22:10:58.229827 32654 net.cpp:100] Creating Layer relu_4c_double_3x3_reduce
I1214 22:10:58.229840 32654 net.cpp:434] relu_4c_double_3x3_reduce <- conv_4c_double_3x3_reduce
I1214 22:10:58.229858 32654 net.cpp:395] relu_4c_double_3x3_reduce -> conv_4c_double_3x3_reduce (in-place)
I1214 22:10:58.229876 32654 net.cpp:150] Setting up relu_4c_double_3x3_reduce
I1214 22:10:58.229890 32654 net.cpp:157] Top shape: 60 128 14 14 (1505280)
I1214 22:10:58.229902 32654 net.cpp:165] Memory required for data: 6194227440
I1214 22:10:58.229923 32654 layer_factory.hpp:77] Creating layer conv_4c_double_3x3_0
I1214 22:10:58.229945 32654 net.cpp:100] Creating Layer conv_4c_double_3x3_0
I1214 22:10:58.229959 32654 net.cpp:434] conv_4c_double_3x3_0 <- conv_4c_double_3x3_reduce
I1214 22:10:58.229974 32654 net.cpp:408] conv_4c_double_3x3_0 -> conv_4c_double_3x3_0
I1214 22:10:58.231314 32654 net.cpp:150] Setting up conv_4c_double_3x3_0
I1214 22:10:58.231343 32654 net.cpp:157] Top shape: 60 160 14 14 (1881600)
I1214 22:10:58.231354 32654 net.cpp:165] Memory required for data: 6201753840
I1214 22:10:58.231370 32654 layer_factory.hpp:77] Creating layer bn_4c_double_3x3_0
I1214 22:10:58.231391 32654 net.cpp:100] Creating Layer bn_4c_double_3x3_0
I1214 22:10:58.231405 32654 net.cpp:434] bn_4c_double_3x3_0 <- conv_4c_double_3x3_0
I1214 22:10:58.231420 32654 net.cpp:395] bn_4c_double_3x3_0 -> conv_4c_double_3x3_0 (in-place)
I1214 22:10:58.231715 32654 net.cpp:150] Setting up bn_4c_double_3x3_0
I1214 22:10:58.231745 32654 net.cpp:157] Top shape: 60 160 14 14 (1881600)
I1214 22:10:58.231766 32654 net.cpp:165] Memory required for data: 6209280240
I1214 22:10:58.231796 32654 layer_factory.hpp:77] Creating layer scale_conv_4c_double_3x3_0
I1214 22:10:58.231819 32654 net.cpp:100] Creating Layer scale_conv_4c_double_3x3_0
I1214 22:10:58.231833 32654 net.cpp:434] scale_conv_4c_double_3x3_0 <- conv_4c_double_3x3_0
I1214 22:10:58.231848 32654 net.cpp:395] scale_conv_4c_double_3x3_0 -> conv_4c_double_3x3_0 (in-place)
I1214 22:10:58.231915 32654 layer_factory.hpp:77] Creating layer scale_conv_4c_double_3x3_0
I1214 22:10:58.232096 32654 net.cpp:150] Setting up scale_conv_4c_double_3x3_0
I1214 22:10:58.232118 32654 net.cpp:157] Top shape: 60 160 14 14 (1881600)
I1214 22:10:58.232130 32654 net.cpp:165] Memory required for data: 6216806640
I1214 22:10:58.232146 32654 layer_factory.hpp:77] Creating layer relu_4c_double_3x3_0
I1214 22:10:58.232161 32654 net.cpp:100] Creating Layer relu_4c_double_3x3_0
I1214 22:10:58.232173 32654 net.cpp:434] relu_4c_double_3x3_0 <- conv_4c_double_3x3_0
I1214 22:10:58.232198 32654 net.cpp:395] relu_4c_double_3x3_0 -> conv_4c_double_3x3_0 (in-place)
I1214 22:10:58.232218 32654 net.cpp:150] Setting up relu_4c_double_3x3_0
I1214 22:10:58.232233 32654 net.cpp:157] Top shape: 60 160 14 14 (1881600)
I1214 22:10:58.232244 32654 net.cpp:165] Memory required for data: 6224333040
I1214 22:10:58.232254 32654 layer_factory.hpp:77] Creating layer conv_4c_double_3x3_1
I1214 22:10:58.232271 32654 net.cpp:100] Creating Layer conv_4c_double_3x3_1
I1214 22:10:58.232285 32654 net.cpp:434] conv_4c_double_3x3_1 <- conv_4c_double_3x3_0
I1214 22:10:58.232303 32654 net.cpp:408] conv_4c_double_3x3_1 -> conv_4c_double_3x3_1
I1214 22:10:58.233649 32654 net.cpp:150] Setting up conv_4c_double_3x3_1
I1214 22:10:58.233682 32654 net.cpp:157] Top shape: 60 160 14 14 (1881600)
I1214 22:10:58.233695 32654 net.cpp:165] Memory required for data: 6231859440
I1214 22:10:58.233712 32654 layer_factory.hpp:77] Creating layer bn_4c_double_3x3_1
I1214 22:10:58.233734 32654 net.cpp:100] Creating Layer bn_4c_double_3x3_1
I1214 22:10:58.233748 32654 net.cpp:434] bn_4c_double_3x3_1 <- conv_4c_double_3x3_1
I1214 22:10:58.233762 32654 net.cpp:395] bn_4c_double_3x3_1 -> conv_4c_double_3x3_1 (in-place)
I1214 22:10:58.234040 32654 net.cpp:150] Setting up bn_4c_double_3x3_1
I1214 22:10:58.234061 32654 net.cpp:157] Top shape: 60 160 14 14 (1881600)
I1214 22:10:58.234072 32654 net.cpp:165] Memory required for data: 6239385840
I1214 22:10:58.234091 32654 layer_factory.hpp:77] Creating layer scale_conv_4c_double_3x3_1
I1214 22:10:58.234107 32654 net.cpp:100] Creating Layer scale_conv_4c_double_3x3_1
I1214 22:10:58.234118 32654 net.cpp:434] scale_conv_4c_double_3x3_1 <- conv_4c_double_3x3_1
I1214 22:10:58.234133 32654 net.cpp:395] scale_conv_4c_double_3x3_1 -> conv_4c_double_3x3_1 (in-place)
I1214 22:10:58.237792 32654 layer_factory.hpp:77] Creating layer scale_conv_4c_double_3x3_1
I1214 22:10:58.237970 32654 net.cpp:150] Setting up scale_conv_4c_double_3x3_1
I1214 22:10:58.237992 32654 net.cpp:157] Top shape: 60 160 14 14 (1881600)
I1214 22:10:58.238013 32654 net.cpp:165] Memory required for data: 6246912240
I1214 22:10:58.238029 32654 layer_factory.hpp:77] Creating layer relu_4c_double_3x3_1
I1214 22:10:58.238044 32654 net.cpp:100] Creating Layer relu_4c_double_3x3_1
I1214 22:10:58.238057 32654 net.cpp:434] relu_4c_double_3x3_1 <- conv_4c_double_3x3_1
I1214 22:10:58.238075 32654 net.cpp:395] relu_4c_double_3x3_1 -> conv_4c_double_3x3_1 (in-place)
I1214 22:10:58.238093 32654 net.cpp:150] Setting up relu_4c_double_3x3_1
I1214 22:10:58.238108 32654 net.cpp:157] Top shape: 60 160 14 14 (1881600)
I1214 22:10:58.238119 32654 net.cpp:165] Memory required for data: 6254438640
I1214 22:10:58.238131 32654 layer_factory.hpp:77] Creating layer ave_pool_4c_pool
I1214 22:10:58.238147 32654 net.cpp:100] Creating Layer ave_pool_4c_pool
I1214 22:10:58.238159 32654 net.cpp:434] ave_pool_4c_pool <- ch_concat_4b_chconcat_ch_concat_4b_chconcat_0_split_3
I1214 22:10:58.238178 32654 net.cpp:408] ave_pool_4c_pool -> ave_pool_4c_pool
I1214 22:10:58.238234 32654 net.cpp:150] Setting up ave_pool_4c_pool
I1214 22:10:58.238253 32654 net.cpp:157] Top shape: 60 576 14 14 (6773760)
I1214 22:10:58.238265 32654 net.cpp:165] Memory required for data: 6281533680
I1214 22:10:58.238276 32654 layer_factory.hpp:77] Creating layer conv_4c_proj
I1214 22:10:58.238297 32654 net.cpp:100] Creating Layer conv_4c_proj
I1214 22:10:58.238312 32654 net.cpp:434] conv_4c_proj <- ave_pool_4c_pool
I1214 22:10:58.238327 32654 net.cpp:408] conv_4c_proj -> conv_4c_proj
I1214 22:10:58.238693 32654 net.cpp:150] Setting up conv_4c_proj
I1214 22:10:58.238718 32654 net.cpp:157] Top shape: 60 128 14 14 (1505280)
I1214 22:10:58.238729 32654 net.cpp:165] Memory required for data: 6287554800
I1214 22:10:58.238744 32654 layer_factory.hpp:77] Creating layer bn_4c_proj
I1214 22:10:58.238765 32654 net.cpp:100] Creating Layer bn_4c_proj
I1214 22:10:58.238778 32654 net.cpp:434] bn_4c_proj <- conv_4c_proj
I1214 22:10:58.238796 32654 net.cpp:395] bn_4c_proj -> conv_4c_proj (in-place)
I1214 22:10:58.239032 32654 net.cpp:150] Setting up bn_4c_proj
I1214 22:10:58.239053 32654 net.cpp:157] Top shape: 60 128 14 14 (1505280)
I1214 22:10:58.239064 32654 net.cpp:165] Memory required for data: 6293575920
I1214 22:10:58.239081 32654 layer_factory.hpp:77] Creating layer scale_conv_4c_proj
I1214 22:10:58.239101 32654 net.cpp:100] Creating Layer scale_conv_4c_proj
I1214 22:10:58.239115 32654 net.cpp:434] scale_conv_4c_proj <- conv_4c_proj
I1214 22:10:58.239130 32654 net.cpp:395] scale_conv_4c_proj -> conv_4c_proj (in-place)
I1214 22:10:58.239198 32654 layer_factory.hpp:77] Creating layer scale_conv_4c_proj
I1214 22:10:58.239356 32654 net.cpp:150] Setting up scale_conv_4c_proj
I1214 22:10:58.239377 32654 net.cpp:157] Top shape: 60 128 14 14 (1505280)
I1214 22:10:58.239387 32654 net.cpp:165] Memory required for data: 6299597040
I1214 22:10:58.239403 32654 layer_factory.hpp:77] Creating layer relu_4c_proj
I1214 22:10:58.239418 32654 net.cpp:100] Creating Layer relu_4c_proj
I1214 22:10:58.239430 32654 net.cpp:434] relu_4c_proj <- conv_4c_proj
I1214 22:10:58.239459 32654 net.cpp:395] relu_4c_proj -> conv_4c_proj (in-place)
I1214 22:10:58.239485 32654 net.cpp:150] Setting up relu_4c_proj
I1214 22:10:58.239500 32654 net.cpp:157] Top shape: 60 128 14 14 (1505280)
I1214 22:10:58.239511 32654 net.cpp:165] Memory required for data: 6305618160
I1214 22:10:58.239523 32654 layer_factory.hpp:77] Creating layer ch_concat_4c_chconcat
I1214 22:10:58.239537 32654 net.cpp:100] Creating Layer ch_concat_4c_chconcat
I1214 22:10:58.239550 32654 net.cpp:434] ch_concat_4c_chconcat <- conv_4c_1x1
I1214 22:10:58.239563 32654 net.cpp:434] ch_concat_4c_chconcat <- conv_4c_3x3
I1214 22:10:58.239576 32654 net.cpp:434] ch_concat_4c_chconcat <- conv_4c_double_3x3_1
I1214 22:10:58.239588 32654 net.cpp:434] ch_concat_4c_chconcat <- conv_4c_proj
I1214 22:10:58.239608 32654 net.cpp:408] ch_concat_4c_chconcat -> ch_concat_4c_chconcat
I1214 22:10:58.239652 32654 net.cpp:150] Setting up ch_concat_4c_chconcat
I1214 22:10:58.239671 32654 net.cpp:157] Top shape: 60 608 14 14 (7150080)
I1214 22:10:58.239703 32654 net.cpp:165] Memory required for data: 6334218480
I1214 22:10:58.239717 32654 layer_factory.hpp:77] Creating layer ch_concat_4c_chconcat_ch_concat_4c_chconcat_0_split
I1214 22:10:58.239737 32654 net.cpp:100] Creating Layer ch_concat_4c_chconcat_ch_concat_4c_chconcat_0_split
I1214 22:10:58.239751 32654 net.cpp:434] ch_concat_4c_chconcat_ch_concat_4c_chconcat_0_split <- ch_concat_4c_chconcat
I1214 22:10:58.239766 32654 net.cpp:408] ch_concat_4c_chconcat_ch_concat_4c_chconcat_0_split -> ch_concat_4c_chconcat_ch_concat_4c_chconcat_0_split_0
I1214 22:10:58.239784 32654 net.cpp:408] ch_concat_4c_chconcat_ch_concat_4c_chconcat_0_split -> ch_concat_4c_chconcat_ch_concat_4c_chconcat_0_split_1
I1214 22:10:58.239804 32654 net.cpp:408] ch_concat_4c_chconcat_ch_concat_4c_chconcat_0_split -> ch_concat_4c_chconcat_ch_concat_4c_chconcat_0_split_2
I1214 22:10:58.239821 32654 net.cpp:408] ch_concat_4c_chconcat_ch_concat_4c_chconcat_0_split -> ch_concat_4c_chconcat_ch_concat_4c_chconcat_0_split_3
I1214 22:10:58.239908 32654 net.cpp:150] Setting up ch_concat_4c_chconcat_ch_concat_4c_chconcat_0_split
I1214 22:10:58.239933 32654 net.cpp:157] Top shape: 60 608 14 14 (7150080)
I1214 22:10:58.239948 32654 net.cpp:157] Top shape: 60 608 14 14 (7150080)
I1214 22:10:58.239959 32654 net.cpp:157] Top shape: 60 608 14 14 (7150080)
I1214 22:10:58.239972 32654 net.cpp:157] Top shape: 60 608 14 14 (7150080)
I1214 22:10:58.239982 32654 net.cpp:165] Memory required for data: 6448619760
I1214 22:10:58.239994 32654 layer_factory.hpp:77] Creating layer conv_4d_1x1
I1214 22:10:58.240010 32654 net.cpp:100] Creating Layer conv_4d_1x1
I1214 22:10:58.240023 32654 net.cpp:434] conv_4d_1x1 <- ch_concat_4c_chconcat_ch_concat_4c_chconcat_0_split_0
I1214 22:10:58.240043 32654 net.cpp:408] conv_4d_1x1 -> conv_4d_1x1
I1214 22:10:58.240443 32654 net.cpp:150] Setting up conv_4d_1x1
I1214 22:10:58.240466 32654 net.cpp:157] Top shape: 60 96 14 14 (1128960)
I1214 22:10:58.240478 32654 net.cpp:165] Memory required for data: 6453135600
I1214 22:10:58.240494 32654 layer_factory.hpp:77] Creating layer bn_4d_1x1
I1214 22:10:58.240514 32654 net.cpp:100] Creating Layer bn_4d_1x1
I1214 22:10:58.240527 32654 net.cpp:434] bn_4d_1x1 <- conv_4d_1x1
I1214 22:10:58.240541 32654 net.cpp:395] bn_4d_1x1 -> conv_4d_1x1 (in-place)
I1214 22:10:58.240799 32654 net.cpp:150] Setting up bn_4d_1x1
I1214 22:10:58.240820 32654 net.cpp:157] Top shape: 60 96 14 14 (1128960)
I1214 22:10:58.240831 32654 net.cpp:165] Memory required for data: 6457651440
I1214 22:10:58.240849 32654 layer_factory.hpp:77] Creating layer scale_conv_4d_1x1
I1214 22:10:58.240869 32654 net.cpp:100] Creating Layer scale_conv_4d_1x1
I1214 22:10:58.240883 32654 net.cpp:434] scale_conv_4d_1x1 <- conv_4d_1x1
I1214 22:10:58.240896 32654 net.cpp:395] scale_conv_4d_1x1 -> conv_4d_1x1 (in-place)
I1214 22:10:58.240960 32654 layer_factory.hpp:77] Creating layer scale_conv_4d_1x1
I1214 22:10:58.241127 32654 net.cpp:150] Setting up scale_conv_4d_1x1
I1214 22:10:58.241147 32654 net.cpp:157] Top shape: 60 96 14 14 (1128960)
…
I1214 22:10:58.419026 32654 layer_factory.hpp:77] Creating layer relu_4e_3x3_reduce
I1214 22:10:58.419044 32654 net.cpp:100] Creating Layer relu_4e_3x3_reduce
I1214 22:10:58.419059 32654 net.cpp:434] relu_4e_3x3_reduce <- conv_4e_3x3_reduce
I1214 22:10:58.419080 32654 net.cpp:395] relu_4e_3x3_reduce -> conv_4e_3x3_reduce (in-place)
I1214 22:10:58.419098 32654 net.cpp:150] Setting up relu_4e_3x3_reduce
I1214 22:10:58.419116 32654 net.cpp:157] Top shape: 1 128 14 14 (25088)
I1214 22:10:58.419129 32654 net.cpp:165] Memory required for data: 112770564
I1214 22:10:58.419142 32654 layer_factory.hpp:77] Creating layer conv_4e_3x3
I1214 22:10:58.419164 32654 net.cpp:100] Creating Layer conv_4e_3x3
I1214 22:10:58.419184 32654 net.cpp:434] conv_4e_3x3 <- conv_4e_3x3_reduce
I1214 22:10:58.419208 32654 net.cpp:408] conv_4e_3x3 -> conv_4e_3x3
I1214 22:10:58.420488 32654 net.cpp:150] Setting up conv_4e_3x3
I1214 22:10:58.420519 32654 net.cpp:157] Top shape: 1 192 7 7 (9408)
I1214 22:10:58.420534 32654 net.cpp:165] Memory required for data: 112808196
I1214 22:10:58.420553 32654 layer_factory.hpp:77] Creating layer bn_4e_3x3
I1214 22:10:58.420580 32654 net.cpp:100] Creating Layer bn_4e_3x3
I1214 22:10:58.420596 32654 net.cpp:434] bn_4e_3x3 <- conv_4e_3x3
I1214 22:10:58.420614 32654 net.cpp:395] bn_4e_3x3 -> conv_4e_3x3 (in-place)
I1214 22:10:58.420920 32654 net.cpp:150] Setting up bn_4e_3x3
I1214 22:10:58.420948 32654 net.cpp:157] Top shape: 1 192 7 7 (9408)
I1214 22:10:58.420963 32654 net.cpp:165] Memory required for data: 112845828
I1214 22:10:58.420982 32654 layer_factory.hpp:77] Creating layer scale_conv_4e_3x3
I1214 22:10:58.421005 32654 net.cpp:100] Creating Layer scale_conv_4e_3x3
I1214 22:10:58.421021 32654 net.cpp:434] scale_conv_4e_3x3 <- conv_4e_3x3
I1214 22:10:58.421037 32654 net.cpp:395] scale_conv_4e_3x3 -> conv_4e_3x3 (in-place)
I1214 22:10:58.421110 32654 layer_factory.hpp:77] Creating layer scale_conv_4e_3x3
I1214 22:10:58.421324 32654 net.cpp:150] Setting up scale_conv_4e_3x3
I1214 22:10:58.421350 32654 net.cpp:157] Top shape: 1 192 7 7 (9408)
I1214 22:10:58.421365 32654 net.cpp:165] Memory required for data: 112883460
I1214 22:10:58.421383 32654 layer_factory.hpp:77] Creating layer relu_4e_3x3
I1214 22:10:58.421404 32654 net.cpp:100] Creating Layer relu_4e_3x3
I1214 22:10:58.421422 32654 net.cpp:434] relu_4e_3x3 <- conv_4e_3x3
I1214 22:10:58.421438 32654 net.cpp:395] relu_4e_3x3 -> conv_4e_3x3 (in-place)
I1214 22:10:58.421456 32654 net.cpp:150] Setting up relu_4e_3x3
I1214 22:10:58.421473 32654 net.cpp:157] Top shape: 1 192 7 7 (9408)
I1214 22:10:58.421488 32654 net.cpp:165] Memory required for data: 112921092
I1214 22:10:58.421500 32654 layer_factory.hpp:77] Creating layer conv_4e_double_3x3_reduce
I1214 22:10:58.421524 32654 net.cpp:100] Creating Layer conv_4e_double_3x3_reduce
I1214 22:10:58.421540 32654 net.cpp:434] conv_4e_double_3x3_reduce <- ch_concat_4d_chconcat_ch_concat_4d_chconcat_0_split_1
I1214 22:10:58.421561 32654 net.cpp:408] conv_4e_double_3x3_reduce -> conv_4e_double_3x3_reduce
I1214 22:10:58.421986 32654 net.cpp:150] Setting up conv_4e_double_3x3_reduce
I1214 22:10:58.422014 32654 net.cpp:157] Top shape: 1 192 14 14 (37632)
I1214 22:10:58.422029 32654 net.cpp:165] Memory required for data: 113071620
I1214 22:10:58.422049 32654 layer_factory.hpp:77] Creating layer bn_4e_double_3x3_reduce
I1214 22:10:58.422066 32654 net.cpp:100] Creating Layer bn_4e_double_3x3_reduce
I1214 22:10:58.422082 32654 net.cpp:434] bn_4e_double_3x3_reduce <- conv_4e_double_3x3_reduce
I1214 22:10:58.422103 32654 net.cpp:395] bn_4e_double_3x3_reduce -> conv_4e_double_3x3_reduce (in-place)
I1214 22:10:58.422412 32654 net.cpp:150] Setting up bn_4e_double_3x3_reduce
I1214 22:10:58.422440 32654 net.cpp:157] Top shape: 1 192 14 14 (37632)
I1214 22:10:58.422453 32654 net.cpp:165] Memory required for data: 113222148
I1214 22:10:58.422473 32654 layer_factory.hpp:77] Creating layer scale_conv_4e_double_3x3_reduce
I1214 22:10:58.422492 32654 net.cpp:100] Creating Layer scale_conv_4e_double_3x3_reduce
I1214 22:10:58.422507 32654 net.cpp:434] scale_conv_4e_double_3x3_reduce <- conv_4e_double_3x3_reduce
I1214 22:10:58.422528 32654 net.cpp:395] scale_conv_4e_double_3x3_reduce -> conv_4e_double_3x3_reduce (in-place)
I1214 22:10:58.422606 32654 layer_factory.hpp:77] Creating layer scale_conv_4e_double_3x3_reduce
I1214 22:10:58.422806 32654 net.cpp:150] Setting up scale_conv_4e_double_3x3_reduce
I1214 22:10:58.422832 32654 net.cpp:157] Top shape: 1 192 14 14 (37632)
I1214 22:10:58.422847 32654 net.cpp:165] Memory required for data: 113372676
I1214 22:10:58.422864 32654 layer_factory.hpp:77] Creating layer relu_4e_double_3x3_reduce
I1214 22:10:58.422888 32654 net.cpp:100] Creating Layer relu_4e_double_3x3_reduce
I1214 22:10:58.422904 32654 net.cpp:434] relu_4e_double_3x3_reduce <- conv_4e_double_3x3_reduce
I1214 22:10:58.422920 32654 net.cpp:395] relu_4e_double_3x3_reduce -> conv_4e_double_3x3_reduce (in-place)
I1214 22:10:58.422942 32654 net.cpp:150] Setting up relu_4e_double_3x3_reduce
I1214 22:10:58.422960 32654 net.cpp:157] Top shape: 1 192 14 14 (37632)
I1214 22:10:58.422973 32654 net.cpp:165] Memory required for data: 113523204
I1214 22:10:58.422986 32654 layer_factory.hpp:77] Creating layer conv_4e_double_3x3_0
I1214 22:10:58.423005 32654 net.cpp:100] Creating Layer conv_4e_double_3x3_0
I1214 22:10:58.423019 32654 net.cpp:434] conv_4e_double_3x3_0 <- conv_4e_double_3x3_reduce
I1214 22:10:58.423043 32654 net.cpp:408] conv_4e_double_3x3_0 -> conv_4e_double_3x3_0
I1214 22:10:58.424895 32654 net.cpp:150] Setting up conv_4e_double_3x3_0
I1214 22:10:58.424926 32654 net.cpp:157] Top shape: 1 256 14 14 (50176)
I1214 22:10:58.424940 32654 net.cpp:165] Memory required for data: 113723908
I1214 22:10:58.424959 32654 layer_factory.hpp:77] Creating layer bn_4e_double_3x3_0
I1214 22:10:58.424984 32654 net.cpp:100] Creating Layer bn_4e_double_3x3_0
I1214 22:10:58.425000 32654 net.cpp:434] bn_4e_double_3x3_0 <- conv_4e_double_3x3_0
I1214 22:10:58.425021 32654 net.cpp:395] bn_4e_double_3x3_0 -> conv_4e_double_3x3_0 (in-place)
I1214 22:10:58.425318 32654 net.cpp:150] Setting up bn_4e_double_3x3_0
I1214 22:10:58.425346 32654 net.cpp:157] Top shape: 1 256 14 14 (50176)
I1214 22:10:58.425360 32654 net.cpp:165] Memory required for data: 113924612
I1214 22:10:58.425380 32654 layer_factory.hpp:77] Creating layer scale_conv_4e_double_3x3_0
I1214 22:10:58.425400 32654 net.cpp:100] Creating Layer scale_conv_4e_double_3x3_0
I1214 22:10:58.425415 32654 net.cpp:434] scale_conv_4e_double_3x3_0 <- conv_4e_double_3x3_0
I1214 22:10:58.425434 32654 net.cpp:395] scale_conv_4e_double_3x3_0 -> conv_4e_double_3x3_0 (in-place)
I1214 22:10:58.425508 32654 layer_factory.hpp:77] Creating layer scale_conv_4e_double_3x3_0
I1214 22:10:58.425693 32654 net.cpp:150] Setting up scale_conv_4e_double_3x3_0
I1214 22:10:58.425717 32654 net.cpp:157] Top shape: 1 256 14 14 (50176)
I1214 22:10:58.425730 32654 net.cpp:165] Memory required for data: 114125316
I1214 22:10:58.425748 32654 layer_factory.hpp:77] Creating layer relu_4e_double_3x3_0
I1214 22:10:58.425766 32654 net.cpp:100] Creating Layer relu_4e_double_3x3_0
I1214 22:10:58.425781 32654 net.cpp:434] relu_4e_double_3x3_0 <- conv_4e_double_3x3_0
I1214 22:10:58.425801 32654 net.cpp:395] relu_4e_double_3x3_0 -> conv_4e_double_3x3_0 (in-place)
I1214 22:10:58.425822 32654 net.cpp:150] Setting up relu_4e_double_3x3_0
I1214 22:10:58.425838 32654 net.cpp:157] Top shape: 1 256 14 14 (50176)
I1214 22:10:58.425850 32654 net.cpp:165] Memory required for data: 114326020
I1214 22:10:58.425863 32654 layer_factory.hpp:77] Creating layer conv_4e_double_3x3_1
I1214 22:10:58.425886 32654 net.cpp:100] Creating Layer conv_4e_double_3x3_1
I1214 22:10:58.425901 32654 net.cpp:434] conv_4e_double_3x3_1 <- conv_4e_double_3x3_0
I1214 22:10:58.425920 32654 net.cpp:408] conv_4e_double_3x3_1 -> conv_4e_double_3x3_1
I1214 22:10:58.428215 32654 net.cpp:150] Setting up conv_4e_double_3x3_1
I1214 22:10:58.428247 32654 net.cpp:157] Top shape: 1 256 7 7 (12544)
I1214 22:10:58.428261 32654 net.cpp:165] Memory required for data: 114376196
I1214 22:10:58.428280 32654 layer_factory.hpp:77] Creating layer bn_4e_double_3x3_1
I1214 22:10:58.428300 32654 net.cpp:100] Creating Layer bn_4e_double_3x3_1
I1214 22:10:58.428315 32654 net.cpp:434] bn_4e_double_3x3_1 <- conv_4e_double_3x3_1
I1214 22:10:58.428338 32654 net.cpp:395] bn_4e_double_3x3_1 -> conv_4e_double_3x3_1 (in-place)
I1214 22:10:58.428622 32654 net.cpp:150] Setting up bn_4e_double_3x3_1
I1214 22:10:58.428647 32654 net.cpp:157] Top shape: 1 256 7 7 (12544)
I1214 22:10:58.428659 32654 net.cpp:165] Memory required for data: 114426372
I1214 22:10:58.428679 32654 layer_factory.hpp:77] Creating layer scale_conv_4e_double_3x3_1
I1214 22:10:58.428699 32654 net.cpp:100] Creating Layer scale_conv_4e_double_3x3_1
I1214 22:10:58.428714 32654 net.cpp:434] scale_conv_4e_double_3x3_1 <- conv_4e_double_3x3_1
I1214 22:10:58.428730 32654 net.cpp:395] scale_conv_4e_double_3x3_1 -> conv_4e_double_3x3_1 (in-place)
I1214 22:10:58.428800 32654 layer_factory.hpp:77] Creating layer scale_conv_4e_double_3x3_1
I1214 22:10:58.428987 32654 net.cpp:150] Setting up scale_conv_4e_double_3x3_1
I1214 22:10:58.429010 32654 net.cpp:157] Top shape: 1 256 7 7 (12544)
I1214 22:10:58.429023 32654 net.cpp:165] Memory required for data: 114476548
I1214 22:10:58.429041 32654 layer_factory.hpp:77] Creating layer relu_4e_double_3x3_1
I1214 22:10:58.429062 32654 net.cpp:100] Creating Layer relu_4e_double_3x3_1
I1214 22:10:58.429077 32654 net.cpp:434] relu_4e_double_3x3_1 <- conv_4e_double_3x3_1
I1214 22:10:58.429093 32654 net.cpp:395] relu_4e_double_3x3_1 -> conv_4e_double_3x3_1 (in-place)
I1214 22:10:58.429111 32654 net.cpp:150] Setting up relu_4e_double_3x3_1
I1214 22:10:58.429129 32654 net.cpp:157] Top shape: 1 256 7 7 (12544)
I1214 22:10:58.429141 32654 net.cpp:165] Memory required for data: 114526724
I1214 22:10:58.429154 32654 layer_factory.hpp:77] Creating layer max_pool_4e_pool
I1214 22:10:58.429175 32654 net.cpp:100] Creating Layer max_pool_4e_pool
I1214 22:10:58.429200 32654 net.cpp:434] max_pool_4e_pool <- ch_concat_4d_chconcat_ch_concat_4d_chconcat_0_split_2
I1214 22:10:58.429229 32654 net.cpp:408] max_pool_4e_pool -> max_pool_4e_pool
I1214 22:10:58.429307 32654 net.cpp:150] Setting up max_pool_4e_pool
I1214 22:10:58.429330 32654 net.cpp:157] Top shape: 1 512 7 7 (25088)
I1214 22:10:58.429344 32654 net.cpp:165] Memory required for data: 114627076
I1214 22:10:58.429358 32654 layer_factory.hpp:77] Creating layer ch_concat_4e_chconcat
I1214 22:10:58.429374 32654 net.cpp:100] Creating Layer ch_concat_4e_chconcat
I1214 22:10:58.429388 32654 net.cpp:434] ch_concat_4e_chconcat <- conv_4e_3x3
I1214 22:10:58.429404 32654 net.cpp:434] ch_concat_4e_chconcat <- conv_4e_double_3x3_1
I1214 22:10:58.429419 32654 net.cpp:434] ch_concat_4e_chconcat <- max_pool_4e_pool
I1214 22:10:58.429435 32654 net.cpp:408] ch_concat_4e_chconcat -> ch_concat_4e_chconcat
I1214 22:10:58.429483 32654 net.cpp:150] Setting up ch_concat_4e_chconcat
I1214 22:10:58.429505 32654 net.cpp:157] Top shape: 1 960 7 7 (47040)
I1214 22:10:58.429518 32654 net.cpp:165] Memory required for data: 114815236
I1214 22:10:58.429532 32654 layer_factory.hpp:77] Creating layer ch_concat_4e_chconcat_ch_concat_4e_chconcat_0_split
I1214 22:10:58.429554 32654 net.cpp:100] Creating Layer ch_concat_4e_chconcat_ch_concat_4e_chconcat_0_split
I1214 22:10:58.429570 32654 net.cpp:434] ch_concat_4e_chconcat_ch_concat_4e_chconcat_0_split <- ch_concat_4e_chconcat
I1214 22:10:58.429589 32654 net.cpp:408] ch_concat_4e_chconcat_ch_concat_4e_chconcat_0_split -> ch_concat_4e_chconcat_ch_concat_4e_chconcat_0_split_0
I1214 22:10:58.429610 32654 net.cpp:408] ch_concat_4e_chconcat_ch_concat_4e_chconcat_0_split -> ch_concat_4e_chconcat_ch_concat_4e_chconcat_0_split_1
I1214 22:10:58.429631 32654 net.cpp:408] ch_concat_4e_chconcat_ch_concat_4e_chconcat_0_split -> ch_concat_4e_chconcat_ch_concat_4e_chconcat_0_split_2
I1214 22:10:58.429656 32654 net.cpp:408] ch_concat_4e_chconcat_ch_concat_4e_chconcat_0_split -> ch_concat_4e_chconcat_ch_concat_4e_chconcat_0_split_3
I1214 22:10:58.429759 32654 net.cpp:150] Setting up ch_concat_4e_chconcat_ch_concat_4e_chconcat_0_split
I1214 22:10:58.429782 32654 net.cpp:157] Top shape: 1 960 7 7 (47040)
I1214 22:10:58.429797 32654 net.cpp:157] Top shape: 1 960 7 7 (47040)
I1214 22:10:58.429811 32654 net.cpp:157] Top shape: 1 960 7 7 (47040)
I1214 22:10:58.429826 32654 net.cpp:157] Top shape: 1 960 7 7 (47040)
I1214 22:10:58.429838 32654 net.cpp:165] Memory required for data: 115567876
I1214 22:10:58.429852 32654 layer_factory.hpp:77] Creating layer conv_5a_1x1
I1214 22:10:58.429875 32654 net.cpp:100] Creating Layer conv_5a_1x1
I1214 22:10:58.429890 32654 net.cpp:434] conv_5a_1x1 <- ch_concat_4e_chconcat_ch_concat_4e_chconcat_0_split_0
I1214 22:10:58.429909 32654 net.cpp:408] conv_5a_1x1 -> conv_5a_1x1
I1214 22:10:58.431659 32654 net.cpp:150] Setting up conv_5a_1x1
I1214 22:10:58.431691 32654 net.cpp:157] Top shape: 1 352 7 7 (17248)
I1214 22:10:58.431705 32654 net.cpp:165] Memory required for data: 115636868
I1214 22:10:58.431725 32654 layer_factory.hpp:77] Creating layer bn_5a_1x1
I1214 22:10:58.431749 32654 net.cpp:100] Creating Layer bn_5a_1x1
I1214 22:10:58.431766 32654 net.cpp:434] bn_5a_1x1 <- conv_5a_1x1
I1214 22:10:58.431782 32654 net.cpp:395] bn_5a_1x1 -> conv_5a_1x1 (in-place)
I1214 22:10:58.432108 32654 net.cpp:150] Setting up bn_5a_1x1
I1214 22:10:58.432132 32654 net.cpp:157] Top shape: 1 352 7 7 (17248)
I1214 22:10:58.432147 32654 net.cpp:165] Memory required for data: 115705860
I1214 22:10:58.432166 32654 layer_factory.hpp:77] Creating layer scale_conv_5a_1x1
I1214 22:10:58.432190 32654 net.cpp:100] Creating Layer scale_conv_5a_1x1
I1214 22:10:58.432206 32654 net.cpp:434] scale_conv_5a_1x1 <- conv_5a_1x1
I1214 22:10:58.432224 32654 net.cpp:395] scale_conv_5a_1x1 -> conv_5a_1x1 (in-place)
I1214 22:10:58.432312 32654 layer_factory.hpp:77] Creating layer scale_conv_5a_1x1
I1214 22:10:58.432514 32654 net.cpp:150] Setting up scale_conv_5a_1x1
I1214 22:10:58.432541 32654 net.cpp:157] Top shape: 1 352 7 7 (17248)
I1214 22:10:58.432554 32654 net.cpp:165] Memory required for data: 115774852
I1214 22:10:58.432584 32654 layer_factory.hpp:77] Creating layer relu_5a_1x1
I1214 22:10:58.432602 32654 net.cpp:100] Creating Layer relu_5a_1x1
I1214 22:10:58.432616 32654 net.cpp:434] relu_5a_1x1 <- conv_5a_1x1
I1214 22:10:58.432631 32654 net.cpp:395] relu_5a_1x1 -> conv_5a_1x1 (in-place)
I1214 22:10:58.432649 32654 net.cpp:150] Setting up relu_5a_1x1
I1214 22:10:58.432667 32654 net.cpp:157] Top shape: 1 352 7 7 (17248)
I1214 22:10:58.432679 32654 net.cpp:165] Memory required for data: 115843844
I1214 22:10:58.432692 32654 layer_factory.hpp:77] Creating layer conv_5a_3x3_reduce
I1214 22:10:58.432715 32654 net.cpp:100] Creating Layer conv_5a_3x3_reduce
I1214 22:10:58.432731 32654 net.cpp:434] conv_5a_3x3_reduce <- ch_concat_4e_chconcat_ch_concat_4e_chconcat_0_split_1
I1214 22:10:58.432754 32654 net.cpp:408] conv_5a_3x3_reduce -> conv_5a_3x3_reduce
I1214 22:10:58.434011 32654 net.cpp:150] Setting up conv_5a_3x3_reduce
I1214 22:10:58.434043 32654 net.cpp:157] Top shape: 1 192 7 7 (9408)
I1214 22:10:58.434057 32654 net.cpp:165] Memory required for data: 115881476
I1214 22:10:58.434077 32654 layer_factory.hpp:77] Creating layer bn_5a_3x3_reduce
I1214 22:10:58.434097 32654 net.cpp:100] Creating Layer bn_5a_3x3_reduce
I1214 22:10:58.434110 32654 net.cpp:434] bn_5a_3x3_reduce <- conv_5a_3x3_reduce
I1214 22:10:58.434131 32654 net.cpp:395] bn_5a_3x3_reduce -> conv_5a_3x3_reduce (in-place)
I1214 22:10:58.434447 32654 net.cpp:150] Setting up bn_5a_3x3_reduce
I1214 22:10:58.434470 32654 net.cpp:157] Top shape: 1 192 7 7 (9408)
I1214 22:10:58.434484 32654 net.cpp:165] Memory required for data: 115919108
I1214 22:10:58.434504 32654 layer_factory.hpp:77] Creating layer scale_conv_5a_3x3_reduce
I1214 22:10:58.434522 32654 net.cpp:100] Creating Layer scale_conv_5a_3x3_reduce
I1214 22:10:58.434536 32654 net.cpp:434] scale_conv_5a_3x3_reduce <- conv_5a_3x3_reduce
I1214 22:10:58.434556 32654 net.cpp:395] scale_conv_5a_3x3_reduce -> conv_5a_3x3_reduce (in-place)
I1214 22:10:58.434631 32654 layer_factory.hpp:77] Creating layer scale_conv_5a_3x3_reduce
I1214 22:10:58.434826 32654 net.cpp:150] Setting up scale_conv_5a_3x3_reduce
I1214 22:10:58.434850 32654 net.cpp:157] Top shape: 1 192 7 7 (9408)
I1214 22:10:58.434864 32654 net.cpp:165] Memory required for data: 115956740
I1214 22:10:58.434881 32654 layer_factory.hpp:77] Creating layer relu_5a_3x3_reduce
I1214 22:10:58.434904 32654 net.cpp:100] Creating Layer relu_5a_3x3_reduce
I1214 22:10:58.434919 32654 net.cpp:434] relu_5a_3x3_reduce <- conv_5a_3x3_reduce
I1214 22:10:58.434936 32654 net.cpp:395] relu_5a_3x3_reduce -> conv_5a_3x3_reduce (in-place)
I1214 22:10:58.434954 32654 net.cpp:150] Setting up relu_5a_3x3_reduce
I1214 22:10:58.434970 32654 net.cpp:157] Top shape: 1 192 7 7 (9408)
I1214 22:10:58.434983 32654 net.cpp:165] Memory required for data: 115994372
I1214 22:10:58.434996 32654 layer_factory.hpp:77] Creating layer conv_5a_3x3
I1214 22:10:58.435094 32654 net.cpp:100] Creating Layer conv_5a_3x3
I1214 22:10:58.435113 32654 net.cpp:434] conv_5a_3x3 <- conv_5a_3x3_reduce
I1214 22:10:58.435132 32654 net.cpp:408] conv_5a_3x3 -> conv_5a_3x3
I1214 22:10:58.437361 32654 net.cpp:150] Setting up conv_5a_3x3
I1214 22:10:58.437392 32654 net.cpp:157] Top shape: 1 320 7 7 (15680)
I1214 22:10:58.437407 32654 net.cpp:165] Memory required for data: 116057092
I1214 22:10:58.437427 32654 layer_factory.hpp:77] Creating layer bn_5a_3x3
I1214 22:10:58.437450 32654 net.cpp:100] Creating Layer bn_5a_3x3
I1214 22:10:58.437466 32654 net.cpp:434] bn_5a_3x3 <- conv_5a_3x3
I1214 22:10:58.437487 32654 net.cpp:395] bn_5a_3x3 -> conv_5a_3x3 (in-place)
I1214 22:10:58.437810 32654 net.cpp:150] Setting up bn_5a_3x3
I1214 22:10:58.437839 32654 net.cpp:157] Top shape: 1 320 7 7 (15680)
I1214 22:10:58.437852 32654 net.cpp:165] Memory required for data: 116119812
I1214 22:10:58.437872 32654 layer_factory.hpp:77] Creating layer scale_conv_5a_3x3
I1214 22:10:58.437899 32654 net.cpp:100] Creating Layer scale_conv_5a_3x3
I1214 22:10:58.437916 32654 net.cpp:434] scale_conv_5a_3x3 <- conv_5a_3x3
I1214 22:10:58.437942 32654 net.cpp:395] scale_conv_5a_3x3 -> conv_5a_3x3 (in-place)
I1214 22:10:58.438031 32654 layer_factory.hpp:77] Creating layer scale_conv_5a_3x3
I1214 22:10:58.438261 32654 net.cpp:150] Setting up scale_conv_5a_3x3
I1214 22:10:58.438287 32654 net.cpp:157] Top shape: 1 320 7 7 (15680)
I1214 22:10:58.438299 32654 net.cpp:165] Memory required for data: 116182532
I1214 22:10:58.438318 32654 layer_factory.hpp:77] Creating layer relu_5a_3x3
I1214 22:10:58.438335 32654 net.cpp:100] Creating Layer relu_5a_3x3
I1214 22:10:58.438349 32654 net.cpp:434] relu_5a_3x3 <- conv_5a_3x3
I1214 22:10:58.438370 32654 net.cpp:395] relu_5a_3x3 -> conv_5a_3x3 (in-place)
I1214 22:10:58.438390 32654 net.cpp:150] Setting up relu_5a_3x3
I1214 22:10:58.438406 32654 net.cpp:157] Top shape: 1 320 7 7 (15680)
I1214 22:10:58.438419 32654 net.cpp:165] Memory required for data: 116245252
I1214 22:10:58.438433 32654 layer_factory.hpp:77] Creating layer conv_5a_double_3x3_reduce
I1214 22:10:58.438452 32654 net.cpp:100] Creating Layer conv_5a_double_3x3_reduce
I1214 22:10:58.438467 32654 net.cpp:434] conv_5a_double_3x3_reduce <- ch_concat_4e_chconcat_ch_concat_4e_chconcat_0_split_2
I1214 22:10:58.438489 32654 net.cpp:408] conv_5a_double_3x3_reduce -> conv_5a_double_3x3_reduce
I1214 22:10:58.439741 32654 net.cpp:150] Setting up conv_5a_double_3x3_reduce
I1214 22:10:58.439772 32654 net.cpp:157] Top shape: 1 160 7 7 (7840)
I1214 22:10:58.439787 32654 net.cpp:165] Memory required for data: 116276612
I1214 22:10:58.439805 32654 layer_factory.hpp:77] Creating layer bn_5a_double_3x3_reduce
I1214 22:10:58.439828 32654 net.cpp:100] Creating Layer bn_5a_double_3x3_reduce
I1214 22:10:58.439844 32654 net.cpp:434] bn_5a_double_3x3_reduce <- conv_5a_double_3x3_reduce
I1214 22:10:58.439862 32654 net.cpp:395] bn_5a_double_3x3_reduce -> conv_5a_double_3x3_reduce (in-place)
I1214 22:10:58.440171 32654 net.cpp:150] Setting up bn_5a_double_3x3_reduce
I1214 22:10:58.440201 32654 net.cpp:157] Top shape: 1 160 7 7 (7840)
I1214 22:10:58.440215 32654 net.cpp:165] Memory required for data: 116307972
I1214 22:10:58.440235 32654 layer_factory.hpp:77] Creating layer scale_conv_5a_double_3x3_reduce
I1214 22:10:58.440254 32654 net.cpp:100] Creating Layer scale_conv_5a_double_3x3_reduce
I1214 22:10:58.440269 32654 net.cpp:434] scale_conv_5a_double_3x3_reduce <- conv_5a_double_3x3_reduce
I1214 22:10:58.440285 32654 net.cpp:395] scale_conv_5a_double_3x3_reduce -> conv_5a_double_3x3_reduce (in-place)
I1214 22:10:58.440364 32654 layer_factory.hpp:77] Creating layer scale_conv_5a_double_3x3_reduce
I1214 22:10:58.440565 32654 net.cpp:150] Setting up scale_conv_5a_double_3x3_reduce
I1214 22:10:58.440589 32654 net.cpp:157] Top shape: 1 160 7 7 (7840)
I1214 22:10:58.440603 32654 net.cpp:165] Memory required for data: 116339332
I1214 22:10:58.440620 32654 layer_factory.hpp:77] Creating layer relu_5a_double_3x3_reduce
I1214 22:10:58.440639 32654 net.cpp:100] Creating Layer relu_5a_double_3x3_reduce
I1214 22:10:58.440654 32654 net.cpp:434] relu_5a_double_3x3_reduce <- conv_5a_double_3x3_reduce
I1214 22:10:58.440673 32654 net.cpp:395] relu_5a_double_3x3_reduce -> conv_5a_double_3x3_reduce (in-place)
I1214 22:10:58.440693 32654 net.cpp:150] Setting up relu_5a_double_3x3_reduce
I1214 22:10:58.440711 32654 net.cpp:157] Top shape: 1 160 7 7 (7840)
I1214 22:10:58.440723 32654 net.cpp:165] Memory required for data: 116370692
I1214 22:10:58.440737 32654 layer_factory.hpp:77] Creating layer conv_5a_double_3x3_0
I1214 22:10:58.440757 32654 net.cpp:100] Creating Layer conv_5a_double_3x3_0
I1214 22:10:58.440775 32654 net.cpp:434] conv_5a_double_3x3_0 <- conv_5a_double_3x3_reduce
I1214 22:10:58.440794 32654 net.cpp:408] conv_5a_double_3x3_0 -> conv_5a_double_3x3_0
I1214 22:10:58.442317 32654 net.cpp:150] Setting up conv_5a_double_3x3_0
I1214 22:10:58.442348 32654 net.cpp:157] Top shape: 1 224 7 7 (10976)
I1214 22:10:58.442363 32654 net.cpp:165] Memory required for data: 116414596
I1214 22:10:58.442381 32654 layer_factory.hpp:77] Creating layer bn_5a_double_3x3_0
I1214 22:10:58.442410 32654 net.cpp:100] Creating Layer bn_5a_double_3x3_0
I1214 22:10:58.442426 32654 net.cpp:434] bn_5a_double_3x3_0 <- conv_5a_double_3x3_0
I1214 22:10:58.442446 32654 net.cpp:395] bn_5a_double_3x3_0 -> conv_5a_double_3x3_0 (in-place)
I1214 22:10:58.442765 32654 net.cpp:150] Setting up bn_5a_double_3x3_0
I1214 22:10:58.442790 32654 net.cpp:157] Top shape: 1 224 7 7 (10976)
I1214 22:10:58.442802 32654 net.cpp:165] Memory required for data: 116458500
I1214 22:10:58.442822 32654 layer_factory.hpp:77] Creating layer scale_conv_5a_double_3x3_0
I1214 22:10:58.442845 32654 net.cpp:100] Creating Layer scale_conv_5a_double_3x3_0
I1214 22:10:58.442862 32654 net.cpp:434] scale_conv_5a_double_3x3_0 <- conv_5a_double_3x3_0
I1214 22:10:58.442878 32654 net.cpp:395] scale_conv_5a_double_3x3_0 -> conv_5a_double_3x3_0 (in-place)
I1214 22:10:58.442951 32654 layer_factory.hpp:77] Creating layer scale_conv_5a_double_3x3_0
I1214 22:10:58.443161 32654 net.cpp:150] Setting up scale_conv_5a_double_3x3_0
I1214 22:10:58.443191 32654 net.cpp:157] Top shape: 1 224 7 7 (10976)
I1214 22:10:58.443204 32654 net.cpp:165] Memory required for data: 116502404
I1214 22:10:58.443222 32654 layer_factory.hpp:77] Creating layer relu_5a_double_3x3_0
I1214 22:10:58.443243 32654 net.cpp:100] Creating Layer relu_5a_double_3x3_0
I1214 22:10:58.443259 32654 net.cpp:434] relu_5a_double_3x3_0 <- conv_5a_double_3x3_0
I1214 22:10:58.443279 32654 net.cpp:395] relu_5a_double_3x3_0 -> conv_5a_double_3x3_0 (in-place)
I1214 22:10:58.443300 32654 net.cpp:150] Setting up relu_5a_double_3x3_0
I1214 22:10:58.443320 32654 net.cpp:157] Top shape: 1 224 7 7 (10976)
I1214 22:10:58.443333 32654 net.cpp:165] Memory required for data: 116546308
I1214 22:10:58.443346 32654 layer_factory.hpp:77] Creating layer conv_5a_double_3x3_1
I1214 22:10:58.443366 32654 net.cpp:100] Creating Layer conv_5a_double_3x3_1
I1214 22:10:58.443380 32654 net.cpp:434] conv_5a_double_3x3_1 <- conv_5a_double_3x3_0
I1214 22:10:58.443402 32654 net.cpp:408] conv_5a_double_3x3_1 -> conv_5a_double_3x3_1
I1214 22:10:58.445299 32654 net.cpp:150] Setting up conv_5a_double_3x3_1
I1214 22:10:58.445332 32654 net.cpp:157] Top shape: 1 224 7 7 (10976)
I1214 22:10:58.445345 32654 net.cpp:165] Memory required for data: 116590212
I1214 22:10:58.445364 32654 layer_factory.hpp:77] Creating layer bn_5a_double_3x3_1
I1214 22:10:58.445384 32654 net.cpp:100] Creating Layer bn_5a_double_3x3_1
I1214 22:10:58.445403 32654 net.cpp:434] bn_5a_double_3x3_1 <- conv_5a_double_3x3_1
I1214 22:10:58.445420 32654 net.cpp:395] bn_5a_double_3x3_1 -> conv_5a_double_3x3_1 (in-place)
I1214 22:10:58.445724 32654 net.cpp:150] Setting up bn_5a_double_3x3_1
I1214 22:10:58.445749 32654 net.cpp:157] Top shape: 1 224 7 7 (10976)
I1214 22:10:58.445761 32654 net.cpp:165] Memory required for data: 116634116
I1214 22:10:58.445781 32654 layer_factory.hpp:77] Creating layer scale_conv_5a_double_3x3_1
I1214 22:10:58.445799 32654 net.cpp:100] Creating Layer scale_conv_5a_double_3x3_1
I1214 22:10:58.445814 32654 net.cpp:434] scale_conv_5a_double_3x3_1 <- conv_5a_double_3x3_1
I1214 22:10:58.445830 32654 net.cpp:395] scale_conv_5a_double_3x3_1 -> conv_5a_double_3x3_1 (in-place)
I1214 22:10:58.445907 32654 layer_factory.hpp:77] Creating layer scale_conv_5a_double_3x3_1
I1214 22:10:58.446102 32654 net.cpp:150] Setting up scale_conv_5a_double_3x3_1
I1214 22:10:58.446130 32654 net.cpp:157] Top shape: 1 224 7 7 (10976)
I1214 22:10:58.446143 32654 net.cpp:165] Memory required for data: 116678020
I1214 22:10:58.446161 32654 layer_factory.hpp:77] Creating layer relu_5a_double_3x3_1
I1214 22:10:58.446178 32654 net.cpp:100] Creating Layer relu_5a_double_3x3_1
I1214 22:10:58.446199 32654 net.cpp:434] relu_5a_double_3x3_1 <- conv_5a_double_3x3_1
I1214 22:10:58.446216 32654 net.cpp:395] relu_5a_double_3x3_1 -> conv_5a_double_3x3_1 (in-place)
I1214 22:10:58.446235 32654 net.cpp:150] Setting up relu_5a_double_3x3_1
I1214 22:10:58.446254 32654 net.cpp:157] Top shape: 1 224 7 7 (10976)
I1214 22:10:58.446265 32654 net.cpp:165] Memory required for data: 116721924
I1214 22:10:58.446279 32654 layer_factory.hpp:77] Creating layer ave_pool_5a_pool
I1214 22:10:58.446310 32654 net.cpp:100] Creating Layer ave_pool_5a_pool
I1214 22:10:58.446326 32654 net.cpp:434] ave_pool_5a_pool <- ch_concat_4e_chconcat_ch_concat_4e_chconcat_0_split_3
I1214 22:10:58.446344 32654 net.cpp:408] ave_pool_5a_pool -> ave_pool_5a_pool
I1214 22:10:58.446400 32654 net.cpp:150] Setting up ave_pool_5a_pool
I1214 22:10:58.446424 32654 net.cpp:157] Top shape: 1 960 7 7 (47040)
I1214 22:10:58.446436 32654 net.cpp:165] Memory required for data: 116910084
I1214 22:10:58.446449 32654 layer_factory.hpp:77] Creating layer conv_5a_proj
I1214 22:10:58.446473 32654 net.cpp:100] Creating Layer conv_5a_proj
I1214 22:10:58.446490 32654 net.cpp:434] conv_5a_proj <- ave_pool_5a_pool
I1214 22:10:58.446507 32654 net.cpp:408] conv_5a_proj -> conv_5a_proj
I1214 22:10:58.447710 32654 net.cpp:150] Setting up conv_5a_proj
I1214 22:10:58.447741 32654 net.cpp:157] Top shape: 1 128 7 7 (6272)
I1214 22:10:58.447756 32654 net.cpp:165] Memory required for data: 116935172
I1214 22:10:58.447774 32654 layer_factory.hpp:77] Creating layer bn_5a_proj
I1214 22:10:58.447798 32654 net.cpp:100] Creating Layer bn_5a_proj
I1214 22:10:58.447814 32654 net.cpp:434] bn_5a_proj <- conv_5a_proj
I1214 22:10:58.447830 32654 net.cpp:395] bn_5a_proj -> conv_5a_proj (in-place)
I1214 22:10:58.448119 32654 net.cpp:150] Setting up bn_5a_proj
I1214 22:10:58.448149 32654 net.cpp:157] Top shape: 1 128 7 7 (6272)
I1214 22:10:58.448163 32654 net.cpp:165] Memory required for data: 116960260
I1214 22:10:58.448191 32654 layer_factory.hpp:77] Creating layer scale_conv_5a_proj
I1214 22:10:58.448210 32654 net.cpp:100] Creating Layer scale_conv_5a_proj
I1214 22:10:58.448225 32654 net.cpp:434] scale_conv_5a_proj <- conv_5a_proj
I1214 22:10:58.448241 32654 net.cpp:395] scale_conv_5a_proj -> conv_5a_proj (in-place)
I1214 22:10:58.448315 32654 layer_factory.hpp:77] Creating layer scale_conv_5a_proj
I1214 22:10:58.448501 32654 net.cpp:150] Setting up scale_conv_5a_proj
I1214 22:10:58.448526 32654 net.cpp:157] Top shape: 1 128 7 7 (6272)
I1214 22:10:58.448539 32654 net.cpp:165] Memory required for data: 116985348
I1214 22:10:58.448557 32654 layer_factory.hpp:77] Creating layer relu_5a_proj
I1214 22:10:58.448580 32654 net.cpp:100] Creating Layer relu_5a_proj
I1214 22:10:58.448596 32654 net.cpp:434] relu_5a_proj <- conv_5a_proj
I1214 22:10:58.448612 32654 net.cpp:395] relu_5a_proj -> conv_5a_proj (in-place)
I1214 22:10:58.448631 32654 net.cpp:150] Setting up relu_5a_proj
I1214 22:10:58.448647 32654 net.cpp:157] Top shape: 1 128 7 7 (6272)
I1214 22:10:58.448660 32654 net.cpp:165] Memory required for data: 117010436
I1214 22:10:58.448673 32654 layer_factory.hpp:77] Creating layer ch_concat_5a_chconcat
I1214 22:10:58.448693 32654 net.cpp:100] Creating Layer ch_concat_5a_chconcat
I1214 22:10:58.448707 32654 net.cpp:434] ch_concat_5a_chconcat <- conv_5a_1x1
I1214 22:10:58.448722 32654 net.cpp:434] ch_concat_5a_chconcat <- conv_5a_3x3
I1214 22:10:58.448737 32654 net.cpp:434] ch_concat_5a_chconcat <- conv_5a_double_3x3_1
I1214 22:10:58.448751 32654 net.cpp:434] ch_concat_5a_chconcat <- conv_5a_proj
I1214 22:10:58.448768 32654 net.cpp:408] ch_concat_5a_chconcat -> ch_concat_5a_chconcat
I1214 22:10:58.448823 32654 net.cpp:150] Setting up ch_concat_5a_chconcat
I1214 22:10:58.448845 32654 net.cpp:157] Top shape: 1 1024 7 7 (50176)
I1214 22:10:58.448858 32654 net.cpp:165] Memory required for data: 117211140
I1214 22:10:58.448871 32654 layer_factory.hpp:77] Creating layer ch_concat_5a_chconcat_ch_concat_5a_chconcat_0_split
I1214 22:10:58.448890 32654 net.cpp:100] Creating Layer ch_concat_5a_chconcat_ch_concat_5a_chconcat_0_split
I1214 22:10:58.448904 32654 net.cpp:434] ch_concat_5a_chconcat_ch_concat_5a_chconcat_0_split <- ch_concat_5a_chconcat
I1214 22:10:58.448921 32654 net.cpp:408] ch_concat_5a_chconcat_ch_concat_5a_chconcat_0_split -> ch_concat_5a_chconcat_ch_concat_5a_chconcat_0_split_0
I1214 22:10:58.448942 32654 net.cpp:408] ch_concat_5a_chconcat_ch_concat_5a_chconcat_0_split -> ch_concat_5a_chconcat_ch_concat_5a_chconcat_0_split_1
I1214 22:10:58.448978 32654 net.cpp:408] ch_concat_5a_chconcat_ch_concat_5a_chconcat_0_split -> ch_concat_5a_chconcat_ch_concat_5a_chconcat_0_split_2
I1214 22:10:58.449002 32654 net.cpp:408] ch_concat_5a_chconcat_ch_concat_5a_chconcat_0_split -> ch_concat_5a_chconcat_ch_concat_5a_chconcat_0_split_3
I1214 22:10:58.449102 32654 net.cpp:150] Setting up ch_concat_5a_chconcat_ch_concat_5a_chconcat_0_split
I1214 22:10:58.449126 32654 net.cpp:157] Top shape: 1 1024 7 7 (50176)
I1214 22:10:58.449141 32654 net.cpp:157] Top shape: 1 1024 7 7 (50176)
I1214 22:10:58.449156 32654 net.cpp:157] Top shape: 1 1024 7 7 (50176)
I1214 22:10:58.449170 32654 net.cpp:157] Top shape: 1 1024 7 7 (50176)
I1214 22:10:58.449188 32654 net.cpp:165] Memory required for data: 118013956
I1214 22:10:58.449203 32654 layer_factory.hpp:77] Creating layer conv_5b_1x1
I1214 22:10:58.449228 32654 net.cpp:100] Creating Layer conv_5b_1x1
I1214 22:10:58.449244 32654 net.cpp:434] conv_5b_1x1 <- ch_concat_5a_chconcat_ch_concat_5a_chconcat_0_split_0
I1214 22:10:58.449266 32654 net.cpp:408] conv_5b_1x1 -> conv_5b_1x1
I1214 22:10:58.450886 32654 net.cpp:150] Setting up conv_5b_1x1
I1214 22:10:58.450917 32654 net.cpp:157] Top shape: 1 352 7 7 (17248)
I1214 22:10:58.450932 32654 net.cpp:165] Memory required for data: 118082948
I1214 22:10:58.450951 32654 layer_factory.hpp:77] Creating layer bn_5b_1x1
I1214 22:10:58.450971 32654 net.cpp:100] Creating Layer bn_5b_1x1
I1214 22:10:58.450986 32654 net.cpp:434] bn_5b_1x1 <- conv_5b_1x1
I1214 22:10:58.451009 32654 net.cpp:395] bn_5b_1x1 -> conv_5b_1x1 (in-place)
I1214 22:10:58.451345 32654 net.cpp:150] Setting up bn_5b_1x1
I1214 22:10:58.451372 32654 net.cpp:157] Top shape: 1 352 7 7 (17248)
I1214 22:10:58.451386 32654 net.cpp:165] Memory required for data: 118151940
I1214 22:10:58.451408 32654 layer_factory.hpp:77] Creating layer scale_conv_5b_1x1
I1214 22:10:58.451427 32654 net.cpp:100] Creating Layer scale_conv_5b_1x1
I1214 22:10:58.451442 32654 net.cpp:434] scale_conv_5b_1x1 <- conv_5b_1x1
I1214 22:10:58.451463 32654 net.cpp:395] scale_conv_5b_1x1 -> conv_5b_1x1 (in-place)
I1214 22:10:58.451544 32654 layer_factory.hpp:77] Creating layer scale_conv_5b_1x1
I1214 22:10:58.451756 32654 net.cpp:150] Setting up scale_conv_5b_1x1
I1214 22:10:58.451783 32654 net.cpp:157] Top shape: 1 352 7 7 (17248)
I1214 22:10:58.451797 32654 net.cpp:165] Memory required for data: 118220932
I1214 22:10:58.451817 32654 layer_factory.hpp:77] Creating layer relu_5b_1x1
I1214 22:10:58.451834 32654 net.cpp:100] Creating Layer relu_5b_1x1
I1214 22:10:58.451848 32654 net.cpp:434] relu_5b_1x1 <- conv_5b_1x1
I1214 22:10:58.451869 32654 net.cpp:395] relu_5b_1x1 -> conv_5b_1x1 (in-place)
I1214 22:10:58.451889 32654 net.cpp:150] Setting up relu_5b_1x1
I1214 22:10:58.451905 32654 net.cpp:157] Top shape: 1 352 7 7 (17248)
I1214 22:10:58.451920 32654 net.cpp:165] Memory required for data: 118289924
I1214 22:10:58.451933 32654 layer_factory.hpp:77] Creating layer conv_5b_3x3_reduce
I1214 22:10:58.451956 32654 net.cpp:100] Creating Layer conv_5b_3x3_reduce
I1214 22:10:58.451972 32654 net.cpp:434] conv_5b_3x3_reduce <- ch_concat_5a_chconcat_ch_concat_5a_chconcat_0_split_1
I1214 22:10:58.451990 32654 net.cpp:408] conv_5b_3x3_reduce -> conv_5b_3x3_reduce
I1214 22:10:58.453284 32654 net.cpp:150] Setting up conv_5b_3x3_reduce
I1214 22:10:58.453313 32654 net.cpp:157] Top shape: 1 192 7 7 (9408)
I1214 22:10:58.453327 32654 net.cpp:165] Memory required for data: 118327556
I1214 22:10:58.453348 32654 layer_factory.hpp:77] Creating layer bn_5b_3x3_reduce
I1214 22:10:58.453372 32654 net.cpp:100] Creating Layer bn_5b_3x3_reduce
I1214 22:10:58.453389 32654 net.cpp:434] bn_5b_3x3_reduce <- conv_5b_3x3_reduce
I1214 22:10:58.453408 32654 net.cpp:395] bn_5b_3x3_reduce -> conv_5b_3x3_reduce (in-place)
I1214 22:10:58.453722 32654 net.cpp:150] Setting up bn_5b_3x3_reduce
I1214 22:10:58.453748 32654 net.cpp:157] Top shape: 1 192 7 7 (9408)
I1214 22:10:58.453763 32654 net.cpp:165] Memory required for data: 118365188
I1214 22:10:58.453783 32654 layer_factory.hpp:77] Creating layer scale_conv_5b_3x3_reduce
I1214 22:10:58.453815 32654 net.cpp:100] Creating Layer scale_conv_5b_3x3_reduce
I1214 22:10:58.453832 32654 net.cpp:434] scale_conv_5b_3x3_reduce <- conv_5b_3x3_reduce
I1214 22:10:58.453850 32654 net.cpp:395] scale_conv_5b_3x3_reduce -> conv_5b_3x3_reduce (in-place)
I1214 22:10:58.453924 32654 layer_factory.hpp:77] Creating layer scale_conv_5b_3x3_reduce
I1214 22:10:58.454134 32654 net.cpp:150] Setting up scale_conv_5b_3x3_reduce
I1214 22:10:58.454161 32654 net.cpp:157] Top shape: 1 192 7 7 (9408)
I1214 22:10:58.454175 32654 net.cpp:165] Memory required for data: 118402820
I1214 22:10:58.454201 32654 layer_factory.hpp:77] Creating layer relu_5b_3x3_reduce
I1214 22:10:58.454221 32654 net.cpp:100] Creating Layer relu_5b_3x3_reduce
I1214 22:10:58.454236 32654 net.cpp:434] relu_5b_3x3_reduce <- conv_5b_3x3_reduce
I1214 22:10:58.454257 32654 net.cpp:395] relu_5b_3x3_reduce -> conv_5b_3x3_reduce (in-place)
I1214 22:10:58.454277 32654 net.cpp:150] Setting up relu_5b_3x3_reduce
I1214 22:10:58.454293 32654 net.cpp:157] Top shape: 1 192 7 7 (9408)
I1214 22:10:58.454306 32654 net.cpp:165] Memory required for data: 118440452
I1214 22:10:58.454319 32654 layer_factory.hpp:77] Creating layer conv_5b_3x3
I1214 22:10:58.454337 32654 net.cpp:100] Creating Layer conv_5b_3x3
I1214 22:10:58.454352 32654 net.cpp:434] conv_5b_3x3 <- conv_5b_3x3_reduce
I1214 22:10:58.454373 32654 net.cpp:408] conv_5b_3x3 -> conv_5b_3x3
I1214 22:10:58.456586 32654 net.cpp:150] Setting up conv_5b_3x3
I1214 22:10:58.456619 32654 net.cpp:157] Top shape: 1 320 7 7 (15680)
I1214 22:10:58.456634 32654 net.cpp:165] Memory required for data: 118503172
I1214 22:10:58.456651 32654 layer_factory.hpp:77] Creating layer bn_5b_3x3
I1214 22:10:58.456673 32654 net.cpp:100] Creating Layer bn_5b_3x3
I1214 22:10:58.456689 32654 net.cpp:434] bn_5b_3x3 <- conv_5b_3x3
I1214 22:10:58.456709 32654 net.cpp:395] bn_5b_3x3 -> conv_5b_3x3 (in-place)
I1214 22:10:58.457039 32654 net.cpp:150] Setting up bn_5b_3x3
I1214 22:10:58.457064 32654 net.cpp:157] Top shape: 1 320 7 7 (15680)
I1214 22:10:58.457077 32654 net.cpp:165] Memory required for data: 118565892
I1214 22:10:58.457098 32654 layer_factory.hpp:77] Creating layer scale_conv_5b_3x3
I1214 22:10:58.457118 32654 net.cpp:100] Creating Layer scale_conv_5b_3x3
I1214 22:10:58.457131 32654 net.cpp:434] scale_conv_5b_3x3 <- conv_5b_3x3
I1214 22:10:58.457147 32654 net.cpp:395] scale_conv_5b_3x3 -> conv_5b_3x3 (in-place)
I1214 22:10:58.457248 32654 layer_factory.hpp:77] Creating layer scale_conv_5b_3x3
I1214 22:10:58.457464 32654 net.cpp:150] Setting up scale_conv_5b_3x3
I1214 22:10:58.457489 32654 net.cpp:157] Top shape: 1 320 7 7 (15680)
I1214 22:10:58.457501 32654 net.cpp:165] Memory required for data: 118628612
I1214 22:10:58.457520 32654 layer_factory.hpp:77] Creating layer relu_5b_3x3
I1214 22:10:58.457541 32654 net.cpp:100] Creating Layer relu_5b_3x3
I1214 22:10:58.457556 32654 net.cpp:434] relu_5b_3x3 <- conv_5b_3x3
I1214 22:10:58.457572 32654 net.cpp:395] relu_5b_3x3 -> conv_5b_3x3 (in-place)
I1214 22:10:58.457590 32654 net.cpp:150] Setting up relu_5b_3x3
I1214 22:10:58.457607 32654 net.cpp:157] Top shape: 1 320 7 7 (15680)
I1214 22:10:58.457620 32654 net.cpp:165] Memory required for data: 118691332
I1214 22:10:58.457633 32654 layer_factory.hpp:77] Creating layer conv_5b_double_3x3_reduce
I1214 22:10:58.457656 32654 net.cpp:100] Creating Layer conv_5b_double_3x3_reduce
I1214 22:10:58.457672 32654 net.cpp:434] conv_5b_double_3x3_reduce <- ch_concat_5a_chconcat_ch_concat_5a_chconcat_0_split_2
I1214 22:10:58.457692 32654 net.cpp:408] conv_5b_double_3x3_reduce -> conv_5b_double_3x3_reduce
I1214 22:10:58.458999 32654 net.cpp:150] Setting up conv_5b_double_3x3_reduce
I1214 22:10:58.459031 32654 net.cpp:157] Top shape: 1 192 7 7 (9408)
I1214 22:10:58.459046 32654 net.cpp:165] Memory required for data: 118728964
I1214 22:10:58.459064 32654 layer_factory.hpp:77] Creating layer bn_5b_double_3x3_reduce
I1214 22:10:58.459087 32654 net.cpp:100] Creating Layer bn_5b_double_3x3_reduce
I1214 22:10:58.459103 32654 net.cpp:434] bn_5b_double_3x3_reduce <- conv_5b_double_3x3_reduce
I1214 22:10:58.459133 32654 net.cpp:395] bn_5b_double_3x3_reduce -> conv_5b_double_3x3_reduce (in-place)
I1214 22:10:58.460180 32654 net.cpp:150] Setting up bn_5b_double_3x3_reduce
I1214 22:10:58.460216 32654 net.cpp:157] Top shape: 1 192 7 7 (9408)
I1214 22:10:58.460232 32654 net.cpp:165] Memory required for data: 118766596
I1214 22:10:58.460253 32654 layer_factory.hpp:77] Creating layer scale_conv_5b_double_3x3_reduce
I1214 22:10:58.460276 32654 net.cpp:100] Creating Layer scale_conv_5b_double_3x3_reduce
I1214 22:10:58.460292 32654 net.cpp:434] scale_conv_5b_double_3x3_reduce <- conv_5b_double_3x3_reduce
I1214 22:10:58.460309 32654 net.cpp:395] scale_conv_5b_double_3x3_reduce -> conv_5b_double_3x3_reduce (in-place)
I1214 22:10:58.460381 32654 layer_factory.hpp:77] Creating layer scale_conv_5b_double_3x3_reduce
I1214 22:10:58.460580 32654 net.cpp:150] Setting up scale_conv_5b_double_3x3_reduce
I1214 22:10:58.460604 32654 net.cpp:157] Top shape: 1 192 7 7 (9408)
I1214 22:10:58.460618 32654 net.cpp:165] Memory required for data: 118804228
I1214 22:10:58.460635 32654 layer_factory.hpp:77] Creating layer relu_5b_double_3x3_reduce
I1214 22:10:58.460654 32654 net.cpp:100] Creating Layer relu_5b_double_3x3_reduce
I1214 22:10:58.460667 32654 net.cpp:434] relu_5b_double_3x3_reduce <- conv_5b_double_3x3_reduce
I1214 22:10:58.460690 32654 net.cpp:395] relu_5b_double_3x3_reduce -> conv_5b_double_3x3_reduce (in-place)
I1214 22:10:58.460710 32654 net.cpp:150] Setting up relu_5b_double_3x3_reduce
I1214 22:10:58.460727 32654 net.cpp:157] Top shape: 1 192 7 7 (9408)
I1214 22:10:58.460741 32654 net.cpp:165] Memory required for data: 118841860
I1214 22:10:58.460753 32654 layer_factory.hpp:77] Creating layer conv_5b_double_3x3_0
I1214 22:10:58.460773 32654 net.cpp:100] Creating Layer conv_5b_double_3x3_0
I1214 22:10:58.460788 32654 net.cpp:434] conv_5b_double_3x3_0 <- conv_5b_double_3x3_reduce
I1214 22:10:58.460810 32654 net.cpp:408] conv_5b_double_3x3_0 -> conv_5b_double_3x3_0
I1214 22:10:58.462484 32654 net.cpp:150] Setting up conv_5b_double_3x3_0
I1214 22:10:58.462517 32654 net.cpp:157] Top shape: 1 224 7 7 (10976)
I1214 22:10:58.462530 32654 net.cpp:165] Memory required for data: 118885764
I1214 22:10:58.462548 32654 layer_factory.hpp:77] Creating layer bn_5b_double_3x3_0
I1214 22:10:58.462571 32654 net.cpp:100] Creating Layer bn_5b_double_3x3_0
I1214 22:10:58.462587 32654 net.cpp:434] bn_5b_double_3x3_0 <- conv_5b_double_3x3_0
I1214 22:10:58.462604 32654 net.cpp:395] bn_5b_double_3x3_0 -> conv_5b_double_3x3_0 (in-place)
I1214 22:10:58.462890 32654 net.cpp:150] Setting up bn_5b_double_3x3_0
I1214 22:10:58.462914 32654 net.cpp:157] Top shape: 1 224 7 7 (10976)
I1214 22:10:58.462927 32654 net.cpp:165] Memory required for data: 118929668
I1214 22:10:58.462947 32654 layer_factory.hpp:77] Creating layer scale_conv_5b_double_3x3_0
I1214 22:10:58.462966 32654 net.cpp:100] Creating Layer scale_conv_5b_double_3x3_0
I1214 22:10:58.462980 32654 net.cpp:434] scale_conv_5b_double_3x3_0 <- conv_5b_double_3x3_0
I1214 22:10:58.462998 32654 net.cpp:395] scale_conv_5b_double_3x3_0 -> conv_5b_double_3x3_0 (in-place)
I1214 22:10:58.463073 32654 layer_factory.hpp:77] Creating layer scale_conv_5b_double_3x3_0
I1214 22:10:58.463265 32654 net.cpp:150] Setting up scale_conv_5b_double_3x3_0
I1214 22:10:58.463290 32654 net.cpp:157] Top shape: 1 224 7 7 (10976)
I1214 22:10:58.463304 32654 net.cpp:165] Memory required for data: 118973572
I1214 22:10:58.463321 32654 layer_factory.hpp:77] Creating layer relu_5b_double_3x3_0
I1214 22:10:58.463338 32654 net.cpp:100] Creating Layer relu_5b_double_3x3_0
I1214 22:10:58.463353 32654 net.cpp:434] relu_5b_double_3x3_0 <- conv_5b_double_3x3_0
I1214 22:10:58.463368 32654 net.cpp:395] relu_5b_double_3x3_0 -> conv_5b_double_3x3_0 (in-place)
I1214 22:10:58.463387 32654 net.cpp:150] Setting up relu_5b_double_3x3_0
I1214 22:10:58.463403 32654 net.cpp:157] Top shape: 1 224 7 7 (10976)
I1214 22:10:58.463415 32654 net.cpp:165] Memory required for data: 119017476
I1214 22:10:58.463443 32654 layer_factory.hpp:77] Creating layer conv_5b_double_3x3_1
I1214 22:10:58.463467 32654 net.cpp:100] Creating Layer conv_5b_double_3x3_1
I1214 22:10:58.463484 32654 net.cpp:434] conv_5b_double_3x3_1 <- conv_5b_double_3x3_0
I1214 22:10:58.463505 32654 net.cpp:408] conv_5b_double_3x3_1 -> conv_5b_double_3x3_1
I1214 22:10:58.465356 32654 net.cpp:150] Setting up conv_5b_double_3x3_1
I1214 22:10:58.465389 32654 net.cpp:157] Top shape: 1 224 7 7 (10976)
I1214 22:10:58.465402 32654 net.cpp:165] Memory required for data: 119061380
I1214 22:10:58.465420 32654 layer_factory.hpp:77] Creating layer bn_5b_double_3x3_1
I1214 22:10:58.465440 32654 net.cpp:100] Creating Layer bn_5b_double_3x3_1
I1214 22:10:58.465454 32654 net.cpp:434] bn_5b_double_3x3_1 <- conv_5b_double_3x3_1
I1214 22:10:58.465474 32654 net.cpp:395] bn_5b_double_3x3_1 -> conv_5b_double_3x3_1 (in-place)
I1214 22:10:58.465762 32654 net.cpp:150] Setting up bn_5b_double_3x3_1
I1214 22:10:58.465786 32654 net.cpp:157] Top shape: 1 224 7 7 (10976)
I1214 22:10:58.465800 32654 net.cpp:165] Memory required for data: 119105284
I1214 22:10:58.465819 32654 layer_factory.hpp:77] Creating layer scale_conv_5b_double_3x3_1
I1214 22:10:58.465842 32654 net.cpp:100] Creating Layer scale_conv_5b_double_3x3_1
I1214 22:10:58.465858 32654 net.cpp:434] scale_conv_5b_double_3x3_1 <- conv_5b_double_3x3_1
I1214 22:10:58.465875 32654 net.cpp:395] scale_conv_5b_double_3x3_1 -> conv_5b_double_3x3_1 (in-place)
I1214 22:10:58.465945 32654 layer_factory.hpp:77] Creating layer scale_conv_5b_double_3x3_1
I1214 22:10:58.466133 32654 net.cpp:150] Setting up scale_conv_5b_double_3x3_1
I1214 22:10:58.466157 32654 net.cpp:157] Top shape: 1 224 7 7 (10976)
I1214 22:10:58.466171 32654 net.cpp:165] Memory required for data: 119149188
I1214 22:10:58.466195 32654 layer_factory.hpp:77] Creating layer relu_5b_double_3x3_1
I1214 22:10:58.466218 32654 net.cpp:100] Creating Layer relu_5b_double_3x3_1
I1214 22:10:58.466234 32654 net.cpp:434] relu_5b_double_3x3_1 <- conv_5b_double_3x3_1
I1214 22:10:58.466250 32654 net.cpp:395] relu_5b_double_3x3_1 -> conv_5b_double_3x3_1 (in-place)
I1214 22:10:58.466280 32654 net.cpp:150] Setting up relu_5b_double_3x3_1
I1214 22:10:58.466297 32654 net.cpp:157] Top shape: 1 224 7 7 (10976)
I1214 22:10:58.466310 32654 net.cpp:165] Memory required for data: 119193092
I1214 22:10:58.466323 32654 layer_factory.hpp:77] Creating layer max_pool_5b_pool
I1214 22:10:58.466341 32654 net.cpp:100] Creating Layer max_pool_5b_pool
I1214 22:10:58.466356 32654 net.cpp:434] max_pool_5b_pool <- ch_concat_5a_chconcat_ch_concat_5a_chconcat_0_split_3
I1214 22:10:58.466374 32654 net.cpp:408] max_pool_5b_pool -> max_pool_5b_pool
I1214 22:10:58.466488 32654 net.cpp:150] Setting up max_pool_5b_pool
I1214 22:10:58.466514 32654 net.cpp:157] Top shape: 1 1024 7 7 (50176)
I1214 22:10:58.466528 32654 net.cpp:165] Memory required for data: 119393796
I1214 22:10:58.466542 32654 layer_factory.hpp:77] Creating layer conv_5b_proj
I1214 22:10:58.466562 32654 net.cpp:100] Creating Layer conv_5b_proj
I1214 22:10:58.466575 32654 net.cpp:434] conv_5b_proj <- max_pool_5b_pool
I1214 22:10:58.466600 32654 net.cpp:408] conv_5b_proj -> conv_5b_proj
I1214 22:10:58.467084 32654 net.cpp:150] Setting up conv_5b_proj
I1214 22:10:58.467109 32654 net.cpp:157] Top shape: 1 128 7 7 (6272)
I1214 22:10:58.467123 32654 net.cpp:165] Memory required for data: 119418884
I1214 22:10:58.467140 32654 layer_factory.hpp:77] Creating layer bn_5b_proj
I1214 22:10:58.467159 32654 net.cpp:100] Creating Layer bn_5b_proj
I1214 22:10:58.467173 32654 net.cpp:434] bn_5b_proj <- conv_5b_proj
I1214 22:10:58.467196 32654 net.cpp:395] bn_5b_proj -> conv_5b_proj (in-place)
I1214 22:10:58.467474 32654 net.cpp:150] Setting up bn_5b_proj
I1214 22:10:58.467499 32654 net.cpp:157] Top shape: 1 128 7 7 (6272)
I1214 22:10:58.467512 32654 net.cpp:165] Memory required for data: 119443972
I1214 22:10:58.467532 32654 layer_factory.hpp:77] Creating layer scale_conv_5b_proj
I1214 22:10:58.467550 32654 net.cpp:100] Creating Layer scale_conv_5b_proj
I1214 22:10:58.467577 32654 net.cpp:434] scale_conv_5b_proj <- conv_5b_proj
I1214 22:10:58.467595 32654 net.cpp:395] scale_conv_5b_proj -> conv_5b_proj (in-place)
I1214 22:10:58.467671 32654 layer_factory.hpp:77] Creating layer scale_conv_5b_proj
I1214 22:10:58.467849 32654 net.cpp:150] Setting up scale_conv_5b_proj
I1214 22:10:58.467875 32654 net.cpp:157] Top shape: 1 128 7 7 (6272)
I1214 22:10:58.467888 32654 net.cpp:165] Memory required for data: 119469060
I1214 22:10:58.467906 32654 layer_factory.hpp:77] Creating layer relu_5b_proj
I1214 22:10:58.467923 32654 net.cpp:100] Creating Layer relu_5b_proj
I1214 22:10:58.467938 32654 net.cpp:434] relu_5b_proj <- conv_5b_proj
I1214 22:10:58.467958 32654 net.cpp:395] relu_5b_proj -> conv_5b_proj (in-place)
I1214 22:10:58.467978 32654 net.cpp:150] Setting up relu_5b_proj
I1214 22:10:58.467994 32654 net.cpp:157] Top shape: 1 128 7 7 (6272)
I1214 22:10:58.468008 32654 net.cpp:165] Memory required for data: 119494148
I1214 22:10:58.468021 32654 layer_factory.hpp:77] Creating layer ch_concat_5b_chconcat
I1214 22:10:58.468039 32654 net.cpp:100] Creating Layer ch_concat_5b_chconcat
I1214 22:10:58.468055 32654 net.cpp:434] ch_concat_5b_chconcat <- conv_5b_1x1
I1214 22:10:58.468070 32654 net.cpp:434] ch_concat_5b_chconcat <- conv_5b_3x3
I1214 22:10:58.468085 32654 net.cpp:434] ch_concat_5b_chconcat <- conv_5b_double_3x3_1
I1214 22:10:58.468099 32654 net.cpp:434] ch_concat_5b_chconcat <- conv_5b_proj
I1214 22:10:58.468116 32654 net.cpp:408] ch_concat_5b_chconcat -> ch_concat_5b_chconcat
I1214 22:10:58.468169 32654 net.cpp:150] Setting up ch_concat_5b_chconcat
I1214 22:10:58.468199 32654 net.cpp:157] Top shape: 1 1024 7 7 (50176)
I1214 22:10:58.468214 32654 net.cpp:165] Memory required for data: 119694852
I1214 22:10:58.468228 32654 layer_factory.hpp:77] Creating layer global_pool
I1214 22:10:58.468245 32654 net.cpp:100] Creating Layer global_pool
I1214 22:10:58.468260 32654 net.cpp:434] global_pool <- ch_concat_5b_chconcat
I1214 22:10:58.468276 32654 net.cpp:408] global_pool -> global_pool
I1214 22:10:58.468327 32654 net.cpp:150] Setting up global_pool
I1214 22:10:58.468350 32654 net.cpp:157] Top shape: 1 1024 1 1 (1024)
I1214 22:10:58.468363 32654 net.cpp:165] Memory required for data: 119698948
I1214 22:10:58.468376 32654 layer_factory.hpp:77] Creating layer fc2
I1214 22:10:58.468397 32654 net.cpp:100] Creating Layer fc2
I1214 22:10:58.468411 32654 net.cpp:434] fc2 <- global_pool
I1214 22:10:58.468428 32654 net.cpp:408] fc2 -> fc2
I1214 22:10:58.468683 32654 net.cpp:150] Setting up fc2
I1214 22:10:58.468709 32654 net.cpp:157] Top shape: 1 7 (7)
I1214 22:10:58.468722 32654 net.cpp:165] Memory required for data: 119698976
I1214 22:10:58.468741 32654 layer_factory.hpp:77] Creating layer loss
I1214 22:10:58.468760 32654 net.cpp:100] Creating Layer loss
I1214 22:10:58.468775 32654 net.cpp:434] loss <- fc2
I1214 22:10:58.468791 32654 net.cpp:434] loss <- label
I1214 22:10:58.468809 32654 net.cpp:408] loss -> (automatic)
I1214 22:10:58.468829 32654 layer_factory.hpp:77] Creating layer loss
…
