…
I0104 02:09:15.233692 16818 net.cpp:322] The NetState phase (0) differed from the phase (1) specified by a rule in layer data_test
I0104 02:09:15.235481 16818 net.cpp:58] Initializing net from parameters: 
name: "Inception21k"
state {
  phase: TRAIN
  level: 0
  stage: ""
}
layer {
  name: "data_train"
  type: "ImageData"
  top: "data"
  top: "label"
  include {
    phase: TRAIN
  }
  transform_param {
    mean_value: 129
  }
  image_data_param {
    source: "../AFEW_Detect/imlist_train_test.txt"
    batch_size: 30
    shuffle: true
    new_height: 224
    new_width: 224
    is_color: true
    root_folder: "../AFEW_Detect/"
  }
}
layer {
  name: "conv_conv1"
  type: "Convolution"
  bottom: "data"
  top: "conv_conv1"
  convolution_param {
    num_output: 96
    pad: 3
    kernel_size: 7
    stride: 2
  }
}
layer {
  name: "bn_conv1"
  type: "BatchNorm"
  bottom: "conv_conv1"
  top: "conv_conv1"
  batch_norm_param {
    use_global_stats: true
  }
}
layer {
  name: "scale_conv_conv1"
  type: "Scale"
  bottom: "conv_conv1"
  top: "conv_conv1"
  scale_param {
    bias_term: true
  }
}
layer {
  name: "relu_conv1"
  type: "ReLU"
  bottom: "conv_conv1"
  top: "conv_conv1"
}
layer {
  name: "pool1"
  type: "Pooling"
  bottom: "conv_conv1"
  top: "pool1"
  pooling_param {
    pool: MAX
    kernel_size: 3
    stride: 2
    pad: 0
  }
}
layer {
  name: "conv_conv2red"
  type: "Convolution"
  bottom: "pool1"
  top: "conv_conv2red"
  convolution_param {
    num_output: 128
    pad: 0
    kernel_size: 1
    stride: 1
  }
}
layer {
  name: "bn_conv2red"
  type: "BatchNorm"
  bottom: "conv_conv2red"
  top: "conv_conv2red"
  batch_norm_param {
    use_global_stats: true
  }
}
layer {
  name: "scale_conv_conv2red"
  type: "Scale"
  bottom: "conv_conv2red"
  top: "conv_conv2red"
  scale_param {
    bias_term: true
  }
}
layer {
  name: "relu_conv2red"
  type: "ReLU"
  bottom: "conv_conv2red"
  top: "conv_conv2red"
}
layer {
  name: "conv_conv2"
  type: "Convolution"
  bottom: "conv_conv2red"
  top: "conv_conv2"
  convolution_param {
    num_output: 288
    pad: 1
    kernel_size: 3
    stride: 1
  }
}
layer {
  name: "bn_conv2"
  type: "BatchNorm"
  bottom: "conv_conv2"
  top: "conv_conv2"
  batch_norm_param {
    use_global_stats: true
  }
}
layer {
  name: "scale_conv_conv2"
  type: "Scale"
  bottom: "conv_conv2"
  top: "conv_conv2"
  scale_param {
    bias_term: true
  }
}
layer {
  name: "relu_conv2"
  type: "ReLU"
  bottom: "conv_conv2"
  top: "conv_conv2"
}
layer {
  name: "pool2"
  type: "Pooling"
  bottom: "conv_conv2"
  top: "pool2"
  pooling_param {
    pool: MAX
    kernel_size: 3
    stride: 2
    pad: 0
  }
}
layer {
  name: "conv_3a_1x1"
  type: "Convolution"
  bottom: "pool2"
  top: "conv_3a_1x1"
  convolution_param {
    num_output: 96
    pad: 0
    kernel_size: 1
    stride: 1
  }
}
layer {
  name: "bn_3a_1x1"
  type: "BatchNorm"
  bottom: "conv_3a_1x1"
  top: "conv_3a_1x1"
  batch_norm_param {
    use_global_stats: true
  }
}
layer {
  name: "scale_conv_3a_1x1"
  type: "Scale"
  bottom: "conv_3a_1x1"
  top: "conv_3a_1x1"
  scale_param {
    bias_term: true
  }
}
layer {
  name: "relu_3a_1x1"
  type: "ReLU"
  bottom: "conv_3a_1x1"
  top: "conv_3a_1x1"
}
layer {
  name: "conv_3a_3x3_reduce"
  type: "Convolution"
  bottom: "pool2"
  top: "conv_3a_3x3_reduce"
  convolution_param {
    num_output: 96
    pad: 0
    kernel_size: 1
    stride: 1
  }
}
layer {
  name: "bn_3a_3x3_reduce"
  type: "BatchNorm"
  bottom: "conv_3a_3x3_reduce"
  top: "conv_3a_3x3_reduce"
  batch_norm_param {
    use_global_stats: true
  }
}
layer {
  name: "scale_conv_3a_3x3_reduce"
  type: "Scale"
  bottom: "conv_3a_3x3_reduce"
  top: "conv_3a_3x3_reduce"
  scale_param {
    bias_term: true
  }
}
layer {
  name: "relu_3a_3x3_reduce"
  type: "ReLU"
  bottom: "conv_3a_3x3_reduce"
  top: "conv_3a_3x3_reduce"
}
layer {
  name: "conv_3a_3x3"
  type: "Convolution"
  bottom: "conv_3a_3x3_reduce"
  top: "conv_3a_3x3"
  convolution_param {
    num_output: 96
    pad: 1
    kernel_size: 3
    stride: 1
  }
}
layer {
  name: "bn_3a_3x3"
  type: "BatchNorm"
  bottom: "conv_3a_3x3"
  top: "conv_3a_3x3"
  batch_norm_param {
    use_global_stats: true
  }
}
layer {
  name: "scale_conv_3a_3x3"
  type: "Scale"
  bottom: "conv_3a_3x3"
  top: "conv_3a_3x3"
  scale_param {
    bias_term: true
  }
}
layer {
  name: "relu_3a_3x3"
  type: "ReLU"
  bottom: "conv_3a_3x3"
  top: "conv_3a_3x3"
}
layer {
  name: "conv_3a_double_3x3_reduce"
  type: "Convolution"
  bottom: "pool2"
  top: "conv_3a_double_3x3_reduce"
  convolution_param {
    num_output: 96
    pad: 0
    kernel_size: 1
    stride: 1
  }
}
layer {
  name: "bn_3a_double_3x3_reduce"
  type: "BatchNorm"
  bottom: "conv_3a_double_3x3_reduce"
  top: "conv_3a_double_3x3_reduce"
  batch_norm_param {
    use_global_stats: true
  }
}
layer {
  name: "scale_conv_3a_double_3x3_reduce"
  type: "Scale"
  bottom: "conv_3a_double_3x3_reduce"
  top: "conv_3a_double_3x3_reduce"
  scale_param {
    bias_term: true
  }
}
layer {
  name: "relu_3a_double_3x3_reduce"
  type: "ReLU"
  bottom: "conv_3a_double_3x3_reduce"
  top: "conv_3a_double_3x3_reduce"
}
layer {
  name: "conv_3a_double_3x3_0"
  type: "Convolution"
  bottom: "conv_3a_double_3x3_reduce"
  top: "conv_3a_double_3x3_0"
  convolution_param {
    num_output: 144
    pad: 1
    kernel_size: 3
    stride: 1
  }
}
layer {
  name: "bn_3a_double_3x3_0"
  type: "BatchNorm"
  bottom: "conv_3a_double_3x3_0"
  top: "conv_3a_double_3x3_0"
  batch_norm_param {
    use_global_stats: true
  }
}
layer {
  name: "scale_conv_3a_double_3x3_0"
  type: "Scale"
  bottom: "conv_3a_double_3x3_0"
  top: "conv_3a_double_3x3_0"
  scale_param {
    bias_term: true
  }
}
layer {
  name: "relu_3a_double_3x3_0"
  type: "ReLU"
  bottom: "conv_3a_double_3x3_0"
  top: "conv_3a_double_3x3_0"
}
layer {
  name: "conv_3a_double_3x3_1"
  type: "Convolution"
  bottom: "conv_3a_double_3x3_0"
  top: "conv_3a_double_3x3_1"
  convolution_param {
    num_output: 144
    pad: 1
    kernel_size: 3
    stride: 1
  }
}
layer {
  name: "bn_3a_double_3x3_1"
  type: "BatchNorm"
  bottom: "conv_3a_double_3x3_1"
  top: "conv_3a_double_3x3_1"
  batch_norm_param {
    use_global_stats: true
  }
}
layer {
  name: "scale_conv_3a_double_3x3_1"
  type: "Scale"
  bottom: "conv_3a_double_3x3_1"
  top: "conv_3a_double_3x3_1"
  scale_param {
    bias_term: true
  }
}
layer {
  name: "relu_3a_double_3x3_1"
  type: "ReLU"
  bottom: "conv_3a_double_3x3_1"
  top: "conv_3a_double_3x3_1"
}
layer {
  name: "ave_pool_3a_pool"
  type: "Pooling"
  bottom: "pool2"
  top: "ave_pool_3a_pool"
  pooling_param {
    pool: AVE
    kernel_size: 3
    stride: 1
    pad: 1
  }
}
layer {
  name: "conv_3a_proj"
  type: "Convolution"
  bottom: "ave_pool_3a_pool"
  top: "conv_3a_proj"
  convolution_param {
    num_output: 48
    pad: 0
    kernel_size: 1
    stride: 1
  }
}
layer {
  name: "bn_3a_proj"
  type: "BatchNorm"
  bottom: "conv_3a_proj"
  top: "conv_3a_proj"
  batch_norm_param {
    use_global_stats: true
  }
}
layer {
  name: "scale_conv_3a_proj"
  type: "Scale"
  bottom: "conv_3a_proj"
  top: "conv_3a_proj"
  scale_param {
    bias_term: true
  }
}
layer {
  name: "relu_3a_proj"
  type: "ReLU"
  bottom: "conv_3a_proj"
  top: "conv_3a_proj"
}
layer {
  name: "ch_concat_3a_chconcat"
  type: "Concat"
  bottom: "conv_3a_1x1"
  bottom: "conv_3a_3x3"
  bottom: "conv_3a_double_3x3_1"
  bottom: "conv_3a_proj"
  top: "ch_concat_3a_chconcat"
}
layer {
  name: "conv_3b_1x1"
  type: "Convolution"
  bottom: "ch_concat_3a_chconcat"
  top: "conv_3b_1x1"
  convolution_param {
    num_output: 96
    pad: 0
    kernel_size: 1
    stride: 1
  }
}
layer {
  name: "bn_3b_1x1"
  type: "BatchNorm"
  bottom: "conv_3b_1x1"
  top: "conv_3b_1x1"
  batch_norm_param {
    use_global_stats: true
  }
}
layer {
  name: "scale_conv_3b_1x1"
  type: "Scale"
  bottom: "conv_3b_1x1"
  top: "conv_3b_1x1"
  scale_param {
    bias_term: true
  }
}
layer {
  name: "relu_3b_1x1"
  type: "ReLU"
  bottom: "conv_3b_1x1"
  top: "conv_3b_1x1"
}
layer {
  name: "conv_3b_3x3_reduce"
  type: "Convolution"
  bottom: "ch_concat_3a_chconcat"
  top: "conv_3b_3x3_reduce"
  convolution_param {
    num_output: 96
    pad: 0
    kernel_size: 1
    stride: 1
  }
}
layer {
  name: "bn_3b_3x3_reduce"
  type: "BatchNorm"
  bottom: "conv_3b_3x3_reduce"
  top: "conv_3b_3x3_reduce"
  batch_norm_param {
    use_global_stats: true
  }
}
layer {
  name: "scale_conv_3b_3x3_reduce"
  type: "Scale"
  bottom: "conv_3b_3x3_reduce"
  top: "conv_3b_3x3_reduce"
  scale_param {
    bias_term: true
  }
}
layer {
  name: "relu_3b_3x3_reduce"
  type: "ReLU"
  bottom: "conv_3b_3x3_reduce"
  top: "conv_3b_3x3_reduce"
}
layer {
  name: "conv_3b_3x3"
  type: "Convolution"
  bottom: "conv_3b_3x3_reduce"
  top: "conv_3b_3x3"
  convolution_param {
    num_output: 144
    pad: 1
    kernel_size: 3
    stride: 1
  }
}
layer {
  name: "bn_3b_3x3"
  type: "BatchNorm"
  bottom: "conv_3b_3x3"
  top: "conv_3b_3x3"
  batch_norm_param {
    use_global_stats: true
  }
}
layer {
  name: "scale_conv_3b_3x3"
  type: "Scale"
  bottom: "conv_3b_3x3"
  top: "conv_3b_3x3"
  scale_param {
    bias_term: true
  }
}
layer {
  name: "relu_3b_3x3"
  type: "ReLU"
  bottom: "conv_3b_3x3"
  top: "conv_3b_3x3"
}
layer {
  name: "conv_3b_double_3x3_reduce"
  type: "Convolution"
  bottom: "ch_concat_3a_chconcat"
  top: "conv_3b_double_3x3_reduce"
  convolution_param {
    num_output: 96
    pad: 0
    kernel_size: 1
    stride: 1
  }
}
layer {
  name: "bn_3b_double_3x3_reduce"
  type: "BatchNorm"
  bottom: "conv_3b_double_3x3_reduce"
  top: "conv_3b_double_3x3_reduce"
  batch_norm_param {
    use_global_stats: true
  }
}
layer {
  name: "scale_conv_3b_double_3x3_reduce"
  type: "Scale"
  bottom: "conv_3b_double_3x3_reduce"
  top: "conv_3b_double_3x3_reduce"
  scale_param {
    bias_term: true
  }
}
layer {
  name: "relu_3b_double_3x3_reduce"
  type: "ReLU"
  bottom: "conv_3b_double_3x3_reduce"
  top: "conv_3b_double_3x3_reduce"
}
layer {
  name: "conv_3b_double_3x3_0"
  type: "Convolution"
  bottom: "conv_3b_double_3x3_reduce"
  top: "conv_3b_double_3x3_0"
  convolution_param {
    num_output: 144
    pad: 1
    kernel_size: 3
    stride: 1
  }
}
layer {
  name: "bn_3b_double_3x3_0"
  type: "BatchNorm"
  bottom: "conv_3b_double_3x3_0"
  top: "conv_3b_double_3x3_0"
  batch_norm_param {
    use_global_stats: true
  }
}
layer {
  name: "scale_conv_3b_double_3x3_0"
  type: "Scale"
  bottom: "conv_3b_double_3x3_0"
  top: "conv_3b_double_3x3_0"
  scale_param {
    bias_term: true
  }
}
layer {
  name: "relu_3b_double_3x3_0"
  type: "ReLU"
  bottom: "conv_3b_double_3x3_0"
  top: "conv_3b_double_3x3_0"
}
layer {
  name: "conv_3b_double_3x3_1"
  type: "Convolution"
  bottom: "conv_3b_double_3x3_0"
  top: "conv_3b_double_3x3_1"
  convolution_param {
    num_output: 144
    pad: 1
    kernel_size: 3
    stride: 1
  }
}
layer {
  name: "bn_3b_double_3x3_1"
  type: "BatchNorm"
  bottom: "conv_3b_double_3x3_1"
  top: "conv_3b_double_3x3_1"
  batch_norm_param {
    use_global_stats: true
  }
}
layer {
  name: "scale_conv_3b_double_3x3_1"
  type: "Scale"
  bottom: "conv_3b_double_3x3_1"
  top: "conv_3b_double_3x3_1"
  scale_param {
    bias_term: true
  }
}
layer {
  name: "relu_3b_double_3x3_1"
  type: "ReLU"
  bottom: "conv_3b_double_3x3_1"
  top: "conv_3b_double_3x3_1"
}
layer {
  name: "ave_pool_3b_pool"
  type: "Pooling"
  bottom: "ch_concat_3a_chconcat"
  top: "ave_pool_3b_pool"
  pooling_param {
    pool: AVE
    kernel_size: 3
    stride: 1
    pad: 1
  }
}
layer {
  name: "conv_3b_proj"
  type: "Convolution"
  bottom: "ave_pool_3b_pool"
  top: "conv_3b_proj"
  convolution_param {
    num_output: 96
    pad: 0
    kernel_size: 1
    stride: 1
  }
}
layer {
  name: "bn_3b_proj"
  type: "BatchNorm"
  bottom: "conv_3b_proj"
  top: "conv_3b_proj"
  batch_norm_param {
    use_global_stats: true
  }
}
layer {
  name: "scale_conv_3b_proj"
  type: "Scale"
  bottom: "conv_3b_proj"
  top: "conv_3b_proj"
  scale_param {
    bias_term: true
  }
}
layer {
  name: "relu_3b_proj"
  type: "ReLU"
  bottom: "conv_3b_proj"
  top: "conv_3b_proj"
}
layer {
  name: "ch_concat_3b_chconcat"
  type: "Concat"
  bottom: "conv_3b_1x1"
  bottom: "conv_3b_3x3"
  bottom: "conv_3b_double_3x3_1"
  bottom: "conv_3b_proj"
  top: "ch_concat_3b_chconcat"
}
layer {
  name: "conv_3c_3x3_reduce"
  type: "Convolution"
  bottom: "ch_concat_3b_chconcat"
  top: "conv_3c_3x3_reduce"
  convolution_param {
    num_output: 192
    pad: 0
    kernel_size: 1
    stride: 1
  }
}
layer {
  name: "bn_3c_3x3_reduce"
  type: "BatchNorm"
  bottom: "conv_3c_3x3_reduce"
  top: "conv_3c_3x3_reduce"
  batch_norm_param {
    use_global_stats: true
  }
}
layer {
  name: "scale_conv_3c_3x3_reduce"
  type: "Scale"
  bottom: "conv_3c_3x3_reduce"
  top: "conv_3c_3x3_reduce"
  scale_param {
    bias_term: true
  }
}
layer {
  name: "relu_3c_3x3_reduce"
  type: "ReLU"
  bottom: "conv_3c_3x3_reduce"
  top: "conv_3c_3x3_reduce"
}
layer {
  name: "conv_3c_3x3"
  type: "Convolution"
  bottom: "conv_3c_3x3_reduce"
  top: "conv_3c_3x3"
  convolution_param {
    num_output: 240
    pad: 1
    kernel_size: 3
    stride: 2
  }
}
layer {
  name: "bn_3c_3x3"
  type: "BatchNorm"
  bottom: "conv_3c_3x3"
  top: "conv_3c_3x3"
  batch_norm_param {
    use_global_stats: true
  }
}
layer {
  name: "scale_conv_3c_3x3"
  type: "Scale"
  bottom: "conv_3c_3x3"
  top: "conv_3c_3x3"
  scale_param {
    bias_term: true
  }
}
layer {
  name: "relu_3c_3x3"
  type: "ReLU"
  bottom: "conv_3c_3x3"
  top: "conv_3c_3x3"
}
layer {
  name: "conv_3c_double_3x3_reduce"
  type: "Convolution"
  bottom: "ch_concat_3b_chconcat"
  top: "conv_3c_double_3x3_reduce"
  convolution_param {
    num_output: 96
    pad: 0
    kernel_size: 1
    stride: 1
  }
}
layer {
  name: "bn_3c_double_3x3_reduce"
  type: "BatchNorm"
  bottom: "conv_3c_double_3x3_reduce"
  top: "conv_3c_double_3x3_reduce"
  batch_norm_param {
    use_global_stats: true
  }
}
layer {
  name: "scale_conv_3c_double_3x3_reduce"
  type: "Scale"
  bottom: "conv_3c_double_3x3_reduce"
  top: "conv_3c_double_3x3_reduce"
  scale_param {
    bias_term: true
  }
}
layer {
  name: "relu_3c_double_3x3_reduce"
  type: "ReLU"
  bottom: "conv_3c_double_3x3_reduce"
  top: "conv_3c_double_3x3_reduce"
}
layer {
  name: "conv_3c_double_3x3_0"
  type: "Convolution"
  bottom: "conv_3c_double_3x3_reduce"
  top: "conv_3c_double_3x3_0"
  convolution_param {
    num_output: 144
    pad: 1
    kernel_size: 3
    stride: 1
  }
}
layer {
  name: "bn_3c_double_3x3_0"
  type: "BatchNorm"
  bottom: "conv_3c_double_3x3_0"
  top: "conv_3c_double_3x3_0"
  batch_norm_param {
    use_global_stats: true
  }
}
layer {
  name: "scale_conv_3c_double_3x3_0"
  type: "Scale"
  bottom: "conv_3c_double_3x3_0"
  top: "conv_3c_double_3x3_0"
  scale_param {
    bias_term: true
  }
}
layer {
  name: "relu_3c_double_3x3_0"
  type: "ReLU"
  bottom: "conv_3c_double_3x3_0"
  top: "conv_3c_double_3x3_0"
}
layer {
  name: "conv_3c_double_3x3_1"
  type: "Convolution"
  bottom: "conv_3c_double_3x3_0"
  top: "conv_3c_double_3x3_1"
  convolution_param {
    num_output: 144
    pad: 1
    kernel_size: 3
    stride: 2
  }
}
layer {
  name: "bn_3c_double_3x3_1"
  type: "BatchNorm"
  bottom: "conv_3c_double_3x3_1"
  top: "conv_3c_double_3x3_1"
  batch_norm_param {
    use_global_stats: true
  }
}
layer {
  name: "scale_conv_3c_double_3x3_1"
  type: "Scale"
  bottom: "conv_3c_double_3x3_1"
  top: "conv_3c_double_3x3_1"
  scale_param {
    bias_term: true
  }
}
layer {
  name: "relu_3c_double_3x3_1"
  type: "ReLU"
  bottom: "conv_3c_double_3x3_1"
  top: "conv_3c_double_3x3_1"
}
layer {
  name: "max_pool_3c_pool"
  type: "Pooling"
  bottom: "ch_concat_3b_chconcat"
  top: "max_pool_3c_pool"
  pooling_param {
    pool: MAX
    kernel_size: 3
    stride: 2
    pad: 0
  }
}
layer {
  name: "ch_concat_3c_chconcat"
  type: "Concat"
  bottom: "conv_3c_3x3"
  bottom: "conv_3c_double_3x3_1"
  bottom: "max_pool_3c_pool"
  top: "ch_concat_3c_chconcat"
}
layer {
  name: "conv_4a_1x1"
  type: "Convolution"
  bottom: "ch_concat_3c_chconcat"
  top: "conv_4a_1x1"
  convolution_param {
    num_output: 224
    pad: 0
    kernel_size: 1
    stride: 1
  }
}
layer {
  name: "bn_4a_1x1"
  type: "BatchNorm"
  bottom: "conv_4a_1x1"
  top: "conv_4a_1x1"
  batch_norm_param {
    use_global_stats: true
  }
}
layer {
  name: "scale_conv_4a_1x1"
  type: "Scale"
  bottom: "conv_4a_1x1"
  top: "conv_4a_1x1"
  scale_param {
    bias_term: true
  }
}
layer {
  name: "relu_4a_1x1"
  type: "ReLU"
  bottom: "conv_4a_1x1"
  top: "conv_4a_1x1"
}
layer {
  name: "conv_4a_3x3_reduce"
  type: "Convolution"
  bottom: "ch_concat_3c_chconcat"
  top: "conv_4a_3x3_reduce"
  convolution_param {
    num_output: 64
    pad: 0
    kernel_size: 1
    stride: 1
  }
}
layer {
  name: "bn_4a_3x3_reduce"
  type: "BatchNorm"
  bottom: "conv_4a_3x3_reduce"
  top: "conv_4a_3x3_reduce"
  batch_norm_param {
    use_global_stats: true
  }
}
layer {
  name: "scale_conv_4a_3x3_reduce"
  type: "Scale"
  bottom: "conv_4a_3x3_reduce"
  top: "conv_4a_3x3_reduce"
  scale_param {
    bias_term: true
  }
}
layer {
  name: "relu_4a_3x3_reduce"
  type: "ReLU"
  bottom: "conv_4a_3x3_reduce"
  top: "conv_4a_3x3_reduce"
}
layer {
  name: "conv_4a_3x3"
  type: "Convolution"
  bottom: "conv_4a_3x3_reduce"
  top: "conv_4a_3x3"
  convolution_param {
    num_output: 96
    pad: 1
    kernel_size: 3
    stride: 1
  }
}
layer {
  name: "bn_4a_3x3"
  type: "BatchNorm"
  bottom: "conv_4a_3x3"
  top: "conv_4a_3x3"
  batch_norm_param {
    use_global_stats: true
  }
}
layer {
  name: "scale_conv_4a_3x3"
  type: "Scale"
  bottom: "conv_4a_3x3"
  top: "conv_4a_3x3"
  scale_param {
    bias_term: true
  }
}
layer {
  name: "relu_4a_3x3"
  type: "ReLU"
  bottom: "conv_4a_3x3"
  top: "conv_4a_3x3"
}
layer {
  name: "conv_4a_double_3x3_reduce"
  type: "Convolution"
  bottom: "ch_concat_3c_chconcat"
  top: "conv_4a_double_3x3_reduce"
  convolution_param {
    num_output: 96
    pad: 0
    kernel_size: 1
    stride: 1
  }
}
layer {
  name: "bn_4a_double_3x3_reduce"
  type: "BatchNorm"
  bottom: "conv_4a_double_3x3_reduce"
  top: "conv_4a_double_3x3_reduce"
  batch_norm_param {
    use_global_stats: true
  }
}
layer {
  name: "scale_conv_4a_double_3x3_reduce"
  type: "Scale"
  bottom: "conv_4a_double_3x3_reduce"
  top: "conv_4a_double_3x3_reduce"
  scale_param {
    bias_term: true
  }
}
layer {
  name: "relu_4a_double_3x3_reduce"
  type: "ReLU"
  bottom: "conv_4a_double_3x3_reduce"
  top: "conv_4a_double_3x3_reduce"
}
layer {
  name: "conv_4a_double_3x3_0"
  type: "Convolution"
  bottom: "conv_4a_double_3x3_reduce"
  top: "conv_4a_double_3x3_0"
  convolution_param {
    num_output: 128
    pad: 1
    kernel_size: 3
    stride: 1
  }
}
layer {
  name: "bn_4a_double_3x3_0"
  type: "BatchNorm"
  bottom: "conv_4a_double_3x3_0"
  top: "conv_4a_double_3x3_0"
  batch_norm_param {
    use_global_stats: true
  }
}
layer {
  name: "scale_conv_4a_double_3x3_0"
  type: "Scale"
  bottom: "conv_4a_double_3x3_0"
  top: "conv_4a_double_3x3_0"
  scale_param {
    bias_term: true
  }
}
layer {
  name: "relu_4a_double_3x3_0"
  type: "ReLU"
  bottom: "conv_4a_double_3x3_0"
  top: "conv_4a_double_3x3_0"
}
layer {
  name: "conv_4a_double_3x3_1"
  type: "Convolution"
  bottom: "conv_4a_double_3x3_0"
  top: "conv_4a_double_3x3_1"
  convolution_param {
    num_output: 128
    pad: 1
    kernel_size: 3
    stride: 1
  }
}
layer {
  name: "bn_4a_double_3x3_1"
  type: "BatchNorm"
  bottom: "conv_4a_double_3x3_1"
  top: "conv_4a_double_3x3_1"
  batch_norm_param {
    use_global_stats: true
  }
}
layer {
  name: "scale_conv_4a_double_3x3_1"
  type: "Scale"
  bottom: "conv_4a_double_3x3_1"
  top: "conv_4a_double_3x3_1"
  scale_param {
    bias_term: true
  }
}
layer {
  name: "relu_4a_double_3x3_1"
  type: "ReLU"
  bottom: "conv_4a_double_3x3_1"
  top: "conv_4a_double_3x3_1"
}
layer {
  name: "ave_pool_4a_pool"
  type: "Pooling"
  bottom: "ch_concat_3c_chconcat"
  top: "ave_pool_4a_pool"
  pooling_param {
    pool: AVE
    kernel_size: 3
    stride: 1
    pad: 1
  }
}
layer {
  name: "conv_4a_proj"
  type: "Convolution"
  bottom: "ave_pool_4a_pool"
  top: "conv_4a_proj"
  convolution_param {
    num_output: 128
    pad: 0
    kernel_size: 1
    stride: 1
  }
}
layer {
  name: "bn_4a_proj"
  type: "BatchNorm"
  bottom: "conv_4a_proj"
  top: "conv_4a_proj"
  batch_norm_param {
    use_global_stats: true
  }
}
layer {
  name: "scale_conv_4a_proj"
  type: "Scale"
  bottom: "conv_4a_proj"
  top: "conv_4a_proj"
  scale_param {
    bias_term: true
  }
}
layer {
  name: "relu_4a_proj"
  type: "ReLU"
  bottom: "conv_4a_proj"
  top: "conv_4a_proj"
}
layer {
  name: "ch_concat_4a_chconcat"
  type: "Concat"
  bottom: "conv_4a_1x1"
  bottom: "conv_4a_3x3"
  bottom: "conv_4a_double_3x3_1"
  bottom: "conv_4a_proj"
  top: "ch_concat_4a_chconcat"
}
layer {
  name: "conv_4b_1x1"
  type: "Convolution"
  bottom: "ch_concat_4a_chconcat"
  top: "conv_4b_1x1"
  convolution_param {
    num_output: 192
    pad: 0
    kernel_size: 1
    stride: 1
  }
}
layer {
  name: "bn_4b_1x1"
  type: "BatchNorm"
  bottom: "conv_4b_1x1"
  top: "conv_4b_1x1"
  batch_norm_param {
    use_global_stats: true
  }
}
layer {
  name: "scale_conv_4b_1x1"
  type: "Scale"
  bottom: "conv_4b_1x1"
  top: "conv_4b_1x1"
  scale_param {
    bias_term: true
  }
}
layer {
  name: "relu_4b_1x1"
  type: "ReLU"
  bottom: "conv_4b_1x1"
  top: "conv_4b_1x1"
}
layer {
  name: "conv_4b_3x3_reduce"
  type: "Convolution"
  bottom: "ch_concat_4a_chconcat"
  top: "conv_4b_3x3_reduce"
  convolution_param {
    num_output: 96
    pad: 0
    kernel_size: 1
    stride: 1
  }
}
layer {
  name: "bn_4b_3x3_reduce"
  type: "BatchNorm"
  bottom: "conv_4b_3x3_reduce"
  top: "conv_4b_3x3_reduce"
  batch_norm_param {
    use_global_stats: true
  }
}
layer {
  name: "scale_conv_4b_3x3_reduce"
  type: "Scale"
  bottom: "conv_4b_3x3_reduce"
  top: "conv_4b_3x3_reduce"
  scale_param {
    bias_term: true
  }
}
layer {
  name: "relu_4b_3x3_reduce"
  type: "ReLU"
  bottom: "conv_4b_3x3_reduce"
  top: "conv_4b_3x3_reduce"
}
layer {
  name: "conv_4b_3x3"
  type: "Convolution"
  bottom: "conv_4b_3x3_reduce"
  top: "conv_4b_3x3"
  convolution_param {
    num_output: 128
    pad: 1
    kernel_size: 3
    stride: 1
  }
}
layer {
  name: "bn_4b_3x3"
  type: "BatchNorm"
  bottom: "conv_4b_3x3"
  top: "conv_4b_3x3"
  batch_norm_param {
    use_global_stats: true
  }
}
layer {
  name: "scale_conv_4b_3x3"
  type: "Scale"
  bottom: "conv_4b_3x3"
  top: "conv_4b_3x3"
  scale_param {
    bias_term: true
  }
}
layer {
  name: "relu_4b_3x3"
  type: "ReLU"
  bottom: "conv_4b_3x3"
  top: "conv_4b_3x3"
}
layer {
  name: "conv_4b_double_3x3_reduce"
  type: "Convolution"
  bottom: "ch_concat_4a_chconcat"
  top: "conv_4b_double_3x3_reduce"
  convolution_param {
    num_output: 96
    pad: 0
    kernel_size: 1
    stride: 1
  }
}
layer {
  name: "bn_4b_double_3x3_reduce"
  type: "BatchNorm"
  bottom: "conv_4b_double_3x3_reduce"
  top: "conv_4b_double_3x3_reduce"
  batch_norm_param {
    use_global_stats: true
  }
}
layer {
  name: "scale_conv_4b_double_3x3_reduce"
  type: "Scale"
  bottom: "conv_4b_double_3x3_reduce"
  top: "conv_4b_double_3x3_reduce"
  scale_param {
    bias_term: true
  }
}
layer {
  name: "relu_4b_double_3x3_reduce"
  type: "ReLU"
  bottom: "conv_4b_double_3x3_reduce"
  top: "conv_4b_double_3x3_reduce"
}
layer {
  name: "conv_4b_double_3x3_0"
  type: "Convolution"
  bottom: "conv_4b_double_3x3_reduce"
  top: "conv_4b_double_3x3_0"
  convolution_param {
    num_output: 128
    pad: 1
    kernel_size: 3
    stride: 1
  }
}
layer {
  name: "bn_4b_double_3x3_0"
  type: "BatchNorm"
  bottom: "conv_4b_double_3x3_0"
  top: "conv_4b_double_3x3_0"
  batch_norm_param {
    use_global_stats: true
  }
}
layer {
  name: "scale_conv_4b_double_3x3_0"
  type: "Scale"
  bottom: "conv_4b_double_3x3_0"
  top: "conv_4b_double_3x3_0"
  scale_param {
    bias_term: true
  }
}
layer {
  name: "relu_4b_double_3x3_0"
  type: "ReLU"
  bottom: "conv_4b_double_3x3_0"
  top: "conv_4b_double_3x3_0"
}
layer {
  name: "conv_4b_double_3x3_1"
  type: "Convolution"
  bottom: "conv_4b_double_3x3_0"
  top: "conv_4b_double_3x3_1"
  convolution_param {
    num_output: 128
    pad: 1
    kernel_size: 3
    stride: 1
  }
}
layer {
  name: "bn_4b_double_3x3_1"
  type: "BatchNorm"
  bottom: "conv_4b_double_3x3_1"
  top: "conv_4b_double_3x3_1"
  batch_norm_param {
    use_global_stats: true
  }
}
layer {
  name: "scale_conv_4b_double_3x3_1"
  type: "Scale"
  bottom: "conv_4b_double_3x3_1"
  top: "conv_4b_double_3x3_1"
  scale_param {
    bias_term: true
  }
}
layer {
  name: "relu_4b_double_3x3_1"
  type: "ReLU"
  bottom: "conv_4b_double_3x3_1"
  top: "conv_4b_double_3x3_1"
}
layer {
  name: "ave_pool_4b_pool"
  type: "Pooling"
  bottom: "ch_concat_4a_chconcat"
  top: "ave_pool_4b_pool"
  pooling_param {
    pool: AVE
    kernel_size: 3
    stride: 1
    pad: 1
  }
}
layer {
  name: "conv_4b_proj"
  type: "Convolution"
  bottom: "ave_pool_4b_pool"
  top: "conv_4b_proj"
  convolution_param {
    num_output: 128
    pad: 0
    kernel_size: 1
    stride: 1
  }
}
layer {
  name: "bn_4b_proj"
  type: "BatchNorm"
  bottom: "conv_4b_proj"
  top: "conv_4b_proj"
  batch_norm_param {
    use_global_stats: true
  }
}
layer {
  name: "scale_conv_4b_proj"
  type: "Scale"
  bottom: "conv_4b_proj"
  top: "conv_4b_proj"
  scale_param {
    bias_term: true
  }
}
layer {
  name: "relu_4b_proj"
  type: "ReLU"
  bottom: "conv_4b_proj"
  top: "conv_4b_proj"
}
layer {
  name: "ch_concat_4b_chconcat"
  type: "Concat"
  bottom: "conv_4b_1x1"
  bottom: "conv_4b_3x3"
  bottom: "conv_4b_double_3x3_1"
  bottom: "conv_4b_proj"
  top: "ch_concat_4b_chconcat"
}
layer {
  name: "conv_4c_1x1"
  type: "Convolution"
  bottom: "ch_concat_4b_chconcat"
  top: "conv_4c_1x1"
  convolution_param {
    num_output: 160
    pad: 0
    kernel_size: 1
    stride: 1
  }
}
layer {
  name: "bn_4c_1x1"
  type: "BatchNorm"
  bottom: "conv_4c_1x1"
  top: "conv_4c_1x1"
  batch_norm_param {
    use_global_stats: true
  }
}
layer {
  name: "scale_conv_4c_1x1"
  type: "Scale"
  bottom: "conv_4c_1x1"
  top: "conv_4c_1x1"
  scale_param {
    bias_term: true
  }
}
layer {
  name: "relu_4c_1x1"
  type: "ReLU"
  bottom: "conv_4c_1x1"
  top: "conv_4c_1x1"
}
layer {
  name: "conv_4c_3x3_reduce"
  type: "Convolution"
  bottom: "ch_concat_4b_chconcat"
  top: "conv_4c_3x3_reduce"
  convolution_param {
    num_output: 128
    pad: 0
    kernel_size: 1
    stride: 1
  }
}
layer {
  name: "bn_4c_3x3_reduce"
  type: "BatchNorm"
  bottom: "conv_4c_3x3_reduce"
  top: "conv_4c_3x3_reduce"
  batch_norm_param {
    use_global_stats: true
  }
}
layer {
  name: "scale_conv_4c_3x3_reduce"
  type: "Scale"
  bottom: "conv_4c_3x3_reduce"
  top: "conv_4c_3x3_reduce"
  scale_param {
    bias_term: true
  }
}
layer {
  name: "relu_4c_3x3_reduce"
  type: "ReLU"
  bottom: "conv_4c_3x3_reduce"
  top: "conv_4c_3x3_reduce"
}
layer {
  name: "conv_4c_3x3"
  type: "Convolution"
  bottom: "conv_4c_3x3_reduce"
  top: "conv_4c_3x3"
  convolution_param {
    num_output: 160
    pad: 1
    kernel_size: 3
    stride: 1
  }
}
layer {
  name: "bn_4c_3x3"
  type: "BatchNorm"
  bottom: "conv_4c_3x3"
  top: "conv_4c_3x3"
  batch_norm_param {
    use_global_stats: true
  }
}
layer {
  name: "scale_conv_4c_3x3"
  type: "Scale"
  bottom: "conv_4c_3x3"
  top: "conv_4c_3x3"
  scale_param {
    bias_term: true
  }
}
layer {
  name: "relu_4c_3x3"
  type: "ReLU"
  bottom: "conv_4c_3x3"
  top: "conv_4c_3x3"
}
layer {
  name: "conv_4c_double_3x3_reduce"
  type: "Convolution"
  bottom: "ch_concat_4b_chconcat"
  top: "conv_4c_double_3x3_reduce"
  convolution_param {
    num_output: 128
    pad: 0
    kernel_size: 1
    stride: 1
  }
}
layer {
  name: "bn_4c_double_3x3_reduce"
  type: "BatchNorm"
  bottom: "conv_4c_double_3x3_reduce"
  top: "conv_4c_double_3x3_reduce"
  batch_norm_param {
    use_global_stats: true
  }
}
layer {
  name: "scale_conv_4c_double_3x3_reduce"
  type: "Scale"
  bottom: "conv_4c_double_3x3_reduce"
  top: "conv_4c_double_3x3_reduce"
  scale_param {
    bias_term: true
  }
}
layer {
  name: "relu_4c_double_3x3_reduce"
  type: "ReLU"
  bottom: "conv_4c_double_3x3_reduce"
  top: "conv_4c_double_3x3_reduce"
}
layer {
  name: "conv_4c_double_3x3_0"
  type: "Convolution"
  bottom: "conv_4c_double_3x3_reduce"
  top: "conv_4c_double_3x3_0"
  convolution_param {
    num_output: 160
    pad: 1
    kernel_size: 3
    stride: 1
  }
}
layer {
  name: "bn_4c_double_3x3_0"
  type: "BatchNorm"
  bottom: "conv_4c_double_3x3_0"
  top: "conv_4c_double_3x3_0"
  batch_norm_param {
    use_global_stats: true
  }
}
layer {
  name: "scale_conv_4c_double_3x3_0"
  type: "Scale"
  bottom: "conv_4c_double_3x3_0"
  top: "conv_4c_double_3x3_0"
  scale_param {
    bias_term: true
  }
}
layer {
  name: "relu_4c_double_3x3_0"
  type: "ReLU"
  bottom: "conv_4c_double_3x3_0"
  top: "conv_4c_double_3x3_0"
}
layer {
  name: "conv_4c_double_3x3_1"
  type: "Convolution"
  bottom: "conv_4c_double_3x3_0"
  top: "conv_4c_double_3x3_1"
  convolution_param {
    num_output: 160
    pad: 1
    kernel_size: 3
    stride: 1
  }
}
layer {
  name: "bn_4c_double_3x3_1"
  type: "BatchNorm"
  bottom: "conv_4c_double_3x3_1"
  top: "conv_4c_double_3x3_1"
  batch_norm_param {
    use_global_stats: true
  }
}
layer {
  name: "scale_conv_4c_double_3x3_1"
  type: "Scale"
  bottom: "conv_4c_double_3x3_1"
  top: "conv_4c_double_3x3_1"
  scale_param {
    bias_term: true
  }
}
layer {
  name: "relu_4c_double_3x3_1"
  type: "ReLU"
  bottom: "conv_4c_double_3x3_1"
  top: "conv_4c_double_3x3_1"
}
layer {
  name: "ave_pool_4c_pool"
  type: "Pooling"
  bottom: "ch_concat_4b_chconcat"
  top: "ave_pool_4c_pool"
  pooling_param {
    pool: AVE
    kernel_size: 3
    stride: 1
    pad: 1
  }
}
layer {
  name: "conv_4c_proj"
  type: "Convolution"
  bottom: "ave_pool_4c_pool"
  top: "conv_4c_proj"
  convolution_param {
    num_output: 128
    pad: 0
    kernel_size: 1
    stride: 1
  }
}
layer {
  name: "bn_4c_proj"
  type: "BatchNorm"
  bottom: "conv_4c_proj"
  top: "conv_4c_proj"
  batch_norm_param {
    use_globa
I0104 02:09:15.240886 16818 layer_factory.hpp:77] Creating layer data_train
I0104 02:09:15.240969 16818 net.cpp:100] Creating Layer data_train
I0104 02:09:15.240993 16818 net.cpp:408] data_train -> data
I0104 02:09:15.241034 16818 net.cpp:408] data_train -> label
I0104 02:09:15.241081 16818 image_data_layer.cpp:38] Opening file ../AFEW_Detect/imlist_train_test.txt
I0104 02:09:15.269721 16818 image_data_layer.cpp:53] Shuffling data
I0104 02:09:15.279618 16818 image_data_layer.cpp:58] A total of 27332 images.
I0104 02:09:15.314908 16818 image_data_layer.cpp:85] output data size: 30,3,224,224
I0104 02:09:15.354848 16818 net.cpp:150] Setting up data_train
I0104 02:09:15.356530 16818 net.cpp:157] Top shape: 30 3 224 224 (4515840)
I0104 02:09:15.356607 16818 net.cpp:157] Top shape: 30 (30)
I0104 02:09:15.356626 16818 net.cpp:165] Memory required for data: 18063480
I0104 02:09:15.356657 16818 layer_factory.hpp:77] Creating layer label_data_train_1_split
I0104 02:09:15.356724 16818 net.cpp:100] Creating Layer label_data_train_1_split
I0104 02:09:15.356750 16818 net.cpp:434] label_data_train_1_split <- label
I0104 02:09:15.356808 16818 net.cpp:408] label_data_train_1_split -> label_data_train_1_split_0
I0104 02:09:15.356854 16818 net.cpp:408] label_data_train_1_split -> label_data_train_1_split_1
I0104 02:09:15.357059 16818 net.cpp:150] Setting up label_data_train_1_split
I0104 02:09:15.357084 16818 net.cpp:157] Top shape: 30 (30)
I0104 02:09:15.357100 16818 net.cpp:157] Top shape: 30 (30)
I0104 02:09:15.357113 16818 net.cpp:165] Memory required for data: 18063720
I0104 02:09:15.357130 16818 layer_factory.hpp:77] Creating layer conv_conv1
I0104 02:09:15.357199 16818 net.cpp:100] Creating Layer conv_conv1
I0104 02:09:15.357220 16818 net.cpp:434] conv_conv1 <- data
I0104 02:09:15.357249 16818 net.cpp:408] conv_conv1 -> conv_conv1
I0104 02:09:15.361804 16818 net.cpp:150] Setting up conv_conv1
I0104 02:09:15.361894 16818 net.cpp:157] Top shape: 30 96 112 112 (36126720)
I0104 02:09:15.361943 16818 net.cpp:165] Memory required for data: 162570600
I0104 02:09:15.362027 16818 layer_factory.hpp:77] Creating layer bn_conv1
I0104 02:09:15.362071 16818 net.cpp:100] Creating Layer bn_conv1
I0104 02:09:15.362112 16818 net.cpp:434] bn_conv1 <- conv_conv1
I0104 02:09:15.362148 16818 net.cpp:395] bn_conv1 -> conv_conv1 (in-place)
I0104 02:09:15.362583 16818 net.cpp:150] Setting up bn_conv1
I0104 02:09:15.362622 16818 net.cpp:157] Top shape: 30 96 112 112 (36126720)
I0104 02:09:15.362645 16818 net.cpp:165] Memory required for data: 307077480
I0104 02:09:15.362689 16818 layer_factory.hpp:77] Creating layer scale_conv_conv1
I0104 02:09:15.362730 16818 net.cpp:100] Creating Layer scale_conv_conv1
I0104 02:09:15.362756 16818 net.cpp:434] scale_conv_conv1 <- conv_conv1
I0104 02:09:15.362787 16818 net.cpp:395] scale_conv_conv1 -> conv_conv1 (in-place)
I0104 02:09:15.362908 16818 layer_factory.hpp:77] Creating layer scale_conv_conv1
I0104 02:09:15.363227 16818 net.cpp:150] Setting up scale_conv_conv1
I0104 02:09:15.363265 16818 net.cpp:157] Top shape: 30 96 112 112 (36126720)
I0104 02:09:15.363289 16818 net.cpp:165] Memory required for data: 451584360
I0104 02:09:15.363322 16818 layer_factory.hpp:77] Creating layer relu_conv1
I0104 02:09:15.363360 16818 net.cpp:100] Creating Layer relu_conv1
I0104 02:09:15.363386 16818 net.cpp:434] relu_conv1 <- conv_conv1
I0104 02:09:15.363416 16818 net.cpp:395] relu_conv1 -> conv_conv1 (in-place)
I0104 02:09:15.363452 16818 net.cpp:150] Setting up relu_conv1
I0104 02:09:15.363482 16818 net.cpp:157] Top shape: 30 96 112 112 (36126720)
I0104 02:09:15.363505 16818 net.cpp:165] Memory required for data: 596091240
I0104 02:09:15.363530 16818 layer_factory.hpp:77] Creating layer pool1
I0104 02:09:15.363567 16818 net.cpp:100] Creating Layer pool1
I0104 02:09:15.363595 16818 net.cpp:434] pool1 <- conv_conv1
I0104 02:09:15.363627 16818 net.cpp:408] pool1 -> pool1
I0104 02:09:15.363744 16818 net.cpp:150] Setting up pool1
I0104 02:09:15.363780 16818 net.cpp:157] Top shape: 30 96 56 56 (9031680)
I0104 02:09:15.363806 16818 net.cpp:165] Memory required for data: 632217960
I0104 02:09:15.363831 16818 layer_factory.hpp:77] Creating layer conv_conv2red
I0104 02:09:15.363869 16818 net.cpp:100] Creating Layer conv_conv2red
I0104 02:09:15.363896 16818 net.cpp:434] conv_conv2red <- pool1
I0104 02:09:15.363929 16818 net.cpp:408] conv_conv2red -> conv_conv2red
I0104 02:09:15.365470 16818 net.cpp:150] Setting up conv_conv2red
I0104 02:09:15.365520 16818 net.cpp:157] Top shape: 30 128 56 56 (12042240)
I0104 02:09:15.365545 16818 net.cpp:165] Memory required for data: 680386920
I0104 02:09:15.365597 16818 layer_factory.hpp:77] Creating layer bn_conv2red
I0104 02:09:15.365643 16818 net.cpp:100] Creating Layer bn_conv2red
I0104 02:09:15.365664 16818 net.cpp:434] bn_conv2red <- conv_conv2red
I0104 02:09:15.365694 16818 net.cpp:395] bn_conv2red -> conv_conv2red (in-place)
I0104 02:09:15.366092 16818 net.cpp:150] Setting up bn_conv2red
I0104 02:09:15.366129 16818 net.cpp:157] Top shape: 30 128 56 56 (12042240)
I0104 02:09:15.366156 16818 net.cpp:165] Memory required for data: 728555880
I0104 02:09:15.366205 16818 layer_factory.hpp:77] Creating layer scale_conv_conv2red
I0104 02:09:15.366241 16818 net.cpp:100] Creating Layer scale_conv_conv2red
I0104 02:09:15.366267 16818 net.cpp:434] scale_conv_conv2red <- conv_conv2red
I0104 02:09:15.366298 16818 net.cpp:395] scale_conv_conv2red -> conv_conv2red (in-place)
I0104 02:09:15.366403 16818 layer_factory.hpp:77] Creating layer scale_conv_conv2red
I0104 02:09:15.366647 16818 net.cpp:150] Setting up scale_conv_conv2red
I0104 02:09:15.366680 16818 net.cpp:157] Top shape: 30 128 56 56 (12042240)
I0104 02:09:15.366704 16818 net.cpp:165] Memory required for data: 776724840
I0104 02:09:15.366737 16818 layer_factory.hpp:77] Creating layer relu_conv2red
I0104 02:09:15.366772 16818 net.cpp:100] Creating Layer relu_conv2red
I0104 02:09:15.366798 16818 net.cpp:434] relu_conv2red <- conv_conv2red
I0104 02:09:15.366828 16818 net.cpp:395] relu_conv2red -> conv_conv2red (in-place)
I0104 02:09:15.366883 16818 net.cpp:150] Setting up relu_conv2red
I0104 02:09:15.366911 16818 net.cpp:157] Top shape: 30 128 56 56 (12042240)
I0104 02:09:15.366936 16818 net.cpp:165] Memory required for data: 824893800
I0104 02:09:15.366961 16818 layer_factory.hpp:77] Creating layer conv_conv2
I0104 02:09:15.367000 16818 net.cpp:100] Creating Layer conv_conv2
I0104 02:09:15.367028 16818 net.cpp:434] conv_conv2 <- conv_conv2red
I0104 02:09:15.367060 16818 net.cpp:408] conv_conv2 -> conv_conv2
I0104 02:09:15.370036 16818 net.cpp:150] Setting up conv_conv2
I0104 02:09:15.370111 16818 net.cpp:157] Top shape: 30 288 56 56 (27095040)
I0104 02:09:15.370138 16818 net.cpp:165] Memory required for data: 933273960
I0104 02:09:15.370175 16818 layer_factory.hpp:77] Creating layer bn_conv2
I0104 02:09:15.370224 16818 net.cpp:100] Creating Layer bn_conv2
I0104 02:09:15.370252 16818 net.cpp:434] bn_conv2 <- conv_conv2
I0104 02:09:15.370290 16818 net.cpp:395] bn_conv2 -> conv_conv2 (in-place)
I0104 02:09:15.370702 16818 net.cpp:150] Setting up bn_conv2
I0104 02:09:15.370738 16818 net.cpp:157] Top shape: 30 288 56 56 (27095040)
I0104 02:09:15.370762 16818 net.cpp:165] Memory required for data: 1041654120
I0104 02:09:15.370813 16818 layer_factory.hpp:77] Creating layer scale_conv_conv2
I0104 02:09:15.370857 16818 net.cpp:100] Creating Layer scale_conv_conv2
I0104 02:09:15.370885 16818 net.cpp:434] scale_conv_conv2 <- conv_conv2
I0104 02:09:15.370916 16818 net.cpp:395] scale_conv_conv2 -> conv_conv2 (in-place)
I0104 02:09:15.371026 16818 layer_factory.hpp:77] Creating layer scale_conv_conv2
I0104 02:09:15.371311 16818 net.cpp:150] Setting up scale_conv_conv2
I0104 02:09:15.371347 16818 net.cpp:157] Top shape: 30 288 56 56 (27095040)
I0104 02:09:15.371371 16818 net.cpp:165] Memory required for data: 1150034280
I0104 02:09:15.371404 16818 layer_factory.hpp:77] Creating layer relu_conv2
I0104 02:09:15.371436 16818 net.cpp:100] Creating Layer relu_conv2
I0104 02:09:15.371461 16818 net.cpp:434] relu_conv2 <- conv_conv2
I0104 02:09:15.371493 16818 net.cpp:395] relu_conv2 -> conv_conv2 (in-place)
I0104 02:09:15.371526 16818 net.cpp:150] Setting up relu_conv2
I0104 02:09:15.371554 16818 net.cpp:157] Top shape: 30 288 56 56 (27095040)
I0104 02:09:15.371579 16818 net.cpp:165] Memory required for data: 1258414440
I0104 02:09:15.371603 16818 layer_factory.hpp:77] Creating layer pool2
I0104 02:09:15.371632 16818 net.cpp:100] Creating Layer pool2
I0104 02:09:15.371657 16818 net.cpp:434] pool2 <- conv_conv2
I0104 02:09:15.371688 16818 net.cpp:408] pool2 -> pool2
I0104 02:09:15.371793 16818 net.cpp:150] Setting up pool2
I0104 02:09:15.371829 16818 net.cpp:157] Top shape: 30 288 28 28 (6773760)
I0104 02:09:15.371851 16818 net.cpp:165] Memory required for data: 1285509480
I0104 02:09:15.371875 16818 layer_factory.hpp:77] Creating layer pool2_pool2_0_split
I0104 02:09:15.371917 16818 net.cpp:100] Creating Layer pool2_pool2_0_split
I0104 02:09:15.371944 16818 net.cpp:434] pool2_pool2_0_split <- pool2
I0104 02:09:15.371975 16818 net.cpp:408] pool2_pool2_0_split -> pool2_pool2_0_split_0
I0104 02:09:15.372012 16818 net.cpp:408] pool2_pool2_0_split -> pool2_pool2_0_split_1
I0104 02:09:15.372050 16818 net.cpp:408] pool2_pool2_0_split -> pool2_pool2_0_split_2
I0104 02:09:15.372086 16818 net.cpp:408] pool2_pool2_0_split -> pool2_pool2_0_split_3
I0104 02:09:15.372231 16818 net.cpp:150] Setting up pool2_pool2_0_split
I0104 02:09:15.372267 16818 net.cpp:157] Top shape: 30 288 28 28 (6773760)
I0104 02:09:15.372295 16818 net.cpp:157] Top shape: 30 288 28 28 (6773760)
I0104 02:09:15.372323 16818 net.cpp:157] Top shape: 30 288 28 28 (6773760)
I0104 02:09:15.372349 16818 net.cpp:157] Top shape: 30 288 28 28 (6773760)
I0104 02:09:15.372375 16818 net.cpp:165] Memory required for data: 1393889640
I0104 02:09:15.372398 16818 layer_factory.hpp:77] Creating layer conv_3a_1x1
I0104 02:09:15.372442 16818 net.cpp:100] Creating Layer conv_3a_1x1
I0104 02:09:15.372470 16818 net.cpp:434] conv_3a_1x1 <- pool2_pool2_0_split_0
I0104 02:09:15.372503 16818 net.cpp:408] conv_3a_1x1 -> conv_3a_1x1
I0104 02:09:15.374006 16818 net.cpp:150] Setting up conv_3a_1x1
I0104 02:09:15.374050 16818 net.cpp:157] Top shape: 30 96 28 28 (2257920)
I0104 02:09:15.374076 16818 net.cpp:165] Memory required for data: 1402921320
I0104 02:09:15.374109 16818 layer_factory.hpp:77] Creating layer bn_3a_1x1
I0104 02:09:15.374145 16818 net.cpp:100] Creating Layer bn_3a_1x1
I0104 02:09:15.374172 16818 net.cpp:434] bn_3a_1x1 <- conv_3a_1x1
I0104 02:09:15.374210 16818 net.cpp:395] bn_3a_1x1 -> conv_3a_1x1 (in-place)
I0104 02:09:15.374621 16818 net.cpp:150] Setting up bn_3a_1x1
I0104 02:09:15.374661 16818 net.cpp:157] Top shape: 30 96 28 28 (2257920)
I0104 02:09:15.374686 16818 net.cpp:165] Memory required for data: 1411953000
I0104 02:09:15.374722 16818 layer_factory.hpp:77] Creating layer scale_conv_3a_1x1
I0104 02:09:15.374757 16818 net.cpp:100] Creating Layer scale_conv_3a_1x1
I0104 02:09:15.374780 16818 net.cpp:434] scale_conv_3a_1x1 <- conv_3a_1x1
I0104 02:09:15.374810 16818 net.cpp:395] scale_conv_3a_1x1 -> conv_3a_1x1 (in-place)
I0104 02:09:15.374918 16818 layer_factory.hpp:77] Creating layer scale_conv_3a_1x1
I0104 02:09:15.375188 16818 net.cpp:150] Setting up scale_conv_3a_1x1
I0104 02:09:15.375224 16818 net.cpp:157] Top shape: 30 96 28 28 (2257920)
I0104 02:09:15.375252 16818 net.cpp:165] Memory required for data: 1420984680
I0104 02:09:15.375283 16818 layer_factory.hpp:77] Creating layer relu_3a_1x1
I0104 02:09:15.375313 16818 net.cpp:100] Creating Layer relu_3a_1x1
I0104 02:09:15.375339 16818 net.cpp:434] relu_3a_1x1 <- conv_3a_1x1
I0104 02:09:15.375373 16818 net.cpp:395] relu_3a_1x1 -> conv_3a_1x1 (in-place)
I0104 02:09:15.375406 16818 net.cpp:150] Setting up relu_3a_1x1
I0104 02:09:15.375434 16818 net.cpp:157] Top shape: 30 96 28 28 (2257920)
I0104 02:09:15.375458 16818 net.cpp:165] Memory required for data: 1430016360
I0104 02:09:15.375494 16818 layer_factory.hpp:77] Creating layer conv_3a_3x3_reduce
I0104 02:09:15.375525 16818 net.cpp:100] Creating Layer conv_3a_3x3_reduce
I0104 02:09:15.375550 16818 net.cpp:434] conv_3a_3x3_reduce <- pool2_pool2_0_split_1
I0104 02:09:15.375586 16818 net.cpp:408] conv_3a_3x3_reduce -> conv_3a_3x3_reduce
I0104 02:09:15.376068 16818 net.cpp:150] Setting up conv_3a_3x3_reduce
I0104 02:09:15.376106 16818 net.cpp:157] Top shape: 30 96 28 28 (2257920)
I0104 02:09:15.376128 16818 net.cpp:165] Memory required for data: 1439048040
I0104 02:09:15.376161 16818 layer_factory.hpp:77] Creating layer bn_3a_3x3_reduce
I0104 02:09:15.376207 16818 net.cpp:100] Creating Layer bn_3a_3x3_reduce
I0104 02:09:15.376235 16818 net.cpp:434] bn_3a_3x3_reduce <- conv_3a_3x3_reduce
I0104 02:09:15.376263 16818 net.cpp:395] bn_3a_3x3_reduce -> conv_3a_3x3_reduce (in-place)
I0104 02:09:15.376646 16818 net.cpp:150] Setting up bn_3a_3x3_reduce
I0104 02:09:15.376682 16818 net.cpp:157] Top shape: 30 96 28 28 (2257920)
I0104 02:09:15.376709 16818 net.cpp:165] Memory required for data: 1448079720
I0104 02:09:15.376754 16818 layer_factory.hpp:77] Creating layer scale_conv_3a_3x3_reduce
I0104 02:09:15.376788 16818 net.cpp:100] Creating Layer scale_conv_3a_3x3_reduce
I0104 02:09:15.376809 16818 net.cpp:434] scale_conv_3a_3x3_reduce <- conv_3a_3x3_reduce
I0104 02:09:15.376837 16818 net.cpp:395] scale_conv_3a_3x3_reduce -> conv_3a_3x3_reduce (in-place)
I0104 02:09:15.376925 16818 layer_factory.hpp:77] Creating layer scale_conv_3a_3x3_reduce
I0104 02:09:15.377199 16818 net.cpp:150] Setting up scale_conv_3a_3x3_reduce
I0104 02:09:15.377233 16818 net.cpp:157] Top shape: 30 96 28 28 (2257920)
I0104 02:09:15.377255 16818 net.cpp:165] Memory required for data: 1457111400
I0104 02:09:15.377285 16818 layer_factory.hpp:77] Creating layer relu_3a_3x3_reduce
I0104 02:09:15.377313 16818 net.cpp:100] Creating Layer relu_3a_3x3_reduce
I0104 02:09:15.377338 16818 net.cpp:434] relu_3a_3x3_reduce <- conv_3a_3x3_reduce
I0104 02:09:15.377377 16818 net.cpp:395] relu_3a_3x3_reduce -> conv_3a_3x3_reduce (in-place)
I0104 02:09:15.377409 16818 net.cpp:150] Setting up relu_3a_3x3_reduce
I0104 02:09:15.377436 16818 net.cpp:157] Top shape: 30 96 28 28 (2257920)
I0104 02:09:15.377472 16818 net.cpp:165] Memory required for data: 1466143080
I0104 02:09:15.377503 16818 layer_factory.hpp:77] Creating layer conv_3a_3x3
I0104 02:09:15.377539 16818 net.cpp:100] Creating Layer conv_3a_3x3
I0104 02:09:15.377560 16818 net.cpp:434] conv_3a_3x3 <- conv_3a_3x3_reduce
I0104 02:09:15.377595 16818 net.cpp:408] conv_3a_3x3 -> conv_3a_3x3
I0104 02:09:15.379297 16818 net.cpp:150] Setting up conv_3a_3x3
I0104 02:09:15.379345 16818 net.cpp:157] Top shape: 30 96 28 28 (2257920)
I0104 02:09:15.379370 16818 net.cpp:165] Memory required for data: 1475174760
I0104 02:09:15.379402 16818 layer_factory.hpp:77] Creating layer bn_3a_3x3
I0104 02:09:15.379441 16818 net.cpp:100] Creating Layer bn_3a_3x3
I0104 02:09:15.379467 16818 net.cpp:434] bn_3a_3x3 <- conv_3a_3x3
I0104 02:09:15.379495 16818 net.cpp:395] bn_3a_3x3 -> conv_3a_3x3 (in-place)
I0104 02:09:15.379896 16818 net.cpp:150] Setting up bn_3a_3x3
I0104 02:09:15.379932 16818 net.cpp:157] Top shape: 30 96 28 28 (2257920)
I0104 02:09:15.379961 16818 net.cpp:165] Memory required for data: 1484206440
I0104 02:09:15.379997 16818 layer_factory.hpp:77] Creating layer scale_conv_3a_3x3
I0104 02:09:15.380030 16818 net.cpp:100] Creating Layer scale_conv_3a_3x3
I0104 02:09:15.380056 16818 net.cpp:434] scale_conv_3a_3x3 <- conv_3a_3x3
I0104 02:09:15.380086 16818 net.cpp:395] scale_conv_3a_3x3 -> conv_3a_3x3 (in-place)
I0104 02:09:15.380189 16818 layer_factory.hpp:77] Creating layer scale_conv_3a_3x3
I0104 02:09:15.380439 16818 net.cpp:150] Setting up scale_conv_3a_3x3
I0104 02:09:15.380472 16818 net.cpp:157] Top shape: 30 96 28 28 (2257920)
I0104 02:09:15.380491 16818 net.cpp:165] Memory required for data: 1493238120
I0104 02:09:15.380515 16818 layer_factory.hpp:77] Creating layer relu_3a_3x3
I0104 02:09:15.380538 16818 net.cpp:100] Creating Layer relu_3a_3x3
I0104 02:09:15.380560 16818 net.cpp:434] relu_3a_3x3 <- conv_3a_3x3
I0104 02:09:15.380592 16818 net.cpp:395] relu_3a_3x3 -> conv_3a_3x3 (in-place)
I0104 02:09:15.380626 16818 net.cpp:150] Setting up relu_3a_3x3
I0104 02:09:15.380656 16818 net.cpp:157] Top shape: 30 96 28 28 (2257920)
I0104 02:09:15.380681 16818 net.cpp:165] Memory required for data: 1502269800
I0104 02:09:15.380703 16818 layer_factory.hpp:77] Creating layer conv_3a_double_3x3_reduce
I0104 02:09:15.380741 16818 net.cpp:100] Creating Layer conv_3a_double_3x3_reduce
I0104 02:09:15.380765 16818 net.cpp:434] conv_3a_double_3x3_reduce <- pool2_pool2_0_split_2
I0104 02:09:15.380797 16818 net.cpp:408] conv_3a_double_3x3_reduce -> conv_3a_double_3x3_reduce
I0104 02:09:15.381305 16818 net.cpp:150] Setting up conv_3a_double_3x3_reduce
I0104 02:09:15.381343 16818 net.cpp:157] Top shape: 30 96 28 28 (2257920)
I0104 02:09:15.381368 16818 net.cpp:165] Memory required for data: 1511301480
I0104 02:09:15.381403 16818 layer_factory.hpp:77] Creating layer bn_3a_double_3x3_reduce
I0104 02:09:15.381440 16818 net.cpp:100] Creating Layer bn_3a_double_3x3_reduce
I0104 02:09:15.381467 16818 net.cpp:434] bn_3a_double_3x3_reduce <- conv_3a_double_3x3_reduce
I0104 02:09:15.381496 16818 net.cpp:395] bn_3a_double_3x3_reduce -> conv_3a_double_3x3_reduce (in-place)
I0104 02:09:15.381893 16818 net.cpp:150] Setting up bn_3a_double_3x3_reduce
I0104 02:09:15.381932 16818 net.cpp:157] Top shape: 30 96 28 28 (2257920)
I0104 02:09:15.381956 16818 net.cpp:165] Memory required for data: 1520333160
I0104 02:09:15.381992 16818 layer_factory.hpp:77] Creating layer scale_conv_3a_double_3x3_reduce
I0104 02:09:15.382022 16818 net.cpp:100] Creating Layer scale_conv_3a_double_3x3_reduce
I0104 02:09:15.382047 16818 net.cpp:434] scale_conv_3a_double_3x3_reduce <- conv_3a_double_3x3_reduce
I0104 02:09:15.382082 16818 net.cpp:395] scale_conv_3a_double_3x3_reduce -> conv_3a_double_3x3_reduce (in-place)
I0104 02:09:15.382192 16818 layer_factory.hpp:77] Creating layer scale_conv_3a_double_3x3_reduce
I0104 02:09:15.382469 16818 net.cpp:150] Setting up scale_conv_3a_double_3x3_reduce
I0104 02:09:15.382504 16818 net.cpp:157] Top shape: 30 96 28 28 (2257920)
I0104 02:09:15.382530 16818 net.cpp:165] Memory required for data: 1529364840
I0104 02:09:15.382578 16818 layer_factory.hpp:77] Creating layer relu_3a_double_3x3_reduce
I0104 02:09:15.382630 16818 net.cpp:100] Creating Layer relu_3a_double_3x3_reduce
I0104 02:09:15.382660 16818 net.cpp:434] relu_3a_double_3x3_reduce <- conv_3a_double_3x3_reduce
I0104 02:09:15.382691 16818 net.cpp:395] relu_3a_double_3x3_reduce -> conv_3a_double_3x3_reduce (in-place)
I0104 02:09:15.382726 16818 net.cpp:150] Setting up relu_3a_double_3x3_reduce
I0104 02:09:15.382755 16818 net.cpp:157] Top shape: 30 96 28 28 (2257920)
I0104 02:09:15.382779 16818 net.cpp:165] Memory required for data: 1538396520
I0104 02:09:15.382803 16818 layer_factory.hpp:77] Creating layer conv_3a_double_3x3_0
I0104 02:09:15.382838 16818 net.cpp:100] Creating Layer conv_3a_double_3x3_0
I0104 02:09:15.382864 16818 net.cpp:434] conv_3a_double_3x3_0 <- conv_3a_double_3x3_reduce
I0104 02:09:15.382901 16818 net.cpp:408] conv_3a_double_3x3_0 -> conv_3a_double_3x3_0
I0104 02:09:15.383519 16818 net.cpp:150] Setting up conv_3a_double_3x3_0
I0104 02:09:15.383555 16818 net.cpp:157] Top shape: 30 144 28 28 (3386880)
I0104 02:09:15.383580 16818 net.cpp:165] Memory required for data: 1551944040
I0104 02:09:15.383612 16818 layer_factory.hpp:77] Creating layer bn_3a_double_3x3_0
I0104 02:09:15.383644 16818 net.cpp:100] Creating Layer bn_3a_double_3x3_0
I0104 02:09:15.383671 16818 net.cpp:434] bn_3a_double_3x3_0 <- conv_3a_double_3x3_0
I0104 02:09:15.383707 16818 net.cpp:395] bn_3a_double_3x3_0 -> conv_3a_double_3x3_0 (in-place)
I0104 02:09:15.384083 16818 net.cpp:150] Setting up bn_3a_double_3x3_0
I0104 02:09:15.384119 16818 net.cpp:157] Top shape: 30 144 28 28 (3386880)
I0104 02:09:15.384140 16818 net.cpp:165] Memory required for data: 1565491560
I0104 02:09:15.384168 16818 layer_factory.hpp:77] Creating layer scale_conv_3a_double_3x3_0
I0104 02:09:15.384207 16818 net.cpp:100] Creating Layer scale_conv_3a_double_3x3_0
I0104 02:09:15.384228 16818 net.cpp:434] scale_conv_3a_double_3x3_0 <- conv_3a_double_3x3_0
I0104 02:09:15.384253 16818 net.cpp:395] scale_conv_3a_double_3x3_0 -> conv_3a_double_3x3_0 (in-place)
I0104 02:09:15.384341 16818 layer_factory.hpp:77] Creating layer scale_conv_3a_double_3x3_0
I0104 02:09:15.384590 16818 net.cpp:150] Setting up scale_conv_3a_double_3x3_0
I0104 02:09:15.384624 16818 net.cpp:157] Top shape: 30 144 28 28 (3386880)
I0104 02:09:15.384646 16818 net.cpp:165] Memory required for data: 1579039080
I0104 02:09:15.384675 16818 layer_factory.hpp:77] Creating layer relu_3a_double_3x3_0
I0104 02:09:15.384707 16818 net.cpp:100] Creating Layer relu_3a_double_3x3_0
I0104 02:09:15.384733 16818 net.cpp:434] relu_3a_double_3x3_0 <- conv_3a_double_3x3_0
I0104 02:09:15.384768 16818 net.cpp:395] relu_3a_double_3x3_0 -> conv_3a_double_3x3_0 (in-place)
I0104 02:09:15.384805 16818 net.cpp:150] Setting up relu_3a_double_3x3_0
I0104 02:09:15.384832 16818 net.cpp:157] Top shape: 30 144 28 28 (3386880)
I0104 02:09:15.384853 16818 net.cpp:165] Memory required for data: 1592586600
I0104 02:09:15.384876 16818 layer_factory.hpp:77] Creating layer conv_3a_double_3x3_1
I0104 02:09:15.384914 16818 net.cpp:100] Creating Layer conv_3a_double_3x3_1
I0104 02:09:15.384945 16818 net.cpp:434] conv_3a_double_3x3_1 <- conv_3a_double_3x3_0
I0104 02:09:15.384979 16818 net.cpp:408] conv_3a_double_3x3_1 -> conv_3a_double_3x3_1
I0104 02:09:15.386719 16818 net.cpp:150] Setting up conv_3a_double_3x3_1
I0104 02:09:15.386770 16818 net.cpp:157] Top shape: 30 144 28 28 (3386880)
I0104 02:09:15.386798 16818 net.cpp:165] Memory required for data: 1606134120
I0104 02:09:15.386831 16818 layer_factory.hpp:77] Creating layer bn_3a_double_3x3_1
I0104 02:09:15.386868 16818 net.cpp:100] Creating Layer bn_3a_double_3x3_1
I0104 02:09:15.386896 16818 net.cpp:434] bn_3a_double_3x3_1 <- conv_3a_double_3x3_1
I0104 02:09:15.386927 16818 net.cpp:395] bn_3a_double_3x3_1 -> conv_3a_double_3x3_1 (in-place)
I0104 02:09:15.387341 16818 net.cpp:150] Setting up bn_3a_double_3x3_1
I0104 02:09:15.387379 16818 net.cpp:157] Top shape: 30 144 28 28 (3386880)
I0104 02:09:15.387423 16818 net.cpp:165] Memory required for data: 1619681640
I0104 02:09:15.387460 16818 layer_factory.hpp:77] Creating layer scale_conv_3a_double_3x3_1
I0104 02:09:15.387493 16818 net.cpp:100] Creating Layer scale_conv_3a_double_3x3_1
I0104 02:09:15.387518 16818 net.cpp:434] scale_conv_3a_double_3x3_1 <- conv_3a_double_3x3_1
I0104 02:09:15.387548 16818 net.cpp:395] scale_conv_3a_double_3x3_1 -> conv_3a_double_3x3_1 (in-place)
I0104 02:09:15.387660 16818 layer_factory.hpp:77] Creating layer scale_conv_3a_double_3x3_1
I0104 02:09:15.387903 16818 net.cpp:150] Setting up scale_conv_3a_double_3x3_1
I0104 02:09:15.387939 16818 net.cpp:157] Top shape: 30 144 28 28 (3386880)
I0104 02:09:15.387967 16818 net.cpp:165] Memory required for data: 1633229160
I0104 02:09:15.387995 16818 layer_factory.hpp:77] Creating layer relu_3a_double_3x3_1
I0104 02:09:15.388020 16818 net.cpp:100] Creating Layer relu_3a_double_3x3_1
I0104 02:09:15.388039 16818 net.cpp:434] relu_3a_double_3x3_1 <- conv_3a_double_3x3_1
I0104 02:09:15.388062 16818 net.cpp:395] relu_3a_double_3x3_1 -> conv_3a_double_3x3_1 (in-place)
I0104 02:09:15.388088 16818 net.cpp:150] Setting up relu_3a_double_3x3_1
I0104 02:09:15.388111 16818 net.cpp:157] Top shape: 30 144 28 28 (3386880)
I0104 02:09:15.388129 16818 net.cpp:165] Memory required for data: 1646776680
I0104 02:09:15.388147 16818 layer_factory.hpp:77] Creating layer ave_pool_3a_pool
I0104 02:09:15.388175 16818 net.cpp:100] Creating Layer ave_pool_3a_pool
I0104 02:09:15.388203 16818 net.cpp:434] ave_pool_3a_pool <- pool2_pool2_0_split_3
I0104 02:09:15.388231 16818 net.cpp:408] ave_pool_3a_pool -> ave_pool_3a_pool
I0104 02:09:15.388301 16818 net.cpp:150] Setting up ave_pool_3a_pool
I0104 02:09:15.388335 16818 net.cpp:157] Top shape: 30 288 28 28 (6773760)
I0104 02:09:15.388360 16818 net.cpp:165] Memory required for data: 1673871720
I0104 02:09:15.388383 16818 layer_factory.hpp:77] Creating layer conv_3a_proj
I0104 02:09:15.388419 16818 net.cpp:100] Creating Layer conv_3a_proj
I0104 02:09:15.388444 16818 net.cpp:434] conv_3a_proj <- ave_pool_3a_pool
I0104 02:09:15.388473 16818 net.cpp:408] conv_3a_proj -> conv_3a_proj
I0104 02:09:15.388977 16818 net.cpp:150] Setting up conv_3a_proj
I0104 02:09:15.389017 16818 net.cpp:157] Top shape: 30 48 28 28 (1128960)
I0104 02:09:15.389042 16818 net.cpp:165] Memory required for data: 1678387560
I0104 02:09:15.389102 16818 layer_factory.hpp:77] Creating layer bn_3a_proj
I0104 02:09:15.389142 16818 net.cpp:100] Creating Layer bn_3a_proj
I0104 02:09:15.389168 16818 net.cpp:434] bn_3a_proj <- conv_3a_proj
I0104 02:09:15.389205 16818 net.cpp:395] bn_3a_proj -> conv_3a_proj (in-place)
I0104 02:09:15.389605 16818 net.cpp:150] Setting up bn_3a_proj
I0104 02:09:15.389641 16818 net.cpp:157] Top shape: 30 48 28 28 (1128960)
I0104 02:09:15.389664 16818 net.cpp:165] Memory required for data: 1682903400
I0104 02:09:15.389699 16818 layer_factory.hpp:77] Creating layer scale_conv_3a_proj
I0104 02:09:15.389732 16818 net.cpp:100] Creating Layer scale_conv_3a_proj
I0104 02:09:15.389757 16818 net.cpp:434] scale_conv_3a_proj <- conv_3a_proj
I0104 02:09:15.389785 16818 net.cpp:395] scale_conv_3a_proj -> conv_3a_proj (in-place)
I0104 02:09:15.389890 16818 layer_factory.hpp:77] Creating layer scale_conv_3a_proj
I0104 02:09:15.390158 16818 net.cpp:150] Setting up scale_conv_3a_proj
I0104 02:09:15.390202 16818 net.cpp:157] Top shape: 30 48 28 28 (1128960)
I0104 02:09:15.390228 16818 net.cpp:165] Memory required for data: 1687419240
I0104 02:09:15.390259 16818 layer_factory.hpp:77] Creating layer relu_3a_proj
I0104 02:09:15.390290 16818 net.cpp:100] Creating Layer relu_3a_proj
I0104 02:09:15.390313 16818 net.cpp:434] relu_3a_proj <- conv_3a_proj
I0104 02:09:15.390342 16818 net.cpp:395] relu_3a_proj -> conv_3a_proj (in-place)
I0104 02:09:15.390374 16818 net.cpp:150] Setting up relu_3a_proj
I0104 02:09:15.390403 16818 net.cpp:157] Top shape: 30 48 28 28 (1128960)
I0104 02:09:15.390427 16818 net.cpp:165] Memory required for data: 1691935080
I0104 02:09:15.390451 16818 layer_factory.hpp:77] Creating layer ch_concat_3a_chconcat
I0104 02:09:15.390503 16818 net.cpp:100] Creating Layer ch_concat_3a_chconcat
I0104 02:09:15.390529 16818 net.cpp:434] ch_concat_3a_chconcat <- conv_3a_1x1
I0104 02:09:15.390555 16818 net.cpp:434] ch_concat_3a_chconcat <- conv_3a_3x3
I0104 02:09:15.390583 16818 net.cpp:434] ch_concat_3a_chconcat <- conv_3a_double_3x3_1
I0104 02:09:15.390610 16818 net.cpp:434] ch_concat_3a_chconcat <- conv_3a_proj
I0104 02:09:15.390641 16818 net.cpp:408] ch_concat_3a_chconcat -> ch_concat_3a_chconcat
I0104 02:09:15.390714 16818 net.cpp:150] Setting up ch_concat_3a_chconcat
I0104 02:09:15.390746 16818 net.cpp:157] Top shape: 30 384 28 28 (9031680)
I0104 02:09:15.390771 16818 net.cpp:165] Memory required for data: 1728061800
I0104 02:09:15.390795 16818 layer_factory.hpp:77] Creating layer ch_concat_3a_chconcat_ch_concat_3a_chconcat_0_split
I0104 02:09:15.390825 16818 net.cpp:100] Creating Layer ch_concat_3a_chconcat_ch_concat_3a_chconcat_0_split
I0104 02:09:15.390847 16818 net.cpp:434] ch_concat_3a_chconcat_ch_concat_3a_chconcat_0_split <- ch_concat_3a_chconcat
I0104 02:09:15.390884 16818 net.cpp:408] ch_concat_3a_chconcat_ch_concat_3a_chconcat_0_split -> ch_concat_3a_chconcat_ch_concat_3a_chconcat_0_split_0
I0104 02:09:15.390923 16818 net.cpp:408] ch_concat_3a_chconcat_ch_concat_3a_chconcat_0_split -> ch_concat_3a_chconcat_ch_concat_3a_chconcat_0_split_1
I0104 02:09:15.390960 16818 net.cpp:408] ch_concat_3a_chconcat_ch_concat_3a_chconcat_0_split -> ch_concat_3a_chconcat_ch_concat_3a_chconcat_0_split_2
I0104 02:09:15.390997 16818 net.cpp:408] ch_concat_3a_chconcat_ch_concat_3a_chconcat_0_split -> ch_concat_3a_chconcat_ch_concat_3a_chconcat_0_split_3
I0104 02:09:15.391132 16818 net.cpp:150] Setting up ch_concat_3a_chconcat_ch_concat_3a_chconcat_0_split
I0104 02:09:15.391171 16818 net.cpp:157] Top shape: 30 384 28 28 (9031680)
I0104 02:09:15.391208 16818 net.cpp:157] Top shape: 30 384 28 28 (9031680)
I0104 02:09:15.391238 16818 net.cpp:157] Top shape: 30 384 28 28 (9031680)
I0104 02:09:15.391266 16818 net.cpp:157] Top shape: 30 384 28 28 (9031680)
I0104 02:09:15.391289 16818 net.cpp:165] Memory required for data: 1872568680
I0104 02:09:15.391311 16818 layer_factory.hpp:77] Creating layer conv_3b_1x1
I0104 02:09:15.391345 16818 net.cpp:100] Creating Layer conv_3b_1x1
I0104 02:09:15.391371 16818 net.cpp:434] conv_3b_1x1 <- ch_concat_3a_chconcat_ch_concat_3a_chconcat_0_split_0
I0104 02:09:15.391412 16818 net.cpp:408] conv_3b_1x1 -> conv_3b_1x1
I0104 02:09:15.391934 16818 net.cpp:150] Setting up conv_3b_1x1
I0104 02:09:15.391969 16818 net.cpp:157] Top shape: 30 96 28 28 (2257920)
I0104 02:09:15.391991 16818 net.cpp:165] Memory required for data: 1881600360
I0104 02:09:15.392019 16818 layer_factory.hpp:77] Creating layer bn_3b_1x1
I0104 02:09:15.392043 16818 net.cpp:100] Creating Layer bn_3b_1x1
I0104 02:09:15.392062 16818 net.cpp:434] bn_3b_1x1 <- conv_3b_1x1
I0104 02:09:15.392092 16818 net.cpp:395] bn_3b_1x1 -> conv_3b_1x1 (in-place)
I0104 02:09:15.392477 16818 net.cpp:150] Setting up bn_3b_1x1
I0104 02:09:15.392511 16818 net.cpp:157] Top shape: 30 96 28 28 (2257920)
I0104 02:09:15.392532 16818 net.cpp:165] Memory required for data: 1890632040
I0104 02:09:15.392565 16818 layer_factory.hpp:77] Creating layer scale_conv_3b_1x1
I0104 02:09:15.392598 16818 net.cpp:100] Creating Layer scale_conv_3b_1x1
I0104 02:09:15.392629 16818 net.cpp:434] scale_conv_3b_1x1 <- conv_3b_1x1
I0104 02:09:15.392663 16818 net.cpp:395] scale_conv_3b_1x1 -> conv_3b_1x1 (in-place)
I0104 02:09:15.392772 16818 layer_factory.hpp:77] Creating layer scale_conv_3b_1x1
I0104 02:09:15.393045 16818 net.cpp:150] Setting up scale_conv_3b_1x1
I0104 02:09:15.393080 16818 net.cpp:157] Top shape: 30 96 28 28 (2257920)
I0104 02:09:15.393105 16818 net.cpp:165] Memory required for data: 1899663720
I0104 02:09:15.393137 16818 layer_factory.hpp:77] Creating layer relu_3b_1x1
I0104 02:09:15.393172 16818 net.cpp:100] Creating Layer relu_3b_1x1
I0104 02:09:15.393205 16818 net.cpp:434] relu_3b_1x1 <- conv_3b_1x1
I0104 02:09:15.393234 16818 net.cpp:395] relu_3b_1x1 -> conv_3b_1x1 (in-place)
I0104 02:09:15.393278 16818 net.cpp:150] Setting up relu_3b_1x1
I0104 02:09:15.393308 16818 net.cpp:157] Top shape: 30 96 28 28 (2257920)
I0104 02:09:15.393333 16818 net.cpp:165] Memory required for data: 1908695400
I0104 02:09:15.393357 16818 layer_factory.hpp:77] Creating layer conv_3b_3x3_reduce
I0104 02:09:15.393393 16818 net.cpp:100] Creating Layer conv_3b_3x3_reduce
I0104 02:09:15.393420 16818 net.cpp:434] conv_3b_3x3_reduce <- ch_concat_3a_chconcat_ch_concat_3a_chconcat_0_split_1
I0104 02:09:15.393455 16818 net.cpp:408] conv_3b_3x3_reduce -> conv_3b_3x3_reduce
I0104 02:09:15.393966 16818 net.cpp:150] Setting up conv_3b_3x3_reduce
I0104 02:09:15.394006 16818 net.cpp:157] Top shape: 30 96 28 28 (2257920)
I0104 02:09:15.394031 16818 net.cpp:165] Memory required for data: 1917727080
I0104 02:09:15.394062 16818 layer_factory.hpp:77] Creating layer bn_3b_3x3_reduce
I0104 02:09:15.394093 16818 net.cpp:100] Creating Layer bn_3b_3x3_reduce
I0104 02:09:15.394119 16818 net.cpp:434] bn_3b_3x3_reduce <- conv_3b_3x3_reduce
I0104 02:09:15.394155 16818 net.cpp:395] bn_3b_3x3_reduce -> conv_3b_3x3_reduce (in-place)
I0104 02:09:15.394578 16818 net.cpp:150] Setting up bn_3b_3x3_reduce
I0104 02:09:15.394613 16818 net.cpp:157] Top shape: 30 96 28 28 (2257920)
I0104 02:09:15.394637 16818 net.cpp:165] Memory required for data: 1926758760
I0104 02:09:15.394673 16818 layer_factory.hpp:77] Creating layer scale_conv_3b_3x3_reduce
I0104 02:09:15.394706 16818 net.cpp:100] Creating Layer scale_conv_3b_3x3_reduce
I0104 02:09:15.394731 16818 net.cpp:434] scale_conv_3b_3x3_reduce <- conv_3b_3x3_reduce
I0104 02:09:15.394767 16818 net.cpp:395] scale_conv_3b_3x3_reduce -> conv_3b_3x3_reduce (in-place)
I0104 02:09:15.394861 16818 layer_factory.hpp:77] Creating layer scale_conv_3b_3x3_reduce
I0104 02:09:15.395130 16818 net.cpp:150] Setting up scale_conv_3b_3x3_reduce
I0104 02:09:15.395167 16818 net.cpp:157] Top shape: 30 96 28 28 (2257920)
I0104 02:09:15.395200 16818 net.cpp:165] Memory required for data: 1935790440
I0104 02:09:15.395231 16818 layer_factory.hpp:77] Creating layer relu_3b_3x3_reduce
I0104 02:09:15.395265 16818 net.cpp:100] Creating Layer relu_3b_3x3_reduce
I0104 02:09:15.395292 16818 net.cpp:434] relu_3b_3x3_reduce <- conv_3b_3x3_reduce
I0104 02:09:15.395323 16818 net.cpp:395] relu_3b_3x3_reduce -> conv_3b_3x3_reduce (in-place)
I0104 02:09:15.395356 16818 net.cpp:150] Setting up relu_3b_3x3_reduce
I0104 02:09:15.395386 16818 net.cpp:157] Top shape: 30 96 28 28 (2257920)
I0104 02:09:15.395409 16818 net.cpp:165] Memory required for data: 1944822120
I0104 02:09:15.395433 16818 layer_factory.hpp:77] Creating layer conv_3b_3x3
I0104 02:09:15.395473 16818 net.cpp:100] Creating Layer conv_3b_3x3
I0104 02:09:15.395499 16818 net.cpp:434] conv_3b_3x3 <- conv_3b_3x3_reduce
I0104 02:09:15.395531 16818 net.cpp:408] conv_3b_3x3 -> conv_3b_3x3
I0104 02:09:15.397212 16818 net.cpp:150] Setting up conv_3b_3x3
I0104 02:09:15.397256 16818 net.cpp:157] Top shape: 30 144 28 28 (3386880)
I0104 02:09:15.397281 16818 net.cpp:165] Memory required for data: 1958369640
I0104 02:09:15.397315 16818 layer_factory.hpp:77] Creating layer bn_3b_3x3
I0104 02:09:15.397353 16818 net.cpp:100] Creating Layer bn_3b_3x3
I0104 02:09:15.397382 16818 net.cpp:434] bn_3b_3x3 <- conv_3b_3x3
I0104 02:09:15.397413 16818 net.cpp:395] bn_3b_3x3 -> conv_3b_3x3 (in-place)
I0104 02:09:15.397814 16818 net.cpp:150] Setting up bn_3b_3x3
I0104 02:09:15.397850 16818 net.cpp:157] Top shape: 30 144 28 28 (3386880)
I0104 02:09:15.397874 16818 net.cpp:165] Memory required for data: 1971917160
I0104 02:09:15.397912 16818 layer_factory.hpp:77] Creating layer scale_conv_3b_3x3
I0104 02:09:15.397950 16818 net.cpp:100] Creating Layer scale_conv_3b_3x3
I0104 02:09:15.397976 16818 net.cpp:434] scale_conv_3b_3x3 <- conv_3b_3x3
I0104 02:09:15.398006 16818 net.cpp:395] scale_conv_3b_3x3 -> conv_3b_3x3 (in-place)
I0104 02:09:15.398110 16818 layer_factory.hpp:77] Creating layer scale_conv_3b_3x3
I0104 02:09:15.398393 16818 net.cpp:150] Setting up scale_conv_3b_3x3
I0104 02:09:15.398428 16818 net.cpp:157] Top shape: 30 144 28 28 (3386880)
I0104 02:09:15.398471 16818 net.cpp:165] Memory required for data: 1985464680
I0104 02:09:15.398505 16818 layer_factory.hpp:77] Creating layer relu_3b_3x3
I0104 02:09:15.398537 16818 net.cpp:100] Creating Layer relu_3b_3x3
I0104 02:09:15.398563 16818 net.cpp:434] relu_3b_3x3 <- conv_3b_3x3
I0104 02:09:15.398596 16818 net.cpp:395] relu_3b_3x3 -> conv_3b_3x3 (in-place)
I0104 02:09:15.398629 16818 net.cpp:150] Setting up relu_3b_3x3
I0104 02:09:15.398658 16818 net.cpp:157] Top shape: 30 144 28 28 (3386880)
I0104 02:09:15.398682 16818 net.cpp:165] Memory required for data: 1999012200
I0104 02:09:15.398705 16818 layer_factory.hpp:77] Creating layer conv_3b_double_3x3_reduce
I0104 02:09:15.398741 16818 net.cpp:100] Creating Layer conv_3b_double_3x3_reduce
I0104 02:09:15.398767 16818 net.cpp:434] conv_3b_double_3x3_reduce <- ch_concat_3a_chconcat_ch_concat_3a_chconcat_0_split_2
I0104 02:09:15.398807 16818 net.cpp:408] conv_3b_double_3x3_reduce -> conv_3b_double_3x3_reduce
I0104 02:09:15.399348 16818 net.cpp:150] Setting up conv_3b_double_3x3_reduce
I0104 02:09:15.399387 16818 net.cpp:157] Top shape: 30 96 28 28 (2257920)
I0104 02:09:15.399411 16818 net.cpp:165] Memory required for data: 2008043880
I0104 02:09:15.399442 16818 layer_factory.hpp:77] Creating layer bn_3b_double_3x3_reduce
I0104 02:09:15.399492 16818 net.cpp:100] Creating Layer bn_3b_double_3x3_reduce
I0104 02:09:15.399519 16818 net.cpp:434] bn_3b_double_3x3_reduce <- conv_3b_double_3x3_reduce
I0104 02:09:15.399550 16818 net.cpp:395] bn_3b_double_3x3_reduce -> conv_3b_double_3x3_reduce (in-place)
I0104 02:09:15.399932 16818 net.cpp:150] Setting up bn_3b_double_3x3_reduce
I0104 02:09:15.399968 16818 net.cpp:157] Top shape: 30 96 28 28 (2257920)
I0104 02:09:15.399987 16818 net.cpp:165] Memory required for data: 2017075560
I0104 02:09:15.400017 16818 layer_factory.hpp:77] Creating layer scale_conv_3b_double_3x3_reduce
I0104 02:09:15.400045 16818 net.cpp:100] Creating Layer scale_conv_3b_double_3x3_reduce
I0104 02:09:15.400066 16818 net.cpp:434] scale_conv_3b_double_3x3_reduce <- conv_3b_double_3x3_reduce
I0104 02:09:15.400089 16818 net.cpp:395] scale_conv_3b_double_3x3_reduce -> conv_3b_double_3x3_reduce (in-place)
I0104 02:09:15.400176 16818 layer_factory.hpp:77] Creating layer scale_conv_3b_double_3x3_reduce
I0104 02:09:15.400441 16818 net.cpp:150] Setting up scale_conv_3b_double_3x3_reduce
I0104 02:09:15.400475 16818 net.cpp:157] Top shape: 30 96 28 28 (2257920)
I0104 02:09:15.400496 16818 net.cpp:165] Memory required for data: 2026107240
I0104 02:09:15.400526 16818 layer_factory.hpp:77] Creating layer relu_3b_double_3x3_reduce
I0104 02:09:15.400555 16818 net.cpp:100] Creating Layer relu_3b_double_3x3_reduce
I0104 02:09:15.400581 16818 net.cpp:434] relu_3b_double_3x3_reduce <- conv_3b_double_3x3_reduce
I0104 02:09:15.400621 16818 net.cpp:395] relu_3b_double_3x3_reduce -> conv_3b_double_3x3_reduce (in-place)
I0104 02:09:15.400653 16818 net.cpp:150] Setting up relu_3b_double_3x3_reduce
I0104 02:09:15.400681 16818 net.cpp:157] Top shape: 30 96 28 28 (2257920)
I0104 02:09:15.400704 16818 net.cpp:165] Memory required for data: 2035138920
I0104 02:09:15.400733 16818 layer_factory.hpp:77] Creating layer conv_3b_double_3x3_0
I0104 02:09:15.400799 16818 net.cpp:100] Creating Layer conv_3b_double_3x3_0
I0104 02:09:15.400825 16818 net.cpp:434] conv_3b_double_3x3_0 <- conv_3b_double_3x3_reduce
I0104 02:09:15.400857 16818 net.cpp:408] conv_3b_double_3x3_0 -> conv_3b_double_3x3_0
I0104 02:09:15.401494 16818 net.cpp:150] Setting up conv_3b_double_3x3_0
I0104 02:09:15.401536 16818 net.cpp:157] Top shape: 30 144 28 28 (3386880)
I0104 02:09:15.401562 16818 net.cpp:165] Memory required for data: 2048686440
I0104 02:09:15.401597 16818 layer_factory.hpp:77] Creating layer bn_3b_double_3x3_0
I0104 02:09:15.401628 16818 net.cpp:100] Creating Layer bn_3b_double_3x3_0
I0104 02:09:15.401654 16818 net.cpp:434] bn_3b_double_3x3_0 <- conv_3b_double_3x3_0
I0104 02:09:15.401690 16818 net.cpp:395] bn_3b_double_3x3_0 -> conv_3b_double_3x3_0 (in-place)
I0104 02:09:15.402115 16818 net.cpp:150] Setting up bn_3b_double_3x3_0
I0104 02:09:15.402154 16818 net.cpp:157] Top shape: 30 144 28 28 (3386880)
I0104 02:09:15.402179 16818 net.cpp:165] Memory required for data: 2062233960
I0104 02:09:15.402223 16818 layer_factory.hpp:77] Creating layer scale_conv_3b_double_3x3_0
I0104 02:09:15.402256 16818 net.cpp:100] Creating Layer scale_conv_3b_double_3x3_0
I0104 02:09:15.402283 16818 net.cpp:434] scale_conv_3b_double_3x3_0 <- conv_3b_double_3x3_0
I0104 02:09:15.402326 16818 net.cpp:395] scale_conv_3b_double_3x3_0 -> conv_3b_double_3x3_0 (in-place)
I0104 02:09:15.402432 16818 layer_factory.hpp:77] Creating layer scale_conv_3b_double_3x3_0
I0104 02:09:15.402705 16818 net.cpp:150] Setting up scale_conv_3b_double_3x3_0
I0104 02:09:15.402745 16818 net.cpp:157] Top shape: 30 144 28 28 (3386880)
I0104 02:09:15.402767 16818 net.cpp:165] Memory required for data: 2075781480
I0104 02:09:15.402797 16818 layer_factory.hpp:77] Creating layer relu_3b_double_3x3_0
I0104 02:09:15.402834 16818 net.cpp:100] Creating Layer relu_3b_double_3x3_0
I0104 02:09:15.402861 16818 net.cpp:434] relu_3b_double_3x3_0 <- conv_3b_double_3x3_0
I0104 02:09:15.402891 16818 net.cpp:395] relu_3b_double_3x3_0 -> conv_3b_double_3x3_0 (in-place)
I0104 02:09:15.402923 16818 net.cpp:150] Setting up relu_3b_double_3x3_0
I0104 02:09:15.402952 16818 net.cpp:157] Top shape: 30 144 28 28 (3386880)
I0104 02:09:15.402977 16818 net.cpp:165] Memory required for data: 2089329000
I0104 02:09:15.403002 16818 layer_factory.hpp:77] Creating layer conv_3b_double_3x3_1
I0104 02:09:15.403038 16818 net.cpp:100] Creating Layer conv_3b_double_3x3_1
I0104 02:09:15.403066 16818 net.cpp:434] conv_3b_double_3x3_1 <- conv_3b_double_3x3_0
I0104 02:09:15.403098 16818 net.cpp:408] conv_3b_double_3x3_1 -> conv_3b_double_3x3_1
I0104 02:09:15.404886 16818 net.cpp:150] Setting up conv_3b_double_3x3_1
I0104 02:09:15.404937 16818 net.cpp:157] Top shape: 30 144 28 28 (3386880)
I0104 02:09:15.404963 16818 net.cpp:165] Memory required for data: 2102876520
I0104 02:09:15.404995 16818 layer_factory.hpp:77] Creating layer bn_3b_double_3x3_1
I0104 02:09:15.405036 16818 net.cpp:100] Creating Layer bn_3b_double_3x3_1
I0104 02:09:15.405063 16818 net.cpp:434] bn_3b_double_3x3_1 <- conv_3b_double_3x3_1
I0104 02:09:15.405099 16818 net.cpp:395] bn_3b_double_3x3_1 -> conv_3b_double_3x3_1 (in-place)
I0104 02:09:15.405515 16818 net.cpp:150] Setting up bn_3b_double_3x3_1
I0104 02:09:15.405561 16818 net.cpp:157] Top shape: 30 144 28 28 (3386880)
I0104 02:09:15.405586 16818 net.cpp:165] Memory required for data: 2116424040
I0104 02:09:15.405623 16818 layer_factory.hpp:77] Creating layer scale_conv_3b_double_3x3_1
I0104 02:09:15.405656 16818 net.cpp:100] Creating Layer scale_conv_3b_double_3x3_1
I0104 02:09:15.405681 16818 net.cpp:434] scale_conv_3b_double_3x3_1 <- conv_3b_double_3x3_1
I0104 02:09:15.405711 16818 net.cpp:395] scale_conv_3b_double_3x3_1 -> conv_3b_double_3x3_1 (in-place)
I0104 02:09:15.405825 16818 layer_factory.hpp:77] Creating layer scale_conv_3b_double_3x3_1
I0104 02:09:15.406093 16818 net.cpp:150] Setting up scale_conv_3b_double_3x3_1
I0104 02:09:15.406128 16818 net.cpp:157] Top shape: 30 144 28 28 (3386880)
I0104 02:09:15.406152 16818 net.cpp:165] Memory required for data: 2129971560
I0104 02:09:15.406193 16818 layer_factory.hpp:77] Creating layer relu_3b_double_3x3_1
I0104 02:09:15.406231 16818 net.cpp:100] Creating Layer relu_3b_double_3x3_1
I0104 02:09:15.406255 16818 net.cpp:434] relu_3b_double_3x3_1 <- conv_3b_double_3x3_1
I0104 02:09:15.406273 16818 net.cpp:395] relu_3b_double_3x3_1 -> conv_3b_double_3x3_1 (in-place)
I0104 02:09:15.406291 16818 net.cpp:150] Setting up relu_3b_double_3x3_1
I0104 02:09:15.406307 16818 net.cpp:157] Top shape: 30 144 28 28 (3386880)
I0104 02:09:15.406318 16818 net.cpp:165] Memory required for data: 2143519080
I0104 02:09:15.406330 16818 layer_factory.hpp:77] Creating layer ave_pool_3b_pool
I0104 02:09:15.406347 16818 net.cpp:100] Creating Layer ave_pool_3b_pool
I0104 02:09:15.406360 16818 net.cpp:434] ave_pool_3b_pool <- ch_concat_3a_chconcat_ch_concat_3a_chconcat_0_split_3
I0104 02:09:15.406396 16818 net.cpp:408] ave_pool_3b_pool -> ave_pool_3b_pool
I0104 02:09:15.406460 16818 net.cpp:150] Setting up ave_pool_3b_pool
I0104 02:09:15.406481 16818 net.cpp:157] Top shape: 30 384 28 28 (9031680)
I0104 02:09:15.406493 16818 net.cpp:165] Memory required for data: 2179645800
I0104 02:09:15.406505 16818 layer_factory.hpp:77] Creating layer conv_3b_proj
I0104 02:09:15.406525 16818 net.cpp:100] Creating Layer conv_3b_proj
I0104 02:09:15.406538 16818 net.cpp:434] conv_3b_proj <- ave_pool_3b_pool
I0104 02:09:15.406553 16818 net.cpp:408] conv_3b_proj -> conv_3b_proj
I0104 02:09:15.406879 16818 net.cpp:150] Setting up conv_3b_proj
I0104 02:09:15.406903 16818 net.cpp:157] Top shape: 30 96 28 28 (2257920)
I0104 02:09:15.406914 16818 net.cpp:165] Memory required for data: 2188677480
I0104 02:09:15.406930 16818 layer_factory.hpp:77] Creating layer bn_3b_proj
I0104 02:09:15.406949 16818 net.cpp:100] Creating Layer bn_3b_proj
I0104 02:09:15.406962 16818 net.cpp:434] bn_3b_proj <- conv_3b_proj
I0104 02:09:15.406977 16818 net.cpp:395] bn_3b_proj -> conv_3b_proj (in-place)
I0104 02:09:15.407233 16818 net.cpp:150] Setting up bn_3b_proj
I0104 02:09:15.407254 16818 net.cpp:157] Top shape: 30 96 28 28 (2257920)
I0104 02:09:15.407266 16818 net.cpp:165] Memory required for data: 2197709160
I0104 02:09:15.407284 16818 layer_factory.hpp:77] Creating layer scale_conv_3b_proj
I0104 02:09:15.407300 16818 net.cpp:100] Creating Layer scale_conv_3b_proj
I0104 02:09:15.407313 16818 net.cpp:434] scale_conv_3b_proj <- conv_3b_proj
I0104 02:09:15.407327 16818 net.cpp:395] scale_conv_3b_proj -> conv_3b_proj (in-place)
I0104 02:09:15.407390 16818 layer_factory.hpp:77] Creating layer scale_conv_3b_proj
I0104 02:09:15.407546 16818 net.cpp:150] Setting up scale_conv_3b_proj
I0104 02:09:15.407572 16818 net.cpp:157] Top shape: 30 96 28 28 (2257920)
I0104 02:09:15.407584 16818 net.cpp:165] Memory required for data: 2206740840
I0104 02:09:15.407599 16818 layer_factory.hpp:77] Creating layer relu_3b_proj
I0104 02:09:15.407615 16818 net.cpp:100] Creating Layer relu_3b_proj
I0104 02:09:15.407626 16818 net.cpp:434] relu_3b_proj <- conv_3b_proj
I0104 02:09:15.407640 16818 net.cpp:395] relu_3b_proj -> conv_3b_proj (in-place)
I0104 02:09:15.407656 16818 net.cpp:150] Setting up relu_3b_proj
I0104 02:09:15.407670 16818 net.cpp:157] Top shape: 30 96 28 28 (2257920)
I0104 02:09:15.407681 16818 net.cpp:165] Memory required for data: 2215772520
I0104 02:09:15.407692 16818 layer_factory.hpp:77] Creating layer ch_concat_3b_chconcat
I0104 02:09:15.407711 16818 net.cpp:100] Creating Layer ch_concat_3b_chconcat
I0104 02:09:15.407724 16818 net.cpp:434] ch_concat_3b_chconcat <- conv_3b_1x1
I0104 02:09:15.407737 16818 net.cpp:434] ch_concat_3b_chconcat <- conv_3b_3x3
I0104 02:09:15.407750 16818 net.cpp:434] ch_concat_3b_chconcat <- conv_3b_double_3x3_1
I0104 02:09:15.407764 16818 net.cpp:434] ch_concat_3b_chconcat <- conv_3b_proj
I0104 02:09:15.407779 16818 net.cpp:408] ch_concat_3b_chconcat -> ch_concat_3b_chconcat
I0104 02:09:15.407824 16818 net.cpp:150] Setting up ch_concat_3b_chconcat
I0104 02:09:15.407842 16818 net.cpp:157] Top shape: 30 480 28 28 (11289600)
I0104 02:09:15.407853 16818 net.cpp:165] Memory required for data: 2260930920
I0104 02:09:15.407866 16818 layer_factory.hpp:77] Creating layer ch_concat_3b_chconcat_ch_concat_3b_chconcat_0_split
I0104 02:09:15.407881 16818 net.cpp:100] Creating Layer ch_concat_3b_chconcat_ch_concat_3b_chconcat_0_split
I0104 02:09:15.407893 16818 net.cpp:434] ch_concat_3b_chconcat_ch_concat_3b_chconcat_0_split <- ch_concat_3b_chconcat
I0104 02:09:15.407914 16818 net.cpp:408] ch_concat_3b_chconcat_ch_concat_3b_chconcat_0_split -> ch_concat_3b_chconcat_ch_concat_3b_chconcat_0_split_0
I0104 02:09:15.407934 16818 net.cpp:408] ch_concat_3b_chconcat_ch_concat_3b_chconcat_0_split -> ch_concat_3b_chconcat_ch_concat_3b_chconcat_0_split_1
I0104 02:09:15.407953 16818 net.cpp:408] ch_concat_3b_chconcat_ch_concat_3b_chconcat_0_split -> ch_concat_3b_chconcat_ch_concat_3b_chconcat_0_split_2
I0104 02:09:15.408028 16818 net.cpp:150] Setting up ch_concat_3b_chconcat_ch_concat_3b_chconcat_0_split
I0104 02:09:15.408048 16818 net.cpp:157] Top shape: 30 480 28 28 (11289600)
I0104 02:09:15.408061 16818 net.cpp:157] Top shape: 30 480 28 28 (11289600)
I0104 02:09:15.408074 16818 net.cpp:157] Top shape: 30 480 28 28 (11289600)
I0104 02:09:15.408085 16818 net.cpp:165] Memory required for data: 2396406120
I0104 02:09:15.408097 16818 layer_factory.hpp:77] Creating layer conv_3c_3x3_reduce
I0104 02:09:15.408116 16818 net.cpp:100] Creating Layer conv_3c_3x3_reduce
I0104 02:09:15.408130 16818 net.cpp:434] conv_3c_3x3_reduce <- ch_concat_3b_chconcat_ch_concat_3b_chconcat_0_split_0
I0104 02:09:15.408149 16818 net.cpp:408] conv_3c_3x3_reduce -> conv_3c_3x3_reduce
I0104 02:09:15.409303 16818 net.cpp:150] Setting up conv_3c_3x3_reduce
I0104 02:09:15.409333 16818 net.cpp:157] Top shape: 30 192 28 28 (4515840)
I0104 02:09:15.409345 16818 net.cpp:165] Memory required for data: 2414469480
I0104 02:09:15.409363 16818 layer_factory.hpp:77] Creating layer bn_3c_3x3_reduce
I0104 02:09:15.409380 16818 net.cpp:100] Creating Layer bn_3c_3x3_reduce
I0104 02:09:15.409394 16818 net.cpp:434] bn_3c_3x3_reduce <- conv_3c_3x3_reduce
I0104 02:09:15.409412 16818 net.cpp:395] bn_3c_3x3_reduce -> conv_3c_3x3_reduce (in-place)
I0104 02:09:15.409648 16818 net.cpp:150] Setting up bn_3c_3x3_reduce
I0104 02:09:15.409669 16818 net.cpp:157] Top shape: 30 192 28 28 (4515840)
I0104 02:09:15.409682 16818 net.cpp:165] Memory required for data: 2432532840
I0104 02:09:15.409698 16818 layer_factory.hpp:77] Creating layer scale_conv_3c_3x3_reduce
I0104 02:09:15.409715 16818 net.cpp:100] Creating Layer scale_conv_3c_3x3_reduce
I0104 02:09:15.409728 16818 net.cpp:434] scale_conv_3c_3x3_reduce <- conv_3c_3x3_reduce
I0104 02:09:15.409747 16818 net.cpp:395] scale_conv_3c_3x3_reduce -> conv_3c_3x3_reduce (in-place)
I0104 02:09:15.409811 16818 layer_factory.hpp:77] Creating layer scale_conv_3c_3x3_reduce
I0104 02:09:15.409968 16818 net.cpp:150] Setting up scale_conv_3c_3x3_reduce
I0104 02:09:15.409988 16818 net.cpp:157] Top shape: 30 192 28 28 (4515840)
I0104 02:09:15.410001 16818 net.cpp:165] Memory required for data: 2450596200
I0104 02:09:15.410017 16818 layer_factory.hpp:77] Creating layer relu_3c_3x3_reduce
I0104 02:09:15.410034 16818 net.cpp:100] Creating Layer relu_3c_3x3_reduce
I0104 02:09:15.410048 16818 net.cpp:434] relu_3c_3x3_reduce <- conv_3c_3x3_reduce
I0104 02:09:15.410061 16818 net.cpp:395] relu_3c_3x3_reduce -> conv_3c_3x3_reduce (in-place)
I0104 02:09:15.410079 16818 net.cpp:150] Setting up relu_3c_3x3_reduce
I0104 02:09:15.410092 16818 net.cpp:157] Top shape: 30 192 28 28 (4515840)
I0104 02:09:15.410104 16818 net.cpp:165] Memory required for data: 2468659560
I0104 02:09:15.410115 16818 layer_factory.hpp:77] Creating layer conv_3c_3x3
I0104 02:09:15.410135 16818 net.cpp:100] Creating Layer conv_3c_3x3
I0104 02:09:15.410148 16818 net.cpp:434] conv_3c_3x3 <- conv_3c_3x3_reduce
I0104 02:09:15.410163 16818 net.cpp:408] conv_3c_3x3 -> conv_3c_3x3
I0104 02:09:15.411698 16818 net.cpp:150] Setting up conv_3c_3x3
I0104 02:09:15.411727 16818 net.cpp:157] Top shape: 30 240 14 14 (1411200)
I0104 02:09:15.411739 16818 net.cpp:165] Memory required for data: 2474304360
I0104 02:09:15.411756 16818 layer_factory.hpp:77] Creating layer bn_3c_3x3
I0104 02:09:15.411777 16818 net.cpp:100] Creating Layer bn_3c_3x3
I0104 02:09:15.411790 16818 net.cpp:434] bn_3c_3x3 <- conv_3c_3x3
I0104 02:09:15.411805 16818 net.cpp:395] bn_3c_3x3 -> conv_3c_3x3 (in-place)
I0104 02:09:15.412042 16818 net.cpp:150] Setting up bn_3c_3x3
I0104 02:09:15.412062 16818 net.cpp:157] Top shape: 30 240 14 14 (1411200)
I0104 02:09:15.412075 16818 net.cpp:165] Memory required for data: 2479949160
I0104 02:09:15.412120 16818 layer_factory.hpp:77] Creating layer scale_conv_3c_3x3
I0104 02:09:15.412142 16818 net.cpp:100] Creating Layer scale_conv_3c_3x3
I0104 02:09:15.412155 16818 net.cpp:434] scale_conv_3c_3x3 <- conv_3c_3x3
I0104 02:09:15.412170 16818 net.cpp:395] scale_conv_3c_3x3 -> conv_3c_3x3 (in-place)
I0104 02:09:15.412261 16818 layer_factory.hpp:77] Creating layer scale_conv_3c_3x3
I0104 02:09:15.412412 16818 net.cpp:150] Setting up scale_conv_3c_3x3
I0104 02:09:15.412432 16818 net.cpp:157] Top shape: 30 240 14 14 (1411200)
I0104 02:09:15.412444 16818 net.cpp:165] Memory required for data: 2485593960
I0104 02:09:15.412461 16818 layer_factory.hpp:77] Creating layer relu_3c_3x3
I0104 02:09:15.412475 16818 net.cpp:100] Creating Layer relu_3c_3x3
I0104 02:09:15.412487 16818 net.cpp:434] relu_3c_3x3 <- conv_3c_3x3
I0104 02:09:15.412505 16818 net.cpp:395] relu_3c_3x3 -> conv_3c_3x3 (in-place)
I0104 02:09:15.412521 16818 net.cpp:150] Setting up relu_3c_3x3
I0104 02:09:15.412536 16818 net.cpp:157] Top shape: 30 240 14 14 (1411200)
I0104 02:09:15.412547 16818 net.cpp:165] Memory required for data: 2491238760
I0104 02:09:15.412559 16818 layer_factory.hpp:77] Creating layer conv_3c_double_3x3_reduce
I0104 02:09:15.412580 16818 net.cpp:100] Creating Layer conv_3c_double_3x3_reduce
I0104 02:09:15.412595 16818 net.cpp:434] conv_3c_double_3x3_reduce <- ch_concat_3b_chconcat_ch_concat_3b_chconcat_0_split_1
I0104 02:09:15.412611 16818 net.cpp:408] conv_3c_double_3x3_reduce -> conv_3c_double_3x3_reduce
I0104 02:09:15.413647 16818 net.cpp:150] Setting up conv_3c_double_3x3_reduce
I0104 02:09:15.413676 16818 net.cpp:157] Top shape: 30 96 28 28 (2257920)
I0104 02:09:15.413687 16818 net.cpp:165] Memory required for data: 2500270440
I0104 02:09:15.413703 16818 layer_factory.hpp:77] Creating layer bn_3c_double_3x3_reduce
I0104 02:09:15.413724 16818 net.cpp:100] Creating Layer bn_3c_double_3x3_reduce
I0104 02:09:15.413738 16818 net.cpp:434] bn_3c_double_3x3_reduce <- conv_3c_double_3x3_reduce
I0104 02:09:15.413753 16818 net.cpp:395] bn_3c_double_3x3_reduce -> conv_3c_double_3x3_reduce (in-place)
I0104 02:09:15.413990 16818 net.cpp:150] Setting up bn_3c_double_3x3_reduce
I0104 02:09:15.414011 16818 net.cpp:157] Top shape: 30 96 28 28 (2257920)
I0104 02:09:15.414023 16818 net.cpp:165] Memory required for data: 2509302120
I0104 02:09:15.414041 16818 layer_factory.hpp:77] Creating layer scale_conv_3c_double_3x3_reduce
I0104 02:09:15.414060 16818 net.cpp:100] Creating Layer scale_conv_3c_double_3x3_reduce
I0104 02:09:15.414073 16818 net.cpp:434] scale_conv_3c_double_3x3_reduce <- conv_3c_double_3x3_reduce
I0104 02:09:15.414088 16818 net.cpp:395] scale_conv_3c_double_3x3_reduce -> conv_3c_double_3x3_reduce (in-place)
I0104 02:09:15.414155 16818 layer_factory.hpp:77] Creating layer scale_conv_3c_double_3x3_reduce
I0104 02:09:15.414321 16818 net.cpp:150] Setting up scale_conv_3c_double_3x3_reduce
I0104 02:09:15.414343 16818 net.cpp:157] Top shape: 30 96 28 28 (2257920)
I0104 02:09:15.414355 16818 net.cpp:165] Memory required for data: 2518333800
I0104 02:09:15.414371 16818 layer_factory.hpp:77] Creating layer relu_3c_double_3x3_reduce
I0104 02:09:15.414386 16818 net.cpp:100] Creating Layer relu_3c_double_3x3_reduce
I0104 02:09:15.414397 16818 net.cpp:434] relu_3c_double_3x3_reduce <- conv_3c_double_3x3_reduce
I0104 02:09:15.414414 16818 net.cpp:395] relu_3c_double_3x3_reduce -> conv_3c_double_3x3_reduce (in-place)
I0104 02:09:15.414433 16818 net.cpp:150] Setting up relu_3c_double_3x3_reduce
I0104 02:09:15.414446 16818 net.cpp:157] Top shape: 30 96 28 28 (2257920)
I0104 02:09:15.414458 16818 net.cpp:165] Memory required for data: 2527365480
I0104 02:09:15.414469 16818 layer_factory.hpp:77] Creating layer conv_3c_double_3x3_0
I0104 02:09:15.414487 16818 net.cpp:100] Creating Layer conv_3c_double_3x3_0
I0104 02:09:15.414499 16818 net.cpp:434] conv_3c_double_3x3_0 <- conv_3c_double_3x3_reduce
I0104 02:09:15.414518 16818 net.cpp:408] conv_3c_double_3x3_0 -> conv_3c_double_3x3_0
I0104 02:09:15.414924 16818 net.cpp:150] Setting up conv_3c_double_3x3_0
I0104 02:09:15.414947 16818 net.cpp:157] Top shape: 30 144 28 28 (3386880)
I0104 02:09:15.414959 16818 net.cpp:165] Memory required for data: 2540913000
I0104 02:09:15.414975 16818 layer_factory.hpp:77] Creating layer bn_3c_double_3x3_0
I0104 02:09:15.414995 16818 net.cpp:100] Creating Layer bn_3c_double_3x3_0
I0104 02:09:15.415019 16818 net.cpp:434] bn_3c_double_3x3_0 <- conv_3c_double_3x3_0
I0104 02:09:15.415035 16818 net.cpp:395] bn_3c_double_3x3_0 -> conv_3c_double_3x3_0 (in-place)
I0104 02:09:15.415278 16818 net.cpp:150] Setting up bn_3c_double_3x3_0
I0104 02:09:15.415299 16818 net.cpp:157] Top shape: 30 144 28 28 (3386880)
I0104 02:09:15.415310 16818 net.cpp:165] Memory required for data: 2554460520
I0104 02:09:15.415328 16818 layer_factory.hpp:77] Creating layer scale_conv_3c_double_3x3_0
I0104 02:09:15.415347 16818 net.cpp:100] Creating Layer scale_conv_3c_double_3x3_0
I0104 02:09:15.415361 16818 net.cpp:434] scale_conv_3c_double_3x3_0 <- conv_3c_double_3x3_0
I0104 02:09:15.415376 16818 net.cpp:395] scale_conv_3c_double_3x3_0 -> conv_3c_double_3x3_0 (in-place)
I0104 02:09:15.415441 16818 layer_factory.hpp:77] Creating layer scale_conv_3c_double_3x3_0
I0104 02:09:15.415598 16818 net.cpp:150] Setting up scale_conv_3c_double_3x3_0
I0104 02:09:15.415619 16818 net.cpp:157] Top shape: 30 144 28 28 (3386880)
I0104 02:09:15.415630 16818 net.cpp:165] Memory required for data: 2568008040
I0104 02:09:15.415647 16818 layer_factory.hpp:77] Creating layer relu_3c_double_3x3_0
I0104 02:09:15.415662 16818 net.cpp:100] Creating Layer relu_3c_double_3x3_0
I0104 02:09:15.415673 16818 net.cpp:434] relu_3c_double_3x3_0 <- conv_3c_double_3x3_0
I0104 02:09:15.415690 16818 net.cpp:395] relu_3c_double_3x3_0 -> conv_3c_double_3x3_0 (in-place)
I0104 02:09:15.415707 16818 net.cpp:150] Setting up relu_3c_double_3x3_0
I0104 02:09:15.415721 16818 net.cpp:157] Top shape: 30 144 28 28 (3386880)
I0104 02:09:15.415732 16818 net.cpp:165] Memory required for data: 2581555560
I0104 02:09:15.415745 16818 layer_factory.hpp:77] Creating layer conv_3c_double_3x3_1
I0104 02:09:15.415762 16818 net.cpp:100] Creating Layer conv_3c_double_3x3_1
I0104 02:09:15.415774 16818 net.cpp:434] conv_3c_double_3x3_1 <- conv_3c_double_3x3_0
I0104 02:09:15.415793 16818 net.cpp:408] conv_3c_double_3x3_1 -> conv_3c_double_3x3_1
I0104 02:09:15.416950 16818 net.cpp:150] Setting up conv_3c_double_3x3_1
I0104 02:09:15.416977 16818 net.cpp:157] Top shape: 30 144 14 14 (846720)
I0104 02:09:15.416990 16818 net.cpp:165] Memory required for data: 2584942440
I0104 02:09:15.417006 16818 layer_factory.hpp:77] Creating layer bn_3c_double_3x3_1
I0104 02:09:15.417029 16818 net.cpp:100] Creating Layer bn_3c_double_3x3_1
I0104 02:09:15.417043 16818 net.cpp:434] bn_3c_double_3x3_1 <- conv_3c_double_3x3_1
I0104 02:09:15.417058 16818 net.cpp:395] bn_3c_double_3x3_1 -> conv_3c_double_3x3_1 (in-place)
I0104 02:09:15.417309 16818 net.cpp:150] Setting up bn_3c_double_3x3_1
I0104 02:09:15.417330 16818 net.cpp:157] Top shape: 30 144 14 14 (846720)
I0104 02:09:15.417342 16818 net.cpp:165] Memory required for data: 2588329320
I0104 02:09:15.417359 16818 layer_factory.hpp:77] Creating layer scale_conv_3c_double_3x3_1
I0104 02:09:15.417376 16818 net.cpp:100] Creating Layer scale_conv_3c_double_3x3_1
I0104 02:09:15.417388 16818 net.cpp:434] scale_conv_3c_double_3x3_1 <- conv_3c_double_3x3_1
I0104 02:09:15.417403 16818 net.cpp:395] scale_conv_3c_double_3x3_1 -> conv_3c_double_3x3_1 (in-place)
I0104 02:09:15.417469 16818 layer_factory.hpp:77] Creating layer scale_conv_3c_double_3x3_1
I0104 02:09:15.417623 16818 net.cpp:150] Setting up scale_conv_3c_double_3x3_1
I0104 02:09:15.417642 16818 net.cpp:157] Top shape: 30 144 14 14 (846720)
I0104 02:09:15.417654 16818 net.cpp:165] Memory required for data: 2591716200
I0104 02:09:15.417670 16818 layer_factory.hpp:77] Creating layer relu_3c_double_3x3_1
I0104 02:09:15.417685 16818 net.cpp:100] Creating Layer relu_3c_double_3x3_1
I0104 02:09:15.417697 16818 net.cpp:434] relu_3c_double_3x3_1 <- conv_3c_double_3x3_1
I0104 02:09:15.417714 16818 net.cpp:395] relu_3c_double_3x3_1 -> conv_3c_double_3x3_1 (in-place)
I0104 02:09:15.417732 16818 net.cpp:150] Setting up relu_3c_double_3x3_1
I0104 02:09:15.417747 16818 net.cpp:157] Top shape: 30 144 14 14 (846720)
I0104 02:09:15.417758 16818 net.cpp:165] Memory required for data: 2595103080
I0104 02:09:15.417769 16818 layer_factory.hpp:77] Creating layer max_pool_3c_pool
I0104 02:09:15.417796 16818 net.cpp:100] Creating Layer max_pool_3c_pool
I0104 02:09:15.417810 16818 net.cpp:434] max_pool_3c_pool <- ch_concat_3b_chconcat_ch_concat_3b_chconcat_0_split_2
I0104 02:09:15.417830 16818 net.cpp:408] max_pool_3c_pool -> max_pool_3c_pool
I0104 02:09:15.417893 16818 net.cpp:150] Setting up max_pool_3c_pool
I0104 02:09:15.417912 16818 net.cpp:157] Top shape: 30 480 14 14 (2822400)
I0104 02:09:15.417923 16818 net.cpp:165] Memory required for data: 2606392680
I0104 02:09:15.417935 16818 layer_factory.hpp:77] Creating layer ch_concat_3c_chconcat
I0104 02:09:15.417953 16818 net.cpp:100] Creating Layer ch_concat_3c_chconcat
I0104 02:09:15.417964 16818 net.cpp:434] ch_concat_3c_chconcat <- conv_3c_3x3
I0104 02:09:15.417979 16818 net.cpp:434] ch_concat_3c_chconcat <- conv_3c_double_3x3_1
I0104 02:09:15.417991 16818 net.cpp:434] ch_concat_3c_chconcat <- max_pool_3c_pool
I0104 02:09:15.418006 16818 net.cpp:408] ch_concat_3c_chconcat -> ch_concat_3c_chconcat
I0104 02:09:15.418051 16818 net.cpp:150] Setting up ch_concat_3c_chconcat
I0104 02:09:15.418069 16818 net.cpp:157] Top shape: 30 864 14 14 (5080320)
I0104 02:09:15.418081 16818 net.cpp:165] Memory required for data: 2626713960
I0104 02:09:15.418092 16818 layer_factory.hpp:77] Creating layer ch_concat_3c_chconcat_ch_concat_3c_chconcat_0_split
I0104 02:09:15.418109 16818 net.cpp:100] Creating Layer ch_concat_3c_chconcat_ch_concat_3c_chconcat_0_split
I0104 02:09:15.418121 16818 net.cpp:434] ch_concat_3c_chconcat_ch_concat_3c_chconcat_0_split <- ch_concat_3c_chconcat
I0104 02:09:15.418136 16818 net.cpp:408] ch_concat_3c_chconcat_ch_concat_3c_chconcat_0_split -> ch_concat_3c_chconcat_ch_concat_3c_chconcat_0_split_0
I0104 02:09:15.418154 16818 net.cpp:408] ch_concat_3c_chconcat_ch_concat_3c_chconcat_0_split -> ch_concat_3c_chconcat_ch_concat_3c_chconcat_0_split_1
I0104 02:09:15.418175 16818 net.cpp:408] ch_concat_3c_chconcat_ch_concat_3c_chconcat_0_split -> ch_concat_3c_chconcat_ch_concat_3c_chconcat_0_split_2
I0104 02:09:15.418201 16818 net.cpp:408] ch_concat_3c_chconcat_ch_concat_3c_chconcat_0_split -> ch_concat_3c_chconcat_ch_concat_3c_chconcat_0_split_3
I0104 02:09:15.418287 16818 net.cpp:150] Setting up ch_concat_3c_chconcat_ch_concat_3c_chconcat_0_split
I0104 02:09:15.418305 16818 net.cpp:157] Top shape: 30 864 14 14 (5080320)
I0104 02:09:15.418318 16818 net.cpp:157] Top shape: 30 864 14 14 (5080320)
I0104 02:09:15.418331 16818 net.cpp:157] Top shape: 30 864 14 14 (5080320)
I0104 02:09:15.418344 16818 net.cpp:157] Top shape: 30 864 14 14 (5080320)
I0104 02:09:15.418355 16818 net.cpp:165] Memory required for data: 2707999080
I0104 02:09:15.418366 16818 layer_factory.hpp:77] Creating layer conv_4a_1x1
I0104 02:09:15.418388 16818 net.cpp:100] Creating Layer conv_4a_1x1
I0104 02:09:15.418401 16818 net.cpp:434] conv_4a_1x1 <- ch_concat_3c_chconcat_ch_concat_3c_chconcat_0_split_0
I0104 02:09:15.418419 16818 net.cpp:408] conv_4a_1x1 -> conv_4a_1x1
I0104 02:09:15.419575 16818 net.cpp:150] Setting up conv_4a_1x1
I0104 02:09:15.419602 16818 net.cpp:157] Top shape: 30 224 14 14 (1317120)
I0104 02:09:15.419615 16818 net.cpp:165] Memory required for data: 2713267560
I0104 02:09:15.419631 16818 layer_factory.hpp:77] Creating layer bn_4a_1x1
I0104 02:09:15.419647 16818 net.cpp:100] Creating Layer bn_4a_1x1
I0104 02:09:15.419661 16818 net.cpp:434] bn_4a_1x1 <- conv_4a_1x1
I0104 02:09:15.419678 16818 net.cpp:395] bn_4a_1x1 -> conv_4a_1x1 (in-place)
I0104 02:09:15.419926 16818 net.cpp:150] Setting up bn_4a_1x1
I0104 02:09:15.419947 16818 net.cpp:157] Top shape: 30 224 14 14 (1317120)
I0104 02:09:15.419960 16818 net.cpp:165] Memory required for data: 2718536040
I0104 02:09:15.419977 16818 layer_factory.hpp:77] Creating layer scale_conv_4a_1x1
I0104 02:09:15.419993 16818 net.cpp:100] Creating Layer scale_conv_4a_1x1
I0104 02:09:15.420006 16818 net.cpp:434] scale_conv_4a_1x1 <- conv_4a_1x1
I0104 02:09:15.420022 16818 net.cpp:395] scale_conv_4a_1x1 -> conv_4a_1x1 (in-place)
I0104 02:09:15.420087 16818 layer_factory.hpp:77] Creating layer scale_conv_4a_1x1
I0104 02:09:15.420260 16818 net.cpp:150] Setting up scale_conv_4a_1x1
I0104 02:09:15.420281 16818 net.cpp:157] Top shape: 30 224 14 14 (1317120)
I0104 02:09:15.420294 16818 net.cpp:165] Memory required for data: 2723804520
I0104 02:09:15.420310 16818 layer_factory.hpp:77] Creating layer relu_4a_1x1
I0104 02:09:15.420327 16818 net.cpp:100] Creating Layer relu_4a_1x1
I0104 02:09:15.420341 16818 net.cpp:434] relu_4a_1x1 <- conv_4a_1x1
I0104 02:09:15.420356 16818 net.cpp:395] relu_4a_1x1 -> conv_4a_1x1 (in-place)
I0104 02:09:15.420372 16818 net.cpp:150] Setting up relu_4a_1x1
I0104 02:09:15.420385 16818 net.cpp:157] Top shape: 30 224 14 14 (1317120)
I0104 02:09:15.420397 16818 net.cpp:165] Memory required for data: 2729073000
I0104 02:09:15.420408 16818 layer_factory.hpp:77] Creating layer conv_4a_3x3_reduce
I0104 02:09:15.420429 16818 net.cpp:100] Creating Layer conv_4a_3x3_reduce
I0104 02:09:15.420442 16818 net.cpp:434] conv_4a_3x3_reduce <- ch_concat_3c_chconcat_ch_concat_3c_chconcat_0_split_1
I0104 02:09:15.420459 16818 net.cpp:408] conv_4a_3x3_reduce -> conv_4a_3x3_reduce
I0104 02:09:15.420794 16818 net.cpp:150] Setting up conv_4a_3x3_reduce
I0104 02:09:15.420820 16818 net.cpp:157] Top shape: 30 64 14 14 (376320)
I0104 02:09:15.420833 16818 net.cpp:165] Memory required for data: 2730578280
I0104 02:09:15.420850 16818 layer_factory.hpp:77] Creating layer bn_4a_3x3_reduce
I0104 02:09:15.420866 16818 net.cpp:100] Creating Layer bn_4a_3x3_reduce
I0104 02:09:15.420879 16818 net.cpp:434] bn_4a_3x3_reduce <- conv_4a_3x3_reduce
I0104 02:09:15.420897 16818 net.cpp:395] bn_4a_3x3_reduce -> conv_4a_3x3_reduce (in-place)
I0104 02:09:15.421133 16818 net.cpp:150] Setting up bn_4a_3x3_reduce
I0104 02:09:15.421154 16818 net.cpp:157] Top shape: 30 64 14 14 (376320)
I0104 02:09:15.421166 16818 net.cpp:165] Memory required for data: 2732083560
I0104 02:09:15.421191 16818 layer_factory.hpp:77] Creating layer scale_conv_4a_3x3_reduce
I0104 02:09:15.421208 16818 net.cpp:100] Creating Layer scale_conv_4a_3x3_reduce
I0104 02:09:15.421221 16818 net.cpp:434] scale_conv_4a_3x3_reduce <- conv_4a_3x3_reduce
I0104 02:09:15.421239 16818 net.cpp:395] scale_conv_4a_3x3_reduce -> conv_4a_3x3_reduce (in-place)
I0104 02:09:15.421300 16818 layer_factory.hpp:77] Creating layer scale_conv_4a_3x3_reduce
I0104 02:09:15.421456 16818 net.cpp:150] Setting up scale_conv_4a_3x3_reduce
I0104 02:09:15.421476 16818 net.cpp:157] Top shape: 30 64 14 14 (376320)
I0104 02:09:15.421488 16818 net.cpp:165] Memory required for data: 2733588840
I0104 02:09:15.421504 16818 layer_factory.hpp:77] Creating layer relu_4a_3x3_reduce
I0104 02:09:15.421519 16818 net.cpp:100] Creating Layer relu_4a_3x3_reduce
I0104 02:09:15.421531 16818 net.cpp:434] relu_4a_3x3_reduce <- conv_4a_3x3_reduce
I0104 02:09:15.421548 16818 net.cpp:395] relu_4a_3x3_reduce -> conv_4a_3x3_reduce (in-place)
I0104 02:09:15.421566 16818 net.cpp:150] Setting up relu_4a_3x3_reduce
I0104 02:09:15.421579 16818 net.cpp:157] Top shape: 30 64 14 14 (376320)
I0104 02:09:15.421591 16818 net.cpp:165] Memory required for data: 2735094120
I0104 02:09:15.421602 16818 layer_factory.hpp:77] Creating layer conv_4a_3x3
I0104 02:09:15.421622 16818 net.cpp:100] Creating Layer conv_4a_3x3
I0104 02:09:15.421635 16818 net.cpp:434] conv_4a_3x3 <- conv_4a_3x3_reduce
I0104 02:09:15.421650 16818 net.cpp:408] conv_4a_3x3 -> conv_4a_3x3
I0104 02:09:15.421986 16818 net.cpp:150] Setting up conv_4a_3x3
I0104 02:09:15.422009 16818 net.cpp:157] Top shape: 30 96 14 14 (564480)
I0104 02:09:15.422021 16818 net.cpp:165] Memory required for data: 2737352040
I0104 02:09:15.422037 16818 layer_factory.hpp:77] Creating layer bn_4a_3x3
I0104 02:09:15.422055 16818 net.cpp:100] Creating Layer bn_4a_3x3
I0104 02:09:15.422068 16818 net.cpp:434] bn_4a_3x3 <- conv_4a_3x3
I0104 02:09:15.422082 16818 net.cpp:395] bn_4a_3x3 -> conv_4a_3x3 (in-place)
I0104 02:09:15.422327 16818 net.cpp:150] Setting up bn_4a_3x3
I0104 02:09:15.422348 16818 net.cpp:157] Top shape: 30 96 14 14 (564480)
I0104 02:09:15.422359 16818 net.cpp:165] Memory required for data: 2739609960
I0104 02:09:15.422386 16818 layer_factory.hpp:77] Creating layer scale_conv_4a_3x3
I0104 02:09:15.422404 16818 net.cpp:100] Creating Layer scale_conv_4a_3x3
I0104 02:09:15.422415 16818 net.cpp:434] scale_conv_4a_3x3 <- conv_4a_3x3
I0104 02:09:15.422430 16818 net.cpp:395] scale_conv_4a_3x3 -> conv_4a_3x3 (in-place)
I0104 02:09:15.422495 16818 layer_factory.hpp:77] Creating layer scale_conv_4a_3x3
I0104 02:09:15.422652 16818 net.cpp:150] Setting up scale_conv_4a_3x3
I0104 02:09:15.422673 16818 net.cpp:157] Top shape: 30 96 14 14 (564480)
I0104 02:09:15.422684 16818 net.cpp:165] Memory required for data: 2741867880
I0104 02:09:15.422700 16818 layer_factory.hpp:77] Creating layer relu_4a_3x3
I0104 02:09:15.422716 16818 net.cpp:100] Creating Layer relu_4a_3x3
I0104 02:09:15.422727 16818 net.cpp:434] relu_4a_3x3 <- conv_4a_3x3
I0104 02:09:15.422744 16818 net.cpp:395] relu_4a_3x3 -> conv_4a_3x3 (in-place)
I0104 02:09:15.422760 16818 net.cpp:150] Setting up relu_4a_3x3
I0104 02:09:15.422775 16818 net.cpp:157] Top shape: 30 96 14 14 (564480)
I0104 02:09:15.422786 16818 net.cpp:165] Memory required for data: 2744125800
I0104 02:09:15.422797 16818 layer_factory.hpp:77] Creating layer conv_4a_double_3x3_reduce
I0104 02:09:15.422816 16818 net.cpp:100] Creating Layer conv_4a_double_3x3_reduce
I0104 02:09:15.422832 16818 net.cpp:434] conv_4a_double_3x3_reduce <- ch_concat_3c_chconcat_ch_concat_3c_chconcat_0_split_2
I0104 02:09:15.422847 16818 net.cpp:408] conv_4a_double_3x3_reduce -> conv_4a_double_3x3_reduce
I0104 02:09:15.423969 16818 net.cpp:150] Setting up conv_4a_double_3x3_reduce
I0104 02:09:15.424000 16818 net.cpp:157] Top shape: 30 96 14 14 (564480)
I0104 02:09:15.424013 16818 net.cpp:165] Memory required for data: 2746383720
I0104 02:09:15.424031 16818 layer_factory.hpp:77] Creating layer bn_4a_double_3x3_reduce
I0104 02:09:15.424052 16818 net.cpp:100] Creating Layer bn_4a_double_3x3_reduce
I0104 02:09:15.424064 16818 net.cpp:434] bn_4a_double_3x3_reduce <- conv_4a_double_3x3_reduce
I0104 02:09:15.424080 16818 net.cpp:395] bn_4a_double_3x3_reduce -> conv_4a_double_3x3_reduce (in-place)
I0104 02:09:15.424329 16818 net.cpp:150] Setting up bn_4a_double_3x3_reduce
I0104 02:09:15.424350 16818 net.cpp:157] Top shape: 30 96 14 14 (564480)
I0104 02:09:15.424361 16818 net.cpp:165] Memory required for data: 2748641640
I0104 02:09:15.424379 16818 layer_factory.hpp:77] Creating layer scale_conv_4a_double_3x3_reduce
I0104 02:09:15.424399 16818 net.cpp:100] Creating Layer scale_conv_4a_double_3x3_reduce
I0104 02:09:15.424412 16818 net.cpp:434] scale_conv_4a_double_3x3_reduce <- conv_4a_double_3x3_reduce
I0104 02:09:15.424427 16818 net.cpp:395] scale_conv_4a_double_3x3_reduce -> conv_4a_double_3x3_reduce (in-place)
I0104 02:09:15.424490 16818 layer_factory.hpp:77] Creating layer scale_conv_4a_double_3x3_reduce
I0104 02:09:15.424655 16818 net.cpp:150] Setting up scale_conv_4a_double_3x3_reduce
I0104 02:09:15.424676 16818 net.cpp:157] Top shape: 30 96 14 14 (564480)
I0104 02:09:15.424687 16818 net.cpp:165] Memory required for data: 2750899560
I0104 02:09:15.424703 16818 layer_factory.hpp:77] Creating layer relu_4a_double_3x3_reduce
I0104 02:09:15.424720 16818 net.cpp:100] Creating Layer relu_4a_double_3x3_reduce
I0104 02:09:15.424731 16818 net.cpp:434] relu_4a_double_3x3_reduce <- conv_4a_double_3x3_reduce
I0104 02:09:15.424749 16818 net.cpp:395] relu_4a_double_3x3_reduce -> conv_4a_double_3x3_reduce (in-place)
I0104 02:09:15.424767 16818 net.cpp:150] Setting up relu_4a_double_3x3_reduce
I0104 02:09:15.424782 16818 net.cpp:157] Top shape: 30 96 14 14 (564480)
I0104 02:09:15.424793 16818 net.cpp:165] Memory required for data: 2753157480
I0104 02:09:15.424805 16818 layer_factory.hpp:77] Creating layer conv_4a_double_3x3_0
I0104 02:09:15.424824 16818 net.cpp:100] Creating Layer conv_4a_double_3x3_0
I0104 02:09:15.424836 16818 net.cpp:434] conv_4a_double_3x3_0 <- conv_4a_double_3x3_reduce
I0104 02:09:15.424855 16818 net.cpp:408] conv_4a_double_3x3_0 -> conv_4a_double_3x3_0
I0104 02:09:15.425221 16818 net.cpp:150] Setting up conv_4a_double_3x3_0
I0104 02:09:15.425254 16818 net.cpp:157] Top shape: 30 128 14 14 (752640)
I0104 02:09:15.425266 16818 net.cpp:165] Memory required for data: 2756168040
I0104 02:09:15.425282 16818 layer_factory.hpp:77] Creating layer bn_4a_double_3x3_0
I0104 02:09:15.425298 16818 net.cpp:100] Creating Layer bn_4a_double_3x3_0
I0104 02:09:15.425312 16818 net.cpp:434] bn_4a_double_3x3_0 <- conv_4a_double_3x3_0
I0104 02:09:15.425330 16818 net.cpp:395] bn_4a_double_3x3_0 -> conv_4a_double_3x3_0 (in-place)
I0104 02:09:15.425557 16818 net.cpp:150] Setting up bn_4a_double_3x3_0
I0104 02:09:15.425577 16818 net.cpp:157] Top shape: 30 128 14 14 (752640)
I0104 02:09:15.425590 16818 net.cpp:165] Memory required for data: 2759178600
I0104 02:09:15.425606 16818 layer_factory.hpp:77] Creating layer scale_conv_4a_double_3x3_0
I0104 02:09:15.425622 16818 net.cpp:100] Creating Layer scale_conv_4a_double_3x3_0
I0104 02:09:15.425634 16818 net.cpp:434] scale_conv_4a_double_3x3_0 <- conv_4a_double_3x3_0
I0104 02:09:15.425648 16818 net.cpp:395] scale_conv_4a_double_3x3_0 -> conv_4a_double_3x3_0 (in-place)
I0104 02:09:15.425709 16818 layer_factory.hpp:77] Creating layer scale_conv_4a_double_3x3_0
I0104 02:09:15.425853 16818 net.cpp:150] Setting up scale_conv_4a_double_3x3_0
I0104 02:09:15.425873 16818 net.cpp:157] Top shape: 30 128 14 14 (752640)
I0104 02:09:15.425884 16818 net.cpp:165] Memory required for data: 2762189160
I0104 02:09:15.425899 16818 layer_factory.hpp:77] Creating layer relu_4a_double_3x3_0
I0104 02:09:15.425918 16818 net.cpp:100] Creating Layer relu_4a_double_3x3_0
I0104 02:09:15.425930 16818 net.cpp:434] relu_4a_double_3x3_0 <- conv_4a_double_3x3_0
I0104 02:09:15.425945 16818 net.cpp:395] relu_4a_double_3x3_0 -> conv_4a_double_3x3_0 (in-place)
I0104 02:09:15.425961 16818 net.cpp:150] Setting up relu_4a_double_3x3_0
I0104 02:09:15.425976 16818 net.cpp:157] Top shape: 30 128 14 14 (752640)
I0104 02:09:15.425987 16818 net.cpp:165] Memory required for data: 2765199720
I0104 02:09:15.425997 16818 layer_factory.hpp:77] Creating layer conv_4a_double_3x3_1
I0104 02:09:15.426018 16818 net.cpp:100] Creating Layer conv_4a_double_3x3_1
I0104 02:09:15.426031 16818 net.cpp:434] conv_4a_double_3x3_1 <- conv_4a_double_3x3_0
I0104 02:09:15.426050 16818 net.cpp:408] conv_4a_double_3x3_1 -> conv_4a_double_3x3_1
I0104 02:09:15.427336 16818 net.cpp:150] Setting up conv_4a_double_3x3_1
I0104 02:09:15.427369 16818 net.cpp:157] Top shape: 30 128 14 14 (752640)
I0104 02:09:15.427382 16818 net.cpp:165] Memory required for data: 2768210280
I0104 02:09:15.427399 16818 layer_factory.hpp:77] Creating layer bn_4a_double_3x3_1
I0104 02:09:15.427420 16818 net.cpp:100] Creating Layer bn_4a_double_3x3_1
I0104 02:09:15.427434 16818 net.cpp:434] bn_4a_double_3x3_1 <- conv_4a_double_3x3_1
I0104 02:09:15.427449 16818 net.cpp:395] bn_4a_double_3x3_1 -> conv_4a_double_3x3_1 (in-place)
I0104 02:09:15.427686 16818 net.cpp:150] Setting up bn_4a_double_3x3_1
I0104 02:09:15.427707 16818 net.cpp:157] Top shape: 30 128 14 14 (752640)
I0104 02:09:15.427719 16818 net.cpp:165] Memory required for data: 2771220840
I0104 02:09:15.427737 16818 layer_factory.hpp:77] Creating layer scale_conv_4a_double_3x3_1
I0104 02:09:15.427755 16818 net.cpp:100] Creating Layer scale_conv_4a_double_3x3_1
I0104 02:09:15.427767 16818 net.cpp:434] scale_conv_4a_double_3x3_1 <- conv_4a_double_3x3_1
I0104 02:09:15.427781 16818 net.cpp:395] scale_conv_4a_double_3x3_1 -> conv_4a_double_3x3_1 (in-place)
I0104 02:09:15.427847 16818 layer_factory.hpp:77] Creating layer scale_conv_4a_double_3x3_1
I0104 02:09:15.428035 16818 net.cpp:150] Setting up scale_conv_4a_double_3x3_1
I0104 02:09:15.428058 16818 net.cpp:157] Top shape: 30 128 14 14 (752640)
I0104 02:09:15.428071 16818 net.cpp:165] Memory required for data: 2774231400
I0104 02:09:15.428087 16818 layer_factory.hpp:77] Creating layer relu_4a_double_3x3_1
I0104 02:09:15.428109 16818 net.cpp:100] Creating Layer relu_4a_double_3x3_1
I0104 02:09:15.428128 16818 net.cpp:434] relu_4a_double_3x3_1 <- conv_4a_double_3x3_1
I0104 02:09:15.428153 16818 net.cpp:395] relu_4a_double_3x3_1 -> conv_4a_double_3x3_1 (in-place)
I0104 02:09:15.428196 16818 net.cpp:150] Setting up relu_4a_double_3x3_1
I0104 02:09:15.428221 16818 net.cpp:157] Top shape: 30 128 14 14 (752640)
I0104 02:09:15.428242 16818 net.cpp:165] Memory required for data: 2777241960
I0104 02:09:15.428262 16818 layer_factory.hpp:77] Creating layer ave_pool_4a_pool
I0104 02:09:15.428287 16818 net.cpp:100] Creating Layer ave_pool_4a_pool
I0104 02:09:15.428308 16818 net.cpp:434] ave_pool_4a_pool <- ch_concat_3c_chconcat_ch_concat_3c_chconcat_0_split_3
I0104 02:09:15.428331 16818 net.cpp:408] ave_pool_4a_pool -> ave_pool_4a_pool
I0104 02:09:15.428397 16818 net.cpp:150] Setting up ave_pool_4a_pool
I0104 02:09:15.428424 16818 net.cpp:157] Top shape: 30 864 14 14 (5080320)
I0104 02:09:15.428442 16818 net.cpp:165] Memory required for data: 2797563240
I0104 02:09:15.428459 16818 layer_factory.hpp:77] Creating layer conv_4a_proj
I0104 02:09:15.428485 16818 net.cpp:100] Creating Layer conv_4a_proj
I0104 02:09:15.428504 16818 net.cpp:434] conv_4a_proj <- ave_pool_4a_pool
I0104 02:09:15.428534 16818 net.cpp:408] conv_4a_proj -> conv_4a_proj
I0104 02:09:15.428917 16818 net.cpp:150] Setting up conv_4a_proj
I0104 02:09:15.428941 16818 net.cpp:157] Top shape: 30 128 14 14 (752640)
I0104 02:09:15.428952 16818 net.cpp:165] Memory required for data: 2800573800
I0104 02:09:15.428975 16818 layer_factory.hpp:77] Creating layer bn_4a_proj
I0104 02:09:15.429049 16818 net.cpp:100] Creating Layer bn_4a_proj
I0104 02:09:15.429066 16818 net.cpp:434] bn_4a_proj <- conv_4a_proj
I0104 02:09:15.429081 16818 net.cpp:395] bn_4a_proj -> conv_4a_proj (in-place)
I0104 02:09:15.429321 16818 net.cpp:150] Setting up bn_4a_proj
I0104 02:09:15.429344 16818 net.cpp:157] Top shape: 30 128 14 14 (752640)
I0104 02:09:15.429358 16818 net.cpp:165] Memory required for data: 2803584360
I0104 02:09:15.429376 16818 layer_factory.hpp:77] Creating layer scale_conv_4a_proj
I0104 02:09:15.429396 16818 net.cpp:100] Creating Layer scale_conv_4a_proj
I0104 02:09:15.429409 16818 net.cpp:434] scale_conv_4a_proj <- conv_4a_proj
I0104 02:09:15.429425 16818 net.cpp:395] scale_conv_4a_proj -> conv_4a_proj (in-place)
I0104 02:09:15.429491 16818 layer_factory.hpp:77] Creating layer scale_conv_4a_proj
I0104 02:09:15.429637 16818 net.cpp:150] Setting up scale_conv_4a_proj
I0104 02:09:15.429659 16818 net.cpp:157] Top shape: 30 128 14 14 (752640)
I0104 02:09:15.429672 16818 net.cpp:165] Memory required for data: 2806594920
I0104 02:09:15.429687 16818 layer_factory.hpp:77] Creating layer relu_4a_proj
I0104 02:09:15.429702 16818 net.cpp:100] Creating Layer relu_4a_proj
I0104 02:09:15.429714 16818 net.cpp:434] relu_4a_proj <- conv_4a_proj
I0104 02:09:15.429731 16818 net.cpp:395] relu_4a_proj -> conv_4a_proj (in-place)
I0104 02:09:15.429749 16818 net.cpp:150] Setting up relu_4a_proj
I0104 02:09:15.429762 16818 net.cpp:157] Top shape: 30 128 14 14 (752640)
I0104 02:09:15.429774 16818 net.cpp:165] Memory required for data: 2809605480
I0104 02:09:15.429785 16818 layer_factory.hpp:77] Creating layer ch_concat_4a_chconcat
I0104 02:09:15.429800 16818 net.cpp:100] Creating Layer ch_concat_4a_chconcat
I0104 02:09:15.429812 16818 net.cpp:434] ch_concat_4a_chconcat <- conv_4a_1x1
I0104 02:09:15.429826 16818 net.cpp:434] ch_concat_4a_chconcat <- conv_4a_3x3
I0104 02:09:15.429839 16818 net.cpp:434] ch_concat_4a_chconcat <- conv_4a_double_3x3_1
I0104 02:09:15.429852 16818 net.cpp:434] ch_concat_4a_chconcat <- conv_4a_proj
I0104 02:09:15.429869 16818 net.cpp:408] ch_concat_4a_chconcat -> ch_concat_4a_chconcat
I0104 02:09:15.429911 16818 net.cpp:150] Setting up ch_concat_4a_chconcat
I0104 02:09:15.429929 16818 net.cpp:157] Top shape: 30 576 14 14 (3386880)
I0104 02:09:15.429941 16818 net.cpp:165] Memory required for data: 2823153000
I0104 02:09:15.429954 16818 layer_factory.hpp:77] Creating layer ch_concat_4a_chconcat_ch_concat_4a_chconcat_0_split
I0104 02:09:15.429973 16818 net.cpp:100] Creating Layer ch_concat_4a_chconcat_ch_concat_4a_chconcat_0_split
I0104 02:09:15.429987 16818 net.cpp:434] ch_concat_4a_chconcat_ch_concat_4a_chconcat_0_split <- ch_concat_4a_chconcat
I0104 02:09:15.430012 16818 net.cpp:408] ch_concat_4a_chconcat_ch_concat_4a_chconcat_0_split -> ch_concat_4a_chconcat_ch_concat_4a_chconcat_0_split_0
I0104 02:09:15.430040 16818 net.cpp:408] ch_concat_4a_chconcat_ch_concat_4a_chconcat_0_split -> ch_concat_4a_chconcat_ch_concat_4a_chconcat_0_split_1
I0104 02:09:15.430068 16818 net.cpp:408] ch_concat_4a_chconcat_ch_concat_4a_chconcat_0_split -> ch_concat_4a_chconcat_ch_concat_4a_chconcat_0_split_2
I0104 02:09:15.430089 16818 net.cpp:408] ch_concat_4a_chconcat_ch_concat_4a_chconcat_0_split -> ch_concat_4a_chconcat_ch_concat_4a_chconcat_0_split_3
I0104 02:09:15.430172 16818 net.cpp:150] Setting up ch_concat_4a_chconcat_ch_concat_4a_chconcat_0_split
I0104 02:09:15.430197 16818 net.cpp:157] Top shape: 30 576 14 14 (3386880)
I0104 02:09:15.430212 16818 net.cpp:157] Top shape: 30 576 14 14 (3386880)
I0104 02:09:15.430224 16818 net.cpp:157] Top shape: 30 576 14 14 (3386880)
I0104 02:09:15.430236 16818 net.cpp:157] Top shape: 30 576 14 14 (3386880)
I0104 02:09:15.430248 16818 net.cpp:165] Memory required for data: 2877343080
I0104 02:09:15.430259 16818 layer_factory.hpp:77] Creating layer conv_4b_1x1
I0104 02:09:15.430277 16818 net.cpp:100] Creating Layer conv_4b_1x1
I0104 02:09:15.430290 16818 net.cpp:434] conv_4b_1x1 <- ch_concat_4a_chconcat_ch_concat_4a_chconcat_0_split_0
I0104 02:09:15.430312 16818 net.cpp:408] conv_4b_1x1 -> conv_4b_1x1
I0104 02:09:15.431457 16818 net.cpp:150] Setting up conv_4b_1x1
I0104 02:09:15.431488 16818 net.cpp:157] Top shape: 30 192 14 14 (1128960)
I0104 02:09:15.431501 16818 net.cpp:165] Memory required for data: 2881858920
I0104 02:09:15.431519 16818 layer_factory.hpp:77] Creating layer bn_4b_1x1
I0104 02:09:15.431538 16818 net.cpp:100] Creating Layer bn_4b_1x1
I0104 02:09:15.431552 16818 net.cpp:434] bn_4b_1x1 <- conv_4b_1x1
I0104 02:09:15.431567 16818 net.cpp:395] bn_4b_1x1 -> conv_4b_1x1 (in-place)
I0104 02:09:15.431808 16818 net.cpp:150] Setting up bn_4b_1x1
I0104 02:09:15.431831 16818 net.cpp:157] Top shape: 30 192 14 14 (1128960)
I0104 02:09:15.431844 16818 net.cpp:165] Memory required for data: 2886374760
I0104 02:09:15.431862 16818 layer_factory.hpp:77] Creating layer scale_conv_4b_1x1
I0104 02:09:15.431879 16818 net.cpp:100] Creating Layer scale_conv_4b_1x1
I0104 02:09:15.431893 16818 net.cpp:434] scale_conv_4b_1x1 <- conv_4b_1x1
I0104 02:09:15.431907 16818 net.cpp:395] scale_conv_4b_1x1 -> conv_4b_1x1 (in-place)
I0104 02:09:15.431977 16818 layer_factory.hpp:77] Creating layer scale_conv_4b_1x1
I0104 02:09:15.432134 16818 net.cpp:150] Setting up scale_conv_4b_1x1
I0104 02:09:15.432171 16818 net.cpp:157] Top shape: 30 192 14 14 (1128960)
I0104 02:09:15.432198 16818 net.cpp:165] Memory required for data: 2890890600
I0104 02:09:15.432217 16818 layer_factory.hpp:77] Creating layer relu_4b_1x1
I0104 02:09:15.432237 16818 net.cpp:100] Creating Layer relu_4b_1x1
I0104 02:09:15.432250 16818 net.cpp:434] relu_4b_1x1 <- conv_4b_1x1
I0104 02:09:15.432263 16818 net.cpp:395] relu_4b_1x1 -> conv_4b_1x1 (in-place)
I0104 02:09:15.432279 16818 net.cpp:150] Setting up relu_4b_1x1
I0104 02:09:15.432293 16818 net.cpp:157] Top shape: 30 192 14 14 (1128960)
I0104 02:09:15.432306 16818 net.cpp:165] Memory required for data: 2895406440
I0104 02:09:15.432317 16818 layer_factory.hpp:77] Creating layer conv_4b_3x3_reduce
I0104 02:09:15.432338 16818 net.cpp:100] Creating Layer conv_4b_3x3_reduce
I0104 02:09:15.432353 16818 net.cpp:434] conv_4b_3x3_reduce <- ch_concat_4a_chconcat_ch_concat_4a_chconcat_0_split_1
I0104 02:09:15.432371 16818 net.cpp:408] conv_4b_3x3_reduce -> conv_4b_3x3_reduce
I0104 02:09:15.432721 16818 net.cpp:150] Setting up conv_4b_3x3_reduce
I0104 02:09:15.432747 16818 net.cpp:157] Top shape: 30 96 14 14 (564480)
I0104 02:09:15.432761 16818 net.cpp:165] Memory required for data: 2897664360
I0104 02:09:15.432776 16818 layer_factory.hpp:77] Creating layer bn_4b_3x3_reduce
I0104 02:09:15.432793 16818 net.cpp:100] Creating Layer bn_4b_3x3_reduce
I0104 02:09:15.432812 16818 net.cpp:434] bn_4b_3x3_reduce <- conv_4b_3x3_reduce
I0104 02:09:15.432839 16818 net.cpp:395] bn_4b_3x3_reduce -> conv_4b_3x3_reduce (in-place)
I0104 02:09:15.433081 16818 net.cpp:150] Setting up bn_4b_3x3_reduce
I0104 02:09:15.433105 16818 net.cpp:157] Top shape: 30 96 14 14 (564480)
I0104 02:09:15.433120 16818 net.cpp:165] Memory required for data: 2899922280
I0104 02:09:15.433137 16818 layer_factory.hpp:77] Creating layer scale_conv_4b_3x3_reduce
I0104 02:09:15.433153 16818 net.cpp:100] Creating Layer scale_conv_4b_3x3_reduce
I0104 02:09:15.433166 16818 net.cpp:434] scale_conv_4b_3x3_reduce <- conv_4b_3x3_reduce
I0104 02:09:15.433187 16818 net.cpp:395] scale_conv_4b_3x3_reduce -> conv_4b_3x3_reduce (in-place)
I0104 02:09:15.433276 16818 layer_factory.hpp:77] Creating layer scale_conv_4b_3x3_reduce
I0104 02:09:15.433435 16818 net.cpp:150] Setting up scale_conv_4b_3x3_reduce
I0104 02:09:15.433460 16818 net.cpp:157] Top shape: 30 96 14 14 (564480)
I0104 02:09:15.433472 16818 net.cpp:165] Memory required for data: 2902180200
I0104 02:09:15.433490 16818 layer_factory.hpp:77] Creating layer relu_4b_3x3_reduce
I0104 02:09:15.433504 16818 net.cpp:100] Creating Layer relu_4b_3x3_reduce
I0104 02:09:15.433517 16818 net.cpp:434] relu_4b_3x3_reduce <- conv_4b_3x3_reduce
I0104 02:09:15.433531 16818 net.cpp:395] relu_4b_3x3_reduce -> conv_4b_3x3_reduce (in-place)
I0104 02:09:15.433547 16818 net.cpp:150] Setting up relu_4b_3x3_reduce
I0104 02:09:15.433562 16818 net.cpp:157] Top shape: 30 96 14 14 (564480)
I0104 02:09:15.433573 16818 net.cpp:165] Memory required for data: 2904438120
I0104 02:09:15.433584 16818 layer_factory.hpp:77] Creating layer conv_4b_3x3
I0104 02:09:15.433604 16818 net.cpp:100] Creating Layer conv_4b_3x3
I0104 02:09:15.433620 16818 net.cpp:434] conv_4b_3x3 <- conv_4b_3x3_reduce
I0104 02:09:15.433639 16818 net.cpp:408] conv_4b_3x3 -> conv_4b_3x3
I0104 02:09:15.434042 16818 net.cpp:150] Setting up conv_4b_3x3
I0104 02:09:15.434068 16818 net.cpp:157] Top shape: 30 128 14 14 (752640)
I0104 02:09:15.434080 16818 net.cpp:165] Memory required for data: 2907448680
I0104 02:09:15.434098 16818 layer_factory.hpp:77] Creating layer bn_4b_3x3
I0104 02:09:15.434118 16818 net.cpp:100] Creating Layer bn_4b_3x3
I0104 02:09:15.434130 16818 net.cpp:434] bn_4b_3x3 <- conv_4b_3x3
I0104 02:09:15.434145 16818 net.cpp:395] bn_4b_3x3 -> conv_4b_3x3 (in-place)
I0104 02:09:15.434403 16818 net.cpp:150] Setting up bn_4b_3x3
I0104 02:09:15.434428 16818 net.cpp:157] Top shape: 30 128 14 14 (752640)
I0104 02:09:15.434442 16818 net.cpp:165] Memory required for data: 2910459240
I0104 02:09:15.434460 16818 layer_factory.hpp:77] Creating layer scale_conv_4b_3x3
I0104 02:09:15.434476 16818 net.cpp:100] Creating Layer scale_conv_4b_3x3
I0104 02:09:15.434489 16818 net.cpp:434] scale_conv_4b_3x3 <- conv_4b_3x3
I0104 02:09:15.434507 16818 net.cpp:395] scale_conv_4b_3x3 -> conv_4b_3x3 (in-place)
I0104 02:09:15.434569 16818 layer_factory.hpp:77] Creating layer scale_conv_4b_3x3
I0104 02:09:15.434718 16818 net.cpp:150] Setting up scale_conv_4b_3x3
I0104 02:09:15.434743 16818 net.cpp:157] Top shape: 30 128 14 14 (752640)
I0104 02:09:15.434756 16818 net.cpp:165] Memory required for data: 2913469800
I0104 02:09:15.434770 16818 layer_factory.hpp:77] Creating layer relu_4b_3x3
I0104 02:09:15.434785 16818 net.cpp:100] Creating Layer relu_4b_3x3
I0104 02:09:15.434798 16818 net.cpp:434] relu_4b_3x3 <- conv_4b_3x3
I0104 02:09:15.434813 16818 net.cpp:395] relu_4b_3x3 -> conv_4b_3x3 (in-place)
I0104 02:09:15.434828 16818 net.cpp:150] Setting up relu_4b_3x3
I0104 02:09:15.434842 16818 net.cpp:157] Top shape: 30 128 14 14 (752640)
I0104 02:09:15.434854 16818 net.cpp:165] Memory required for data: 2916480360
I0104 02:09:15.434865 16818 layer_factory.hpp:77] Creating layer conv_4b_double_3x3_reduce
I0104 02:09:15.434885 16818 net.cpp:100] Creating Layer conv_4b_double_3x3_reduce
I0104 02:09:15.434900 16818 net.cpp:434] conv_4b_double_3x3_reduce <- ch_concat_4a_chconcat_ch_concat_4a_chconcat_0_split_2
I0104 02:09:15.434918 16818 net.cpp:408] conv_4b_double_3x3_reduce -> conv_4b_double_3x3_reduce
I0104 02:09:15.436090 16818 net.cpp:150] Setting up conv_4b_double_3x3_reduce
I0104 02:09:15.436122 16818 net.cpp:157] Top shape: 30 96 14 14 (564480)
I0104 02:09:15.436137 16818 net.cpp:165] Memory required for data: 2918738280
I0104 02:09:15.436153 16818 layer_factory.hpp:77] Creating layer bn_4b_double_3x3_reduce
I0104 02:09:15.436172 16818 net.cpp:100] Creating Layer bn_4b_double_3x3_reduce
I0104 02:09:15.436193 16818 net.cpp:434] bn_4b_double_3x3_reduce <- conv_4b_double_3x3_reduce
I0104 02:09:15.436214 16818 net.cpp:395] bn_4b_double_3x3_reduce -> conv_4b_double_3x3_reduce (in-place)
I0104 02:09:15.436480 16818 net.cpp:150] Setting up bn_4b_double_3x3_reduce
I0104 02:09:15.436506 16818 net.cpp:157] Top shape: 30 96 14 14 (564480)
I0104 02:09:15.436519 16818 net.cpp:165] Memory required for data: 2920996200
I0104 02:09:15.436537 16818 layer_factory.hpp:77] Creating layer scale_conv_4b_double_3x3_reduce
I0104 02:09:15.436554 16818 net.cpp:100] Creating Layer scale_conv_4b_double_3x3_reduce
I0104 02:09:15.436568 16818 net.cpp:434] scale_conv_4b_double_3x3_reduce <- conv_4b_double_3x3_reduce
I0104 02:09:15.436588 16818 net.cpp:395] scale_conv_4b_double_3x3_reduce -> conv_4b_double_3x3_reduce (in-place)
I0104 02:09:15.436650 16818 layer_factory.hpp:77] Creating layer scale_conv_4b_double_3x3_reduce
I0104 02:09:15.436811 16818 net.cpp:150] Setting up scale_conv_4b_double_3x3_reduce
I0104 02:09:15.436833 16818 net.cpp:157] Top shape: 30 96 14 14 (564480)
I0104 02:09:15.436846 16818 net.cpp:165] Memory required for data: 2923254120
I0104 02:09:15.436863 16818 layer_factory.hpp:77] Creating layer relu_4b_double_3x3_reduce
I0104 02:09:15.436882 16818 net.cpp:100] Creating Layer relu_4b_double_3x3_reduce
I0104 02:09:15.436895 16818 net.cpp:434] relu_4b_double_3x3_reduce <- conv_4b_double_3x3_reduce
I0104 02:09:15.436910 16818 net.cpp:395] relu_4b_double_3x3_reduce -> conv_4b_double_3x3_reduce (in-place)
I0104 02:09:15.436928 16818 net.cpp:150] Setting up relu_4b_double_3x3_reduce
I0104 02:09:15.436942 16818 net.cpp:157] Top shape: 30 96 14 14 (564480)
I0104 02:09:15.436954 16818 net.cpp:165] Memory required for data: 2925512040
I0104 02:09:15.436965 16818 layer_factory.hpp:77] Creating layer conv_4b_double_3x3_0
I0104 02:09:15.436985 16818 net.cpp:100] Creating Layer conv_4b_double_3x3_0
I0104 02:09:15.436998 16818 net.cpp:434] conv_4b_double_3x3_0 <- conv_4b_double_3x3_reduce
I0104 02:09:15.437014 16818 net.cpp:408] conv_4b_double_3x3_0 -> conv_4b_double_3x3_0
I0104 02:09:15.438051 16818 net.cpp:150] Setting up conv_4b_double_3x3_0
I0104 02:09:15.438081 16818 net.cpp:157] Top shape: 30 128 14 14 (752640)
I0104 02:09:15.438094 16818 net.cpp:165] Memory required for data: 2928522600
I0104 02:09:15.438110 16818 layer_factory.hpp:77] Creating layer bn_4b_double_3x3_0
I0104 02:09:15.438130 16818 net.cpp:100] Creating Layer bn_4b_double_3x3_0
I0104 02:09:15.438145 16818 net.cpp:434] bn_4b_double_3x3_0 <- conv_4b_double_3x3_0
I0104 02:09:15.438160 16818 net.cpp:395] bn_4b_double_3x3_0 -> conv_4b_double_3x3_0 (in-place)
I0104 02:09:15.438406 16818 net.cpp:150] Setting up bn_4b_double_3x3_0
I0104 02:09:15.438428 16818 net.cpp:157] Top shape: 30 128 14 14 (752640)
I0104 02:09:15.438441 16818 net.cpp:165] Memory required for data: 2931533160
I0104 02:09:15.438459 16818 layer_factory.hpp:77] Creating layer scale_conv_4b_double_3x3_0
I0104 02:09:15.438477 16818 net.cpp:100] Creating Layer scale_conv_4b_double_3x3_0
I0104 02:09:15.438488 16818 net.cpp:434] scale_conv_4b_double_3x3_0 <- conv_4b_double_3x3_0
I0104 02:09:15.438505 16818 net.cpp:395] scale_conv_4b_double_3x3_0 -> conv_4b_double_3x3_0 (in-place)
I0104 02:09:15.438582 16818 layer_factory.hpp:77] Creating layer scale_conv_4b_double_3x3_0
I0104 02:09:15.438737 16818 net.cpp:150] Setting up scale_conv_4b_double_3x3_0
I0104 02:09:15.438760 16818 net.cpp:157] Top shape: 30 128 14 14 (752640)
I0104 02:09:15.438771 16818 net.cpp:165] Memory required for data: 2934543720
I0104 02:09:15.438787 16818 layer_factory.hpp:77] Creating layer relu_4b_double_3x3_0
I0104 02:09:15.438817 16818 net.cpp:100] Creating Layer relu_4b_double_3x3_0
I0104 02:09:15.438828 16818 net.cpp:434] relu_4b_double_3x3_0 <- conv_4b_double_3x3_0
I0104 02:09:15.438846 16818 net.cpp:395] relu_4b_double_3x3_0 -> conv_4b_double_3x3_0 (in-place)
I0104 02:09:15.438863 16818 net.cpp:150] Setting up relu_4b_double_3x3_0
I0104 02:09:15.438879 16818 net.cpp:157] Top shape: 30 128 14 14 (752640)
I0104 02:09:15.438889 16818 net.cpp:165] Memory required for data: 2937554280
I0104 02:09:15.438901 16818 layer_factory.hpp:77] Creating layer conv_4b_double_3x3_1
I0104 02:09:15.438918 16818 net.cpp:100] Creating Layer conv_4b_double_3x3_1
I0104 02:09:15.438931 16818 net.cpp:434] conv_4b_double_3x3_1 <- conv_4b_double_3x3_0
I0104 02:09:15.438951 16818 net.cpp:408] conv_4b_double_3x3_1 -> conv_4b_double_3x3_1
I0104 02:09:15.439359 16818 net.cpp:150] Setting up conv_4b_double_3x3_1
I0104 02:09:15.439383 16818 net.cpp:157] Top shape: 30 128 14 14 (752640)
I0104 02:09:15.439394 16818 net.cpp:165] Memory required for data: 2940564840
I0104 02:09:15.439411 16818 layer_factory.hpp:77] Creating layer bn_4b_double_3x3_1
I0104 02:09:15.439430 16818 net.cpp:100] Creating Layer bn_4b_double_3x3_1
I0104 02:09:15.439446 16818 net.cpp:434] bn_4b_double_3x3_1 <- conv_4b_double_3x3_1
I0104 02:09:15.439461 16818 net.cpp:395] bn_4b_double_3x3_1 -> conv_4b_double_3x3_1 (in-place)
I0104 02:09:15.439710 16818 net.cpp:150] Setting up bn_4b_double_3x3_1
I0104 02:09:15.439734 16818 net.cpp:157] Top shape: 30 128 14 14 (752640)
I0104 02:09:15.439748 16818 net.cpp:165] Memory required for data: 2943575400
I0104 02:09:15.439765 16818 layer_factory.hpp:77] Creating layer scale_conv_4b_double_3x3_1
I0104 02:09:15.439785 16818 net.cpp:100] Creating Layer scale_conv_4b_double_3x3_1
I0104 02:09:15.439800 16818 net.cpp:434] scale_conv_4b_double_3x3_1 <- conv_4b_double_3x3_1
I0104 02:09:15.439815 16818 net.cpp:395] scale_conv_4b_double_3x3_1 -> conv_4b_double_3x3_1 (in-place)
I0104 02:09:15.439877 16818 layer_factory.hpp:77] Creating layer scale_conv_4b_double_3x3_1
I0104 02:09:15.440031 16818 net.cpp:150] Setting up scale_conv_4b_double_3x3_1
I0104 02:09:15.440052 16818 net.cpp:157] Top shape: 30 128 14 14 (752640)
I0104 02:09:15.440063 16818 net.cpp:165] Memory required for data: 2946585960
I0104 02:09:15.440080 16818 layer_factory.hpp:77] Creating layer relu_4b_double_3x3_1
I0104 02:09:15.440099 16818 net.cpp:100] Creating Layer relu_4b_double_3x3_1
I0104 02:09:15.440112 16818 net.cpp:434] relu_4b_double_3x3_1 <- conv_4b_double_3x3_1
I0104 02:09:15.440127 16818 net.cpp:395] relu_4b_double_3x3_1 -> conv_4b_double_3x3_1 (in-place)
I0104 02:09:15.440143 16818 net.cpp:150] Setting up relu_4b_double_3x3_1
I0104 02:09:15.440157 16818 net.cpp:157] Top shape: 30 128 14 14 (752640)
I0104 02:09:15.440170 16818 net.cpp:165] Memory required for data: 2949596520
I0104 02:09:15.440186 16818 layer_factory.hpp:77] Creating layer ave_pool_4b_pool
I0104 02:09:15.440206 16818 net.cpp:100] Creating Layer ave_pool_4b_pool
I0104 02:09:15.440219 16818 net.cpp:434] ave_pool_4b_pool <- ch_concat_4a_chconcat_ch_concat_4a_chconcat_0_split_3
I0104 02:09:15.440237 16818 net.cpp:408] ave_pool_4b_pool -> ave_pool_4b_pool
I0104 02:09:15.440285 16818 net.cpp:150] Setting up ave_pool_4b_pool
I0104 02:09:15.440304 16818 net.cpp:157] Top shape: 30 576 14 14 (3386880)
I0104 02:09:15.440315 16818 net.cpp:165] Memory required for data: 2963144040
I0104 02:09:15.440327 16818 layer_factory.hpp:77] Creating layer conv_4b_proj
I0104 02:09:15.440345 16818 net.cpp:100] Creating Layer conv_4b_proj
I0104 02:09:15.440357 16818 net.cpp:434] conv_4b_proj <- ave_pool_4b_pool
I0104 02:09:15.440372 16818 net.cpp:408] conv_4b_proj -> conv_4b_proj
I0104 02:09:15.440739 16818 net.cpp:150] Setting up conv_4b_proj
I0104 02:09:15.440762 16818 net.cpp:157] Top shape: 30 128 14 14 (752640)
I0104 02:09:15.440774 16818 net.cpp:165] Memory required for data: 2966154600
I0104 02:09:15.440790 16818 layer_factory.hpp:77] Creating layer bn_4b_proj
I0104 02:09:15.440809 16818 net.cpp:100] Creating Layer bn_4b_proj
I0104 02:09:15.440824 16818 net.cpp:434] bn_4b_proj <- conv_4b_proj
I0104 02:09:15.440845 16818 net.cpp:395] bn_4b_proj -> conv_4b_proj (in-place)
I0104 02:09:15.441087 16818 net.cpp:150] Setting up bn_4b_proj
I0104 02:09:15.441112 16818 net.cpp:157] Top shape: 30 128 14 14 (752640)
I0104 02:09:15.441125 16818 net.cpp:165] Memory required for data: 2969165160
I0104 02:09:15.441143 16818 layer_factory.hpp:77] Creating layer scale_conv_4b_proj
I0104 02:09:15.441159 16818 net.cpp:100] Creating Layer scale_conv_4b_proj
I0104 02:09:15.441172 16818 net.cpp:434] scale_conv_4b_proj <- conv_4b_proj
I0104 02:09:15.441192 16818 net.cpp:395] scale_conv_4b_proj -> conv_4b_proj (in-place)
I0104 02:09:15.441256 16818 layer_factory.hpp:77] Creating layer scale_conv_4b_proj
I0104 02:09:15.441406 16818 net.cpp:150] Setting up scale_conv_4b_proj
I0104 02:09:15.441429 16818 net.cpp:157] Top shape: 30 128 14 14 (752640)
I0104 02:09:15.441442 16818 net.cpp:165] Memory required for data: 2972175720
I0104 02:09:15.441457 16818 layer_factory.hpp:77] Creating layer relu_4b_proj
I0104 02:09:15.441475 16818 net.cpp:100] Creating Layer relu_4b_proj
I0104 02:09:15.441489 16818 net.cpp:434] relu_4b_proj <- conv_4b_proj
I0104 02:09:15.441504 16818 net.cpp:395] relu_4b_proj -> conv_4b_proj (in-place)
I0104 02:09:15.441519 16818 net.cpp:150] Setting up relu_4b_proj
I0104 02:09:15.441534 16818 net.cpp:157] Top shape: 30 128 14 14 (752640)
I0104 02:09:15.441545 16818 net.cpp:165] Memory required for data: 2975186280
I0104 02:09:15.441556 16818 layer_factory.hpp:77] Creating layer ch_concat_4b_chconcat
I0104 02:09:15.441575 16818 net.cpp:100] Creating Layer ch_concat_4b_chconcat
I0104 02:09:15.441587 16818 net.cpp:434] ch_concat_4b_chconcat <- conv_4b_1x1
I0104 02:09:15.441601 16818 net.cpp:434] ch_concat_4b_chconcat <- conv_4b_3x3
I0104 02:09:15.441614 16818 net.cpp:434] ch_concat_4b_chconcat <- conv_4b_double_3x3_1
I0104 02:09:15.441629 16818 net.cpp:434] ch_concat_4b_chconcat <- conv_4b_proj
I0104 02:09:15.441644 16818 net.cpp:408] ch_concat_4b_chconcat -> ch_concat_4b_chconcat
I0104 02:09:15.441689 16818 net.cpp:150] Setting up ch_concat_4b_chconcat
I0104 02:09:15.441709 16818 net.cpp:157] Top shape: 30 576 14 14 (3386880)
I0104 02:09:15.441720 16818 net.cpp:165] Memory required for data: 2988733800
I0104 02:09:15.441735 16818 layer_factory.hpp:77] Creating layer ch_concat_4b_chconcat_ch_concat_4b_chconcat_0_split
I0104 02:09:15.441762 16818 net.cpp:100] Creating Layer ch_concat_4b_chconcat_ch_concat_4b_chconcat_0_split
I0104 02:09:15.441777 16818 net.cpp:434] ch_concat_4b_chconcat_ch_concat_4b_chconcat_0_split <- ch_concat_4b_chconcat
I0104 02:09:15.441793 16818 net.cpp:408] ch_concat_4b_chconcat_ch_concat_4b_chconcat_0_split -> ch_concat_4b_chconcat_ch_concat_4b_chconcat_0_split_0
I0104 02:09:15.441812 16818 net.cpp:408] ch_concat_4b_chconcat_ch_concat_4b_chconcat_0_split -> ch_concat_4b_chconcat_ch_concat_4b_chconcat_0_split_1
I0104 02:09:15.441835 16818 net.cpp:408] ch_concat_4b_chconcat_ch_concat_4b_chconcat_0_split -> ch_concat_4b_chconcat_ch_concat_4b_chconcat_0_split_2
I0104 02:09:15.441855 16818 net.cpp:408] ch_concat_4b_chconcat_ch_concat_4b_chconcat_0_split -> ch_concat_4b_chconcat_ch_concat_4b_chconcat_0_split_3
I0104 02:09:15.441941 16818 net.cpp:150] Setting up ch_concat_4b_chconcat_ch_concat_4b_chconcat_0_split
I0104 02:09:15.441961 16818 net.cpp:157] Top shape: 30 576 14 14 (3386880)
I0104 02:09:15.441974 16818 net.cpp:157] Top shape: 30 576 14 14 (3386880)
I0104 02:09:15.441987 16818 net.cpp:157] Top shape: 30 576 14 14 (3386880)
I0104 02:09:15.441999 16818 net.cpp:157] Top shape: 30 576 14 14 (3386880)
I0104 02:09:15.442010 16818 net.cpp:165] Memory required for data: 3042923880
I0104 02:09:15.442023 16818 layer_factory.hpp:77] Creating layer conv_4c_1x1
I0104 02:09:15.442042 16818 net.cpp:100] Creating Layer conv_4c_1x1
I0104 02:09:15.442056 16818 net.cpp:434] conv_4c_1x1 <- ch_concat_4b_chconcat_ch_concat_4b_chconcat_0_split_0
I0104 02:09:15.442075 16818 net.cpp:408] conv_4c_1x1 -> conv_4c_1x1
I0104 02:09:15.443070 16818 net.cpp:150] Setting up conv_4c_1x1
I0104 02:09:15.443105 16818 net.cpp:157] Top shape: 30 160 14 14 (940800)
I0104 02:09:15.443120 16818 net.cpp:165] Memory required for data: 3046687080
I0104 02:09:15.443135 16818 layer_factory.hpp:77] Creating layer bn_4c_1x1
I0104 02:09:15.443151 16818 net.cpp:100] Creating Layer bn_4c_1x1
I0104 02:09:15.443164 16818 net.cpp:434] bn_4c_1x1 <- conv_4c_1x1
I0104 02:09:15.443188 16818 net.cpp:395] bn_4c_1x1 -> conv_4c_1x1 (in-place)
I0104 02:09:15.443446 16818 net.cpp:150] Setting up bn_4c_1x1
I0104 02:09:15.443470 16818 net.cpp:157] Top shape: 30 160 14 14 (940800)
I0104 02:09:15.443483 16818 net.cpp:165] Memory required for data: 3050450280
I0104 02:09:15.443543 16818 layer_factory.hpp:77] Creating layer scale_conv_4c_1x1
I0104 02:09:15.443564 16818 net.cpp:100] Creating Layer scale_conv_4c_1x1
I0104 02:09:15.443578 16818 net.cpp:434] scale_conv_4c_1x1 <- conv_4c_1x1
I0104 02:09:15.443591 16818 net.cpp:395] scale_conv_4c_1x1 -> conv_4c_1x1 (in-place)
I0104 02:09:15.443655 16818 layer_factory.hpp:77] Creating layer scale_conv_4c_1x1
I0104 02:09:15.443819 16818 net.cpp:150] Setting up scale_conv_4c_1x1
I0104 02:09:15.443842 16818 net.cpp:157] Top shape: 30 160 14 14 (940800)
I0104 02:09:15.443856 16818 net.cpp:165] Memory required for data: 3054213480
I0104 02:09:15.443882 16818 layer_factory.hpp:77] Creating layer relu_4c_1x1
I0104 02:09:15.443903 16818 net.cpp:100] Creating Layer relu_4c_1x1
I0104 02:09:15.443917 16818 net.cpp:434] relu_4c_1x1 <- conv_4c_1x1
I0104 02:09:15.443934 16818 net.cpp:395] relu_4c_1x1 -> conv_4c_1x1 (in-place)
I0104 02:09:15.443951 16818 net.cpp:150] Setting up relu_4c_1x1
I0104 02:09:15.443966 16818 net.cpp:157] Top shape: 30 160 14 14 (940800)
I0104 02:09:15.443979 16818 net.cpp:165] Memory required for data: 3057976680
I0104 02:09:15.443990 16818 layer_factory.hpp:77] Creating layer conv_4c_3x3_reduce
I0104 02:09:15.444011 16818 net.cpp:100] Creating Layer conv_4c_3x3_reduce
I0104 02:09:15.444025 16818 net.cpp:434] conv_4c_3x3_reduce <- ch_concat_4b_chconcat_ch_concat_4b_chconcat_0_split_1
I0104 02:09:15.444041 16818 net.cpp:408] conv_4c_3x3_reduce -> conv_4c_3x3_reduce
I0104 02:09:15.444396 16818 net.cpp:150] Setting up conv_4c_3x3_reduce
I0104 02:09:15.444422 16818 net.cpp:157] Top shape: 30 128 14 14 (752640)
I0104 02:09:15.444435 16818 net.cpp:165] Memory required for data: 3060987240
I0104 02:09:15.444452 16818 layer_factory.hpp:77] Creating layer bn_4c_3x3_reduce
I0104 02:09:15.444471 16818 net.cpp:100] Creating Layer bn_4c_3x3_reduce
I0104 02:09:15.444485 16818 net.cpp:434] bn_4c_3x3_reduce <- conv_4c_3x3_reduce
I0104 02:09:15.444502 16818 net.cpp:395] bn_4c_3x3_reduce -> conv_4c_3x3_reduce (in-place)
I0104 02:09:15.444746 16818 net.cpp:150] Setting up bn_4c_3x3_reduce
I0104 02:09:15.444772 16818 net.cpp:157] Top shape: 30 128 14 14 (752640)
I0104 02:09:15.444785 16818 net.cpp:165] Memory required for data: 3063997800
I0104 02:09:15.444803 16818 layer_factory.hpp:77] Creating layer scale_conv_4c_3x3_reduce
I0104 02:09:15.444820 16818 net.cpp:100] Creating Layer scale_conv_4c_3x3_reduce
I0104 02:09:15.444833 16818 net.cpp:434] scale_conv_4c_3x3_reduce <- conv_4c_3x3_reduce
I0104 02:09:15.444847 16818 net.cpp:395] scale_conv_4c_3x3_reduce -> conv_4c_3x3_reduce (in-place)
I0104 02:09:15.444913 16818 layer_factory.hpp:77] Creating layer scale_conv_4c_3x3_reduce
I0104 02:09:15.445089 16818 net.cpp:150] Setting up scale_conv_4c_3x3_reduce
I0104 02:09:15.445114 16818 net.cpp:157] Top shape: 30 128 14 14 (752640)
I0104 02:09:15.445127 16818 net.cpp:165] Memory required for data: 3067008360
I0104 02:09:15.445142 16818 layer_factory.hpp:77] Creating layer relu_4c_3x3_reduce
I0104 02:09:15.445158 16818 net.cpp:100] Creating Layer relu_4c_3x3_reduce
I0104 02:09:15.445171 16818 net.cpp:434] relu_4c_3x3_reduce <- conv_4c_3x3_reduce
I0104 02:09:15.445195 16818 net.cpp:395] relu_4c_3x3_reduce -> conv_4c_3x3_reduce (in-place)
I0104 02:09:15.445214 16818 net.cpp:150] Setting up relu_4c_3x3_reduce
I0104 02:09:15.445230 16818 net.cpp:157] Top shape: 30 128 14 14 (752640)
I0104 02:09:15.445241 16818 net.cpp:165] Memory required for data: 3070018920
I0104 02:09:15.445261 16818 layer_factory.hpp:77] Creating layer conv_4c_3x3
I0104 02:09:15.445278 16818 net.cpp:100] Creating Layer conv_4c_3x3
I0104 02:09:15.445291 16818 net.cpp:434] conv_4c_3x3 <- conv_4c_3x3_reduce
I0104 02:09:15.445310 16818 net.cpp:408] conv_4c_3x3 -> conv_4c_3x3
I0104 02:09:15.446377 16818 net.cpp:150] Setting up conv_4c_3x3
I0104 02:09:15.446406 16818 net.cpp:157] Top shape: 30 160 14 14 (940800)
I0104 02:09:15.446419 16818 net.cpp:165] Memory required for data: 3073782120
I0104 02:09:15.446435 16818 layer_factory.hpp:77] Creating layer bn_4c_3x3
I0104 02:09:15.446451 16818 net.cpp:100] Creating Layer bn_4c_3x3
I0104 02:09:15.446465 16818 net.cpp:434] bn_4c_3x3 <- conv_4c_3x3
I0104 02:09:15.446483 16818 net.cpp:395] bn_4c_3x3 -> conv_4c_3x3 (in-place)
I0104 02:09:15.446738 16818 net.cpp:150] Setting up bn_4c_3x3
I0104 02:09:15.446763 16818 net.cpp:157] Top shape: 30 160 14 14 (940800)
I0104 02:09:15.446774 16818 net.cpp:165] Memory required for data: 3077545320
I0104 02:09:15.446792 16818 layer_factory.hpp:77] Creating layer scale_conv_4c_3x3
I0104 02:09:15.446808 16818 net.cpp:100] Creating Layer scale_conv_4c_3x3
I0104 02:09:15.446821 16818 net.cpp:434] scale_conv_4c_3x3 <- conv_4c_3x3
I0104 02:09:15.446836 16818 net.cpp:395] scale_conv_4c_3x3 -> conv_4c_3x3 (in-place)
I0104 02:09:15.446902 16818 layer_factory.hpp:77] Creating layer scale_conv_4c_3x3
I0104 02:09:15.447082 16818 net.cpp:150] Setting up scale_conv_4c_3x3
I0104 02:09:15.447106 16818 net.cpp:157] Top shape: 30 160 14 14 (940800)
I0104 02:09:15.447119 16818 net.cpp:165] Memory required for data: 3081308520
I0104 02:09:15.447135 16818 layer_factory.hpp:77] Creating layer relu_4c_3x3
I0104 02:09:15.447154 16818 net.cpp:100] Creating Layer relu_4c_3x3
I0104 02:09:15.447166 16818 net.cpp:434] relu_4c_3x3 <- conv_4c_3x3
I0104 02:09:15.447186 16818 net.cpp:395] relu_4c_3x3 -> conv_4c_3x3 (in-place)
I0104 02:09:15.447203 16818 net.cpp:150] Setting up relu_4c_3x3
I0104 02:09:15.447218 16818 net.cpp:157] Top shape: 30 160 14 14 (940800)
I0104 02:09:15.447229 16818 net.cpp:165] Memory required for data: 3085071720
I0104 02:09:15.447240 16818 layer_factory.hpp:77] Creating layer conv_4c_double_3x3_reduce
I0104 02:09:15.447262 16818 net.cpp:100] Creating Layer conv_4c_double_3x3_reduce
I0104 02:09:15.447275 16818 net.cpp:434] conv_4c_double_3x3_reduce <- ch_concat_4b_chconcat_ch_concat_4b_chconcat_0_split_2
I0104 02:09:15.447291 16818 net.cpp:408] conv_4c_double_3x3_reduce -> conv_4c_double_3x3_reduce
I0104 02:09:15.447638 16818 net.cpp:150] Setting up conv_4c_double_3x3_reduce
I0104 02:09:15.447660 16818 net.cpp:157] Top shape: 30 128 14 14 (752640)
I0104 02:09:15.447671 16818 net.cpp:165] Memory required for data: 3088082280
I0104 02:09:15.447687 16818 layer_factory.hpp:77] Creating layer bn_4c_double_3x3_reduce
I0104 02:09:15.447708 16818 net.cpp:100] Creating Layer bn_4c_double_3x3_reduce
I0104 02:09:15.447721 16818 net.cpp:434] bn_4c_double_3x3_reduce <- conv_4c_double_3x3_reduce
I0104 02:09:15.447738 16818 net.cpp:395] bn_4c_double_3x3_reduce -> conv_4c_double_3x3_reduce (in-place)
I0104 02:09:15.447983 16818 net.cpp:150] Setting up bn_4c_double_3x3_reduce
I0104 02:09:15.448006 16818 net.cpp:157] Top shape: 30 128 14 14 (752640)
I0104 02:09:15.448019 16818 net.cpp:165] Memory required for data: 3091092840
I0104 02:09:15.448036 16818 layer_factory.hpp:77] Creating layer scale_conv_4c_double_3x3_reduce
I0104 02:09:15.448052 16818 net.cpp:100] Creating Layer scale_conv_4c_double_3x3_reduce
I0104 02:09:15.448065 16818 net.cpp:434] scale_conv_4c_double_3x3_reduce <- conv_4c_double_3x3_reduce
I0104 02:09:15.448083 16818 net.cpp:395] scale_conv_4c_double_3x3_reduce -> conv_4c_double_3x3_reduce (in-place)
I0104 02:09:15.448170 16818 layer_factory.hpp:77] Creating layer scale_conv_4c_double_3x3_reduce
I0104 02:09:15.448336 16818 net.cpp:150] Setting up scale_conv_4c_double_3x3_reduce
I0104 02:09:15.448360 16818 net.cpp:157] Top shape: 30 128 14 14 (752640)
I0104 02:09:15.448372 16818 net.cpp:165] Memory required for data: 3094103400
I0104 02:09:15.448396 16818 layer_factory.hpp:77] Creating layer relu_4c_double_3x3_reduce
I0104 02:09:15.448415 16818 net.cpp:100] Creating Layer relu_4c_double_3x3_reduce
I0104 02:09:15.448427 16818 net.cpp:434] relu_4c_double_3x3_reduce <- conv_4c_double_3x3_reduce
I0104 02:09:15.448446 16818 net.cpp:395] relu_4c_double_3x3_reduce -> conv_4c_double_3x3_reduce (in-place)
I0104 02:09:15.448462 16818 net.cpp:150] Setting up relu_4c_double_3x3_reduce
I0104 02:09:15.448477 16818 net.cpp:157] Top shape: 30 128 14 14 (752640)
I0104 02:09:15.448489 16818 net.cpp:165] Memory required for data: 3097113960
I0104 02:09:15.448501 16818 layer_factory.hpp:77] Creating layer conv_4c_double_3x3_0
I0104 02:09:15.448521 16818 net.cpp:100] Creating Layer conv_4c_double_3x3_0
I0104 02:09:15.448534 16818 net.cpp:434] conv_4c_double_3x3_0 <- conv_4c_double_3x3_reduce
I0104 02:09:15.448551 16818 net.cpp:408] conv_4c_double_3x3_0 -> conv_4c_double_3x3_0
I0104 02:09:15.449622 16818 net.cpp:150] Setting up conv_4c_double_3x3_0
I0104 02:09:15.449650 16818 net.cpp:157] Top shape: 30 160 14 14 (940800)
I0104 02:09:15.449662 16818 net.cpp:165] Memory required for data: 3100877160
I0104 02:09:15.449679 16818 layer_factory.hpp:77] Creating layer bn_4c_double_3x3_0
I0104 02:09:15.449699 16818 net.cpp:100] Creating Layer bn_4c_double_3x3_0
I0104 02:09:15.449713 16818 net.cpp:434] bn_4c_double_3x3_0 <- conv_4c_double_3x3_0
I0104 02:09:15.449729 16818 net.cpp:395] bn_4c_double_3x3_0 -> conv_4c_double_3x3_0 (in-place)
I0104 02:09:15.449985 16818 net.cpp:150] Setting up bn_4c_double_3x3_0
I0104 02:09:15.450007 16818 net.cpp:157] Top shape: 30 160 14 14 (940800)
I0104 02:09:15.450019 16818 net.cpp:165] Memory required for data: 3104640360
I0104 02:09:15.450037 16818 layer_factory.hpp:77] Creating layer scale_conv_4c_double_3x3_0
I0104 02:09:15.450057 16818 net.cpp:100] Creating Layer scale_conv_4c_double_3x3_0
I0104 02:09:15.450070 16818 net.cpp:434] scale_conv_4c_double_3x3_0 <- conv_4c_double_3x3_0
I0104 02:09:15.450088 16818 net.cpp:395] scale_conv_4c_double_3x3_0 -> conv_4c_double_3x3_0 (in-place)
I0104 02:09:15.450152 16818 layer_factory.hpp:77] Creating layer scale_conv_4c_double_3x3_0
I0104 02:09:15.450337 16818 net.cpp:150] Setting up scale_conv_4c_double_3x3_0
I0104 02:09:15.450362 16818 net.cpp:157] Top shape: 30 160 14 14 (940800)
I0104 02:09:15.450374 16818 net.cpp:165] Memory required for data: 3108403560
I0104 02:09:15.450390 16818 layer_factory.hpp:77] Creating layer relu_4c_double_3x3_0
I0104 02:09:15.450407 16818 net.cpp:100] Creating Layer relu_4c_double_3x3_0
I0104 02:09:15.450418 16818 net.cpp:434] relu_4c_double_3x3_0 <- conv_4c_double_3x3_0
I0104 02:09:15.450435 16818 net.cpp:395] relu_4c_double_3x3_0 -> conv_4c_double_3x3_0 (in-place)
I0104 02:09:15.450453 16818 net.cpp:150] Setting up relu_4c_double_3x3_0
I0104 02:09:15.450467 16818 net.cpp:157] Top shape: 30 160 14 14 (940800)
I0104 02:09:15.450479 16818 net.cpp:165] Memory required for data: 3112166760
I0104 02:09:15.450490 16818 layer_factory.hpp:77] Creating layer conv_4c_double_3x3_1
I0104 02:09:15.450508 16818 net.cpp:100] Creating Layer conv_4c_double_3x3_1
I0104 02:09:15.450522 16818 net.cpp:434] conv_4c_double_3x3_1 <- conv_4c_double_3x3_0
I0104 02:09:15.450541 16818 net.cpp:408] conv_4c_double_3x3_1 -> conv_4c_double_3x3_1
I0104 02:09:15.451628 16818 net.cpp:150] Setting up conv_4c_double_3x3_1
I0104 02:09:15.451656 16818 net.cpp:157] Top shape: 30 160 14 14 (940800)
I0104 02:09:15.451670 16818 net.cpp:165] Memory required for data: 3115929960
I0104 02:09:15.451688 16818 layer_factory.hpp:77] Creating layer bn_4c_double_3x3_1
I0104 02:09:15.451707 16818 net.cpp:100] Creating Layer bn_4c_double_3x3_1
I0104 02:09:15.451721 16818 net.cpp:434] bn_4c_double_3x3_1 <- conv_4c_double_3x3_1
I0104 02:09:15.451737 16818 net.cpp:395] bn_4c_double_3x3_1 -> conv_4c_double_3x3_1 (in-place)
I0104 02:09:15.451985 16818 net.cpp:150] Setting up bn_4c_double_3x3_1
I0104 02:09:15.452008 16818 net.cpp:157] Top shape: 30 160 14 14 (940800)
I0104 02:09:15.452020 16818 net.cpp:165] Memory required for data: 3119693160
I0104 02:09:15.452049 16818 layer_factory.hpp:77] Creating layer scale_conv_4c_double_3x3_1
I0104 02:09:15.452067 16818 net.cpp:100] Creating Layer scale_conv_4c_double_3x3_1
I0104 02:09:15.452081 16818 net.cpp:434] scale_conv_4c_double_3x3_1 <- conv_4c_double_3x3_1
I0104 02:09:15.452095 16818 net.cpp:395] scale_conv_4c_double_3x3_1 -> conv_4c_double_3x3_1 (in-place)
I0104 02:09:15.452164 16818 layer_factory.hpp:77] Creating layer scale_conv_4c_double_3x3_1
I0104 02:09:15.452337 16818 net.cpp:150] Setting up scale_conv_4c_double_3x3_1
I0104 02:09:15.452361 16818 net.cpp:157] Top shape: 30 160 14 14 (940800)
I0104 02:09:15.452379 16818 net.cpp:165] Memory required for data: 3123456360
I0104 02:09:15.452405 16818 layer_factory.hpp:77] Creating layer relu_4c_double_3x3_1
I0104 02:09:15.452424 16818 net.cpp:100] Creating Layer relu_4c_double_3x3_1
I0104 02:09:15.452435 16818 net.cpp:434] relu_4c_double_3x3_1 <- conv_4c_double_3x3_1
I0104 02:09:15.452455 16818 net.cpp:395] relu_4c_double_3x3_1 -> conv_4c_double_3x3_1 (in-place)
I0104 02:09:15.452473 16818 net.cpp:150] Setting up relu_4c_double_3x3_1
I0104 02:09:15.452487 16818 net.cpp:157] Top shape: 30 160 14 14 (940800)
I0104 02:09:15.452499 16818 net.cpp:165] Memory required for data: 3127219560
I0104 02:09:15.452510 16818 layer_factory.hpp:77] Creating layer ave_pool_4c_pool
I0104 02:09:15.452527 16818 net.cpp:100] Creating Layer ave_pool_4c_pool
I0104 02:09:15.452538 16818 net.cpp:434] ave_pool_4c_pool <- ch_concat_4b_chconcat_ch_concat_4b_chconcat_0_split_3
I0104 02:09:15.452558 16818 net.cpp:408] ave_pool_4c_pool -> ave_pool_4c_pool
I0104 02:09:15.452603 16818 net.cpp:150] Setting up ave_pool_4c_pool
I0104 02:09:15.452622 16818 net.cpp:157] Top shape: 30 576 14 14 (3386880)
I0104 02:09:15.452633 16818 net.cpp:165] Memory required for data: 3140767080
I0104 02:09:15.452644 16818 layer_factory.hpp:77] Creating layer conv_4c_proj
I0104 02:09:15.452666 16818 net.cpp:100] Creating Layer conv_4c_proj
I0104 02:09:15.452679 16818 net.cpp:434] conv_4c_proj <- ave_pool_4c_pool
I0104 02:09:15.452697 16818 net.cpp:408] conv_4c_proj -> conv_4c_proj
I0104 02:09:15.453038 16818 net.cpp:150] Setting up conv_4c_proj
I0104 02:09:15.453064 16818 net.cpp:157] Top shape: 30 128 14 14 (752640)
I0104 02:09:15.453076 16818 net.cpp:165] Memory required for data: 3143777640
I0104 02:09:15.453093 16818 layer_factory.hpp:77] Creating layer bn_4c_proj
I0104 02:09:15.453114 16818 net.cpp:100] Creating Layer bn_4c_proj
I0104 02:09:15.453126 16818 net.cpp:434] bn_4c_proj <- conv_4c_proj
I0104 02:09:15.453146 16818 net.cpp:395] bn_4c_proj -> conv_4c_proj (in-place)
I0104 02:09:15.453387 16818 net.cpp:150] Setting up bn_4c_proj
I0104 02:09:15.453410 16818 net.cpp:157] Top shape: 30 128 14 14 (752640)
I0104 02:09:15.453423 16818 net.cpp:165] Memory required for data: 3146788200
I0104 02:09:15.453451 16818 layer_factory.hpp:77] Creating layer scale_conv_4c_proj
I0104 02:09:15.453474 16818 net.cpp:100] Creating Layer scale_conv_4c_proj
I0104 02:09:15.453486 16818 net.cpp:434] scale_conv_4c_proj <- conv_4c_proj
I0104 02:09:15.453506 16818 net.cpp:395] scale_conv_4c_proj -> conv_4c_proj (in-place)
I0104 02:09:15.453572 16818 layer_factory.hpp:77] Creating layer scale_conv_4c_proj
I0104 02:09:15.453723 16818 net.cpp:150] Setting up scale_conv_4c_proj
I0104 02:09:15.453747 16818 net.cpp:157] Top shape: 30 128 14 14 (752640)
I0104 02:09:15.453759 16818 net.cpp:165] Memory required for data: 3149798760
I0104 02:09:15.453775 16818 layer_factory.hpp:77] Creating layer relu_4c_proj
I0104 02:09:15.453790 16818 net.cpp:100] Creating Layer relu_4c_proj
I0104 02:09:15.453804 16818 net.cpp:434] relu_4c_proj <- conv_4c_proj
I0104 02:09:15.453817 16818 net.cpp:395] relu_4c_proj -> conv_4c_proj (in-place)
I0104 02:09:15.453832 16818 net.cpp:150] Setting up relu_4c_proj
I0104 02:09:15.453846 16818 net.cpp:157] Top shape: 30 128 14 14 (752640)
I0104 02:09:15.453860 16818 net.cpp:165] Memory required for data: 3152809320
I0104 02:09:15.453871 16818 layer_factory.hpp:77] Creating layer ch_concat_4c_chconcat
I0104 02:09:15.453898 16818 net.cpp:100] Creating Layer ch_concat_4c_chconcat
I0104 02:09:15.453912 16818 net.cpp:434] ch_concat_4c_chconcat <- conv_4c_1x1
I0104 02:09:15.453925 16818 net.cpp:434] ch_concat_4c_chconcat <- conv_4c_3x3
I0104 02:09:15.453939 16818 net.cpp:434] ch_concat_4c_chconcat <- conv_4c_double_3x3_1
I0104 02:09:15.453953 16818 net.cpp:434] ch_concat_4c_chconcat <- conv_4c_proj
I0104 02:09:15.453968 16818 net.cpp:408] ch_concat_4c_chconcat -> ch_concat_4c_chconcat
I0104 02:09:15.454012 16818 net.cpp:150] Setting up ch_concat_4c_chconcat
I0104 02:09:15.454031 16818 net.cpp:157] Top shape: 30 608 14 14 (3575040)
I0104 02:09:15.454043 16818 net.cpp:165] Memory required for data: 3167109480
I0104 02:09:15.454054 16818 layer_factory.hpp:77] Creating layer ch_concat_4c_chconcat_ch_concat_4c_chconcat_0_split
I0104 02:09:15.454076 16818 net.cpp:100] Creating Layer ch_concat_4c_chconcat_ch_concat_4c_chconcat_0_split
I0104 02:09:15.454088 16818 net.cpp:434] ch_concat_4c_chconcat_ch_concat_4c_chconcat_0_split <- ch_concat_4c_chconcat
I0104 02:09:15.454105 16818 net.cpp:408] ch_concat_4c_chconcat_ch_concat_4c_chconcat_0_split -> ch_concat_4c_chconcat_ch_concat_4c_chconcat_0_split_0
I0104 02:09:15.454124 16818 net.cpp:408] ch_concat_4c_chconcat_ch_concat_4c_chconcat_0_split -> ch_concat_4c_chconcat_ch_concat_4c_chconcat_0_split_1
I0104 02:09:15.454144 16818 net.cpp:408] ch_concat_4c_chconcat_ch_concat_4c_chconcat_0_split -> ch_concat_4c_chconcat_ch_concat_4c_chconcat_0_split_2
I0104 02:09:15.454161 16818 net.cpp:408] ch_concat_4c_chconcat_ch_concat_4c_chconcat_0_split -> ch_concat_4c_chconcat_ch_concat_4c_chconcat_0_split_3
I0104 02:09:15.454253 16818 net.cpp:150] Setting up ch_concat_4c_chconcat_ch_concat_4c_chconcat_0_split
I0104 02:09:15.454274 16818 net.cpp:157] Top shape: 30 608 14 14 (3575040)
I0104 02:09:15.454288 16818 net.cpp:157] Top shape: 30 608 14 14 (3575040)
I0104 02:09:15.454300 16818 net.cpp:157] Top shape: 30 608 14 14 (3575040)
I0104 02:09:15.454313 16818 net.cpp:157] Top shape: 30 608 14 14 (3575040)
I0104 02:09:15.454324 16818 net.cpp:165] Memory required for data: 3224310120
I0104 02:09:15.454336 16818 layer_factory.hpp:77] Creating layer conv_4d_1x1
I0104 02:09:15.454355 16818 net.cpp:100] Creating Layer conv_4d_1x1
I0104 02:09:15.454366 16818 net.cpp:434] conv_4d_1x1 <- ch_concat_4c_chconcat_ch_concat_4c_chconcat_0_split_0
I0104 02:09:15.454385 16818 net.cpp:408] conv_4d_1x1 -> conv_4d_1x1
I0104 02:09:15.454766 16818 net.cpp:150] Setting up conv_4d_1x1
I0104 02:09:15.454792 16818 net.cpp:157] Top shape: 30 96 14 14 (564480)
I0104 02:09:15.454804 16818 net.cpp:165] Memory required for data: 3226568040
I0104 02:09:15.454820 16818 layer_factory.hpp:77] Creating layer bn_4d_1x1
I0104 02:09:15.454839 16818 net.cpp:100] Creating Layer bn_4d_1x1
I0104 02:09:15.454854 16818 net.cpp:434] bn_4d_1x1 <- conv_4d_1x1
I0104 02:09:15.454874 16818 net.cpp:395] bn_4d_1x1 -> conv_4d_1x1 (in-place)
I0104 02:09:15.455129 16818 net.cpp:150] Setting up bn_4d_1x1
I0104 02:09:15.455152 16818 net.cpp:157] Top shape: 30 96 14 14 (564480)
…
I0104 02:09:15.468623 16818 net.cpp:165] Memory required for data: 3384246120
I0104 02:09:15.468634 16818 layer_factory.hpp:77] Creating layer bn_4e_3x3
I0104 02:09:15.468652 16818 net.cpp:100] Creating Layer bn_4e_3x3
I0104 02:09:15.468660 16818 net.cpp:434] bn_4e_3x3 <- conv_4e_3x3
I0104 02:09:15.468672 16818 net.cpp:395] bn_4e_3x3 -> conv_4e_3x3 (in-place)
I0104 02:09:15.468906 16818 net.cpp:150] Setting up bn_4e_3x3
I0104 02:09:15.468920 16818 net.cpp:157] Top shape: 30 192 7 7 (282240)
I0104 02:09:15.468927 16818 net.cpp:165] Memory required for data: 3385375080
I0104 02:09:15.468942 16818 layer_factory.hpp:77] Creating layer scale_conv_4e_3x3
I0104 02:09:15.468953 16818 net.cpp:100] Creating Layer scale_conv_4e_3x3
I0104 02:09:15.468961 16818 net.cpp:434] scale_conv_4e_3x3 <- conv_4e_3x3
I0104 02:09:15.468971 16818 net.cpp:395] scale_conv_4e_3x3 -> conv_4e_3x3 (in-place)
I0104 02:09:15.469038 16818 layer_factory.hpp:77] Creating layer scale_conv_4e_3x3
I0104 02:09:15.469187 16818 net.cpp:150] Setting up scale_conv_4e_3x3
I0104 02:09:15.469202 16818 net.cpp:157] Top shape: 30 192 7 7 (282240)
I0104 02:09:15.469208 16818 net.cpp:165] Memory required for data: 3386504040
I0104 02:09:15.469218 16818 layer_factory.hpp:77] Creating layer relu_4e_3x3
I0104 02:09:15.469233 16818 net.cpp:100] Creating Layer relu_4e_3x3
I0104 02:09:15.469239 16818 net.cpp:434] relu_4e_3x3 <- conv_4e_3x3
I0104 02:09:15.469249 16818 net.cpp:395] relu_4e_3x3 -> conv_4e_3x3 (in-place)
I0104 02:09:15.469259 16818 net.cpp:150] Setting up relu_4e_3x3
I0104 02:09:15.469267 16818 net.cpp:157] Top shape: 30 192 7 7 (282240)
I0104 02:09:15.469274 16818 net.cpp:165] Memory required for data: 3387633000
I0104 02:09:15.469280 16818 layer_factory.hpp:77] Creating layer conv_4e_double_3x3_reduce
I0104 02:09:15.469295 16818 net.cpp:100] Creating Layer conv_4e_double_3x3_reduce
I0104 02:09:15.469303 16818 net.cpp:434] conv_4e_double_3x3_reduce <- ch_concat_4d_chconcat_ch_concat_4d_chconcat_0_split_1
I0104 02:09:15.469315 16818 net.cpp:408] conv_4e_double_3x3_reduce -> conv_4e_double_3x3_reduce
I0104 02:09:15.469653 16818 net.cpp:150] Setting up conv_4e_double_3x3_reduce
I0104 02:09:15.469669 16818 net.cpp:157] Top shape: 30 192 14 14 (1128960)
I0104 02:09:15.469676 16818 net.cpp:165] Memory required for data: 3392148840
I0104 02:09:15.469686 16818 layer_factory.hpp:77] Creating layer bn_4e_double_3x3_reduce
I0104 02:09:15.469701 16818 net.cpp:100] Creating Layer bn_4e_double_3x3_reduce
I0104 02:09:15.469720 16818 net.cpp:434] bn_4e_double_3x3_reduce <- conv_4e_double_3x3_reduce
I0104 02:09:15.469733 16818 net.cpp:395] bn_4e_double_3x3_reduce -> conv_4e_double_3x3_reduce (in-place)
I0104 02:09:15.469967 16818 net.cpp:150] Setting up bn_4e_double_3x3_reduce
I0104 02:09:15.469983 16818 net.cpp:157] Top shape: 30 192 14 14 (1128960)
I0104 02:09:15.469990 16818 net.cpp:165] Memory required for data: 3396664680
I0104 02:09:15.470003 16818 layer_factory.hpp:77] Creating layer scale_conv_4e_double_3x3_reduce
I0104 02:09:15.470015 16818 net.cpp:100] Creating Layer scale_conv_4e_double_3x3_reduce
I0104 02:09:15.470021 16818 net.cpp:434] scale_conv_4e_double_3x3_reduce <- conv_4e_double_3x3_reduce
I0104 02:09:15.470031 16818 net.cpp:395] scale_conv_4e_double_3x3_reduce -> conv_4e_double_3x3_reduce (in-place)
I0104 02:09:15.470084 16818 layer_factory.hpp:77] Creating layer scale_conv_4e_double_3x3_reduce
I0104 02:09:15.470237 16818 net.cpp:150] Setting up scale_conv_4e_double_3x3_reduce
I0104 02:09:15.470252 16818 net.cpp:157] Top shape: 30 192 14 14 (1128960)
I0104 02:09:15.470258 16818 net.cpp:165] Memory required for data: 3401180520
I0104 02:09:15.470269 16818 layer_factory.hpp:77] Creating layer relu_4e_double_3x3_reduce
I0104 02:09:15.470283 16818 net.cpp:100] Creating Layer relu_4e_double_3x3_reduce
I0104 02:09:15.470289 16818 net.cpp:434] relu_4e_double_3x3_reduce <- conv_4e_double_3x3_reduce
I0104 02:09:15.470299 16818 net.cpp:395] relu_4e_double_3x3_reduce -> conv_4e_double_3x3_reduce (in-place)
I0104 02:09:15.470310 16818 net.cpp:150] Setting up relu_4e_double_3x3_reduce
I0104 02:09:15.470319 16818 net.cpp:157] Top shape: 30 192 14 14 (1128960)
I0104 02:09:15.470325 16818 net.cpp:165] Memory required for data: 3405696360
I0104 02:09:15.470331 16818 layer_factory.hpp:77] Creating layer conv_4e_double_3x3_0
I0104 02:09:15.470346 16818 net.cpp:100] Creating Layer conv_4e_double_3x3_0
I0104 02:09:15.470355 16818 net.cpp:434] conv_4e_double_3x3_0 <- conv_4e_double_3x3_reduce
I0104 02:09:15.470366 16818 net.cpp:408] conv_4e_double_3x3_0 -> conv_4e_double_3x3_0
I0104 02:09:15.471943 16818 net.cpp:150] Setting up conv_4e_double_3x3_0
I0104 02:09:15.471961 16818 net.cpp:157] Top shape: 30 256 14 14 (1505280)
I0104 02:09:15.471967 16818 net.cpp:165] Memory required for data: 3411717480
I0104 02:09:15.471978 16818 layer_factory.hpp:77] Creating layer bn_4e_double_3x3_0
I0104 02:09:15.471992 16818 net.cpp:100] Creating Layer bn_4e_double_3x3_0
I0104 02:09:15.472012 16818 net.cpp:434] bn_4e_double_3x3_0 <- conv_4e_double_3x3_0
I0104 02:09:15.472021 16818 net.cpp:395] bn_4e_double_3x3_0 -> conv_4e_double_3x3_0 (in-place)
I0104 02:09:15.472262 16818 net.cpp:150] Setting up bn_4e_double_3x3_0
I0104 02:09:15.472280 16818 net.cpp:157] Top shape: 30 256 14 14 (1505280)
I0104 02:09:15.472286 16818 net.cpp:165] Memory required for data: 3417738600
I0104 02:09:15.472299 16818 layer_factory.hpp:77] Creating layer scale_conv_4e_double_3x3_0
I0104 02:09:15.472311 16818 net.cpp:100] Creating Layer scale_conv_4e_double_3x3_0
I0104 02:09:15.472317 16818 net.cpp:434] scale_conv_4e_double_3x3_0 <- conv_4e_double_3x3_0
I0104 02:09:15.472326 16818 net.cpp:395] scale_conv_4e_double_3x3_0 -> conv_4e_double_3x3_0 (in-place)
I0104 02:09:15.472383 16818 layer_factory.hpp:77] Creating layer scale_conv_4e_double_3x3_0
I0104 02:09:15.472518 16818 net.cpp:150] Setting up scale_conv_4e_double_3x3_0
I0104 02:09:15.472532 16818 net.cpp:157] Top shape: 30 256 14 14 (1505280)
I0104 02:09:15.472538 16818 net.cpp:165] Memory required for data: 3423759720
I0104 02:09:15.472549 16818 layer_factory.hpp:77] Creating layer relu_4e_double_3x3_0
I0104 02:09:15.472563 16818 net.cpp:100] Creating Layer relu_4e_double_3x3_0
I0104 02:09:15.472571 16818 net.cpp:434] relu_4e_double_3x3_0 <- conv_4e_double_3x3_0
I0104 02:09:15.472584 16818 net.cpp:395] relu_4e_double_3x3_0 -> conv_4e_double_3x3_0 (in-place)
I0104 02:09:15.472595 16818 net.cpp:150] Setting up relu_4e_double_3x3_0
I0104 02:09:15.472604 16818 net.cpp:157] Top shape: 30 256 14 14 (1505280)
I0104 02:09:15.472610 16818 net.cpp:165] Memory required for data: 3429780840
I0104 02:09:15.472617 16818 layer_factory.hpp:77] Creating layer conv_4e_double_3x3_1
I0104 02:09:15.472630 16818 net.cpp:100] Creating Layer conv_4e_double_3x3_1
I0104 02:09:15.472637 16818 net.cpp:434] conv_4e_double_3x3_1 <- conv_4e_double_3x3_0
I0104 02:09:15.472651 16818 net.cpp:408] conv_4e_double_3x3_1 -> conv_4e_double_3x3_1
I0104 02:09:15.474581 16818 net.cpp:150] Setting up conv_4e_double_3x3_1
I0104 02:09:15.474611 16818 net.cpp:157] Top shape: 30 256 7 7 (376320)
I0104 02:09:15.474623 16818 net.cpp:165] Memory required for data: 3431286120
I0104 02:09:15.474640 16818 layer_factory.hpp:77] Creating layer bn_4e_double_3x3_1
I0104 02:09:15.474660 16818 net.cpp:100] Creating Layer bn_4e_double_3x3_1
I0104 02:09:15.474674 16818 net.cpp:434] bn_4e_double_3x3_1 <- conv_4e_double_3x3_1
I0104 02:09:15.474691 16818 net.cpp:395] bn_4e_double_3x3_1 -> conv_4e_double_3x3_1 (in-place)
I0104 02:09:15.474922 16818 net.cpp:150] Setting up bn_4e_double_3x3_1
I0104 02:09:15.474942 16818 net.cpp:157] Top shape: 30 256 7 7 (376320)
I0104 02:09:15.474954 16818 net.cpp:165] Memory required for data: 3432791400
I0104 02:09:15.474972 16818 layer_factory.hpp:77] Creating layer scale_conv_4e_double_3x3_1
I0104 02:09:15.474992 16818 net.cpp:100] Creating Layer scale_conv_4e_double_3x3_1
I0104 02:09:15.475005 16818 net.cpp:434] scale_conv_4e_double_3x3_1 <- conv_4e_double_3x3_1
I0104 02:09:15.475019 16818 net.cpp:395] scale_conv_4e_double_3x3_1 -> conv_4e_double_3x3_1 (in-place)
I0104 02:09:15.475082 16818 layer_factory.hpp:77] Creating layer scale_conv_4e_double_3x3_1
I0104 02:09:15.475240 16818 net.cpp:150] Setting up scale_conv_4e_double_3x3_1
I0104 02:09:15.475261 16818 net.cpp:157] Top shape: 30 256 7 7 (376320)
I0104 02:09:15.475272 16818 net.cpp:165] Memory required for data: 3434296680
I0104 02:09:15.475288 16818 layer_factory.hpp:77] Creating layer relu_4e_double_3x3_1
I0104 02:09:15.475304 16818 net.cpp:100] Creating Layer relu_4e_double_3x3_1
I0104 02:09:15.475317 16818 net.cpp:434] relu_4e_double_3x3_1 <- conv_4e_double_3x3_1
I0104 02:09:15.475334 16818 net.cpp:395] relu_4e_double_3x3_1 -> conv_4e_double_3x3_1 (in-place)
I0104 02:09:15.475353 16818 net.cpp:150] Setting up relu_4e_double_3x3_1
I0104 02:09:15.475366 16818 net.cpp:157] Top shape: 30 256 7 7 (376320)
I0104 02:09:15.475378 16818 net.cpp:165] Memory required for data: 3435801960
I0104 02:09:15.475389 16818 layer_factory.hpp:77] Creating layer max_pool_4e_pool
I0104 02:09:15.475414 16818 net.cpp:100] Creating Layer max_pool_4e_pool
I0104 02:09:15.475427 16818 net.cpp:434] max_pool_4e_pool <- ch_concat_4d_chconcat_ch_concat_4d_chconcat_0_split_2
I0104 02:09:15.475447 16818 net.cpp:408] max_pool_4e_pool -> max_pool_4e_pool
I0104 02:09:15.475509 16818 net.cpp:150] Setting up max_pool_4e_pool
I0104 02:09:15.475528 16818 net.cpp:157] Top shape: 30 512 7 7 (752640)
I0104 02:09:15.475539 16818 net.cpp:165] Memory required for data: 3438812520
I0104 02:09:15.475551 16818 layer_factory.hpp:77] Creating layer ch_concat_4e_chconcat
I0104 02:09:15.475566 16818 net.cpp:100] Creating Layer ch_concat_4e_chconcat
I0104 02:09:15.475579 16818 net.cpp:434] ch_concat_4e_chconcat <- conv_4e_3x3
I0104 02:09:15.475591 16818 net.cpp:434] ch_concat_4e_chconcat <- conv_4e_double_3x3_1
I0104 02:09:15.475605 16818 net.cpp:434] ch_concat_4e_chconcat <- max_pool_4e_pool
I0104 02:09:15.475620 16818 net.cpp:408] ch_concat_4e_chconcat -> ch_concat_4e_chconcat
I0104 02:09:15.475663 16818 net.cpp:150] Setting up ch_concat_4e_chconcat
I0104 02:09:15.475682 16818 net.cpp:157] Top shape: 30 960 7 7 (1411200)
I0104 02:09:15.475694 16818 net.cpp:165] Memory required for data: 3444457320
I0104 02:09:15.475705 16818 layer_factory.hpp:77] Creating layer ch_concat_4e_chconcat_ch_concat_4e_chconcat_0_split
I0104 02:09:15.475723 16818 net.cpp:100] Creating Layer ch_concat_4e_chconcat_ch_concat_4e_chconcat_0_split
I0104 02:09:15.475734 16818 net.cpp:434] ch_concat_4e_chconcat_ch_concat_4e_chconcat_0_split <- ch_concat_4e_chconcat
I0104 02:09:15.475749 16818 net.cpp:408] ch_concat_4e_chconcat_ch_concat_4e_chconcat_0_split -> ch_concat_4e_chconcat_ch_concat_4e_chconcat_0_split_0
I0104 02:09:15.475770 16818 net.cpp:408] ch_concat_4e_chconcat_ch_concat_4e_chconcat_0_split -> ch_concat_4e_chconcat_ch_concat_4e_chconcat_0_split_1
I0104 02:09:15.475790 16818 net.cpp:408] ch_concat_4e_chconcat_ch_concat_4e_chconcat_0_split -> ch_concat_4e_chconcat_ch_concat_4e_chconcat_0_split_2
I0104 02:09:15.475808 16818 net.cpp:408] ch_concat_4e_chconcat_ch_concat_4e_chconcat_0_split -> ch_concat_4e_chconcat_ch_concat_4e_chconcat_0_split_3
I0104 02:09:15.475894 16818 net.cpp:150] Setting up ch_concat_4e_chconcat_ch_concat_4e_chconcat_0_split
I0104 02:09:15.475914 16818 net.cpp:157] Top shape: 30 960 7 7 (1411200)
I0104 02:09:15.475927 16818 net.cpp:157] Top shape: 30 960 7 7 (1411200)
I0104 02:09:15.475940 16818 net.cpp:157] Top shape: 30 960 7 7 (1411200)
I0104 02:09:15.475953 16818 net.cpp:157] Top shape: 30 960 7 7 (1411200)
I0104 02:09:15.475965 16818 net.cpp:165] Memory required for data: 3467036520
I0104 02:09:15.475975 16818 layer_factory.hpp:77] Creating layer conv_5a_1x1
I0104 02:09:15.475996 16818 net.cpp:100] Creating Layer conv_5a_1x1
I0104 02:09:15.476009 16818 net.cpp:434] conv_5a_1x1 <- ch_concat_4e_chconcat_ch_concat_4e_chconcat_0_split_0
I0104 02:09:15.476025 16818 net.cpp:408] conv_5a_1x1 -> conv_5a_1x1
I0104 02:09:15.477399 16818 net.cpp:150] Setting up conv_5a_1x1
I0104 02:09:15.477429 16818 net.cpp:157] Top shape: 30 352 7 7 (517440)
I0104 02:09:15.477442 16818 net.cpp:165] Memory required for data: 3469106280
I0104 02:09:15.477458 16818 layer_factory.hpp:77] Creating layer bn_5a_1x1
I0104 02:09:15.477475 16818 net.cpp:100] Creating Layer bn_5a_1x1
I0104 02:09:15.477488 16818 net.cpp:434] bn_5a_1x1 <- conv_5a_1x1
I0104 02:09:15.477505 16818 net.cpp:395] bn_5a_1x1 -> conv_5a_1x1 (in-place)
I0104 02:09:15.477764 16818 net.cpp:150] Setting up bn_5a_1x1
I0104 02:09:15.477785 16818 net.cpp:157] Top shape: 30 352 7 7 (517440)
I0104 02:09:15.477797 16818 net.cpp:165] Memory required for data: 3471176040
I0104 02:09:15.477814 16818 layer_factory.hpp:77] Creating layer scale_conv_5a_1x1
I0104 02:09:15.477830 16818 net.cpp:100] Creating Layer scale_conv_5a_1x1
I0104 02:09:15.477843 16818 net.cpp:434] scale_conv_5a_1x1 <- conv_5a_1x1
I0104 02:09:15.477861 16818 net.cpp:395] scale_conv_5a_1x1 -> conv_5a_1x1 (in-place)
I0104 02:09:15.477928 16818 layer_factory.hpp:77] Creating layer scale_conv_5a_1x1
I0104 02:09:15.478101 16818 net.cpp:150] Setting up scale_conv_5a_1x1
I0104 02:09:15.478121 16818 net.cpp:157] Top shape: 30 352 7 7 (517440)
I0104 02:09:15.478132 16818 net.cpp:165] Memory required for data: 3473245800
I0104 02:09:15.478148 16818 layer_factory.hpp:77] Creating layer relu_5a_1x1
I0104 02:09:15.478166 16818 net.cpp:100] Creating Layer relu_5a_1x1
I0104 02:09:15.478179 16818 net.cpp:434] relu_5a_1x1 <- conv_5a_1x1
I0104 02:09:15.478202 16818 net.cpp:395] relu_5a_1x1 -> conv_5a_1x1 (in-place)
I0104 02:09:15.478219 16818 net.cpp:150] Setting up relu_5a_1x1
I0104 02:09:15.478233 16818 net.cpp:157] Top shape: 30 352 7 7 (517440)
I0104 02:09:15.478245 16818 net.cpp:165] Memory required for data: 3475315560
I0104 02:09:15.478257 16818 layer_factory.hpp:77] Creating layer conv_5a_3x3_reduce
I0104 02:09:15.478278 16818 net.cpp:100] Creating Layer conv_5a_3x3_reduce
I0104 02:09:15.478292 16818 net.cpp:434] conv_5a_3x3_reduce <- ch_concat_4e_chconcat_ch_concat_4e_chconcat_0_split_1
I0104 02:09:15.478308 16818 net.cpp:408] conv_5a_3x3_reduce -> conv_5a_3x3_reduce
I0104 02:09:15.479408 16818 net.cpp:150] Setting up conv_5a_3x3_reduce
I0104 02:09:15.479434 16818 net.cpp:157] Top shape: 30 192 7 7 (282240)
I0104 02:09:15.479447 16818 net.cpp:165] Memory required for data: 3476444520
I0104 02:09:15.479463 16818 layer_factory.hpp:77] Creating layer bn_5a_3x3_reduce
I0104 02:09:15.479485 16818 net.cpp:100] Creating Layer bn_5a_3x3_reduce
I0104 02:09:15.479498 16818 net.cpp:434] bn_5a_3x3_reduce <- conv_5a_3x3_reduce
I0104 02:09:15.479516 16818 net.cpp:395] bn_5a_3x3_reduce -> conv_5a_3x3_reduce (in-place)
I0104 02:09:15.479756 16818 net.cpp:150] Setting up bn_5a_3x3_reduce
I0104 02:09:15.479776 16818 net.cpp:157] Top shape: 30 192 7 7 (282240)
I0104 02:09:15.479789 16818 net.cpp:165] Memory required for data: 3477573480
I0104 02:09:15.479807 16818 layer_factory.hpp:77] Creating layer scale_conv_5a_3x3_reduce
I0104 02:09:15.479831 16818 net.cpp:100] Creating Layer scale_conv_5a_3x3_reduce
I0104 02:09:15.479846 16818 net.cpp:434] scale_conv_5a_3x3_reduce <- conv_5a_3x3_reduce
I0104 02:09:15.479861 16818 net.cpp:395] scale_conv_5a_3x3_reduce -> conv_5a_3x3_reduce (in-place)
I0104 02:09:15.479923 16818 layer_factory.hpp:77] Creating layer scale_conv_5a_3x3_reduce
I0104 02:09:15.480080 16818 net.cpp:150] Setting up scale_conv_5a_3x3_reduce
I0104 02:09:15.480100 16818 net.cpp:157] Top shape: 30 192 7 7 (282240)
I0104 02:09:15.480111 16818 net.cpp:165] Memory required for data: 3478702440
I0104 02:09:15.480128 16818 layer_factory.hpp:77] Creating layer relu_5a_3x3_reduce
I0104 02:09:15.480226 16818 net.cpp:100] Creating Layer relu_5a_3x3_reduce
I0104 02:09:15.480242 16818 net.cpp:434] relu_5a_3x3_reduce <- conv_5a_3x3_reduce
I0104 02:09:15.480258 16818 net.cpp:395] relu_5a_3x3_reduce -> conv_5a_3x3_reduce (in-place)
I0104 02:09:15.480275 16818 net.cpp:150] Setting up relu_5a_3x3_reduce
I0104 02:09:15.480290 16818 net.cpp:157] Top shape: 30 192 7 7 (282240)
I0104 02:09:15.480301 16818 net.cpp:165] Memory required for data: 3479831400
I0104 02:09:15.480314 16818 layer_factory.hpp:77] Creating layer conv_5a_3x3
I0104 02:09:15.480330 16818 net.cpp:100] Creating Layer conv_5a_3x3
I0104 02:09:15.480343 16818 net.cpp:434] conv_5a_3x3 <- conv_5a_3x3_reduce
I0104 02:09:15.480360 16818 net.cpp:408] conv_5a_3x3 -> conv_5a_3x3
I0104 02:09:15.482267 16818 net.cpp:150] Setting up conv_5a_3x3
I0104 02:09:15.482300 16818 net.cpp:157] Top shape: 30 320 7 7 (470400)
I0104 02:09:15.482312 16818 net.cpp:165] Memory required for data: 3481713000
I0104 02:09:15.482329 16818 layer_factory.hpp:77] Creating layer bn_5a_3x3
I0104 02:09:15.482350 16818 net.cpp:100] Creating Layer bn_5a_3x3
I0104 02:09:15.482364 16818 net.cpp:434] bn_5a_3x3 <- conv_5a_3x3
I0104 02:09:15.482379 16818 net.cpp:395] bn_5a_3x3 -> conv_5a_3x3 (in-place)
I0104 02:09:15.482645 16818 net.cpp:150] Setting up bn_5a_3x3
I0104 02:09:15.482666 16818 net.cpp:157] Top shape: 30 320 7 7 (470400)
I0104 02:09:15.482678 16818 net.cpp:165] Memory required for data: 3483594600
I0104 02:09:15.482697 16818 layer_factory.hpp:77] Creating layer scale_conv_5a_3x3
I0104 02:09:15.482729 16818 net.cpp:100] Creating Layer scale_conv_5a_3x3
I0104 02:09:15.482743 16818 net.cpp:434] scale_conv_5a_3x3 <- conv_5a_3x3
I0104 02:09:15.482758 16818 net.cpp:395] scale_conv_5a_3x3 -> conv_5a_3x3 (in-place)
I0104 02:09:15.482832 16818 layer_factory.hpp:77] Creating layer scale_conv_5a_3x3
I0104 02:09:15.482998 16818 net.cpp:150] Setting up scale_conv_5a_3x3
I0104 02:09:15.483018 16818 net.cpp:157] Top shape: 30 320 7 7 (470400)
I0104 02:09:15.483031 16818 net.cpp:165] Memory required for data: 3485476200
I0104 02:09:15.483047 16818 layer_factory.hpp:77] Creating layer relu_5a_3x3
I0104 02:09:15.483062 16818 net.cpp:100] Creating Layer relu_5a_3x3
I0104 02:09:15.483074 16818 net.cpp:434] relu_5a_3x3 <- conv_5a_3x3
I0104 02:09:15.483088 16818 net.cpp:395] relu_5a_3x3 -> conv_5a_3x3 (in-place)
I0104 02:09:15.483104 16818 net.cpp:150] Setting up relu_5a_3x3
I0104 02:09:15.483119 16818 net.cpp:157] Top shape: 30 320 7 7 (470400)
I0104 02:09:15.483130 16818 net.cpp:165] Memory required for data: 3487357800
I0104 02:09:15.483142 16818 layer_factory.hpp:77] Creating layer conv_5a_double_3x3_reduce
I0104 02:09:15.483163 16818 net.cpp:100] Creating Layer conv_5a_double_3x3_reduce
I0104 02:09:15.483177 16818 net.cpp:434] conv_5a_double_3x3_reduce <- ch_concat_4e_chconcat_ch_concat_4e_chconcat_0_split_2
I0104 02:09:15.483203 16818 net.cpp:408] conv_5a_double_3x3_reduce -> conv_5a_double_3x3_reduce
I0104 02:09:15.484311 16818 net.cpp:150] Setting up conv_5a_double_3x3_reduce
I0104 02:09:15.484338 16818 net.cpp:157] Top shape: 30 160 7 7 (235200)
I0104 02:09:15.484350 16818 net.cpp:165] Memory required for data: 3488298600
I0104 02:09:15.484366 16818 layer_factory.hpp:77] Creating layer bn_5a_double_3x3_reduce
I0104 02:09:15.484383 16818 net.cpp:100] Creating Layer bn_5a_double_3x3_reduce
I0104 02:09:15.484396 16818 net.cpp:434] bn_5a_double_3x3_reduce <- conv_5a_double_3x3_reduce
I0104 02:09:15.484416 16818 net.cpp:395] bn_5a_double_3x3_reduce -> conv_5a_double_3x3_reduce (in-place)
I0104 02:09:15.484666 16818 net.cpp:150] Setting up bn_5a_double_3x3_reduce
I0104 02:09:15.484686 16818 net.cpp:157] Top shape: 30 160 7 7 (235200)
I0104 02:09:15.484699 16818 net.cpp:165] Memory required for data: 3489239400
I0104 02:09:15.484716 16818 layer_factory.hpp:77] Creating layer scale_conv_5a_double_3x3_reduce
I0104 02:09:15.484736 16818 net.cpp:100] Creating Layer scale_conv_5a_double_3x3_reduce
I0104 02:09:15.484750 16818 net.cpp:434] scale_conv_5a_double_3x3_reduce <- conv_5a_double_3x3_reduce
I0104 02:09:15.484766 16818 net.cpp:395] scale_conv_5a_double_3x3_reduce -> conv_5a_double_3x3_reduce (in-place)
I0104 02:09:15.484830 16818 layer_factory.hpp:77] Creating layer scale_conv_5a_double_3x3_reduce
I0104 02:09:15.484989 16818 net.cpp:150] Setting up scale_conv_5a_double_3x3_reduce
I0104 02:09:15.485009 16818 net.cpp:157] Top shape: 30 160 7 7 (235200)
I0104 02:09:15.485021 16818 net.cpp:165] Memory required for data: 3490180200
I0104 02:09:15.485038 16818 layer_factory.hpp:77] Creating layer relu_5a_double_3x3_reduce
I0104 02:09:15.485057 16818 net.cpp:100] Creating Layer relu_5a_double_3x3_reduce
I0104 02:09:15.485070 16818 net.cpp:434] relu_5a_double_3x3_reduce <- conv_5a_double_3x3_reduce
I0104 02:09:15.485088 16818 net.cpp:395] relu_5a_double_3x3_reduce -> conv_5a_double_3x3_reduce (in-place)
I0104 02:09:15.485106 16818 net.cpp:150] Setting up relu_5a_double_3x3_reduce
I0104 02:09:15.485121 16818 net.cpp:157] Top shape: 30 160 7 7 (235200)
I0104 02:09:15.485132 16818 net.cpp:165] Memory required for data: 3491121000
I0104 02:09:15.485143 16818 layer_factory.hpp:77] Creating layer conv_5a_double_3x3_0
I0104 02:09:15.485163 16818 net.cpp:100] Creating Layer conv_5a_double_3x3_0
I0104 02:09:15.485177 16818 net.cpp:434] conv_5a_double_3x3_0 <- conv_5a_double_3x3_reduce
I0104 02:09:15.485201 16818 net.cpp:408] conv_5a_double_3x3_0 -> conv_5a_double_3x3_0
I0104 02:09:15.486500 16818 net.cpp:150] Setting up conv_5a_double_3x3_0
I0104 02:09:15.486532 16818 net.cpp:157] Top shape: 30 224 7 7 (329280)
I0104 02:09:15.486558 16818 net.cpp:165] Memory required for data: 3492438120
I0104 02:09:15.486575 16818 layer_factory.hpp:77] Creating layer bn_5a_double_3x3_0
I0104 02:09:15.486598 16818 net.cpp:100] Creating Layer bn_5a_double_3x3_0
I0104 02:09:15.486613 16818 net.cpp:434] bn_5a_double_3x3_0 <- conv_5a_double_3x3_0
I0104 02:09:15.486630 16818 net.cpp:395] bn_5a_double_3x3_0 -> conv_5a_double_3x3_0 (in-place)
I0104 02:09:15.486883 16818 net.cpp:150] Setting up bn_5a_double_3x3_0
I0104 02:09:15.486907 16818 net.cpp:157] Top shape: 30 224 7 7 (329280)
I0104 02:09:15.486919 16818 net.cpp:165] Memory required for data: 3493755240
I0104 02:09:15.486937 16818 layer_factory.hpp:77] Creating layer scale_conv_5a_double_3x3_0
I0104 02:09:15.486955 16818 net.cpp:100] Creating Layer scale_conv_5a_double_3x3_0
I0104 02:09:15.486968 16818 net.cpp:434] scale_conv_5a_double_3x3_0 <- conv_5a_double_3x3_0
I0104 02:09:15.486984 16818 net.cpp:395] scale_conv_5a_double_3x3_0 -> conv_5a_double_3x3_0 (in-place)
I0104 02:09:15.487052 16818 layer_factory.hpp:77] Creating layer scale_conv_5a_double_3x3_0
I0104 02:09:15.487218 16818 net.cpp:150] Setting up scale_conv_5a_double_3x3_0
I0104 02:09:15.487246 16818 net.cpp:157] Top shape: 30 224 7 7 (329280)
I0104 02:09:15.487258 16818 net.cpp:165] Memory required for data: 3495072360
I0104 02:09:15.487274 16818 layer_factory.hpp:77] Creating layer relu_5a_double_3x3_0
I0104 02:09:15.487292 16818 net.cpp:100] Creating Layer relu_5a_double_3x3_0
I0104 02:09:15.487303 16818 net.cpp:434] relu_5a_double_3x3_0 <- conv_5a_double_3x3_0
I0104 02:09:15.487318 16818 net.cpp:395] relu_5a_double_3x3_0 -> conv_5a_double_3x3_0 (in-place)
I0104 02:09:15.487336 16818 net.cpp:150] Setting up relu_5a_double_3x3_0
I0104 02:09:15.487350 16818 net.cpp:157] Top shape: 30 224 7 7 (329280)
I0104 02:09:15.487362 16818 net.cpp:165] Memory required for data: 3496389480
I0104 02:09:15.487375 16818 layer_factory.hpp:77] Creating layer conv_5a_double_3x3_1
I0104 02:09:15.487397 16818 net.cpp:100] Creating Layer conv_5a_double_3x3_1
I0104 02:09:15.487411 16818 net.cpp:434] conv_5a_double_3x3_1 <- conv_5a_double_3x3_0
I0104 02:09:15.487426 16818 net.cpp:408] conv_5a_double_3x3_1 -> conv_5a_double_3x3_1
I0104 02:09:15.489115 16818 net.cpp:150] Setting up conv_5a_double_3x3_1
I0104 02:09:15.489156 16818 net.cpp:157] Top shape: 30 224 7 7 (329280)
I0104 02:09:15.489168 16818 net.cpp:165] Memory required for data: 3497706600
I0104 02:09:15.489192 16818 layer_factory.hpp:77] Creating layer bn_5a_double_3x3_1
I0104 02:09:15.489212 16818 net.cpp:100] Creating Layer bn_5a_double_3x3_1
I0104 02:09:15.489225 16818 net.cpp:434] bn_5a_double_3x3_1 <- conv_5a_double_3x3_1
I0104 02:09:15.489243 16818 net.cpp:395] bn_5a_double_3x3_1 -> conv_5a_double_3x3_1 (in-place)
I0104 02:09:15.489500 16818 net.cpp:150] Setting up bn_5a_double_3x3_1
I0104 02:09:15.489524 16818 net.cpp:157] Top shape: 30 224 7 7 (329280)
I0104 02:09:15.489537 16818 net.cpp:165] Memory required for data: 3499023720
I0104 02:09:15.489555 16818 layer_factory.hpp:77] Creating layer scale_conv_5a_double_3x3_1
I0104 02:09:15.489574 16818 net.cpp:100] Creating Layer scale_conv_5a_double_3x3_1
I0104 02:09:15.489588 16818 net.cpp:434] scale_conv_5a_double_3x3_1 <- conv_5a_double_3x3_1
I0104 02:09:15.489606 16818 net.cpp:395] scale_conv_5a_double_3x3_1 -> conv_5a_double_3x3_1 (in-place)
I0104 02:09:15.489675 16818 layer_factory.hpp:77] Creating layer scale_conv_5a_double_3x3_1
I0104 02:09:15.489841 16818 net.cpp:150] Setting up scale_conv_5a_double_3x3_1
I0104 02:09:15.489863 16818 net.cpp:157] Top shape: 30 224 7 7 (329280)
I0104 02:09:15.489874 16818 net.cpp:165] Memory required for data: 3500340840
I0104 02:09:15.489890 16818 layer_factory.hpp:77] Creating layer relu_5a_double_3x3_1
I0104 02:09:15.489909 16818 net.cpp:100] Creating Layer relu_5a_double_3x3_1
I0104 02:09:15.489923 16818 net.cpp:434] relu_5a_double_3x3_1 <- conv_5a_double_3x3_1
I0104 02:09:15.489938 16818 net.cpp:395] relu_5a_double_3x3_1 -> conv_5a_double_3x3_1 (in-place)
I0104 02:09:15.489967 16818 net.cpp:150] Setting up relu_5a_double_3x3_1
I0104 02:09:15.489982 16818 net.cpp:157] Top shape: 30 224 7 7 (329280)
I0104 02:09:15.489995 16818 net.cpp:165] Memory required for data: 3501657960
I0104 02:09:15.490005 16818 layer_factory.hpp:77] Creating layer ave_pool_5a_pool
I0104 02:09:15.490025 16818 net.cpp:100] Creating Layer ave_pool_5a_pool
I0104 02:09:15.490039 16818 net.cpp:434] ave_pool_5a_pool <- ch_concat_4e_chconcat_ch_concat_4e_chconcat_0_split_3
I0104 02:09:15.490057 16818 net.cpp:408] ave_pool_5a_pool -> ave_pool_5a_pool
I0104 02:09:15.490108 16818 net.cpp:150] Setting up ave_pool_5a_pool
I0104 02:09:15.490128 16818 net.cpp:157] Top shape: 30 960 7 7 (1411200)
I0104 02:09:15.490139 16818 net.cpp:165] Memory required for data: 3507302760
I0104 02:09:15.490150 16818 layer_factory.hpp:77] Creating layer conv_5a_proj
I0104 02:09:15.490170 16818 net.cpp:100] Creating Layer conv_5a_proj
I0104 02:09:15.490187 16818 net.cpp:434] conv_5a_proj <- ave_pool_5a_pool
I0104 02:09:15.490205 16818 net.cpp:408] conv_5a_proj -> conv_5a_proj
I0104 02:09:15.491322 16818 net.cpp:150] Setting up conv_5a_proj
I0104 02:09:15.491351 16818 net.cpp:157] Top shape: 30 128 7 7 (188160)
I0104 02:09:15.491364 16818 net.cpp:165] Memory required for data: 3508055400
I0104 02:09:15.491381 16818 layer_factory.hpp:77] Creating layer bn_5a_proj
I0104 02:09:15.491399 16818 net.cpp:100] Creating Layer bn_5a_proj
I0104 02:09:15.491411 16818 net.cpp:434] bn_5a_proj <- conv_5a_proj
I0104 02:09:15.491430 16818 net.cpp:395] bn_5a_proj -> conv_5a_proj (in-place)
I0104 02:09:15.491670 16818 net.cpp:150] Setting up bn_5a_proj
I0104 02:09:15.491691 16818 net.cpp:157] Top shape: 30 128 7 7 (188160)
I0104 02:09:15.491703 16818 net.cpp:165] Memory required for data: 3508808040
I0104 02:09:15.491721 16818 layer_factory.hpp:77] Creating layer scale_conv_5a_proj
I0104 02:09:15.491737 16818 net.cpp:100] Creating Layer scale_conv_5a_proj
I0104 02:09:15.491750 16818 net.cpp:434] scale_conv_5a_proj <- conv_5a_proj
I0104 02:09:15.491768 16818 net.cpp:395] scale_conv_5a_proj -> conv_5a_proj (in-place)
I0104 02:09:15.491832 16818 layer_factory.hpp:77] Creating layer scale_conv_5a_proj
I0104 02:09:15.491979 16818 net.cpp:150] Setting up scale_conv_5a_proj
I0104 02:09:15.492002 16818 net.cpp:157] Top shape: 30 128 7 7 (188160)
I0104 02:09:15.492013 16818 net.cpp:165] Memory required for data: 3509560680
I0104 02:09:15.492028 16818 layer_factory.hpp:77] Creating layer relu_5a_proj
I0104 02:09:15.492048 16818 net.cpp:100] Creating Layer relu_5a_proj
I0104 02:09:15.492059 16818 net.cpp:434] relu_5a_proj <- conv_5a_proj
I0104 02:09:15.492074 16818 net.cpp:395] relu_5a_proj -> conv_5a_proj (in-place)
I0104 02:09:15.492089 16818 net.cpp:150] Setting up relu_5a_proj
I0104 02:09:15.492103 16818 net.cpp:157] Top shape: 30 128 7 7 (188160)
I0104 02:09:15.492115 16818 net.cpp:165] Memory required for data: 3510313320
I0104 02:09:15.492126 16818 layer_factory.hpp:77] Creating layer ch_concat_5a_chconcat
I0104 02:09:15.492141 16818 net.cpp:100] Creating Layer ch_concat_5a_chconcat
I0104 02:09:15.492154 16818 net.cpp:434] ch_concat_5a_chconcat <- conv_5a_1x1
I0104 02:09:15.492167 16818 net.cpp:434] ch_concat_5a_chconcat <- conv_5a_3x3
I0104 02:09:15.492185 16818 net.cpp:434] ch_concat_5a_chconcat <- conv_5a_double_3x3_1
I0104 02:09:15.492200 16818 net.cpp:434] ch_concat_5a_chconcat <- conv_5a_proj
I0104 02:09:15.492220 16818 net.cpp:408] ch_concat_5a_chconcat -> ch_concat_5a_chconcat
I0104 02:09:15.492267 16818 net.cpp:150] Setting up ch_concat_5a_chconcat
I0104 02:09:15.492286 16818 net.cpp:157] Top shape: 30 1024 7 7 (1505280)
I0104 02:09:15.492297 16818 net.cpp:165] Memory required for data: 3516334440
I0104 02:09:15.492310 16818 layer_factory.hpp:77] Creating layer ch_concat_5a_chconcat_ch_concat_5a_chconcat_0_split
I0104 02:09:15.492326 16818 net.cpp:100] Creating Layer ch_concat_5a_chconcat_ch_concat_5a_chconcat_0_split
I0104 02:09:15.492338 16818 net.cpp:434] ch_concat_5a_chconcat_ch_concat_5a_chconcat_0_split <- ch_concat_5a_chconcat
I0104 02:09:15.492357 16818 net.cpp:408] ch_concat_5a_chconcat_ch_concat_5a_chconcat_0_split -> ch_concat_5a_chconcat_ch_concat_5a_chconcat_0_split_0
I0104 02:09:15.492388 16818 net.cpp:408] ch_concat_5a_chconcat_ch_concat_5a_chconcat_0_split -> ch_concat_5a_chconcat_ch_concat_5a_chconcat_0_split_1
I0104 02:09:15.492408 16818 net.cpp:408] ch_concat_5a_chconcat_ch_concat_5a_chconcat_0_split -> ch_concat_5a_chconcat_ch_concat_5a_chconcat_0_split_2
I0104 02:09:15.492426 16818 net.cpp:408] ch_concat_5a_chconcat_ch_concat_5a_chconcat_0_split -> ch_concat_5a_chconcat_ch_concat_5a_chconcat_0_split_3
I0104 02:09:15.492508 16818 net.cpp:150] Setting up ch_concat_5a_chconcat_ch_concat_5a_chconcat_0_split
I0104 02:09:15.492527 16818 net.cpp:157] Top shape: 30 1024 7 7 (1505280)
I0104 02:09:15.492542 16818 net.cpp:157] Top shape: 30 1024 7 7 (1505280)
I0104 02:09:15.492553 16818 net.cpp:157] Top shape: 30 1024 7 7 (1505280)
I0104 02:09:15.492566 16818 net.cpp:157] Top shape: 30 1024 7 7 (1505280)
I0104 02:09:15.492578 16818 net.cpp:165] Memory required for data: 3540418920
I0104 02:09:15.492588 16818 layer_factory.hpp:77] Creating layer conv_5b_1x1
I0104 02:09:15.492609 16818 net.cpp:100] Creating Layer conv_5b_1x1
I0104 02:09:15.492622 16818 net.cpp:434] conv_5b_1x1 <- ch_concat_5a_chconcat_ch_concat_5a_chconcat_0_split_0
I0104 02:09:15.492638 16818 net.cpp:408] conv_5b_1x1 -> conv_5b_1x1
I0104 02:09:15.494112 16818 net.cpp:150] Setting up conv_5b_1x1
I0104 02:09:15.494144 16818 net.cpp:157] Top shape: 30 352 7 7 (517440)
I0104 02:09:15.494158 16818 net.cpp:165] Memory required for data: 3542488680
I0104 02:09:15.494175 16818 layer_factory.hpp:77] Creating layer bn_5b_1x1
I0104 02:09:15.494202 16818 net.cpp:100] Creating Layer bn_5b_1x1
I0104 02:09:15.494216 16818 net.cpp:434] bn_5b_1x1 <- conv_5b_1x1
I0104 02:09:15.494235 16818 net.cpp:395] bn_5b_1x1 -> conv_5b_1x1 (in-place)
I0104 02:09:15.494503 16818 net.cpp:150] Setting up bn_5b_1x1
I0104 02:09:15.494524 16818 net.cpp:157] Top shape: 30 352 7 7 (517440)
I0104 02:09:15.494535 16818 net.cpp:165] Memory required for data: 3544558440
I0104 02:09:15.494554 16818 layer_factory.hpp:77] Creating layer scale_conv_5b_1x1
I0104 02:09:15.494575 16818 net.cpp:100] Creating Layer scale_conv_5b_1x1
I0104 02:09:15.494588 16818 net.cpp:434] scale_conv_5b_1x1 <- conv_5b_1x1
I0104 02:09:15.494602 16818 net.cpp:395] scale_conv_5b_1x1 -> conv_5b_1x1 (in-place)
I0104 02:09:15.494678 16818 layer_factory.hpp:77] Creating layer scale_conv_5b_1x1
I0104 02:09:15.494849 16818 net.cpp:150] Setting up scale_conv_5b_1x1
I0104 02:09:15.494869 16818 net.cpp:157] Top shape: 30 352 7 7 (517440)
I0104 02:09:15.494881 16818 net.cpp:165] Memory required for data: 3546628200
I0104 02:09:15.494896 16818 layer_factory.hpp:77] Creating layer relu_5b_1x1
I0104 02:09:15.494912 16818 net.cpp:100] Creating Layer relu_5b_1x1
I0104 02:09:15.494925 16818 net.cpp:434] relu_5b_1x1 <- conv_5b_1x1
I0104 02:09:15.494941 16818 net.cpp:395] relu_5b_1x1 -> conv_5b_1x1 (in-place)
I0104 02:09:15.494958 16818 net.cpp:150] Setting up relu_5b_1x1
I0104 02:09:15.494972 16818 net.cpp:157] Top shape: 30 352 7 7 (517440)
I0104 02:09:15.494984 16818 net.cpp:165] Memory required for data: 3548697960
I0104 02:09:15.494995 16818 layer_factory.hpp:77] Creating layer conv_5b_3x3_reduce
I0104 02:09:15.495013 16818 net.cpp:100] Creating Layer conv_5b_3x3_reduce
I0104 02:09:15.495026 16818 net.cpp:434] conv_5b_3x3_reduce <- ch_concat_5a_chconcat_ch_concat_5a_chconcat_0_split_1
I0104 02:09:15.495046 16818 net.cpp:408] conv_5b_3x3_reduce -> conv_5b_3x3_reduce
I0104 02:09:15.496178 16818 net.cpp:150] Setting up conv_5b_3x3_reduce
I0104 02:09:15.496214 16818 net.cpp:157] Top shape: 30 192 7 7 (282240)
I0104 02:09:15.496228 16818 net.cpp:165] Memory required for data: 3549826920
I0104 02:09:15.496245 16818 layer_factory.hpp:77] Creating layer bn_5b_3x3_reduce
I0104 02:09:15.496265 16818 net.cpp:100] Creating Layer bn_5b_3x3_reduce
I0104 02:09:15.496282 16818 net.cpp:434] bn_5b_3x3_reduce <- conv_5b_3x3_reduce
I0104 02:09:15.496299 16818 net.cpp:395] bn_5b_3x3_reduce -> conv_5b_3x3_reduce (in-place)
I0104 02:09:15.496562 16818 net.cpp:150] Setting up bn_5b_3x3_reduce
I0104 02:09:15.496582 16818 net.cpp:157] Top shape: 30 192 7 7 (282240)
I0104 02:09:15.496594 16818 net.cpp:165] Memory required for data: 3550955880
I0104 02:09:15.496611 16818 layer_factory.hpp:77] Creating layer scale_conv_5b_3x3_reduce
I0104 02:09:15.496628 16818 net.cpp:100] Creating Layer scale_conv_5b_3x3_reduce
I0104 02:09:15.496640 16818 net.cpp:434] scale_conv_5b_3x3_reduce <- conv_5b_3x3_reduce
I0104 02:09:15.496654 16818 net.cpp:395] scale_conv_5b_3x3_reduce -> conv_5b_3x3_reduce (in-place)
I0104 02:09:15.496721 16818 layer_factory.hpp:77] Creating layer scale_conv_5b_3x3_reduce
I0104 02:09:15.496884 16818 net.cpp:150] Setting up scale_conv_5b_3x3_reduce
I0104 02:09:15.496907 16818 net.cpp:157] Top shape: 30 192 7 7 (282240)
I0104 02:09:15.496919 16818 net.cpp:165] Memory required for data: 3552084840
I0104 02:09:15.496935 16818 layer_factory.hpp:77] Creating layer relu_5b_3x3_reduce
I0104 02:09:15.496950 16818 net.cpp:100] Creating Layer relu_5b_3x3_reduce
I0104 02:09:15.496963 16818 net.cpp:434] relu_5b_3x3_reduce <- conv_5b_3x3_reduce
I0104 02:09:15.496978 16818 net.cpp:395] relu_5b_3x3_reduce -> conv_5b_3x3_reduce (in-place)
I0104 02:09:15.496994 16818 net.cpp:150] Setting up relu_5b_3x3_reduce
I0104 02:09:15.497007 16818 net.cpp:157] Top shape: 30 192 7 7 (282240)
I0104 02:09:15.497020 16818 net.cpp:165] Memory required for data: 3553213800
I0104 02:09:15.497030 16818 layer_factory.hpp:77] Creating layer conv_5b_3x3
I0104 02:09:15.497051 16818 net.cpp:100] Creating Layer conv_5b_3x3
I0104 02:09:15.497064 16818 net.cpp:434] conv_5b_3x3 <- conv_5b_3x3_reduce
I0104 02:09:15.497082 16818 net.cpp:408] conv_5b_3x3 -> conv_5b_3x3
I0104 02:09:15.499020 16818 net.cpp:150] Setting up conv_5b_3x3
I0104 02:09:15.499064 16818 net.cpp:157] Top shape: 30 320 7 7 (470400)
I0104 02:09:15.499078 16818 net.cpp:165] Memory required for data: 3555095400
I0104 02:09:15.499095 16818 layer_factory.hpp:77] Creating layer bn_5b_3x3
I0104 02:09:15.499115 16818 net.cpp:100] Creating Layer bn_5b_3x3
I0104 02:09:15.499130 16818 net.cpp:434] bn_5b_3x3 <- conv_5b_3x3
I0104 02:09:15.499145 16818 net.cpp:395] bn_5b_3x3 -> conv_5b_3x3 (in-place)
I0104 02:09:15.499414 16818 net.cpp:150] Setting up bn_5b_3x3
I0104 02:09:15.499439 16818 net.cpp:157] Top shape: 30 320 7 7 (470400)
I0104 02:09:15.499451 16818 net.cpp:165] Memory required for data: 3556977000
I0104 02:09:15.499469 16818 layer_factory.hpp:77] Creating layer scale_conv_5b_3x3
I0104 02:09:15.499487 16818 net.cpp:100] Creating Layer scale_conv_5b_3x3
I0104 02:09:15.499500 16818 net.cpp:434] scale_conv_5b_3x3 <- conv_5b_3x3
I0104 02:09:15.499518 16818 net.cpp:395] scale_conv_5b_3x3 -> conv_5b_3x3 (in-place)
I0104 02:09:15.499593 16818 layer_factory.hpp:77] Creating layer scale_conv_5b_3x3
I0104 02:09:15.499763 16818 net.cpp:150] Setting up scale_conv_5b_3x3
I0104 02:09:15.499785 16818 net.cpp:157] Top shape: 30 320 7 7 (470400)
I0104 02:09:15.499799 16818 net.cpp:165] Memory required for data: 3558858600
I0104 02:09:15.499814 16818 layer_factory.hpp:77] Creating layer relu_5b_3x3
I0104 02:09:15.499832 16818 net.cpp:100] Creating Layer relu_5b_3x3
I0104 02:09:15.499845 16818 net.cpp:434] relu_5b_3x3 <- conv_5b_3x3
I0104 02:09:15.499862 16818 net.cpp:395] relu_5b_3x3 -> conv_5b_3x3 (in-place)
I0104 02:09:15.499879 16818 net.cpp:150] Setting up relu_5b_3x3
I0104 02:09:15.499893 16818 net.cpp:157] Top shape: 30 320 7 7 (470400)
I0104 02:09:15.499905 16818 net.cpp:165] Memory required for data: 3560740200
I0104 02:09:15.499917 16818 layer_factory.hpp:77] Creating layer conv_5b_double_3x3_reduce
I0104 02:09:15.499938 16818 net.cpp:100] Creating Layer conv_5b_double_3x3_reduce
I0104 02:09:15.499953 16818 net.cpp:434] conv_5b_double_3x3_reduce <- ch_concat_5a_chconcat_ch_concat_5a_chconcat_0_split_2
I0104 02:09:15.499969 16818 net.cpp:408] conv_5b_double_3x3_reduce -> conv_5b_double_3x3_reduce
I0104 02:09:15.501171 16818 net.cpp:150] Setting up conv_5b_double_3x3_reduce
I0104 02:09:15.501209 16818 net.cpp:157] Top shape: 30 192 7 7 (282240)
I0104 02:09:15.501240 16818 net.cpp:165] Memory required for data: 3561869160
I0104 02:09:15.501257 16818 layer_factory.hpp:77] Creating layer bn_5b_double_3x3_reduce
I0104 02:09:15.501279 16818 net.cpp:100] Creating Layer bn_5b_double_3x3_reduce
I0104 02:09:15.501294 16818 net.cpp:434] bn_5b_double_3x3_reduce <- conv_5b_double_3x3_reduce
I0104 02:09:15.501309 16818 net.cpp:395] bn_5b_double_3x3_reduce -> conv_5b_double_3x3_reduce (in-place)
I0104 02:09:15.501569 16818 net.cpp:150] Setting up bn_5b_double_3x3_reduce
I0104 02:09:15.501592 16818 net.cpp:157] Top shape: 30 192 7 7 (282240)
I0104 02:09:15.501605 16818 net.cpp:165] Memory required for data: 3562998120
I0104 02:09:15.501623 16818 layer_factory.hpp:77] Creating layer scale_conv_5b_double_3x3_reduce
I0104 02:09:15.501644 16818 net.cpp:100] Creating Layer scale_conv_5b_double_3x3_reduce
I0104 02:09:15.501658 16818 net.cpp:434] scale_conv_5b_double_3x3_reduce <- conv_5b_double_3x3_reduce
I0104 02:09:15.501675 16818 net.cpp:395] scale_conv_5b_double_3x3_reduce -> conv_5b_double_3x3_reduce (in-place)
I0104 02:09:15.501744 16818 layer_factory.hpp:77] Creating layer scale_conv_5b_double_3x3_reduce
I0104 02:09:15.501906 16818 net.cpp:150] Setting up scale_conv_5b_double_3x3_reduce
I0104 02:09:15.501930 16818 net.cpp:157] Top shape: 30 192 7 7 (282240)
I0104 02:09:15.501942 16818 net.cpp:165] Memory required for data: 3564127080
I0104 02:09:15.501958 16818 layer_factory.hpp:77] Creating layer relu_5b_double_3x3_reduce
I0104 02:09:15.501976 16818 net.cpp:100] Creating Layer relu_5b_double_3x3_reduce
I0104 02:09:15.501989 16818 net.cpp:434] relu_5b_double_3x3_reduce <- conv_5b_double_3x3_reduce
I0104 02:09:15.502007 16818 net.cpp:395] relu_5b_double_3x3_reduce -> conv_5b_double_3x3_reduce (in-place)
I0104 02:09:15.502023 16818 net.cpp:150] Setting up relu_5b_double_3x3_reduce
I0104 02:09:15.502038 16818 net.cpp:157] Top shape: 30 192 7 7 (282240)
I0104 02:09:15.502051 16818 net.cpp:165] Memory required for data: 3565256040
I0104 02:09:15.502063 16818 layer_factory.hpp:77] Creating layer conv_5b_double_3x3_0
I0104 02:09:15.502080 16818 net.cpp:100] Creating Layer conv_5b_double_3x3_0
I0104 02:09:15.502094 16818 net.cpp:434] conv_5b_double_3x3_0 <- conv_5b_double_3x3_reduce
I0104 02:09:15.502113 16818 net.cpp:408] conv_5b_double_3x3_0 -> conv_5b_double_3x3_0
I0104 02:09:15.503669 16818 net.cpp:150] Setting up conv_5b_double_3x3_0
I0104 02:09:15.503705 16818 net.cpp:157] Top shape: 30 224 7 7 (329280)
I0104 02:09:15.503721 16818 net.cpp:165] Memory required for data: 3566573160
I0104 02:09:15.503738 16818 layer_factory.hpp:77] Creating layer bn_5b_double_3x3_0
I0104 02:09:15.503760 16818 net.cpp:100] Creating Layer bn_5b_double_3x3_0
I0104 02:09:15.503773 16818 net.cpp:434] bn_5b_double_3x3_0 <- conv_5b_double_3x3_0
I0104 02:09:15.503789 16818 net.cpp:395] bn_5b_double_3x3_0 -> conv_5b_double_3x3_0 (in-place)
I0104 02:09:15.504041 16818 net.cpp:150] Setting up bn_5b_double_3x3_0
I0104 02:09:15.504061 16818 net.cpp:157] Top shape: 30 224 7 7 (329280)
I0104 02:09:15.504073 16818 net.cpp:165] Memory required for data: 3567890280
I0104 02:09:15.504091 16818 layer_factory.hpp:77] Creating layer scale_conv_5b_double_3x3_0
I0104 02:09:15.504112 16818 net.cpp:100] Creating Layer scale_conv_5b_double_3x3_0
I0104 02:09:15.504127 16818 net.cpp:434] scale_conv_5b_double_3x3_0 <- conv_5b_double_3x3_0
I0104 02:09:15.504142 16818 net.cpp:395] scale_conv_5b_double_3x3_0 -> conv_5b_double_3x3_0 (in-place)
I0104 02:09:15.504215 16818 layer_factory.hpp:77] Creating layer scale_conv_5b_double_3x3_0
I0104 02:09:15.504382 16818 net.cpp:150] Setting up scale_conv_5b_double_3x3_0
I0104 02:09:15.504403 16818 net.cpp:157] Top shape: 30 224 7 7 (329280)
I0104 02:09:15.504415 16818 net.cpp:165] Memory required for data: 3569207400
I0104 02:09:15.504431 16818 layer_factory.hpp:77] Creating layer relu_5b_double_3x3_0
I0104 02:09:15.504447 16818 net.cpp:100] Creating Layer relu_5b_double_3x3_0
I0104 02:09:15.504459 16818 net.cpp:434] relu_5b_double_3x3_0 <- conv_5b_double_3x3_0
I0104 02:09:15.504489 16818 net.cpp:395] relu_5b_double_3x3_0 -> conv_5b_double_3x3_0 (in-place)
I0104 02:09:15.504508 16818 net.cpp:150] Setting up relu_5b_double_3x3_0
I0104 02:09:15.504523 16818 net.cpp:157] Top shape: 30 224 7 7 (329280)
I0104 02:09:15.504534 16818 net.cpp:165] Memory required for data: 3570524520
I0104 02:09:15.504544 16818 layer_factory.hpp:77] Creating layer conv_5b_double_3x3_1
I0104 02:09:15.504562 16818 net.cpp:100] Creating Layer conv_5b_double_3x3_1
I0104 02:09:15.504575 16818 net.cpp:434] conv_5b_double_3x3_1 <- conv_5b_double_3x3_0
I0104 02:09:15.504595 16818 net.cpp:408] conv_5b_double_3x3_1 -> conv_5b_double_3x3_1
I0104 02:09:15.506295 16818 net.cpp:150] Setting up conv_5b_double_3x3_1
I0104 02:09:15.506330 16818 net.cpp:157] Top shape: 30 224 7 7 (329280)
I0104 02:09:15.506343 16818 net.cpp:165] Memory required for data: 3571841640
I0104 02:09:15.506361 16818 layer_factory.hpp:77] Creating layer bn_5b_double_3x3_1
I0104 02:09:15.506382 16818 net.cpp:100] Creating Layer bn_5b_double_3x3_1
I0104 02:09:15.506397 16818 net.cpp:434] bn_5b_double_3x3_1 <- conv_5b_double_3x3_1
I0104 02:09:15.506412 16818 net.cpp:395] bn_5b_double_3x3_1 -> conv_5b_double_3x3_1 (in-place)
I0104 02:09:15.506669 16818 net.cpp:150] Setting up bn_5b_double_3x3_1
I0104 02:09:15.506688 16818 net.cpp:157] Top shape: 30 224 7 7 (329280)
I0104 02:09:15.506700 16818 net.cpp:165] Memory required for data: 3573158760
I0104 02:09:15.506718 16818 layer_factory.hpp:77] Creating layer scale_conv_5b_double_3x3_1
I0104 02:09:15.506736 16818 net.cpp:100] Creating Layer scale_conv_5b_double_3x3_1
I0104 02:09:15.506748 16818 net.cpp:434] scale_conv_5b_double_3x3_1 <- conv_5b_double_3x3_1
I0104 02:09:15.506763 16818 net.cpp:395] scale_conv_5b_double_3x3_1 -> conv_5b_double_3x3_1 (in-place)
I0104 02:09:15.506836 16818 layer_factory.hpp:77] Creating layer scale_conv_5b_double_3x3_1
I0104 02:09:15.506999 16818 net.cpp:150] Setting up scale_conv_5b_double_3x3_1
I0104 02:09:15.507020 16818 net.cpp:157] Top shape: 30 224 7 7 (329280)
I0104 02:09:15.507032 16818 net.cpp:165] Memory required for data: 3574475880
I0104 02:09:15.507047 16818 layer_factory.hpp:77] Creating layer relu_5b_double_3x3_1
I0104 02:09:15.507064 16818 net.cpp:100] Creating Layer relu_5b_double_3x3_1
I0104 02:09:15.507077 16818 net.cpp:434] relu_5b_double_3x3_1 <- conv_5b_double_3x3_1
I0104 02:09:15.507094 16818 net.cpp:395] relu_5b_double_3x3_1 -> conv_5b_double_3x3_1 (in-place)
I0104 02:09:15.507112 16818 net.cpp:150] Setting up relu_5b_double_3x3_1
I0104 02:09:15.507127 16818 net.cpp:157] Top shape: 30 224 7 7 (329280)
I0104 02:09:15.507138 16818 net.cpp:165] Memory required for data: 3575793000
I0104 02:09:15.507149 16818 layer_factory.hpp:77] Creating layer max_pool_5b_pool
I0104 02:09:15.507165 16818 net.cpp:100] Creating Layer max_pool_5b_pool
I0104 02:09:15.507179 16818 net.cpp:434] max_pool_5b_pool <- ch_concat_5a_chconcat_ch_concat_5a_chconcat_0_split_3
I0104 02:09:15.507205 16818 net.cpp:408] max_pool_5b_pool -> max_pool_5b_pool
I0104 02:09:15.507272 16818 net.cpp:150] Setting up max_pool_5b_pool
I0104 02:09:15.507292 16818 net.cpp:157] Top shape: 30 1024 7 7 (1505280)
I0104 02:09:15.507304 16818 net.cpp:165] Memory required for data: 3581814120
I0104 02:09:15.507315 16818 layer_factory.hpp:77] Creating layer conv_5b_proj
I0104 02:09:15.507333 16818 net.cpp:100] Creating Layer conv_5b_proj
I0104 02:09:15.507346 16818 net.cpp:434] conv_5b_proj <- max_pool_5b_pool
I0104 02:09:15.507365 16818 net.cpp:408] conv_5b_proj -> conv_5b_proj
I0104 02:09:15.507789 16818 net.cpp:150] Setting up conv_5b_proj
I0104 02:09:15.507812 16818 net.cpp:157] Top shape: 30 128 7 7 (188160)
I0104 02:09:15.507824 16818 net.cpp:165] Memory required for data: 3582566760
I0104 02:09:15.507841 16818 layer_factory.hpp:77] Creating layer bn_5b_proj
I0104 02:09:15.507861 16818 net.cpp:100] Creating Layer bn_5b_proj
I0104 02:09:15.507874 16818 net.cpp:434] bn_5b_proj <- conv_5b_proj
I0104 02:09:15.507889 16818 net.cpp:395] bn_5b_proj -> conv_5b_proj (in-place)
I0104 02:09:15.508122 16818 net.cpp:150] Setting up bn_5b_proj
I0104 02:09:15.508157 16818 net.cpp:157] Top shape: 30 128 7 7 (188160)
I0104 02:09:15.508170 16818 net.cpp:165] Memory required for data: 3583319400
I0104 02:09:15.508194 16818 layer_factory.hpp:77] Creating layer scale_conv_5b_proj
I0104 02:09:15.508213 16818 net.cpp:100] Creating Layer scale_conv_5b_proj
I0104 02:09:15.508224 16818 net.cpp:434] scale_conv_5b_proj <- conv_5b_proj
I0104 02:09:15.508239 16818 net.cpp:395] scale_conv_5b_proj -> conv_5b_proj (in-place)
I0104 02:09:15.508337 16818 layer_factory.hpp:77] Creating layer scale_conv_5b_proj
I0104 02:09:15.508502 16818 net.cpp:150] Setting up scale_conv_5b_proj
I0104 02:09:15.508522 16818 net.cpp:157] Top shape: 30 128 7 7 (188160)
I0104 02:09:15.508534 16818 net.cpp:165] Memory required for data: 3584072040
I0104 02:09:15.508549 16818 layer_factory.hpp:77] Creating layer relu_5b_proj
I0104 02:09:15.508564 16818 net.cpp:100] Creating Layer relu_5b_proj
I0104 02:09:15.508577 16818 net.cpp:434] relu_5b_proj <- conv_5b_proj
I0104 02:09:15.508594 16818 net.cpp:395] relu_5b_proj -> conv_5b_proj (in-place)
I0104 02:09:15.508610 16818 net.cpp:150] Setting up relu_5b_proj
I0104 02:09:15.508625 16818 net.cpp:157] Top shape: 30 128 7 7 (188160)
I0104 02:09:15.508636 16818 net.cpp:165] Memory required for data: 3584824680
I0104 02:09:15.508647 16818 layer_factory.hpp:77] Creating layer ch_concat_5b_chconcat
I0104 02:09:15.508662 16818 net.cpp:100] Creating Layer ch_concat_5b_chconcat
I0104 02:09:15.508674 16818 net.cpp:434] ch_concat_5b_chconcat <- conv_5b_1x1
I0104 02:09:15.508688 16818 net.cpp:434] ch_concat_5b_chconcat <- conv_5b_3x3
I0104 02:09:15.508702 16818 net.cpp:434] ch_concat_5b_chconcat <- conv_5b_double_3x3_1
I0104 02:09:15.508715 16818 net.cpp:434] ch_concat_5b_chconcat <- conv_5b_proj
I0104 02:09:15.508730 16818 net.cpp:408] ch_concat_5b_chconcat -> ch_concat_5b_chconcat
I0104 02:09:15.508777 16818 net.cpp:150] Setting up ch_concat_5b_chconcat
I0104 02:09:15.508796 16818 net.cpp:157] Top shape: 30 1024 7 7 (1505280)
I0104 02:09:15.508807 16818 net.cpp:165] Memory required for data: 3590845800
I0104 02:09:15.508819 16818 layer_factory.hpp:77] Creating layer global_pool
I0104 02:09:15.508837 16818 net.cpp:100] Creating Layer global_pool
I0104 02:09:15.508849 16818 net.cpp:434] global_pool <- ch_concat_5b_chconcat
I0104 02:09:15.508865 16818 net.cpp:408] global_pool -> global_pool
I0104 02:09:15.508921 16818 net.cpp:150] Setting up global_pool
I0104 02:09:15.508941 16818 net.cpp:157] Top shape: 30 1024 1 1 (30720)
I0104 02:09:15.508952 16818 net.cpp:165] Memory required for data: 3590968680
I0104 02:09:15.508965 16818 layer_factory.hpp:77] Creating layer fc2
I0104 02:09:15.508983 16818 net.cpp:100] Creating Layer fc2
I0104 02:09:15.508996 16818 net.cpp:434] fc2 <- global_pool
I0104 02:09:15.509011 16818 net.cpp:408] fc2 -> fc2
I0104 02:09:15.509274 16818 net.cpp:150] Setting up fc2
I0104 02:09:15.509295 16818 net.cpp:157] Top shape: 30 7 (210)
I0104 02:09:15.509307 16818 net.cpp:165] Memory required for data: 3590969520
I0104 02:09:15.509323 16818 layer_factory.hpp:77] Creating layer fc2_fc2_0_split
I0104 02:09:15.509340 16818 net.cpp:100] Creating Layer fc2_fc2_0_split
I0104 02:09:15.509351 16818 net.cpp:434] fc2_fc2_0_split <- fc2
I0104 02:09:15.509371 16818 net.cpp:408] fc2_fc2_0_split -> fc2_fc2_0_split_0
I0104 02:09:15.509389 16818 net.cpp:408] fc2_fc2_0_split -> fc2_fc2_0_split_1
I0104 02:09:15.509445 16818 net.cpp:150] Setting up fc2_fc2_0_split
I0104 02:09:15.509464 16818 net.cpp:157] Top shape: 30 7 (210)
I0104 02:09:15.509476 16818 net.cpp:157] Top shape: 30 7 (210)
I0104 02:09:15.509486 16818 net.cpp:165] Memory required for data: 3590971200
I0104 02:09:15.509498 16818 layer_factory.hpp:77] Creating layer accuracy
I0104 02:09:15.509517 16818 net.cpp:100] Creating Layer accuracy
I0104 02:09:15.509531 16818 net.cpp:434] accuracy <- fc2_fc2_0_split_0
I0104 02:09:15.509544 16818 net.cpp:434] accuracy <- label_data_train_1_split_0
I0104 02:09:15.509560 16818 net.cpp:408] accuracy -> accuracy
…
