…
I1221 00:09:30.762460 14598 net.cpp:322] The NetState phase (0) differed from the phase (1) specified by a rule in layer data_test
I1221 00:09:30.764508 14598 net.cpp:58] Initializing net from parameters: 
name: "Inception21k"
state {
  phase: TRAIN
  level: 0
  stage: ""
}
layer {
  name: "data_train"
  type: "ImageData"
  top: "data"
  top: "label"
  include {
    phase: TRAIN
  }
  transform_param {
    mean_value: 129
  }
  image_data_param {
    source: "../fer2013/list_train.txt"
    batch_size: 30
    shuffle: true
    new_height: 224
    new_width: 224
    is_color: true
    root_folder: "../fer2013/fer2013_ims/"
  }
}
layer {
  name: "conv_conv1"
  type: "Convolution"
  bottom: "data"
  top: "conv_conv1"
  convolution_param {
    num_output: 96
    pad: 3
    kernel_size: 7
    stride: 2
  }
}
layer {
  name: "bn_conv1"
  type: "BatchNorm"
  bottom: "conv_conv1"
  top: "conv_conv1"
  batch_norm_param {
    use_global_stats: true
  }
}
layer {
  name: "scale_conv_conv1"
  type: "Scale"
  bottom: "conv_conv1"
  top: "conv_conv1"
  scale_param {
    bias_term: true
  }
}
layer {
  name: "relu_conv1"
  type: "ReLU"
  bottom: "conv_conv1"
  top: "conv_conv1"
}
layer {
  name: "pool1"
  type: "Pooling"
  bottom: "conv_conv1"
  top: "pool1"
  pooling_param {
    pool: MAX
    kernel_size: 3
    stride: 2
    pad: 0
  }
}
layer {
  name: "conv_conv2red"
  type: "Convolution"
  bottom: "pool1"
  top: "conv_conv2red"
  convolution_param {
    num_output: 128
    pad: 0
    kernel_size: 1
    stride: 1
  }
}
layer {
  name: "bn_conv2red"
  type: "BatchNorm"
  bottom: "conv_conv2red"
  top: "conv_conv2red"
  batch_norm_param {
    use_global_stats: true
  }
}
layer {
  name: "scale_conv_conv2red"
  type: "Scale"
  bottom: "conv_conv2red"
  top: "conv_conv2red"
  scale_param {
    bias_term: true
  }
}
layer {
  name: "relu_conv2red"
  type: "ReLU"
  bottom: "conv_conv2red"
  top: "conv_conv2red"
}
layer {
  name: "conv_conv2"
  type: "Convolution"
  bottom: "conv_conv2red"
  top: "conv_conv2"
  convolution_param {
    num_output: 288
    pad: 1
    kernel_size: 3
    stride: 1
  }
}
layer {
  name: "bn_conv2"
  type: "BatchNorm"
  bottom: "conv_conv2"
  top: "conv_conv2"
  batch_norm_param {
    use_global_stats: true
  }
}
layer {
  name: "scale_conv_conv2"
  type: "Scale"
  bottom: "conv_conv2"
  top: "conv_conv2"
  scale_param {
    bias_term: true
  }
}
layer {
  name: "relu_conv2"
  type: "ReLU"
  bottom: "conv_conv2"
  top: "conv_conv2"
}
layer {
  name: "pool2"
  type: "Pooling"
  bottom: "conv_conv2"
  top: "pool2"
  pooling_param {
    pool: MAX
    kernel_size: 3
    stride: 2
    pad: 0
  }
}
layer {
  name: "conv_3a_1x1"
  type: "Convolution"
  bottom: "pool2"
  top: "conv_3a_1x1"
  convolution_param {
    num_output: 96
    pad: 0
    kernel_size: 1
    stride: 1
  }
}
layer {
  name: "bn_3a_1x1"
  type: "BatchNorm"
  bottom: "conv_3a_1x1"
  top: "conv_3a_1x1"
  batch_norm_param {
    use_global_stats: true
  }
}
layer {
  name: "scale_conv_3a_1x1"
  type: "Scale"
  bottom: "conv_3a_1x1"
  top: "conv_3a_1x1"
  scale_param {
    bias_term: true
  }
}
layer {
  name: "relu_3a_1x1"
  type: "ReLU"
  bottom: "conv_3a_1x1"
  top: "conv_3a_1x1"
}
layer {
  name: "conv_3a_3x3_reduce"
  type: "Convolution"
  bottom: "pool2"
  top: "conv_3a_3x3_reduce"
  convolution_param {
    num_output: 96
    pad: 0
    kernel_size: 1
    stride: 1
  }
}
layer {
  name: "bn_3a_3x3_reduce"
  type: "BatchNorm"
  bottom: "conv_3a_3x3_reduce"
  top: "conv_3a_3x3_reduce"
  batch_norm_param {
    use_global_stats: true
  }
}
layer {
  name: "scale_conv_3a_3x3_reduce"
  type: "Scale"
  bottom: "conv_3a_3x3_reduce"
  top: "conv_3a_3x3_reduce"
  scale_param {
    bias_term: true
  }
}
layer {
  name: "relu_3a_3x3_reduce"
  type: "ReLU"
  bottom: "conv_3a_3x3_reduce"
  top: "conv_3a_3x3_reduce"
}
layer {
  name: "conv_3a_3x3"
  type: "Convolution"
  bottom: "conv_3a_3x3_reduce"
  top: "conv_3a_3x3"
  convolution_param {
    num_output: 96
    pad: 1
    kernel_size: 3
    stride: 1
  }
}
layer {
  name: "bn_3a_3x3"
  type: "BatchNorm"
  bottom: "conv_3a_3x3"
  top: "conv_3a_3x3"
  batch_norm_param {
    use_global_stats: true
  }
}
layer {
  name: "scale_conv_3a_3x3"
  type: "Scale"
  bottom: "conv_3a_3x3"
  top: "conv_3a_3x3"
  scale_param {
    bias_term: true
  }
}
layer {
  name: "relu_3a_3x3"
  type: "ReLU"
  bottom: "conv_3a_3x3"
  top: "conv_3a_3x3"
}
layer {
  name: "conv_3a_double_3x3_reduce"
  type: "Convolution"
  bottom: "pool2"
  top: "conv_3a_double_3x3_reduce"
  convolution_param {
    num_output: 96
    pad: 0
    kernel_size: 1
    stride: 1
  }
}
layer {
  name: "bn_3a_double_3x3_reduce"
  type: "BatchNorm"
  bottom: "conv_3a_double_3x3_reduce"
  top: "conv_3a_double_3x3_reduce"
  batch_norm_param {
    use_global_stats: true
  }
}
layer {
  name: "scale_conv_3a_double_3x3_reduce"
  type: "Scale"
  bottom: "conv_3a_double_3x3_reduce"
  top: "conv_3a_double_3x3_reduce"
  scale_param {
    bias_term: true
  }
}
layer {
  name: "relu_3a_double_3x3_reduce"
  type: "ReLU"
  bottom: "conv_3a_double_3x3_reduce"
  top: "conv_3a_double_3x3_reduce"
}
layer {
  name: "conv_3a_double_3x3_0"
  type: "Convolution"
  bottom: "conv_3a_double_3x3_reduce"
  top: "conv_3a_double_3x3_0"
  convolution_param {
    num_output: 144
    pad: 1
    kernel_size: 3
    stride: 1
  }
}
layer {
  name: "bn_3a_double_3x3_0"
  type: "BatchNorm"
  bottom: "conv_3a_double_3x3_0"
  top: "conv_3a_double_3x3_0"
  batch_norm_param {
    use_global_stats: true
  }
}
layer {
  name: "scale_conv_3a_double_3x3_0"
  type: "Scale"
  bottom: "conv_3a_double_3x3_0"
  top: "conv_3a_double_3x3_0"
  scale_param {
    bias_term: true
  }
}
layer {
  name: "relu_3a_double_3x3_0"
  type: "ReLU"
  bottom: "conv_3a_double_3x3_0"
  top: "conv_3a_double_3x3_0"
}
layer {
  name: "conv_3a_double_3x3_1"
  type: "Convolution"
  bottom: "conv_3a_double_3x3_0"
  top: "conv_3a_double_3x3_1"
  convolution_param {
    num_output: 144
    pad: 1
    kernel_size: 3
    stride: 1
  }
}
layer {
  name: "bn_3a_double_3x3_1"
  type: "BatchNorm"
  bottom: "conv_3a_double_3x3_1"
  top: "conv_3a_double_3x3_1"
  batch_norm_param {
    use_global_stats: true
  }
}
layer {
  name: "scale_conv_3a_double_3x3_1"
  type: "Scale"
  bottom: "conv_3a_double_3x3_1"
  top: "conv_3a_double_3x3_1"
  scale_param {
    bias_term: true
  }
}
layer {
  name: "relu_3a_double_3x3_1"
  type: "ReLU"
  bottom: "conv_3a_double_3x3_1"
  top: "conv_3a_double_3x3_1"
}
layer {
  name: "ave_pool_3a_pool"
  type: "Pooling"
  bottom: "pool2"
  top: "ave_pool_3a_pool"
  pooling_param {
    pool: AVE
    kernel_size: 3
    stride: 1
    pad: 1
  }
}
layer {
  name: "conv_3a_proj"
  type: "Convolution"
  bottom: "ave_pool_3a_pool"
  top: "conv_3a_proj"
  convolution_param {
    num_output: 48
    pad: 0
    kernel_size: 1
    stride: 1
  }
}
layer {
  name: "bn_3a_proj"
  type: "BatchNorm"
  bottom: "conv_3a_proj"
  top: "conv_3a_proj"
  batch_norm_param {
    use_global_stats: true
  }
}
layer {
  name: "scale_conv_3a_proj"
  type: "Scale"
  bottom: "conv_3a_proj"
  top: "conv_3a_proj"
  scale_param {
    bias_term: true
  }
}
layer {
  name: "relu_3a_proj"
  type: "ReLU"
  bottom: "conv_3a_proj"
  top: "conv_3a_proj"
}
layer {
  name: "ch_concat_3a_chconcat"
  type: "Concat"
  bottom: "conv_3a_1x1"
  bottom: "conv_3a_3x3"
  bottom: "conv_3a_double_3x3_1"
  bottom: "conv_3a_proj"
  top: "ch_concat_3a_chconcat"
}
layer {
  name: "conv_3b_1x1"
  type: "Convolution"
  bottom: "ch_concat_3a_chconcat"
  top: "conv_3b_1x1"
  convolution_param {
    num_output: 96
    pad: 0
    kernel_size: 1
    stride: 1
  }
}
layer {
  name: "bn_3b_1x1"
  type: "BatchNorm"
  bottom: "conv_3b_1x1"
  top: "conv_3b_1x1"
  batch_norm_param {
    use_global_stats: true
  }
}
layer {
  name: "scale_conv_3b_1x1"
  type: "Scale"
  bottom: "conv_3b_1x1"
  top: "conv_3b_1x1"
  scale_param {
    bias_term: true
  }
}
layer {
  name: "relu_3b_1x1"
  type: "ReLU"
  bottom: "conv_3b_1x1"
  top: "conv_3b_1x1"
}
layer {
  name: "conv_3b_3x3_reduce"
  type: "Convolution"
  bottom: "ch_concat_3a_chconcat"
  top: "conv_3b_3x3_reduce"
  convolution_param {
    num_output: 96
    pad: 0
    kernel_size: 1
    stride: 1
  }
}
layer {
  name: "bn_3b_3x3_reduce"
  type: "BatchNorm"
  bottom: "conv_3b_3x3_reduce"
  top: "conv_3b_3x3_reduce"
  batch_norm_param {
    use_global_stats: true
  }
}
layer {
  name: "scale_conv_3b_3x3_reduce"
  type: "Scale"
  bottom: "conv_3b_3x3_reduce"
  top: "conv_3b_3x3_reduce"
  scale_param {
    bias_term: true
  }
}
layer {
  name: "relu_3b_3x3_reduce"
  type: "ReLU"
  bottom: "conv_3b_3x3_reduce"
  top: "conv_3b_3x3_reduce"
}
layer {
  name: "conv_3b_3x3"
  type: "Convolution"
  bottom: "conv_3b_3x3_reduce"
  top: "conv_3b_3x3"
  convolution_param {
    num_output: 144
    pad: 1
    kernel_size: 3
    stride: 1
  }
}
layer {
  name: "bn_3b_3x3"
  type: "BatchNorm"
  bottom: "conv_3b_3x3"
  top: "conv_3b_3x3"
  batch_norm_param {
    use_global_stats: true
  }
}
layer {
  name: "scale_conv_3b_3x3"
  type: "Scale"
  bottom: "conv_3b_3x3"
  top: "conv_3b_3x3"
  scale_param {
    bias_term: true
  }
}
layer {
  name: "relu_3b_3x3"
  type: "ReLU"
  bottom: "conv_3b_3x3"
  top: "conv_3b_3x3"
}
layer {
  name: "conv_3b_double_3x3_reduce"
  type: "Convolution"
  bottom: "ch_concat_3a_chconcat"
  top: "conv_3b_double_3x3_reduce"
  convolution_param {
    num_output: 96
    pad: 0
    kernel_size: 1
    stride: 1
  }
}
layer {
  name: "bn_3b_double_3x3_reduce"
  type: "BatchNorm"
  bottom: "conv_3b_double_3x3_reduce"
  top: "conv_3b_double_3x3_reduce"
  batch_norm_param {
    use_global_stats: true
  }
}
layer {
  name: "scale_conv_3b_double_3x3_reduce"
  type: "Scale"
  bottom: "conv_3b_double_3x3_reduce"
  top: "conv_3b_double_3x3_reduce"
  scale_param {
    bias_term: true
  }
}
layer {
  name: "relu_3b_double_3x3_reduce"
  type: "ReLU"
  bottom: "conv_3b_double_3x3_reduce"
  top: "conv_3b_double_3x3_reduce"
}
layer {
  name: "conv_3b_double_3x3_0"
  type: "Convolution"
  bottom: "conv_3b_double_3x3_reduce"
  top: "conv_3b_double_3x3_0"
  convolution_param {
    num_output: 144
    pad: 1
    kernel_size: 3
    stride: 1
  }
}
layer {
  name: "bn_3b_double_3x3_0"
  type: "BatchNorm"
  bottom: "conv_3b_double_3x3_0"
  top: "conv_3b_double_3x3_0"
  batch_norm_param {
    use_global_stats: true
  }
}
layer {
  name: "scale_conv_3b_double_3x3_0"
  type: "Scale"
  bottom: "conv_3b_double_3x3_0"
  top: "conv_3b_double_3x3_0"
  scale_param {
    bias_term: true
  }
}
layer {
  name: "relu_3b_double_3x3_0"
  type: "ReLU"
  bottom: "conv_3b_double_3x3_0"
  top: "conv_3b_double_3x3_0"
}
layer {
  name: "conv_3b_double_3x3_1"
  type: "Convolution"
  bottom: "conv_3b_double_3x3_0"
  top: "conv_3b_double_3x3_1"
  convolution_param {
    num_output: 144
    pad: 1
    kernel_size: 3
    stride: 1
  }
}
layer {
  name: "bn_3b_double_3x3_1"
  type: "BatchNorm"
  bottom: "conv_3b_double_3x3_1"
  top: "conv_3b_double_3x3_1"
  batch_norm_param {
    use_global_stats: true
  }
}
layer {
  name: "scale_conv_3b_double_3x3_1"
  type: "Scale"
  bottom: "conv_3b_double_3x3_1"
  top: "conv_3b_double_3x3_1"
  scale_param {
    bias_term: true
  }
}
layer {
  name: "relu_3b_double_3x3_1"
  type: "ReLU"
  bottom: "conv_3b_double_3x3_1"
  top: "conv_3b_double_3x3_1"
}
layer {
  name: "ave_pool_3b_pool"
  type: "Pooling"
  bottom: "ch_concat_3a_chconcat"
  top: "ave_pool_3b_pool"
  pooling_param {
    pool: AVE
    kernel_size: 3
    stride: 1
    pad: 1
  }
}
layer {
  name: "conv_3b_proj"
  type: "Convolution"
  bottom: "ave_pool_3b_pool"
  top: "conv_3b_proj"
  convolution_param {
    num_output: 96
    pad: 0
    kernel_size: 1
    stride: 1
  }
}
layer {
  name: "bn_3b_proj"
  type: "BatchNorm"
  bottom: "conv_3b_proj"
  top: "conv_3b_proj"
  batch_norm_param {
    use_global_stats: true
  }
}
layer {
  name: "scale_conv_3b_proj"
  type: "Scale"
  bottom: "conv_3b_proj"
  top: "conv_3b_proj"
  scale_param {
    bias_term: true
  }
}
layer {
  name: "relu_3b_proj"
  type: "ReLU"
  bottom: "conv_3b_proj"
  top: "conv_3b_proj"
}
layer {
  name: "ch_concat_3b_chconcat"
  type: "Concat"
  bottom: "conv_3b_1x1"
  bottom: "conv_3b_3x3"
  bottom: "conv_3b_double_3x3_1"
  bottom: "conv_3b_proj"
  top: "ch_concat_3b_chconcat"
}
layer {
  name: "conv_3c_3x3_reduce"
  type: "Convolution"
  bottom: "ch_concat_3b_chconcat"
  top: "conv_3c_3x3_reduce"
  convolution_param {
    num_output: 192
    pad: 0
    kernel_size: 1
    stride: 1
  }
}
layer {
  name: "bn_3c_3x3_reduce"
  type: "BatchNorm"
  bottom: "conv_3c_3x3_reduce"
  top: "conv_3c_3x3_reduce"
  batch_norm_param {
    use_global_stats: true
  }
}
layer {
  name: "scale_conv_3c_3x3_reduce"
  type: "Scale"
  bottom: "conv_3c_3x3_reduce"
  top: "conv_3c_3x3_reduce"
  scale_param {
    bias_term: true
  }
}
layer {
  name: "relu_3c_3x3_reduce"
  type: "ReLU"
  bottom: "conv_3c_3x3_reduce"
  top: "conv_3c_3x3_reduce"
}
layer {
  name: "conv_3c_3x3"
  type: "Convolution"
  bottom: "conv_3c_3x3_reduce"
  top: "conv_3c_3x3"
  convolution_param {
    num_output: 240
    pad: 1
    kernel_size: 3
    stride: 2
  }
}
layer {
  name: "bn_3c_3x3"
  type: "BatchNorm"
  bottom: "conv_3c_3x3"
  top: "conv_3c_3x3"
  batch_norm_param {
    use_global_stats: true
  }
}
layer {
  name: "scale_conv_3c_3x3"
  type: "Scale"
  bottom: "conv_3c_3x3"
  top: "conv_3c_3x3"
  scale_param {
    bias_term: true
  }
}
layer {
  name: "relu_3c_3x3"
  type: "ReLU"
  bottom: "conv_3c_3x3"
  top: "conv_3c_3x3"
}
layer {
  name: "conv_3c_double_3x3_reduce"
  type: "Convolution"
  bottom: "ch_concat_3b_chconcat"
  top: "conv_3c_double_3x3_reduce"
  convolution_param {
    num_output: 96
    pad: 0
    kernel_size: 1
    stride: 1
  }
}
layer {
  name: "bn_3c_double_3x3_reduce"
  type: "BatchNorm"
  bottom: "conv_3c_double_3x3_reduce"
  top: "conv_3c_double_3x3_reduce"
  batch_norm_param {
    use_global_stats: true
  }
}
layer {
  name: "scale_conv_3c_double_3x3_reduce"
  type: "Scale"
  bottom: "conv_3c_double_3x3_reduce"
  top: "conv_3c_double_3x3_reduce"
  scale_param {
    bias_term: true
  }
}
layer {
  name: "relu_3c_double_3x3_reduce"
  type: "ReLU"
  bottom: "conv_3c_double_3x3_reduce"
  top: "conv_3c_double_3x3_reduce"
}
layer {
  name: "conv_3c_double_3x3_0"
  type: "Convolution"
  bottom: "conv_3c_double_3x3_reduce"
  top: "conv_3c_double_3x3_0"
  convolution_param {
    num_output: 144
    pad: 1
    kernel_size: 3
    stride: 1
  }
}
layer {
  name: "bn_3c_double_3x3_0"
  type: "BatchNorm"
  bottom: "conv_3c_double_3x3_0"
  top: "conv_3c_double_3x3_0"
  batch_norm_param {
    use_global_stats: true
  }
}
layer {
  name: "scale_conv_3c_double_3x3_0"
  type: "Scale"
  bottom: "conv_3c_double_3x3_0"
  top: "conv_3c_double_3x3_0"
  scale_param {
    bias_term: true
  }
}
layer {
  name: "relu_3c_double_3x3_0"
  type: "ReLU"
  bottom: "conv_3c_double_3x3_0"
  top: "conv_3c_double_3x3_0"
}
layer {
  name: "conv_3c_double_3x3_1"
  type: "Convolution"
  bottom: "conv_3c_double_3x3_0"
  top: "conv_3c_double_3x3_1"
  convolution_param {
    num_output: 144
    pad: 1
    kernel_size: 3
    stride: 2
  }
}
layer {
  name: "bn_3c_double_3x3_1"
  type: "BatchNorm"
  bottom: "conv_3c_double_3x3_1"
  top: "conv_3c_double_3x3_1"
  batch_norm_param {
    use_global_stats: true
  }
}
layer {
  name: "scale_conv_3c_double_3x3_1"
  type: "Scale"
  bottom: "conv_3c_double_3x3_1"
  top: "conv_3c_double_3x3_1"
  scale_param {
    bias_term: true
  }
}
layer {
  name: "relu_3c_double_3x3_1"
  type: "ReLU"
  bottom: "conv_3c_double_3x3_1"
  top: "conv_3c_double_3x3_1"
}
layer {
  name: "max_pool_3c_pool"
  type: "Pooling"
  bottom: "ch_concat_3b_chconcat"
  top: "max_pool_3c_pool"
  pooling_param {
    pool: MAX
    kernel_size: 3
    stride: 2
    pad: 0
  }
}
layer {
  name: "ch_concat_3c_chconcat"
  type: "Concat"
  bottom: "conv_3c_3x3"
  bottom: "conv_3c_double_3x3_1"
  bottom: "max_pool_3c_pool"
  top: "ch_concat_3c_chconcat"
}
layer {
  name: "conv_4a_1x1"
  type: "Convolution"
  bottom: "ch_concat_3c_chconcat"
  top: "conv_4a_1x1"
  convolution_param {
    num_output: 224
    pad: 0
    kernel_size: 1
    stride: 1
  }
}
layer {
  name: "bn_4a_1x1"
  type: "BatchNorm"
  bottom: "conv_4a_1x1"
  top: "conv_4a_1x1"
  batch_norm_param {
    use_global_stats: true
  }
}
layer {
  name: "scale_conv_4a_1x1"
  type: "Scale"
  bottom: "conv_4a_1x1"
  top: "conv_4a_1x1"
  scale_param {
    bias_term: true
  }
}
layer {
  name: "relu_4a_1x1"
  type: "ReLU"
  bottom: "conv_4a_1x1"
  top: "conv_4a_1x1"
}
layer {
  name: "conv_4a_3x3_reduce"
  type: "Convolution"
  bottom: "ch_concat_3c_chconcat"
  top: "conv_4a_3x3_reduce"
  convolution_param {
    num_output: 64
    pad: 0
    kernel_size: 1
    stride: 1
  }
}
layer {
  name: "bn_4a_3x3_reduce"
  type: "BatchNorm"
  bottom: "conv_4a_3x3_reduce"
  top: "conv_4a_3x3_reduce"
  batch_norm_param {
    use_global_stats: true
  }
}
layer {
  name: "scale_conv_4a_3x3_reduce"
  type: "Scale"
  bottom: "conv_4a_3x3_reduce"
  top: "conv_4a_3x3_reduce"
  scale_param {
    bias_term: true
  }
}
layer {
  name: "relu_4a_3x3_reduce"
  type: "ReLU"
  bottom: "conv_4a_3x3_reduce"
  top: "conv_4a_3x3_reduce"
}
layer {
  name: "conv_4a_3x3"
  type: "Convolution"
  bottom: "conv_4a_3x3_reduce"
  top: "conv_4a_3x3"
  convolution_param {
    num_output: 96
    pad: 1
    kernel_size: 3
    stride: 1
  }
}
layer {
  name: "bn_4a_3x3"
  type: "BatchNorm"
  bottom: "conv_4a_3x3"
  top: "conv_4a_3x3"
  batch_norm_param {
    use_global_stats: true
  }
}
layer {
  name: "scale_conv_4a_3x3"
  type: "Scale"
  bottom: "conv_4a_3x3"
  top: "conv_4a_3x3"
  scale_param {
    bias_term: true
  }
}
layer {
  name: "relu_4a_3x3"
  type: "ReLU"
  bottom: "conv_4a_3x3"
  top: "conv_4a_3x3"
}
layer {
  name: "conv_4a_double_3x3_reduce"
  type: "Convolution"
  bottom: "ch_concat_3c_chconcat"
  top: "conv_4a_double_3x3_reduce"
  convolution_param {
    num_output: 96
    pad: 0
    kernel_size: 1
    stride: 1
  }
}
layer {
  name: "bn_4a_double_3x3_reduce"
  type: "BatchNorm"
  bottom: "conv_4a_double_3x3_reduce"
  top: "conv_4a_double_3x3_reduce"
  batch_norm_param {
    use_global_stats: true
  }
}
layer {
  name: "scale_conv_4a_double_3x3_reduce"
  type: "Scale"
  bottom: "conv_4a_double_3x3_reduce"
  top: "conv_4a_double_3x3_reduce"
  scale_param {
    bias_term: true
  }
}
layer {
  name: "relu_4a_double_3x3_reduce"
  type: "ReLU"
  bottom: "conv_4a_double_3x3_reduce"
  top: "conv_4a_double_3x3_reduce"
}
layer {
  name: "conv_4a_double_3x3_0"
  type: "Convolution"
  bottom: "conv_4a_double_3x3_reduce"
  top: "conv_4a_double_3x3_0"
  convolution_param {
    num_output: 128
    pad: 1
    kernel_size: 3
    stride: 1
  }
}
layer {
  name: "bn_4a_double_3x3_0"
  type: "BatchNorm"
  bottom: "conv_4a_double_3x3_0"
  top: "conv_4a_double_3x3_0"
  batch_norm_param {
    use_global_stats: true
  }
}
layer {
  name: "scale_conv_4a_double_3x3_0"
  type: "Scale"
  bottom: "conv_4a_double_3x3_0"
  top: "conv_4a_double_3x3_0"
  scale_param {
    bias_term: true
  }
}
layer {
  name: "relu_4a_double_3x3_0"
  type: "ReLU"
  bottom: "conv_4a_double_3x3_0"
  top: "conv_4a_double_3x3_0"
}
layer {
  name: "conv_4a_double_3x3_1"
  type: "Convolution"
  bottom: "conv_4a_double_3x3_0"
  top: "conv_4a_double_3x3_1"
  convolution_param {
    num_output: 128
    pad: 1
    kernel_size: 3
    stride: 1
  }
}
layer {
  name: "bn_4a_double_3x3_1"
  type: "BatchNorm"
  bottom: "conv_4a_double_3x3_1"
  top: "conv_4a_double_3x3_1"
  batch_norm_param {
    use_global_stats: true
  }
}
layer {
  name: "scale_conv_4a_double_3x3_1"
  type: "Scale"
  bottom: "conv_4a_double_3x3_1"
  top: "conv_4a_double_3x3_1"
  scale_param {
    bias_term: true
  }
}
layer {
  name: "relu_4a_double_3x3_1"
  type: "ReLU"
  bottom: "conv_4a_double_3x3_1"
  top: "conv_4a_double_3x3_1"
}
layer {
  name: "ave_pool_4a_pool"
  type: "Pooling"
  bottom: "ch_concat_3c_chconcat"
  top: "ave_pool_4a_pool"
  pooling_param {
    pool: AVE
    kernel_size: 3
    stride: 1
    pad: 1
  }
}
layer {
  name: "conv_4a_proj"
  type: "Convolution"
  bottom: "ave_pool_4a_pool"
  top: "conv_4a_proj"
  convolution_param {
    num_output: 128
    pad: 0
    kernel_size: 1
    stride: 1
  }
}
layer {
  name: "bn_4a_proj"
  type: "BatchNorm"
  bottom: "conv_4a_proj"
  top: "conv_4a_proj"
  batch_norm_param {
    use_global_stats: true
  }
}
layer {
  name: "scale_conv_4a_proj"
  type: "Scale"
  bottom: "conv_4a_proj"
  top: "conv_4a_proj"
  scale_param {
    bias_term: true
  }
}
layer {
  name: "relu_4a_proj"
  type: "ReLU"
  bottom: "conv_4a_proj"
  top: "conv_4a_proj"
}
layer {
  name: "ch_concat_4a_chconcat"
  type: "Concat"
  bottom: "conv_4a_1x1"
  bottom: "conv_4a_3x3"
  bottom: "conv_4a_double_3x3_1"
  bottom: "conv_4a_proj"
  top: "ch_concat_4a_chconcat"
}
layer {
  name: "conv_4b_1x1"
  type: "Convolution"
  bottom: "ch_concat_4a_chconcat"
  top: "conv_4b_1x1"
  convolution_param {
    num_output: 192
    pad: 0
    kernel_size: 1
    stride: 1
  }
}
layer {
  name: "bn_4b_1x1"
  type: "BatchNorm"
  bottom: "conv_4b_1x1"
  top: "conv_4b_1x1"
  batch_norm_param {
    use_global_stats: true
  }
}
layer {
  name: "scale_conv_4b_1x1"
  type: "Scale"
  bottom: "conv_4b_1x1"
  top: "conv_4b_1x1"
  scale_param {
    bias_term: true
  }
}
layer {
  name: "relu_4b_1x1"
  type: "ReLU"
  bottom: "conv_4b_1x1"
  top: "conv_4b_1x1"
}
layer {
  name: "conv_4b_3x3_reduce"
  type: "Convolution"
  bottom: "ch_concat_4a_chconcat"
  top: "conv_4b_3x3_reduce"
  convolution_param {
    num_output: 96
    pad: 0
    kernel_size: 1
    stride: 1
  }
}
layer {
  name: "bn_4b_3x3_reduce"
  type: "BatchNorm"
  bottom: "conv_4b_3x3_reduce"
  top: "conv_4b_3x3_reduce"
  batch_norm_param {
    use_global_stats: true
  }
}
layer {
  name: "scale_conv_4b_3x3_reduce"
  type: "Scale"
  bottom: "conv_4b_3x3_reduce"
  top: "conv_4b_3x3_reduce"
  scale_param {
    bias_term: true
  }
}
layer {
  name: "relu_4b_3x3_reduce"
  type: "ReLU"
  bottom: "conv_4b_3x3_reduce"
  top: "conv_4b_3x3_reduce"
}
layer {
  name: "conv_4b_3x3"
  type: "Convolution"
  bottom: "conv_4b_3x3_reduce"
  top: "conv_4b_3x3"
  convolution_param {
    num_output: 128
    pad: 1
    kernel_size: 3
    stride: 1
  }
}
layer {
  name: "bn_4b_3x3"
  type: "BatchNorm"
  bottom: "conv_4b_3x3"
  top: "conv_4b_3x3"
  batch_norm_param {
    use_global_stats: true
  }
}
layer {
  name: "scale_conv_4b_3x3"
  type: "Scale"
  bottom: "conv_4b_3x3"
  top: "conv_4b_3x3"
  scale_param {
    bias_term: true
  }
}
layer {
  name: "relu_4b_3x3"
  type: "ReLU"
  bottom: "conv_4b_3x3"
  top: "conv_4b_3x3"
}
layer {
  name: "conv_4b_double_3x3_reduce"
  type: "Convolution"
  bottom: "ch_concat_4a_chconcat"
  top: "conv_4b_double_3x3_reduce"
  convolution_param {
    num_output: 96
    pad: 0
    kernel_size: 1
    stride: 1
  }
}
layer {
  name: "bn_4b_double_3x3_reduce"
  type: "BatchNorm"
  bottom: "conv_4b_double_3x3_reduce"
  top: "conv_4b_double_3x3_reduce"
  batch_norm_param {
    use_global_stats: true
  }
}
layer {
  name: "scale_conv_4b_double_3x3_reduce"
  type: "Scale"
  bottom: "conv_4b_double_3x3_reduce"
  top: "conv_4b_double_3x3_reduce"
  scale_param {
    bias_term: true
  }
}
layer {
  name: "relu_4b_double_3x3_reduce"
  type: "ReLU"
  bottom: "conv_4b_double_3x3_reduce"
  top: "conv_4b_double_3x3_reduce"
}
layer {
  name: "conv_4b_double_3x3_0"
  type: "Convolution"
  bottom: "conv_4b_double_3x3_reduce"
  top: "conv_4b_double_3x3_0"
  convolution_param {
    num_output: 128
    pad: 1
    kernel_size: 3
    stride: 1
  }
}
layer {
  name: "bn_4b_double_3x3_0"
  type: "BatchNorm"
  bottom: "conv_4b_double_3x3_0"
  top: "conv_4b_double_3x3_0"
  batch_norm_param {
    use_global_stats: true
  }
}
layer {
  name: "scale_conv_4b_double_3x3_0"
  type: "Scale"
  bottom: "conv_4b_double_3x3_0"
  top: "conv_4b_double_3x3_0"
  scale_param {
    bias_term: true
  }
}
layer {
  name: "relu_4b_double_3x3_0"
  type: "ReLU"
  bottom: "conv_4b_double_3x3_0"
  top: "conv_4b_double_3x3_0"
}
layer {
  name: "conv_4b_double_3x3_1"
  type: "Convolution"
  bottom: "conv_4b_double_3x3_0"
  top: "conv_4b_double_3x3_1"
  convolution_param {
    num_output: 128
    pad: 1
    kernel_size: 3
    stride: 1
  }
}
layer {
  name: "bn_4b_double_3x3_1"
  type: "BatchNorm"
  bottom: "conv_4b_double_3x3_1"
  top: "conv_4b_double_3x3_1"
  batch_norm_param {
    use_global_stats: true
  }
}
layer {
  name: "scale_conv_4b_double_3x3_1"
  type: "Scale"
  bottom: "conv_4b_double_3x3_1"
  top: "conv_4b_double_3x3_1"
  scale_param {
    bias_term: true
  }
}
layer {
  name: "relu_4b_double_3x3_1"
  type: "ReLU"
  bottom: "conv_4b_double_3x3_1"
  top: "conv_4b_double_3x3_1"
}
layer {
  name: "ave_pool_4b_pool"
  type: "Pooling"
  bottom: "ch_concat_4a_chconcat"
  top: "ave_pool_4b_pool"
  pooling_param {
    pool: AVE
    kernel_size: 3
    stride: 1
    pad: 1
  }
}
layer {
  name: "conv_4b_proj"
  type: "Convolution"
  bottom: "ave_pool_4b_pool"
  top: "conv_4b_proj"
  convolution_param {
    num_output: 128
    pad: 0
    kernel_size: 1
    stride: 1
  }
}
layer {
  name: "bn_4b_proj"
  type: "BatchNorm"
  bottom: "conv_4b_proj"
  top: "conv_4b_proj"
  batch_norm_param {
    use_global_stats: true
  }
}
layer {
  name: "scale_conv_4b_proj"
  type: "Scale"
  bottom: "conv_4b_proj"
  top: "conv_4b_proj"
  scale_param {
    bias_term: true
  }
}
layer {
  name: "relu_4b_proj"
  type: "ReLU"
  bottom: "conv_4b_proj"
  top: "conv_4b_proj"
}
layer {
  name: "ch_concat_4b_chconcat"
  type: "Concat"
  bottom: "conv_4b_1x1"
  bottom: "conv_4b_3x3"
  bottom: "conv_4b_double_3x3_1"
  bottom: "conv_4b_proj"
  top: "ch_concat_4b_chconcat"
}
layer {
  name: "conv_4c_1x1"
  type: "Convolution"
  bottom: "ch_concat_4b_chconcat"
  top: "conv_4c_1x1"
  convolution_param {
    num_output: 160
    pad: 0
    kernel_size: 1
    stride: 1
  }
}
layer {
  name: "bn_4c_1x1"
  type: "BatchNorm"
  bottom: "conv_4c_1x1"
  top: "conv_4c_1x1"
  batch_norm_param {
    use_global_stats: true
  }
}
layer {
  name: "scale_conv_4c_1x1"
  type: "Scale"
  bottom: "conv_4c_1x1"
  top: "conv_4c_1x1"
  scale_param {
    bias_term: true
  }
}
layer {
  name: "relu_4c_1x1"
  type: "ReLU"
  bottom: "conv_4c_1x1"
  top: "conv_4c_1x1"
}
layer {
  name: "conv_4c_3x3_reduce"
  type: "Convolution"
  bottom: "ch_concat_4b_chconcat"
  top: "conv_4c_3x3_reduce"
  convolution_param {
    num_output: 128
    pad: 0
    kernel_size: 1
    stride: 1
  }
}
layer {
  name: "bn_4c_3x3_reduce"
  type: "BatchNorm"
  bottom: "conv_4c_3x3_reduce"
  top: "conv_4c_3x3_reduce"
  batch_norm_param {
    use_global_stats: true
  }
}
layer {
  name: "scale_conv_4c_3x3_reduce"
  type: "Scale"
  bottom: "conv_4c_3x3_reduce"
  top: "conv_4c_3x3_reduce"
  scale_param {
    bias_term: true
  }
}
layer {
  name: "relu_4c_3x3_reduce"
  type: "ReLU"
  bottom: "conv_4c_3x3_reduce"
  top: "conv_4c_3x3_reduce"
}
layer {
  name: "conv_4c_3x3"
  type: "Convolution"
  bottom: "conv_4c_3x3_reduce"
  top: "conv_4c_3x3"
  convolution_param {
    num_output: 160
    pad: 1
    kernel_size: 3
    stride: 1
  }
}
layer {
  name: "bn_4c_3x3"
  type: "BatchNorm"
  bottom: "conv_4c_3x3"
  top: "conv_4c_3x3"
  batch_norm_param {
    use_global_stats: true
  }
}
layer {
  name: "scale_conv_4c_3x3"
  type: "Scale"
  bottom: "conv_4c_3x3"
  top: "conv_4c_3x3"
  scale_param {
    bias_term: true
  }
}
layer {
  name: "relu_4c_3x3"
  type: "ReLU"
  bottom: "conv_4c_3x3"
  top: "conv_4c_3x3"
}
layer {
  name: "conv_4c_double_3x3_reduce"
  type: "Convolution"
  bottom: "ch_concat_4b_chconcat"
  top: "conv_4c_double_3x3_reduce"
  convolution_param {
    num_output: 128
    pad: 0
    kernel_size: 1
    stride: 1
  }
}
layer {
  name: "bn_4c_double_3x3_reduce"
  type: "BatchNorm"
  bottom: "conv_4c_double_3x3_reduce"
  top: "conv_4c_double_3x3_reduce"
  batch_norm_param {
    use_global_stats: true
  }
}
layer {
  name: "scale_conv_4c_double_3x3_reduce"
  type: "Scale"
  bottom: "conv_4c_double_3x3_reduce"
  top: "conv_4c_double_3x3_reduce"
  scale_param {
    bias_term: true
  }
}
layer {
  name: "relu_4c_double_3x3_reduce"
  type: "ReLU"
  bottom: "conv_4c_double_3x3_reduce"
  top: "conv_4c_double_3x3_reduce"
}
layer {
  name: "conv_4c_double_3x3_0"
  type: "Convolution"
  bottom: "conv_4c_double_3x3_reduce"
  top: "conv_4c_double_3x3_0"
  convolution_param {
    num_output: 160
    pad: 1
    kernel_size: 3
    stride: 1
  }
}
layer {
  name: "bn_4c_double_3x3_0"
  type: "BatchNorm"
  bottom: "conv_4c_double_3x3_0"
  top: "conv_4c_double_3x3_0"
  batch_norm_param {
    use_global_stats: true
  }
}
layer {
  name: "scale_conv_4c_double_3x3_0"
  type: "Scale"
  bottom: "conv_4c_double_3x3_0"
  top: "conv_4c_double_3x3_0"
  scale_param {
    bias_term: true
  }
}
layer {
  name: "relu_4c_double_3x3_0"
  type: "ReLU"
  bottom: "conv_4c_double_3x3_0"
  top: "conv_4c_double_3x3_0"
}
layer {
  name: "conv_4c_double_3x3_1"
  type: "Convolution"
  bottom: "conv_4c_double_3x3_0"
  top: "conv_4c_double_3x3_1"
  convolution_param {
    num_output: 160
    pad: 1
    kernel_size: 3
    stride: 1
  }
}
layer {
  name: "bn_4c_double_3x3_1"
  type: "BatchNorm"
  bottom: "conv_4c_double_3x3_1"
  top: "conv_4c_double_3x3_1"
  batch_norm_param {
    use_global_stats: true
  }
}
layer {
  name: "scale_conv_4c_double_3x3_1"
  type: "Scale"
  bottom: "conv_4c_double_3x3_1"
  top: "conv_4c_double_3x3_1"
  scale_param {
    bias_term: true
  }
}
layer {
  name: "relu_4c_double_3x3_1"
  type: "ReLU"
  bottom: "conv_4c_double_3x3_1"
  top: "conv_4c_double_3x3_1"
}
layer {
  name: "ave_pool_4c_pool"
  type: "Pooling"
  bottom: "ch_concat_4b_chconcat"
  top: "ave_pool_4c_pool"
  pooling_param {
    pool: AVE
    kernel_size: 3
    stride: 1
    pad: 1
  }
}
layer {
  name: "conv_4c_proj"
  type: "Convolution"
  bottom: "ave_pool_4c_pool"
  top: "conv_4c_proj"
  convolution_param {
    num_output: 128
    pad: 0
    kernel_size: 1
    stride: 1
  }
}
layer {
  name: "bn_4c_proj"
  type: "BatchNorm"
  bottom: "conv_4c_proj"
  top: "conv_4c_proj"
  batch_norm_param {
    use_global_s
I1221 00:09:30.770328 14598 layer_factory.hpp:77] Creating layer data_train
I1221 00:09:30.770391 14598 net.cpp:100] Creating Layer data_train
I1221 00:09:30.770417 14598 net.cpp:408] data_train -> data
I1221 00:09:30.770459 14598 net.cpp:408] data_train -> label
I1221 00:09:30.770494 14598 image_data_layer.cpp:38] Opening file ../fer2013/list_train.txt
I1221 00:09:30.777101 14598 image_data_layer.cpp:53] Shuffling data
I1221 00:09:30.779654 14598 image_data_layer.cpp:58] A total of 32298 images.
I1221 00:09:30.817847 14598 image_data_layer.cpp:85] output data size: 30,3,224,224
I1221 00:09:30.860770 14598 net.cpp:150] Setting up data_train
I1221 00:09:30.860836 14598 net.cpp:157] Top shape: 30 3 224 224 (4515840)
I1221 00:09:30.860857 14598 net.cpp:157] Top shape: 30 (30)
I1221 00:09:30.860872 14598 net.cpp:165] Memory required for data: 18063480
I1221 00:09:30.860893 14598 layer_factory.hpp:77] Creating layer label_data_train_1_split
I1221 00:09:30.860923 14598 net.cpp:100] Creating Layer label_data_train_1_split
I1221 00:09:30.860940 14598 net.cpp:434] label_data_train_1_split <- label
I1221 00:09:30.860973 14598 net.cpp:408] label_data_train_1_split -> label_data_train_1_split_0
I1221 00:09:30.861001 14598 net.cpp:408] label_data_train_1_split -> label_data_train_1_split_1
I1221 00:09:30.861081 14598 net.cpp:150] Setting up label_data_train_1_split
I1221 00:09:30.861104 14598 net.cpp:157] Top shape: 30 (30)
I1221 00:09:30.861120 14598 net.cpp:157] Top shape: 30 (30)
I1221 00:09:30.861132 14598 net.cpp:165] Memory required for data: 18063720
I1221 00:09:30.861151 14598 layer_factory.hpp:77] Creating layer conv_conv1
I1221 00:09:30.861189 14598 net.cpp:100] Creating Layer conv_conv1
I1221 00:09:30.861207 14598 net.cpp:434] conv_conv1 <- data
I1221 00:09:30.861227 14598 net.cpp:408] conv_conv1 -> conv_conv1
I1221 00:09:30.862332 14598 net.cpp:150] Setting up conv_conv1
I1221 00:09:30.862366 14598 net.cpp:157] Top shape: 30 96 112 112 (36126720)
I1221 00:09:30.862396 14598 net.cpp:165] Memory required for data: 162570600
I1221 00:09:30.862438 14598 layer_factory.hpp:77] Creating layer bn_conv1
I1221 00:09:30.862463 14598 net.cpp:100] Creating Layer bn_conv1
I1221 00:09:30.862478 14598 net.cpp:434] bn_conv1 <- conv_conv1
I1221 00:09:30.862496 14598 net.cpp:395] bn_conv1 -> conv_conv1 (in-place)
I1221 00:09:30.862821 14598 net.cpp:150] Setting up bn_conv1
I1221 00:09:30.862848 14598 net.cpp:157] Top shape: 30 96 112 112 (36126720)
I1221 00:09:30.862864 14598 net.cpp:165] Memory required for data: 307077480
I1221 00:09:30.862891 14598 layer_factory.hpp:77] Creating layer scale_conv_conv1
I1221 00:09:30.862916 14598 net.cpp:100] Creating Layer scale_conv_conv1
I1221 00:09:30.862931 14598 net.cpp:434] scale_conv_conv1 <- conv_conv1
I1221 00:09:30.862948 14598 net.cpp:395] scale_conv_conv1 -> conv_conv1 (in-place)
I1221 00:09:30.863028 14598 layer_factory.hpp:77] Creating layer scale_conv_conv1
I1221 00:09:30.865166 14598 net.cpp:150] Setting up scale_conv_conv1
I1221 00:09:30.865216 14598 net.cpp:157] Top shape: 30 96 112 112 (36126720)
I1221 00:09:30.865233 14598 net.cpp:165] Memory required for data: 451584360
I1221 00:09:30.865255 14598 layer_factory.hpp:77] Creating layer relu_conv1
I1221 00:09:30.865275 14598 net.cpp:100] Creating Layer relu_conv1
I1221 00:09:30.865290 14598 net.cpp:434] relu_conv1 <- conv_conv1
I1221 00:09:30.865309 14598 net.cpp:395] relu_conv1 -> conv_conv1 (in-place)
I1221 00:09:30.865329 14598 net.cpp:150] Setting up relu_conv1
I1221 00:09:30.865347 14598 net.cpp:157] Top shape: 30 96 112 112 (36126720)
I1221 00:09:30.865361 14598 net.cpp:165] Memory required for data: 596091240
I1221 00:09:30.865375 14598 layer_factory.hpp:77] Creating layer pool1
I1221 00:09:30.865392 14598 net.cpp:100] Creating Layer pool1
I1221 00:09:30.865406 14598 net.cpp:434] pool1 <- conv_conv1
I1221 00:09:30.865424 14598 net.cpp:408] pool1 -> pool1
I1221 00:09:30.865497 14598 net.cpp:150] Setting up pool1
I1221 00:09:30.865521 14598 net.cpp:157] Top shape: 30 96 56 56 (9031680)
I1221 00:09:30.865535 14598 net.cpp:165] Memory required for data: 632217960
I1221 00:09:30.865550 14598 layer_factory.hpp:77] Creating layer conv_conv2red
I1221 00:09:30.865571 14598 net.cpp:100] Creating Layer conv_conv2red
I1221 00:09:30.865593 14598 net.cpp:434] conv_conv2red <- pool1
I1221 00:09:30.865612 14598 net.cpp:408] conv_conv2red -> conv_conv2red
I1221 00:09:30.866627 14598 net.cpp:150] Setting up conv_conv2red
I1221 00:09:30.866667 14598 net.cpp:157] Top shape: 30 128 56 56 (12042240)
I1221 00:09:30.866683 14598 net.cpp:165] Memory required for data: 680386920
I1221 00:09:30.866706 14598 layer_factory.hpp:77] Creating layer bn_conv2red
I1221 00:09:30.866734 14598 net.cpp:100] Creating Layer bn_conv2red
I1221 00:09:30.866750 14598 net.cpp:434] bn_conv2red <- conv_conv2red
I1221 00:09:30.866770 14598 net.cpp:395] bn_conv2red -> conv_conv2red (in-place)
I1221 00:09:30.867022 14598 net.cpp:150] Setting up bn_conv2red
I1221 00:09:30.867048 14598 net.cpp:157] Top shape: 30 128 56 56 (12042240)
I1221 00:09:30.867060 14598 net.cpp:165] Memory required for data: 728555880
I1221 00:09:30.867081 14598 layer_factory.hpp:77] Creating layer scale_conv_conv2red
I1221 00:09:30.867100 14598 net.cpp:100] Creating Layer scale_conv_conv2red
I1221 00:09:30.867113 14598 net.cpp:434] scale_conv_conv2red <- conv_conv2red
I1221 00:09:30.867132 14598 net.cpp:395] scale_conv_conv2red -> conv_conv2red (in-place)
I1221 00:09:30.867209 14598 layer_factory.hpp:77] Creating layer scale_conv_conv2red
I1221 00:09:30.867382 14598 net.cpp:150] Setting up scale_conv_conv2red
I1221 00:09:30.867406 14598 net.cpp:157] Top shape: 30 128 56 56 (12042240)
I1221 00:09:30.867420 14598 net.cpp:165] Memory required for data: 776724840
I1221 00:09:30.867437 14598 layer_factory.hpp:77] Creating layer relu_conv2red
I1221 00:09:30.867455 14598 net.cpp:100] Creating Layer relu_conv2red
I1221 00:09:30.867470 14598 net.cpp:434] relu_conv2red <- conv_conv2red
I1221 00:09:30.867499 14598 net.cpp:395] relu_conv2red -> conv_conv2red (in-place)
I1221 00:09:30.867547 14598 net.cpp:150] Setting up relu_conv2red
I1221 00:09:30.867566 14598 net.cpp:157] Top shape: 30 128 56 56 (12042240)
I1221 00:09:30.867579 14598 net.cpp:165] Memory required for data: 824893800
I1221 00:09:30.867593 14598 layer_factory.hpp:77] Creating layer conv_conv2
I1221 00:09:30.867620 14598 net.cpp:100] Creating Layer conv_conv2
I1221 00:09:30.867636 14598 net.cpp:434] conv_conv2 <- conv_conv2red
I1221 00:09:30.867656 14598 net.cpp:408] conv_conv2 -> conv_conv2
I1221 00:09:30.869869 14598 net.cpp:150] Setting up conv_conv2
I1221 00:09:30.869904 14598 net.cpp:157] Top shape: 30 288 56 56 (27095040)
I1221 00:09:30.869920 14598 net.cpp:165] Memory required for data: 933273960
I1221 00:09:30.869937 14598 layer_factory.hpp:77] Creating layer bn_conv2
I1221 00:09:30.869961 14598 net.cpp:100] Creating Layer bn_conv2
I1221 00:09:30.869977 14598 net.cpp:434] bn_conv2 <- conv_conv2
I1221 00:09:30.869994 14598 net.cpp:395] bn_conv2 -> conv_conv2 (in-place)
I1221 00:09:30.870260 14598 net.cpp:150] Setting up bn_conv2
I1221 00:09:30.870285 14598 net.cpp:157] Top shape: 30 288 56 56 (27095040)
I1221 00:09:30.870298 14598 net.cpp:165] Memory required for data: 1041654120
I1221 00:09:30.870329 14598 layer_factory.hpp:77] Creating layer scale_conv_conv2
I1221 00:09:30.870350 14598 net.cpp:100] Creating Layer scale_conv_conv2
I1221 00:09:30.870365 14598 net.cpp:434] scale_conv_conv2 <- conv_conv2
I1221 00:09:30.870381 14598 net.cpp:395] scale_conv_conv2 -> conv_conv2 (in-place)
I1221 00:09:30.870473 14598 layer_factory.hpp:77] Creating layer scale_conv_conv2
I1221 00:09:30.870661 14598 net.cpp:150] Setting up scale_conv_conv2
I1221 00:09:30.870690 14598 net.cpp:157] Top shape: 30 288 56 56 (27095040)
I1221 00:09:30.870705 14598 net.cpp:165] Memory required for data: 1150034280
I1221 00:09:30.870724 14598 layer_factory.hpp:77] Creating layer relu_conv2
I1221 00:09:30.870741 14598 net.cpp:100] Creating Layer relu_conv2
I1221 00:09:30.870754 14598 net.cpp:434] relu_conv2 <- conv_conv2
I1221 00:09:30.870770 14598 net.cpp:395] relu_conv2 -> conv_conv2 (in-place)
I1221 00:09:30.870789 14598 net.cpp:150] Setting up relu_conv2
I1221 00:09:30.870805 14598 net.cpp:157] Top shape: 30 288 56 56 (27095040)
I1221 00:09:30.870818 14598 net.cpp:165] Memory required for data: 1258414440
I1221 00:09:30.870831 14598 layer_factory.hpp:77] Creating layer pool2
I1221 00:09:30.870851 14598 net.cpp:100] Creating Layer pool2
I1221 00:09:30.870867 14598 net.cpp:434] pool2 <- conv_conv2
I1221 00:09:30.870883 14598 net.cpp:408] pool2 -> pool2
I1221 00:09:30.870955 14598 net.cpp:150] Setting up pool2
I1221 00:09:30.870987 14598 net.cpp:157] Top shape: 30 288 28 28 (6773760)
I1221 00:09:30.871007 14598 net.cpp:165] Memory required for data: 1285509480
I1221 00:09:30.871027 14598 layer_factory.hpp:77] Creating layer pool2_pool2_0_split
I1221 00:09:30.871058 14598 net.cpp:100] Creating Layer pool2_pool2_0_split
I1221 00:09:30.871075 14598 net.cpp:434] pool2_pool2_0_split <- pool2
I1221 00:09:30.871093 14598 net.cpp:408] pool2_pool2_0_split -> pool2_pool2_0_split_0
I1221 00:09:30.871119 14598 net.cpp:408] pool2_pool2_0_split -> pool2_pool2_0_split_1
I1221 00:09:30.871140 14598 net.cpp:408] pool2_pool2_0_split -> pool2_pool2_0_split_2
I1221 00:09:30.871160 14598 net.cpp:408] pool2_pool2_0_split -> pool2_pool2_0_split_3
I1221 00:09:30.871253 14598 net.cpp:150] Setting up pool2_pool2_0_split
I1221 00:09:30.871289 14598 net.cpp:157] Top shape: 30 288 28 28 (6773760)
I1221 00:09:30.871315 14598 net.cpp:157] Top shape: 30 288 28 28 (6773760)
I1221 00:09:30.871340 14598 net.cpp:157] Top shape: 30 288 28 28 (6773760)
I1221 00:09:30.871364 14598 net.cpp:157] Top shape: 30 288 28 28 (6773760)
I1221 00:09:30.871384 14598 net.cpp:165] Memory required for data: 1393889640
I1221 00:09:30.871407 14598 layer_factory.hpp:77] Creating layer conv_3a_1x1
I1221 00:09:30.871443 14598 net.cpp:100] Creating Layer conv_3a_1x1
I1221 00:09:30.871466 14598 net.cpp:434] conv_3a_1x1 <- pool2_pool2_0_split_0
I1221 00:09:30.871498 14598 net.cpp:408] conv_3a_1x1 -> conv_3a_1x1
I1221 00:09:30.872661 14598 net.cpp:150] Setting up conv_3a_1x1
I1221 00:09:30.872694 14598 net.cpp:157] Top shape: 30 96 28 28 (2257920)
I1221 00:09:30.872709 14598 net.cpp:165] Memory required for data: 1402921320
I1221 00:09:30.872727 14598 layer_factory.hpp:77] Creating layer bn_3a_1x1
I1221 00:09:30.872746 14598 net.cpp:100] Creating Layer bn_3a_1x1
I1221 00:09:30.872761 14598 net.cpp:434] bn_3a_1x1 <- conv_3a_1x1
I1221 00:09:30.872781 14598 net.cpp:395] bn_3a_1x1 -> conv_3a_1x1 (in-place)
I1221 00:09:30.873029 14598 net.cpp:150] Setting up bn_3a_1x1
I1221 00:09:30.873056 14598 net.cpp:157] Top shape: 30 96 28 28 (2257920)
I1221 00:09:30.873071 14598 net.cpp:165] Memory required for data: 1411953000
I1221 00:09:30.873092 14598 layer_factory.hpp:77] Creating layer scale_conv_3a_1x1
I1221 00:09:30.873121 14598 net.cpp:100] Creating Layer scale_conv_3a_1x1
I1221 00:09:30.873138 14598 net.cpp:434] scale_conv_3a_1x1 <- conv_3a_1x1
I1221 00:09:30.873155 14598 net.cpp:395] scale_conv_3a_1x1 -> conv_3a_1x1 (in-place)
I1221 00:09:30.873230 14598 layer_factory.hpp:77] Creating layer scale_conv_3a_1x1
I1221 00:09:30.873399 14598 net.cpp:150] Setting up scale_conv_3a_1x1
I1221 00:09:30.873426 14598 net.cpp:157] Top shape: 30 96 28 28 (2257920)
I1221 00:09:30.873440 14598 net.cpp:165] Memory required for data: 1420984680
I1221 00:09:30.873458 14598 layer_factory.hpp:77] Creating layer relu_3a_1x1
I1221 00:09:30.873479 14598 net.cpp:100] Creating Layer relu_3a_1x1
I1221 00:09:30.873494 14598 net.cpp:434] relu_3a_1x1 <- conv_3a_1x1
I1221 00:09:30.873517 14598 net.cpp:395] relu_3a_1x1 -> conv_3a_1x1 (in-place)
I1221 00:09:30.873534 14598 net.cpp:150] Setting up relu_3a_1x1
I1221 00:09:30.873551 14598 net.cpp:157] Top shape: 30 96 28 28 (2257920)
I1221 00:09:30.873564 14598 net.cpp:165] Memory required for data: 1430016360
I1221 00:09:30.873577 14598 layer_factory.hpp:77] Creating layer conv_3a_3x3_reduce
I1221 00:09:30.873600 14598 net.cpp:100] Creating Layer conv_3a_3x3_reduce
I1221 00:09:30.873615 14598 net.cpp:434] conv_3a_3x3_reduce <- pool2_pool2_0_split_1
I1221 00:09:30.873636 14598 net.cpp:408] conv_3a_3x3_reduce -> conv_3a_3x3_reduce
I1221 00:09:30.873942 14598 net.cpp:150] Setting up conv_3a_3x3_reduce
I1221 00:09:30.873970 14598 net.cpp:157] Top shape: 30 96 28 28 (2257920)
I1221 00:09:30.873983 14598 net.cpp:165] Memory required for data: 1439048040
I1221 00:09:30.874001 14598 layer_factory.hpp:77] Creating layer bn_3a_3x3_reduce
I1221 00:09:30.874020 14598 net.cpp:100] Creating Layer bn_3a_3x3_reduce
I1221 00:09:30.874034 14598 net.cpp:434] bn_3a_3x3_reduce <- conv_3a_3x3_reduce
I1221 00:09:30.874055 14598 net.cpp:395] bn_3a_3x3_reduce -> conv_3a_3x3_reduce (in-place)
I1221 00:09:30.874316 14598 net.cpp:150] Setting up bn_3a_3x3_reduce
I1221 00:09:30.874341 14598 net.cpp:157] Top shape: 30 96 28 28 (2257920)
I1221 00:09:30.874356 14598 net.cpp:165] Memory required for data: 1448079720
I1221 00:09:30.874384 14598 layer_factory.hpp:77] Creating layer scale_conv_3a_3x3_reduce
I1221 00:09:30.874408 14598 net.cpp:100] Creating Layer scale_conv_3a_3x3_reduce
I1221 00:09:30.874421 14598 net.cpp:434] scale_conv_3a_3x3_reduce <- conv_3a_3x3_reduce
I1221 00:09:30.874439 14598 net.cpp:395] scale_conv_3a_3x3_reduce -> conv_3a_3x3_reduce (in-place)
I1221 00:09:30.874511 14598 layer_factory.hpp:77] Creating layer scale_conv_3a_3x3_reduce
I1221 00:09:30.874691 14598 net.cpp:150] Setting up scale_conv_3a_3x3_reduce
I1221 00:09:30.874716 14598 net.cpp:157] Top shape: 30 96 28 28 (2257920)
I1221 00:09:30.874729 14598 net.cpp:165] Memory required for data: 1457111400
I1221 00:09:30.874747 14598 layer_factory.hpp:77] Creating layer relu_3a_3x3_reduce
I1221 00:09:30.874766 14598 net.cpp:100] Creating Layer relu_3a_3x3_reduce
I1221 00:09:30.874780 14598 net.cpp:434] relu_3a_3x3_reduce <- conv_3a_3x3_reduce
I1221 00:09:30.874799 14598 net.cpp:395] relu_3a_3x3_reduce -> conv_3a_3x3_reduce (in-place)
I1221 00:09:30.874817 14598 net.cpp:150] Setting up relu_3a_3x3_reduce
I1221 00:09:30.874833 14598 net.cpp:157] Top shape: 30 96 28 28 (2257920)
I1221 00:09:30.874857 14598 net.cpp:165] Memory required for data: 1466143080
I1221 00:09:30.874871 14598 layer_factory.hpp:77] Creating layer conv_3a_3x3
I1221 00:09:30.874896 14598 net.cpp:100] Creating Layer conv_3a_3x3
I1221 00:09:30.874912 14598 net.cpp:434] conv_3a_3x3 <- conv_3a_3x3_reduce
I1221 00:09:30.874929 14598 net.cpp:408] conv_3a_3x3 -> conv_3a_3x3
I1221 00:09:30.876245 14598 net.cpp:150] Setting up conv_3a_3x3
I1221 00:09:30.876276 14598 net.cpp:157] Top shape: 30 96 28 28 (2257920)
I1221 00:09:30.876291 14598 net.cpp:165] Memory required for data: 1475174760
I1221 00:09:30.876310 14598 layer_factory.hpp:77] Creating layer bn_3a_3x3
I1221 00:09:30.876328 14598 net.cpp:100] Creating Layer bn_3a_3x3
I1221 00:09:30.876343 14598 net.cpp:434] bn_3a_3x3 <- conv_3a_3x3
I1221 00:09:30.876363 14598 net.cpp:395] bn_3a_3x3 -> conv_3a_3x3 (in-place)
I1221 00:09:30.876626 14598 net.cpp:150] Setting up bn_3a_3x3
I1221 00:09:30.876652 14598 net.cpp:157] Top shape: 30 96 28 28 (2257920)
I1221 00:09:30.876664 14598 net.cpp:165] Memory required for data: 1484206440
I1221 00:09:30.876684 14598 layer_factory.hpp:77] Creating layer scale_conv_3a_3x3
I1221 00:09:30.876703 14598 net.cpp:100] Creating Layer scale_conv_3a_3x3
I1221 00:09:30.876716 14598 net.cpp:434] scale_conv_3a_3x3 <- conv_3a_3x3
I1221 00:09:30.876740 14598 net.cpp:395] scale_conv_3a_3x3 -> conv_3a_3x3 (in-place)
I1221 00:09:30.876803 14598 layer_factory.hpp:77] Creating layer scale_conv_3a_3x3
I1221 00:09:30.876971 14598 net.cpp:150] Setting up scale_conv_3a_3x3
I1221 00:09:30.876993 14598 net.cpp:157] Top shape: 30 96 28 28 (2257920)
I1221 00:09:30.877007 14598 net.cpp:165] Memory required for data: 1493238120
I1221 00:09:30.877025 14598 layer_factory.hpp:77] Creating layer relu_3a_3x3
I1221 00:09:30.877043 14598 net.cpp:100] Creating Layer relu_3a_3x3
I1221 00:09:30.877056 14598 net.cpp:434] relu_3a_3x3 <- conv_3a_3x3
I1221 00:09:30.877075 14598 net.cpp:395] relu_3a_3x3 -> conv_3a_3x3 (in-place)
I1221 00:09:30.877095 14598 net.cpp:150] Setting up relu_3a_3x3
I1221 00:09:30.877111 14598 net.cpp:157] Top shape: 30 96 28 28 (2257920)
I1221 00:09:30.877125 14598 net.cpp:165] Memory required for data: 1502269800
I1221 00:09:30.877138 14598 layer_factory.hpp:77] Creating layer conv_3a_double_3x3_reduce
I1221 00:09:30.877161 14598 net.cpp:100] Creating Layer conv_3a_double_3x3_reduce
I1221 00:09:30.877176 14598 net.cpp:434] conv_3a_double_3x3_reduce <- pool2_pool2_0_split_2
I1221 00:09:30.877202 14598 net.cpp:408] conv_3a_double_3x3_reduce -> conv_3a_double_3x3_reduce
I1221 00:09:30.877537 14598 net.cpp:150] Setting up conv_3a_double_3x3_reduce
I1221 00:09:30.877564 14598 net.cpp:157] Top shape: 30 96 28 28 (2257920)
I1221 00:09:30.877578 14598 net.cpp:165] Memory required for data: 1511301480
I1221 00:09:30.877601 14598 layer_factory.hpp:77] Creating layer bn_3a_double_3x3_reduce
I1221 00:09:30.877619 14598 net.cpp:100] Creating Layer bn_3a_double_3x3_reduce
I1221 00:09:30.877634 14598 net.cpp:434] bn_3a_double_3x3_reduce <- conv_3a_double_3x3_reduce
I1221 00:09:30.877655 14598 net.cpp:395] bn_3a_double_3x3_reduce -> conv_3a_double_3x3_reduce (in-place)
I1221 00:09:30.877900 14598 net.cpp:150] Setting up bn_3a_double_3x3_reduce
I1221 00:09:30.877924 14598 net.cpp:157] Top shape: 30 96 28 28 (2257920)
I1221 00:09:30.877938 14598 net.cpp:165] Memory required for data: 1520333160
I1221 00:09:30.877959 14598 layer_factory.hpp:77] Creating layer scale_conv_3a_double_3x3_reduce
I1221 00:09:30.877980 14598 net.cpp:100] Creating Layer scale_conv_3a_double_3x3_reduce
I1221 00:09:30.877995 14598 net.cpp:434] scale_conv_3a_double_3x3_reduce <- conv_3a_double_3x3_reduce
I1221 00:09:30.878013 14598 net.cpp:395] scale_conv_3a_double_3x3_reduce -> conv_3a_double_3x3_reduce (in-place)
I1221 00:09:30.878078 14598 layer_factory.hpp:77] Creating layer scale_conv_3a_double_3x3_reduce
I1221 00:09:30.878258 14598 net.cpp:150] Setting up scale_conv_3a_double_3x3_reduce
I1221 00:09:30.878283 14598 net.cpp:157] Top shape: 30 96 28 28 (2257920)
I1221 00:09:30.878296 14598 net.cpp:165] Memory required for data: 1529364840
I1221 00:09:30.878324 14598 layer_factory.hpp:77] Creating layer relu_3a_double_3x3_reduce
I1221 00:09:30.878357 14598 net.cpp:100] Creating Layer relu_3a_double_3x3_reduce
I1221 00:09:30.878374 14598 net.cpp:434] relu_3a_double_3x3_reduce <- conv_3a_double_3x3_reduce
I1221 00:09:30.878398 14598 net.cpp:395] relu_3a_double_3x3_reduce -> conv_3a_double_3x3_reduce (in-place)
I1221 00:09:30.878417 14598 net.cpp:150] Setting up relu_3a_double_3x3_reduce
I1221 00:09:30.878434 14598 net.cpp:157] Top shape: 30 96 28 28 (2257920)
I1221 00:09:30.878448 14598 net.cpp:165] Memory required for data: 1538396520
I1221 00:09:30.878461 14598 layer_factory.hpp:77] Creating layer conv_3a_double_3x3_0
I1221 00:09:30.878489 14598 net.cpp:100] Creating Layer conv_3a_double_3x3_0
I1221 00:09:30.878504 14598 net.cpp:434] conv_3a_double_3x3_0 <- conv_3a_double_3x3_reduce
I1221 00:09:30.878523 14598 net.cpp:408] conv_3a_double_3x3_0 -> conv_3a_double_3x3_0
I1221 00:09:30.878916 14598 net.cpp:150] Setting up conv_3a_double_3x3_0
I1221 00:09:30.878940 14598 net.cpp:157] Top shape: 30 144 28 28 (3386880)
I1221 00:09:30.878954 14598 net.cpp:165] Memory required for data: 1551944040
I1221 00:09:30.878973 14598 layer_factory.hpp:77] Creating layer bn_3a_double_3x3_0
I1221 00:09:30.878995 14598 net.cpp:100] Creating Layer bn_3a_double_3x3_0
I1221 00:09:30.879010 14598 net.cpp:434] bn_3a_double_3x3_0 <- conv_3a_double_3x3_0
I1221 00:09:30.879036 14598 net.cpp:395] bn_3a_double_3x3_0 -> conv_3a_double_3x3_0 (in-place)
I1221 00:09:30.879307 14598 net.cpp:150] Setting up bn_3a_double_3x3_0
I1221 00:09:30.879335 14598 net.cpp:157] Top shape: 30 144 28 28 (3386880)
I1221 00:09:30.879349 14598 net.cpp:165] Memory required for data: 1565491560
I1221 00:09:30.879370 14598 layer_factory.hpp:77] Creating layer scale_conv_3a_double_3x3_0
I1221 00:09:30.879389 14598 net.cpp:100] Creating Layer scale_conv_3a_double_3x3_0
I1221 00:09:30.879402 14598 net.cpp:434] scale_conv_3a_double_3x3_0 <- conv_3a_double_3x3_0
I1221 00:09:30.879420 14598 net.cpp:395] scale_conv_3a_double_3x3_0 -> conv_3a_double_3x3_0 (in-place)
I1221 00:09:30.879488 14598 layer_factory.hpp:77] Creating layer scale_conv_3a_double_3x3_0
I1221 00:09:30.879659 14598 net.cpp:150] Setting up scale_conv_3a_double_3x3_0
I1221 00:09:30.879683 14598 net.cpp:157] Top shape: 30 144 28 28 (3386880)
I1221 00:09:30.879698 14598 net.cpp:165] Memory required for data: 1579039080
I1221 00:09:30.879715 14598 layer_factory.hpp:77] Creating layer relu_3a_double_3x3_0
I1221 00:09:30.879735 14598 net.cpp:100] Creating Layer relu_3a_double_3x3_0
I1221 00:09:30.879750 14598 net.cpp:434] relu_3a_double_3x3_0 <- conv_3a_double_3x3_0
I1221 00:09:30.879766 14598 net.cpp:395] relu_3a_double_3x3_0 -> conv_3a_double_3x3_0 (in-place)
I1221 00:09:30.879786 14598 net.cpp:150] Setting up relu_3a_double_3x3_0
I1221 00:09:30.879801 14598 net.cpp:157] Top shape: 30 144 28 28 (3386880)
I1221 00:09:30.879814 14598 net.cpp:165] Memory required for data: 1592586600
I1221 00:09:30.879827 14598 layer_factory.hpp:77] Creating layer conv_3a_double_3x3_1
I1221 00:09:30.879878 14598 net.cpp:100] Creating Layer conv_3a_double_3x3_1
I1221 00:09:30.879896 14598 net.cpp:434] conv_3a_double_3x3_1 <- conv_3a_double_3x3_0
I1221 00:09:30.879915 14598 net.cpp:408] conv_3a_double_3x3_1 -> conv_3a_double_3x3_1
I1221 00:09:30.881093 14598 net.cpp:150] Setting up conv_3a_double_3x3_1
I1221 00:09:30.881125 14598 net.cpp:157] Top shape: 30 144 28 28 (3386880)
I1221 00:09:30.881140 14598 net.cpp:165] Memory required for data: 1606134120
I1221 00:09:30.881160 14598 layer_factory.hpp:77] Creating layer bn_3a_double_3x3_1
I1221 00:09:30.881178 14598 net.cpp:100] Creating Layer bn_3a_double_3x3_1
I1221 00:09:30.881201 14598 net.cpp:434] bn_3a_double_3x3_1 <- conv_3a_double_3x3_1
I1221 00:09:30.881222 14598 net.cpp:395] bn_3a_double_3x3_1 -> conv_3a_double_3x3_1 (in-place)
I1221 00:09:30.881472 14598 net.cpp:150] Setting up bn_3a_double_3x3_1
I1221 00:09:30.881497 14598 net.cpp:157] Top shape: 30 144 28 28 (3386880)
I1221 00:09:30.881523 14598 net.cpp:165] Memory required for data: 1619681640
I1221 00:09:30.881544 14598 layer_factory.hpp:77] Creating layer scale_conv_3a_double_3x3_1
I1221 00:09:30.881564 14598 net.cpp:100] Creating Layer scale_conv_3a_double_3x3_1
I1221 00:09:30.881578 14598 net.cpp:434] scale_conv_3a_double_3x3_1 <- conv_3a_double_3x3_1
I1221 00:09:30.881599 14598 net.cpp:395] scale_conv_3a_double_3x3_1 -> conv_3a_double_3x3_1 (in-place)
I1221 00:09:30.881664 14598 layer_factory.hpp:77] Creating layer scale_conv_3a_double_3x3_1
I1221 00:09:30.881830 14598 net.cpp:150] Setting up scale_conv_3a_double_3x3_1
I1221 00:09:30.881853 14598 net.cpp:157] Top shape: 30 144 28 28 (3386880)
I1221 00:09:30.881867 14598 net.cpp:165] Memory required for data: 1633229160
I1221 00:09:30.881886 14598 layer_factory.hpp:77] Creating layer relu_3a_double_3x3_1
I1221 00:09:30.881902 14598 net.cpp:100] Creating Layer relu_3a_double_3x3_1
I1221 00:09:30.881916 14598 net.cpp:434] relu_3a_double_3x3_1 <- conv_3a_double_3x3_1
I1221 00:09:30.881937 14598 net.cpp:395] relu_3a_double_3x3_1 -> conv_3a_double_3x3_1 (in-place)
I1221 00:09:30.881956 14598 net.cpp:150] Setting up relu_3a_double_3x3_1
I1221 00:09:30.881973 14598 net.cpp:157] Top shape: 30 144 28 28 (3386880)
I1221 00:09:30.881986 14598 net.cpp:165] Memory required for data: 1646776680
I1221 00:09:30.881999 14598 layer_factory.hpp:77] Creating layer ave_pool_3a_pool
I1221 00:09:30.882019 14598 net.cpp:100] Creating Layer ave_pool_3a_pool
I1221 00:09:30.882035 14598 net.cpp:434] ave_pool_3a_pool <- pool2_pool2_0_split_3
I1221 00:09:30.882052 14598 net.cpp:408] ave_pool_3a_pool -> ave_pool_3a_pool
I1221 00:09:30.882099 14598 net.cpp:150] Setting up ave_pool_3a_pool
I1221 00:09:30.882122 14598 net.cpp:157] Top shape: 30 288 28 28 (6773760)
I1221 00:09:30.882135 14598 net.cpp:165] Memory required for data: 1673871720
I1221 00:09:30.882148 14598 layer_factory.hpp:77] Creating layer conv_3a_proj
I1221 00:09:30.882169 14598 net.cpp:100] Creating Layer conv_3a_proj
I1221 00:09:30.882189 14598 net.cpp:434] conv_3a_proj <- ave_pool_3a_pool
I1221 00:09:30.882208 14598 net.cpp:408] conv_3a_proj -> conv_3a_proj
I1221 00:09:30.882529 14598 net.cpp:150] Setting up conv_3a_proj
I1221 00:09:30.882555 14598 net.cpp:157] Top shape: 30 48 28 28 (1128960)
I1221 00:09:30.882567 14598 net.cpp:165] Memory required for data: 1678387560
I1221 00:09:30.882612 14598 layer_factory.hpp:77] Creating layer bn_3a_proj
I1221 00:09:30.882632 14598 net.cpp:100] Creating Layer bn_3a_proj
I1221 00:09:30.882648 14598 net.cpp:434] bn_3a_proj <- conv_3a_proj
I1221 00:09:30.882673 14598 net.cpp:395] bn_3a_proj -> conv_3a_proj (in-place)
I1221 00:09:30.882927 14598 net.cpp:150] Setting up bn_3a_proj
I1221 00:09:30.882954 14598 net.cpp:157] Top shape: 30 48 28 28 (1128960)
I1221 00:09:30.882968 14598 net.cpp:165] Memory required for data: 1682903400
I1221 00:09:30.882989 14598 layer_factory.hpp:77] Creating layer scale_conv_3a_proj
I1221 00:09:30.883008 14598 net.cpp:100] Creating Layer scale_conv_3a_proj
I1221 00:09:30.883023 14598 net.cpp:434] scale_conv_3a_proj <- conv_3a_proj
I1221 00:09:30.883043 14598 net.cpp:395] scale_conv_3a_proj -> conv_3a_proj (in-place)
I1221 00:09:30.883106 14598 layer_factory.hpp:77] Creating layer scale_conv_3a_proj
I1221 00:09:30.883292 14598 net.cpp:150] Setting up scale_conv_3a_proj
I1221 00:09:30.883319 14598 net.cpp:157] Top shape: 30 48 28 28 (1128960)
I1221 00:09:30.883333 14598 net.cpp:165] Memory required for data: 1687419240
I1221 00:09:30.883352 14598 layer_factory.hpp:77] Creating layer relu_3a_proj
I1221 00:09:30.883368 14598 net.cpp:100] Creating Layer relu_3a_proj
I1221 00:09:30.883383 14598 net.cpp:434] relu_3a_proj <- conv_3a_proj
I1221 00:09:30.883402 14598 net.cpp:395] relu_3a_proj -> conv_3a_proj (in-place)
I1221 00:09:30.883421 14598 net.cpp:150] Setting up relu_3a_proj
I1221 00:09:30.883440 14598 net.cpp:157] Top shape: 30 48 28 28 (1128960)
I1221 00:09:30.883452 14598 net.cpp:165] Memory required for data: 1691935080
I1221 00:09:30.883466 14598 layer_factory.hpp:77] Creating layer ch_concat_3a_chconcat
I1221 00:09:30.883492 14598 net.cpp:100] Creating Layer ch_concat_3a_chconcat
I1221 00:09:30.883507 14598 net.cpp:434] ch_concat_3a_chconcat <- conv_3a_1x1
I1221 00:09:30.883522 14598 net.cpp:434] ch_concat_3a_chconcat <- conv_3a_3x3
I1221 00:09:30.883540 14598 net.cpp:434] ch_concat_3a_chconcat <- conv_3a_double_3x3_1
I1221 00:09:30.883555 14598 net.cpp:434] ch_concat_3a_chconcat <- conv_3a_proj
I1221 00:09:30.883572 14598 net.cpp:408] ch_concat_3a_chconcat -> ch_concat_3a_chconcat
I1221 00:09:30.883618 14598 net.cpp:150] Setting up ch_concat_3a_chconcat
I1221 00:09:30.883641 14598 net.cpp:157] Top shape: 30 384 28 28 (9031680)
I1221 00:09:30.883654 14598 net.cpp:165] Memory required for data: 1728061800
I1221 00:09:30.883668 14598 layer_factory.hpp:77] Creating layer ch_concat_3a_chconcat_ch_concat_3a_chconcat_0_split
I1221 00:09:30.883690 14598 net.cpp:100] Creating Layer ch_concat_3a_chconcat_ch_concat_3a_chconcat_0_split
I1221 00:09:30.883705 14598 net.cpp:434] ch_concat_3a_chconcat_ch_concat_3a_chconcat_0_split <- ch_concat_3a_chconcat
I1221 00:09:30.883723 14598 net.cpp:408] ch_concat_3a_chconcat_ch_concat_3a_chconcat_0_split -> ch_concat_3a_chconcat_ch_concat_3a_chconcat_0_split_0
I1221 00:09:30.883744 14598 net.cpp:408] ch_concat_3a_chconcat_ch_concat_3a_chconcat_0_split -> ch_concat_3a_chconcat_ch_concat_3a_chconcat_0_split_1
I1221 00:09:30.883764 14598 net.cpp:408] ch_concat_3a_chconcat_ch_concat_3a_chconcat_0_split -> ch_concat_3a_chconcat_ch_concat_3a_chconcat_0_split_2
I1221 00:09:30.883787 14598 net.cpp:408] ch_concat_3a_chconcat_ch_concat_3a_chconcat_0_split -> ch_concat_3a_chconcat_ch_concat_3a_chconcat_0_split_3
I1221 00:09:30.883875 14598 net.cpp:150] Setting up ch_concat_3a_chconcat_ch_concat_3a_chconcat_0_split
I1221 00:09:30.883898 14598 net.cpp:157] Top shape: 30 384 28 28 (9031680)
I1221 00:09:30.883913 14598 net.cpp:157] Top shape: 30 384 28 28 (9031680)
I1221 00:09:30.883929 14598 net.cpp:157] Top shape: 30 384 28 28 (9031680)
I1221 00:09:30.883944 14598 net.cpp:157] Top shape: 30 384 28 28 (9031680)
I1221 00:09:30.883957 14598 net.cpp:165] Memory required for data: 1872568680
I1221 00:09:30.883975 14598 layer_factory.hpp:77] Creating layer conv_3b_1x1
I1221 00:09:30.884006 14598 net.cpp:100] Creating Layer conv_3b_1x1
I1221 00:09:30.884021 14598 net.cpp:434] conv_3b_1x1 <- ch_concat_3a_chconcat_ch_concat_3a_chconcat_0_split_0
I1221 00:09:30.884042 14598 net.cpp:408] conv_3b_1x1 -> conv_3b_1x1
I1221 00:09:30.884385 14598 net.cpp:150] Setting up conv_3b_1x1
I1221 00:09:30.884413 14598 net.cpp:157] Top shape: 30 96 28 28 (2257920)
I1221 00:09:30.884428 14598 net.cpp:165] Memory required for data: 1881600360
I1221 00:09:30.884445 14598 layer_factory.hpp:77] Creating layer bn_3b_1x1
I1221 00:09:30.884466 14598 net.cpp:100] Creating Layer bn_3b_1x1
I1221 00:09:30.884482 14598 net.cpp:434] bn_3b_1x1 <- conv_3b_1x1
I1221 00:09:30.884501 14598 net.cpp:395] bn_3b_1x1 -> conv_3b_1x1 (in-place)
I1221 00:09:30.884754 14598 net.cpp:150] Setting up bn_3b_1x1
I1221 00:09:30.884783 14598 net.cpp:157] Top shape: 30 96 28 28 (2257920)
I1221 00:09:30.884796 14598 net.cpp:165] Memory required for data: 1890632040
I1221 00:09:30.884816 14598 layer_factory.hpp:77] Creating layer scale_conv_3b_1x1
I1221 00:09:30.884852 14598 net.cpp:100] Creating Layer scale_conv_3b_1x1
I1221 00:09:30.884869 14598 net.cpp:434] scale_conv_3b_1x1 <- conv_3b_1x1
I1221 00:09:30.884886 14598 net.cpp:395] scale_conv_3b_1x1 -> conv_3b_1x1 (in-place)
I1221 00:09:30.884956 14598 layer_factory.hpp:77] Creating layer scale_conv_3b_1x1
I1221 00:09:30.885136 14598 net.cpp:150] Setting up scale_conv_3b_1x1
I1221 00:09:30.885164 14598 net.cpp:157] Top shape: 30 96 28 28 (2257920)
I1221 00:09:30.885176 14598 net.cpp:165] Memory required for data: 1899663720
I1221 00:09:30.885201 14598 layer_factory.hpp:77] Creating layer relu_3b_1x1
I1221 00:09:30.885220 14598 net.cpp:100] Creating Layer relu_3b_1x1
I1221 00:09:30.885233 14598 net.cpp:434] relu_3b_1x1 <- conv_3b_1x1
I1221 00:09:30.885252 14598 net.cpp:395] relu_3b_1x1 -> conv_3b_1x1 (in-place)
I1221 00:09:30.885280 14598 net.cpp:150] Setting up relu_3b_1x1
I1221 00:09:30.885298 14598 net.cpp:157] Top shape: 30 96 28 28 (2257920)
I1221 00:09:30.885311 14598 net.cpp:165] Memory required for data: 1908695400
I1221 00:09:30.885325 14598 layer_factory.hpp:77] Creating layer conv_3b_3x3_reduce
I1221 00:09:30.885344 14598 net.cpp:100] Creating Layer conv_3b_3x3_reduce
I1221 00:09:30.885360 14598 net.cpp:434] conv_3b_3x3_reduce <- ch_concat_3a_chconcat_ch_concat_3a_chconcat_0_split_1
I1221 00:09:30.885380 14598 net.cpp:408] conv_3b_3x3_reduce -> conv_3b_3x3_reduce
I1221 00:09:30.885721 14598 net.cpp:150] Setting up conv_3b_3x3_reduce
I1221 00:09:30.885751 14598 net.cpp:157] Top shape: 30 96 28 28 (2257920)
I1221 00:09:30.885764 14598 net.cpp:165] Memory required for data: 1917727080
I1221 00:09:30.885789 14598 layer_factory.hpp:77] Creating layer bn_3b_3x3_reduce
I1221 00:09:30.885812 14598 net.cpp:100] Creating Layer bn_3b_3x3_reduce
I1221 00:09:30.885831 14598 net.cpp:434] bn_3b_3x3_reduce <- conv_3b_3x3_reduce
I1221 00:09:30.885848 14598 net.cpp:395] bn_3b_3x3_reduce -> conv_3b_3x3_reduce (in-place)
I1221 00:09:30.886106 14598 net.cpp:150] Setting up bn_3b_3x3_reduce
I1221 00:09:30.886132 14598 net.cpp:157] Top shape: 30 96 28 28 (2257920)
I1221 00:09:30.886145 14598 net.cpp:165] Memory required for data: 1926758760
I1221 00:09:30.886165 14598 layer_factory.hpp:77] Creating layer scale_conv_3b_3x3_reduce
I1221 00:09:30.886193 14598 net.cpp:100] Creating Layer scale_conv_3b_3x3_reduce
I1221 00:09:30.886210 14598 net.cpp:434] scale_conv_3b_3x3_reduce <- conv_3b_3x3_reduce
I1221 00:09:30.886227 14598 net.cpp:395] scale_conv_3b_3x3_reduce -> conv_3b_3x3_reduce (in-place)
I1221 00:09:30.886294 14598 layer_factory.hpp:77] Creating layer scale_conv_3b_3x3_reduce
I1221 00:09:30.886468 14598 net.cpp:150] Setting up scale_conv_3b_3x3_reduce
I1221 00:09:30.886494 14598 net.cpp:157] Top shape: 30 96 28 28 (2257920)
I1221 00:09:30.886508 14598 net.cpp:165] Memory required for data: 1935790440
I1221 00:09:30.886529 14598 layer_factory.hpp:77] Creating layer relu_3b_3x3_reduce
I1221 00:09:30.886548 14598 net.cpp:100] Creating Layer relu_3b_3x3_reduce
I1221 00:09:30.886561 14598 net.cpp:434] relu_3b_3x3_reduce <- conv_3b_3x3_reduce
I1221 00:09:30.886581 14598 net.cpp:395] relu_3b_3x3_reduce -> conv_3b_3x3_reduce (in-place)
I1221 00:09:30.886601 14598 net.cpp:150] Setting up relu_3b_3x3_reduce
I1221 00:09:30.886618 14598 net.cpp:157] Top shape: 30 96 28 28 (2257920)
I1221 00:09:30.886631 14598 net.cpp:165] Memory required for data: 1944822120
I1221 00:09:30.886646 14598 layer_factory.hpp:77] Creating layer conv_3b_3x3
I1221 00:09:30.886664 14598 net.cpp:100] Creating Layer conv_3b_3x3
I1221 00:09:30.886678 14598 net.cpp:434] conv_3b_3x3 <- conv_3b_3x3_reduce
I1221 00:09:30.886701 14598 net.cpp:408] conv_3b_3x3 -> conv_3b_3x3
I1221 00:09:30.887822 14598 net.cpp:150] Setting up conv_3b_3x3
I1221 00:09:30.887854 14598 net.cpp:157] Top shape: 30 144 28 28 (3386880)
I1221 00:09:30.887868 14598 net.cpp:165] Memory required for data: 1958369640
I1221 00:09:30.887887 14598 layer_factory.hpp:77] Creating layer bn_3b_3x3
I1221 00:09:30.887909 14598 net.cpp:100] Creating Layer bn_3b_3x3
I1221 00:09:30.887924 14598 net.cpp:434] bn_3b_3x3 <- conv_3b_3x3
I1221 00:09:30.887941 14598 net.cpp:395] bn_3b_3x3 -> conv_3b_3x3 (in-place)
I1221 00:09:30.888205 14598 net.cpp:150] Setting up bn_3b_3x3
I1221 00:09:30.888231 14598 net.cpp:157] Top shape: 30 144 28 28 (3386880)
I1221 00:09:30.888247 14598 net.cpp:165] Memory required for data: 1971917160
I1221 00:09:30.888268 14598 layer_factory.hpp:77] Creating layer scale_conv_3b_3x3
I1221 00:09:30.888288 14598 net.cpp:100] Creating Layer scale_conv_3b_3x3
I1221 00:09:30.888303 14598 net.cpp:434] scale_conv_3b_3x3 <- conv_3b_3x3
I1221 00:09:30.888319 14598 net.cpp:395] scale_conv_3b_3x3 -> conv_3b_3x3 (in-place)
I1221 00:09:30.888389 14598 layer_factory.hpp:77] Creating layer scale_conv_3b_3x3
I1221 00:09:30.888566 14598 net.cpp:150] Setting up scale_conv_3b_3x3
I1221 00:09:30.888594 14598 net.cpp:157] Top shape: 30 144 28 28 (3386880)
I1221 00:09:30.888617 14598 net.cpp:165] Memory required for data: 1985464680
I1221 00:09:30.888636 14598 layer_factory.hpp:77] Creating layer relu_3b_3x3
I1221 00:09:30.888654 14598 net.cpp:100] Creating Layer relu_3b_3x3
I1221 00:09:30.888669 14598 net.cpp:434] relu_3b_3x3 <- conv_3b_3x3
I1221 00:09:30.888684 14598 net.cpp:395] relu_3b_3x3 -> conv_3b_3x3 (in-place)
I1221 00:09:30.888702 14598 net.cpp:150] Setting up relu_3b_3x3
I1221 00:09:30.888718 14598 net.cpp:157] Top shape: 30 144 28 28 (3386880)
I1221 00:09:30.888731 14598 net.cpp:165] Memory required for data: 1999012200
I1221 00:09:30.888744 14598 layer_factory.hpp:77] Creating layer conv_3b_double_3x3_reduce
I1221 00:09:30.888767 14598 net.cpp:100] Creating Layer conv_3b_double_3x3_reduce
I1221 00:09:30.888783 14598 net.cpp:434] conv_3b_double_3x3_reduce <- ch_concat_3a_chconcat_ch_concat_3a_chconcat_0_split_2
I1221 00:09:30.888805 14598 net.cpp:408] conv_3b_double_3x3_reduce -> conv_3b_double_3x3_reduce
I1221 00:09:30.889161 14598 net.cpp:150] Setting up conv_3b_double_3x3_reduce
I1221 00:09:30.889200 14598 net.cpp:157] Top shape: 30 96 28 28 (2257920)
I1221 00:09:30.889214 14598 net.cpp:165] Memory required for data: 2008043880
I1221 00:09:30.889233 14598 layer_factory.hpp:77] Creating layer bn_3b_double_3x3_reduce
I1221 00:09:30.889257 14598 net.cpp:100] Creating Layer bn_3b_double_3x3_reduce
I1221 00:09:30.889273 14598 net.cpp:434] bn_3b_double_3x3_reduce <- conv_3b_double_3x3_reduce
I1221 00:09:30.889300 14598 net.cpp:395] bn_3b_double_3x3_reduce -> conv_3b_double_3x3_reduce (in-place)
I1221 00:09:30.889554 14598 net.cpp:150] Setting up bn_3b_double_3x3_reduce
I1221 00:09:30.889580 14598 net.cpp:157] Top shape: 30 96 28 28 (2257920)
I1221 00:09:30.889595 14598 net.cpp:165] Memory required for data: 2017075560
I1221 00:09:30.889614 14598 layer_factory.hpp:77] Creating layer scale_conv_3b_double_3x3_reduce
I1221 00:09:30.889633 14598 net.cpp:100] Creating Layer scale_conv_3b_double_3x3_reduce
I1221 00:09:30.889647 14598 net.cpp:434] scale_conv_3b_double_3x3_reduce <- conv_3b_double_3x3_reduce
I1221 00:09:30.889663 14598 net.cpp:395] scale_conv_3b_double_3x3_reduce -> conv_3b_double_3x3_reduce (in-place)
I1221 00:09:30.889734 14598 layer_factory.hpp:77] Creating layer scale_conv_3b_double_3x3_reduce
I1221 00:09:30.889935 14598 net.cpp:150] Setting up scale_conv_3b_double_3x3_reduce
I1221 00:09:30.889966 14598 net.cpp:157] Top shape: 30 96 28 28 (2257920)
I1221 00:09:30.889981 14598 net.cpp:165] Memory required for data: 2026107240
I1221 00:09:30.889999 14598 layer_factory.hpp:77] Creating layer relu_3b_double_3x3_reduce
I1221 00:09:30.890018 14598 net.cpp:100] Creating Layer relu_3b_double_3x3_reduce
I1221 00:09:30.890031 14598 net.cpp:434] relu_3b_double_3x3_reduce <- conv_3b_double_3x3_reduce
I1221 00:09:30.890048 14598 net.cpp:395] relu_3b_double_3x3_reduce -> conv_3b_double_3x3_reduce (in-place)
I1221 00:09:30.890066 14598 net.cpp:150] Setting up relu_3b_double_3x3_reduce
I1221 00:09:30.890084 14598 net.cpp:157] Top shape: 30 96 28 28 (2257920)
I1221 00:09:30.890097 14598 net.cpp:165] Memory required for data: 2035138920
I1221 00:09:30.890111 14598 layer_factory.hpp:77] Creating layer conv_3b_double_3x3_0
I1221 00:09:30.890146 14598 net.cpp:100] Creating Layer conv_3b_double_3x3_0
I1221 00:09:30.890163 14598 net.cpp:434] conv_3b_double_3x3_0 <- conv_3b_double_3x3_reduce
I1221 00:09:30.890190 14598 net.cpp:408] conv_3b_double_3x3_0 -> conv_3b_double_3x3_0
I1221 00:09:30.890602 14598 net.cpp:150] Setting up conv_3b_double_3x3_0
I1221 00:09:30.890631 14598 net.cpp:157] Top shape: 30 144 28 28 (3386880)
I1221 00:09:30.890645 14598 net.cpp:165] Memory required for data: 2048686440
I1221 00:09:30.890663 14598 layer_factory.hpp:77] Creating layer bn_3b_double_3x3_0
I1221 00:09:30.890686 14598 net.cpp:100] Creating Layer bn_3b_double_3x3_0
I1221 00:09:30.890702 14598 net.cpp:434] bn_3b_double_3x3_0 <- conv_3b_double_3x3_0
I1221 00:09:30.890722 14598 net.cpp:395] bn_3b_double_3x3_0 -> conv_3b_double_3x3_0 (in-place)
I1221 00:09:30.890993 14598 net.cpp:150] Setting up bn_3b_double_3x3_0
I1221 00:09:30.891021 14598 net.cpp:157] Top shape: 30 144 28 28 (3386880)
I1221 00:09:30.891034 14598 net.cpp:165] Memory required for data: 2062233960
I1221 00:09:30.891054 14598 layer_factory.hpp:77] Creating layer scale_conv_3b_double_3x3_0
I1221 00:09:30.891077 14598 net.cpp:100] Creating Layer scale_conv_3b_double_3x3_0
I1221 00:09:30.891091 14598 net.cpp:434] scale_conv_3b_double_3x3_0 <- conv_3b_double_3x3_0
I1221 00:09:30.891109 14598 net.cpp:395] scale_conv_3b_double_3x3_0 -> conv_3b_double_3x3_0 (in-place)
I1221 00:09:30.891176 14598 layer_factory.hpp:77] Creating layer scale_conv_3b_double_3x3_0
I1221 00:09:30.891357 14598 net.cpp:150] Setting up scale_conv_3b_double_3x3_0
I1221 00:09:30.891384 14598 net.cpp:157] Top shape: 30 144 28 28 (3386880)
I1221 00:09:30.891398 14598 net.cpp:165] Memory required for data: 2075781480
I1221 00:09:30.891417 14598 layer_factory.hpp:77] Creating layer relu_3b_double_3x3_0
I1221 00:09:30.891441 14598 net.cpp:100] Creating Layer relu_3b_double_3x3_0
I1221 00:09:30.891455 14598 net.cpp:434] relu_3b_double_3x3_0 <- conv_3b_double_3x3_0
I1221 00:09:30.891475 14598 net.cpp:395] relu_3b_double_3x3_0 -> conv_3b_double_3x3_0 (in-place)
I1221 00:09:30.891494 14598 net.cpp:150] Setting up relu_3b_double_3x3_0
I1221 00:09:30.891511 14598 net.cpp:157] Top shape: 30 144 28 28 (3386880)
I1221 00:09:30.891525 14598 net.cpp:165] Memory required for data: 2089329000
I1221 00:09:30.891537 14598 layer_factory.hpp:77] Creating layer conv_3b_double_3x3_1
I1221 00:09:30.891572 14598 net.cpp:100] Creating Layer conv_3b_double_3x3_1
I1221 00:09:30.891587 14598 net.cpp:434] conv_3b_double_3x3_1 <- conv_3b_double_3x3_0
I1221 00:09:30.891608 14598 net.cpp:408] conv_3b_double_3x3_1 -> conv_3b_double_3x3_1
I1221 00:09:30.892788 14598 net.cpp:150] Setting up conv_3b_double_3x3_1
I1221 00:09:30.892819 14598 net.cpp:157] Top shape: 30 144 28 28 (3386880)
I1221 00:09:30.892833 14598 net.cpp:165] Memory required for data: 2102876520
I1221 00:09:30.892853 14598 layer_factory.hpp:77] Creating layer bn_3b_double_3x3_1
I1221 00:09:30.892875 14598 net.cpp:100] Creating Layer bn_3b_double_3x3_1
I1221 00:09:30.892890 14598 net.cpp:434] bn_3b_double_3x3_1 <- conv_3b_double_3x3_1
I1221 00:09:30.892907 14598 net.cpp:395] bn_3b_double_3x3_1 -> conv_3b_double_3x3_1 (in-place)
I1221 00:09:30.893172 14598 net.cpp:150] Setting up bn_3b_double_3x3_1
I1221 00:09:30.893204 14598 net.cpp:157] Top shape: 30 144 28 28 (3386880)
I1221 00:09:30.893219 14598 net.cpp:165] Memory required for data: 2116424040
I1221 00:09:30.893247 14598 layer_factory.hpp:77] Creating layer scale_conv_3b_double_3x3_1
I1221 00:09:30.893267 14598 net.cpp:100] Creating Layer scale_conv_3b_double_3x3_1
I1221 00:09:30.893281 14598 net.cpp:434] scale_conv_3b_double_3x3_1 <- conv_3b_double_3x3_1
I1221 00:09:30.893298 14598 net.cpp:395] scale_conv_3b_double_3x3_1 -> conv_3b_double_3x3_1 (in-place)
I1221 00:09:30.893374 14598 layer_factory.hpp:77] Creating layer scale_conv_3b_double_3x3_1
I1221 00:09:30.893575 14598 net.cpp:150] Setting up scale_conv_3b_double_3x3_1
I1221 00:09:30.893601 14598 net.cpp:157] Top shape: 30 144 28 28 (3386880)
I1221 00:09:30.893617 14598 net.cpp:165] Memory required for data: 2129971560
I1221 00:09:30.893636 14598 layer_factory.hpp:77] Creating layer relu_3b_double_3x3_1
I1221 00:09:30.893654 14598 net.cpp:100] Creating Layer relu_3b_double_3x3_1
I1221 00:09:30.893668 14598 net.cpp:434] relu_3b_double_3x3_1 <- conv_3b_double_3x3_1
I1221 00:09:30.893688 14598 net.cpp:395] relu_3b_double_3x3_1 -> conv_3b_double_3x3_1 (in-place)
I1221 00:09:30.893708 14598 net.cpp:150] Setting up relu_3b_double_3x3_1
I1221 00:09:30.893726 14598 net.cpp:157] Top shape: 30 144 28 28 (3386880)
I1221 00:09:30.893739 14598 net.cpp:165] Memory required for data: 2143519080
I1221 00:09:30.893753 14598 layer_factory.hpp:77] Creating layer ave_pool_3b_pool
I1221 00:09:30.893770 14598 net.cpp:100] Creating Layer ave_pool_3b_pool
I1221 00:09:30.893784 14598 net.cpp:434] ave_pool_3b_pool <- ch_concat_3a_chconcat_ch_concat_3a_chconcat_0_split_3
I1221 00:09:30.893815 14598 net.cpp:408] ave_pool_3b_pool -> ave_pool_3b_pool
I1221 00:09:30.895804 14598 net.cpp:150] Setting up ave_pool_3b_pool
I1221 00:09:30.895848 14598 net.cpp:157] Top shape: 30 384 28 28 (9031680)
I1221 00:09:30.895862 14598 net.cpp:165] Memory required for data: 2179645800
I1221 00:09:30.895876 14598 layer_factory.hpp:77] Creating layer conv_3b_proj
I1221 00:09:30.895898 14598 net.cpp:100] Creating Layer conv_3b_proj
I1221 00:09:30.895913 14598 net.cpp:434] conv_3b_proj <- ave_pool_3b_pool
I1221 00:09:30.895937 14598 net.cpp:408] conv_3b_proj -> conv_3b_proj
I1221 00:09:30.896322 14598 net.cpp:150] Setting up conv_3b_proj
I1221 00:09:30.896349 14598 net.cpp:157] Top shape: 30 96 28 28 (2257920)
I1221 00:09:30.896363 14598 net.cpp:165] Memory required for data: 2188677480
I1221 00:09:30.896383 14598 layer_factory.hpp:77] Creating layer bn_3b_proj
I1221 00:09:30.896400 14598 net.cpp:100] Creating Layer bn_3b_proj
I1221 00:09:30.896415 14598 net.cpp:434] bn_3b_proj <- conv_3b_proj
I1221 00:09:30.896435 14598 net.cpp:395] bn_3b_proj -> conv_3b_proj (in-place)
I1221 00:09:30.896710 14598 net.cpp:150] Setting up bn_3b_proj
I1221 00:09:30.896735 14598 net.cpp:157] Top shape: 30 96 28 28 (2257920)
I1221 00:09:30.896762 14598 net.cpp:165] Memory required for data: 2197709160
I1221 00:09:30.896783 14598 layer_factory.hpp:77] Creating layer scale_conv_3b_proj
I1221 00:09:30.896802 14598 net.cpp:100] Creating Layer scale_conv_3b_proj
I1221 00:09:30.896819 14598 net.cpp:434] scale_conv_3b_proj <- conv_3b_proj
I1221 00:09:30.896842 14598 net.cpp:395] scale_conv_3b_proj -> conv_3b_proj (in-place)
I1221 00:09:30.896908 14598 layer_factory.hpp:77] Creating layer scale_conv_3b_proj
I1221 00:09:30.897086 14598 net.cpp:150] Setting up scale_conv_3b_proj
I1221 00:09:30.897110 14598 net.cpp:157] Top shape: 30 96 28 28 (2257920)
I1221 00:09:30.897124 14598 net.cpp:165] Memory required for data: 2206740840
I1221 00:09:30.897142 14598 layer_factory.hpp:77] Creating layer relu_3b_proj
I1221 00:09:30.897159 14598 net.cpp:100] Creating Layer relu_3b_proj
I1221 00:09:30.897173 14598 net.cpp:434] relu_3b_proj <- conv_3b_proj
I1221 00:09:30.897205 14598 net.cpp:395] relu_3b_proj -> conv_3b_proj (in-place)
I1221 00:09:30.897227 14598 net.cpp:150] Setting up relu_3b_proj
I1221 00:09:30.897244 14598 net.cpp:157] Top shape: 30 96 28 28 (2257920)
I1221 00:09:30.897258 14598 net.cpp:165] Memory required for data: 2215772520
I1221 00:09:30.897271 14598 layer_factory.hpp:77] Creating layer ch_concat_3b_chconcat
I1221 00:09:30.897289 14598 net.cpp:100] Creating Layer ch_concat_3b_chconcat
I1221 00:09:30.897302 14598 net.cpp:434] ch_concat_3b_chconcat <- conv_3b_1x1
I1221 00:09:30.897317 14598 net.cpp:434] ch_concat_3b_chconcat <- conv_3b_3x3
I1221 00:09:30.897332 14598 net.cpp:434] ch_concat_3b_chconcat <- conv_3b_double_3x3_1
I1221 00:09:30.897347 14598 net.cpp:434] ch_concat_3b_chconcat <- conv_3b_proj
I1221 00:09:30.897367 14598 net.cpp:408] ch_concat_3b_chconcat -> ch_concat_3b_chconcat
I1221 00:09:30.897414 14598 net.cpp:150] Setting up ch_concat_3b_chconcat
I1221 00:09:30.897438 14598 net.cpp:157] Top shape: 30 480 28 28 (11289600)
I1221 00:09:30.897451 14598 net.cpp:165] Memory required for data: 2260930920
I1221 00:09:30.897469 14598 layer_factory.hpp:77] Creating layer ch_concat_3b_chconcat_ch_concat_3b_chconcat_0_split
I1221 00:09:30.897491 14598 net.cpp:100] Creating Layer ch_concat_3b_chconcat_ch_concat_3b_chconcat_0_split
I1221 00:09:30.897510 14598 net.cpp:434] ch_concat_3b_chconcat_ch_concat_3b_chconcat_0_split <- ch_concat_3b_chconcat
I1221 00:09:30.897527 14598 net.cpp:408] ch_concat_3b_chconcat_ch_concat_3b_chconcat_0_split -> ch_concat_3b_chconcat_ch_concat_3b_chconcat_0_split_0
I1221 00:09:30.897548 14598 net.cpp:408] ch_concat_3b_chconcat_ch_concat_3b_chconcat_0_split -> ch_concat_3b_chconcat_ch_concat_3b_chconcat_0_split_1
I1221 00:09:30.897572 14598 net.cpp:408] ch_concat_3b_chconcat_ch_concat_3b_chconcat_0_split -> ch_concat_3b_chconcat_ch_concat_3b_chconcat_0_split_2
I1221 00:09:30.897662 14598 net.cpp:150] Setting up ch_concat_3b_chconcat_ch_concat_3b_chconcat_0_split
I1221 00:09:30.897686 14598 net.cpp:157] Top shape: 30 480 28 28 (11289600)
I1221 00:09:30.897701 14598 net.cpp:157] Top shape: 30 480 28 28 (11289600)
I1221 00:09:30.897717 14598 net.cpp:157] Top shape: 30 480 28 28 (11289600)
I1221 00:09:30.897729 14598 net.cpp:165] Memory required for data: 2396406120
I1221 00:09:30.897743 14598 layer_factory.hpp:77] Creating layer conv_3c_3x3_reduce
I1221 00:09:30.897766 14598 net.cpp:100] Creating Layer conv_3c_3x3_reduce
I1221 00:09:30.897783 14598 net.cpp:434] conv_3c_3x3_reduce <- ch_concat_3b_chconcat_ch_concat_3b_chconcat_0_split_0
I1221 00:09:30.897800 14598 net.cpp:408] conv_3c_3x3_reduce -> conv_3c_3x3_reduce
I1221 00:09:30.898912 14598 net.cpp:150] Setting up conv_3c_3x3_reduce
I1221 00:09:30.898942 14598 net.cpp:157] Top shape: 30 192 28 28 (4515840)
I1221 00:09:30.898957 14598 net.cpp:165] Memory required for data: 2414469480
I1221 00:09:30.898975 14598 layer_factory.hpp:77] Creating layer bn_3c_3x3_reduce
I1221 00:09:30.898998 14598 net.cpp:100] Creating Layer bn_3c_3x3_reduce
I1221 00:09:30.899014 14598 net.cpp:434] bn_3c_3x3_reduce <- conv_3c_3x3_reduce
I1221 00:09:30.899031 14598 net.cpp:395] bn_3c_3x3_reduce -> conv_3c_3x3_reduce (in-place)
I1221 00:09:30.899305 14598 net.cpp:150] Setting up bn_3c_3x3_reduce
I1221 00:09:30.899330 14598 net.cpp:157] Top shape: 30 192 28 28 (4515840)
I1221 00:09:30.899344 14598 net.cpp:165] Memory required for data: 2432532840
I1221 00:09:30.899366 14598 layer_factory.hpp:77] Creating layer scale_conv_3c_3x3_reduce
I1221 00:09:30.899391 14598 net.cpp:100] Creating Layer scale_conv_3c_3x3_reduce
I1221 00:09:30.899407 14598 net.cpp:434] scale_conv_3c_3x3_reduce <- conv_3c_3x3_reduce
I1221 00:09:30.899423 14598 net.cpp:395] scale_conv_3c_3x3_reduce -> conv_3c_3x3_reduce (in-place)
I1221 00:09:30.899493 14598 layer_factory.hpp:77] Creating layer scale_conv_3c_3x3_reduce
I1221 00:09:30.899672 14598 net.cpp:150] Setting up scale_conv_3c_3x3_reduce
I1221 00:09:30.899696 14598 net.cpp:157] Top shape: 30 192 28 28 (4515840)
I1221 00:09:30.899710 14598 net.cpp:165] Memory required for data: 2450596200
I1221 00:09:30.899727 14598 layer_factory.hpp:77] Creating layer relu_3c_3x3_reduce
I1221 00:09:30.899745 14598 net.cpp:100] Creating Layer relu_3c_3x3_reduce
I1221 00:09:30.899760 14598 net.cpp:434] relu_3c_3x3_reduce <- conv_3c_3x3_reduce
I1221 00:09:30.899780 14598 net.cpp:395] relu_3c_3x3_reduce -> conv_3c_3x3_reduce (in-place)
I1221 00:09:30.899799 14598 net.cpp:150] Setting up relu_3c_3x3_reduce
I1221 00:09:30.899816 14598 net.cpp:157] Top shape: 30 192 28 28 (4515840)
I1221 00:09:30.899829 14598 net.cpp:165] Memory required for data: 2468659560
I1221 00:09:30.899842 14598 layer_factory.hpp:77] Creating layer conv_3c_3x3
I1221 00:09:30.899863 14598 net.cpp:100] Creating Layer conv_3c_3x3
I1221 00:09:30.899876 14598 net.cpp:434] conv_3c_3x3 <- conv_3c_3x3_reduce
I1221 00:09:30.899897 14598 net.cpp:408] conv_3c_3x3 -> conv_3c_3x3
I1221 00:09:30.901558 14598 net.cpp:150] Setting up conv_3c_3x3
I1221 00:09:30.901590 14598 net.cpp:157] Top shape: 30 240 14 14 (1411200)
I1221 00:09:30.901605 14598 net.cpp:165] Memory required for data: 2474304360
I1221 00:09:30.901624 14598 layer_factory.hpp:77] Creating layer bn_3c_3x3
I1221 00:09:30.901646 14598 net.cpp:100] Creating Layer bn_3c_3x3
I1221 00:09:30.901661 14598 net.cpp:434] bn_3c_3x3 <- conv_3c_3x3
I1221 00:09:30.901679 14598 net.cpp:395] bn_3c_3x3 -> conv_3c_3x3 (in-place)
I1221 00:09:30.901948 14598 net.cpp:150] Setting up bn_3c_3x3
I1221 00:09:30.901973 14598 net.cpp:157] Top shape: 30 240 14 14 (1411200)
I1221 00:09:30.901986 14598 net.cpp:165] Memory required for data: 2479949160
I1221 00:09:30.902031 14598 layer_factory.hpp:77] Creating layer scale_conv_3c_3x3
I1221 00:09:30.902056 14598 net.cpp:100] Creating Layer scale_conv_3c_3x3
I1221 00:09:30.902071 14598 net.cpp:434] scale_conv_3c_3x3 <- conv_3c_3x3
I1221 00:09:30.902088 14598 net.cpp:395] scale_conv_3c_3x3 -> conv_3c_3x3 (in-place)
I1221 00:09:30.902174 14598 layer_factory.hpp:77] Creating layer scale_conv_3c_3x3
I1221 00:09:30.902354 14598 net.cpp:150] Setting up scale_conv_3c_3x3
I1221 00:09:30.902379 14598 net.cpp:157] Top shape: 30 240 14 14 (1411200)
I1221 00:09:30.902391 14598 net.cpp:165] Memory required for data: 2485593960
I1221 00:09:30.902410 14598 layer_factory.hpp:77] Creating layer relu_3c_3x3
I1221 00:09:30.902431 14598 net.cpp:100] Creating Layer relu_3c_3x3
I1221 00:09:30.902446 14598 net.cpp:434] relu_3c_3x3 <- conv_3c_3x3
I1221 00:09:30.902462 14598 net.cpp:395] relu_3c_3x3 -> conv_3c_3x3 (in-place)
I1221 00:09:30.902480 14598 net.cpp:150] Setting up relu_3c_3x3
I1221 00:09:30.902499 14598 net.cpp:157] Top shape: 30 240 14 14 (1411200)
I1221 00:09:30.902514 14598 net.cpp:165] Memory required for data: 2491238760
I1221 00:09:30.902530 14598 layer_factory.hpp:77] Creating layer conv_3c_double_3x3_reduce
I1221 00:09:30.902557 14598 net.cpp:100] Creating Layer conv_3c_double_3x3_reduce
I1221 00:09:30.902573 14598 net.cpp:434] conv_3c_double_3x3_reduce <- ch_concat_3b_chconcat_ch_concat_3b_chconcat_0_split_1
I1221 00:09:30.902604 14598 net.cpp:408] conv_3c_double_3x3_reduce -> conv_3c_double_3x3_reduce
I1221 00:09:30.903714 14598 net.cpp:150] Setting up conv_3c_double_3x3_reduce
I1221 00:09:30.903745 14598 net.cpp:157] Top shape: 30 96 28 28 (2257920)
I1221 00:09:30.903759 14598 net.cpp:165] Memory required for data: 2500270440
I1221 00:09:30.903779 14598 layer_factory.hpp:77] Creating layer bn_3c_double_3x3_reduce
I1221 00:09:30.903801 14598 net.cpp:100] Creating Layer bn_3c_double_3x3_reduce
I1221 00:09:30.903816 14598 net.cpp:434] bn_3c_double_3x3_reduce <- conv_3c_double_3x3_reduce
I1221 00:09:30.903837 14598 net.cpp:395] bn_3c_double_3x3_reduce -> conv_3c_double_3x3_reduce (in-place)
I1221 00:09:30.904108 14598 net.cpp:150] Setting up bn_3c_double_3x3_reduce
I1221 00:09:30.904134 14598 net.cpp:157] Top shape: 30 96 28 28 (2257920)
I1221 00:09:30.904156 14598 net.cpp:165] Memory required for data: 2509302120
I1221 00:09:30.904203 14598 layer_factory.hpp:77] Creating layer scale_conv_3c_double_3x3_reduce
I1221 00:09:30.904237 14598 net.cpp:100] Creating Layer scale_conv_3c_double_3x3_reduce
I1221 00:09:30.904261 14598 net.cpp:434] scale_conv_3c_double_3x3_reduce <- conv_3c_double_3x3_reduce
I1221 00:09:30.904286 14598 net.cpp:395] scale_conv_3c_double_3x3_reduce -> conv_3c_double_3x3_reduce (in-place)
I1221 00:09:30.904391 14598 layer_factory.hpp:77] Creating layer scale_conv_3c_double_3x3_reduce
I1221 00:09:30.904654 14598 net.cpp:150] Setting up scale_conv_3c_double_3x3_reduce
I1221 00:09:30.904697 14598 net.cpp:157] Top shape: 30 96 28 28 (2257920)
I1221 00:09:30.904724 14598 net.cpp:165] Memory required for data: 2518333800
I1221 00:09:30.904757 14598 layer_factory.hpp:77] Creating layer relu_3c_double_3x3_reduce
I1221 00:09:30.904788 14598 net.cpp:100] Creating Layer relu_3c_double_3x3_reduce
I1221 00:09:30.904819 14598 net.cpp:434] relu_3c_double_3x3_reduce <- conv_3c_double_3x3_reduce
I1221 00:09:30.904847 14598 net.cpp:395] relu_3c_double_3x3_reduce -> conv_3c_double_3x3_reduce (in-place)
I1221 00:09:30.904878 14598 net.cpp:150] Setting up relu_3c_double_3x3_reduce
I1221 00:09:30.904907 14598 net.cpp:157] Top shape: 30 96 28 28 (2257920)
I1221 00:09:30.904932 14598 net.cpp:165] Memory required for data: 2527365480
I1221 00:09:30.904953 14598 layer_factory.hpp:77] Creating layer conv_3c_double_3x3_0
I1221 00:09:30.904994 14598 net.cpp:100] Creating Layer conv_3c_double_3x3_0
I1221 00:09:30.905022 14598 net.cpp:434] conv_3c_double_3x3_0 <- conv_3c_double_3x3_reduce
I1221 00:09:30.905056 14598 net.cpp:408] conv_3c_double_3x3_0 -> conv_3c_double_3x3_0
I1221 00:09:30.905563 14598 net.cpp:150] Setting up conv_3c_double_3x3_0
I1221 00:09:30.905594 14598 net.cpp:157] Top shape: 30 144 28 28 (3386880)
I1221 00:09:30.905609 14598 net.cpp:165] Memory required for data: 2540913000
I1221 00:09:30.905627 14598 layer_factory.hpp:77] Creating layer bn_3c_double_3x3_0
I1221 00:09:30.905653 14598 net.cpp:100] Creating Layer bn_3c_double_3x3_0
I1221 00:09:30.905680 14598 net.cpp:434] bn_3c_double_3x3_0 <- conv_3c_double_3x3_0
I1221 00:09:30.905701 14598 net.cpp:395] bn_3c_double_3x3_0 -> conv_3c_double_3x3_0 (in-place)
I1221 00:09:30.905969 14598 net.cpp:150] Setting up bn_3c_double_3x3_0
I1221 00:09:30.905997 14598 net.cpp:157] Top shape: 30 144 28 28 (3386880)
I1221 00:09:30.906010 14598 net.cpp:165] Memory required for data: 2554460520
I1221 00:09:30.906031 14598 layer_factory.hpp:77] Creating layer scale_conv_3c_double_3x3_0
I1221 00:09:30.906049 14598 net.cpp:100] Creating Layer scale_conv_3c_double_3x3_0
I1221 00:09:30.906067 14598 net.cpp:434] scale_conv_3c_double_3x3_0 <- conv_3c_double_3x3_0
I1221 00:09:30.906085 14598 net.cpp:395] scale_conv_3c_double_3x3_0 -> conv_3c_double_3x3_0 (in-place)
I1221 00:09:30.906193 14598 layer_factory.hpp:77] Creating layer scale_conv_3c_double_3x3_0
I1221 00:09:30.906383 14598 net.cpp:150] Setting up scale_conv_3c_double_3x3_0
I1221 00:09:30.906412 14598 net.cpp:157] Top shape: 30 144 28 28 (3386880)
I1221 00:09:30.906427 14598 net.cpp:165] Memory required for data: 2568008040
I1221 00:09:30.906446 14598 layer_factory.hpp:77] Creating layer relu_3c_double_3x3_0
I1221 00:09:30.906467 14598 net.cpp:100] Creating Layer relu_3c_double_3x3_0
I1221 00:09:30.906482 14598 net.cpp:434] relu_3c_double_3x3_0 <- conv_3c_double_3x3_0
I1221 00:09:30.906498 14598 net.cpp:395] relu_3c_double_3x3_0 -> conv_3c_double_3x3_0 (in-place)
I1221 00:09:30.906517 14598 net.cpp:150] Setting up relu_3c_double_3x3_0
I1221 00:09:30.906533 14598 net.cpp:157] Top shape: 30 144 28 28 (3386880)
I1221 00:09:30.906546 14598 net.cpp:165] Memory required for data: 2581555560
I1221 00:09:30.906560 14598 layer_factory.hpp:77] Creating layer conv_3c_double_3x3_1
I1221 00:09:30.906584 14598 net.cpp:100] Creating Layer conv_3c_double_3x3_1
I1221 00:09:30.906599 14598 net.cpp:434] conv_3c_double_3x3_1 <- conv_3c_double_3x3_0
I1221 00:09:30.906617 14598 net.cpp:408] conv_3c_double_3x3_1 -> conv_3c_double_3x3_1
I1221 00:09:30.907804 14598 net.cpp:150] Setting up conv_3c_double_3x3_1
I1221 00:09:30.907840 14598 net.cpp:157] Top shape: 30 144 14 14 (846720)
I1221 00:09:30.907855 14598 net.cpp:165] Memory required for data: 2584942440
I1221 00:09:30.907873 14598 layer_factory.hpp:77] Creating layer bn_3c_double_3x3_1
I1221 00:09:30.907892 14598 net.cpp:100] Creating Layer bn_3c_double_3x3_1
I1221 00:09:30.907907 14598 net.cpp:434] bn_3c_double_3x3_1 <- conv_3c_double_3x3_1
I1221 00:09:30.907927 14598 net.cpp:395] bn_3c_double_3x3_1 -> conv_3c_double_3x3_1 (in-place)
I1221 00:09:30.908229 14598 net.cpp:150] Setting up bn_3c_double_3x3_1
I1221 00:09:30.908257 14598 net.cpp:157] Top shape: 30 144 14 14 (846720)
I1221 00:09:30.908272 14598 net.cpp:165] Memory required for data: 2588329320
I1221 00:09:30.908293 14598 layer_factory.hpp:77] Creating layer scale_conv_3c_double_3x3_1
I1221 00:09:30.908311 14598 net.cpp:100] Creating Layer scale_conv_3c_double_3x3_1
I1221 00:09:30.908325 14598 net.cpp:434] scale_conv_3c_double_3x3_1 <- conv_3c_double_3x3_1
I1221 00:09:30.908345 14598 net.cpp:395] scale_conv_3c_double_3x3_1 -> conv_3c_double_3x3_1 (in-place)
I1221 00:09:30.908416 14598 layer_factory.hpp:77] Creating layer scale_conv_3c_double_3x3_1
I1221 00:09:30.908592 14598 net.cpp:150] Setting up scale_conv_3c_double_3x3_1
I1221 00:09:30.908619 14598 net.cpp:157] Top shape: 30 144 14 14 (846720)
I1221 00:09:30.908632 14598 net.cpp:165] Memory required for data: 2591716200
I1221 00:09:30.908651 14598 layer_factory.hpp:77] Creating layer relu_3c_double_3x3_1
I1221 00:09:30.908674 14598 net.cpp:100] Creating Layer relu_3c_double_3x3_1
I1221 00:09:30.908689 14598 net.cpp:434] relu_3c_double_3x3_1 <- conv_3c_double_3x3_1
I1221 00:09:30.908704 14598 net.cpp:395] relu_3c_double_3x3_1 -> conv_3c_double_3x3_1 (in-place)
I1221 00:09:30.908723 14598 net.cpp:150] Setting up relu_3c_double_3x3_1
I1221 00:09:30.908740 14598 net.cpp:157] Top shape: 30 144 14 14 (846720)
I1221 00:09:30.908752 14598 net.cpp:165] Memory required for data: 2595103080
I1221 00:09:30.908766 14598 layer_factory.hpp:77] Creating layer max_pool_3c_pool
I1221 00:09:30.908797 14598 net.cpp:100] Creating Layer max_pool_3c_pool
I1221 00:09:30.908812 14598 net.cpp:434] max_pool_3c_pool <- ch_concat_3b_chconcat_ch_concat_3b_chconcat_0_split_2
I1221 00:09:30.908830 14598 net.cpp:408] max_pool_3c_pool -> max_pool_3c_pool
I1221 00:09:30.908900 14598 net.cpp:150] Setting up max_pool_3c_pool
I1221 00:09:30.908924 14598 net.cpp:157] Top shape: 30 480 14 14 (2822400)
I1221 00:09:30.908937 14598 net.cpp:165] Memory required for data: 2606392680
I1221 00:09:30.908952 14598 layer_factory.hpp:77] Creating layer ch_concat_3c_chconcat
I1221 00:09:30.908969 14598 net.cpp:100] Creating Layer ch_concat_3c_chconcat
I1221 00:09:30.908985 14598 net.cpp:434] ch_concat_3c_chconcat <- conv_3c_3x3
I1221 00:09:30.909001 14598 net.cpp:434] ch_concat_3c_chconcat <- conv_3c_double_3x3_1
I1221 00:09:30.909016 14598 net.cpp:434] ch_concat_3c_chconcat <- max_pool_3c_pool
I1221 00:09:30.909037 14598 net.cpp:408] ch_concat_3c_chconcat -> ch_concat_3c_chconcat
I1221 00:09:30.909085 14598 net.cpp:150] Setting up ch_concat_3c_chconcat
I1221 00:09:30.909106 14598 net.cpp:157] Top shape: 30 864 14 14 (5080320)
I1221 00:09:30.909121 14598 net.cpp:165] Memory required for data: 2626713960
I1221 00:09:30.909133 14598 layer_factory.hpp:77] Creating layer ch_concat_3c_chconcat_ch_concat_3c_chconcat_0_split
I1221 00:09:30.909152 14598 net.cpp:100] Creating Layer ch_concat_3c_chconcat_ch_concat_3c_chconcat_0_split
I1221 00:09:30.909168 14598 net.cpp:434] ch_concat_3c_chconcat_ch_concat_3c_chconcat_0_split <- ch_concat_3c_chconcat
I1221 00:09:30.909198 14598 net.cpp:408] ch_concat_3c_chconcat_ch_concat_3c_chconcat_0_split -> ch_concat_3c_chconcat_ch_concat_3c_chconcat_0_split_0
I1221 00:09:30.909224 14598 net.cpp:408] ch_concat_3c_chconcat_ch_concat_3c_chconcat_0_split -> ch_concat_3c_chconcat_ch_concat_3c_chconcat_0_split_1
I1221 00:09:30.909245 14598 net.cpp:408] ch_concat_3c_chconcat_ch_concat_3c_chconcat_0_split -> ch_concat_3c_chconcat_ch_concat_3c_chconcat_0_split_2
I1221 00:09:30.909265 14598 net.cpp:408] ch_concat_3c_chconcat_ch_concat_3c_chconcat_0_split -> ch_concat_3c_chconcat_ch_concat_3c_chconcat_0_split_3
I1221 00:09:30.909355 14598 net.cpp:150] Setting up ch_concat_3c_chconcat_ch_concat_3c_chconcat_0_split
I1221 00:09:30.909379 14598 net.cpp:157] Top shape: 30 864 14 14 (5080320)
I1221 00:09:30.909394 14598 net.cpp:157] Top shape: 30 864 14 14 (5080320)
I1221 00:09:30.909409 14598 net.cpp:157] Top shape: 30 864 14 14 (5080320)
I1221 00:09:30.909425 14598 net.cpp:157] Top shape: 30 864 14 14 (5080320)
I1221 00:09:30.909438 14598 net.cpp:165] Memory required for data: 2707999080
I1221 00:09:30.909451 14598 layer_factory.hpp:77] Creating layer conv_4a_1x1
I1221 00:09:30.909474 14598 net.cpp:100] Creating Layer conv_4a_1x1
I1221 00:09:30.909489 14598 net.cpp:434] conv_4a_1x1 <- ch_concat_3c_chconcat_ch_concat_3c_chconcat_0_split_0
I1221 00:09:30.909507 14598 net.cpp:408] conv_4a_1x1 -> conv_4a_1x1
I1221 00:09:30.910753 14598 net.cpp:150] Setting up conv_4a_1x1
I1221 00:09:30.910784 14598 net.cpp:157] Top shape: 30 224 14 14 (1317120)
I1221 00:09:30.910796 14598 net.cpp:165] Memory required for data: 2713267560
I1221 00:09:30.910815 14598 layer_factory.hpp:77] Creating layer bn_4a_1x1
I1221 00:09:30.910840 14598 net.cpp:100] Creating Layer bn_4a_1x1
I1221 00:09:30.910856 14598 net.cpp:434] bn_4a_1x1 <- conv_4a_1x1
I1221 00:09:30.910872 14598 net.cpp:395] bn_4a_1x1 -> conv_4a_1x1 (in-place)
I1221 00:09:30.911144 14598 net.cpp:150] Setting up bn_4a_1x1
I1221 00:09:30.911166 14598 net.cpp:157] Top shape: 30 224 14 14 (1317120)
I1221 00:09:30.911187 14598 net.cpp:165] Memory required for data: 2718536040
I1221 00:09:30.911209 14598 layer_factory.hpp:77] Creating layer scale_conv_4a_1x1
I1221 00:09:30.911231 14598 net.cpp:100] Creating Layer scale_conv_4a_1x1
I1221 00:09:30.911247 14598 net.cpp:434] scale_conv_4a_1x1 <- conv_4a_1x1
I1221 00:09:30.911263 14598 net.cpp:395] scale_conv_4a_1x1 -> conv_4a_1x1 (in-place)
I1221 00:09:30.911337 14598 layer_factory.hpp:77] Creating layer scale_conv_4a_1x1
I1221 00:09:30.911551 14598 net.cpp:150] Setting up scale_conv_4a_1x1
I1221 00:09:30.911586 14598 net.cpp:157] Top shape: 30 224 14 14 (1317120)
I1221 00:09:30.911605 14598 net.cpp:165] Memory required for data: 2723804520
I1221 00:09:30.911634 14598 layer_factory.hpp:77] Creating layer relu_4a_1x1
I1221 00:09:30.911653 14598 net.cpp:100] Creating Layer relu_4a_1x1
I1221 00:09:30.911669 14598 net.cpp:434] relu_4a_1x1 <- conv_4a_1x1
I1221 00:09:30.911687 14598 net.cpp:395] relu_4a_1x1 -> conv_4a_1x1 (in-place)
I1221 00:09:30.911706 14598 net.cpp:150] Setting up relu_4a_1x1
I1221 00:09:30.911723 14598 net.cpp:157] Top shape: 30 224 14 14 (1317120)
I1221 00:09:30.911736 14598 net.cpp:165] Memory required for data: 2729073000
I1221 00:09:30.911749 14598 layer_factory.hpp:77] Creating layer conv_4a_3x3_reduce
I1221 00:09:30.911768 14598 net.cpp:100] Creating Layer conv_4a_3x3_reduce
I1221 00:09:30.911783 14598 net.cpp:434] conv_4a_3x3_reduce <- ch_concat_3c_chconcat_ch_concat_3c_chconcat_0_split_1
I1221 00:09:30.911805 14598 net.cpp:408] conv_4a_3x3_reduce -> conv_4a_3x3_reduce
I1221 00:09:30.912212 14598 net.cpp:150] Setting up conv_4a_3x3_reduce
I1221 00:09:30.912238 14598 net.cpp:157] Top shape: 30 64 14 14 (376320)
I1221 00:09:30.912251 14598 net.cpp:165] Memory required for data: 2730578280
I1221 00:09:30.912271 14598 layer_factory.hpp:77] Creating layer bn_4a_3x3_reduce
I1221 00:09:30.912292 14598 net.cpp:100] Creating Layer bn_4a_3x3_reduce
I1221 00:09:30.912308 14598 net.cpp:434] bn_4a_3x3_reduce <- conv_4a_3x3_reduce
I1221 00:09:30.912325 14598 net.cpp:395] bn_4a_3x3_reduce -> conv_4a_3x3_reduce (in-place)
I1221 00:09:30.912595 14598 net.cpp:150] Setting up bn_4a_3x3_reduce
I1221 00:09:30.912618 14598 net.cpp:157] Top shape: 30 64 14 14 (376320)
I1221 00:09:30.912632 14598 net.cpp:165] Memory required for data: 2732083560
I1221 00:09:30.912652 14598 layer_factory.hpp:77] Creating layer scale_conv_4a_3x3_reduce
I1221 00:09:30.912674 14598 net.cpp:100] Creating Layer scale_conv_4a_3x3_reduce
I1221 00:09:30.912689 14598 net.cpp:434] scale_conv_4a_3x3_reduce <- conv_4a_3x3_reduce
I1221 00:09:30.912706 14598 net.cpp:395] scale_conv_4a_3x3_reduce -> conv_4a_3x3_reduce (in-place)
I1221 00:09:30.912777 14598 layer_factory.hpp:77] Creating layer scale_conv_4a_3x3_reduce
I1221 00:09:30.912955 14598 net.cpp:150] Setting up scale_conv_4a_3x3_reduce
I1221 00:09:30.912978 14598 net.cpp:157] Top shape: 30 64 14 14 (376320)
I1221 00:09:30.912992 14598 net.cpp:165] Memory required for data: 2733588840
I1221 00:09:30.913009 14598 layer_factory.hpp:77] Creating layer relu_4a_3x3_reduce
I1221 00:09:30.913028 14598 net.cpp:100] Creating Layer relu_4a_3x3_reduce
I1221 00:09:30.913041 14598 net.cpp:434] relu_4a_3x3_reduce <- conv_4a_3x3_reduce
I1221 00:09:30.913060 14598 net.cpp:395] relu_4a_3x3_reduce -> conv_4a_3x3_reduce (in-place)
I1221 00:09:30.913079 14598 net.cpp:150] Setting up relu_4a_3x3_reduce
I1221 00:09:30.913096 14598 net.cpp:157] Top shape: 30 64 14 14 (376320)
I1221 00:09:30.913110 14598 net.cpp:165] Memory required for data: 2735094120
I1221 00:09:30.913123 14598 layer_factory.hpp:77] Creating layer conv_4a_3x3
I1221 00:09:30.913142 14598 net.cpp:100] Creating Layer conv_4a_3x3
I1221 00:09:30.913156 14598 net.cpp:434] conv_4a_3x3 <- conv_4a_3x3_reduce
I1221 00:09:30.913178 14598 net.cpp:408] conv_4a_3x3 -> conv_4a_3x3
I1221 00:09:30.913558 14598 net.cpp:150] Setting up conv_4a_3x3
I1221 00:09:30.913584 14598 net.cpp:157] Top shape: 30 96 14 14 (564480)
I1221 00:09:30.913599 14598 net.cpp:165] Memory required for data: 2737352040
I1221 00:09:30.913616 14598 layer_factory.hpp:77] Creating layer bn_4a_3x3
I1221 00:09:30.913638 14598 net.cpp:100] Creating Layer bn_4a_3x3
I1221 00:09:30.913660 14598 net.cpp:434] bn_4a_3x3 <- conv_4a_3x3
I1221 00:09:30.913689 14598 net.cpp:395] bn_4a_3x3 -> conv_4a_3x3 (in-place)
I1221 00:09:30.913978 14598 net.cpp:150] Setting up bn_4a_3x3
I1221 00:09:30.914003 14598 net.cpp:157] Top shape: 30 96 14 14 (564480)
I1221 00:09:30.914017 14598 net.cpp:165] Memory required for data: 2739609960
I1221 00:09:30.914047 14598 layer_factory.hpp:77] Creating layer scale_conv_4a_3x3
I1221 00:09:30.914069 14598 net.cpp:100] Creating Layer scale_conv_4a_3x3
I1221 00:09:30.914085 14598 net.cpp:434] scale_conv_4a_3x3 <- conv_4a_3x3
I1221 00:09:30.914104 14598 net.cpp:395] scale_conv_4a_3x3 -> conv_4a_3x3 (in-place)
I1221 00:09:30.914175 14598 layer_factory.hpp:77] Creating layer scale_conv_4a_3x3
I1221 00:09:30.914427 14598 net.cpp:150] Setting up scale_conv_4a_3x3
I1221 00:09:30.914453 14598 net.cpp:157] Top shape: 30 96 14 14 (564480)
I1221 00:09:30.914466 14598 net.cpp:165] Memory required for data: 2741867880
I1221 00:09:30.914485 14598 layer_factory.hpp:77] Creating layer relu_4a_3x3
I1221 00:09:30.914506 14598 net.cpp:100] Creating Layer relu_4a_3x3
I1221 00:09:30.914521 14598 net.cpp:434] relu_4a_3x3 <- conv_4a_3x3
I1221 00:09:30.914541 14598 net.cpp:395] relu_4a_3x3 -> conv_4a_3x3 (in-place)
I1221 00:09:30.914571 14598 net.cpp:150] Setting up relu_4a_3x3
I1221 00:09:30.914597 14598 net.cpp:157] Top shape: 30 96 14 14 (564480)
I1221 00:09:30.914618 14598 net.cpp:165] Memory required for data: 2744125800
I1221 00:09:30.914639 14598 layer_factory.hpp:77] Creating layer conv_4a_double_3x3_reduce
I1221 00:09:30.914674 14598 net.cpp:100] Creating Layer conv_4a_double_3x3_reduce
I1221 00:09:30.914700 14598 net.cpp:434] conv_4a_double_3x3_reduce <- ch_concat_3c_chconcat_ch_concat_3c_chconcat_0_split_2
I1221 00:09:30.914732 14598 net.cpp:408] conv_4a_double_3x3_reduce -> conv_4a_double_3x3_reduce
I1221 00:09:30.915993 14598 net.cpp:150] Setting up conv_4a_double_3x3_reduce
I1221 00:09:30.916023 14598 net.cpp:157] Top shape: 30 96 14 14 (564480)
I1221 00:09:30.916038 14598 net.cpp:165] Memory required for data: 2746383720
I1221 00:09:30.916057 14598 layer_factory.hpp:77] Creating layer bn_4a_double_3x3_reduce
I1221 00:09:30.916080 14598 net.cpp:100] Creating Layer bn_4a_double_3x3_reduce
I1221 00:09:30.916096 14598 net.cpp:434] bn_4a_double_3x3_reduce <- conv_4a_double_3x3_reduce
I1221 00:09:30.916116 14598 net.cpp:395] bn_4a_double_3x3_reduce -> conv_4a_double_3x3_reduce (in-place)
I1221 00:09:30.916398 14598 net.cpp:150] Setting up bn_4a_double_3x3_reduce
I1221 00:09:30.916422 14598 net.cpp:157] Top shape: 30 96 14 14 (564480)
I1221 00:09:30.916435 14598 net.cpp:165] Memory required for data: 2748641640
I1221 00:09:30.916456 14598 layer_factory.hpp:77] Creating layer scale_conv_4a_double_3x3_reduce
I1221 00:09:30.916476 14598 net.cpp:100] Creating Layer scale_conv_4a_double_3x3_reduce
I1221 00:09:30.916491 14598 net.cpp:434] scale_conv_4a_double_3x3_reduce <- conv_4a_double_3x3_reduce
I1221 00:09:30.916508 14598 net.cpp:395] scale_conv_4a_double_3x3_reduce -> conv_4a_double_3x3_reduce (in-place)
I1221 00:09:30.916584 14598 layer_factory.hpp:77] Creating layer scale_conv_4a_double_3x3_reduce
I1221 00:09:30.916764 14598 net.cpp:150] Setting up scale_conv_4a_double_3x3_reduce
I1221 00:09:30.916787 14598 net.cpp:157] Top shape: 30 96 14 14 (564480)
I1221 00:09:30.916800 14598 net.cpp:165] Memory required for data: 2750899560
I1221 00:09:30.916818 14598 layer_factory.hpp:77] Creating layer relu_4a_double_3x3_reduce
I1221 00:09:30.916841 14598 net.cpp:100] Creating Layer relu_4a_double_3x3_reduce
I1221 00:09:30.916856 14598 net.cpp:434] relu_4a_double_3x3_reduce <- conv_4a_double_3x3_reduce
I1221 00:09:30.916872 14598 net.cpp:395] relu_4a_double_3x3_reduce -> conv_4a_double_3x3_reduce (in-place)
I1221 00:09:30.916890 14598 net.cpp:150] Setting up relu_4a_double_3x3_reduce
I1221 00:09:30.916908 14598 net.cpp:157] Top shape: 30 96 14 14 (564480)
I1221 00:09:30.916920 14598 net.cpp:165] Memory required for data: 2753157480
I1221 00:09:30.916934 14598 layer_factory.hpp:77] Creating layer conv_4a_double_3x3_0
I1221 00:09:30.916956 14598 net.cpp:100] Creating Layer conv_4a_double_3x3_0
I1221 00:09:30.916972 14598 net.cpp:434] conv_4a_double_3x3_0 <- conv_4a_double_3x3_reduce
I1221 00:09:30.916991 14598 net.cpp:408] conv_4a_double_3x3_0 -> conv_4a_double_3x3_0
I1221 00:09:30.917397 14598 net.cpp:150] Setting up conv_4a_double_3x3_0
I1221 00:09:30.917433 14598 net.cpp:157] Top shape: 30 128 14 14 (752640)
I1221 00:09:30.917446 14598 net.cpp:165] Memory required for data: 2756168040
I1221 00:09:30.917465 14598 layer_factory.hpp:77] Creating layer bn_4a_double_3x3_0
I1221 00:09:30.917489 14598 net.cpp:100] Creating Layer bn_4a_double_3x3_0
I1221 00:09:30.917505 14598 net.cpp:434] bn_4a_double_3x3_0 <- conv_4a_double_3x3_0
I1221 00:09:30.917524 14598 net.cpp:395] bn_4a_double_3x3_0 -> conv_4a_double_3x3_0 (in-place)
I1221 00:09:30.917812 14598 net.cpp:150] Setting up bn_4a_double_3x3_0
I1221 00:09:30.917840 14598 net.cpp:157] Top shape: 30 128 14 14 (752640)
I1221 00:09:30.917855 14598 net.cpp:165] Memory required for data: 2759178600
I1221 00:09:30.917876 14598 layer_factory.hpp:77] Creating layer scale_conv_4a_double_3x3_0
I1221 00:09:30.917893 14598 net.cpp:100] Creating Layer scale_conv_4a_double_3x3_0
I1221 00:09:30.917907 14598 net.cpp:434] scale_conv_4a_double_3x3_0 <- conv_4a_double_3x3_0
I1221 00:09:30.917928 14598 net.cpp:395] scale_conv_4a_double_3x3_0 -> conv_4a_double_3x3_0 (in-place)
I1221 00:09:30.918000 14598 layer_factory.hpp:77] Creating layer scale_conv_4a_double_3x3_0
I1221 00:09:30.918167 14598 net.cpp:150] Setting up scale_conv_4a_double_3x3_0
I1221 00:09:30.918201 14598 net.cpp:157] Top shape: 30 128 14 14 (752640)
I1221 00:09:30.918215 14598 net.cpp:165] Memory required for data: 2762189160
I1221 00:09:30.918243 14598 layer_factory.hpp:77] Creating layer relu_4a_double_3x3_0
I1221 00:09:30.918262 14598 net.cpp:100] Creating Layer relu_4a_double_3x3_0
I1221 00:09:30.918275 14598 net.cpp:434] relu_4a_double_3x3_0 <- conv_4a_double_3x3_0
I1221 00:09:30.918296 14598 net.cpp:395] relu_4a_double_3x3_0 -> conv_4a_double_3x3_0 (in-place)
I1221 00:09:30.918316 14598 net.cpp:150] Setting up relu_4a_double_3x3_0
I1221 00:09:30.918334 14598 net.cpp:157] Top shape: 30 128 14 14 (752640)
I1221 00:09:30.918346 14598 net.cpp:165] Memory required for data: 2765199720
I1221 00:09:30.918359 14598 layer_factory.hpp:77] Creating layer conv_4a_double_3x3_1
I1221 00:09:30.918382 14598 net.cpp:100] Creating Layer conv_4a_double_3x3_1
I1221 00:09:30.918398 14598 net.cpp:434] conv_4a_double_3x3_1 <- conv_4a_double_3x3_0
I1221 00:09:30.918416 14598 net.cpp:408] conv_4a_double_3x3_1 -> conv_4a_double_3x3_1
I1221 00:09:30.919570 14598 net.cpp:150] Setting up conv_4a_double_3x3_1
I1221 00:09:30.919606 14598 net.cpp:157] Top shape: 30 128 14 14 (752640)
I1221 00:09:30.919620 14598 net.cpp:165] Memory required for data: 2768210280
I1221 00:09:30.919641 14598 layer_factory.hpp:77] Creating layer bn_4a_double_3x3_1
I1221 00:09:30.919661 14598 net.cpp:100] Creating Layer bn_4a_double_3x3_1
I1221 00:09:30.919677 14598 net.cpp:434] bn_4a_double_3x3_1 <- conv_4a_double_3x3_1
I1221 00:09:30.919697 14598 net.cpp:395] bn_4a_double_3x3_1 -> conv_4a_double_3x3_1 (in-place)
I1221 00:09:30.919955 14598 net.cpp:150] Setting up bn_4a_double_3x3_1
I1221 00:09:30.919981 14598 net.cpp:157] Top shape: 30 128 14 14 (752640)
I1221 00:09:30.919994 14598 net.cpp:165] Memory required for data: 2771220840
I1221 00:09:30.920016 14598 layer_factory.hpp:77] Creating layer scale_conv_4a_double_3x3_1
I1221 00:09:30.920034 14598 net.cpp:100] Creating Layer scale_conv_4a_double_3x3_1
I1221 00:09:30.920048 14598 net.cpp:434] scale_conv_4a_double_3x3_1 <- conv_4a_double_3x3_1
I1221 00:09:30.920068 14598 net.cpp:395] scale_conv_4a_double_3x3_1 -> conv_4a_double_3x3_1 (in-place)
I1221 00:09:30.920135 14598 layer_factory.hpp:77] Creating layer scale_conv_4a_double_3x3_1
I1221 00:09:30.920307 14598 net.cpp:150] Setting up scale_conv_4a_double_3x3_1
I1221 00:09:30.920337 14598 net.cpp:157] Top shape: 30 128 14 14 (752640)
I1221 00:09:30.920351 14598 net.cpp:165] Memory required for data: 2774231400
I1221 00:09:30.920370 14598 layer_factory.hpp:77] Creating layer relu_4a_double_3x3_1
I1221 00:09:30.920388 14598 net.cpp:100] Creating Layer relu_4a_double_3x3_1
I1221 00:09:30.920403 14598 net.cpp:434] relu_4a_double_3x3_1 <- conv_4a_double_3x3_1
I1221 00:09:30.920419 14598 net.cpp:395] relu_4a_double_3x3_1 -> conv_4a_double_3x3_1 (in-place)
I1221 00:09:30.920447 14598 net.cpp:150] Setting up relu_4a_double_3x3_1
I1221 00:09:30.920464 14598 net.cpp:157] Top shape: 30 128 14 14 (752640)
I1221 00:09:30.920478 14598 net.cpp:165] Memory required for data: 2777241960
I1221 00:09:30.920492 14598 layer_factory.hpp:77] Creating layer ave_pool_4a_pool
I1221 00:09:30.920519 14598 net.cpp:100] Creating Layer ave_pool_4a_pool
I1221 00:09:30.920536 14598 net.cpp:434] ave_pool_4a_pool <- ch_concat_3c_chconcat_ch_concat_3c_chconcat_0_split_3
I1221 00:09:30.920557 14598 net.cpp:408] ave_pool_4a_pool -> ave_pool_4a_pool
I1221 00:09:30.920610 14598 net.cpp:150] Setting up ave_pool_4a_pool
I1221 00:09:30.920634 14598 net.cpp:157] Top shape: 30 864 14 14 (5080320)
I1221 00:09:30.920646 14598 net.cpp:165] Memory required for data: 2797563240
I1221 00:09:30.920660 14598 layer_factory.hpp:77] Creating layer conv_4a_proj
I1221 00:09:30.920683 14598 net.cpp:100] Creating Layer conv_4a_proj
I1221 00:09:30.920699 14598 net.cpp:434] conv_4a_proj <- ave_pool_4a_pool
I1221 00:09:30.920717 14598 net.cpp:408] conv_4a_proj -> conv_4a_proj
I1221 00:09:30.921154 14598 net.cpp:150] Setting up conv_4a_proj
I1221 00:09:30.921188 14598 net.cpp:157] Top shape: 30 128 14 14 (752640)
I1221 00:09:30.921205 14598 net.cpp:165] Memory required for data: 2800573800
I1221 00:09:30.921223 14598 layer_factory.hpp:77] Creating layer bn_4a_proj
I1221 00:09:30.921289 14598 net.cpp:100] Creating Layer bn_4a_proj
I1221 00:09:30.921309 14598 net.cpp:434] bn_4a_proj <- conv_4a_proj
I1221 00:09:30.921327 14598 net.cpp:395] bn_4a_proj -> conv_4a_proj (in-place)
I1221 00:09:30.921591 14598 net.cpp:150] Setting up bn_4a_proj
I1221 00:09:30.921622 14598 net.cpp:157] Top shape: 30 128 14 14 (752640)
I1221 00:09:30.921636 14598 net.cpp:165] Memory required for data: 2803584360
I1221 00:09:30.921658 14598 layer_factory.hpp:77] Creating layer scale_conv_4a_proj
I1221 00:09:30.921676 14598 net.cpp:100] Creating Layer scale_conv_4a_proj
I1221 00:09:30.921690 14598 net.cpp:434] scale_conv_4a_proj <- conv_4a_proj
I1221 00:09:30.921710 14598 net.cpp:395] scale_conv_4a_proj -> conv_4a_proj (in-place)
I1221 00:09:30.921784 14598 layer_factory.hpp:77] Creating layer scale_conv_4a_proj
I1221 00:09:30.921952 14598 net.cpp:150] Setting up scale_conv_4a_proj
I1221 00:09:30.921978 14598 net.cpp:157] Top shape: 30 128 14 14 (752640)
I1221 00:09:30.921993 14598 net.cpp:165] Memory required for data: 2806594920
I1221 00:09:30.922011 14598 layer_factory.hpp:77] Creating layer relu_4a_proj
I1221 00:09:30.922031 14598 net.cpp:100] Creating Layer relu_4a_proj
I1221 00:09:30.922047 14598 net.cpp:434] relu_4a_proj <- conv_4a_proj
I1221 00:09:30.922062 14598 net.cpp:395] relu_4a_proj -> conv_4a_proj (in-place)
I1221 00:09:30.922080 14598 net.cpp:150] Setting up relu_4a_proj
I1221 00:09:30.922097 14598 net.cpp:157] Top shape: 30 128 14 14 (752640)
I1221 00:09:30.922111 14598 net.cpp:165] Memory required for data: 2809605480
I1221 00:09:30.922124 14598 layer_factory.hpp:77] Creating layer ch_concat_4a_chconcat
I1221 00:09:30.922144 14598 net.cpp:100] Creating Layer ch_concat_4a_chconcat
I1221 00:09:30.922159 14598 net.cpp:434] ch_concat_4a_chconcat <- conv_4a_1x1
I1221 00:09:30.922174 14598 net.cpp:434] ch_concat_4a_chconcat <- conv_4a_3x3
I1221 00:09:30.922199 14598 net.cpp:434] ch_concat_4a_chconcat <- conv_4a_double_3x3_1
I1221 00:09:30.922214 14598 net.cpp:434] ch_concat_4a_chconcat <- conv_4a_proj
I1221 00:09:30.922232 14598 net.cpp:408] ch_concat_4a_chconcat -> ch_concat_4a_chconcat
I1221 00:09:30.922284 14598 net.cpp:150] Setting up ch_concat_4a_chconcat
I1221 00:09:30.922307 14598 net.cpp:157] Top shape: 30 576 14 14 (3386880)
I1221 00:09:30.922322 14598 net.cpp:165] Memory required for data: 2823153000
I1221 00:09:30.922334 14598 layer_factory.hpp:77] Creating layer ch_concat_4a_chconcat_ch_concat_4a_chconcat_0_split
I1221 00:09:30.922353 14598 net.cpp:100] Creating Layer ch_concat_4a_chconcat_ch_concat_4a_chconcat_0_split
I1221 00:09:30.922368 14598 net.cpp:434] ch_concat_4a_chconcat_ch_concat_4a_chconcat_0_split <- ch_concat_4a_chconcat
I1221 00:09:30.922394 14598 net.cpp:408] ch_concat_4a_chconcat_ch_concat_4a_chconcat_0_split -> ch_concat_4a_chconcat_ch_concat_4a_chconcat_0_split_0
I1221 00:09:30.922417 14598 net.cpp:408] ch_concat_4a_chconcat_ch_concat_4a_chconcat_0_split -> ch_concat_4a_chconcat_ch_concat_4a_chconcat_0_split_1
I1221 00:09:30.922442 14598 net.cpp:408] ch_concat_4a_chconcat_ch_concat_4a_chconcat_0_split -> ch_concat_4a_chconcat_ch_concat_4a_chconcat_0_split_2
I1221 00:09:30.922464 14598 net.cpp:408] ch_concat_4a_chconcat_ch_concat_4a_chconcat_0_split -> ch_concat_4a_chconcat_ch_concat_4a_chconcat_0_split_3
I1221 00:09:30.922559 14598 net.cpp:150] Setting up ch_concat_4a_chconcat_ch_concat_4a_chconcat_0_split
I1221 00:09:30.922582 14598 net.cpp:157] Top shape: 30 576 14 14 (3386880)
I1221 00:09:30.922598 14598 net.cpp:157] Top shape: 30 576 14 14 (3386880)
I1221 00:09:30.922615 14598 net.cpp:157] Top shape: 30 576 14 14 (3386880)
I1221 00:09:30.922628 14598 net.cpp:157] Top shape: 30 576 14 14 (3386880)
I1221 00:09:30.922641 14598 net.cpp:165] Memory required for data: 2877343080
I1221 00:09:30.922654 14598 layer_factory.hpp:77] Creating layer conv_4b_1x1
I1221 00:09:30.922677 14598 net.cpp:100] Creating Layer conv_4b_1x1
I1221 00:09:30.922693 14598 net.cpp:434] conv_4b_1x1 <- ch_concat_4a_chconcat_ch_concat_4a_chconcat_0_split_0
I1221 00:09:30.922714 14598 net.cpp:408] conv_4b_1x1 -> conv_4b_1x1
I1221 00:09:30.923868 14598 net.cpp:150] Setting up conv_4b_1x1
I1221 00:09:30.923899 14598 net.cpp:157] Top shape: 30 192 14 14 (1128960)
I1221 00:09:30.923914 14598 net.cpp:165] Memory required for data: 2881858920
I1221 00:09:30.923933 14598 layer_factory.hpp:77] Creating layer bn_4b_1x1
I1221 00:09:30.923951 14598 net.cpp:100] Creating Layer bn_4b_1x1
I1221 00:09:30.923965 14598 net.cpp:434] bn_4b_1x1 <- conv_4b_1x1
I1221 00:09:30.923985 14598 net.cpp:395] bn_4b_1x1 -> conv_4b_1x1 (in-place)
I1221 00:09:30.924271 14598 net.cpp:150] Setting up bn_4b_1x1
I1221 00:09:30.924299 14598 net.cpp:157] Top shape: 30 192 14 14 (1128960)
I1221 00:09:30.924312 14598 net.cpp:165] Memory required for data: 2886374760
I1221 00:09:30.924334 14598 layer_factory.hpp:77] Creating layer scale_conv_4b_1x1
I1221 00:09:30.924352 14598 net.cpp:100] Creating Layer scale_conv_4b_1x1
I1221 00:09:30.924366 14598 net.cpp:434] scale_conv_4b_1x1 <- conv_4b_1x1
I1221 00:09:30.924387 14598 net.cpp:395] scale_conv_4b_1x1 -> conv_4b_1x1 (in-place)
I1221 00:09:30.924455 14598 layer_factory.hpp:77] Creating layer scale_conv_4b_1x1
I1221 00:09:30.924644 14598 net.cpp:150] Setting up scale_conv_4b_1x1
I1221 00:09:30.924671 14598 net.cpp:157] Top shape: 30 192 14 14 (1128960)
I1221 00:09:30.924685 14598 net.cpp:165] Memory required for data: 2890890600
I1221 00:09:30.924703 14598 layer_factory.hpp:77] Creating layer relu_4b_1x1
I1221 00:09:30.924721 14598 net.cpp:100] Creating Layer relu_4b_1x1
I1221 00:09:30.924734 14598 net.cpp:434] relu_4b_1x1 <- conv_4b_1x1
I1221 00:09:30.924754 14598 net.cpp:395] relu_4b_1x1 -> conv_4b_1x1 (in-place)
I1221 00:09:30.924774 14598 net.cpp:150] Setting up relu_4b_1x1
I1221 00:09:30.924792 14598 net.cpp:157] Top shape: 30 192 14 14 (1128960)
I1221 00:09:30.924804 14598 net.cpp:165] Memory required for data: 2895406440
I1221 00:09:30.924818 14598 layer_factory.hpp:77] Creating layer conv_4b_3x3_reduce
I1221 00:09:30.924841 14598 net.cpp:100] Creating Layer conv_4b_3x3_reduce
I1221 00:09:30.924856 14598 net.cpp:434] conv_4b_3x3_reduce <- ch_concat_4a_chconcat_ch_concat_4a_chconcat_0_split_1
I1221 00:09:30.924875 14598 net.cpp:408] conv_4b_3x3_reduce -> conv_4b_3x3_reduce
I1221 00:09:30.925266 14598 net.cpp:150] Setting up conv_4b_3x3_reduce
I1221 00:09:30.925293 14598 net.cpp:157] Top shape: 30 96 14 14 (564480)
I1221 00:09:30.925308 14598 net.cpp:165] Memory required for data: 2897664360
I1221 00:09:30.925326 14598 layer_factory.hpp:77] Creating layer bn_4b_3x3_reduce
I1221 00:09:30.925348 14598 net.cpp:100] Creating Layer bn_4b_3x3_reduce
I1221 00:09:30.925366 14598 net.cpp:434] bn_4b_3x3_reduce <- conv_4b_3x3_reduce
I1221 00:09:30.925393 14598 net.cpp:395] bn_4b_3x3_reduce -> conv_4b_3x3_reduce (in-place)
I1221 00:09:30.925693 14598 net.cpp:150] Setting up bn_4b_3x3_reduce
I1221 00:09:30.925721 14598 net.cpp:157] Top shape: 30 96 14 14 (564480)
I1221 00:09:30.925736 14598 net.cpp:165] Memory required for data: 2899922280
I1221 00:09:30.925757 14598 layer_factory.hpp:77] Creating layer scale_conv_4b_3x3_reduce
I1221 00:09:30.925776 14598 net.cpp:100] Creating Layer scale_conv_4b_3x3_reduce
I1221 00:09:30.925791 14598 net.cpp:434] scale_conv_4b_3x3_reduce <- conv_4b_3x3_reduce
I1221 00:09:30.925812 14598 net.cpp:395] scale_conv_4b_3x3_reduce -> conv_4b_3x3_reduce (in-place)
I1221 00:09:30.925884 14598 layer_factory.hpp:77] Creating layer scale_conv_4b_3x3_reduce
I1221 00:09:30.926061 14598 net.cpp:150] Setting up scale_conv_4b_3x3_reduce
I1221 00:09:30.926089 14598 net.cpp:157] Top shape: 30 96 14 14 (564480)
I1221 00:09:30.926101 14598 net.cpp:165] Memory required for data: 2902180200
I1221 00:09:30.926120 14598 layer_factory.hpp:77] Creating layer relu_4b_3x3_reduce
I1221 00:09:30.926136 14598 net.cpp:100] Creating Layer relu_4b_3x3_reduce
I1221 00:09:30.926151 14598 net.cpp:434] relu_4b_3x3_reduce <- conv_4b_3x3_reduce
I1221 00:09:30.926172 14598 net.cpp:395] relu_4b_3x3_reduce -> conv_4b_3x3_reduce (in-place)
I1221 00:09:30.926203 14598 net.cpp:150] Setting up relu_4b_3x3_reduce
I1221 00:09:30.926221 14598 net.cpp:157] Top shape: 30 96 14 14 (564480)
I1221 00:09:30.926235 14598 net.cpp:165] Memory required for data: 2904438120
I1221 00:09:30.926249 14598 layer_factory.hpp:77] Creating layer conv_4b_3x3
I1221 00:09:30.926271 14598 net.cpp:100] Creating Layer conv_4b_3x3
I1221 00:09:30.926286 14598 net.cpp:434] conv_4b_3x3 <- conv_4b_3x3_reduce
I1221 00:09:30.926304 14598 net.cpp:408] conv_4b_3x3 -> conv_4b_3x3
I1221 00:09:30.926736 14598 net.cpp:150] Setting up conv_4b_3x3
I1221 00:09:30.926765 14598 net.cpp:157] Top shape: 30 128 14 14 (752640)
I1221 00:09:30.926779 14598 net.cpp:165] Memory required for data: 2907448680
I1221 00:09:30.926798 14598 layer_factory.hpp:77] Creating layer bn_4b_3x3
I1221 00:09:30.926820 14598 net.cpp:100] Creating Layer bn_4b_3x3
I1221 00:09:30.926836 14598 net.cpp:434] bn_4b_3x3 <- conv_4b_3x3
I1221 00:09:30.926851 14598 net.cpp:395] bn_4b_3x3 -> conv_4b_3x3 (in-place)
I1221 00:09:30.927114 14598 net.cpp:150] Setting up bn_4b_3x3
I1221 00:09:30.927139 14598 net.cpp:157] Top shape: 30 128 14 14 (752640)
I1221 00:09:30.927152 14598 net.cpp:165] Memory required for data: 2910459240
I1221 00:09:30.927173 14598 layer_factory.hpp:77] Creating layer scale_conv_4b_3x3
I1221 00:09:30.927201 14598 net.cpp:100] Creating Layer scale_conv_4b_3x3
I1221 00:09:30.927217 14598 net.cpp:434] scale_conv_4b_3x3 <- conv_4b_3x3
I1221 00:09:30.927234 14598 net.cpp:395] scale_conv_4b_3x3 -> conv_4b_3x3 (in-place)
I1221 00:09:30.927323 14598 layer_factory.hpp:77] Creating layer scale_conv_4b_3x3
I1221 00:09:30.927500 14598 net.cpp:150] Setting up scale_conv_4b_3x3
I1221 00:09:30.927526 14598 net.cpp:157] Top shape: 30 128 14 14 (752640)
I1221 00:09:30.927539 14598 net.cpp:165] Memory required for data: 2913469800
I1221 00:09:30.927558 14598 layer_factory.hpp:77] Creating layer relu_4b_3x3
I1221 00:09:30.927575 14598 net.cpp:100] Creating Layer relu_4b_3x3
I1221 00:09:30.927589 14598 net.cpp:434] relu_4b_3x3 <- conv_4b_3x3
I1221 00:09:30.927613 14598 net.cpp:395] relu_4b_3x3 -> conv_4b_3x3 (in-place)
I1221 00:09:30.927634 14598 net.cpp:150] Setting up relu_4b_3x3
I1221 00:09:30.927650 14598 net.cpp:157] Top shape: 30 128 14 14 (752640)
I1221 00:09:30.927664 14598 net.cpp:165] Memory required for data: 2916480360
I1221 00:09:30.927676 14598 layer_factory.hpp:77] Creating layer conv_4b_double_3x3_reduce
I1221 00:09:30.927700 14598 net.cpp:100] Creating Layer conv_4b_double_3x3_reduce
I1221 00:09:30.927716 14598 net.cpp:434] conv_4b_double_3x3_reduce <- ch_concat_4a_chconcat_ch_concat_4a_chconcat_0_split_2
I1221 00:09:30.927734 14598 net.cpp:408] conv_4b_double_3x3_reduce -> conv_4b_double_3x3_reduce
I1221 00:09:30.930574 14598 net.cpp:150] Setting up conv_4b_double_3x3_reduce
I1221 00:09:30.930606 14598 net.cpp:157] Top shape: 30 96 14 14 (564480)
I1221 00:09:30.930620 14598 net.cpp:165] Memory required for data: 2918738280
I1221 00:09:30.930639 14598 layer_factory.hpp:77] Creating layer bn_4b_double_3x3_reduce
I1221 00:09:30.930662 14598 net.cpp:100] Creating Layer bn_4b_double_3x3_reduce
I1221 00:09:30.930678 14598 net.cpp:434] bn_4b_double_3x3_reduce <- conv_4b_double_3x3_reduce
I1221 00:09:30.930696 14598 net.cpp:395] bn_4b_double_3x3_reduce -> conv_4b_double_3x3_reduce (in-place)
I1221 00:09:30.930975 14598 net.cpp:150] Setting up bn_4b_double_3x3_reduce
I1221 00:09:30.930999 14598 net.cpp:157] Top shape: 30 96 14 14 (564480)
I1221 00:09:30.931013 14598 net.cpp:165] Memory required for data: 2920996200
I1221 00:09:30.931033 14598 layer_factory.hpp:77] Creating layer scale_conv_4b_double_3x3_reduce
I1221 00:09:30.931056 14598 net.cpp:100] Creating Layer scale_conv_4b_double_3x3_reduce
I1221 00:09:30.931071 14598 net.cpp:434] scale_conv_4b_double_3x3_reduce <- conv_4b_double_3x3_reduce
I1221 00:09:30.931087 14598 net.cpp:395] scale_conv_4b_double_3x3_reduce -> conv_4b_double_3x3_reduce (in-place)
I1221 00:09:30.931161 14598 layer_factory.hpp:77] Creating layer scale_conv_4b_double_3x3_reduce
I1221 00:09:30.931375 14598 net.cpp:150] Setting up scale_conv_4b_double_3x3_reduce
I1221 00:09:30.931401 14598 net.cpp:157] Top shape: 30 96 14 14 (564480)
I1221 00:09:30.931414 14598 net.cpp:165] Memory required for data: 2923254120
I1221 00:09:30.931434 14598 layer_factory.hpp:77] Creating layer relu_4b_double_3x3_reduce
I1221 00:09:30.931453 14598 net.cpp:100] Creating Layer relu_4b_double_3x3_reduce
I1221 00:09:30.931470 14598 net.cpp:434] relu_4b_double_3x3_reduce <- conv_4b_double_3x3_reduce
I1221 00:09:30.931494 14598 net.cpp:395] relu_4b_double_3x3_reduce -> conv_4b_double_3x3_reduce (in-place)
I1221 00:09:30.931514 14598 net.cpp:150] Setting up relu_4b_double_3x3_reduce
I1221 00:09:30.931531 14598 net.cpp:157] Top shape: 30 96 14 14 (564480)
I1221 00:09:30.931545 14598 net.cpp:165] Memory required for data: 2925512040
I1221 00:09:30.931558 14598 layer_factory.hpp:77] Creating layer conv_4b_double_3x3_0
I1221 00:09:30.931579 14598 net.cpp:100] Creating Layer conv_4b_double_3x3_0
I1221 00:09:30.931594 14598 net.cpp:434] conv_4b_double_3x3_0 <- conv_4b_double_3x3_reduce
I1221 00:09:30.931617 14598 net.cpp:408] conv_4b_double_3x3_0 -> conv_4b_double_3x3_0
I1221 00:09:30.932775 14598 net.cpp:150] Setting up conv_4b_double_3x3_0
I1221 00:09:30.932806 14598 net.cpp:157] Top shape: 30 128 14 14 (752640)
I1221 00:09:30.932819 14598 net.cpp:165] Memory required for data: 2928522600
I1221 00:09:30.932838 14598 layer_factory.hpp:77] Creating layer bn_4b_double_3x3_0
I1221 00:09:30.932857 14598 net.cpp:100] Creating Layer bn_4b_double_3x3_0
I1221 00:09:30.932876 14598 net.cpp:434] bn_4b_double_3x3_0 <- conv_4b_double_3x3_0
I1221 00:09:30.932893 14598 net.cpp:395] bn_4b_double_3x3_0 -> conv_4b_double_3x3_0 (in-place)
I1221 00:09:30.933153 14598 net.cpp:150] Setting up bn_4b_double_3x3_0
I1221 00:09:30.933177 14598 net.cpp:157] Top shape: 30 128 14 14 (752640)
I1221 00:09:30.933197 14598 net.cpp:165] Memory required for data: 2931533160
I1221 00:09:30.933219 14598 layer_factory.hpp:77] Creating layer scale_conv_4b_double_3x3_0
I1221 00:09:30.933243 14598 net.cpp:100] Creating Layer scale_conv_4b_double_3x3_0
I1221 00:09:30.933259 14598 net.cpp:434] scale_conv_4b_double_3x3_0 <- conv_4b_double_3x3_0
I1221 00:09:30.933274 14598 net.cpp:395] scale_conv_4b_double_3x3_0 -> conv_4b_double_3x3_0 (in-place)
I1221 00:09:30.933362 14598 layer_factory.hpp:77] Creating layer scale_conv_4b_double_3x3_0
I1221 00:09:30.933562 14598 net.cpp:150] Setting up scale_conv_4b_double_3x3_0
I1221 00:09:30.933586 14598 net.cpp:157] Top shape: 30 128 14 14 (752640)
I1221 00:09:30.933599 14598 net.cpp:165] Memory required for data: 2934543720
I1221 00:09:30.933619 14598 layer_factory.hpp:77] Creating layer relu_4b_double_3x3_0
I1221 00:09:30.933655 14598 net.cpp:100] Creating Layer relu_4b_double_3x3_0
I1221 00:09:30.933671 14598 net.cpp:434] relu_4b_double_3x3_0 <- conv_4b_double_3x3_0
I1221 00:09:30.933687 14598 net.cpp:395] relu_4b_double_3x3_0 -> conv_4b_double_3x3_0 (in-place)
I1221 00:09:30.933706 14598 net.cpp:150] Setting up relu_4b_double_3x3_0
I1221 00:09:30.933723 14598 net.cpp:157] Top shape: 30 128 14 14 (752640)
I1221 00:09:30.933737 14598 net.cpp:165] Memory required for data: 2937554280
I1221 00:09:30.933750 14598 layer_factory.hpp:77] Creating layer conv_4b_double_3x3_1
I1221 00:09:30.933773 14598 net.cpp:100] Creating Layer conv_4b_double_3x3_1
I1221 00:09:30.933789 14598 net.cpp:434] conv_4b_double_3x3_1 <- conv_4b_double_3x3_0
I1221 00:09:30.933822 14598 net.cpp:408] conv_4b_double_3x3_1 -> conv_4b_double_3x3_1
I1221 00:09:30.934311 14598 net.cpp:150] Setting up conv_4b_double_3x3_1
I1221 00:09:30.934337 14598 net.cpp:157] Top shape: 30 128 14 14 (752640)
I1221 00:09:30.934350 14598 net.cpp:165] Memory required for data: 2940564840
I1221 00:09:30.934379 14598 layer_factory.hpp:77] Creating layer bn_4b_double_3x3_1
I1221 00:09:30.934406 14598 net.cpp:100] Creating Layer bn_4b_double_3x3_1
I1221 00:09:30.934420 14598 net.cpp:434] bn_4b_double_3x3_1 <- conv_4b_double_3x3_1
I1221 00:09:30.934437 14598 net.cpp:395] bn_4b_double_3x3_1 -> conv_4b_double_3x3_1 (in-place)
I1221 00:09:30.934710 14598 net.cpp:150] Setting up bn_4b_double_3x3_1
I1221 00:09:30.934736 14598 net.cpp:157] Top shape: 30 128 14 14 (752640)
I1221 00:09:30.934748 14598 net.cpp:165] Memory required for data: 2943575400
I1221 00:09:30.934769 14598 layer_factory.hpp:77] Creating layer scale_conv_4b_double_3x3_1
I1221 00:09:30.934787 14598 net.cpp:100] Creating Layer scale_conv_4b_double_3x3_1
I1221 00:09:30.934801 14598 net.cpp:434] scale_conv_4b_double_3x3_1 <- conv_4b_double_3x3_1
I1221 00:09:30.934818 14598 net.cpp:395] scale_conv_4b_double_3x3_1 -> conv_4b_double_3x3_1 (in-place)
I1221 00:09:30.934893 14598 layer_factory.hpp:77] Creating layer scale_conv_4b_double_3x3_1
I1221 00:09:30.935066 14598 net.cpp:150] Setting up scale_conv_4b_double_3x3_1
I1221 00:09:30.935089 14598 net.cpp:157] Top shape: 30 128 14 14 (752640)
I1221 00:09:30.935103 14598 net.cpp:165] Memory required for data: 2946585960
I1221 00:09:30.935122 14598 layer_factory.hpp:77] Creating layer relu_4b_double_3x3_1
I1221 00:09:30.935139 14598 net.cpp:100] Creating Layer relu_4b_double_3x3_1
I1221 00:09:30.935154 14598 net.cpp:434] relu_4b_double_3x3_1 <- conv_4b_double_3x3_1
I1221 00:09:30.935174 14598 net.cpp:395] relu_4b_double_3x3_1 -> conv_4b_double_3x3_1 (in-place)
I1221 00:09:30.935204 14598 net.cpp:150] Setting up relu_4b_double_3x3_1
I1221 00:09:30.935221 14598 net.cpp:157] Top shape: 30 128 14 14 (752640)
I1221 00:09:30.935235 14598 net.cpp:165] Memory required for data: 2949596520
I1221 00:09:30.935247 14598 layer_factory.hpp:77] Creating layer ave_pool_4b_pool
I1221 00:09:30.935266 14598 net.cpp:100] Creating Layer ave_pool_4b_pool
I1221 00:09:30.935279 14598 net.cpp:434] ave_pool_4b_pool <- ch_concat_4a_chconcat_ch_concat_4a_chconcat_0_split_3
I1221 00:09:30.935302 14598 net.cpp:408] ave_pool_4b_pool -> ave_pool_4b_pool
I1221 00:09:30.935355 14598 net.cpp:150] Setting up ave_pool_4b_pool
I1221 00:09:30.935390 14598 net.cpp:157] Top shape: 30 576 14 14 (3386880)
I1221 00:09:30.935415 14598 net.cpp:165] Memory required for data: 2963144040
I1221 00:09:30.935436 14598 layer_factory.hpp:77] Creating layer conv_4b_proj
I1221 00:09:30.935463 14598 net.cpp:100] Creating Layer conv_4b_proj
I1221 00:09:30.935479 14598 net.cpp:434] conv_4b_proj <- ave_pool_4b_pool
I1221 00:09:30.935503 14598 net.cpp:408] conv_4b_proj -> conv_4b_proj
I1221 00:09:30.935912 14598 net.cpp:150] Setting up conv_4b_proj
I1221 00:09:30.935938 14598 net.cpp:157] Top shape: 30 128 14 14 (752640)
I1221 00:09:30.935952 14598 net.cpp:165] Memory required for data: 2966154600
I1221 00:09:30.935971 14598 layer_factory.hpp:77] Creating layer bn_4b_proj
I1221 00:09:30.935988 14598 net.cpp:100] Creating Layer bn_4b_proj
I1221 00:09:30.936002 14598 net.cpp:434] bn_4b_proj <- conv_4b_proj
I1221 00:09:30.936033 14598 net.cpp:395] bn_4b_proj -> conv_4b_proj (in-place)
I1221 00:09:30.936317 14598 net.cpp:150] Setting up bn_4b_proj
I1221 00:09:30.936342 14598 net.cpp:157] Top shape: 30 128 14 14 (752640)
I1221 00:09:30.936355 14598 net.cpp:165] Memory required for data: 2969165160
I1221 00:09:30.936375 14598 layer_factory.hpp:77] Creating layer scale_conv_4b_proj
I1221 00:09:30.936394 14598 net.cpp:100] Creating Layer scale_conv_4b_proj
I1221 00:09:30.936409 14598 net.cpp:434] scale_conv_4b_proj <- conv_4b_proj
I1221 00:09:30.936426 14598 net.cpp:395] scale_conv_4b_proj -> conv_4b_proj (in-place)
I1221 00:09:30.936507 14598 layer_factory.hpp:77] Creating layer scale_conv_4b_proj
I1221 00:09:30.936682 14598 net.cpp:150] Setting up scale_conv_4b_proj
I1221 00:09:30.936707 14598 net.cpp:157] Top shape: 30 128 14 14 (752640)
I1221 00:09:30.936720 14598 net.cpp:165] Memory required for data: 2972175720
I1221 00:09:30.936738 14598 layer_factory.hpp:77] Creating layer relu_4b_proj
I1221 00:09:30.936755 14598 net.cpp:100] Creating Layer relu_4b_proj
I1221 00:09:30.936774 14598 net.cpp:434] relu_4b_proj <- conv_4b_proj
I1221 00:09:30.936790 14598 net.cpp:395] relu_4b_proj -> conv_4b_proj (in-place)
I1221 00:09:30.936808 14598 net.cpp:150] Setting up relu_4b_proj
I1221 00:09:30.936825 14598 net.cpp:157] Top shape: 30 128 14 14 (752640)
I1221 00:09:30.936838 14598 net.cpp:165] Memory required for data: 2975186280
I1221 00:09:30.936851 14598 layer_factory.hpp:77] Creating layer ch_concat_4b_chconcat
I1221 00:09:30.936867 14598 net.cpp:100] Creating Layer ch_concat_4b_chconcat
I1221 00:09:30.936882 14598 net.cpp:434] ch_concat_4b_chconcat <- conv_4b_1x1
I1221 00:09:30.936897 14598 net.cpp:434] ch_concat_4b_chconcat <- conv_4b_3x3
I1221 00:09:30.936911 14598 net.cpp:434] ch_concat_4b_chconcat <- conv_4b_double_3x3_1
I1221 00:09:30.936926 14598 net.cpp:434] ch_concat_4b_chconcat <- conv_4b_proj
I1221 00:09:30.936946 14598 net.cpp:408] ch_concat_4b_chconcat -> ch_concat_4b_chconcat
I1221 00:09:30.936995 14598 net.cpp:150] Setting up ch_concat_4b_chconcat
I1221 00:09:30.937021 14598 net.cpp:157] Top shape: 30 576 14 14 (3386880)
I1221 00:09:30.937036 14598 net.cpp:165] Memory required for data: 2988733800
I1221 00:09:30.937048 14598 layer_factory.hpp:77] Creating layer ch_concat_4b_chconcat_ch_concat_4b_chconcat_0_split
I1221 00:09:30.937067 14598 net.cpp:100] Creating Layer ch_concat_4b_chconcat_ch_concat_4b_chconcat_0_split
I1221 00:09:30.937081 14598 net.cpp:434] ch_concat_4b_chconcat_ch_concat_4b_chconcat_0_split <- ch_concat_4b_chconcat
I1221 00:09:30.937103 14598 net.cpp:408] ch_concat_4b_chconcat_ch_concat_4b_chconcat_0_split -> ch_concat_4b_chconcat_ch_concat_4b_chconcat_0_split_0
I1221 00:09:30.937125 14598 net.cpp:408] ch_concat_4b_chconcat_ch_concat_4b_chconcat_0_split -> ch_concat_4b_chconcat_ch_concat_4b_chconcat_0_split_1
I1221 00:09:30.937146 14598 net.cpp:408] ch_concat_4b_chconcat_ch_concat_4b_chconcat_0_split -> ch_concat_4b_chconcat_ch_concat_4b_chconcat_0_split_2
I1221 00:09:30.937167 14598 net.cpp:408] ch_concat_4b_chconcat_ch_concat_4b_chconcat_0_split -> ch_concat_4b_chconcat_ch_concat_4b_chconcat_0_split_3
I1221 00:09:30.937273 14598 net.cpp:150] Setting up ch_concat_4b_chconcat_ch_concat_4b_chconcat_0_split
I1221 00:09:30.937296 14598 net.cpp:157] Top shape: 30 576 14 14 (3386880)
I1221 00:09:30.937312 14598 net.cpp:157] Top shape: 30 576 14 14 (3386880)
I1221 00:09:30.937326 14598 net.cpp:157] Top shape: 30 576 14 14 (3386880)
I1221 00:09:30.937341 14598 net.cpp:157] Top shape: 30 576 14 14 (3386880)
I1221 00:09:30.937353 14598 net.cpp:165] Memory required for data: 3042923880
I1221 00:09:30.937367 14598 layer_factory.hpp:77] Creating layer conv_4c_1x1
I1221 00:09:30.937391 14598 net.cpp:100] Creating Layer conv_4c_1x1
I1221 00:09:30.937407 14598 net.cpp:434] conv_4c_1x1 <- ch_concat_4b_chconcat_ch_concat_4b_chconcat_0_split_0
I1221 00:09:30.937424 14598 net.cpp:408] conv_4c_1x1 -> conv_4c_1x1
I1221 00:09:30.938565 14598 net.cpp:150] Setting up conv_4c_1x1
I1221 00:09:30.938602 14598 net.cpp:157] Top shape: 30 160 14 14 (940800)
I1221 00:09:30.938621 14598 net.cpp:165] Memory required for data: 3046687080
I1221 00:09:30.938647 14598 layer_factory.hpp:77] Creating layer bn_4c_1x1
I1221 00:09:30.938671 14598 net.cpp:100] Creating Layer bn_4c_1x1
I1221 00:09:30.938688 14598 net.cpp:434] bn_4c_1x1 <- conv_4c_1x1
I1221 00:09:30.938704 14598 net.cpp:395] bn_4c_1x1 -> conv_4c_1x1 (in-place)
I1221 00:09:30.939002 14598 net.cpp:150] Setting up bn_4c_1x1
I1221 00:09:30.939028 14598 net.cpp:157] Top shape: 30 160 14 14 (940800)
I1221 00:09:30.939041 14598 net.cpp:165] Memory required for data: 3050450280
I1221 00:09:30.939118 14598 layer_factory.hpp:77] Creating layer scale_conv_4c_1x1
I1221 00:09:30.939146 14598 net.cpp:100] Creating Layer scale_conv_4c_1x1
I1221 00:09:30.939162 14598 net.cpp:434] scale_conv_4c_1x1 <- conv_4c_1x1
I1221 00:09:30.939179 14598 net.cpp:395] scale_conv_4c_1x1 -> conv_4c_1x1 (in-place)
I1221 00:09:30.939266 14598 layer_factory.hpp:77] Creating layer scale_conv_4c_1x1
I1221 00:09:30.939452 14598 net.cpp:150] Setting up scale_conv_4c_1x1
I1221 00:09:30.939479 14598 net.cpp:157] Top shape: 30 160 14 14 (940800)
I1221 00:09:30.939493 14598 net.cpp:165] Memory required for data: 3054213480
I1221 00:09:30.939512 14598 layer_factory.hpp:77] Creating layer relu_4c_1x1
I1221 00:09:30.939529 14598 net.cpp:100] Creating Layer relu_4c_1x1
I1221 00:09:30.939543 14598 net.cpp:434] relu_4c_1x1 <- conv_4c_1x1
I1221 00:09:30.939563 14598 net.cpp:395] relu_4c_1x1 -> conv_4c_1x1 (in-place)
I1221 00:09:30.939582 14598 net.cpp:150] Setting up relu_4c_1x1
I1221 00:09:30.939599 14598 net.cpp:157] Top shape: 30 160 14 14 (940800)
I1221 00:09:30.939612 14598 net.cpp:165] Memory required for data: 3057976680
I1221 00:09:30.939625 14598 layer_factory.hpp:77] Creating layer conv_4c_3x3_reduce
I1221 00:09:30.939646 14598 net.cpp:100] Creating Layer conv_4c_3x3_reduce
I1221 00:09:30.939659 14598 net.cpp:434] conv_4c_3x3_reduce <- ch_concat_4b_chconcat_ch_concat_4b_chconcat_0_split_1
I1221 00:09:30.939687 14598 net.cpp:408] conv_4c_3x3_reduce -> conv_4c_3x3_reduce
I1221 00:09:30.940091 14598 net.cpp:150] Setting up conv_4c_3x3_reduce
I1221 00:09:30.940122 14598 net.cpp:157] Top shape: 30 128 14 14 (752640)
I1221 00:09:30.940136 14598 net.cpp:165] Memory required for data: 3060987240
I1221 00:09:30.940155 14598 layer_factory.hpp:77] Creating layer bn_4c_3x3_reduce
I1221 00:09:30.940172 14598 net.cpp:100] Creating Layer bn_4c_3x3_reduce
I1221 00:09:30.940196 14598 net.cpp:434] bn_4c_3x3_reduce <- conv_4c_3x3_reduce
I1221 00:09:30.940218 14598 net.cpp:395] bn_4c_3x3_reduce -> conv_4c_3x3_reduce (in-place)
I1221 00:09:30.940496 14598 net.cpp:150] Setting up bn_4c_3x3_reduce
I1221 00:09:30.940523 14598 net.cpp:157] Top shape: 30 128 14 14 (752640)
I1221 00:09:30.940537 14598 net.cpp:165] Memory required for data: 3063997800
I1221 00:09:30.940558 14598 layer_factory.hpp:77] Creating layer scale_conv_4c_3x3_reduce
I1221 00:09:30.940577 14598 net.cpp:100] Creating Layer scale_conv_4c_3x3_reduce
I1221 00:09:30.940592 14598 net.cpp:434] scale_conv_4c_3x3_reduce <- conv_4c_3x3_reduce
I1221 00:09:30.940608 14598 net.cpp:395] scale_conv_4c_3x3_reduce -> conv_4c_3x3_reduce (in-place)
I1221 00:09:30.940685 14598 layer_factory.hpp:77] Creating layer scale_conv_4c_3x3_reduce
I1221 00:09:30.940889 14598 net.cpp:150] Setting up scale_conv_4c_3x3_reduce
I1221 00:09:30.940919 14598 net.cpp:157] Top shape: 30 128 14 14 (752640)
I1221 00:09:30.940933 14598 net.cpp:165] Memory required for data: 3067008360
I1221 00:09:30.940953 14598 layer_factory.hpp:77] Creating layer relu_4c_3x3_reduce
I1221 00:09:30.940974 14598 net.cpp:100] Creating Layer relu_4c_3x3_reduce
I1221 00:09:30.940989 14598 net.cpp:434] relu_4c_3x3_reduce <- conv_4c_3x3_reduce
I1221 00:09:30.941005 14598 net.cpp:395] relu_4c_3x3_reduce -> conv_4c_3x3_reduce (in-place)
I1221 00:09:30.941025 14598 net.cpp:150] Setting up relu_4c_3x3_reduce
I1221 00:09:30.941042 14598 net.cpp:157] Top shape: 30 128 14 14 (752640)
I1221 00:09:30.941056 14598 net.cpp:165] Memory required for data: 3070018920
I1221 00:09:30.941077 14598 layer_factory.hpp:77] Creating layer conv_4c_3x3
I1221 00:09:30.941102 14598 net.cpp:100] Creating Layer conv_4c_3x3
I1221 00:09:30.941118 14598 net.cpp:434] conv_4c_3x3 <- conv_4c_3x3_reduce
I1221 00:09:30.941148 14598 net.cpp:408] conv_4c_3x3 -> conv_4c_3x3
I1221 00:09:30.942363 14598 net.cpp:150] Setting up conv_4c_3x3
I1221 00:09:30.942395 14598 net.cpp:157] Top shape: 30 160 14 14 (940800)
I1221 00:09:30.942409 14598 net.cpp:165] Memory required for data: 3073782120
I1221 00:09:30.942428 14598 layer_factory.hpp:77] Creating layer bn_4c_3x3
I1221 00:09:30.942450 14598 net.cpp:100] Creating Layer bn_4c_3x3
I1221 00:09:30.942466 14598 net.cpp:434] bn_4c_3x3 <- conv_4c_3x3
I1221 00:09:30.942482 14598 net.cpp:395] bn_4c_3x3 -> conv_4c_3x3 (in-place)
I1221 00:09:30.942770 14598 net.cpp:150] Setting up bn_4c_3x3
I1221 00:09:30.942796 14598 net.cpp:157] Top shape: 30 160 14 14 (940800)
I1221 00:09:30.942811 14598 net.cpp:165] Memory required for data: 3077545320
I1221 00:09:30.942833 14598 layer_factory.hpp:77] Creating layer scale_conv_4c_3x3
I1221 00:09:30.942852 14598 net.cpp:100] Creating Layer scale_conv_4c_3x3
I1221 00:09:30.942867 14598 net.cpp:434] scale_conv_4c_3x3 <- conv_4c_3x3
I1221 00:09:30.942898 14598 net.cpp:395] scale_conv_4c_3x3 -> conv_4c_3x3 (in-place)
I1221 00:09:30.942982 14598 layer_factory.hpp:77] Creating layer scale_conv_4c_3x3
I1221 00:09:30.943194 14598 net.cpp:150] Setting up scale_conv_4c_3x3
I1221 00:09:30.943220 14598 net.cpp:157] Top shape: 30 160 14 14 (940800)
I1221 00:09:30.943234 14598 net.cpp:165] Memory required for data: 3081308520
I1221 00:09:30.943253 14598 layer_factory.hpp:77] Creating layer relu_4c_3x3
I1221 00:09:30.943271 14598 net.cpp:100] Creating Layer relu_4c_3x3
I1221 00:09:30.943285 14598 net.cpp:434] relu_4c_3x3 <- conv_4c_3x3
I1221 00:09:30.943305 14598 net.cpp:395] relu_4c_3x3 -> conv_4c_3x3 (in-place)
I1221 00:09:30.943325 14598 net.cpp:150] Setting up relu_4c_3x3
I1221 00:09:30.943342 14598 net.cpp:157] Top shape: 30 160 14 14 (940800)
I1221 00:09:30.943356 14598 net.cpp:165] Memory required for data: 3085071720
I1221 00:09:30.943368 14598 layer_factory.hpp:77] Creating layer conv_4c_double_3x3_reduce
I1221 00:09:30.943392 14598 net.cpp:100] Creating Layer conv_4c_double_3x3_reduce
I1221 00:09:30.943408 14598 net.cpp:434] conv_4c_double_3x3_reduce <- ch_concat_4b_chconcat_ch_concat_4b_chconcat_0_split_2
I1221 00:09:30.943426 14598 net.cpp:408] conv_4c_double_3x3_reduce -> conv_4c_double_3x3_reduce
I1221 00:09:30.943825 14598 net.cpp:150] Setting up conv_4c_double_3x3_reduce
I1221 00:09:30.943851 14598 net.cpp:157] Top shape: 30 128 14 14 (752640)
I1221 00:09:30.943866 14598 net.cpp:165] Memory required for data: 3088082280
I1221 00:09:30.943883 14598 layer_factory.hpp:77] Creating layer bn_4c_double_3x3_reduce
I1221 00:09:30.943917 14598 net.cpp:100] Creating Layer bn_4c_double_3x3_reduce
I1221 00:09:30.943934 14598 net.cpp:434] bn_4c_double_3x3_reduce <- conv_4c_double_3x3_reduce
I1221 00:09:30.943964 14598 net.cpp:395] bn_4c_double_3x3_reduce -> conv_4c_double_3x3_reduce (in-place)
I1221 00:09:30.944255 14598 net.cpp:150] Setting up bn_4c_double_3x3_reduce
I1221 00:09:30.944280 14598 net.cpp:157] Top shape: 30 128 14 14 (752640)
I1221 00:09:30.944293 14598 net.cpp:165] Memory required for data: 3091092840
I1221 00:09:30.944314 14598 layer_factory.hpp:77] Creating layer scale_conv_4c_double_3x3_reduce
I1221 00:09:30.944337 14598 net.cpp:100] Creating Layer scale_conv_4c_double_3x3_reduce
I1221 00:09:30.944353 14598 net.cpp:434] scale_conv_4c_double_3x3_reduce <- conv_4c_double_3x3_reduce
I1221 00:09:30.944370 14598 net.cpp:395] scale_conv_4c_double_3x3_reduce -> conv_4c_double_3x3_reduce (in-place)
I1221 00:09:30.944444 14598 layer_factory.hpp:77] Creating layer scale_conv_4c_double_3x3_reduce
I1221 00:09:30.944627 14598 net.cpp:150] Setting up scale_conv_4c_double_3x3_reduce
I1221 00:09:30.944651 14598 net.cpp:157] Top shape: 30 128 14 14 (752640)
I1221 00:09:30.944665 14598 net.cpp:165] Memory required for data: 3094103400
I1221 00:09:30.944694 14598 layer_factory.hpp:77] Creating layer relu_4c_double_3x3_reduce
I1221 00:09:30.944716 14598 net.cpp:100] Creating Layer relu_4c_double_3x3_reduce
I1221 00:09:30.944731 14598 net.cpp:434] relu_4c_double_3x3_reduce <- conv_4c_double_3x3_reduce
I1221 00:09:30.944748 14598 net.cpp:395] relu_4c_double_3x3_reduce -> conv_4c_double_3x3_reduce (in-place)
I1221 00:09:30.944772 14598 net.cpp:150] Setting up relu_4c_double_3x3_reduce
I1221 00:09:30.944792 14598 net.cpp:157] Top shape: 30 128 14 14 (752640)
I1221 00:09:30.944806 14598 net.cpp:165] Memory required for data: 3097113960
I1221 00:09:30.944819 14598 layer_factory.hpp:77] Creating layer conv_4c_double_3x3_0
I1221 00:09:30.944839 14598 net.cpp:100] Creating Layer conv_4c_double_3x3_0
I1221 00:09:30.944854 14598 net.cpp:434] conv_4c_double_3x3_0 <- conv_4c_double_3x3_reduce
I1221 00:09:30.944876 14598 net.cpp:408] conv_4c_double_3x3_0 -> conv_4c_double_3x3_0
I1221 00:09:30.946133 14598 net.cpp:150] Setting up conv_4c_double_3x3_0
I1221 00:09:30.946163 14598 net.cpp:157] Top shape: 30 160 14 14 (940800)
I1221 00:09:30.946177 14598 net.cpp:165] Memory required for data: 3100877160
I1221 00:09:30.946204 14598 layer_factory.hpp:77] Creating layer bn_4c_double_3x3_0
I1221 00:09:30.946228 14598 net.cpp:100] Creating Layer bn_4c_double_3x3_0
I1221 00:09:30.946244 14598 net.cpp:434] bn_4c_double_3x3_0 <- conv_4c_double_3x3_0
I1221 00:09:30.946264 14598 net.cpp:395] bn_4c_double_3x3_0 -> conv_4c_double_3x3_0 (in-place)
I1221 00:09:30.946552 14598 net.cpp:150] Setting up bn_4c_double_3x3_0
I1221 00:09:30.946576 14598 net.cpp:157] Top shape: 30 160 14 14 (940800)
I1221 00:09:30.946590 14598 net.cpp:165] Memory required for data: 3104640360
I1221 00:09:30.946610 14598 layer_factory.hpp:77] Creating layer scale_conv_4c_double_3x3_0
I1221 00:09:30.946630 14598 net.cpp:100] Creating Layer scale_conv_4c_double_3x3_0
I1221 00:09:30.946643 14598 net.cpp:434] scale_conv_4c_double_3x3_0 <- conv_4c_double_3x3_0
I1221 00:09:30.946660 14598 net.cpp:395] scale_conv_4c_double_3x3_0 -> conv_4c_double_3x3_0 (in-place)
I1221 00:09:30.946758 14598 layer_factory.hpp:77] Creating layer scale_conv_4c_double_3x3_0
I1221 00:09:30.946992 14598 net.cpp:150] Setting up scale_conv_4c_double_3x3_0
I1221 00:09:30.947017 14598 net.cpp:157] Top shape: 30 160 14 14 (940800)
I1221 00:09:30.947031 14598 net.cpp:165] Memory required for data: 3108403560
I1221 00:09:30.947051 14598 layer_factory.hpp:77] Creating layer relu_4c_double_3x3_0
I1221 00:09:30.947072 14598 net.cpp:100] Creating Layer relu_4c_double_3x3_0
I1221 00:09:30.947087 14598 net.cpp:434] relu_4c_double_3x3_0 <- conv_4c_double_3x3_0
I1221 00:09:30.947103 14598 net.cpp:395] relu_4c_double_3x3_0 -> conv_4c_double_3x3_0 (in-place)
I1221 00:09:30.947123 14598 net.cpp:150] Setting up relu_4c_double_3x3_0
I1221 00:09:30.947145 14598 net.cpp:157] Top shape: 30 160 14 14 (940800)
I1221 00:09:30.947170 14598 net.cpp:165] Memory required for data: 3112166760
I1221 00:09:30.947192 14598 layer_factory.hpp:77] Creating layer conv_4c_double_3x3_1
I1221 00:09:30.947218 14598 net.cpp:100] Creating Layer conv_4c_double_3x3_1
I1221 00:09:30.947234 14598 net.cpp:434] conv_4c_double_3x3_1 <- conv_4c_double_3x3_0
I1221 00:09:30.947253 14598 net.cpp:408] conv_4c_double_3x3_1 -> conv_4c_double_3x3_1
I1221 00:09:30.948506 14598 net.cpp:150] Setting up conv_4c_double_3x3_1
I1221 00:09:30.948542 14598 net.cpp:157] Top shape: 30 160 14 14 (940800)
I1221 00:09:30.948556 14598 net.cpp:165] Memory required for data: 3115929960
I1221 00:09:30.948575 14598 layer_factory.hpp:77] Creating layer bn_4c_double_3x3_1
I1221 00:09:30.948595 14598 net.cpp:100] Creating Layer bn_4c_double_3x3_1
I1221 00:09:30.948609 14598 net.cpp:434] bn_4c_double_3x3_1 <- conv_4c_double_3x3_1
I1221 00:09:30.948631 14598 net.cpp:395] bn_4c_double_3x3_1 -> conv_4c_double_3x3_1 (in-place)
I1221 00:09:30.948915 14598 net.cpp:150] Setting up bn_4c_double_3x3_1
I1221 00:09:30.948940 14598 net.cpp:157] Top shape: 30 160 14 14 (940800)
I1221 00:09:30.948956 14598 net.cpp:165] Memory required for data: 3119693160
I1221 00:09:30.948989 14598 layer_factory.hpp:77] Creating layer scale_conv_4c_double_3x3_1
I1221 00:09:30.949009 14598 net.cpp:100] Creating Layer scale_conv_4c_double_3x3_1
I1221 00:09:30.949023 14598 net.cpp:434] scale_conv_4c_double_3x3_1 <- conv_4c_double_3x3_1
I1221 00:09:30.949045 14598 net.cpp:395] scale_conv_4c_double_3x3_1 -> conv_4c_double_3x3_1 (in-place)
I1221 00:09:30.949121 14598 layer_factory.hpp:77] Creating layer scale_conv_4c_double_3x3_1
I1221 00:09:30.949331 14598 net.cpp:150] Setting up scale_conv_4c_double_3x3_1
I1221 00:09:30.949357 14598 net.cpp:157] Top shape: 30 160 14 14 (940800)
I1221 00:09:30.949369 14598 net.cpp:165] Memory required for data: 3123456360
I1221 00:09:30.949388 14598 layer_factory.hpp:77] Creating layer relu_4c_double_3x3_1
I1221 00:09:30.949409 14598 net.cpp:100] Creating Layer relu_4c_double_3x3_1
I1221 00:09:30.949425 14598 net.cpp:434] relu_4c_double_3x3_1 <- conv_4c_double_3x3_1
I1221 00:09:30.949442 14598 net.cpp:395] relu_4c_double_3x3_1 -> conv_4c_double_3x3_1 (in-place)
I1221 00:09:30.949461 14598 net.cpp:150] Setting up relu_4c_double_3x3_1
I1221 00:09:30.949502 14598 net.cpp:157] Top shape: 30 160 14 14 (940800)
I1221 00:09:30.949519 14598 net.cpp:165] Memory required for data: 3127219560
I1221 00:09:30.949533 14598 layer_factory.hpp:77] Creating layer ave_pool_4c_pool
I1221 00:09:30.949555 14598 net.cpp:100] Creating Layer ave_pool_4c_pool
I1221 00:09:30.949571 14598 net.cpp:434] ave_pool_4c_pool <- ch_concat_4b_chconcat_ch_concat_4b_chconcat_0_split_3
I1221 00:09:30.949590 14598 net.cpp:408] ave_pool_4c_pool -> ave_pool_4c_pool
I1221 00:09:30.949645 14598 net.cpp:150] Setting up ave_pool_4c_pool
I1221 00:09:30.949667 14598 net.cpp:157] Top shape: 30 576 14 14 (3386880)
I1221 00:09:30.949681 14598 net.cpp:165] Memory required for data: 3140767080
I1221 00:09:30.949694 14598 layer_factory.hpp:77] Creating layer conv_4c_proj
I1221 00:09:30.949714 14598 net.cpp:100] Creating Layer conv_4c_proj
I1221 00:09:30.949729 14598 net.cpp:434] conv_4c_proj <- ave_pool_4c_pool
I1221 00:09:30.949748 14598 net.cpp:408] conv_4c_proj -> conv_4c_proj
I1221 00:09:30.950145 14598 net.cpp:150] Setting up conv_4c_proj
I1221 00:09:30.950172 14598 net.cpp:157] Top shape: 30 128 14 14 (752640)
I1221 00:09:30.950194 14598 net.cpp:165] Memory required for data: 3143777640
I1221 00:09:30.950213 14598 layer_factory.hpp:77] Creating layer bn_4c_proj
I1221 00:09:30.950235 14598 net.cpp:100] Creating Layer bn_4c_proj
I1221 00:09:30.950250 14598 net.cpp:434] bn_4c_proj <- conv_4c_proj
I1221 00:09:30.950266 14598 net.cpp:395] bn_4c_proj -> conv_4c_proj (in-place)
I1221 00:09:30.950557 14598 net.cpp:150] Setting up bn_4c_proj
I1221 00:09:30.950582 14598 net.cpp:157] Top shape: 30 128 14 14 (752640)
I1221 00:09:30.950597 14598 net.cpp:165] Memory required for data: 3146788200
I1221 00:09:30.950618 14598 layer_factory.hpp:77] Creating layer scale_conv_4c_proj
I1221 00:09:30.950639 14598 net.cpp:100] Creating Layer scale_conv_4c_proj
I1221 00:09:30.950654 14598 net.cpp:434] scale_conv_4c_proj <- conv_4c_proj
I1221 00:09:30.950671 14598 net.cpp:395] scale_conv_4c_proj -> conv_4c_proj (in-place)
I1221 00:09:30.950743 14598 layer_factory.hpp:77] Creating layer scale_conv_4c_proj
I1221 00:09:30.950920 14598 net.cpp:150] Setting up scale_conv_4c_proj
I1221 00:09:30.950945 14598 net.cpp:157] Top shape: 30 128 14 14 (752640)
I1221 00:09:30.950958 14598 net.cpp:165] Memory required for data: 3149798760
I1221 00:09:30.950976 14598 layer_factory.hpp:77] Creating layer relu_4c_proj
I1221 00:09:30.950997 14598 net.cpp:100] Creating Layer relu_4c_proj
I1221 00:09:30.951012 14598 net.cpp:434] relu_4c_proj <- conv_4c_proj
I1221 00:09:30.951028 14598 net.cpp:395] relu_4c_proj -> conv_4c_proj (in-place)
I1221 00:09:30.951047 14598 net.cpp:150] Setting up relu_4c_proj
I1221 00:09:30.951064 14598 net.cpp:157] Top shape: 30 128 14 14 (752640)
I1221 00:09:30.951077 14598 net.cpp:165] Memory required for data: 3152809320
I1221 00:09:30.951091 14598 layer_factory.hpp:77] Creating layer ch_concat_4c_chconcat
I1221 00:09:30.951119 14598 net.cpp:100] Creating Layer ch_concat_4c_chconcat
I1221 00:09:30.951135 14598 net.cpp:434] ch_concat_4c_chconcat <- conv_4c_1x1
I1221 00:09:30.951151 14598 net.cpp:434] ch_concat_4c_chconcat <- conv_4c_3x3
I1221 00:09:30.951166 14598 net.cpp:434] ch_concat_4c_chconcat <- conv_4c_double_3x3_1
I1221 00:09:30.951187 14598 net.cpp:434] ch_concat_4c_chconcat <- conv_4c_proj
I1221 00:09:30.951206 14598 net.cpp:408] ch_concat_4c_chconcat -> ch_concat_4c_chconcat
I1221 00:09:30.951261 14598 net.cpp:150] Setting up ch_concat_4c_chconcat
I1221 00:09:30.951283 14598 net.cpp:157] Top shape: 30 608 14 14 (3575040)
I1221 00:09:30.951297 14598 net.cpp:165] Memory required for data: 3167109480
I1221 00:09:30.951310 14598 layer_factory.hpp:77] Creating layer ch_concat_4c_chconcat_ch_concat_4c_chconcat_0_split
I1221 00:09:30.951328 14598 net.cpp:100] Creating Layer ch_concat_4c_chconcat_ch_concat_4c_chconcat_0_split
I1221 00:09:30.951342 14598 net.cpp:434] ch_concat_4c_chconcat_ch_concat_4c_chconcat_0_split <- ch_concat_4c_chconcat
I1221 00:09:30.951360 14598 net.cpp:408] ch_concat_4c_chconcat_ch_concat_4c_chconcat_0_split -> ch_concat_4c_chconcat_ch_concat_4c_chconcat_0_split_0
I1221 00:09:30.951381 14598 net.cpp:408] ch_concat_4c_chconcat_ch_concat_4c_chconcat_0_split -> ch_concat_4c_chconcat_ch_concat_4c_chconcat_0_split_1
I1221 00:09:30.951407 14598 net.cpp:408] ch_concat_4c_chconcat_ch_concat_4c_chconcat_0_split -> ch_concat_4c_chconcat_ch_concat_4c_chconcat_0_split_2
I1221 00:09:30.951443 14598 net.cpp:408] ch_concat_4c_chconcat_ch_concat_4c_chconcat_0_split -> ch_concat_4c_chconcat_ch_concat_4c_chconcat_0_split_3
I1221 00:09:30.951545 14598 net.cpp:150] Setting up ch_concat_4c_chconcat_ch_concat_4c_chconcat_0_split
I1221 00:09:30.951567 14598 net.cpp:157] Top shape: 30 608 14 14 (3575040)
I1221 00:09:30.951583 14598 net.cpp:157] Top shape: 30 608 14 14 (3575040)
I1221 00:09:30.951599 14598 net.cpp:157] Top shape: 30 608 14 14 (3575040)
I1221 00:09:30.951614 14598 net.cpp:157] Top shape: 30 608 14 14 (3575040)
I1221 00:09:30.951627 14598 net.cpp:165] Memory required for data: 3224310120
I1221 00:09:30.951640 14598 layer_factory.hpp:77] Creating layer conv_4d_1x1
I1221 00:09:30.951663 14598 net.cpp:100] Creating Layer conv_4d_1x1
I1221 00:09:30.951679 14598 net.cpp:434] conv_4d_1x1 <- ch_concat_4c_chconcat_ch_concat_4c_chconcat_0_split_0
I1221 00:09:30.951701 14598 net.cpp:408] conv_4d_1x1 -> conv_4d_1x1
I1221 00:09:30.952105 14598 net.cpp:150] Setting up conv_4d_1x1
I1221 00:09:30.952131 14598 net.cpp:157] Top shape: 30 96 14 14 (564480)
I1221 00:09:30.952144 14598 net.cpp:165] Memory required for data: 3226568040
I1221 00:09:30.952162 14598 layer_factory.hpp:77] Creating layer bn_4d_1x1
I1221 00:09:30.952190 14598 net.cpp:100] Creating Layer bn_4d_1x1
I1221 00:09:30.952208 14598 net.cpp:434] bn_4d_1x1 <- conv_4d_1x1
I1221 00:09:30.952229 14598 net.cpp:395] bn_4d_1x1 -> conv_4d_1x1 (in-place)
I1221 00:09:30.952528 14598 net.cpp:150] Setting up bn_4d_1x1
I1221 00:09:30.952558 14598 net.cpp:157] Top shape: 30 96 14 14 (564480)
…
I1221 00:09:30.968406 14598 net.cpp:165] Memory required for data: 3384246120
I1221 00:09:30.968426 14598 layer_factory.hpp:77] Creating layer bn_4e_3x3
I1221 00:09:30.968448 14598 net.cpp:100] Creating Layer bn_4e_3x3
I1221 00:09:30.968472 14598 net.cpp:434] bn_4e_3x3 <- conv_4e_3x3
I1221 00:09:30.968495 14598 net.cpp:395] bn_4e_3x3 -> conv_4e_3x3 (in-place)
I1221 00:09:30.968767 14598 net.cpp:150] Setting up bn_4e_3x3
I1221 00:09:30.968793 14598 net.cpp:157] Top shape: 30 192 7 7 (282240)
I1221 00:09:30.968807 14598 net.cpp:165] Memory required for data: 3385375080
I1221 00:09:30.968828 14598 layer_factory.hpp:77] Creating layer scale_conv_4e_3x3
I1221 00:09:30.968847 14598 net.cpp:100] Creating Layer scale_conv_4e_3x3
I1221 00:09:30.968863 14598 net.cpp:434] scale_conv_4e_3x3 <- conv_4e_3x3
I1221 00:09:30.968878 14598 net.cpp:395] scale_conv_4e_3x3 -> conv_4e_3x3 (in-place)
I1221 00:09:30.968967 14598 layer_factory.hpp:77] Creating layer scale_conv_4e_3x3
I1221 00:09:30.969146 14598 net.cpp:150] Setting up scale_conv_4e_3x3
I1221 00:09:30.969173 14598 net.cpp:157] Top shape: 30 192 7 7 (282240)
I1221 00:09:30.969193 14598 net.cpp:165] Memory required for data: 3386504040
I1221 00:09:30.969213 14598 layer_factory.hpp:77] Creating layer relu_4e_3x3
I1221 00:09:30.969231 14598 net.cpp:100] Creating Layer relu_4e_3x3
I1221 00:09:30.969245 14598 net.cpp:434] relu_4e_3x3 <- conv_4e_3x3
I1221 00:09:30.969261 14598 net.cpp:395] relu_4e_3x3 -> conv_4e_3x3 (in-place)
I1221 00:09:30.969280 14598 net.cpp:150] Setting up relu_4e_3x3
I1221 00:09:30.969297 14598 net.cpp:157] Top shape: 30 192 7 7 (282240)
I1221 00:09:30.969310 14598 net.cpp:165] Memory required for data: 3387633000
I1221 00:09:30.969323 14598 layer_factory.hpp:77] Creating layer conv_4e_double_3x3_reduce
I1221 00:09:30.969347 14598 net.cpp:100] Creating Layer conv_4e_double_3x3_reduce
I1221 00:09:30.969363 14598 net.cpp:434] conv_4e_double_3x3_reduce <- ch_concat_4d_chconcat_ch_concat_4d_chconcat_0_split_1
I1221 00:09:30.969385 14598 net.cpp:408] conv_4e_double_3x3_reduce -> conv_4e_double_3x3_reduce
I1221 00:09:30.969804 14598 net.cpp:150] Setting up conv_4e_double_3x3_reduce
I1221 00:09:30.969833 14598 net.cpp:157] Top shape: 30 192 14 14 (1128960)
I1221 00:09:30.969847 14598 net.cpp:165] Memory required for data: 3392148840
I1221 00:09:30.969866 14598 layer_factory.hpp:77] Creating layer bn_4e_double_3x3_reduce
I1221 00:09:30.969889 14598 net.cpp:100] Creating Layer bn_4e_double_3x3_reduce
I1221 00:09:30.969905 14598 net.cpp:434] bn_4e_double_3x3_reduce <- conv_4e_double_3x3_reduce
I1221 00:09:30.969921 14598 net.cpp:395] bn_4e_double_3x3_reduce -> conv_4e_double_3x3_reduce (in-place)
I1221 00:09:30.970196 14598 net.cpp:150] Setting up bn_4e_double_3x3_reduce
I1221 00:09:30.970223 14598 net.cpp:157] Top shape: 30 192 14 14 (1128960)
I1221 00:09:30.970238 14598 net.cpp:165] Memory required for data: 3396664680
I1221 00:09:30.970259 14598 layer_factory.hpp:77] Creating layer scale_conv_4e_double_3x3_reduce
I1221 00:09:30.970278 14598 net.cpp:100] Creating Layer scale_conv_4e_double_3x3_reduce
I1221 00:09:30.970293 14598 net.cpp:434] scale_conv_4e_double_3x3_reduce <- conv_4e_double_3x3_reduce
I1221 00:09:30.970310 14598 net.cpp:395] scale_conv_4e_double_3x3_reduce -> conv_4e_double_3x3_reduce (in-place)
I1221 00:09:30.970383 14598 layer_factory.hpp:77] Creating layer scale_conv_4e_double_3x3_reduce
I1221 00:09:30.970564 14598 net.cpp:150] Setting up scale_conv_4e_double_3x3_reduce
I1221 00:09:30.970595 14598 net.cpp:157] Top shape: 30 192 14 14 (1128960)
I1221 00:09:30.970619 14598 net.cpp:165] Memory required for data: 3401180520
I1221 00:09:30.970639 14598 layer_factory.hpp:77] Creating layer relu_4e_double_3x3_reduce
I1221 00:09:30.970659 14598 net.cpp:100] Creating Layer relu_4e_double_3x3_reduce
I1221 00:09:30.970672 14598 net.cpp:434] relu_4e_double_3x3_reduce <- conv_4e_double_3x3_reduce
I1221 00:09:30.970692 14598 net.cpp:395] relu_4e_double_3x3_reduce -> conv_4e_double_3x3_reduce (in-place)
I1221 00:09:30.970713 14598 net.cpp:150] Setting up relu_4e_double_3x3_reduce
I1221 00:09:30.970731 14598 net.cpp:157] Top shape: 30 192 14 14 (1128960)
I1221 00:09:30.970744 14598 net.cpp:165] Memory required for data: 3405696360
I1221 00:09:30.970757 14598 layer_factory.hpp:77] Creating layer conv_4e_double_3x3_0
I1221 00:09:30.970777 14598 net.cpp:100] Creating Layer conv_4e_double_3x3_0
I1221 00:09:30.970791 14598 net.cpp:434] conv_4e_double_3x3_0 <- conv_4e_double_3x3_reduce
I1221 00:09:30.970813 14598 net.cpp:408] conv_4e_double_3x3_0 -> conv_4e_double_3x3_0
I1221 00:09:30.972594 14598 net.cpp:150] Setting up conv_4e_double_3x3_0
I1221 00:09:30.972626 14598 net.cpp:157] Top shape: 30 256 14 14 (1505280)
I1221 00:09:30.972641 14598 net.cpp:165] Memory required for data: 3411717480
I1221 00:09:30.972661 14598 layer_factory.hpp:77] Creating layer bn_4e_double_3x3_0
I1221 00:09:30.972681 14598 net.cpp:100] Creating Layer bn_4e_double_3x3_0
I1221 00:09:30.972705 14598 net.cpp:434] bn_4e_double_3x3_0 <- conv_4e_double_3x3_0
I1221 00:09:30.972735 14598 net.cpp:395] bn_4e_double_3x3_0 -> conv_4e_double_3x3_0 (in-place)
I1221 00:09:30.972998 14598 net.cpp:150] Setting up bn_4e_double_3x3_0
I1221 00:09:30.973026 14598 net.cpp:157] Top shape: 30 256 14 14 (1505280)
I1221 00:09:30.973040 14598 net.cpp:165] Memory required for data: 3417738600
I1221 00:09:30.973060 14598 layer_factory.hpp:77] Creating layer scale_conv_4e_double_3x3_0
I1221 00:09:30.973079 14598 net.cpp:100] Creating Layer scale_conv_4e_double_3x3_0
I1221 00:09:30.973093 14598 net.cpp:434] scale_conv_4e_double_3x3_0 <- conv_4e_double_3x3_0
I1221 00:09:30.973110 14598 net.cpp:395] scale_conv_4e_double_3x3_0 -> conv_4e_double_3x3_0 (in-place)
I1221 00:09:30.973186 14598 layer_factory.hpp:77] Creating layer scale_conv_4e_double_3x3_0
I1221 00:09:30.973352 14598 net.cpp:150] Setting up scale_conv_4e_double_3x3_0
I1221 00:09:30.973376 14598 net.cpp:157] Top shape: 30 256 14 14 (1505280)
I1221 00:09:30.973389 14598 net.cpp:165] Memory required for data: 3423759720
I1221 00:09:30.973407 14598 layer_factory.hpp:77] Creating layer relu_4e_double_3x3_0
I1221 00:09:30.973429 14598 net.cpp:100] Creating Layer relu_4e_double_3x3_0
I1221 00:09:30.973444 14598 net.cpp:434] relu_4e_double_3x3_0 <- conv_4e_double_3x3_0
I1221 00:09:30.973460 14598 net.cpp:395] relu_4e_double_3x3_0 -> conv_4e_double_3x3_0 (in-place)
I1221 00:09:30.973479 14598 net.cpp:150] Setting up relu_4e_double_3x3_0
I1221 00:09:30.973496 14598 net.cpp:157] Top shape: 30 256 14 14 (1505280)
I1221 00:09:30.973510 14598 net.cpp:165] Memory required for data: 3429780840
I1221 00:09:30.973523 14598 layer_factory.hpp:77] Creating layer conv_4e_double_3x3_1
I1221 00:09:30.973546 14598 net.cpp:100] Creating Layer conv_4e_double_3x3_1
I1221 00:09:30.973562 14598 net.cpp:434] conv_4e_double_3x3_1 <- conv_4e_double_3x3_0
I1221 00:09:30.973580 14598 net.cpp:408] conv_4e_double_3x3_1 -> conv_4e_double_3x3_1
I1221 00:09:30.975776 14598 net.cpp:150] Setting up conv_4e_double_3x3_1
I1221 00:09:30.975810 14598 net.cpp:157] Top shape: 30 256 7 7 (376320)
I1221 00:09:30.975824 14598 net.cpp:165] Memory required for data: 3431286120
I1221 00:09:30.975843 14598 layer_factory.hpp:77] Creating layer bn_4e_double_3x3_1
I1221 00:09:30.975865 14598 net.cpp:100] Creating Layer bn_4e_double_3x3_1
I1221 00:09:30.975881 14598 net.cpp:434] bn_4e_double_3x3_1 <- conv_4e_double_3x3_1
I1221 00:09:30.975898 14598 net.cpp:395] bn_4e_double_3x3_1 -> conv_4e_double_3x3_1 (in-place)
I1221 00:09:30.976166 14598 net.cpp:150] Setting up bn_4e_double_3x3_1
I1221 00:09:30.976203 14598 net.cpp:157] Top shape: 30 256 7 7 (376320)
I1221 00:09:30.976218 14598 net.cpp:165] Memory required for data: 3432791400
I1221 00:09:30.976240 14598 layer_factory.hpp:77] Creating layer scale_conv_4e_double_3x3_1
I1221 00:09:30.976259 14598 net.cpp:100] Creating Layer scale_conv_4e_double_3x3_1
I1221 00:09:30.976274 14598 net.cpp:434] scale_conv_4e_double_3x3_1 <- conv_4e_double_3x3_1
I1221 00:09:30.976290 14598 net.cpp:395] scale_conv_4e_double_3x3_1 -> conv_4e_double_3x3_1 (in-place)
I1221 00:09:30.976364 14598 layer_factory.hpp:77] Creating layer scale_conv_4e_double_3x3_1
I1221 00:09:30.976526 14598 net.cpp:150] Setting up scale_conv_4e_double_3x3_1
I1221 00:09:30.976550 14598 net.cpp:157] Top shape: 30 256 7 7 (376320)
I1221 00:09:30.976563 14598 net.cpp:165] Memory required for data: 3434296680
I1221 00:09:30.976583 14598 layer_factory.hpp:77] Creating layer relu_4e_double_3x3_1
I1221 00:09:30.976608 14598 net.cpp:100] Creating Layer relu_4e_double_3x3_1
I1221 00:09:30.976622 14598 net.cpp:434] relu_4e_double_3x3_1 <- conv_4e_double_3x3_1
I1221 00:09:30.976641 14598 net.cpp:395] relu_4e_double_3x3_1 -> conv_4e_double_3x3_1 (in-place)
I1221 00:09:30.976661 14598 net.cpp:150] Setting up relu_4e_double_3x3_1
I1221 00:09:30.976678 14598 net.cpp:157] Top shape: 30 256 7 7 (376320)
I1221 00:09:30.976691 14598 net.cpp:165] Memory required for data: 3435801960
I1221 00:09:30.976706 14598 layer_factory.hpp:77] Creating layer max_pool_4e_pool
I1221 00:09:30.976732 14598 net.cpp:100] Creating Layer max_pool_4e_pool
I1221 00:09:30.976747 14598 net.cpp:434] max_pool_4e_pool <- ch_concat_4d_chconcat_ch_concat_4d_chconcat_0_split_2
I1221 00:09:30.976766 14598 net.cpp:408] max_pool_4e_pool -> max_pool_4e_pool
I1221 00:09:30.976835 14598 net.cpp:150] Setting up max_pool_4e_pool
I1221 00:09:30.976857 14598 net.cpp:157] Top shape: 30 512 7 7 (752640)
I1221 00:09:30.976871 14598 net.cpp:165] Memory required for data: 3438812520
I1221 00:09:30.976884 14598 layer_factory.hpp:77] Creating layer ch_concat_4e_chconcat
I1221 00:09:30.976902 14598 net.cpp:100] Creating Layer ch_concat_4e_chconcat
I1221 00:09:30.976917 14598 net.cpp:434] ch_concat_4e_chconcat <- conv_4e_3x3
I1221 00:09:30.976935 14598 net.cpp:434] ch_concat_4e_chconcat <- conv_4e_double_3x3_1
I1221 00:09:30.976955 14598 net.cpp:434] ch_concat_4e_chconcat <- max_pool_4e_pool
I1221 00:09:30.976976 14598 net.cpp:408] ch_concat_4e_chconcat -> ch_concat_4e_chconcat
I1221 00:09:30.977035 14598 net.cpp:150] Setting up ch_concat_4e_chconcat
I1221 00:09:30.977059 14598 net.cpp:157] Top shape: 30 960 7 7 (1411200)
I1221 00:09:30.977073 14598 net.cpp:165] Memory required for data: 3444457320
I1221 00:09:30.977087 14598 layer_factory.hpp:77] Creating layer ch_concat_4e_chconcat_ch_concat_4e_chconcat_0_split
I1221 00:09:30.977105 14598 net.cpp:100] Creating Layer ch_concat_4e_chconcat_ch_concat_4e_chconcat_0_split
I1221 00:09:30.977119 14598 net.cpp:434] ch_concat_4e_chconcat_ch_concat_4e_chconcat_0_split <- ch_concat_4e_chconcat
I1221 00:09:30.977140 14598 net.cpp:408] ch_concat_4e_chconcat_ch_concat_4e_chconcat_0_split -> ch_concat_4e_chconcat_ch_concat_4e_chconcat_0_split_0
I1221 00:09:30.977164 14598 net.cpp:408] ch_concat_4e_chconcat_ch_concat_4e_chconcat_0_split -> ch_concat_4e_chconcat_ch_concat_4e_chconcat_0_split_1
I1221 00:09:30.977191 14598 net.cpp:408] ch_concat_4e_chconcat_ch_concat_4e_chconcat_0_split -> ch_concat_4e_chconcat_ch_concat_4e_chconcat_0_split_2
I1221 00:09:30.977213 14598 net.cpp:408] ch_concat_4e_chconcat_ch_concat_4e_chconcat_0_split -> ch_concat_4e_chconcat_ch_concat_4e_chconcat_0_split_3
I1221 00:09:30.977304 14598 net.cpp:150] Setting up ch_concat_4e_chconcat_ch_concat_4e_chconcat_0_split
I1221 00:09:30.977327 14598 net.cpp:157] Top shape: 30 960 7 7 (1411200)
I1221 00:09:30.977344 14598 net.cpp:157] Top shape: 30 960 7 7 (1411200)
I1221 00:09:30.977358 14598 net.cpp:157] Top shape: 30 960 7 7 (1411200)
I1221 00:09:30.977373 14598 net.cpp:157] Top shape: 30 960 7 7 (1411200)
I1221 00:09:30.977386 14598 net.cpp:165] Memory required for data: 3467036520
I1221 00:09:30.977399 14598 layer_factory.hpp:77] Creating layer conv_5a_1x1
I1221 00:09:30.977423 14598 net.cpp:100] Creating Layer conv_5a_1x1
I1221 00:09:30.977439 14598 net.cpp:434] conv_5a_1x1 <- ch_concat_4e_chconcat_ch_concat_4e_chconcat_0_split_0
I1221 00:09:30.977469 14598 net.cpp:408] conv_5a_1x1 -> conv_5a_1x1
I1221 00:09:30.978945 14598 net.cpp:150] Setting up conv_5a_1x1
I1221 00:09:30.978976 14598 net.cpp:157] Top shape: 30 352 7 7 (517440)
I1221 00:09:30.978989 14598 net.cpp:165] Memory required for data: 3469106280
I1221 00:09:30.979007 14598 layer_factory.hpp:77] Creating layer bn_5a_1x1
I1221 00:09:30.979030 14598 net.cpp:100] Creating Layer bn_5a_1x1
I1221 00:09:30.979046 14598 net.cpp:434] bn_5a_1x1 <- conv_5a_1x1
I1221 00:09:30.979063 14598 net.cpp:395] bn_5a_1x1 -> conv_5a_1x1 (in-place)
I1221 00:09:30.979368 14598 net.cpp:150] Setting up bn_5a_1x1
I1221 00:09:30.979395 14598 net.cpp:157] Top shape: 30 352 7 7 (517440)
I1221 00:09:30.979409 14598 net.cpp:165] Memory required for data: 3471176040
I1221 00:09:30.979430 14598 layer_factory.hpp:77] Creating layer scale_conv_5a_1x1
I1221 00:09:30.979457 14598 net.cpp:100] Creating Layer scale_conv_5a_1x1
I1221 00:09:30.979475 14598 net.cpp:434] scale_conv_5a_1x1 <- conv_5a_1x1
I1221 00:09:30.979491 14598 net.cpp:395] scale_conv_5a_1x1 -> conv_5a_1x1 (in-place)
I1221 00:09:30.979568 14598 layer_factory.hpp:77] Creating layer scale_conv_5a_1x1
I1221 00:09:30.979761 14598 net.cpp:150] Setting up scale_conv_5a_1x1
I1221 00:09:30.979786 14598 net.cpp:157] Top shape: 30 352 7 7 (517440)
I1221 00:09:30.979799 14598 net.cpp:165] Memory required for data: 3473245800
I1221 00:09:30.979818 14598 layer_factory.hpp:77] Creating layer relu_5a_1x1
I1221 00:09:30.979836 14598 net.cpp:100] Creating Layer relu_5a_1x1
I1221 00:09:30.979851 14598 net.cpp:434] relu_5a_1x1 <- conv_5a_1x1
I1221 00:09:30.979869 14598 net.cpp:395] relu_5a_1x1 -> conv_5a_1x1 (in-place)
I1221 00:09:30.979889 14598 net.cpp:150] Setting up relu_5a_1x1
I1221 00:09:30.979907 14598 net.cpp:157] Top shape: 30 352 7 7 (517440)
I1221 00:09:30.979919 14598 net.cpp:165] Memory required for data: 3475315560
I1221 00:09:30.979933 14598 layer_factory.hpp:77] Creating layer conv_5a_3x3_reduce
I1221 00:09:30.979953 14598 net.cpp:100] Creating Layer conv_5a_3x3_reduce
I1221 00:09:30.979967 14598 net.cpp:434] conv_5a_3x3_reduce <- ch_concat_4e_chconcat_ch_concat_4e_chconcat_0_split_1
I1221 00:09:30.979991 14598 net.cpp:408] conv_5a_3x3_reduce -> conv_5a_3x3_reduce
I1221 00:09:30.981197 14598 net.cpp:150] Setting up conv_5a_3x3_reduce
I1221 00:09:30.981225 14598 net.cpp:157] Top shape: 30 192 7 7 (282240)
I1221 00:09:30.981243 14598 net.cpp:165] Memory required for data: 3476444520
I1221 00:09:30.981269 14598 layer_factory.hpp:77] Creating layer bn_5a_3x3_reduce
I1221 00:09:30.981298 14598 net.cpp:100] Creating Layer bn_5a_3x3_reduce
I1221 00:09:30.981314 14598 net.cpp:434] bn_5a_3x3_reduce <- conv_5a_3x3_reduce
I1221 00:09:30.981331 14598 net.cpp:395] bn_5a_3x3_reduce -> conv_5a_3x3_reduce (in-place)
I1221 00:09:30.981601 14598 net.cpp:150] Setting up bn_5a_3x3_reduce
I1221 00:09:30.981626 14598 net.cpp:157] Top shape: 30 192 7 7 (282240)
I1221 00:09:30.981639 14598 net.cpp:165] Memory required for data: 3477573480
I1221 00:09:30.981662 14598 layer_factory.hpp:77] Creating layer scale_conv_5a_3x3_reduce
I1221 00:09:30.981681 14598 net.cpp:100] Creating Layer scale_conv_5a_3x3_reduce
I1221 00:09:30.981695 14598 net.cpp:434] scale_conv_5a_3x3_reduce <- conv_5a_3x3_reduce
I1221 00:09:30.981712 14598 net.cpp:395] scale_conv_5a_3x3_reduce -> conv_5a_3x3_reduce (in-place)
I1221 00:09:30.981786 14598 layer_factory.hpp:77] Creating layer scale_conv_5a_3x3_reduce
I1221 00:09:30.981963 14598 net.cpp:150] Setting up scale_conv_5a_3x3_reduce
I1221 00:09:30.981987 14598 net.cpp:157] Top shape: 30 192 7 7 (282240)
I1221 00:09:30.982000 14598 net.cpp:165] Memory required for data: 3478702440
I1221 00:09:30.982018 14598 layer_factory.hpp:77] Creating layer relu_5a_3x3_reduce
I1221 00:09:30.982121 14598 net.cpp:100] Creating Layer relu_5a_3x3_reduce
I1221 00:09:30.982141 14598 net.cpp:434] relu_5a_3x3_reduce <- conv_5a_3x3_reduce
I1221 00:09:30.982161 14598 net.cpp:395] relu_5a_3x3_reduce -> conv_5a_3x3_reduce (in-place)
I1221 00:09:30.982179 14598 net.cpp:150] Setting up relu_5a_3x3_reduce
I1221 00:09:30.982206 14598 net.cpp:157] Top shape: 30 192 7 7 (282240)
I1221 00:09:30.982220 14598 net.cpp:165] Memory required for data: 3479831400
I1221 00:09:30.982235 14598 layer_factory.hpp:77] Creating layer conv_5a_3x3
I1221 00:09:30.982255 14598 net.cpp:100] Creating Layer conv_5a_3x3
I1221 00:09:30.982271 14598 net.cpp:434] conv_5a_3x3 <- conv_5a_3x3_reduce
I1221 00:09:30.982290 14598 net.cpp:408] conv_5a_3x3 -> conv_5a_3x3
I1221 00:09:30.984760 14598 net.cpp:150] Setting up conv_5a_3x3
I1221 00:09:30.984810 14598 net.cpp:157] Top shape: 30 320 7 7 (470400)
I1221 00:09:30.984823 14598 net.cpp:165] Memory required for data: 3481713000
I1221 00:09:30.984845 14598 layer_factory.hpp:77] Creating layer bn_5a_3x3
I1221 00:09:30.984869 14598 net.cpp:100] Creating Layer bn_5a_3x3
I1221 00:09:30.984884 14598 net.cpp:434] bn_5a_3x3 <- conv_5a_3x3
I1221 00:09:30.984905 14598 net.cpp:395] bn_5a_3x3 -> conv_5a_3x3 (in-place)
I1221 00:09:30.985287 14598 net.cpp:150] Setting up bn_5a_3x3
I1221 00:09:30.985308 14598 net.cpp:157] Top shape: 30 320 7 7 (470400)
I1221 00:09:30.985319 14598 net.cpp:165] Memory required for data: 3483594600
I1221 00:09:30.985340 14598 layer_factory.hpp:77] Creating layer scale_conv_5a_3x3
I1221 00:09:30.985378 14598 net.cpp:100] Creating Layer scale_conv_5a_3x3
I1221 00:09:30.985386 14598 net.cpp:434] scale_conv_5a_3x3 <- conv_5a_3x3
I1221 00:09:30.985402 14598 net.cpp:395] scale_conv_5a_3x3 -> conv_5a_3x3 (in-place)
I1221 00:09:30.985476 14598 layer_factory.hpp:77] Creating layer scale_conv_5a_3x3
I1221 00:09:30.985637 14598 net.cpp:150] Setting up scale_conv_5a_3x3
I1221 00:09:30.985651 14598 net.cpp:157] Top shape: 30 320 7 7 (470400)
I1221 00:09:30.985658 14598 net.cpp:165] Memory required for data: 3485476200
I1221 00:09:30.985671 14598 layer_factory.hpp:77] Creating layer relu_5a_3x3
I1221 00:09:30.985687 14598 net.cpp:100] Creating Layer relu_5a_3x3
I1221 00:09:30.985694 14598 net.cpp:434] relu_5a_3x3 <- conv_5a_3x3
I1221 00:09:30.985703 14598 net.cpp:395] relu_5a_3x3 -> conv_5a_3x3 (in-place)
I1221 00:09:30.985714 14598 net.cpp:150] Setting up relu_5a_3x3
I1221 00:09:30.985723 14598 net.cpp:157] Top shape: 30 320 7 7 (470400)
I1221 00:09:30.985730 14598 net.cpp:165] Memory required for data: 3487357800
I1221 00:09:30.985736 14598 layer_factory.hpp:77] Creating layer conv_5a_double_3x3_reduce
I1221 00:09:30.985754 14598 net.cpp:100] Creating Layer conv_5a_double_3x3_reduce
I1221 00:09:30.985764 14598 net.cpp:434] conv_5a_double_3x3_reduce <- ch_concat_4e_chconcat_ch_concat_4e_chconcat_0_split_2
I1221 00:09:30.985775 14598 net.cpp:408] conv_5a_double_3x3_reduce -> conv_5a_double_3x3_reduce
I1221 00:09:30.986929 14598 net.cpp:150] Setting up conv_5a_double_3x3_reduce
I1221 00:09:30.986948 14598 net.cpp:157] Top shape: 30 160 7 7 (235200)
I1221 00:09:30.986954 14598 net.cpp:165] Memory required for data: 3488298600
I1221 00:09:30.986966 14598 layer_factory.hpp:77] Creating layer bn_5a_double_3x3_reduce
I1221 00:09:30.986982 14598 net.cpp:100] Creating Layer bn_5a_double_3x3_reduce
I1221 00:09:30.986990 14598 net.cpp:434] bn_5a_double_3x3_reduce <- conv_5a_double_3x3_reduce
I1221 00:09:30.987004 14598 net.cpp:395] bn_5a_double_3x3_reduce -> conv_5a_double_3x3_reduce (in-place)
I1221 00:09:30.987264 14598 net.cpp:150] Setting up bn_5a_double_3x3_reduce
I1221 00:09:30.987282 14598 net.cpp:157] Top shape: 30 160 7 7 (235200)
I1221 00:09:30.987289 14598 net.cpp:165] Memory required for data: 3489239400
I1221 00:09:30.987303 14598 layer_factory.hpp:77] Creating layer scale_conv_5a_double_3x3_reduce
I1221 00:09:30.987314 14598 net.cpp:100] Creating Layer scale_conv_5a_double_3x3_reduce
I1221 00:09:30.987323 14598 net.cpp:434] scale_conv_5a_double_3x3_reduce <- conv_5a_double_3x3_reduce
I1221 00:09:30.987331 14598 net.cpp:395] scale_conv_5a_double_3x3_reduce -> conv_5a_double_3x3_reduce (in-place)
I1221 00:09:30.987391 14598 layer_factory.hpp:77] Creating layer scale_conv_5a_double_3x3_reduce
I1221 00:09:30.987541 14598 net.cpp:150] Setting up scale_conv_5a_double_3x3_reduce
I1221 00:09:30.987555 14598 net.cpp:157] Top shape: 30 160 7 7 (235200)
I1221 00:09:30.987562 14598 net.cpp:165] Memory required for data: 3490180200
I1221 00:09:30.987573 14598 layer_factory.hpp:77] Creating layer relu_5a_double_3x3_reduce
I1221 00:09:30.987587 14598 net.cpp:100] Creating Layer relu_5a_double_3x3_reduce
I1221 00:09:30.987594 14598 net.cpp:434] relu_5a_double_3x3_reduce <- conv_5a_double_3x3_reduce
I1221 00:09:30.987603 14598 net.cpp:395] relu_5a_double_3x3_reduce -> conv_5a_double_3x3_reduce (in-place)
I1221 00:09:30.987615 14598 net.cpp:150] Setting up relu_5a_double_3x3_reduce
I1221 00:09:30.987624 14598 net.cpp:157] Top shape: 30 160 7 7 (235200)
I1221 00:09:30.987630 14598 net.cpp:165] Memory required for data: 3491121000
I1221 00:09:30.987637 14598 layer_factory.hpp:77] Creating layer conv_5a_double_3x3_0
I1221 00:09:30.987653 14598 net.cpp:100] Creating Layer conv_5a_double_3x3_0
I1221 00:09:30.987660 14598 net.cpp:434] conv_5a_double_3x3_0 <- conv_5a_double_3x3_reduce
I1221 00:09:30.987671 14598 net.cpp:408] conv_5a_double_3x3_0 -> conv_5a_double_3x3_0
I1221 00:09:30.989015 14598 net.cpp:150] Setting up conv_5a_double_3x3_0
I1221 00:09:30.989033 14598 net.cpp:157] Top shape: 30 224 7 7 (329280)
I1221 00:09:30.989049 14598 net.cpp:165] Memory required for data: 3492438120
I1221 00:09:30.989061 14598 layer_factory.hpp:77] Creating layer bn_5a_double_3x3_0
I1221 00:09:30.989076 14598 net.cpp:100] Creating Layer bn_5a_double_3x3_0
I1221 00:09:30.989085 14598 net.cpp:434] bn_5a_double_3x3_0 <- conv_5a_double_3x3_0
I1221 00:09:30.989095 14598 net.cpp:395] bn_5a_double_3x3_0 -> conv_5a_double_3x3_0 (in-place)
I1221 00:09:30.989367 14598 net.cpp:150] Setting up bn_5a_double_3x3_0
I1221 00:09:30.989392 14598 net.cpp:157] Top shape: 30 224 7 7 (329280)
I1221 00:09:30.989404 14598 net.cpp:165] Memory required for data: 3493755240
I1221 00:09:30.989423 14598 layer_factory.hpp:77] Creating layer scale_conv_5a_double_3x3_0
I1221 00:09:30.989440 14598 net.cpp:100] Creating Layer scale_conv_5a_double_3x3_0
I1221 00:09:30.989454 14598 net.cpp:434] scale_conv_5a_double_3x3_0 <- conv_5a_double_3x3_0
I1221 00:09:30.989471 14598 net.cpp:395] scale_conv_5a_double_3x3_0 -> conv_5a_double_3x3_0 (in-place)
I1221 00:09:30.989542 14598 layer_factory.hpp:77] Creating layer scale_conv_5a_double_3x3_0
I1221 00:09:30.989704 14598 net.cpp:150] Setting up scale_conv_5a_double_3x3_0
I1221 00:09:30.989727 14598 net.cpp:157] Top shape: 30 224 7 7 (329280)
I1221 00:09:30.989738 14598 net.cpp:165] Memory required for data: 3495072360
I1221 00:09:30.989758 14598 layer_factory.hpp:77] Creating layer relu_5a_double_3x3_0
I1221 00:09:30.989773 14598 net.cpp:100] Creating Layer relu_5a_double_3x3_0
I1221 00:09:30.989785 14598 net.cpp:434] relu_5a_double_3x3_0 <- conv_5a_double_3x3_0
I1221 00:09:30.989804 14598 net.cpp:395] relu_5a_double_3x3_0 -> conv_5a_double_3x3_0 (in-place)
I1221 00:09:30.989821 14598 net.cpp:150] Setting up relu_5a_double_3x3_0
I1221 00:09:30.989836 14598 net.cpp:157] Top shape: 30 224 7 7 (329280)
I1221 00:09:30.989847 14598 net.cpp:165] Memory required for data: 3496389480
I1221 00:09:30.989859 14598 layer_factory.hpp:77] Creating layer conv_5a_double_3x3_1
I1221 00:09:30.989881 14598 net.cpp:100] Creating Layer conv_5a_double_3x3_1
I1221 00:09:30.989894 14598 net.cpp:434] conv_5a_double_3x3_1 <- conv_5a_double_3x3_0
I1221 00:09:30.989910 14598 net.cpp:408] conv_5a_double_3x3_1 -> conv_5a_double_3x3_1
I1221 00:09:30.991628 14598 net.cpp:150] Setting up conv_5a_double_3x3_1
I1221 00:09:30.991659 14598 net.cpp:157] Top shape: 30 224 7 7 (329280)
I1221 00:09:30.991672 14598 net.cpp:165] Memory required for data: 3497706600
I1221 00:09:30.991689 14598 layer_factory.hpp:77] Creating layer bn_5a_double_3x3_1
I1221 00:09:30.991710 14598 net.cpp:100] Creating Layer bn_5a_double_3x3_1
I1221 00:09:30.991724 14598 net.cpp:434] bn_5a_double_3x3_1 <- conv_5a_double_3x3_1
I1221 00:09:30.991740 14598 net.cpp:395] bn_5a_double_3x3_1 -> conv_5a_double_3x3_1 (in-place)
I1221 00:09:30.991988 14598 net.cpp:150] Setting up bn_5a_double_3x3_1
I1221 00:09:30.992010 14598 net.cpp:157] Top shape: 30 224 7 7 (329280)
I1221 00:09:30.992022 14598 net.cpp:165] Memory required for data: 3499023720
I1221 00:09:30.992041 14598 layer_factory.hpp:77] Creating layer scale_conv_5a_double_3x3_1
I1221 00:09:30.992063 14598 net.cpp:100] Creating Layer scale_conv_5a_double_3x3_1
I1221 00:09:30.992076 14598 net.cpp:434] scale_conv_5a_double_3x3_1 <- conv_5a_double_3x3_1
I1221 00:09:30.992091 14598 net.cpp:395] scale_conv_5a_double_3x3_1 -> conv_5a_double_3x3_1 (in-place)
I1221 00:09:30.992158 14598 layer_factory.hpp:77] Creating layer scale_conv_5a_double_3x3_1
I1221 00:09:30.992328 14598 net.cpp:150] Setting up scale_conv_5a_double_3x3_1
I1221 00:09:30.992352 14598 net.cpp:157] Top shape: 30 224 7 7 (329280)
I1221 00:09:30.992363 14598 net.cpp:165] Memory required for data: 3500340840
I1221 00:09:30.992380 14598 layer_factory.hpp:77] Creating layer relu_5a_double_3x3_1
I1221 00:09:30.992396 14598 net.cpp:100] Creating Layer relu_5a_double_3x3_1
I1221 00:09:30.992408 14598 net.cpp:434] relu_5a_double_3x3_1 <- conv_5a_double_3x3_1
I1221 00:09:30.992426 14598 net.cpp:395] relu_5a_double_3x3_1 -> conv_5a_double_3x3_1 (in-place)
I1221 00:09:30.992455 14598 net.cpp:150] Setting up relu_5a_double_3x3_1
I1221 00:09:30.992471 14598 net.cpp:157] Top shape: 30 224 7 7 (329280)
I1221 00:09:30.992482 14598 net.cpp:165] Memory required for data: 3501657960
I1221 00:09:30.992494 14598 layer_factory.hpp:77] Creating layer ave_pool_5a_pool
I1221 00:09:30.992511 14598 net.cpp:100] Creating Layer ave_pool_5a_pool
I1221 00:09:30.992527 14598 net.cpp:434] ave_pool_5a_pool <- ch_concat_4e_chconcat_ch_concat_4e_chconcat_0_split_3
I1221 00:09:30.992548 14598 net.cpp:408] ave_pool_5a_pool -> ave_pool_5a_pool
I1221 00:09:30.992594 14598 net.cpp:150] Setting up ave_pool_5a_pool
I1221 00:09:30.992614 14598 net.cpp:157] Top shape: 30 960 7 7 (1411200)
I1221 00:09:30.992625 14598 net.cpp:165] Memory required for data: 3507302760
I1221 00:09:30.992637 14598 layer_factory.hpp:77] Creating layer conv_5a_proj
I1221 00:09:30.992657 14598 net.cpp:100] Creating Layer conv_5a_proj
I1221 00:09:30.992672 14598 net.cpp:434] conv_5a_proj <- ave_pool_5a_pool
I1221 00:09:30.992693 14598 net.cpp:408] conv_5a_proj -> conv_5a_proj
I1221 00:09:30.993791 14598 net.cpp:150] Setting up conv_5a_proj
I1221 00:09:30.993818 14598 net.cpp:157] Top shape: 30 128 7 7 (188160)
I1221 00:09:30.993829 14598 net.cpp:165] Memory required for data: 3508055400
I1221 00:09:30.993847 14598 layer_factory.hpp:77] Creating layer bn_5a_proj
I1221 00:09:30.993868 14598 net.cpp:100] Creating Layer bn_5a_proj
I1221 00:09:30.993883 14598 net.cpp:434] bn_5a_proj <- conv_5a_proj
I1221 00:09:30.993901 14598 net.cpp:395] bn_5a_proj -> conv_5a_proj (in-place)
I1221 00:09:30.994138 14598 net.cpp:150] Setting up bn_5a_proj
I1221 00:09:30.994168 14598 net.cpp:157] Top shape: 30 128 7 7 (188160)
I1221 00:09:30.994199 14598 net.cpp:165] Memory required for data: 3508808040
I1221 00:09:30.994220 14598 layer_factory.hpp:77] Creating layer scale_conv_5a_proj
I1221 00:09:30.994241 14598 net.cpp:100] Creating Layer scale_conv_5a_proj
I1221 00:09:30.994256 14598 net.cpp:434] scale_conv_5a_proj <- conv_5a_proj
I1221 00:09:30.994271 14598 net.cpp:395] scale_conv_5a_proj -> conv_5a_proj (in-place)
I1221 00:09:30.994338 14598 layer_factory.hpp:77] Creating layer scale_conv_5a_proj
I1221 00:09:30.994490 14598 net.cpp:150] Setting up scale_conv_5a_proj
I1221 00:09:30.994513 14598 net.cpp:157] Top shape: 30 128 7 7 (188160)
I1221 00:09:30.994525 14598 net.cpp:165] Memory required for data: 3509560680
I1221 00:09:30.994541 14598 layer_factory.hpp:77] Creating layer relu_5a_proj
I1221 00:09:30.994556 14598 net.cpp:100] Creating Layer relu_5a_proj
I1221 00:09:30.994570 14598 net.cpp:434] relu_5a_proj <- conv_5a_proj
I1221 00:09:30.994586 14598 net.cpp:395] relu_5a_proj -> conv_5a_proj (in-place)
I1221 00:09:30.994603 14598 net.cpp:150] Setting up relu_5a_proj
I1221 00:09:30.994618 14598 net.cpp:157] Top shape: 30 128 7 7 (188160)
I1221 00:09:30.994631 14598 net.cpp:165] Memory required for data: 3510313320
I1221 00:09:30.994642 14598 layer_factory.hpp:77] Creating layer ch_concat_5a_chconcat
I1221 00:09:30.994666 14598 net.cpp:100] Creating Layer ch_concat_5a_chconcat
I1221 00:09:30.994688 14598 net.cpp:434] ch_concat_5a_chconcat <- conv_5a_1x1
I1221 00:09:30.994709 14598 net.cpp:434] ch_concat_5a_chconcat <- conv_5a_3x3
I1221 00:09:30.994724 14598 net.cpp:434] ch_concat_5a_chconcat <- conv_5a_double_3x3_1
I1221 00:09:30.994737 14598 net.cpp:434] ch_concat_5a_chconcat <- conv_5a_proj
I1221 00:09:30.994756 14598 net.cpp:408] ch_concat_5a_chconcat -> ch_concat_5a_chconcat
I1221 00:09:30.994802 14598 net.cpp:150] Setting up ch_concat_5a_chconcat
I1221 00:09:30.994822 14598 net.cpp:157] Top shape: 30 1024 7 7 (1505280)
I1221 00:09:30.994834 14598 net.cpp:165] Memory required for data: 3516334440
I1221 00:09:30.994846 14598 layer_factory.hpp:77] Creating layer ch_concat_5a_chconcat_ch_concat_5a_chconcat_0_split
I1221 00:09:30.994868 14598 net.cpp:100] Creating Layer ch_concat_5a_chconcat_ch_concat_5a_chconcat_0_split
I1221 00:09:30.994882 14598 net.cpp:434] ch_concat_5a_chconcat_ch_concat_5a_chconcat_0_split <- ch_concat_5a_chconcat
I1221 00:09:30.994899 14598 net.cpp:408] ch_concat_5a_chconcat_ch_concat_5a_chconcat_0_split -> ch_concat_5a_chconcat_ch_concat_5a_chconcat_0_split_0
I1221 00:09:30.994927 14598 net.cpp:408] ch_concat_5a_chconcat_ch_concat_5a_chconcat_0_split -> ch_concat_5a_chconcat_ch_concat_5a_chconcat_0_split_1
I1221 00:09:30.994947 14598 net.cpp:408] ch_concat_5a_chconcat_ch_concat_5a_chconcat_0_split -> ch_concat_5a_chconcat_ch_concat_5a_chconcat_0_split_2
I1221 00:09:30.994966 14598 net.cpp:408] ch_concat_5a_chconcat_ch_concat_5a_chconcat_0_split -> ch_concat_5a_chconcat_ch_concat_5a_chconcat_0_split_3
I1221 00:09:30.995046 14598 net.cpp:150] Setting up ch_concat_5a_chconcat_ch_concat_5a_chconcat_0_split
I1221 00:09:30.995067 14598 net.cpp:157] Top shape: 30 1024 7 7 (1505280)
I1221 00:09:30.995084 14598 net.cpp:157] Top shape: 30 1024 7 7 (1505280)
I1221 00:09:30.995097 14598 net.cpp:157] Top shape: 30 1024 7 7 (1505280)
I1221 00:09:30.995110 14598 net.cpp:157] Top shape: 30 1024 7 7 (1505280)
I1221 00:09:30.995121 14598 net.cpp:165] Memory required for data: 3540418920
I1221 00:09:30.995133 14598 layer_factory.hpp:77] Creating layer conv_5b_1x1
I1221 00:09:30.995151 14598 net.cpp:100] Creating Layer conv_5b_1x1
I1221 00:09:30.995164 14598 net.cpp:434] conv_5b_1x1 <- ch_concat_5a_chconcat_ch_concat_5a_chconcat_0_split_0
I1221 00:09:30.995190 14598 net.cpp:408] conv_5b_1x1 -> conv_5b_1x1
I1221 00:09:30.996632 14598 net.cpp:150] Setting up conv_5b_1x1
I1221 00:09:30.996661 14598 net.cpp:157] Top shape: 30 352 7 7 (517440)
I1221 00:09:30.996675 14598 net.cpp:165] Memory required for data: 3542488680
I1221 00:09:30.996692 14598 layer_factory.hpp:77] Creating layer bn_5b_1x1
I1221 00:09:30.996712 14598 net.cpp:100] Creating Layer bn_5b_1x1
I1221 00:09:30.996726 14598 net.cpp:434] bn_5b_1x1 <- conv_5b_1x1
I1221 00:09:30.996740 14598 net.cpp:395] bn_5b_1x1 -> conv_5b_1x1 (in-place)
I1221 00:09:30.997000 14598 net.cpp:150] Setting up bn_5b_1x1
I1221 00:09:30.997025 14598 net.cpp:157] Top shape: 30 352 7 7 (517440)
I1221 00:09:30.997038 14598 net.cpp:165] Memory required for data: 3544558440
I1221 00:09:30.997057 14598 layer_factory.hpp:77] Creating layer scale_conv_5b_1x1
I1221 00:09:30.997076 14598 net.cpp:100] Creating Layer scale_conv_5b_1x1
I1221 00:09:30.997087 14598 net.cpp:434] scale_conv_5b_1x1 <- conv_5b_1x1
I1221 00:09:30.997103 14598 net.cpp:395] scale_conv_5b_1x1 -> conv_5b_1x1 (in-place)
I1221 00:09:30.997176 14598 layer_factory.hpp:77] Creating layer scale_conv_5b_1x1
I1221 00:09:30.997352 14598 net.cpp:150] Setting up scale_conv_5b_1x1
I1221 00:09:30.997377 14598 net.cpp:157] Top shape: 30 352 7 7 (517440)
I1221 00:09:30.997390 14598 net.cpp:165] Memory required for data: 3546628200
I1221 00:09:30.997409 14598 layer_factory.hpp:77] Creating layer relu_5b_1x1
I1221 00:09:30.997426 14598 net.cpp:100] Creating Layer relu_5b_1x1
I1221 00:09:30.997438 14598 net.cpp:434] relu_5b_1x1 <- conv_5b_1x1
I1221 00:09:30.997452 14598 net.cpp:395] relu_5b_1x1 -> conv_5b_1x1 (in-place)
I1221 00:09:30.997469 14598 net.cpp:150] Setting up relu_5b_1x1
I1221 00:09:30.997484 14598 net.cpp:157] Top shape: 30 352 7 7 (517440)
I1221 00:09:30.997495 14598 net.cpp:165] Memory required for data: 3548697960
I1221 00:09:30.997508 14598 layer_factory.hpp:77] Creating layer conv_5b_3x3_reduce
I1221 00:09:30.997529 14598 net.cpp:100] Creating Layer conv_5b_3x3_reduce
I1221 00:09:30.997544 14598 net.cpp:434] conv_5b_3x3_reduce <- ch_concat_5a_chconcat_ch_concat_5a_chconcat_0_split_1
I1221 00:09:30.997563 14598 net.cpp:408] conv_5b_3x3_reduce -> conv_5b_3x3_reduce
I1221 00:09:30.998684 14598 net.cpp:150] Setting up conv_5b_3x3_reduce
I1221 00:09:30.998713 14598 net.cpp:157] Top shape: 30 192 7 7 (282240)
I1221 00:09:30.998725 14598 net.cpp:165] Memory required for data: 3549826920
I1221 00:09:30.998744 14598 layer_factory.hpp:77] Creating layer bn_5b_3x3_reduce
I1221 00:09:30.998764 14598 net.cpp:100] Creating Layer bn_5b_3x3_reduce
I1221 00:09:30.998778 14598 net.cpp:434] bn_5b_3x3_reduce <- conv_5b_3x3_reduce
I1221 00:09:30.998795 14598 net.cpp:395] bn_5b_3x3_reduce -> conv_5b_3x3_reduce (in-place)
I1221 00:09:30.999047 14598 net.cpp:150] Setting up bn_5b_3x3_reduce
I1221 00:09:30.999073 14598 net.cpp:157] Top shape: 30 192 7 7 (282240)
I1221 00:09:30.999085 14598 net.cpp:165] Memory required for data: 3550955880
I1221 00:09:30.999104 14598 layer_factory.hpp:77] Creating layer scale_conv_5b_3x3_reduce
I1221 00:09:30.999122 14598 net.cpp:100] Creating Layer scale_conv_5b_3x3_reduce
I1221 00:09:30.999135 14598 net.cpp:434] scale_conv_5b_3x3_reduce <- conv_5b_3x3_reduce
I1221 00:09:30.999155 14598 net.cpp:395] scale_conv_5b_3x3_reduce -> conv_5b_3x3_reduce (in-place)
I1221 00:09:30.999229 14598 layer_factory.hpp:77] Creating layer scale_conv_5b_3x3_reduce
I1221 00:09:30.999390 14598 net.cpp:150] Setting up scale_conv_5b_3x3_reduce
I1221 00:09:30.999413 14598 net.cpp:157] Top shape: 30 192 7 7 (282240)
I1221 00:09:30.999426 14598 net.cpp:165] Memory required for data: 3552084840
I1221 00:09:30.999442 14598 layer_factory.hpp:77] Creating layer relu_5b_3x3_reduce
I1221 00:09:30.999459 14598 net.cpp:100] Creating Layer relu_5b_3x3_reduce
I1221 00:09:30.999471 14598 net.cpp:434] relu_5b_3x3_reduce <- conv_5b_3x3_reduce
I1221 00:09:30.999490 14598 net.cpp:395] relu_5b_3x3_reduce -> conv_5b_3x3_reduce (in-place)
I1221 00:09:30.999507 14598 net.cpp:150] Setting up relu_5b_3x3_reduce
I1221 00:09:30.999522 14598 net.cpp:157] Top shape: 30 192 7 7 (282240)
I1221 00:09:30.999533 14598 net.cpp:165] Memory required for data: 3553213800
I1221 00:09:30.999546 14598 layer_factory.hpp:77] Creating layer conv_5b_3x3
I1221 00:09:30.999565 14598 net.cpp:100] Creating Layer conv_5b_3x3
I1221 00:09:30.999579 14598 net.cpp:434] conv_5b_3x3 <- conv_5b_3x3_reduce
I1221 00:09:30.999594 14598 net.cpp:408] conv_5b_3x3 -> conv_5b_3x3
I1221 00:09:31.001521 14598 net.cpp:150] Setting up conv_5b_3x3
I1221 00:09:31.001551 14598 net.cpp:157] Top shape: 30 320 7 7 (470400)
I1221 00:09:31.001564 14598 net.cpp:165] Memory required for data: 3555095400
I1221 00:09:31.001581 14598 layer_factory.hpp:77] Creating layer bn_5b_3x3
I1221 00:09:31.001602 14598 net.cpp:100] Creating Layer bn_5b_3x3
I1221 00:09:31.001617 14598 net.cpp:434] bn_5b_3x3 <- conv_5b_3x3
I1221 00:09:31.001632 14598 net.cpp:395] bn_5b_3x3 -> conv_5b_3x3 (in-place)
I1221 00:09:31.001890 14598 net.cpp:150] Setting up bn_5b_3x3
I1221 00:09:31.001912 14598 net.cpp:157] Top shape: 30 320 7 7 (470400)
I1221 00:09:31.001925 14598 net.cpp:165] Memory required for data: 3556977000
I1221 00:09:31.001943 14598 layer_factory.hpp:77] Creating layer scale_conv_5b_3x3
I1221 00:09:31.001963 14598 net.cpp:100] Creating Layer scale_conv_5b_3x3
I1221 00:09:31.001976 14598 net.cpp:434] scale_conv_5b_3x3 <- conv_5b_3x3
I1221 00:09:31.001991 14598 net.cpp:395] scale_conv_5b_3x3 -> conv_5b_3x3 (in-place)
I1221 00:09:31.002060 14598 layer_factory.hpp:77] Creating layer scale_conv_5b_3x3
I1221 00:09:31.002238 14598 net.cpp:150] Setting up scale_conv_5b_3x3
I1221 00:09:31.002260 14598 net.cpp:157] Top shape: 30 320 7 7 (470400)
I1221 00:09:31.002272 14598 net.cpp:165] Memory required for data: 3558858600
I1221 00:09:31.002290 14598 layer_factory.hpp:77] Creating layer relu_5b_3x3
I1221 00:09:31.002308 14598 net.cpp:100] Creating Layer relu_5b_3x3
I1221 00:09:31.002321 14598 net.cpp:434] relu_5b_3x3 <- conv_5b_3x3
I1221 00:09:31.002338 14598 net.cpp:395] relu_5b_3x3 -> conv_5b_3x3 (in-place)
I1221 00:09:31.002355 14598 net.cpp:150] Setting up relu_5b_3x3
I1221 00:09:31.002372 14598 net.cpp:157] Top shape: 30 320 7 7 (470400)
I1221 00:09:31.002384 14598 net.cpp:165] Memory required for data: 3560740200
I1221 00:09:31.002396 14598 layer_factory.hpp:77] Creating layer conv_5b_double_3x3_reduce
I1221 00:09:31.002414 14598 net.cpp:100] Creating Layer conv_5b_double_3x3_reduce
I1221 00:09:31.002427 14598 net.cpp:434] conv_5b_double_3x3_reduce <- ch_concat_5a_chconcat_ch_concat_5a_chconcat_0_split_2
I1221 00:09:31.002449 14598 net.cpp:408] conv_5b_double_3x3_reduce -> conv_5b_double_3x3_reduce
I1221 00:09:31.003559 14598 net.cpp:150] Setting up conv_5b_double_3x3_reduce
I1221 00:09:31.003587 14598 net.cpp:157] Top shape: 30 192 7 7 (282240)
I1221 00:09:31.003607 14598 net.cpp:165] Memory required for data: 3561869160
I1221 00:09:31.003624 14598 layer_factory.hpp:77] Creating layer bn_5b_double_3x3_reduce
I1221 00:09:31.003644 14598 net.cpp:100] Creating Layer bn_5b_double_3x3_reduce
I1221 00:09:31.003659 14598 net.cpp:434] bn_5b_double_3x3_reduce <- conv_5b_double_3x3_reduce
I1221 00:09:31.003674 14598 net.cpp:395] bn_5b_double_3x3_reduce -> conv_5b_double_3x3_reduce (in-place)
I1221 00:09:31.003927 14598 net.cpp:150] Setting up bn_5b_double_3x3_reduce
I1221 00:09:31.003948 14598 net.cpp:157] Top shape: 30 192 7 7 (282240)
I1221 00:09:31.003960 14598 net.cpp:165] Memory required for data: 3562998120
I1221 00:09:31.003978 14598 layer_factory.hpp:77] Creating layer scale_conv_5b_double_3x3_reduce
I1221 00:09:31.003993 14598 net.cpp:100] Creating Layer scale_conv_5b_double_3x3_reduce
I1221 00:09:31.004006 14598 net.cpp:434] scale_conv_5b_double_3x3_reduce <- conv_5b_double_3x3_reduce
I1221 00:09:31.004020 14598 net.cpp:395] scale_conv_5b_double_3x3_reduce -> conv_5b_double_3x3_reduce (in-place)
I1221 00:09:31.004084 14598 layer_factory.hpp:77] Creating layer scale_conv_5b_double_3x3_reduce
I1221 00:09:31.004251 14598 net.cpp:150] Setting up scale_conv_5b_double_3x3_reduce
I1221 00:09:31.004274 14598 net.cpp:157] Top shape: 30 192 7 7 (282240)
I1221 00:09:31.004287 14598 net.cpp:165] Memory required for data: 3564127080
I1221 00:09:31.004304 14598 layer_factory.hpp:77] Creating layer relu_5b_double_3x3_reduce
I1221 00:09:31.004320 14598 net.cpp:100] Creating Layer relu_5b_double_3x3_reduce
I1221 00:09:31.004333 14598 net.cpp:434] relu_5b_double_3x3_reduce <- conv_5b_double_3x3_reduce
I1221 00:09:31.004345 14598 net.cpp:395] relu_5b_double_3x3_reduce -> conv_5b_double_3x3_reduce (in-place)
I1221 00:09:31.004361 14598 net.cpp:150] Setting up relu_5b_double_3x3_reduce
I1221 00:09:31.004376 14598 net.cpp:157] Top shape: 30 192 7 7 (282240)
I1221 00:09:31.004389 14598 net.cpp:165] Memory required for data: 3565256040
I1221 00:09:31.004400 14598 layer_factory.hpp:77] Creating layer conv_5b_double_3x3_0
I1221 00:09:31.004421 14598 net.cpp:100] Creating Layer conv_5b_double_3x3_0
I1221 00:09:31.004436 14598 net.cpp:434] conv_5b_double_3x3_0 <- conv_5b_double_3x3_reduce
I1221 00:09:31.004468 14598 net.cpp:408] conv_5b_double_3x3_0 -> conv_5b_double_3x3_0
I1221 00:09:31.006021 14598 net.cpp:150] Setting up conv_5b_double_3x3_0
I1221 00:09:31.006050 14598 net.cpp:157] Top shape: 30 224 7 7 (329280)
I1221 00:09:31.006063 14598 net.cpp:165] Memory required for data: 3566573160
I1221 00:09:31.006081 14598 layer_factory.hpp:77] Creating layer bn_5b_double_3x3_0
I1221 00:09:31.006098 14598 net.cpp:100] Creating Layer bn_5b_double_3x3_0
I1221 00:09:31.006112 14598 net.cpp:434] bn_5b_double_3x3_0 <- conv_5b_double_3x3_0
I1221 00:09:31.006131 14598 net.cpp:395] bn_5b_double_3x3_0 -> conv_5b_double_3x3_0 (in-place)
I1221 00:09:31.006387 14598 net.cpp:150] Setting up bn_5b_double_3x3_0
I1221 00:09:31.006408 14598 net.cpp:157] Top shape: 30 224 7 7 (329280)
I1221 00:09:31.006420 14598 net.cpp:165] Memory required for data: 3567890280
I1221 00:09:31.006439 14598 layer_factory.hpp:77] Creating layer scale_conv_5b_double_3x3_0
I1221 00:09:31.006456 14598 net.cpp:100] Creating Layer scale_conv_5b_double_3x3_0
I1221 00:09:31.006469 14598 net.cpp:434] scale_conv_5b_double_3x3_0 <- conv_5b_double_3x3_0
I1221 00:09:31.006484 14598 net.cpp:395] scale_conv_5b_double_3x3_0 -> conv_5b_double_3x3_0 (in-place)
I1221 00:09:31.006548 14598 layer_factory.hpp:77] Creating layer scale_conv_5b_double_3x3_0
I1221 00:09:31.006716 14598 net.cpp:150] Setting up scale_conv_5b_double_3x3_0
I1221 00:09:31.006737 14598 net.cpp:157] Top shape: 30 224 7 7 (329280)
I1221 00:09:31.006749 14598 net.cpp:165] Memory required for data: 3569207400
I1221 00:09:31.006767 14598 layer_factory.hpp:77] Creating layer relu_5b_double_3x3_0
I1221 00:09:31.006783 14598 net.cpp:100] Creating Layer relu_5b_double_3x3_0
I1221 00:09:31.006794 14598 net.cpp:434] relu_5b_double_3x3_0 <- conv_5b_double_3x3_0
I1221 00:09:31.006817 14598 net.cpp:395] relu_5b_double_3x3_0 -> conv_5b_double_3x3_0 (in-place)
I1221 00:09:31.006835 14598 net.cpp:150] Setting up relu_5b_double_3x3_0
I1221 00:09:31.006850 14598 net.cpp:157] Top shape: 30 224 7 7 (329280)
I1221 00:09:31.006861 14598 net.cpp:165] Memory required for data: 3570524520
I1221 00:09:31.006873 14598 layer_factory.hpp:77] Creating layer conv_5b_double_3x3_1
I1221 00:09:31.006894 14598 net.cpp:100] Creating Layer conv_5b_double_3x3_1
I1221 00:09:31.006908 14598 net.cpp:434] conv_5b_double_3x3_1 <- conv_5b_double_3x3_0
I1221 00:09:31.006927 14598 net.cpp:408] conv_5b_double_3x3_1 -> conv_5b_double_3x3_1
I1221 00:09:31.008594 14598 net.cpp:150] Setting up conv_5b_double_3x3_1
I1221 00:09:31.008620 14598 net.cpp:157] Top shape: 30 224 7 7 (329280)
I1221 00:09:31.008633 14598 net.cpp:165] Memory required for data: 3571841640
I1221 00:09:31.008649 14598 layer_factory.hpp:77] Creating layer bn_5b_double_3x3_1
I1221 00:09:31.008668 14598 net.cpp:100] Creating Layer bn_5b_double_3x3_1
I1221 00:09:31.008680 14598 net.cpp:434] bn_5b_double_3x3_1 <- conv_5b_double_3x3_1
I1221 00:09:31.008711 14598 net.cpp:395] bn_5b_double_3x3_1 -> conv_5b_double_3x3_1 (in-place)
I1221 00:09:31.008965 14598 net.cpp:150] Setting up bn_5b_double_3x3_1
I1221 00:09:31.008986 14598 net.cpp:157] Top shape: 30 224 7 7 (329280)
I1221 00:09:31.008998 14598 net.cpp:165] Memory required for data: 3573158760
I1221 00:09:31.009017 14598 layer_factory.hpp:77] Creating layer scale_conv_5b_double_3x3_1
I1221 00:09:31.009034 14598 net.cpp:100] Creating Layer scale_conv_5b_double_3x3_1
I1221 00:09:31.009059 14598 net.cpp:434] scale_conv_5b_double_3x3_1 <- conv_5b_double_3x3_1
I1221 00:09:31.009078 14598 net.cpp:395] scale_conv_5b_double_3x3_1 -> conv_5b_double_3x3_1 (in-place)
I1221 00:09:31.009141 14598 layer_factory.hpp:77] Creating layer scale_conv_5b_double_3x3_1
I1221 00:09:31.009306 14598 net.cpp:150] Setting up scale_conv_5b_double_3x3_1
I1221 00:09:31.009328 14598 net.cpp:157] Top shape: 30 224 7 7 (329280)
I1221 00:09:31.009340 14598 net.cpp:165] Memory required for data: 3574475880
I1221 00:09:31.009356 14598 layer_factory.hpp:77] Creating layer relu_5b_double_3x3_1
I1221 00:09:31.009374 14598 net.cpp:100] Creating Layer relu_5b_double_3x3_1
I1221 00:09:31.009387 14598 net.cpp:434] relu_5b_double_3x3_1 <- conv_5b_double_3x3_1
I1221 00:09:31.009402 14598 net.cpp:395] relu_5b_double_3x3_1 -> conv_5b_double_3x3_1 (in-place)
I1221 00:09:31.009418 14598 net.cpp:150] Setting up relu_5b_double_3x3_1
I1221 00:09:31.009431 14598 net.cpp:157] Top shape: 30 224 7 7 (329280)
I1221 00:09:31.009443 14598 net.cpp:165] Memory required for data: 3575793000
I1221 00:09:31.009467 14598 layer_factory.hpp:77] Creating layer max_pool_5b_pool
I1221 00:09:31.009487 14598 net.cpp:100] Creating Layer max_pool_5b_pool
I1221 00:09:31.009501 14598 net.cpp:434] max_pool_5b_pool <- ch_concat_5a_chconcat_ch_concat_5a_chconcat_0_split_3
I1221 00:09:31.009518 14598 net.cpp:408] max_pool_5b_pool -> max_pool_5b_pool
I1221 00:09:31.009582 14598 net.cpp:150] Setting up max_pool_5b_pool
I1221 00:09:31.009603 14598 net.cpp:157] Top shape: 30 1024 7 7 (1505280)
I1221 00:09:31.009614 14598 net.cpp:165] Memory required for data: 3581814120
I1221 00:09:31.009626 14598 layer_factory.hpp:77] Creating layer conv_5b_proj
I1221 00:09:31.009649 14598 net.cpp:100] Creating Layer conv_5b_proj
I1221 00:09:31.009663 14598 net.cpp:434] conv_5b_proj <- max_pool_5b_pool
I1221 00:09:31.009680 14598 net.cpp:408] conv_5b_proj -> conv_5b_proj
I1221 00:09:31.010083 14598 net.cpp:150] Setting up conv_5b_proj
I1221 00:09:31.010120 14598 net.cpp:157] Top shape: 30 128 7 7 (188160)
I1221 00:09:31.010133 14598 net.cpp:165] Memory required for data: 3582566760
I1221 00:09:31.010149 14598 layer_factory.hpp:77] Creating layer bn_5b_proj
I1221 00:09:31.010174 14598 net.cpp:100] Creating Layer bn_5b_proj
I1221 00:09:31.010192 14598 net.cpp:434] bn_5b_proj <- conv_5b_proj
I1221 00:09:31.010207 14598 net.cpp:395] bn_5b_proj -> conv_5b_proj (in-place)
I1221 00:09:31.010435 14598 net.cpp:150] Setting up bn_5b_proj
I1221 00:09:31.010463 14598 net.cpp:157] Top shape: 30 128 7 7 (188160)
I1221 00:09:31.010475 14598 net.cpp:165] Memory required for data: 3583319400
I1221 00:09:31.010493 14598 layer_factory.hpp:77] Creating layer scale_conv_5b_proj
I1221 00:09:31.010509 14598 net.cpp:100] Creating Layer scale_conv_5b_proj
I1221 00:09:31.010521 14598 net.cpp:434] scale_conv_5b_proj <- conv_5b_proj
I1221 00:09:31.010538 14598 net.cpp:395] scale_conv_5b_proj -> conv_5b_proj (in-place)
I1221 00:09:31.010597 14598 layer_factory.hpp:77] Creating layer scale_conv_5b_proj
I1221 00:09:31.010746 14598 net.cpp:150] Setting up scale_conv_5b_proj
I1221 00:09:31.010769 14598 net.cpp:157] Top shape: 30 128 7 7 (188160)
I1221 00:09:31.010782 14598 net.cpp:165] Memory required for data: 3584072040
I1221 00:09:31.010797 14598 layer_factory.hpp:77] Creating layer relu_5b_proj
I1221 00:09:31.010812 14598 net.cpp:100] Creating Layer relu_5b_proj
I1221 00:09:31.010824 14598 net.cpp:434] relu_5b_proj <- conv_5b_proj
I1221 00:09:31.010852 14598 net.cpp:395] relu_5b_proj -> conv_5b_proj (in-place)
I1221 00:09:31.010869 14598 net.cpp:150] Setting up relu_5b_proj
I1221 00:09:31.010884 14598 net.cpp:157] Top shape: 30 128 7 7 (188160)
I1221 00:09:31.010895 14598 net.cpp:165] Memory required for data: 3584824680
I1221 00:09:31.010906 14598 layer_factory.hpp:77] Creating layer ch_concat_5b_chconcat
I1221 00:09:31.010921 14598 net.cpp:100] Creating Layer ch_concat_5b_chconcat
I1221 00:09:31.010933 14598 net.cpp:434] ch_concat_5b_chconcat <- conv_5b_1x1
I1221 00:09:31.010951 14598 net.cpp:434] ch_concat_5b_chconcat <- conv_5b_3x3
I1221 00:09:31.010964 14598 net.cpp:434] ch_concat_5b_chconcat <- conv_5b_double_3x3_1
I1221 00:09:31.010978 14598 net.cpp:434] ch_concat_5b_chconcat <- conv_5b_proj
I1221 00:09:31.010994 14598 net.cpp:408] ch_concat_5b_chconcat -> ch_concat_5b_chconcat
I1221 00:09:31.011042 14598 net.cpp:150] Setting up ch_concat_5b_chconcat
I1221 00:09:31.011063 14598 net.cpp:157] Top shape: 30 1024 7 7 (1505280)
I1221 00:09:31.011075 14598 net.cpp:165] Memory required for data: 3590845800
I1221 00:09:31.011087 14598 layer_factory.hpp:77] Creating layer global_pool
I1221 00:09:31.011102 14598 net.cpp:100] Creating Layer global_pool
I1221 00:09:31.011116 14598 net.cpp:434] global_pool <- ch_concat_5b_chconcat
I1221 00:09:31.011134 14598 net.cpp:408] global_pool -> global_pool
I1221 00:09:31.011194 14598 net.cpp:150] Setting up global_pool
I1221 00:09:31.011214 14598 net.cpp:157] Top shape: 30 1024 1 1 (30720)
I1221 00:09:31.011226 14598 net.cpp:165] Memory required for data: 3590968680
I1221 00:09:31.011237 14598 layer_factory.hpp:77] Creating layer fc2
I1221 00:09:31.011256 14598 net.cpp:100] Creating Layer fc2
I1221 00:09:31.011268 14598 net.cpp:434] fc2 <- global_pool
I1221 00:09:31.011286 14598 net.cpp:408] fc2 -> fc2
I1221 00:09:31.011536 14598 net.cpp:150] Setting up fc2
I1221 00:09:31.011556 14598 net.cpp:157] Top shape: 30 7 (210)
I1221 00:09:31.011569 14598 net.cpp:165] Memory required for data: 3590969520
I1221 00:09:31.011584 14598 layer_factory.hpp:77] Creating layer fc2_fc2_0_split
I1221 00:09:31.011603 14598 net.cpp:100] Creating Layer fc2_fc2_0_split
I1221 00:09:31.011616 14598 net.cpp:434] fc2_fc2_0_split <- fc2
I1221 00:09:31.011631 14598 net.cpp:408] fc2_fc2_0_split -> fc2_fc2_0_split_0
I1221 00:09:31.011652 14598 net.cpp:408] fc2_fc2_0_split -> fc2_fc2_0_split_1
I1221 00:09:31.011711 14598 net.cpp:150] Setting up fc2_fc2_0_split
I1221 00:09:31.011730 14598 net.cpp:157] Top shape: 30 7 (210)
I1221 00:09:31.011742 14598 net.cpp:157] Top shape: 30 7 (210)
I1221 00:09:31.011752 14598 net.cpp:165] Memory required for data: 3590971200
I1221 00:09:31.011764 14598 layer_factory.hpp:77] Creating layer accuracy
I1221 00:09:31.011778 14598 net.cpp:100] Creating Layer accuracy
I1221 00:09:31.011790 14598 net.cpp:434] accuracy <- fc2_fc2_0_split_0
I1221 00:09:31.011803 14598 net.cpp:434] accuracy <- label_data_train_1_split_0
I1221 00:09:31.011818 14598 net.cpp:408] accuracy -> accuracy
…
