…
I1221 13:23:47.107770 13393 net.cpp:322] The NetState phase (0) differed from the phase (1) specified by a rule in layer data_test
I1221 13:23:47.109841 13393 net.cpp:58] Initializing net from parameters: 
name: "Inception21k"
state {
  phase: TRAIN
  level: 0
  stage: ""
}
layer {
  name: "data_train"
  type: "ImageData"
  top: "data"
  top: "label"
  include {
    phase: TRAIN
  }
  transform_param {
    mean_value: 129
  }
  image_data_param {
    source: "../SFEW/Train/Train_Aligned_Faces/imlist_train.txt"
    batch_size: 30
    shuffle: true
    new_height: 224
    new_width: 224
    is_color: true
    root_folder: "../SFEW/Train/Train_Aligned_Faces/"
  }
}
layer {
  name: "conv_conv1"
  type: "Convolution"
  bottom: "data"
  top: "conv_conv1"
  convolution_param {
    num_output: 96
    pad: 3
    kernel_size: 7
    stride: 2
  }
}
layer {
  name: "bn_conv1"
  type: "BatchNorm"
  bottom: "conv_conv1"
  top: "conv_conv1"
  batch_norm_param {
    use_global_stats: true
  }
}
layer {
  name: "scale_conv_conv1"
  type: "Scale"
  bottom: "conv_conv1"
  top: "conv_conv1"
  scale_param {
    bias_term: true
  }
}
layer {
  name: "relu_conv1"
  type: "ReLU"
  bottom: "conv_conv1"
  top: "conv_conv1"
}
layer {
  name: "pool1"
  type: "Pooling"
  bottom: "conv_conv1"
  top: "pool1"
  pooling_param {
    pool: MAX
    kernel_size: 3
    stride: 2
    pad: 0
  }
}
layer {
  name: "conv_conv2red"
  type: "Convolution"
  bottom: "pool1"
  top: "conv_conv2red"
  convolution_param {
    num_output: 128
    pad: 0
    kernel_size: 1
    stride: 1
  }
}
layer {
  name: "bn_conv2red"
  type: "BatchNorm"
  bottom: "conv_conv2red"
  top: "conv_conv2red"
  batch_norm_param {
    use_global_stats: true
  }
}
layer {
  name: "scale_conv_conv2red"
  type: "Scale"
  bottom: "conv_conv2red"
  top: "conv_conv2red"
  scale_param {
    bias_term: true
  }
}
layer {
  name: "relu_conv2red"
  type: "ReLU"
  bottom: "conv_conv2red"
  top: "conv_conv2red"
}
layer {
  name: "conv_conv2"
  type: "Convolution"
  bottom: "conv_conv2red"
  top: "conv_conv2"
  convolution_param {
    num_output: 288
    pad: 1
    kernel_size: 3
    stride: 1
  }
}
layer {
  name: "bn_conv2"
  type: "BatchNorm"
  bottom: "conv_conv2"
  top: "conv_conv2"
  batch_norm_param {
    use_global_stats: true
  }
}
layer {
  name: "scale_conv_conv2"
  type: "Scale"
  bottom: "conv_conv2"
  top: "conv_conv2"
  scale_param {
    bias_term: true
  }
}
layer {
  name: "relu_conv2"
  type: "ReLU"
  bottom: "conv_conv2"
  top: "conv_conv2"
}
layer {
  name: "pool2"
  type: "Pooling"
  bottom: "conv_conv2"
  top: "pool2"
  pooling_param {
    pool: MAX
    kernel_size: 3
    stride: 2
    pad: 0
  }
}
layer {
  name: "conv_3a_1x1"
  type: "Convolution"
  bottom: "pool2"
  top: "conv_3a_1x1"
  convolution_param {
    num_output: 96
    pad: 0
    kernel_size: 1
    stride: 1
  }
}
layer {
  name: "bn_3a_1x1"
  type: "BatchNorm"
  bottom: "conv_3a_1x1"
  top: "conv_3a_1x1"
  batch_norm_param {
    use_global_stats: true
  }
}
layer {
  name: "scale_conv_3a_1x1"
  type: "Scale"
  bottom: "conv_3a_1x1"
  top: "conv_3a_1x1"
  scale_param {
    bias_term: true
  }
}
layer {
  name: "relu_3a_1x1"
  type: "ReLU"
  bottom: "conv_3a_1x1"
  top: "conv_3a_1x1"
}
layer {
  name: "conv_3a_3x3_reduce"
  type: "Convolution"
  bottom: "pool2"
  top: "conv_3a_3x3_reduce"
  convolution_param {
    num_output: 96
    pad: 0
    kernel_size: 1
    stride: 1
  }
}
layer {
  name: "bn_3a_3x3_reduce"
  type: "BatchNorm"
  bottom: "conv_3a_3x3_reduce"
  top: "conv_3a_3x3_reduce"
  batch_norm_param {
    use_global_stats: true
  }
}
layer {
  name: "scale_conv_3a_3x3_reduce"
  type: "Scale"
  bottom: "conv_3a_3x3_reduce"
  top: "conv_3a_3x3_reduce"
  scale_param {
    bias_term: true
  }
}
layer {
  name: "relu_3a_3x3_reduce"
  type: "ReLU"
  bottom: "conv_3a_3x3_reduce"
  top: "conv_3a_3x3_reduce"
}
layer {
  name: "conv_3a_3x3"
  type: "Convolution"
  bottom: "conv_3a_3x3_reduce"
  top: "conv_3a_3x3"
  convolution_param {
    num_output: 96
    pad: 1
    kernel_size: 3
    stride: 1
  }
}
layer {
  name: "bn_3a_3x3"
  type: "BatchNorm"
  bottom: "conv_3a_3x3"
  top: "conv_3a_3x3"
  batch_norm_param {
    use_global_stats: true
  }
}
layer {
  name: "scale_conv_3a_3x3"
  type: "Scale"
  bottom: "conv_3a_3x3"
  top: "conv_3a_3x3"
  scale_param {
    bias_term: true
  }
}
layer {
  name: "relu_3a_3x3"
  type: "ReLU"
  bottom: "conv_3a_3x3"
  top: "conv_3a_3x3"
}
layer {
  name: "conv_3a_double_3x3_reduce"
  type: "Convolution"
  bottom: "pool2"
  top: "conv_3a_double_3x3_reduce"
  convolution_param {
    num_output: 96
    pad: 0
    kernel_size: 1
    stride: 1
  }
}
layer {
  name: "bn_3a_double_3x3_reduce"
  type: "BatchNorm"
  bottom: "conv_3a_double_3x3_reduce"
  top: "conv_3a_double_3x3_reduce"
  batch_norm_param {
    use_global_stats: true
  }
}
layer {
  name: "scale_conv_3a_double_3x3_reduce"
  type: "Scale"
  bottom: "conv_3a_double_3x3_reduce"
  top: "conv_3a_double_3x3_reduce"
  scale_param {
    bias_term: true
  }
}
layer {
  name: "relu_3a_double_3x3_reduce"
  type: "ReLU"
  bottom: "conv_3a_double_3x3_reduce"
  top: "conv_3a_double_3x3_reduce"
}
layer {
  name: "conv_3a_double_3x3_0"
  type: "Convolution"
  bottom: "conv_3a_double_3x3_reduce"
  top: "conv_3a_double_3x3_0"
  convolution_param {
    num_output: 144
    pad: 1
    kernel_size: 3
    stride: 1
  }
}
layer {
  name: "bn_3a_double_3x3_0"
  type: "BatchNorm"
  bottom: "conv_3a_double_3x3_0"
  top: "conv_3a_double_3x3_0"
  batch_norm_param {
    use_global_stats: true
  }
}
layer {
  name: "scale_conv_3a_double_3x3_0"
  type: "Scale"
  bottom: "conv_3a_double_3x3_0"
  top: "conv_3a_double_3x3_0"
  scale_param {
    bias_term: true
  }
}
layer {
  name: "relu_3a_double_3x3_0"
  type: "ReLU"
  bottom: "conv_3a_double_3x3_0"
  top: "conv_3a_double_3x3_0"
}
layer {
  name: "conv_3a_double_3x3_1"
  type: "Convolution"
  bottom: "conv_3a_double_3x3_0"
  top: "conv_3a_double_3x3_1"
  convolution_param {
    num_output: 144
    pad: 1
    kernel_size: 3
    stride: 1
  }
}
layer {
  name: "bn_3a_double_3x3_1"
  type: "BatchNorm"
  bottom: "conv_3a_double_3x3_1"
  top: "conv_3a_double_3x3_1"
  batch_norm_param {
    use_global_stats: true
  }
}
layer {
  name: "scale_conv_3a_double_3x3_1"
  type: "Scale"
  bottom: "conv_3a_double_3x3_1"
  top: "conv_3a_double_3x3_1"
  scale_param {
    bias_term: true
  }
}
layer {
  name: "relu_3a_double_3x3_1"
  type: "ReLU"
  bottom: "conv_3a_double_3x3_1"
  top: "conv_3a_double_3x3_1"
}
layer {
  name: "ave_pool_3a_pool"
  type: "Pooling"
  bottom: "pool2"
  top: "ave_pool_3a_pool"
  pooling_param {
    pool: AVE
    kernel_size: 3
    stride: 1
    pad: 1
  }
}
layer {
  name: "conv_3a_proj"
  type: "Convolution"
  bottom: "ave_pool_3a_pool"
  top: "conv_3a_proj"
  convolution_param {
    num_output: 48
    pad: 0
    kernel_size: 1
    stride: 1
  }
}
layer {
  name: "bn_3a_proj"
  type: "BatchNorm"
  bottom: "conv_3a_proj"
  top: "conv_3a_proj"
  batch_norm_param {
    use_global_stats: true
  }
}
layer {
  name: "scale_conv_3a_proj"
  type: "Scale"
  bottom: "conv_3a_proj"
  top: "conv_3a_proj"
  scale_param {
    bias_term: true
  }
}
layer {
  name: "relu_3a_proj"
  type: "ReLU"
  bottom: "conv_3a_proj"
  top: "conv_3a_proj"
}
layer {
  name: "ch_concat_3a_chconcat"
  type: "Concat"
  bottom: "conv_3a_1x1"
  bottom: "conv_3a_3x3"
  bottom: "conv_3a_double_3x3_1"
  bottom: "conv_3a_proj"
  top: "ch_concat_3a_chconcat"
}
layer {
  name: "conv_3b_1x1"
  type: "Convolution"
  bottom: "ch_concat_3a_chconcat"
  top: "conv_3b_1x1"
  convolution_param {
    num_output: 96
    pad: 0
    kernel_size: 1
    stride: 1
  }
}
layer {
  name: "bn_3b_1x1"
  type: "BatchNorm"
  bottom: "conv_3b_1x1"
  top: "conv_3b_1x1"
  batch_norm_param {
    use_global_stats: true
  }
}
layer {
  name: "scale_conv_3b_1x1"
  type: "Scale"
  bottom: "conv_3b_1x1"
  top: "conv_3b_1x1"
  scale_param {
    bias_term: true
  }
}
layer {
  name: "relu_3b_1x1"
  type: "ReLU"
  bottom: "conv_3b_1x1"
  top: "conv_3b_1x1"
}
layer {
  name: "conv_3b_3x3_reduce"
  type: "Convolution"
  bottom: "ch_concat_3a_chconcat"
  top: "conv_3b_3x3_reduce"
  convolution_param {
    num_output: 96
    pad: 0
    kernel_size: 1
    stride: 1
  }
}
layer {
  name: "bn_3b_3x3_reduce"
  type: "BatchNorm"
  bottom: "conv_3b_3x3_reduce"
  top: "conv_3b_3x3_reduce"
  batch_norm_param {
    use_global_stats: true
  }
}
layer {
  name: "scale_conv_3b_3x3_reduce"
  type: "Scale"
  bottom: "conv_3b_3x3_reduce"
  top: "conv_3b_3x3_reduce"
  scale_param {
    bias_term: true
  }
}
layer {
  name: "relu_3b_3x3_reduce"
  type: "ReLU"
  bottom: "conv_3b_3x3_reduce"
  top: "conv_3b_3x3_reduce"
}
layer {
  name: "conv_3b_3x3"
  type: "Convolution"
  bottom: "conv_3b_3x3_reduce"
  top: "conv_3b_3x3"
  convolution_param {
    num_output: 144
    pad: 1
    kernel_size: 3
    stride: 1
  }
}
layer {
  name: "bn_3b_3x3"
  type: "BatchNorm"
  bottom: "conv_3b_3x3"
  top: "conv_3b_3x3"
  batch_norm_param {
    use_global_stats: true
  }
}
layer {
  name: "scale_conv_3b_3x3"
  type: "Scale"
  bottom: "conv_3b_3x3"
  top: "conv_3b_3x3"
  scale_param {
    bias_term: true
  }
}
layer {
  name: "relu_3b_3x3"
  type: "ReLU"
  bottom: "conv_3b_3x3"
  top: "conv_3b_3x3"
}
layer {
  name: "conv_3b_double_3x3_reduce"
  type: "Convolution"
  bottom: "ch_concat_3a_chconcat"
  top: "conv_3b_double_3x3_reduce"
  convolution_param {
    num_output: 96
    pad: 0
    kernel_size: 1
    stride: 1
  }
}
layer {
  name: "bn_3b_double_3x3_reduce"
  type: "BatchNorm"
  bottom: "conv_3b_double_3x3_reduce"
  top: "conv_3b_double_3x3_reduce"
  batch_norm_param {
    use_global_stats: true
  }
}
layer {
  name: "scale_conv_3b_double_3x3_reduce"
  type: "Scale"
  bottom: "conv_3b_double_3x3_reduce"
  top: "conv_3b_double_3x3_reduce"
  scale_param {
    bias_term: true
  }
}
layer {
  name: "relu_3b_double_3x3_reduce"
  type: "ReLU"
  bottom: "conv_3b_double_3x3_reduce"
  top: "conv_3b_double_3x3_reduce"
}
layer {
  name: "conv_3b_double_3x3_0"
  type: "Convolution"
  bottom: "conv_3b_double_3x3_reduce"
  top: "conv_3b_double_3x3_0"
  convolution_param {
    num_output: 144
    pad: 1
    kernel_size: 3
    stride: 1
  }
}
layer {
  name: "bn_3b_double_3x3_0"
  type: "BatchNorm"
  bottom: "conv_3b_double_3x3_0"
  top: "conv_3b_double_3x3_0"
  batch_norm_param {
    use_global_stats: true
  }
}
layer {
  name: "scale_conv_3b_double_3x3_0"
  type: "Scale"
  bottom: "conv_3b_double_3x3_0"
  top: "conv_3b_double_3x3_0"
  scale_param {
    bias_term: true
  }
}
layer {
  name: "relu_3b_double_3x3_0"
  type: "ReLU"
  bottom: "conv_3b_double_3x3_0"
  top: "conv_3b_double_3x3_0"
}
layer {
  name: "conv_3b_double_3x3_1"
  type: "Convolution"
  bottom: "conv_3b_double_3x3_0"
  top: "conv_3b_double_3x3_1"
  convolution_param {
    num_output: 144
    pad: 1
    kernel_size: 3
    stride: 1
  }
}
layer {
  name: "bn_3b_double_3x3_1"
  type: "BatchNorm"
  bottom: "conv_3b_double_3x3_1"
  top: "conv_3b_double_3x3_1"
  batch_norm_param {
    use_global_stats: true
  }
}
layer {
  name: "scale_conv_3b_double_3x3_1"
  type: "Scale"
  bottom: "conv_3b_double_3x3_1"
  top: "conv_3b_double_3x3_1"
  scale_param {
    bias_term: true
  }
}
layer {
  name: "relu_3b_double_3x3_1"
  type: "ReLU"
  bottom: "conv_3b_double_3x3_1"
  top: "conv_3b_double_3x3_1"
}
layer {
  name: "ave_pool_3b_pool"
  type: "Pooling"
  bottom: "ch_concat_3a_chconcat"
  top: "ave_pool_3b_pool"
  pooling_param {
    pool: AVE
    kernel_size: 3
    stride: 1
    pad: 1
  }
}
layer {
  name: "conv_3b_proj"
  type: "Convolution"
  bottom: "ave_pool_3b_pool"
  top: "conv_3b_proj"
  convolution_param {
    num_output: 96
    pad: 0
    kernel_size: 1
    stride: 1
  }
}
layer {
  name: "bn_3b_proj"
  type: "BatchNorm"
  bottom: "conv_3b_proj"
  top: "conv_3b_proj"
  batch_norm_param {
    use_global_stats: true
  }
}
layer {
  name: "scale_conv_3b_proj"
  type: "Scale"
  bottom: "conv_3b_proj"
  top: "conv_3b_proj"
  scale_param {
    bias_term: true
  }
}
layer {
  name: "relu_3b_proj"
  type: "ReLU"
  bottom: "conv_3b_proj"
  top: "conv_3b_proj"
}
layer {
  name: "ch_concat_3b_chconcat"
  type: "Concat"
  bottom: "conv_3b_1x1"
  bottom: "conv_3b_3x3"
  bottom: "conv_3b_double_3x3_1"
  bottom: "conv_3b_proj"
  top: "ch_concat_3b_chconcat"
}
layer {
  name: "conv_3c_3x3_reduce"
  type: "Convolution"
  bottom: "ch_concat_3b_chconcat"
  top: "conv_3c_3x3_reduce"
  convolution_param {
    num_output: 192
    pad: 0
    kernel_size: 1
    stride: 1
  }
}
layer {
  name: "bn_3c_3x3_reduce"
  type: "BatchNorm"
  bottom: "conv_3c_3x3_reduce"
  top: "conv_3c_3x3_reduce"
  batch_norm_param {
    use_global_stats: true
  }
}
layer {
  name: "scale_conv_3c_3x3_reduce"
  type: "Scale"
  bottom: "conv_3c_3x3_reduce"
  top: "conv_3c_3x3_reduce"
  scale_param {
    bias_term: true
  }
}
layer {
  name: "relu_3c_3x3_reduce"
  type: "ReLU"
  bottom: "conv_3c_3x3_reduce"
  top: "conv_3c_3x3_reduce"
}
layer {
  name: "conv_3c_3x3"
  type: "Convolution"
  bottom: "conv_3c_3x3_reduce"
  top: "conv_3c_3x3"
  convolution_param {
    num_output: 240
    pad: 1
    kernel_size: 3
    stride: 2
  }
}
layer {
  name: "bn_3c_3x3"
  type: "BatchNorm"
  bottom: "conv_3c_3x3"
  top: "conv_3c_3x3"
  batch_norm_param {
    use_global_stats: true
  }
}
layer {
  name: "scale_conv_3c_3x3"
  type: "Scale"
  bottom: "conv_3c_3x3"
  top: "conv_3c_3x3"
  scale_param {
    bias_term: true
  }
}
layer {
  name: "relu_3c_3x3"
  type: "ReLU"
  bottom: "conv_3c_3x3"
  top: "conv_3c_3x3"
}
layer {
  name: "conv_3c_double_3x3_reduce"
  type: "Convolution"
  bottom: "ch_concat_3b_chconcat"
  top: "conv_3c_double_3x3_reduce"
  convolution_param {
    num_output: 96
    pad: 0
    kernel_size: 1
    stride: 1
  }
}
layer {
  name: "bn_3c_double_3x3_reduce"
  type: "BatchNorm"
  bottom: "conv_3c_double_3x3_reduce"
  top: "conv_3c_double_3x3_reduce"
  batch_norm_param {
    use_global_stats: true
  }
}
layer {
  name: "scale_conv_3c_double_3x3_reduce"
  type: "Scale"
  bottom: "conv_3c_double_3x3_reduce"
  top: "conv_3c_double_3x3_reduce"
  scale_param {
    bias_term: true
  }
}
layer {
  name: "relu_3c_double_3x3_reduce"
  type: "ReLU"
  bottom: "conv_3c_double_3x3_reduce"
  top: "conv_3c_double_3x3_reduce"
}
layer {
  name: "conv_3c_double_3x3_0"
  type: "Convolution"
  bottom: "conv_3c_double_3x3_reduce"
  top: "conv_3c_double_3x3_0"
  convolution_param {
    num_output: 144
    pad: 1
    kernel_size: 3
    stride: 1
  }
}
layer {
  name: "bn_3c_double_3x3_0"
  type: "BatchNorm"
  bottom: "conv_3c_double_3x3_0"
  top: "conv_3c_double_3x3_0"
  batch_norm_param {
    use_global_stats: true
  }
}
layer {
  name: "scale_conv_3c_double_3x3_0"
  type: "Scale"
  bottom: "conv_3c_double_3x3_0"
  top: "conv_3c_double_3x3_0"
  scale_param {
    bias_term: true
  }
}
layer {
  name: "relu_3c_double_3x3_0"
  type: "ReLU"
  bottom: "conv_3c_double_3x3_0"
  top: "conv_3c_double_3x3_0"
}
layer {
  name: "conv_3c_double_3x3_1"
  type: "Convolution"
  bottom: "conv_3c_double_3x3_0"
  top: "conv_3c_double_3x3_1"
  convolution_param {
    num_output: 144
    pad: 1
    kernel_size: 3
    stride: 2
  }
}
layer {
  name: "bn_3c_double_3x3_1"
  type: "BatchNorm"
  bottom: "conv_3c_double_3x3_1"
  top: "conv_3c_double_3x3_1"
  batch_norm_param {
    use_global_stats: true
  }
}
layer {
  name: "scale_conv_3c_double_3x3_1"
  type: "Scale"
  bottom: "conv_3c_double_3x3_1"
  top: "conv_3c_double_3x3_1"
  scale_param {
    bias_term: true
  }
}
layer {
  name: "relu_3c_double_3x3_1"
  type: "ReLU"
  bottom: "conv_3c_double_3x3_1"
  top: "conv_3c_double_3x3_1"
}
layer {
  name: "max_pool_3c_pool"
  type: "Pooling"
  bottom: "ch_concat_3b_chconcat"
  top: "max_pool_3c_pool"
  pooling_param {
    pool: MAX
    kernel_size: 3
    stride: 2
    pad: 0
  }
}
layer {
  name: "ch_concat_3c_chconcat"
  type: "Concat"
  bottom: "conv_3c_3x3"
  bottom: "conv_3c_double_3x3_1"
  bottom: "max_pool_3c_pool"
  top: "ch_concat_3c_chconcat"
}
layer {
  name: "conv_4a_1x1"
  type: "Convolution"
  bottom: "ch_concat_3c_chconcat"
  top: "conv_4a_1x1"
  convolution_param {
    num_output: 224
    pad: 0
    kernel_size: 1
    stride: 1
  }
}
layer {
  name: "bn_4a_1x1"
  type: "BatchNorm"
  bottom: "conv_4a_1x1"
  top: "conv_4a_1x1"
  batch_norm_param {
    use_global_stats: true
  }
}
layer {
  name: "scale_conv_4a_1x1"
  type: "Scale"
  bottom: "conv_4a_1x1"
  top: "conv_4a_1x1"
  scale_param {
    bias_term: true
  }
}
layer {
  name: "relu_4a_1x1"
  type: "ReLU"
  bottom: "conv_4a_1x1"
  top: "conv_4a_1x1"
}
layer {
  name: "conv_4a_3x3_reduce"
  type: "Convolution"
  bottom: "ch_concat_3c_chconcat"
  top: "conv_4a_3x3_reduce"
  convolution_param {
    num_output: 64
    pad: 0
    kernel_size: 1
    stride: 1
  }
}
layer {
  name: "bn_4a_3x3_reduce"
  type: "BatchNorm"
  bottom: "conv_4a_3x3_reduce"
  top: "conv_4a_3x3_reduce"
  batch_norm_param {
    use_global_stats: true
  }
}
layer {
  name: "scale_conv_4a_3x3_reduce"
  type: "Scale"
  bottom: "conv_4a_3x3_reduce"
  top: "conv_4a_3x3_reduce"
  scale_param {
    bias_term: true
  }
}
layer {
  name: "relu_4a_3x3_reduce"
  type: "ReLU"
  bottom: "conv_4a_3x3_reduce"
  top: "conv_4a_3x3_reduce"
}
layer {
  name: "conv_4a_3x3"
  type: "Convolution"
  bottom: "conv_4a_3x3_reduce"
  top: "conv_4a_3x3"
  convolution_param {
    num_output: 96
    pad: 1
    kernel_size: 3
    stride: 1
  }
}
layer {
  name: "bn_4a_3x3"
  type: "BatchNorm"
  bottom: "conv_4a_3x3"
  top: "conv_4a_3x3"
  batch_norm_param {
    use_global_stats: true
  }
}
layer {
  name: "scale_conv_4a_3x3"
  type: "Scale"
  bottom: "conv_4a_3x3"
  top: "conv_4a_3x3"
  scale_param {
    bias_term: true
  }
}
layer {
  name: "relu_4a_3x3"
  type: "ReLU"
  bottom: "conv_4a_3x3"
  top: "conv_4a_3x3"
}
layer {
  name: "conv_4a_double_3x3_reduce"
  type: "Convolution"
  bottom: "ch_concat_3c_chconcat"
  top: "conv_4a_double_3x3_reduce"
  convolution_param {
    num_output: 96
    pad: 0
    kernel_size: 1
    stride: 1
  }
}
layer {
  name: "bn_4a_double_3x3_reduce"
  type: "BatchNorm"
  bottom: "conv_4a_double_3x3_reduce"
  top: "conv_4a_double_3x3_reduce"
  batch_norm_param {
    use_global_stats: true
  }
}
layer {
  name: "scale_conv_4a_double_3x3_reduce"
  type: "Scale"
  bottom: "conv_4a_double_3x3_reduce"
  top: "conv_4a_double_3x3_reduce"
  scale_param {
    bias_term: true
  }
}
layer {
  name: "relu_4a_double_3x3_reduce"
  type: "ReLU"
  bottom: "conv_4a_double_3x3_reduce"
  top: "conv_4a_double_3x3_reduce"
}
layer {
  name: "conv_4a_double_3x3_0"
  type: "Convolution"
  bottom: "conv_4a_double_3x3_reduce"
  top: "conv_4a_double_3x3_0"
  convolution_param {
    num_output: 128
    pad: 1
    kernel_size: 3
    stride: 1
  }
}
layer {
  name: "bn_4a_double_3x3_0"
  type: "BatchNorm"
  bottom: "conv_4a_double_3x3_0"
  top: "conv_4a_double_3x3_0"
  batch_norm_param {
    use_global_stats: true
  }
}
layer {
  name: "scale_conv_4a_double_3x3_0"
  type: "Scale"
  bottom: "conv_4a_double_3x3_0"
  top: "conv_4a_double_3x3_0"
  scale_param {
    bias_term: true
  }
}
layer {
  name: "relu_4a_double_3x3_0"
  type: "ReLU"
  bottom: "conv_4a_double_3x3_0"
  top: "conv_4a_double_3x3_0"
}
layer {
  name: "conv_4a_double_3x3_1"
  type: "Convolution"
  bottom: "conv_4a_double_3x3_0"
  top: "conv_4a_double_3x3_1"
  convolution_param {
    num_output: 128
    pad: 1
    kernel_size: 3
    stride: 1
  }
}
layer {
  name: "bn_4a_double_3x3_1"
  type: "BatchNorm"
  bottom: "conv_4a_double_3x3_1"
  top: "conv_4a_double_3x3_1"
  batch_norm_param {
    use_global_stats: true
  }
}
layer {
  name: "scale_conv_4a_double_3x3_1"
  type: "Scale"
  bottom: "conv_4a_double_3x3_1"
  top: "conv_4a_double_3x3_1"
  scale_param {
    bias_term: true
  }
}
layer {
  name: "relu_4a_double_3x3_1"
  type: "ReLU"
  bottom: "conv_4a_double_3x3_1"
  top: "conv_4a_double_3x3_1"
}
layer {
  name: "ave_pool_4a_pool"
  type: "Pooling"
  bottom: "ch_concat_3c_chconcat"
  top: "ave_pool_4a_pool"
  pooling_param {
    pool: AVE
    kernel_size: 3
    stride: 1
    pad: 1
  }
}
layer {
  name: "conv_4a_proj"
  type: "Convolution"
  bottom: "ave_pool_4a_pool"
  top: "conv_4a_proj"
  convolution_param {
    num_output: 128
    pad: 0
    kernel_size: 1
    stride: 1
  }
}
layer {
  name: "bn_4a_proj"
  type: "BatchNorm"
  bottom: "conv_4a_proj"
  top: "conv_4a_proj"
  batch_norm_param {
    use_global_stats: true
  }
}
layer {
  name: "scale_conv_4a_proj"
  type: "Scale"
  bottom: "conv_4a_proj"
  top: "conv_4a_proj"
  scale_param {
    bias_term: true
  }
}
layer {
  name: "relu_4a_proj"
  type: "ReLU"
  bottom: "conv_4a_proj"
  top: "conv_4a_proj"
}
layer {
  name: "ch_concat_4a_chconcat"
  type: "Concat"
  bottom: "conv_4a_1x1"
  bottom: "conv_4a_3x3"
  bottom: "conv_4a_double_3x3_1"
  bottom: "conv_4a_proj"
  top: "ch_concat_4a_chconcat"
}
layer {
  name: "conv_4b_1x1"
  type: "Convolution"
  bottom: "ch_concat_4a_chconcat"
  top: "conv_4b_1x1"
  convolution_param {
    num_output: 192
    pad: 0
    kernel_size: 1
    stride: 1
  }
}
layer {
  name: "bn_4b_1x1"
  type: "BatchNorm"
  bottom: "conv_4b_1x1"
  top: "conv_4b_1x1"
  batch_norm_param {
    use_global_stats: true
  }
}
layer {
  name: "scale_conv_4b_1x1"
  type: "Scale"
  bottom: "conv_4b_1x1"
  top: "conv_4b_1x1"
  scale_param {
    bias_term: true
  }
}
layer {
  name: "relu_4b_1x1"
  type: "ReLU"
  bottom: "conv_4b_1x1"
  top: "conv_4b_1x1"
}
layer {
  name: "conv_4b_3x3_reduce"
  type: "Convolution"
  bottom: "ch_concat_4a_chconcat"
  top: "conv_4b_3x3_reduce"
  convolution_param {
    num_output: 96
    pad: 0
    kernel_size: 1
    stride: 1
  }
}
layer {
  name: "bn_4b_3x3_reduce"
  type: "BatchNorm"
  bottom: "conv_4b_3x3_reduce"
  top: "conv_4b_3x3_reduce"
  batch_norm_param {
    use_global_stats: true
  }
}
layer {
  name: "scale_conv_4b_3x3_reduce"
  type: "Scale"
  bottom: "conv_4b_3x3_reduce"
  top: "conv_4b_3x3_reduce"
  scale_param {
    bias_term: true
  }
}
layer {
  name: "relu_4b_3x3_reduce"
  type: "ReLU"
  bottom: "conv_4b_3x3_reduce"
  top: "conv_4b_3x3_reduce"
}
layer {
  name: "conv_4b_3x3"
  type: "Convolution"
  bottom: "conv_4b_3x3_reduce"
  top: "conv_4b_3x3"
  convolution_param {
    num_output: 128
    pad: 1
    kernel_size: 3
    stride: 1
  }
}
layer {
  name: "bn_4b_3x3"
  type: "BatchNorm"
  bottom: "conv_4b_3x3"
  top: "conv_4b_3x3"
  batch_norm_param {
    use_global_stats: true
  }
}
layer {
  name: "scale_conv_4b_3x3"
  type: "Scale"
  bottom: "conv_4b_3x3"
  top: "conv_4b_3x3"
  scale_param {
    bias_term: true
  }
}
layer {
  name: "relu_4b_3x3"
  type: "ReLU"
  bottom: "conv_4b_3x3"
  top: "conv_4b_3x3"
}
layer {
  name: "conv_4b_double_3x3_reduce"
  type: "Convolution"
  bottom: "ch_concat_4a_chconcat"
  top: "conv_4b_double_3x3_reduce"
  convolution_param {
    num_output: 96
    pad: 0
    kernel_size: 1
    stride: 1
  }
}
layer {
  name: "bn_4b_double_3x3_reduce"
  type: "BatchNorm"
  bottom: "conv_4b_double_3x3_reduce"
  top: "conv_4b_double_3x3_reduce"
  batch_norm_param {
    use_global_stats: true
  }
}
layer {
  name: "scale_conv_4b_double_3x3_reduce"
  type: "Scale"
  bottom: "conv_4b_double_3x3_reduce"
  top: "conv_4b_double_3x3_reduce"
  scale_param {
    bias_term: true
  }
}
layer {
  name: "relu_4b_double_3x3_reduce"
  type: "ReLU"
  bottom: "conv_4b_double_3x3_reduce"
  top: "conv_4b_double_3x3_reduce"
}
layer {
  name: "conv_4b_double_3x3_0"
  type: "Convolution"
  bottom: "conv_4b_double_3x3_reduce"
  top: "conv_4b_double_3x3_0"
  convolution_param {
    num_output: 128
    pad: 1
    kernel_size: 3
    stride: 1
  }
}
layer {
  name: "bn_4b_double_3x3_0"
  type: "BatchNorm"
  bottom: "conv_4b_double_3x3_0"
  top: "conv_4b_double_3x3_0"
  batch_norm_param {
    use_global_stats: true
  }
}
layer {
  name: "scale_conv_4b_double_3x3_0"
  type: "Scale"
  bottom: "conv_4b_double_3x3_0"
  top: "conv_4b_double_3x3_0"
  scale_param {
    bias_term: true
  }
}
layer {
  name: "relu_4b_double_3x3_0"
  type: "ReLU"
  bottom: "conv_4b_double_3x3_0"
  top: "conv_4b_double_3x3_0"
}
layer {
  name: "conv_4b_double_3x3_1"
  type: "Convolution"
  bottom: "conv_4b_double_3x3_0"
  top: "conv_4b_double_3x3_1"
  convolution_param {
    num_output: 128
    pad: 1
    kernel_size: 3
    stride: 1
  }
}
layer {
  name: "bn_4b_double_3x3_1"
  type: "BatchNorm"
  bottom: "conv_4b_double_3x3_1"
  top: "conv_4b_double_3x3_1"
  batch_norm_param {
    use_global_stats: true
  }
}
layer {
  name: "scale_conv_4b_double_3x3_1"
  type: "Scale"
  bottom: "conv_4b_double_3x3_1"
  top: "conv_4b_double_3x3_1"
  scale_param {
    bias_term: true
  }
}
layer {
  name: "relu_4b_double_3x3_1"
  type: "ReLU"
  bottom: "conv_4b_double_3x3_1"
  top: "conv_4b_double_3x3_1"
}
layer {
  name: "ave_pool_4b_pool"
  type: "Pooling"
  bottom: "ch_concat_4a_chconcat"
  top: "ave_pool_4b_pool"
  pooling_param {
    pool: AVE
    kernel_size: 3
    stride: 1
    pad: 1
  }
}
layer {
  name: "conv_4b_proj"
  type: "Convolution"
  bottom: "ave_pool_4b_pool"
  top: "conv_4b_proj"
  convolution_param {
    num_output: 128
    pad: 0
    kernel_size: 1
    stride: 1
  }
}
layer {
  name: "bn_4b_proj"
  type: "BatchNorm"
  bottom: "conv_4b_proj"
  top: "conv_4b_proj"
  batch_norm_param {
    use_global_stats: true
  }
}
layer {
  name: "scale_conv_4b_proj"
  type: "Scale"
  bottom: "conv_4b_proj"
  top: "conv_4b_proj"
  scale_param {
    bias_term: true
  }
}
layer {
  name: "relu_4b_proj"
  type: "ReLU"
  bottom: "conv_4b_proj"
  top: "conv_4b_proj"
}
layer {
  name: "ch_concat_4b_chconcat"
  type: "Concat"
  bottom: "conv_4b_1x1"
  bottom: "conv_4b_3x3"
  bottom: "conv_4b_double_3x3_1"
  bottom: "conv_4b_proj"
  top: "ch_concat_4b_chconcat"
}
layer {
  name: "conv_4c_1x1"
  type: "Convolution"
  bottom: "ch_concat_4b_chconcat"
  top: "conv_4c_1x1"
  convolution_param {
    num_output: 160
    pad: 0
    kernel_size: 1
    stride: 1
  }
}
layer {
  name: "bn_4c_1x1"
  type: "BatchNorm"
  bottom: "conv_4c_1x1"
  top: "conv_4c_1x1"
  batch_norm_param {
    use_global_stats: true
  }
}
layer {
  name: "scale_conv_4c_1x1"
  type: "Scale"
  bottom: "conv_4c_1x1"
  top: "conv_4c_1x1"
  scale_param {
    bias_term: true
  }
}
layer {
  name: "relu_4c_1x1"
  type: "ReLU"
  bottom: "conv_4c_1x1"
  top: "conv_4c_1x1"
}
layer {
  name: "conv_4c_3x3_reduce"
  type: "Convolution"
  bottom: "ch_concat_4b_chconcat"
  top: "conv_4c_3x3_reduce"
  convolution_param {
    num_output: 128
    pad: 0
    kernel_size: 1
    stride: 1
  }
}
layer {
  name: "bn_4c_3x3_reduce"
  type: "BatchNorm"
  bottom: "conv_4c_3x3_reduce"
  top: "conv_4c_3x3_reduce"
  batch_norm_param {
    use_global_stats: true
  }
}
layer {
  name: "scale_conv_4c_3x3_reduce"
  type: "Scale"
  bottom: "conv_4c_3x3_reduce"
  top: "conv_4c_3x3_reduce"
  scale_param {
    bias_term: true
  }
}
layer {
  name: "relu_4c_3x3_reduce"
  type: "ReLU"
  bottom: "conv_4c_3x3_reduce"
  top: "conv_4c_3x3_reduce"
}
layer {
  name: "conv_4c_3x3"
  type: "Convolution"
  bottom: "conv_4c_3x3_reduce"
  top: "conv_4c_3x3"
  convolution_param {
    num_output: 160
    pad: 1
    kernel_size: 3
    stride: 1
  }
}
layer {
  name: "bn_4c_3x3"
  type: "BatchNorm"
  bottom: "conv_4c_3x3"
  top: "conv_4c_3x3"
  batch_norm_param {
    use_global_stats: true
  }
}
layer {
  name: "scale_conv_4c_3x3"
  type: "Scale"
  bottom: "conv_4c_3x3"
  top: "conv_4c_3x3"
  scale_param {
    bias_term: true
  }
}
layer {
  name: "relu_4c_3x3"
  type: "ReLU"
  bottom: "conv_4c_3x3"
  top: "conv_4c_3x3"
}
layer {
  name: "conv_4c_double_3x3_reduce"
  type: "Convolution"
  bottom: "ch_concat_4b_chconcat"
  top: "conv_4c_double_3x3_reduce"
  convolution_param {
    num_output: 128
    pad: 0
    kernel_size: 1
    stride: 1
  }
}
layer {
  name: "bn_4c_double_3x3_reduce"
  type: "BatchNorm"
  bottom: "conv_4c_double_3x3_reduce"
  top: "conv_4c_double_3x3_reduce"
  batch_norm_param {
    use_global_stats: true
  }
}
layer {
  name: "scale_conv_4c_double_3x3_reduce"
  type: "Scale"
  bottom: "conv_4c_double_3x3_reduce"
  top: "conv_4c_double_3x3_reduce"
  scale_param {
    bias_term: true
  }
}
layer {
  name: "relu_4c_double_3x3_reduce"
  type: "ReLU"
  bottom: "conv_4c_double_3x3_reduce"
  top: "conv_4c_double_3x3_reduce"
}
layer {
  name: "conv_4c_double_3x3_0"
  type: "Convolution"
  bottom: "conv_4c_double_3x3_reduce"
  top: "conv_4c_double_3x3_0"
  convolution_param {
    num_output: 160
    pad: 1
    kernel_size: 3
    stride: 1
  }
}
layer {
  name: "bn_4c_double_3x3_0"
  type: "BatchNorm"
  bottom: "conv_4c_double_3x3_0"
  top: "conv_4c_double_3x3_0"
  batch_norm_param {
    use_global_stats: true
  }
}
layer {
  name: "scale_conv_4c_double_3x3_0"
  type: "Scale"
  bottom: "conv_4c_double_3x3_0"
  top: "conv_4c_double_3x3_0"
  scale_param {
    bias_term: true
  }
}
layer {
  name: "relu_4c_double_3x3_0"
  type: "ReLU"
  bottom: "conv_4c_double_3x3_0"
  top: "conv_4c_double_3x3_0"
}
layer {
  name: "conv_4c_double_3x3_1"
  type: "Convolution"
  bottom: "conv_4c_double_3x3_0"
  top: "conv_4c_double_3x3_1"
  convolution_param {
    num_output: 160
    pad: 1
    kernel_size: 3
    stride: 1
  }
}
layer {
  name: "bn_4c_double_3x3_1"
  type: "BatchNorm"
  bottom: "conv_4c_double_3x3_1"
  top: "conv_4c_double_3x3_1"
  batch_norm_param {
    use_global_stats: true
  }
}
layer {
  name: "scale_conv_4c_double_3x3_1"
  type: "Scale"
  bottom: "conv_4c_double_3x3_1"
  top: "conv_4c_double_3x3_1"
  scale_param {
    bias_term: true
  }
}
layer {
  name: "relu_4c_double_3x3_1"
  type: "ReLU"
  bottom: "conv_4c_double_3x3_1"
  top: "conv_4c_double_3x3_1"
}
layer {
  name: "ave_pool_4c_pool"
  type: "Pooling"
  bottom: "ch_concat_4b_chconcat"
  top: "ave_pool_4c_pool"
  pooling_param {
    pool: AVE
    kernel_size: 3
    stride: 1
    pad: 1
  }
}
layer {
  name: "conv_4c_proj"
  type: "Convolution"
  bottom: "ave_pool_4c_pool"
  top: "conv_4c_proj"
  convolution_param {
    num_output: 128
    pad: 0
    kernel_size: 1
    stride: 1
  }
}
layer {
  name: "bn_4c_proj"
  type: "BatchNorm"
  bottom: "conv_4c_proj"
  top: "conv_4c_proj"
 
I1221 13:23:47.116359 13393 layer_factory.hpp:77] Creating layer data_train
I1221 13:23:47.116427 13393 net.cpp:100] Creating Layer data_train
I1221 13:23:47.116451 13393 net.cpp:408] data_train -> data
I1221 13:23:47.116503 13393 net.cpp:408] data_train -> label
I1221 13:23:47.116540 13393 image_data_layer.cpp:38] Opening file ../SFEW/Train/Train_Aligned_Faces/imlist_train.txt
I1221 13:23:47.117213 13393 image_data_layer.cpp:53] Shuffling data
I1221 13:23:47.117950 13393 image_data_layer.cpp:58] A total of 891 images.
I1221 13:23:47.156534 13393 image_data_layer.cpp:85] output data size: 30,3,224,224
I1221 13:23:47.207442 13393 net.cpp:150] Setting up data_train
I1221 13:23:47.207520 13393 net.cpp:157] Top shape: 30 3 224 224 (4515840)
I1221 13:23:47.207542 13393 net.cpp:157] Top shape: 30 (30)
I1221 13:23:47.207558 13393 net.cpp:165] Memory required for data: 18063480
I1221 13:23:47.207582 13393 layer_factory.hpp:77] Creating layer label_data_train_1_split
I1221 13:23:47.207615 13393 net.cpp:100] Creating Layer label_data_train_1_split
I1221 13:23:47.207634 13393 net.cpp:434] label_data_train_1_split <- label
I1221 13:23:47.207667 13393 net.cpp:408] label_data_train_1_split -> label_data_train_1_split_0
I1221 13:23:47.207698 13393 net.cpp:408] label_data_train_1_split -> label_data_train_1_split_1
I1221 13:23:47.207789 13393 net.cpp:150] Setting up label_data_train_1_split
I1221 13:23:47.207813 13393 net.cpp:157] Top shape: 30 (30)
I1221 13:23:47.207828 13393 net.cpp:157] Top shape: 30 (30)
I1221 13:23:47.207839 13393 net.cpp:165] Memory required for data: 18063720
I1221 13:23:47.207852 13393 layer_factory.hpp:77] Creating layer conv_conv1
I1221 13:23:47.207888 13393 net.cpp:100] Creating Layer conv_conv1
I1221 13:23:47.207904 13393 net.cpp:434] conv_conv1 <- data
I1221 13:23:47.207923 13393 net.cpp:408] conv_conv1 -> conv_conv1
I1221 13:23:47.209013 13393 net.cpp:150] Setting up conv_conv1
I1221 13:23:47.209048 13393 net.cpp:157] Top shape: 30 96 112 112 (36126720)
I1221 13:23:47.209077 13393 net.cpp:165] Memory required for data: 162570600
I1221 13:23:47.209120 13393 layer_factory.hpp:77] Creating layer bn_conv1
I1221 13:23:47.209144 13393 net.cpp:100] Creating Layer bn_conv1
I1221 13:23:47.209159 13393 net.cpp:434] bn_conv1 <- conv_conv1
I1221 13:23:47.209177 13393 net.cpp:395] bn_conv1 -> conv_conv1 (in-place)
I1221 13:23:47.209491 13393 net.cpp:150] Setting up bn_conv1
I1221 13:23:47.209518 13393 net.cpp:157] Top shape: 30 96 112 112 (36126720)
I1221 13:23:47.209532 13393 net.cpp:165] Memory required for data: 307077480
I1221 13:23:47.209560 13393 layer_factory.hpp:77] Creating layer scale_conv_conv1
I1221 13:23:47.209585 13393 net.cpp:100] Creating Layer scale_conv_conv1
I1221 13:23:47.209601 13393 net.cpp:434] scale_conv_conv1 <- conv_conv1
I1221 13:23:47.209619 13393 net.cpp:395] scale_conv_conv1 -> conv_conv1 (in-place)
I1221 13:23:47.209694 13393 layer_factory.hpp:77] Creating layer scale_conv_conv1
I1221 13:23:47.209878 13393 net.cpp:150] Setting up scale_conv_conv1
I1221 13:23:47.209903 13393 net.cpp:157] Top shape: 30 96 112 112 (36126720)
I1221 13:23:47.209918 13393 net.cpp:165] Memory required for data: 451584360
I1221 13:23:47.209935 13393 layer_factory.hpp:77] Creating layer relu_conv1
I1221 13:23:47.209955 13393 net.cpp:100] Creating Layer relu_conv1
I1221 13:23:47.209969 13393 net.cpp:434] relu_conv1 <- conv_conv1
I1221 13:23:47.209986 13393 net.cpp:395] relu_conv1 -> conv_conv1 (in-place)
I1221 13:23:47.210005 13393 net.cpp:150] Setting up relu_conv1
I1221 13:23:47.210021 13393 net.cpp:157] Top shape: 30 96 112 112 (36126720)
I1221 13:23:47.210036 13393 net.cpp:165] Memory required for data: 596091240
I1221 13:23:47.210048 13393 layer_factory.hpp:77] Creating layer pool1
I1221 13:23:47.210067 13393 net.cpp:100] Creating Layer pool1
I1221 13:23:47.210080 13393 net.cpp:434] pool1 <- conv_conv1
I1221 13:23:47.210098 13393 net.cpp:408] pool1 -> pool1
I1221 13:23:47.210208 13393 net.cpp:150] Setting up pool1
I1221 13:23:47.210238 13393 net.cpp:157] Top shape: 30 96 56 56 (9031680)
I1221 13:23:47.210252 13393 net.cpp:165] Memory required for data: 632217960
I1221 13:23:47.210265 13393 layer_factory.hpp:77] Creating layer conv_conv2red
I1221 13:23:47.210288 13393 net.cpp:100] Creating Layer conv_conv2red
I1221 13:23:47.210301 13393 net.cpp:434] conv_conv2red <- pool1
I1221 13:23:47.210320 13393 net.cpp:408] conv_conv2red -> conv_conv2red
I1221 13:23:47.211551 13393 net.cpp:150] Setting up conv_conv2red
I1221 13:23:47.211583 13393 net.cpp:157] Top shape: 30 128 56 56 (12042240)
I1221 13:23:47.211598 13393 net.cpp:165] Memory required for data: 680386920
I1221 13:23:47.211622 13393 layer_factory.hpp:77] Creating layer bn_conv2red
I1221 13:23:47.211647 13393 net.cpp:100] Creating Layer bn_conv2red
I1221 13:23:47.211661 13393 net.cpp:434] bn_conv2red <- conv_conv2red
I1221 13:23:47.211683 13393 net.cpp:395] bn_conv2red -> conv_conv2red (in-place)
I1221 13:23:47.213686 13393 net.cpp:150] Setting up bn_conv2red
I1221 13:23:47.213731 13393 net.cpp:157] Top shape: 30 128 56 56 (12042240)
I1221 13:23:47.213747 13393 net.cpp:165] Memory required for data: 728555880
I1221 13:23:47.213770 13393 layer_factory.hpp:77] Creating layer scale_conv_conv2red
I1221 13:23:47.213790 13393 net.cpp:100] Creating Layer scale_conv_conv2red
I1221 13:23:47.213804 13393 net.cpp:434] scale_conv_conv2red <- conv_conv2red
I1221 13:23:47.213821 13393 net.cpp:395] scale_conv_conv2red -> conv_conv2red (in-place)
I1221 13:23:47.213899 13393 layer_factory.hpp:77] Creating layer scale_conv_conv2red
I1221 13:23:47.214061 13393 net.cpp:150] Setting up scale_conv_conv2red
I1221 13:23:47.214085 13393 net.cpp:157] Top shape: 30 128 56 56 (12042240)
I1221 13:23:47.214098 13393 net.cpp:165] Memory required for data: 776724840
I1221 13:23:47.214117 13393 layer_factory.hpp:77] Creating layer relu_conv2red
I1221 13:23:47.214133 13393 net.cpp:100] Creating Layer relu_conv2red
I1221 13:23:47.214146 13393 net.cpp:434] relu_conv2red <- conv_conv2red
I1221 13:23:47.214166 13393 net.cpp:395] relu_conv2red -> conv_conv2red (in-place)
I1221 13:23:47.214210 13393 net.cpp:150] Setting up relu_conv2red
I1221 13:23:47.214228 13393 net.cpp:157] Top shape: 30 128 56 56 (12042240)
I1221 13:23:47.214241 13393 net.cpp:165] Memory required for data: 824893800
I1221 13:23:47.214257 13393 layer_factory.hpp:77] Creating layer conv_conv2
I1221 13:23:47.214277 13393 net.cpp:100] Creating Layer conv_conv2
I1221 13:23:47.214292 13393 net.cpp:434] conv_conv2 <- conv_conv2red
I1221 13:23:47.214314 13393 net.cpp:408] conv_conv2 -> conv_conv2
I1221 13:23:47.216444 13393 net.cpp:150] Setting up conv_conv2
I1221 13:23:47.216480 13393 net.cpp:157] Top shape: 30 288 56 56 (27095040)
I1221 13:23:47.216495 13393 net.cpp:165] Memory required for data: 933273960
I1221 13:23:47.216513 13393 layer_factory.hpp:77] Creating layer bn_conv2
I1221 13:23:47.216532 13393 net.cpp:100] Creating Layer bn_conv2
I1221 13:23:47.216545 13393 net.cpp:434] bn_conv2 <- conv_conv2
I1221 13:23:47.216562 13393 net.cpp:395] bn_conv2 -> conv_conv2 (in-place)
I1221 13:23:47.216814 13393 net.cpp:150] Setting up bn_conv2
I1221 13:23:47.216837 13393 net.cpp:157] Top shape: 30 288 56 56 (27095040)
I1221 13:23:47.216850 13393 net.cpp:165] Memory required for data: 1041654120
I1221 13:23:47.216876 13393 layer_factory.hpp:77] Creating layer scale_conv_conv2
I1221 13:23:47.216900 13393 net.cpp:100] Creating Layer scale_conv_conv2
I1221 13:23:47.216915 13393 net.cpp:434] scale_conv_conv2 <- conv_conv2
I1221 13:23:47.216931 13393 net.cpp:395] scale_conv_conv2 -> conv_conv2 (in-place)
I1221 13:23:47.217001 13393 layer_factory.hpp:77] Creating layer scale_conv_conv2
I1221 13:23:47.217170 13393 net.cpp:150] Setting up scale_conv_conv2
I1221 13:23:47.217206 13393 net.cpp:157] Top shape: 30 288 56 56 (27095040)
I1221 13:23:47.217221 13393 net.cpp:165] Memory required for data: 1150034280
I1221 13:23:47.217238 13393 layer_factory.hpp:77] Creating layer relu_conv2
I1221 13:23:47.217259 13393 net.cpp:100] Creating Layer relu_conv2
I1221 13:23:47.217273 13393 net.cpp:434] relu_conv2 <- conv_conv2
I1221 13:23:47.217293 13393 net.cpp:395] relu_conv2 -> conv_conv2 (in-place)
I1221 13:23:47.217310 13393 net.cpp:150] Setting up relu_conv2
I1221 13:23:47.217326 13393 net.cpp:157] Top shape: 30 288 56 56 (27095040)
I1221 13:23:47.217339 13393 net.cpp:165] Memory required for data: 1258414440
I1221 13:23:47.217351 13393 layer_factory.hpp:77] Creating layer pool2
I1221 13:23:47.217367 13393 net.cpp:100] Creating Layer pool2
I1221 13:23:47.217381 13393 net.cpp:434] pool2 <- conv_conv2
I1221 13:23:47.217396 13393 net.cpp:408] pool2 -> pool2
I1221 13:23:47.217461 13393 net.cpp:150] Setting up pool2
I1221 13:23:47.217484 13393 net.cpp:157] Top shape: 30 288 28 28 (6773760)
I1221 13:23:47.217496 13393 net.cpp:165] Memory required for data: 1285509480
I1221 13:23:47.217509 13393 layer_factory.hpp:77] Creating layer pool2_pool2_0_split
I1221 13:23:47.217540 13393 net.cpp:100] Creating Layer pool2_pool2_0_split
I1221 13:23:47.217556 13393 net.cpp:434] pool2_pool2_0_split <- pool2
I1221 13:23:47.217576 13393 net.cpp:408] pool2_pool2_0_split -> pool2_pool2_0_split_0
I1221 13:23:47.217597 13393 net.cpp:408] pool2_pool2_0_split -> pool2_pool2_0_split_1
I1221 13:23:47.217615 13393 net.cpp:408] pool2_pool2_0_split -> pool2_pool2_0_split_2
I1221 13:23:47.217635 13393 net.cpp:408] pool2_pool2_0_split -> pool2_pool2_0_split_3
I1221 13:23:47.217720 13393 net.cpp:150] Setting up pool2_pool2_0_split
I1221 13:23:47.217741 13393 net.cpp:157] Top shape: 30 288 28 28 (6773760)
I1221 13:23:47.217758 13393 net.cpp:157] Top shape: 30 288 28 28 (6773760)
I1221 13:23:47.217773 13393 net.cpp:157] Top shape: 30 288 28 28 (6773760)
I1221 13:23:47.217787 13393 net.cpp:157] Top shape: 30 288 28 28 (6773760)
I1221 13:23:47.217802 13393 net.cpp:165] Memory required for data: 1393889640
I1221 13:23:47.217813 13393 layer_factory.hpp:77] Creating layer conv_3a_1x1
I1221 13:23:47.217835 13393 net.cpp:100] Creating Layer conv_3a_1x1
I1221 13:23:47.217850 13393 net.cpp:434] conv_3a_1x1 <- pool2_pool2_0_split_0
I1221 13:23:47.217872 13393 net.cpp:408] conv_3a_1x1 -> conv_3a_1x1
I1221 13:23:47.218880 13393 net.cpp:150] Setting up conv_3a_1x1
I1221 13:23:47.218911 13393 net.cpp:157] Top shape: 30 96 28 28 (2257920)
I1221 13:23:47.218926 13393 net.cpp:165] Memory required for data: 1402921320
I1221 13:23:47.218945 13393 layer_factory.hpp:77] Creating layer bn_3a_1x1
I1221 13:23:47.218966 13393 net.cpp:100] Creating Layer bn_3a_1x1
I1221 13:23:47.218981 13393 net.cpp:434] bn_3a_1x1 <- conv_3a_1x1
I1221 13:23:47.218997 13393 net.cpp:395] bn_3a_1x1 -> conv_3a_1x1 (in-place)
I1221 13:23:47.219290 13393 net.cpp:150] Setting up bn_3a_1x1
I1221 13:23:47.219317 13393 net.cpp:157] Top shape: 30 96 28 28 (2257920)
I1221 13:23:47.219331 13393 net.cpp:165] Memory required for data: 1411953000
I1221 13:23:47.219352 13393 layer_factory.hpp:77] Creating layer scale_conv_3a_1x1
I1221 13:23:47.219370 13393 net.cpp:100] Creating Layer scale_conv_3a_1x1
I1221 13:23:47.219383 13393 net.cpp:434] scale_conv_3a_1x1 <- conv_3a_1x1
I1221 13:23:47.219400 13393 net.cpp:395] scale_conv_3a_1x1 -> conv_3a_1x1 (in-place)
I1221 13:23:47.219470 13393 layer_factory.hpp:77] Creating layer scale_conv_3a_1x1
I1221 13:23:47.219643 13393 net.cpp:150] Setting up scale_conv_3a_1x1
I1221 13:23:47.219669 13393 net.cpp:157] Top shape: 30 96 28 28 (2257920)
I1221 13:23:47.219682 13393 net.cpp:165] Memory required for data: 1420984680
I1221 13:23:47.219701 13393 layer_factory.hpp:77] Creating layer relu_3a_1x1
I1221 13:23:47.219717 13393 net.cpp:100] Creating Layer relu_3a_1x1
I1221 13:23:47.219730 13393 net.cpp:434] relu_3a_1x1 <- conv_3a_1x1
I1221 13:23:47.219748 13393 net.cpp:395] relu_3a_1x1 -> conv_3a_1x1 (in-place)
I1221 13:23:47.219766 13393 net.cpp:150] Setting up relu_3a_1x1
I1221 13:23:47.219784 13393 net.cpp:157] Top shape: 30 96 28 28 (2257920)
I1221 13:23:47.219797 13393 net.cpp:165] Memory required for data: 1430016360
I1221 13:23:47.219811 13393 layer_factory.hpp:77] Creating layer conv_3a_3x3_reduce
I1221 13:23:47.219836 13393 net.cpp:100] Creating Layer conv_3a_3x3_reduce
I1221 13:23:47.219851 13393 net.cpp:434] conv_3a_3x3_reduce <- pool2_pool2_0_split_1
I1221 13:23:47.219872 13393 net.cpp:408] conv_3a_3x3_reduce -> conv_3a_3x3_reduce
I1221 13:23:47.220191 13393 net.cpp:150] Setting up conv_3a_3x3_reduce
I1221 13:23:47.220218 13393 net.cpp:157] Top shape: 30 96 28 28 (2257920)
I1221 13:23:47.220232 13393 net.cpp:165] Memory required for data: 1439048040
I1221 13:23:47.220250 13393 layer_factory.hpp:77] Creating layer bn_3a_3x3_reduce
I1221 13:23:47.220269 13393 net.cpp:100] Creating Layer bn_3a_3x3_reduce
I1221 13:23:47.220288 13393 net.cpp:434] bn_3a_3x3_reduce <- conv_3a_3x3_reduce
I1221 13:23:47.220306 13393 net.cpp:395] bn_3a_3x3_reduce -> conv_3a_3x3_reduce (in-place)
I1221 13:23:47.220556 13393 net.cpp:150] Setting up bn_3a_3x3_reduce
I1221 13:23:47.220592 13393 net.cpp:157] Top shape: 30 96 28 28 (2257920)
I1221 13:23:47.220616 13393 net.cpp:165] Memory required for data: 1448079720
I1221 13:23:47.220651 13393 layer_factory.hpp:77] Creating layer scale_conv_3a_3x3_reduce
I1221 13:23:47.220677 13393 net.cpp:100] Creating Layer scale_conv_3a_3x3_reduce
I1221 13:23:47.220695 13393 net.cpp:434] scale_conv_3a_3x3_reduce <- conv_3a_3x3_reduce
I1221 13:23:47.220713 13393 net.cpp:395] scale_conv_3a_3x3_reduce -> conv_3a_3x3_reduce (in-place)
I1221 13:23:47.220784 13393 layer_factory.hpp:77] Creating layer scale_conv_3a_3x3_reduce
I1221 13:23:47.220962 13393 net.cpp:150] Setting up scale_conv_3a_3x3_reduce
I1221 13:23:47.220988 13393 net.cpp:157] Top shape: 30 96 28 28 (2257920)
I1221 13:23:47.221001 13393 net.cpp:165] Memory required for data: 1457111400
I1221 13:23:47.221019 13393 layer_factory.hpp:77] Creating layer relu_3a_3x3_reduce
I1221 13:23:47.221037 13393 net.cpp:100] Creating Layer relu_3a_3x3_reduce
I1221 13:23:47.221050 13393 net.cpp:434] relu_3a_3x3_reduce <- conv_3a_3x3_reduce
I1221 13:23:47.221071 13393 net.cpp:395] relu_3a_3x3_reduce -> conv_3a_3x3_reduce (in-place)
I1221 13:23:47.221091 13393 net.cpp:150] Setting up relu_3a_3x3_reduce
I1221 13:23:47.221107 13393 net.cpp:157] Top shape: 30 96 28 28 (2257920)
I1221 13:23:47.221130 13393 net.cpp:165] Memory required for data: 1466143080
I1221 13:23:47.221145 13393 layer_factory.hpp:77] Creating layer conv_3a_3x3
I1221 13:23:47.221164 13393 net.cpp:100] Creating Layer conv_3a_3x3
I1221 13:23:47.221179 13393 net.cpp:434] conv_3a_3x3 <- conv_3a_3x3_reduce
I1221 13:23:47.221209 13393 net.cpp:408] conv_3a_3x3 -> conv_3a_3x3
I1221 13:23:47.222473 13393 net.cpp:150] Setting up conv_3a_3x3
I1221 13:23:47.222507 13393 net.cpp:157] Top shape: 30 96 28 28 (2257920)
I1221 13:23:47.222522 13393 net.cpp:165] Memory required for data: 1475174760
I1221 13:23:47.222542 13393 layer_factory.hpp:77] Creating layer bn_3a_3x3
I1221 13:23:47.222568 13393 net.cpp:100] Creating Layer bn_3a_3x3
I1221 13:23:47.222584 13393 net.cpp:434] bn_3a_3x3 <- conv_3a_3x3
I1221 13:23:47.222602 13393 net.cpp:395] bn_3a_3x3 -> conv_3a_3x3 (in-place)
I1221 13:23:47.222852 13393 net.cpp:150] Setting up bn_3a_3x3
I1221 13:23:47.222878 13393 net.cpp:157] Top shape: 30 96 28 28 (2257920)
I1221 13:23:47.222892 13393 net.cpp:165] Memory required for data: 1484206440
I1221 13:23:47.222934 13393 layer_factory.hpp:77] Creating layer scale_conv_3a_3x3
I1221 13:23:47.222954 13393 net.cpp:100] Creating Layer scale_conv_3a_3x3
I1221 13:23:47.222967 13393 net.cpp:434] scale_conv_3a_3x3 <- conv_3a_3x3
I1221 13:23:47.222982 13393 net.cpp:395] scale_conv_3a_3x3 -> conv_3a_3x3 (in-place)
I1221 13:23:47.223054 13393 layer_factory.hpp:77] Creating layer scale_conv_3a_3x3
I1221 13:23:47.223235 13393 net.cpp:150] Setting up scale_conv_3a_3x3
I1221 13:23:47.223263 13393 net.cpp:157] Top shape: 30 96 28 28 (2257920)
I1221 13:23:47.223276 13393 net.cpp:165] Memory required for data: 1493238120
I1221 13:23:47.223294 13393 layer_factory.hpp:77] Creating layer relu_3a_3x3
I1221 13:23:47.223315 13393 net.cpp:100] Creating Layer relu_3a_3x3
I1221 13:23:47.223328 13393 net.cpp:434] relu_3a_3x3 <- conv_3a_3x3
I1221 13:23:47.223345 13393 net.cpp:395] relu_3a_3x3 -> conv_3a_3x3 (in-place)
I1221 13:23:47.223363 13393 net.cpp:150] Setting up relu_3a_3x3
I1221 13:23:47.223379 13393 net.cpp:157] Top shape: 30 96 28 28 (2257920)
I1221 13:23:47.223392 13393 net.cpp:165] Memory required for data: 1502269800
I1221 13:23:47.223405 13393 layer_factory.hpp:77] Creating layer conv_3a_double_3x3_reduce
I1221 13:23:47.223430 13393 net.cpp:100] Creating Layer conv_3a_double_3x3_reduce
I1221 13:23:47.223445 13393 net.cpp:434] conv_3a_double_3x3_reduce <- pool2_pool2_0_split_2
I1221 13:23:47.223466 13393 net.cpp:408] conv_3a_double_3x3_reduce -> conv_3a_double_3x3_reduce
I1221 13:23:47.223786 13393 net.cpp:150] Setting up conv_3a_double_3x3_reduce
I1221 13:23:47.223814 13393 net.cpp:157] Top shape: 30 96 28 28 (2257920)
I1221 13:23:47.223826 13393 net.cpp:165] Memory required for data: 1511301480
I1221 13:23:47.223845 13393 layer_factory.hpp:77] Creating layer bn_3a_double_3x3_reduce
I1221 13:23:47.223867 13393 net.cpp:100] Creating Layer bn_3a_double_3x3_reduce
I1221 13:23:47.223881 13393 net.cpp:434] bn_3a_double_3x3_reduce <- conv_3a_double_3x3_reduce
I1221 13:23:47.223898 13393 net.cpp:395] bn_3a_double_3x3_reduce -> conv_3a_double_3x3_reduce (in-place)
I1221 13:23:47.224141 13393 net.cpp:150] Setting up bn_3a_double_3x3_reduce
I1221 13:23:47.224165 13393 net.cpp:157] Top shape: 30 96 28 28 (2257920)
I1221 13:23:47.224179 13393 net.cpp:165] Memory required for data: 1520333160
I1221 13:23:47.224208 13393 layer_factory.hpp:77] Creating layer scale_conv_3a_double_3x3_reduce
I1221 13:23:47.224227 13393 net.cpp:100] Creating Layer scale_conv_3a_double_3x3_reduce
I1221 13:23:47.224241 13393 net.cpp:434] scale_conv_3a_double_3x3_reduce <- conv_3a_double_3x3_reduce
I1221 13:23:47.224257 13393 net.cpp:395] scale_conv_3a_double_3x3_reduce -> conv_3a_double_3x3_reduce (in-place)
I1221 13:23:47.224325 13393 layer_factory.hpp:77] Creating layer scale_conv_3a_double_3x3_reduce
I1221 13:23:47.224508 13393 net.cpp:150] Setting up scale_conv_3a_double_3x3_reduce
I1221 13:23:47.224531 13393 net.cpp:157] Top shape: 30 96 28 28 (2257920)
I1221 13:23:47.224553 13393 net.cpp:165] Memory required for data: 1529364840
I1221 13:23:47.224572 13393 layer_factory.hpp:77] Creating layer relu_3a_double_3x3_reduce
I1221 13:23:47.224601 13393 net.cpp:100] Creating Layer relu_3a_double_3x3_reduce
I1221 13:23:47.224617 13393 net.cpp:434] relu_3a_double_3x3_reduce <- conv_3a_double_3x3_reduce
I1221 13:23:47.224633 13393 net.cpp:395] relu_3a_double_3x3_reduce -> conv_3a_double_3x3_reduce (in-place)
I1221 13:23:47.224653 13393 net.cpp:150] Setting up relu_3a_double_3x3_reduce
I1221 13:23:47.224668 13393 net.cpp:157] Top shape: 30 96 28 28 (2257920)
I1221 13:23:47.224680 13393 net.cpp:165] Memory required for data: 1538396520
I1221 13:23:47.224694 13393 layer_factory.hpp:77] Creating layer conv_3a_double_3x3_0
I1221 13:23:47.224711 13393 net.cpp:100] Creating Layer conv_3a_double_3x3_0
I1221 13:23:47.224725 13393 net.cpp:434] conv_3a_double_3x3_0 <- conv_3a_double_3x3_reduce
I1221 13:23:47.224747 13393 net.cpp:408] conv_3a_double_3x3_0 -> conv_3a_double_3x3_0
I1221 13:23:47.225142 13393 net.cpp:150] Setting up conv_3a_double_3x3_0
I1221 13:23:47.225168 13393 net.cpp:157] Top shape: 30 144 28 28 (3386880)
I1221 13:23:47.225188 13393 net.cpp:165] Memory required for data: 1551944040
I1221 13:23:47.225206 13393 layer_factory.hpp:77] Creating layer bn_3a_double_3x3_0
I1221 13:23:47.225224 13393 net.cpp:100] Creating Layer bn_3a_double_3x3_0
I1221 13:23:47.225239 13393 net.cpp:434] bn_3a_double_3x3_0 <- conv_3a_double_3x3_0
I1221 13:23:47.225260 13393 net.cpp:395] bn_3a_double_3x3_0 -> conv_3a_double_3x3_0 (in-place)
I1221 13:23:47.225519 13393 net.cpp:150] Setting up bn_3a_double_3x3_0
I1221 13:23:47.225543 13393 net.cpp:157] Top shape: 30 144 28 28 (3386880)
I1221 13:23:47.225555 13393 net.cpp:165] Memory required for data: 1565491560
I1221 13:23:47.225574 13393 layer_factory.hpp:77] Creating layer scale_conv_3a_double_3x3_0
I1221 13:23:47.225592 13393 net.cpp:100] Creating Layer scale_conv_3a_double_3x3_0
I1221 13:23:47.225605 13393 net.cpp:434] scale_conv_3a_double_3x3_0 <- conv_3a_double_3x3_0
I1221 13:23:47.225626 13393 net.cpp:395] scale_conv_3a_double_3x3_0 -> conv_3a_double_3x3_0 (in-place)
I1221 13:23:47.225692 13393 layer_factory.hpp:77] Creating layer scale_conv_3a_double_3x3_0
I1221 13:23:47.225859 13393 net.cpp:150] Setting up scale_conv_3a_double_3x3_0
I1221 13:23:47.225884 13393 net.cpp:157] Top shape: 30 144 28 28 (3386880)
I1221 13:23:47.225896 13393 net.cpp:165] Memory required for data: 1579039080
I1221 13:23:47.225914 13393 layer_factory.hpp:77] Creating layer relu_3a_double_3x3_0
I1221 13:23:47.225936 13393 net.cpp:100] Creating Layer relu_3a_double_3x3_0
I1221 13:23:47.225950 13393 net.cpp:434] relu_3a_double_3x3_0 <- conv_3a_double_3x3_0
I1221 13:23:47.225966 13393 net.cpp:395] relu_3a_double_3x3_0 -> conv_3a_double_3x3_0 (in-place)
I1221 13:23:47.225985 13393 net.cpp:150] Setting up relu_3a_double_3x3_0
I1221 13:23:47.226001 13393 net.cpp:157] Top shape: 30 144 28 28 (3386880)
I1221 13:23:47.226013 13393 net.cpp:165] Memory required for data: 1592586600
I1221 13:23:47.226025 13393 layer_factory.hpp:77] Creating layer conv_3a_double_3x3_1
I1221 13:23:47.226047 13393 net.cpp:100] Creating Layer conv_3a_double_3x3_1
I1221 13:23:47.226063 13393 net.cpp:434] conv_3a_double_3x3_1 <- conv_3a_double_3x3_0
I1221 13:23:47.226083 13393 net.cpp:408] conv_3a_double_3x3_1 -> conv_3a_double_3x3_1
I1221 13:23:47.227226 13393 net.cpp:150] Setting up conv_3a_double_3x3_1
I1221 13:23:47.227254 13393 net.cpp:157] Top shape: 30 144 28 28 (3386880)
I1221 13:23:47.227268 13393 net.cpp:165] Memory required for data: 1606134120
I1221 13:23:47.227286 13393 layer_factory.hpp:77] Creating layer bn_3a_double_3x3_1
I1221 13:23:47.227308 13393 net.cpp:100] Creating Layer bn_3a_double_3x3_1
I1221 13:23:47.227324 13393 net.cpp:434] bn_3a_double_3x3_1 <- conv_3a_double_3x3_1
I1221 13:23:47.227355 13393 net.cpp:395] bn_3a_double_3x3_1 -> conv_3a_double_3x3_1 (in-place)
I1221 13:23:47.227610 13393 net.cpp:150] Setting up bn_3a_double_3x3_1
I1221 13:23:47.227634 13393 net.cpp:157] Top shape: 30 144 28 28 (3386880)
I1221 13:23:47.227656 13393 net.cpp:165] Memory required for data: 1619681640
I1221 13:23:47.227677 13393 layer_factory.hpp:77] Creating layer scale_conv_3a_double_3x3_1
I1221 13:23:47.227696 13393 net.cpp:100] Creating Layer scale_conv_3a_double_3x3_1
I1221 13:23:47.227710 13393 net.cpp:434] scale_conv_3a_double_3x3_1 <- conv_3a_double_3x3_1
I1221 13:23:47.227725 13393 net.cpp:395] scale_conv_3a_double_3x3_1 -> conv_3a_double_3x3_1 (in-place)
I1221 13:23:47.227797 13393 layer_factory.hpp:77] Creating layer scale_conv_3a_double_3x3_1
I1221 13:23:47.227963 13393 net.cpp:150] Setting up scale_conv_3a_double_3x3_1
I1221 13:23:47.227990 13393 net.cpp:157] Top shape: 30 144 28 28 (3386880)
I1221 13:23:47.228003 13393 net.cpp:165] Memory required for data: 1633229160
I1221 13:23:47.228021 13393 layer_factory.hpp:77] Creating layer relu_3a_double_3x3_1
I1221 13:23:47.228039 13393 net.cpp:100] Creating Layer relu_3a_double_3x3_1
I1221 13:23:47.228057 13393 net.cpp:434] relu_3a_double_3x3_1 <- conv_3a_double_3x3_1
I1221 13:23:47.228073 13393 net.cpp:395] relu_3a_double_3x3_1 -> conv_3a_double_3x3_1 (in-place)
I1221 13:23:47.228092 13393 net.cpp:150] Setting up relu_3a_double_3x3_1
I1221 13:23:47.228108 13393 net.cpp:157] Top shape: 30 144 28 28 (3386880)
I1221 13:23:47.228121 13393 net.cpp:165] Memory required for data: 1646776680
I1221 13:23:47.228133 13393 layer_factory.hpp:77] Creating layer ave_pool_3a_pool
I1221 13:23:47.228155 13393 net.cpp:100] Creating Layer ave_pool_3a_pool
I1221 13:23:47.228170 13393 net.cpp:434] ave_pool_3a_pool <- pool2_pool2_0_split_3
I1221 13:23:47.228194 13393 net.cpp:408] ave_pool_3a_pool -> ave_pool_3a_pool
I1221 13:23:47.228240 13393 net.cpp:150] Setting up ave_pool_3a_pool
I1221 13:23:47.228262 13393 net.cpp:157] Top shape: 30 288 28 28 (6773760)
I1221 13:23:47.228277 13393 net.cpp:165] Memory required for data: 1673871720
I1221 13:23:47.228291 13393 layer_factory.hpp:77] Creating layer conv_3a_proj
I1221 13:23:47.228314 13393 net.cpp:100] Creating Layer conv_3a_proj
I1221 13:23:47.228329 13393 net.cpp:434] conv_3a_proj <- ave_pool_3a_pool
I1221 13:23:47.228348 13393 net.cpp:408] conv_3a_proj -> conv_3a_proj
I1221 13:23:47.228668 13393 net.cpp:150] Setting up conv_3a_proj
I1221 13:23:47.228693 13393 net.cpp:157] Top shape: 30 48 28 28 (1128960)
I1221 13:23:47.228706 13393 net.cpp:165] Memory required for data: 1678387560
I1221 13:23:47.228737 13393 layer_factory.hpp:77] Creating layer bn_3a_proj
I1221 13:23:47.228760 13393 net.cpp:100] Creating Layer bn_3a_proj
I1221 13:23:47.228775 13393 net.cpp:434] bn_3a_proj <- conv_3a_proj
I1221 13:23:47.228792 13393 net.cpp:395] bn_3a_proj -> conv_3a_proj (in-place)
I1221 13:23:47.229043 13393 net.cpp:150] Setting up bn_3a_proj
I1221 13:23:47.229065 13393 net.cpp:157] Top shape: 30 48 28 28 (1128960)
I1221 13:23:47.229079 13393 net.cpp:165] Memory required for data: 1682903400
I1221 13:23:47.229099 13393 layer_factory.hpp:77] Creating layer scale_conv_3a_proj
I1221 13:23:47.229116 13393 net.cpp:100] Creating Layer scale_conv_3a_proj
I1221 13:23:47.229130 13393 net.cpp:434] scale_conv_3a_proj <- conv_3a_proj
I1221 13:23:47.229146 13393 net.cpp:395] scale_conv_3a_proj -> conv_3a_proj (in-place)
I1221 13:23:47.229248 13393 layer_factory.hpp:77] Creating layer scale_conv_3a_proj
I1221 13:23:47.229423 13393 net.cpp:150] Setting up scale_conv_3a_proj
I1221 13:23:47.229449 13393 net.cpp:157] Top shape: 30 48 28 28 (1128960)
I1221 13:23:47.229463 13393 net.cpp:165] Memory required for data: 1687419240
I1221 13:23:47.229480 13393 layer_factory.hpp:77] Creating layer relu_3a_proj
I1221 13:23:47.229497 13393 net.cpp:100] Creating Layer relu_3a_proj
I1221 13:23:47.229511 13393 net.cpp:434] relu_3a_proj <- conv_3a_proj
I1221 13:23:47.229526 13393 net.cpp:395] relu_3a_proj -> conv_3a_proj (in-place)
I1221 13:23:47.229543 13393 net.cpp:150] Setting up relu_3a_proj
I1221 13:23:47.229558 13393 net.cpp:157] Top shape: 30 48 28 28 (1128960)
I1221 13:23:47.229571 13393 net.cpp:165] Memory required for data: 1691935080
I1221 13:23:47.229583 13393 layer_factory.hpp:77] Creating layer ch_concat_3a_chconcat
I1221 13:23:47.229610 13393 net.cpp:100] Creating Layer ch_concat_3a_chconcat
I1221 13:23:47.229624 13393 net.cpp:434] ch_concat_3a_chconcat <- conv_3a_1x1
I1221 13:23:47.229640 13393 net.cpp:434] ch_concat_3a_chconcat <- conv_3a_3x3
I1221 13:23:47.229653 13393 net.cpp:434] ch_concat_3a_chconcat <- conv_3a_double_3x3_1
I1221 13:23:47.229667 13393 net.cpp:434] ch_concat_3a_chconcat <- conv_3a_proj
I1221 13:23:47.229687 13393 net.cpp:408] ch_concat_3a_chconcat -> ch_concat_3a_chconcat
I1221 13:23:47.229737 13393 net.cpp:150] Setting up ch_concat_3a_chconcat
I1221 13:23:47.229759 13393 net.cpp:157] Top shape: 30 384 28 28 (9031680)
I1221 13:23:47.229773 13393 net.cpp:165] Memory required for data: 1728061800
I1221 13:23:47.229785 13393 layer_factory.hpp:77] Creating layer ch_concat_3a_chconcat_ch_concat_3a_chconcat_0_split
I1221 13:23:47.229804 13393 net.cpp:100] Creating Layer ch_concat_3a_chconcat_ch_concat_3a_chconcat_0_split
I1221 13:23:47.229816 13393 net.cpp:434] ch_concat_3a_chconcat_ch_concat_3a_chconcat_0_split <- ch_concat_3a_chconcat
I1221 13:23:47.229837 13393 net.cpp:408] ch_concat_3a_chconcat_ch_concat_3a_chconcat_0_split -> ch_concat_3a_chconcat_ch_concat_3a_chconcat_0_split_0
I1221 13:23:47.229858 13393 net.cpp:408] ch_concat_3a_chconcat_ch_concat_3a_chconcat_0_split -> ch_concat_3a_chconcat_ch_concat_3a_chconcat_0_split_1
I1221 13:23:47.229878 13393 net.cpp:408] ch_concat_3a_chconcat_ch_concat_3a_chconcat_0_split -> ch_concat_3a_chconcat_ch_concat_3a_chconcat_0_split_2
I1221 13:23:47.229902 13393 net.cpp:408] ch_concat_3a_chconcat_ch_concat_3a_chconcat_0_split -> ch_concat_3a_chconcat_ch_concat_3a_chconcat_0_split_3
I1221 13:23:47.229990 13393 net.cpp:150] Setting up ch_concat_3a_chconcat_ch_concat_3a_chconcat_0_split
I1221 13:23:47.230013 13393 net.cpp:157] Top shape: 30 384 28 28 (9031680)
I1221 13:23:47.230028 13393 net.cpp:157] Top shape: 30 384 28 28 (9031680)
I1221 13:23:47.230042 13393 net.cpp:157] Top shape: 30 384 28 28 (9031680)
I1221 13:23:47.230057 13393 net.cpp:157] Top shape: 30 384 28 28 (9031680)
I1221 13:23:47.230069 13393 net.cpp:165] Memory required for data: 1872568680
I1221 13:23:47.230082 13393 layer_factory.hpp:77] Creating layer conv_3b_1x1
I1221 13:23:47.230105 13393 net.cpp:100] Creating Layer conv_3b_1x1
I1221 13:23:47.230121 13393 net.cpp:434] conv_3b_1x1 <- ch_concat_3a_chconcat_ch_concat_3a_chconcat_0_split_0
I1221 13:23:47.230142 13393 net.cpp:408] conv_3b_1x1 -> conv_3b_1x1
I1221 13:23:47.230479 13393 net.cpp:150] Setting up conv_3b_1x1
I1221 13:23:47.230505 13393 net.cpp:157] Top shape: 30 96 28 28 (2257920)
I1221 13:23:47.230517 13393 net.cpp:165] Memory required for data: 1881600360
I1221 13:23:47.230535 13393 layer_factory.hpp:77] Creating layer bn_3b_1x1
I1221 13:23:47.230552 13393 net.cpp:100] Creating Layer bn_3b_1x1
I1221 13:23:47.230566 13393 net.cpp:434] bn_3b_1x1 <- conv_3b_1x1
I1221 13:23:47.230587 13393 net.cpp:395] bn_3b_1x1 -> conv_3b_1x1 (in-place)
I1221 13:23:47.230841 13393 net.cpp:150] Setting up bn_3b_1x1
I1221 13:23:47.230865 13393 net.cpp:157] Top shape: 30 96 28 28 (2257920)
I1221 13:23:47.230878 13393 net.cpp:165] Memory required for data: 1890632040
I1221 13:23:47.230898 13393 layer_factory.hpp:77] Creating layer scale_conv_3b_1x1
I1221 13:23:47.230916 13393 net.cpp:100] Creating Layer scale_conv_3b_1x1
I1221 13:23:47.230928 13393 net.cpp:434] scale_conv_3b_1x1 <- conv_3b_1x1
I1221 13:23:47.230948 13393 net.cpp:395] scale_conv_3b_1x1 -> conv_3b_1x1 (in-place)
I1221 13:23:47.231011 13393 layer_factory.hpp:77] Creating layer scale_conv_3b_1x1
I1221 13:23:47.231194 13393 net.cpp:150] Setting up scale_conv_3b_1x1
I1221 13:23:47.231217 13393 net.cpp:157] Top shape: 30 96 28 28 (2257920)
I1221 13:23:47.231230 13393 net.cpp:165] Memory required for data: 1899663720
I1221 13:23:47.231248 13393 layer_factory.hpp:77] Creating layer relu_3b_1x1
I1221 13:23:47.231264 13393 net.cpp:100] Creating Layer relu_3b_1x1
I1221 13:23:47.231278 13393 net.cpp:434] relu_3b_1x1 <- conv_3b_1x1
I1221 13:23:47.231298 13393 net.cpp:395] relu_3b_1x1 -> conv_3b_1x1 (in-place)
I1221 13:23:47.231326 13393 net.cpp:150] Setting up relu_3b_1x1
I1221 13:23:47.231343 13393 net.cpp:157] Top shape: 30 96 28 28 (2257920)
I1221 13:23:47.231356 13393 net.cpp:165] Memory required for data: 1908695400
I1221 13:23:47.231369 13393 layer_factory.hpp:77] Creating layer conv_3b_3x3_reduce
I1221 13:23:47.231393 13393 net.cpp:100] Creating Layer conv_3b_3x3_reduce
I1221 13:23:47.231407 13393 net.cpp:434] conv_3b_3x3_reduce <- ch_concat_3a_chconcat_ch_concat_3a_chconcat_0_split_1
I1221 13:23:47.231426 13393 net.cpp:408] conv_3b_3x3_reduce -> conv_3b_3x3_reduce
I1221 13:23:47.231767 13393 net.cpp:150] Setting up conv_3b_3x3_reduce
I1221 13:23:47.231792 13393 net.cpp:157] Top shape: 30 96 28 28 (2257920)
I1221 13:23:47.231806 13393 net.cpp:165] Memory required for data: 1917727080
I1221 13:23:47.231823 13393 layer_factory.hpp:77] Creating layer bn_3b_3x3_reduce
I1221 13:23:47.231844 13393 net.cpp:100] Creating Layer bn_3b_3x3_reduce
I1221 13:23:47.231859 13393 net.cpp:434] bn_3b_3x3_reduce <- conv_3b_3x3_reduce
I1221 13:23:47.231876 13393 net.cpp:395] bn_3b_3x3_reduce -> conv_3b_3x3_reduce (in-place)
I1221 13:23:47.232132 13393 net.cpp:150] Setting up bn_3b_3x3_reduce
I1221 13:23:47.232167 13393 net.cpp:157] Top shape: 30 96 28 28 (2257920)
I1221 13:23:47.232187 13393 net.cpp:165] Memory required for data: 1926758760
I1221 13:23:47.232209 13393 layer_factory.hpp:77] Creating layer scale_conv_3b_3x3_reduce
I1221 13:23:47.232228 13393 net.cpp:100] Creating Layer scale_conv_3b_3x3_reduce
I1221 13:23:47.232242 13393 net.cpp:434] scale_conv_3b_3x3_reduce <- conv_3b_3x3_reduce
I1221 13:23:47.232264 13393 net.cpp:395] scale_conv_3b_3x3_reduce -> conv_3b_3x3_reduce (in-place)
I1221 13:23:47.232332 13393 layer_factory.hpp:77] Creating layer scale_conv_3b_3x3_reduce
I1221 13:23:47.232507 13393 net.cpp:150] Setting up scale_conv_3b_3x3_reduce
I1221 13:23:47.232533 13393 net.cpp:157] Top shape: 30 96 28 28 (2257920)
I1221 13:23:47.232547 13393 net.cpp:165] Memory required for data: 1935790440
I1221 13:23:47.232564 13393 layer_factory.hpp:77] Creating layer relu_3b_3x3_reduce
I1221 13:23:47.232583 13393 net.cpp:100] Creating Layer relu_3b_3x3_reduce
I1221 13:23:47.232595 13393 net.cpp:434] relu_3b_3x3_reduce <- conv_3b_3x3_reduce
I1221 13:23:47.232615 13393 net.cpp:395] relu_3b_3x3_reduce -> conv_3b_3x3_reduce (in-place)
I1221 13:23:47.232635 13393 net.cpp:150] Setting up relu_3b_3x3_reduce
I1221 13:23:47.232651 13393 net.cpp:157] Top shape: 30 96 28 28 (2257920)
I1221 13:23:47.232663 13393 net.cpp:165] Memory required for data: 1944822120
I1221 13:23:47.232677 13393 layer_factory.hpp:77] Creating layer conv_3b_3x3
I1221 13:23:47.232700 13393 net.cpp:100] Creating Layer conv_3b_3x3
I1221 13:23:47.232714 13393 net.cpp:434] conv_3b_3x3 <- conv_3b_3x3_reduce
I1221 13:23:47.232731 13393 net.cpp:408] conv_3b_3x3 -> conv_3b_3x3
I1221 13:23:47.233819 13393 net.cpp:150] Setting up conv_3b_3x3
I1221 13:23:47.233853 13393 net.cpp:157] Top shape: 30 144 28 28 (3386880)
I1221 13:23:47.233868 13393 net.cpp:165] Memory required for data: 1958369640
I1221 13:23:47.233887 13393 layer_factory.hpp:77] Creating layer bn_3b_3x3
I1221 13:23:47.233911 13393 net.cpp:100] Creating Layer bn_3b_3x3
I1221 13:23:47.233927 13393 net.cpp:434] bn_3b_3x3 <- conv_3b_3x3
I1221 13:23:47.233942 13393 net.cpp:395] bn_3b_3x3 -> conv_3b_3x3 (in-place)
I1221 13:23:47.234201 13393 net.cpp:150] Setting up bn_3b_3x3
I1221 13:23:47.234228 13393 net.cpp:157] Top shape: 30 144 28 28 (3386880)
I1221 13:23:47.234242 13393 net.cpp:165] Memory required for data: 1971917160
I1221 13:23:47.234262 13393 layer_factory.hpp:77] Creating layer scale_conv_3b_3x3
I1221 13:23:47.234287 13393 net.cpp:100] Creating Layer scale_conv_3b_3x3
I1221 13:23:47.234302 13393 net.cpp:434] scale_conv_3b_3x3 <- conv_3b_3x3
I1221 13:23:47.234318 13393 net.cpp:395] scale_conv_3b_3x3 -> conv_3b_3x3 (in-place)
I1221 13:23:47.234385 13393 layer_factory.hpp:77] Creating layer scale_conv_3b_3x3
I1221 13:23:47.234558 13393 net.cpp:150] Setting up scale_conv_3b_3x3
I1221 13:23:47.234593 13393 net.cpp:157] Top shape: 30 144 28 28 (3386880)
I1221 13:23:47.234607 13393 net.cpp:165] Memory required for data: 1985464680
I1221 13:23:47.234625 13393 layer_factory.hpp:77] Creating layer relu_3b_3x3
I1221 13:23:47.234647 13393 net.cpp:100] Creating Layer relu_3b_3x3
I1221 13:23:47.234660 13393 net.cpp:434] relu_3b_3x3 <- conv_3b_3x3
I1221 13:23:47.234676 13393 net.cpp:395] relu_3b_3x3 -> conv_3b_3x3 (in-place)
I1221 13:23:47.234697 13393 net.cpp:150] Setting up relu_3b_3x3
I1221 13:23:47.234715 13393 net.cpp:157] Top shape: 30 144 28 28 (3386880)
I1221 13:23:47.234729 13393 net.cpp:165] Memory required for data: 1999012200
I1221 13:23:47.234741 13393 layer_factory.hpp:77] Creating layer conv_3b_double_3x3_reduce
I1221 13:23:47.234760 13393 net.cpp:100] Creating Layer conv_3b_double_3x3_reduce
I1221 13:23:47.234777 13393 net.cpp:434] conv_3b_double_3x3_reduce <- ch_concat_3a_chconcat_ch_concat_3a_chconcat_0_split_2
I1221 13:23:47.234802 13393 net.cpp:408] conv_3b_double_3x3_reduce -> conv_3b_double_3x3_reduce
I1221 13:23:47.235134 13393 net.cpp:150] Setting up conv_3b_double_3x3_reduce
I1221 13:23:47.235159 13393 net.cpp:157] Top shape: 30 96 28 28 (2257920)
I1221 13:23:47.235172 13393 net.cpp:165] Memory required for data: 2008043880
I1221 13:23:47.235198 13393 layer_factory.hpp:77] Creating layer bn_3b_double_3x3_reduce
I1221 13:23:47.235218 13393 net.cpp:100] Creating Layer bn_3b_double_3x3_reduce
I1221 13:23:47.235234 13393 net.cpp:434] bn_3b_double_3x3_reduce <- conv_3b_double_3x3_reduce
I1221 13:23:47.235254 13393 net.cpp:395] bn_3b_double_3x3_reduce -> conv_3b_double_3x3_reduce (in-place)
I1221 13:23:47.235510 13393 net.cpp:150] Setting up bn_3b_double_3x3_reduce
I1221 13:23:47.235538 13393 net.cpp:157] Top shape: 30 96 28 28 (2257920)
I1221 13:23:47.235551 13393 net.cpp:165] Memory required for data: 2017075560
I1221 13:23:47.235571 13393 layer_factory.hpp:77] Creating layer scale_conv_3b_double_3x3_reduce
I1221 13:23:47.235594 13393 net.cpp:100] Creating Layer scale_conv_3b_double_3x3_reduce
I1221 13:23:47.235610 13393 net.cpp:434] scale_conv_3b_double_3x3_reduce <- conv_3b_double_3x3_reduce
I1221 13:23:47.235625 13393 net.cpp:395] scale_conv_3b_double_3x3_reduce -> conv_3b_double_3x3_reduce (in-place)
I1221 13:23:47.235693 13393 layer_factory.hpp:77] Creating layer scale_conv_3b_double_3x3_reduce
I1221 13:23:47.235867 13393 net.cpp:150] Setting up scale_conv_3b_double_3x3_reduce
I1221 13:23:47.235891 13393 net.cpp:157] Top shape: 30 96 28 28 (2257920)
I1221 13:23:47.235906 13393 net.cpp:165] Memory required for data: 2026107240
I1221 13:23:47.235924 13393 layer_factory.hpp:77] Creating layer relu_3b_double_3x3_reduce
I1221 13:23:47.235945 13393 net.cpp:100] Creating Layer relu_3b_double_3x3_reduce
I1221 13:23:47.235960 13393 net.cpp:434] relu_3b_double_3x3_reduce <- conv_3b_double_3x3_reduce
I1221 13:23:47.235980 13393 net.cpp:395] relu_3b_double_3x3_reduce -> conv_3b_double_3x3_reduce (in-place)
I1221 13:23:47.235998 13393 net.cpp:150] Setting up relu_3b_double_3x3_reduce
I1221 13:23:47.236014 13393 net.cpp:157] Top shape: 30 96 28 28 (2257920)
I1221 13:23:47.236027 13393 net.cpp:165] Memory required for data: 2035138920
I1221 13:23:47.236040 13393 layer_factory.hpp:77] Creating layer conv_3b_double_3x3_0
I1221 13:23:47.236075 13393 net.cpp:100] Creating Layer conv_3b_double_3x3_0
I1221 13:23:47.236091 13393 net.cpp:434] conv_3b_double_3x3_0 <- conv_3b_double_3x3_reduce
I1221 13:23:47.236109 13393 net.cpp:408] conv_3b_double_3x3_0 -> conv_3b_double_3x3_0
I1221 13:23:47.236521 13393 net.cpp:150] Setting up conv_3b_double_3x3_0
I1221 13:23:47.236553 13393 net.cpp:157] Top shape: 30 144 28 28 (3386880)
I1221 13:23:47.236568 13393 net.cpp:165] Memory required for data: 2048686440
I1221 13:23:47.236588 13393 layer_factory.hpp:77] Creating layer bn_3b_double_3x3_0
I1221 13:23:47.236605 13393 net.cpp:100] Creating Layer bn_3b_double_3x3_0
I1221 13:23:47.236619 13393 net.cpp:434] bn_3b_double_3x3_0 <- conv_3b_double_3x3_0
I1221 13:23:47.236636 13393 net.cpp:395] bn_3b_double_3x3_0 -> conv_3b_double_3x3_0 (in-place)
I1221 13:23:47.236906 13393 net.cpp:150] Setting up bn_3b_double_3x3_0
I1221 13:23:47.236932 13393 net.cpp:157] Top shape: 30 144 28 28 (3386880)
I1221 13:23:47.236946 13393 net.cpp:165] Memory required for data: 2062233960
I1221 13:23:47.236965 13393 layer_factory.hpp:77] Creating layer scale_conv_3b_double_3x3_0
I1221 13:23:47.236984 13393 net.cpp:100] Creating Layer scale_conv_3b_double_3x3_0
I1221 13:23:47.236997 13393 net.cpp:434] scale_conv_3b_double_3x3_0 <- conv_3b_double_3x3_0
I1221 13:23:47.237018 13393 net.cpp:395] scale_conv_3b_double_3x3_0 -> conv_3b_double_3x3_0 (in-place)
I1221 13:23:47.237087 13393 layer_factory.hpp:77] Creating layer scale_conv_3b_double_3x3_0
I1221 13:23:47.237277 13393 net.cpp:150] Setting up scale_conv_3b_double_3x3_0
I1221 13:23:47.237303 13393 net.cpp:157] Top shape: 30 144 28 28 (3386880)
I1221 13:23:47.237318 13393 net.cpp:165] Memory required for data: 2075781480
I1221 13:23:47.237335 13393 layer_factory.hpp:77] Creating layer relu_3b_double_3x3_0
I1221 13:23:47.237352 13393 net.cpp:100] Creating Layer relu_3b_double_3x3_0
I1221 13:23:47.237366 13393 net.cpp:434] relu_3b_double_3x3_0 <- conv_3b_double_3x3_0
I1221 13:23:47.237386 13393 net.cpp:395] relu_3b_double_3x3_0 -> conv_3b_double_3x3_0 (in-place)
I1221 13:23:47.237406 13393 net.cpp:150] Setting up relu_3b_double_3x3_0
I1221 13:23:47.237421 13393 net.cpp:157] Top shape: 30 144 28 28 (3386880)
I1221 13:23:47.237433 13393 net.cpp:165] Memory required for data: 2089329000
I1221 13:23:47.237447 13393 layer_factory.hpp:77] Creating layer conv_3b_double_3x3_1
I1221 13:23:47.237468 13393 net.cpp:100] Creating Layer conv_3b_double_3x3_1
I1221 13:23:47.237483 13393 net.cpp:434] conv_3b_double_3x3_1 <- conv_3b_double_3x3_0
I1221 13:23:47.237501 13393 net.cpp:408] conv_3b_double_3x3_1 -> conv_3b_double_3x3_1
I1221 13:23:47.238751 13393 net.cpp:150] Setting up conv_3b_double_3x3_1
I1221 13:23:47.238783 13393 net.cpp:157] Top shape: 30 144 28 28 (3386880)
I1221 13:23:47.238798 13393 net.cpp:165] Memory required for data: 2102876520
I1221 13:23:47.238817 13393 layer_factory.hpp:77] Creating layer bn_3b_double_3x3_1
I1221 13:23:47.238843 13393 net.cpp:100] Creating Layer bn_3b_double_3x3_1
I1221 13:23:47.238859 13393 net.cpp:434] bn_3b_double_3x3_1 <- conv_3b_double_3x3_1
I1221 13:23:47.238878 13393 net.cpp:395] bn_3b_double_3x3_1 -> conv_3b_double_3x3_1 (in-place)
I1221 13:23:47.239138 13393 net.cpp:150] Setting up bn_3b_double_3x3_1
I1221 13:23:47.239166 13393 net.cpp:157] Top shape: 30 144 28 28 (3386880)
I1221 13:23:47.239179 13393 net.cpp:165] Memory required for data: 2116424040
I1221 13:23:47.239207 13393 layer_factory.hpp:77] Creating layer scale_conv_3b_double_3x3_1
I1221 13:23:47.239233 13393 net.cpp:100] Creating Layer scale_conv_3b_double_3x3_1
I1221 13:23:47.239248 13393 net.cpp:434] scale_conv_3b_double_3x3_1 <- conv_3b_double_3x3_1
I1221 13:23:47.239265 13393 net.cpp:395] scale_conv_3b_double_3x3_1 -> conv_3b_double_3x3_1 (in-place)
I1221 13:23:47.239334 13393 layer_factory.hpp:77] Creating layer scale_conv_3b_double_3x3_1
I1221 13:23:47.239516 13393 net.cpp:150] Setting up scale_conv_3b_double_3x3_1
I1221 13:23:47.239542 13393 net.cpp:157] Top shape: 30 144 28 28 (3386880)
I1221 13:23:47.239555 13393 net.cpp:165] Memory required for data: 2129971560
I1221 13:23:47.239573 13393 layer_factory.hpp:77] Creating layer relu_3b_double_3x3_1
I1221 13:23:47.239593 13393 net.cpp:100] Creating Layer relu_3b_double_3x3_1
I1221 13:23:47.239605 13393 net.cpp:434] relu_3b_double_3x3_1 <- conv_3b_double_3x3_1
I1221 13:23:47.239625 13393 net.cpp:395] relu_3b_double_3x3_1 -> conv_3b_double_3x3_1 (in-place)
I1221 13:23:47.239645 13393 net.cpp:150] Setting up relu_3b_double_3x3_1
I1221 13:23:47.239660 13393 net.cpp:157] Top shape: 30 144 28 28 (3386880)
I1221 13:23:47.239673 13393 net.cpp:165] Memory required for data: 2143519080
I1221 13:23:47.239687 13393 layer_factory.hpp:77] Creating layer ave_pool_3b_pool
I1221 13:23:47.239706 13393 net.cpp:100] Creating Layer ave_pool_3b_pool
I1221 13:23:47.239719 13393 net.cpp:434] ave_pool_3b_pool <- ch_concat_3a_chconcat_ch_concat_3a_chconcat_0_split_3
I1221 13:23:47.239750 13393 net.cpp:408] ave_pool_3b_pool -> ave_pool_3b_pool
I1221 13:23:47.239804 13393 net.cpp:150] Setting up ave_pool_3b_pool
I1221 13:23:47.239832 13393 net.cpp:157] Top shape: 30 384 28 28 (9031680)
I1221 13:23:47.239846 13393 net.cpp:165] Memory required for data: 2179645800
I1221 13:23:47.239861 13393 layer_factory.hpp:77] Creating layer conv_3b_proj
I1221 13:23:47.239881 13393 net.cpp:100] Creating Layer conv_3b_proj
I1221 13:23:47.239894 13393 net.cpp:434] conv_3b_proj <- ave_pool_3b_pool
I1221 13:23:47.239913 13393 net.cpp:408] conv_3b_proj -> conv_3b_proj
I1221 13:23:47.240274 13393 net.cpp:150] Setting up conv_3b_proj
I1221 13:23:47.240303 13393 net.cpp:157] Top shape: 30 96 28 28 (2257920)
I1221 13:23:47.240316 13393 net.cpp:165] Memory required for data: 2188677480
I1221 13:23:47.240335 13393 layer_factory.hpp:77] Creating layer bn_3b_proj
I1221 13:23:47.240353 13393 net.cpp:100] Creating Layer bn_3b_proj
I1221 13:23:47.240367 13393 net.cpp:434] bn_3b_proj <- conv_3b_proj
I1221 13:23:47.240387 13393 net.cpp:395] bn_3b_proj -> conv_3b_proj (in-place)
I1221 13:23:47.240655 13393 net.cpp:150] Setting up bn_3b_proj
I1221 13:23:47.240682 13393 net.cpp:157] Top shape: 30 96 28 28 (2257920)
I1221 13:23:47.240696 13393 net.cpp:165] Memory required for data: 2197709160
I1221 13:23:47.240717 13393 layer_factory.hpp:77] Creating layer scale_conv_3b_proj
I1221 13:23:47.240736 13393 net.cpp:100] Creating Layer scale_conv_3b_proj
I1221 13:23:47.240756 13393 net.cpp:434] scale_conv_3b_proj <- conv_3b_proj
I1221 13:23:47.240775 13393 net.cpp:395] scale_conv_3b_proj -> conv_3b_proj (in-place)
I1221 13:23:47.240847 13393 layer_factory.hpp:77] Creating layer scale_conv_3b_proj
I1221 13:23:47.241027 13393 net.cpp:150] Setting up scale_conv_3b_proj
I1221 13:23:47.241055 13393 net.cpp:157] Top shape: 30 96 28 28 (2257920)
I1221 13:23:47.241068 13393 net.cpp:165] Memory required for data: 2206740840
I1221 13:23:47.241086 13393 layer_factory.hpp:77] Creating layer relu_3b_proj
I1221 13:23:47.241106 13393 net.cpp:100] Creating Layer relu_3b_proj
I1221 13:23:47.241120 13393 net.cpp:434] relu_3b_proj <- conv_3b_proj
I1221 13:23:47.241137 13393 net.cpp:395] relu_3b_proj -> conv_3b_proj (in-place)
I1221 13:23:47.241155 13393 net.cpp:150] Setting up relu_3b_proj
I1221 13:23:47.241170 13393 net.cpp:157] Top shape: 30 96 28 28 (2257920)
I1221 13:23:47.241190 13393 net.cpp:165] Memory required for data: 2215772520
I1221 13:23:47.241204 13393 layer_factory.hpp:77] Creating layer ch_concat_3b_chconcat
I1221 13:23:47.241222 13393 net.cpp:100] Creating Layer ch_concat_3b_chconcat
I1221 13:23:47.241236 13393 net.cpp:434] ch_concat_3b_chconcat <- conv_3b_1x1
I1221 13:23:47.241251 13393 net.cpp:434] ch_concat_3b_chconcat <- conv_3b_3x3
I1221 13:23:47.241266 13393 net.cpp:434] ch_concat_3b_chconcat <- conv_3b_double_3x3_1
I1221 13:23:47.241281 13393 net.cpp:434] ch_concat_3b_chconcat <- conv_3b_proj
I1221 13:23:47.241302 13393 net.cpp:408] ch_concat_3b_chconcat -> ch_concat_3b_chconcat
I1221 13:23:47.241346 13393 net.cpp:150] Setting up ch_concat_3b_chconcat
I1221 13:23:47.241367 13393 net.cpp:157] Top shape: 30 480 28 28 (11289600)
I1221 13:23:47.241382 13393 net.cpp:165] Memory required for data: 2260930920
I1221 13:23:47.241395 13393 layer_factory.hpp:77] Creating layer ch_concat_3b_chconcat_ch_concat_3b_chconcat_0_split
I1221 13:23:47.241412 13393 net.cpp:100] Creating Layer ch_concat_3b_chconcat_ch_concat_3b_chconcat_0_split
I1221 13:23:47.241426 13393 net.cpp:434] ch_concat_3b_chconcat_ch_concat_3b_chconcat_0_split <- ch_concat_3b_chconcat
I1221 13:23:47.241447 13393 net.cpp:408] ch_concat_3b_chconcat_ch_concat_3b_chconcat_0_split -> ch_concat_3b_chconcat_ch_concat_3b_chconcat_0_split_0
I1221 13:23:47.241469 13393 net.cpp:408] ch_concat_3b_chconcat_ch_concat_3b_chconcat_0_split -> ch_concat_3b_chconcat_ch_concat_3b_chconcat_0_split_1
I1221 13:23:47.241490 13393 net.cpp:408] ch_concat_3b_chconcat_ch_concat_3b_chconcat_0_split -> ch_concat_3b_chconcat_ch_concat_3b_chconcat_0_split_2
I1221 13:23:47.241585 13393 net.cpp:150] Setting up ch_concat_3b_chconcat_ch_concat_3b_chconcat_0_split
I1221 13:23:47.241607 13393 net.cpp:157] Top shape: 30 480 28 28 (11289600)
I1221 13:23:47.241622 13393 net.cpp:157] Top shape: 30 480 28 28 (11289600)
I1221 13:23:47.241637 13393 net.cpp:157] Top shape: 30 480 28 28 (11289600)
I1221 13:23:47.241649 13393 net.cpp:165] Memory required for data: 2396406120
I1221 13:23:47.241662 13393 layer_factory.hpp:77] Creating layer conv_3c_3x3_reduce
I1221 13:23:47.241686 13393 net.cpp:100] Creating Layer conv_3c_3x3_reduce
I1221 13:23:47.241701 13393 net.cpp:434] conv_3c_3x3_reduce <- ch_concat_3b_chconcat_ch_concat_3b_chconcat_0_split_0
I1221 13:23:47.241719 13393 net.cpp:408] conv_3c_3x3_reduce -> conv_3c_3x3_reduce
I1221 13:23:47.242791 13393 net.cpp:150] Setting up conv_3c_3x3_reduce
I1221 13:23:47.242823 13393 net.cpp:157] Top shape: 30 192 28 28 (4515840)
I1221 13:23:47.242838 13393 net.cpp:165] Memory required for data: 2414469480
I1221 13:23:47.242857 13393 layer_factory.hpp:77] Creating layer bn_3c_3x3_reduce
I1221 13:23:47.242879 13393 net.cpp:100] Creating Layer bn_3c_3x3_reduce
I1221 13:23:47.242895 13393 net.cpp:434] bn_3c_3x3_reduce <- conv_3c_3x3_reduce
I1221 13:23:47.242913 13393 net.cpp:395] bn_3c_3x3_reduce -> conv_3c_3x3_reduce (in-place)
I1221 13:23:47.243190 13393 net.cpp:150] Setting up bn_3c_3x3_reduce
I1221 13:23:47.243216 13393 net.cpp:157] Top shape: 30 192 28 28 (4515840)
I1221 13:23:47.243230 13393 net.cpp:165] Memory required for data: 2432532840
I1221 13:23:47.243250 13393 layer_factory.hpp:77] Creating layer scale_conv_3c_3x3_reduce
I1221 13:23:47.243269 13393 net.cpp:100] Creating Layer scale_conv_3c_3x3_reduce
I1221 13:23:47.243283 13393 net.cpp:434] scale_conv_3c_3x3_reduce <- conv_3c_3x3_reduce
I1221 13:23:47.243304 13393 net.cpp:395] scale_conv_3c_3x3_reduce -> conv_3c_3x3_reduce (in-place)
I1221 13:23:47.243376 13393 layer_factory.hpp:77] Creating layer scale_conv_3c_3x3_reduce
I1221 13:23:47.243552 13393 net.cpp:150] Setting up scale_conv_3c_3x3_reduce
I1221 13:23:47.243579 13393 net.cpp:157] Top shape: 30 192 28 28 (4515840)
I1221 13:23:47.243593 13393 net.cpp:165] Memory required for data: 2450596200
I1221 13:23:47.243610 13393 layer_factory.hpp:77] Creating layer relu_3c_3x3_reduce
I1221 13:23:47.243628 13393 net.cpp:100] Creating Layer relu_3c_3x3_reduce
I1221 13:23:47.243641 13393 net.cpp:434] relu_3c_3x3_reduce <- conv_3c_3x3_reduce
I1221 13:23:47.243661 13393 net.cpp:395] relu_3c_3x3_reduce -> conv_3c_3x3_reduce (in-place)
I1221 13:23:47.243681 13393 net.cpp:150] Setting up relu_3c_3x3_reduce
I1221 13:23:47.243697 13393 net.cpp:157] Top shape: 30 192 28 28 (4515840)
I1221 13:23:47.243710 13393 net.cpp:165] Memory required for data: 2468659560
I1221 13:23:47.243722 13393 layer_factory.hpp:77] Creating layer conv_3c_3x3
I1221 13:23:47.243746 13393 net.cpp:100] Creating Layer conv_3c_3x3
I1221 13:23:47.243762 13393 net.cpp:434] conv_3c_3x3 <- conv_3c_3x3_reduce
I1221 13:23:47.243778 13393 net.cpp:408] conv_3c_3x3 -> conv_3c_3x3
I1221 13:23:47.245424 13393 net.cpp:150] Setting up conv_3c_3x3
I1221 13:23:47.245458 13393 net.cpp:157] Top shape: 30 240 14 14 (1411200)
I1221 13:23:47.245472 13393 net.cpp:165] Memory required for data: 2474304360
I1221 13:23:47.245491 13393 layer_factory.hpp:77] Creating layer bn_3c_3x3
I1221 13:23:47.245515 13393 net.cpp:100] Creating Layer bn_3c_3x3
I1221 13:23:47.245530 13393 net.cpp:434] bn_3c_3x3 <- conv_3c_3x3
I1221 13:23:47.245548 13393 net.cpp:395] bn_3c_3x3 -> conv_3c_3x3 (in-place)
I1221 13:23:47.245813 13393 net.cpp:150] Setting up bn_3c_3x3
I1221 13:23:47.245841 13393 net.cpp:157] Top shape: 30 240 14 14 (1411200)
I1221 13:23:47.245853 13393 net.cpp:165] Memory required for data: 2479949160
I1221 13:23:47.245895 13393 layer_factory.hpp:77] Creating layer scale_conv_3c_3x3
I1221 13:23:47.245920 13393 net.cpp:100] Creating Layer scale_conv_3c_3x3
I1221 13:23:47.245935 13393 net.cpp:434] scale_conv_3c_3x3 <- conv_3c_3x3
I1221 13:23:47.245954 13393 net.cpp:395] scale_conv_3c_3x3 -> conv_3c_3x3 (in-place)
I1221 13:23:47.246040 13393 layer_factory.hpp:77] Creating layer scale_conv_3c_3x3
I1221 13:23:47.246217 13393 net.cpp:150] Setting up scale_conv_3c_3x3
I1221 13:23:47.246242 13393 net.cpp:157] Top shape: 30 240 14 14 (1411200)
I1221 13:23:47.246254 13393 net.cpp:165] Memory required for data: 2485593960
I1221 13:23:47.246271 13393 layer_factory.hpp:77] Creating layer relu_3c_3x3
I1221 13:23:47.246289 13393 net.cpp:100] Creating Layer relu_3c_3x3
I1221 13:23:47.246302 13393 net.cpp:434] relu_3c_3x3 <- conv_3c_3x3
I1221 13:23:47.246318 13393 net.cpp:395] relu_3c_3x3 -> conv_3c_3x3 (in-place)
I1221 13:23:47.246335 13393 net.cpp:150] Setting up relu_3c_3x3
I1221 13:23:47.246351 13393 net.cpp:157] Top shape: 30 240 14 14 (1411200)
I1221 13:23:47.246363 13393 net.cpp:165] Memory required for data: 2491238760
I1221 13:23:47.246376 13393 layer_factory.hpp:77] Creating layer conv_3c_double_3x3_reduce
I1221 13:23:47.246399 13393 net.cpp:100] Creating Layer conv_3c_double_3x3_reduce
I1221 13:23:47.246414 13393 net.cpp:434] conv_3c_double_3x3_reduce <- ch_concat_3b_chconcat_ch_concat_3b_chconcat_0_split_1
I1221 13:23:47.246436 13393 net.cpp:408] conv_3c_double_3x3_reduce -> conv_3c_double_3x3_reduce
I1221 13:23:47.247474 13393 net.cpp:150] Setting up conv_3c_double_3x3_reduce
I1221 13:23:47.247506 13393 net.cpp:157] Top shape: 30 96 28 28 (2257920)
I1221 13:23:47.247521 13393 net.cpp:165] Memory required for data: 2500270440
I1221 13:23:47.247539 13393 layer_factory.hpp:77] Creating layer bn_3c_double_3x3_reduce
I1221 13:23:47.247557 13393 net.cpp:100] Creating Layer bn_3c_double_3x3_reduce
I1221 13:23:47.247571 13393 net.cpp:434] bn_3c_double_3x3_reduce <- conv_3c_double_3x3_reduce
I1221 13:23:47.247591 13393 net.cpp:395] bn_3c_double_3x3_reduce -> conv_3c_double_3x3_reduce (in-place)
I1221 13:23:47.247862 13393 net.cpp:150] Setting up bn_3c_double_3x3_reduce
I1221 13:23:47.247885 13393 net.cpp:157] Top shape: 30 96 28 28 (2257920)
I1221 13:23:47.247898 13393 net.cpp:165] Memory required for data: 2509302120
I1221 13:23:47.247917 13393 layer_factory.hpp:77] Creating layer scale_conv_3c_double_3x3_reduce
I1221 13:23:47.247939 13393 net.cpp:100] Creating Layer scale_conv_3c_double_3x3_reduce
I1221 13:23:47.247954 13393 net.cpp:434] scale_conv_3c_double_3x3_reduce <- conv_3c_double_3x3_reduce
I1221 13:23:47.247973 13393 net.cpp:395] scale_conv_3c_double_3x3_reduce -> conv_3c_double_3x3_reduce (in-place)
I1221 13:23:47.248047 13393 layer_factory.hpp:77] Creating layer scale_conv_3c_double_3x3_reduce
I1221 13:23:47.248239 13393 net.cpp:150] Setting up scale_conv_3c_double_3x3_reduce
I1221 13:23:47.248263 13393 net.cpp:157] Top shape: 30 96 28 28 (2257920)
I1221 13:23:47.248276 13393 net.cpp:165] Memory required for data: 2518333800
I1221 13:23:47.248294 13393 layer_factory.hpp:77] Creating layer relu_3c_double_3x3_reduce
I1221 13:23:47.248316 13393 net.cpp:100] Creating Layer relu_3c_double_3x3_reduce
I1221 13:23:47.248330 13393 net.cpp:434] relu_3c_double_3x3_reduce <- conv_3c_double_3x3_reduce
I1221 13:23:47.248349 13393 net.cpp:395] relu_3c_double_3x3_reduce -> conv_3c_double_3x3_reduce (in-place)
I1221 13:23:47.248368 13393 net.cpp:150] Setting up relu_3c_double_3x3_reduce
I1221 13:23:47.248385 13393 net.cpp:157] Top shape: 30 96 28 28 (2257920)
I1221 13:23:47.248399 13393 net.cpp:165] Memory required for data: 2527365480
I1221 13:23:47.248410 13393 layer_factory.hpp:77] Creating layer conv_3c_double_3x3_0
I1221 13:23:47.248430 13393 net.cpp:100] Creating Layer conv_3c_double_3x3_0
I1221 13:23:47.248445 13393 net.cpp:434] conv_3c_double_3x3_0 <- conv_3c_double_3x3_reduce
I1221 13:23:47.248466 13393 net.cpp:408] conv_3c_double_3x3_0 -> conv_3c_double_3x3_0
I1221 13:23:47.248886 13393 net.cpp:150] Setting up conv_3c_double_3x3_0
I1221 13:23:47.248914 13393 net.cpp:157] Top shape: 30 144 28 28 (3386880)
I1221 13:23:47.248926 13393 net.cpp:165] Memory required for data: 2540913000
I1221 13:23:47.248944 13393 layer_factory.hpp:77] Creating layer bn_3c_double_3x3_0
I1221 13:23:47.248962 13393 net.cpp:100] Creating Layer bn_3c_double_3x3_0
I1221 13:23:47.248987 13393 net.cpp:434] bn_3c_double_3x3_0 <- conv_3c_double_3x3_0
I1221 13:23:47.249009 13393 net.cpp:395] bn_3c_double_3x3_0 -> conv_3c_double_3x3_0 (in-place)
I1221 13:23:47.249284 13393 net.cpp:150] Setting up bn_3c_double_3x3_0
I1221 13:23:47.249308 13393 net.cpp:157] Top shape: 30 144 28 28 (3386880)
I1221 13:23:47.249321 13393 net.cpp:165] Memory required for data: 2554460520
I1221 13:23:47.249341 13393 layer_factory.hpp:77] Creating layer scale_conv_3c_double_3x3_0
I1221 13:23:47.249363 13393 net.cpp:100] Creating Layer scale_conv_3c_double_3x3_0
I1221 13:23:47.249378 13393 net.cpp:434] scale_conv_3c_double_3x3_0 <- conv_3c_double_3x3_0
I1221 13:23:47.249395 13393 net.cpp:395] scale_conv_3c_double_3x3_0 -> conv_3c_double_3x3_0 (in-place)
I1221 13:23:47.249464 13393 layer_factory.hpp:77] Creating layer scale_conv_3c_double_3x3_0
I1221 13:23:47.249641 13393 net.cpp:150] Setting up scale_conv_3c_double_3x3_0
I1221 13:23:47.249665 13393 net.cpp:157] Top shape: 30 144 28 28 (3386880)
I1221 13:23:47.249678 13393 net.cpp:165] Memory required for data: 2568008040
I1221 13:23:47.249696 13393 layer_factory.hpp:77] Creating layer relu_3c_double_3x3_0
I1221 13:23:47.249717 13393 net.cpp:100] Creating Layer relu_3c_double_3x3_0
I1221 13:23:47.249733 13393 net.cpp:434] relu_3c_double_3x3_0 <- conv_3c_double_3x3_0
I1221 13:23:47.249752 13393 net.cpp:395] relu_3c_double_3x3_0 -> conv_3c_double_3x3_0 (in-place)
I1221 13:23:47.249771 13393 net.cpp:150] Setting up relu_3c_double_3x3_0
I1221 13:23:47.249788 13393 net.cpp:157] Top shape: 30 144 28 28 (3386880)
I1221 13:23:47.249801 13393 net.cpp:165] Memory required for data: 2581555560
I1221 13:23:47.249814 13393 layer_factory.hpp:77] Creating layer conv_3c_double_3x3_1
I1221 13:23:47.249833 13393 net.cpp:100] Creating Layer conv_3c_double_3x3_1
I1221 13:23:47.249847 13393 net.cpp:434] conv_3c_double_3x3_1 <- conv_3c_double_3x3_0
I1221 13:23:47.249867 13393 net.cpp:408] conv_3c_double_3x3_1 -> conv_3c_double_3x3_1
I1221 13:23:47.251019 13393 net.cpp:150] Setting up conv_3c_double_3x3_1
I1221 13:23:47.251049 13393 net.cpp:157] Top shape: 30 144 14 14 (846720)
I1221 13:23:47.251062 13393 net.cpp:165] Memory required for data: 2584942440
I1221 13:23:47.251080 13393 layer_factory.hpp:77] Creating layer bn_3c_double_3x3_1
I1221 13:23:47.251102 13393 net.cpp:100] Creating Layer bn_3c_double_3x3_1
I1221 13:23:47.251121 13393 net.cpp:434] bn_3c_double_3x3_1 <- conv_3c_double_3x3_1
I1221 13:23:47.251137 13393 net.cpp:395] bn_3c_double_3x3_1 -> conv_3c_double_3x3_1 (in-place)
I1221 13:23:47.251451 13393 net.cpp:150] Setting up bn_3c_double_3x3_1
I1221 13:23:47.251477 13393 net.cpp:157] Top shape: 30 144 14 14 (846720)
I1221 13:23:47.251489 13393 net.cpp:165] Memory required for data: 2588329320
I1221 13:23:47.251509 13393 layer_factory.hpp:77] Creating layer scale_conv_3c_double_3x3_1
I1221 13:23:47.251528 13393 net.cpp:100] Creating Layer scale_conv_3c_double_3x3_1
I1221 13:23:47.251541 13393 net.cpp:434] scale_conv_3c_double_3x3_1 <- conv_3c_double_3x3_1
I1221 13:23:47.251557 13393 net.cpp:395] scale_conv_3c_double_3x3_1 -> conv_3c_double_3x3_1 (in-place)
I1221 13:23:47.251629 13393 layer_factory.hpp:77] Creating layer scale_conv_3c_double_3x3_1
I1221 13:23:47.251803 13393 net.cpp:150] Setting up scale_conv_3c_double_3x3_1
I1221 13:23:47.251829 13393 net.cpp:157] Top shape: 30 144 14 14 (846720)
I1221 13:23:47.251843 13393 net.cpp:165] Memory required for data: 2591716200
I1221 13:23:47.251860 13393 layer_factory.hpp:77] Creating layer relu_3c_double_3x3_1
I1221 13:23:47.251878 13393 net.cpp:100] Creating Layer relu_3c_double_3x3_1
I1221 13:23:47.251891 13393 net.cpp:434] relu_3c_double_3x3_1 <- conv_3c_double_3x3_1
I1221 13:23:47.251906 13393 net.cpp:395] relu_3c_double_3x3_1 -> conv_3c_double_3x3_1 (in-place)
I1221 13:23:47.251924 13393 net.cpp:150] Setting up relu_3c_double_3x3_1
I1221 13:23:47.251940 13393 net.cpp:157] Top shape: 30 144 14 14 (846720)
I1221 13:23:47.251952 13393 net.cpp:165] Memory required for data: 2595103080
I1221 13:23:47.251974 13393 layer_factory.hpp:77] Creating layer max_pool_3c_pool
I1221 13:23:47.251997 13393 net.cpp:100] Creating Layer max_pool_3c_pool
I1221 13:23:47.252012 13393 net.cpp:434] max_pool_3c_pool <- ch_concat_3b_chconcat_ch_concat_3b_chconcat_0_split_2
I1221 13:23:47.252030 13393 net.cpp:408] max_pool_3c_pool -> max_pool_3c_pool
I1221 13:23:47.252099 13393 net.cpp:150] Setting up max_pool_3c_pool
I1221 13:23:47.252122 13393 net.cpp:157] Top shape: 30 480 14 14 (2822400)
I1221 13:23:47.252135 13393 net.cpp:165] Memory required for data: 2606392680
I1221 13:23:47.252148 13393 layer_factory.hpp:77] Creating layer ch_concat_3c_chconcat
I1221 13:23:47.252166 13393 net.cpp:100] Creating Layer ch_concat_3c_chconcat
I1221 13:23:47.252179 13393 net.cpp:434] ch_concat_3c_chconcat <- conv_3c_3x3
I1221 13:23:47.252207 13393 net.cpp:434] ch_concat_3c_chconcat <- conv_3c_double_3x3_1
I1221 13:23:47.252223 13393 net.cpp:434] ch_concat_3c_chconcat <- max_pool_3c_pool
I1221 13:23:47.252239 13393 net.cpp:408] ch_concat_3c_chconcat -> ch_concat_3c_chconcat
I1221 13:23:47.252290 13393 net.cpp:150] Setting up ch_concat_3c_chconcat
I1221 13:23:47.252311 13393 net.cpp:157] Top shape: 30 864 14 14 (5080320)
I1221 13:23:47.252324 13393 net.cpp:165] Memory required for data: 2626713960
I1221 13:23:47.252337 13393 layer_factory.hpp:77] Creating layer ch_concat_3c_chconcat_ch_concat_3c_chconcat_0_split
I1221 13:23:47.252355 13393 net.cpp:100] Creating Layer ch_concat_3c_chconcat_ch_concat_3c_chconcat_0_split
I1221 13:23:47.252368 13393 net.cpp:434] ch_concat_3c_chconcat_ch_concat_3c_chconcat_0_split <- ch_concat_3c_chconcat
I1221 13:23:47.252385 13393 net.cpp:408] ch_concat_3c_chconcat_ch_concat_3c_chconcat_0_split -> ch_concat_3c_chconcat_ch_concat_3c_chconcat_0_split_0
I1221 13:23:47.252406 13393 net.cpp:408] ch_concat_3c_chconcat_ch_concat_3c_chconcat_0_split -> ch_concat_3c_chconcat_ch_concat_3c_chconcat_0_split_1
I1221 13:23:47.252427 13393 net.cpp:408] ch_concat_3c_chconcat_ch_concat_3c_chconcat_0_split -> ch_concat_3c_chconcat_ch_concat_3c_chconcat_0_split_2
I1221 13:23:47.252475 13393 net.cpp:408] ch_concat_3c_chconcat_ch_concat_3c_chconcat_0_split -> ch_concat_3c_chconcat_ch_concat_3c_chconcat_0_split_3
I1221 13:23:47.252583 13393 net.cpp:150] Setting up ch_concat_3c_chconcat_ch_concat_3c_chconcat_0_split
I1221 13:23:47.252605 13393 net.cpp:157] Top shape: 30 864 14 14 (5080320)
I1221 13:23:47.252621 13393 net.cpp:157] Top shape: 30 864 14 14 (5080320)
I1221 13:23:47.252635 13393 net.cpp:157] Top shape: 30 864 14 14 (5080320)
I1221 13:23:47.252650 13393 net.cpp:157] Top shape: 30 864 14 14 (5080320)
I1221 13:23:47.252662 13393 net.cpp:165] Memory required for data: 2707999080
I1221 13:23:47.252674 13393 layer_factory.hpp:77] Creating layer conv_4a_1x1
I1221 13:23:47.252698 13393 net.cpp:100] Creating Layer conv_4a_1x1
I1221 13:23:47.252713 13393 net.cpp:434] conv_4a_1x1 <- ch_concat_3c_chconcat_ch_concat_3c_chconcat_0_split_0
I1221 13:23:47.252735 13393 net.cpp:408] conv_4a_1x1 -> conv_4a_1x1
I1221 13:23:47.253895 13393 net.cpp:150] Setting up conv_4a_1x1
I1221 13:23:47.253926 13393 net.cpp:157] Top shape: 30 224 14 14 (1317120)
I1221 13:23:47.253942 13393 net.cpp:165] Memory required for data: 2713267560
I1221 13:23:47.253959 13393 layer_factory.hpp:77] Creating layer bn_4a_1x1
I1221 13:23:47.253978 13393 net.cpp:100] Creating Layer bn_4a_1x1
I1221 13:23:47.253991 13393 net.cpp:434] bn_4a_1x1 <- conv_4a_1x1
I1221 13:23:47.254007 13393 net.cpp:395] bn_4a_1x1 -> conv_4a_1x1 (in-place)
I1221 13:23:47.254300 13393 net.cpp:150] Setting up bn_4a_1x1
I1221 13:23:47.254328 13393 net.cpp:157] Top shape: 30 224 14 14 (1317120)
I1221 13:23:47.254343 13393 net.cpp:165] Memory required for data: 2718536040
I1221 13:23:47.254362 13393 layer_factory.hpp:77] Creating layer scale_conv_4a_1x1
I1221 13:23:47.254380 13393 net.cpp:100] Creating Layer scale_conv_4a_1x1
I1221 13:23:47.254395 13393 net.cpp:434] scale_conv_4a_1x1 <- conv_4a_1x1
I1221 13:23:47.254416 13393 net.cpp:395] scale_conv_4a_1x1 -> conv_4a_1x1 (in-place)
I1221 13:23:47.254488 13393 layer_factory.hpp:77] Creating layer scale_conv_4a_1x1
I1221 13:23:47.254693 13393 net.cpp:150] Setting up scale_conv_4a_1x1
I1221 13:23:47.254720 13393 net.cpp:157] Top shape: 30 224 14 14 (1317120)
I1221 13:23:47.254734 13393 net.cpp:165] Memory required for data: 2723804520
I1221 13:23:47.254751 13393 layer_factory.hpp:77] Creating layer relu_4a_1x1
I1221 13:23:47.254768 13393 net.cpp:100] Creating Layer relu_4a_1x1
I1221 13:23:47.254782 13393 net.cpp:434] relu_4a_1x1 <- conv_4a_1x1
I1221 13:23:47.254807 13393 net.cpp:395] relu_4a_1x1 -> conv_4a_1x1 (in-place)
I1221 13:23:47.254827 13393 net.cpp:150] Setting up relu_4a_1x1
I1221 13:23:47.254842 13393 net.cpp:157] Top shape: 30 224 14 14 (1317120)
I1221 13:23:47.254855 13393 net.cpp:165] Memory required for data: 2729073000
I1221 13:23:47.254868 13393 layer_factory.hpp:77] Creating layer conv_4a_3x3_reduce
I1221 13:23:47.254892 13393 net.cpp:100] Creating Layer conv_4a_3x3_reduce
I1221 13:23:47.254906 13393 net.cpp:434] conv_4a_3x3_reduce <- ch_concat_3c_chconcat_ch_concat_3c_chconcat_0_split_1
I1221 13:23:47.254925 13393 net.cpp:408] conv_4a_3x3_reduce -> conv_4a_3x3_reduce
I1221 13:23:47.255311 13393 net.cpp:150] Setting up conv_4a_3x3_reduce
I1221 13:23:47.255339 13393 net.cpp:157] Top shape: 30 64 14 14 (376320)
I1221 13:23:47.255353 13393 net.cpp:165] Memory required for data: 2730578280
I1221 13:23:47.255372 13393 layer_factory.hpp:77] Creating layer bn_4a_3x3_reduce
I1221 13:23:47.255394 13393 net.cpp:100] Creating Layer bn_4a_3x3_reduce
I1221 13:23:47.255411 13393 net.cpp:434] bn_4a_3x3_reduce <- conv_4a_3x3_reduce
I1221 13:23:47.255429 13393 net.cpp:395] bn_4a_3x3_reduce -> conv_4a_3x3_reduce (in-place)
I1221 13:23:47.255693 13393 net.cpp:150] Setting up bn_4a_3x3_reduce
I1221 13:23:47.255719 13393 net.cpp:157] Top shape: 30 64 14 14 (376320)
I1221 13:23:47.255733 13393 net.cpp:165] Memory required for data: 2732083560
I1221 13:23:47.255753 13393 layer_factory.hpp:77] Creating layer scale_conv_4a_3x3_reduce
I1221 13:23:47.255771 13393 net.cpp:100] Creating Layer scale_conv_4a_3x3_reduce
I1221 13:23:47.255785 13393 net.cpp:434] scale_conv_4a_3x3_reduce <- conv_4a_3x3_reduce
I1221 13:23:47.255811 13393 net.cpp:395] scale_conv_4a_3x3_reduce -> conv_4a_3x3_reduce (in-place)
I1221 13:23:47.255883 13393 layer_factory.hpp:77] Creating layer scale_conv_4a_3x3_reduce
I1221 13:23:47.256058 13393 net.cpp:150] Setting up scale_conv_4a_3x3_reduce
I1221 13:23:47.256085 13393 net.cpp:157] Top shape: 30 64 14 14 (376320)
I1221 13:23:47.256099 13393 net.cpp:165] Memory required for data: 2733588840
I1221 13:23:47.256117 13393 layer_factory.hpp:77] Creating layer relu_4a_3x3_reduce
I1221 13:23:47.256134 13393 net.cpp:100] Creating Layer relu_4a_3x3_reduce
I1221 13:23:47.256148 13393 net.cpp:434] relu_4a_3x3_reduce <- conv_4a_3x3_reduce
I1221 13:23:47.256168 13393 net.cpp:395] relu_4a_3x3_reduce -> conv_4a_3x3_reduce (in-place)
I1221 13:23:47.256193 13393 net.cpp:150] Setting up relu_4a_3x3_reduce
I1221 13:23:47.256211 13393 net.cpp:157] Top shape: 30 64 14 14 (376320)
I1221 13:23:47.256224 13393 net.cpp:165] Memory required for data: 2735094120
I1221 13:23:47.256237 13393 layer_factory.hpp:77] Creating layer conv_4a_3x3
I1221 13:23:47.256261 13393 net.cpp:100] Creating Layer conv_4a_3x3
I1221 13:23:47.256276 13393 net.cpp:434] conv_4a_3x3 <- conv_4a_3x3_reduce
I1221 13:23:47.256294 13393 net.cpp:408] conv_4a_3x3 -> conv_4a_3x3
I1221 13:23:47.256666 13393 net.cpp:150] Setting up conv_4a_3x3
I1221 13:23:47.256695 13393 net.cpp:157] Top shape: 30 96 14 14 (564480)
I1221 13:23:47.256708 13393 net.cpp:165] Memory required for data: 2737352040
I1221 13:23:47.256726 13393 layer_factory.hpp:77] Creating layer bn_4a_3x3
I1221 13:23:47.256749 13393 net.cpp:100] Creating Layer bn_4a_3x3
I1221 13:23:47.256763 13393 net.cpp:434] bn_4a_3x3 <- conv_4a_3x3
I1221 13:23:47.256779 13393 net.cpp:395] bn_4a_3x3 -> conv_4a_3x3 (in-place)
I1221 13:23:47.257050 13393 net.cpp:150] Setting up bn_4a_3x3
I1221 13:23:47.257076 13393 net.cpp:157] Top shape: 30 96 14 14 (564480)
I1221 13:23:47.257091 13393 net.cpp:165] Memory required for data: 2739609960
I1221 13:23:47.257120 13393 layer_factory.hpp:77] Creating layer scale_conv_4a_3x3
I1221 13:23:47.257141 13393 net.cpp:100] Creating Layer scale_conv_4a_3x3
I1221 13:23:47.257155 13393 net.cpp:434] scale_conv_4a_3x3 <- conv_4a_3x3
I1221 13:23:47.257171 13393 net.cpp:395] scale_conv_4a_3x3 -> conv_4a_3x3 (in-place)
I1221 13:23:47.257251 13393 layer_factory.hpp:77] Creating layer scale_conv_4a_3x3
I1221 13:23:47.257436 13393 net.cpp:150] Setting up scale_conv_4a_3x3
I1221 13:23:47.257462 13393 net.cpp:157] Top shape: 30 96 14 14 (564480)
I1221 13:23:47.257475 13393 net.cpp:165] Memory required for data: 2741867880
I1221 13:23:47.257494 13393 layer_factory.hpp:77] Creating layer relu_4a_3x3
I1221 13:23:47.257513 13393 net.cpp:100] Creating Layer relu_4a_3x3
I1221 13:23:47.257526 13393 net.cpp:434] relu_4a_3x3 <- conv_4a_3x3
I1221 13:23:47.257542 13393 net.cpp:395] relu_4a_3x3 -> conv_4a_3x3 (in-place)
I1221 13:23:47.257560 13393 net.cpp:150] Setting up relu_4a_3x3
I1221 13:23:47.257576 13393 net.cpp:157] Top shape: 30 96 14 14 (564480)
I1221 13:23:47.257588 13393 net.cpp:165] Memory required for data: 2744125800
I1221 13:23:47.257601 13393 layer_factory.hpp:77] Creating layer conv_4a_double_3x3_reduce
I1221 13:23:47.257625 13393 net.cpp:100] Creating Layer conv_4a_double_3x3_reduce
I1221 13:23:47.257640 13393 net.cpp:434] conv_4a_double_3x3_reduce <- ch_concat_3c_chconcat_ch_concat_3c_chconcat_0_split_2
I1221 13:23:47.257661 13393 net.cpp:408] conv_4a_double_3x3_reduce -> conv_4a_double_3x3_reduce
I1221 13:23:47.258741 13393 net.cpp:150] Setting up conv_4a_double_3x3_reduce
I1221 13:23:47.258774 13393 net.cpp:157] Top shape: 30 96 14 14 (564480)
I1221 13:23:47.258787 13393 net.cpp:165] Memory required for data: 2746383720
I1221 13:23:47.258806 13393 layer_factory.hpp:77] Creating layer bn_4a_double_3x3_reduce
I1221 13:23:47.258826 13393 net.cpp:100] Creating Layer bn_4a_double_3x3_reduce
I1221 13:23:47.258839 13393 net.cpp:434] bn_4a_double_3x3_reduce <- conv_4a_double_3x3_reduce
I1221 13:23:47.258862 13393 net.cpp:395] bn_4a_double_3x3_reduce -> conv_4a_double_3x3_reduce (in-place)
I1221 13:23:47.259136 13393 net.cpp:150] Setting up bn_4a_double_3x3_reduce
I1221 13:23:47.259163 13393 net.cpp:157] Top shape: 30 96 14 14 (564480)
I1221 13:23:47.259177 13393 net.cpp:165] Memory required for data: 2748641640
I1221 13:23:47.259204 13393 layer_factory.hpp:77] Creating layer scale_conv_4a_double_3x3_reduce
I1221 13:23:47.259228 13393 net.cpp:100] Creating Layer scale_conv_4a_double_3x3_reduce
I1221 13:23:47.259243 13393 net.cpp:434] scale_conv_4a_double_3x3_reduce <- conv_4a_double_3x3_reduce
I1221 13:23:47.259263 13393 net.cpp:395] scale_conv_4a_double_3x3_reduce -> conv_4a_double_3x3_reduce (in-place)
I1221 13:23:47.259337 13393 layer_factory.hpp:77] Creating layer scale_conv_4a_double_3x3_reduce
I1221 13:23:47.259519 13393 net.cpp:150] Setting up scale_conv_4a_double_3x3_reduce
I1221 13:23:47.259546 13393 net.cpp:157] Top shape: 30 96 14 14 (564480)
I1221 13:23:47.259559 13393 net.cpp:165] Memory required for data: 2750899560
I1221 13:23:47.259577 13393 layer_factory.hpp:77] Creating layer relu_4a_double_3x3_reduce
I1221 13:23:47.259599 13393 net.cpp:100] Creating Layer relu_4a_double_3x3_reduce
I1221 13:23:47.259613 13393 net.cpp:434] relu_4a_double_3x3_reduce <- conv_4a_double_3x3_reduce
I1221 13:23:47.259630 13393 net.cpp:395] relu_4a_double_3x3_reduce -> conv_4a_double_3x3_reduce (in-place)
I1221 13:23:47.259652 13393 net.cpp:150] Setting up relu_4a_double_3x3_reduce
I1221 13:23:47.259670 13393 net.cpp:157] Top shape: 30 96 14 14 (564480)
I1221 13:23:47.259681 13393 net.cpp:165] Memory required for data: 2753157480
I1221 13:23:47.259694 13393 layer_factory.hpp:77] Creating layer conv_4a_double_3x3_0
I1221 13:23:47.259716 13393 net.cpp:100] Creating Layer conv_4a_double_3x3_0
I1221 13:23:47.259729 13393 net.cpp:434] conv_4a_double_3x3_0 <- conv_4a_double_3x3_reduce
I1221 13:23:47.259750 13393 net.cpp:408] conv_4a_double_3x3_0 -> conv_4a_double_3x3_0
I1221 13:23:47.260150 13393 net.cpp:150] Setting up conv_4a_double_3x3_0
I1221 13:23:47.260195 13393 net.cpp:157] Top shape: 30 128 14 14 (752640)
I1221 13:23:47.260210 13393 net.cpp:165] Memory required for data: 2756168040
I1221 13:23:47.260228 13393 layer_factory.hpp:77] Creating layer bn_4a_double_3x3_0
I1221 13:23:47.260247 13393 net.cpp:100] Creating Layer bn_4a_double_3x3_0
I1221 13:23:47.260262 13393 net.cpp:434] bn_4a_double_3x3_0 <- conv_4a_double_3x3_0
I1221 13:23:47.260284 13393 net.cpp:395] bn_4a_double_3x3_0 -> conv_4a_double_3x3_0 (in-place)
I1221 13:23:47.260543 13393 net.cpp:150] Setting up bn_4a_double_3x3_0
I1221 13:23:47.260586 13393 net.cpp:157] Top shape: 30 128 14 14 (752640)
I1221 13:23:47.260609 13393 net.cpp:165] Memory required for data: 2759178600
I1221 13:23:47.260644 13393 layer_factory.hpp:77] Creating layer scale_conv_4a_double_3x3_0
I1221 13:23:47.260674 13393 net.cpp:100] Creating Layer scale_conv_4a_double_3x3_0
I1221 13:23:47.260697 13393 net.cpp:434] scale_conv_4a_double_3x3_0 <- conv_4a_double_3x3_0
I1221 13:23:47.260727 13393 net.cpp:395] scale_conv_4a_double_3x3_0 -> conv_4a_double_3x3_0 (in-place)
I1221 13:23:47.260819 13393 layer_factory.hpp:77] Creating layer scale_conv_4a_double_3x3_0
I1221 13:23:47.261070 13393 net.cpp:150] Setting up scale_conv_4a_double_3x3_0
I1221 13:23:47.261109 13393 net.cpp:157] Top shape: 30 128 14 14 (752640)
I1221 13:23:47.261133 13393 net.cpp:165] Memory required for data: 2762189160
I1221 13:23:47.261167 13393 layer_factory.hpp:77] Creating layer relu_4a_double_3x3_0
I1221 13:23:47.261217 13393 net.cpp:100] Creating Layer relu_4a_double_3x3_0
I1221 13:23:47.261247 13393 net.cpp:434] relu_4a_double_3x3_0 <- conv_4a_double_3x3_0
I1221 13:23:47.261278 13393 net.cpp:395] relu_4a_double_3x3_0 -> conv_4a_double_3x3_0 (in-place)
I1221 13:23:47.261312 13393 net.cpp:150] Setting up relu_4a_double_3x3_0
I1221 13:23:47.261342 13393 net.cpp:157] Top shape: 30 128 14 14 (752640)
I1221 13:23:47.261364 13393 net.cpp:165] Memory required for data: 2765199720
I1221 13:23:47.261387 13393 layer_factory.hpp:77] Creating layer conv_4a_double_3x3_1
I1221 13:23:47.261426 13393 net.cpp:100] Creating Layer conv_4a_double_3x3_1
I1221 13:23:47.261459 13393 net.cpp:434] conv_4a_double_3x3_1 <- conv_4a_double_3x3_0
I1221 13:23:47.261487 13393 net.cpp:408] conv_4a_double_3x3_1 -> conv_4a_double_3x3_1
I1221 13:23:47.262631 13393 net.cpp:150] Setting up conv_4a_double_3x3_1
I1221 13:23:47.262663 13393 net.cpp:157] Top shape: 30 128 14 14 (752640)
I1221 13:23:47.262677 13393 net.cpp:165] Memory required for data: 2768210280
I1221 13:23:47.262696 13393 layer_factory.hpp:77] Creating layer bn_4a_double_3x3_1
I1221 13:23:47.262719 13393 net.cpp:100] Creating Layer bn_4a_double_3x3_1
I1221 13:23:47.262734 13393 net.cpp:434] bn_4a_double_3x3_1 <- conv_4a_double_3x3_1
I1221 13:23:47.262751 13393 net.cpp:395] bn_4a_double_3x3_1 -> conv_4a_double_3x3_1 (in-place)
I1221 13:23:47.263020 13393 net.cpp:150] Setting up bn_4a_double_3x3_1
I1221 13:23:47.263051 13393 net.cpp:157] Top shape: 30 128 14 14 (752640)
I1221 13:23:47.263064 13393 net.cpp:165] Memory required for data: 2771220840
I1221 13:23:47.263085 13393 layer_factory.hpp:77] Creating layer scale_conv_4a_double_3x3_1
I1221 13:23:47.263104 13393 net.cpp:100] Creating Layer scale_conv_4a_double_3x3_1
I1221 13:23:47.263120 13393 net.cpp:434] scale_conv_4a_double_3x3_1 <- conv_4a_double_3x3_1
I1221 13:23:47.263137 13393 net.cpp:395] scale_conv_4a_double_3x3_1 -> conv_4a_double_3x3_1 (in-place)
I1221 13:23:47.263219 13393 layer_factory.hpp:77] Creating layer scale_conv_4a_double_3x3_1
I1221 13:23:47.263393 13393 net.cpp:150] Setting up scale_conv_4a_double_3x3_1
I1221 13:23:47.263420 13393 net.cpp:157] Top shape: 30 128 14 14 (752640)
I1221 13:23:47.263433 13393 net.cpp:165] Memory required for data: 2774231400
I1221 13:23:47.263451 13393 layer_factory.hpp:77] Creating layer relu_4a_double_3x3_1
I1221 13:23:47.263473 13393 net.cpp:100] Creating Layer relu_4a_double_3x3_1
I1221 13:23:47.263487 13393 net.cpp:434] relu_4a_double_3x3_1 <- conv_4a_double_3x3_1
I1221 13:23:47.263520 13393 net.cpp:395] relu_4a_double_3x3_1 -> conv_4a_double_3x3_1 (in-place)
I1221 13:23:47.263540 13393 net.cpp:150] Setting up relu_4a_double_3x3_1
I1221 13:23:47.263557 13393 net.cpp:157] Top shape: 30 128 14 14 (752640)
I1221 13:23:47.263571 13393 net.cpp:165] Memory required for data: 2777241960
I1221 13:23:47.263582 13393 layer_factory.hpp:77] Creating layer ave_pool_4a_pool
I1221 13:23:47.263603 13393 net.cpp:100] Creating Layer ave_pool_4a_pool
I1221 13:23:47.263617 13393 net.cpp:434] ave_pool_4a_pool <- ch_concat_3c_chconcat_ch_concat_3c_chconcat_0_split_3
I1221 13:23:47.263635 13393 net.cpp:408] ave_pool_4a_pool -> ave_pool_4a_pool
I1221 13:23:47.263695 13393 net.cpp:150] Setting up ave_pool_4a_pool
I1221 13:23:47.263717 13393 net.cpp:157] Top shape: 30 864 14 14 (5080320)
I1221 13:23:47.263731 13393 net.cpp:165] Memory required for data: 2797563240
I1221 13:23:47.263743 13393 layer_factory.hpp:77] Creating layer conv_4a_proj
I1221 13:23:47.263762 13393 net.cpp:100] Creating Layer conv_4a_proj
I1221 13:23:47.263777 13393 net.cpp:434] conv_4a_proj <- ave_pool_4a_pool
I1221 13:23:47.263793 13393 net.cpp:408] conv_4a_proj -> conv_4a_proj
I1221 13:23:47.264205 13393 net.cpp:150] Setting up conv_4a_proj
I1221 13:23:47.264230 13393 net.cpp:157] Top shape: 30 128 14 14 (752640)
I1221 13:23:47.264243 13393 net.cpp:165] Memory required for data: 2800573800
I1221 13:23:47.264261 13393 layer_factory.hpp:77] Creating layer bn_4a_proj
I1221 13:23:47.264328 13393 net.cpp:100] Creating Layer bn_4a_proj
I1221 13:23:47.264345 13393 net.cpp:434] bn_4a_proj <- conv_4a_proj
I1221 13:23:47.264363 13393 net.cpp:395] bn_4a_proj -> conv_4a_proj (in-place)
I1221 13:23:47.264636 13393 net.cpp:150] Setting up bn_4a_proj
I1221 13:23:47.264662 13393 net.cpp:157] Top shape: 30 128 14 14 (752640)
I1221 13:23:47.264673 13393 net.cpp:165] Memory required for data: 2803584360
I1221 13:23:47.264694 13393 layer_factory.hpp:77] Creating layer scale_conv_4a_proj
I1221 13:23:47.264713 13393 net.cpp:100] Creating Layer scale_conv_4a_proj
I1221 13:23:47.264725 13393 net.cpp:434] scale_conv_4a_proj <- conv_4a_proj
I1221 13:23:47.264746 13393 net.cpp:395] scale_conv_4a_proj -> conv_4a_proj (in-place)
I1221 13:23:47.264819 13393 layer_factory.hpp:77] Creating layer scale_conv_4a_proj
I1221 13:23:47.264986 13393 net.cpp:150] Setting up scale_conv_4a_proj
I1221 13:23:47.265010 13393 net.cpp:157] Top shape: 30 128 14 14 (752640)
I1221 13:23:47.265023 13393 net.cpp:165] Memory required for data: 2806594920
I1221 13:23:47.265040 13393 layer_factory.hpp:77] Creating layer relu_4a_proj
I1221 13:23:47.265058 13393 net.cpp:100] Creating Layer relu_4a_proj
I1221 13:23:47.265071 13393 net.cpp:434] relu_4a_proj <- conv_4a_proj
I1221 13:23:47.265089 13393 net.cpp:395] relu_4a_proj -> conv_4a_proj (in-place)
I1221 13:23:47.265107 13393 net.cpp:150] Setting up relu_4a_proj
I1221 13:23:47.265125 13393 net.cpp:157] Top shape: 30 128 14 14 (752640)
I1221 13:23:47.265136 13393 net.cpp:165] Memory required for data: 2809605480
I1221 13:23:47.265148 13393 layer_factory.hpp:77] Creating layer ch_concat_4a_chconcat
I1221 13:23:47.265171 13393 net.cpp:100] Creating Layer ch_concat_4a_chconcat
I1221 13:23:47.265192 13393 net.cpp:434] ch_concat_4a_chconcat <- conv_4a_1x1
I1221 13:23:47.265206 13393 net.cpp:434] ch_concat_4a_chconcat <- conv_4a_3x3
I1221 13:23:47.265221 13393 net.cpp:434] ch_concat_4a_chconcat <- conv_4a_double_3x3_1
I1221 13:23:47.265238 13393 net.cpp:434] ch_concat_4a_chconcat <- conv_4a_proj
I1221 13:23:47.265254 13393 net.cpp:408] ch_concat_4a_chconcat -> ch_concat_4a_chconcat
I1221 13:23:47.265306 13393 net.cpp:150] Setting up ch_concat_4a_chconcat
I1221 13:23:47.265328 13393 net.cpp:157] Top shape: 30 576 14 14 (3386880)
I1221 13:23:47.265341 13393 net.cpp:165] Memory required for data: 2823153000
I1221 13:23:47.265354 13393 layer_factory.hpp:77] Creating layer ch_concat_4a_chconcat_ch_concat_4a_chconcat_0_split
I1221 13:23:47.265377 13393 net.cpp:100] Creating Layer ch_concat_4a_chconcat_ch_concat_4a_chconcat_0_split
I1221 13:23:47.265391 13393 net.cpp:434] ch_concat_4a_chconcat_ch_concat_4a_chconcat_0_split <- ch_concat_4a_chconcat
I1221 13:23:47.265419 13393 net.cpp:408] ch_concat_4a_chconcat_ch_concat_4a_chconcat_0_split -> ch_concat_4a_chconcat_ch_concat_4a_chconcat_0_split_0
I1221 13:23:47.265442 13393 net.cpp:408] ch_concat_4a_chconcat_ch_concat_4a_chconcat_0_split -> ch_concat_4a_chconcat_ch_concat_4a_chconcat_0_split_1
I1221 13:23:47.265463 13393 net.cpp:408] ch_concat_4a_chconcat_ch_concat_4a_chconcat_0_split -> ch_concat_4a_chconcat_ch_concat_4a_chconcat_0_split_2
I1221 13:23:47.265483 13393 net.cpp:408] ch_concat_4a_chconcat_ch_concat_4a_chconcat_0_split -> ch_concat_4a_chconcat_ch_concat_4a_chconcat_0_split_3
I1221 13:23:47.265575 13393 net.cpp:150] Setting up ch_concat_4a_chconcat_ch_concat_4a_chconcat_0_split
I1221 13:23:47.265600 13393 net.cpp:157] Top shape: 30 576 14 14 (3386880)
I1221 13:23:47.265615 13393 net.cpp:157] Top shape: 30 576 14 14 (3386880)
I1221 13:23:47.265630 13393 net.cpp:157] Top shape: 30 576 14 14 (3386880)
I1221 13:23:47.265645 13393 net.cpp:157] Top shape: 30 576 14 14 (3386880)
I1221 13:23:47.265656 13393 net.cpp:165] Memory required for data: 2877343080
I1221 13:23:47.265668 13393 layer_factory.hpp:77] Creating layer conv_4b_1x1
I1221 13:23:47.265688 13393 net.cpp:100] Creating Layer conv_4b_1x1
I1221 13:23:47.265702 13393 net.cpp:434] conv_4b_1x1 <- ch_concat_4a_chconcat_ch_concat_4a_chconcat_0_split_0
I1221 13:23:47.265727 13393 net.cpp:408] conv_4b_1x1 -> conv_4b_1x1
I1221 13:23:47.266845 13393 net.cpp:150] Setting up conv_4b_1x1
I1221 13:23:47.266875 13393 net.cpp:157] Top shape: 30 192 14 14 (1128960)
I1221 13:23:47.266888 13393 net.cpp:165] Memory required for data: 2881858920
I1221 13:23:47.266907 13393 layer_factory.hpp:77] Creating layer bn_4b_1x1
I1221 13:23:47.266928 13393 net.cpp:100] Creating Layer bn_4b_1x1
I1221 13:23:47.266944 13393 net.cpp:434] bn_4b_1x1 <- conv_4b_1x1
I1221 13:23:47.266960 13393 net.cpp:395] bn_4b_1x1 -> conv_4b_1x1 (in-place)
I1221 13:23:47.267241 13393 net.cpp:150] Setting up bn_4b_1x1
I1221 13:23:47.267266 13393 net.cpp:157] Top shape: 30 192 14 14 (1128960)
I1221 13:23:47.267278 13393 net.cpp:165] Memory required for data: 2886374760
I1221 13:23:47.267298 13393 layer_factory.hpp:77] Creating layer scale_conv_4b_1x1
I1221 13:23:47.267316 13393 net.cpp:100] Creating Layer scale_conv_4b_1x1
I1221 13:23:47.267330 13393 net.cpp:434] scale_conv_4b_1x1 <- conv_4b_1x1
I1221 13:23:47.267346 13393 net.cpp:395] scale_conv_4b_1x1 -> conv_4b_1x1 (in-place)
I1221 13:23:47.267422 13393 layer_factory.hpp:77] Creating layer scale_conv_4b_1x1
I1221 13:23:47.267598 13393 net.cpp:150] Setting up scale_conv_4b_1x1
I1221 13:23:47.267624 13393 net.cpp:157] Top shape: 30 192 14 14 (1128960)
I1221 13:23:47.267638 13393 net.cpp:165] Memory required for data: 2890890600
I1221 13:23:47.267657 13393 layer_factory.hpp:77] Creating layer relu_4b_1x1
I1221 13:23:47.267675 13393 net.cpp:100] Creating Layer relu_4b_1x1
I1221 13:23:47.267689 13393 net.cpp:434] relu_4b_1x1 <- conv_4b_1x1
I1221 13:23:47.267704 13393 net.cpp:395] relu_4b_1x1 -> conv_4b_1x1 (in-place)
I1221 13:23:47.267721 13393 net.cpp:150] Setting up relu_4b_1x1
I1221 13:23:47.267738 13393 net.cpp:157] Top shape: 30 192 14 14 (1128960)
I1221 13:23:47.267751 13393 net.cpp:165] Memory required for data: 2895406440
I1221 13:23:47.267763 13393 layer_factory.hpp:77] Creating layer conv_4b_3x3_reduce
I1221 13:23:47.267786 13393 net.cpp:100] Creating Layer conv_4b_3x3_reduce
I1221 13:23:47.267802 13393 net.cpp:434] conv_4b_3x3_reduce <- ch_concat_4a_chconcat_ch_concat_4a_chconcat_0_split_1
I1221 13:23:47.267822 13393 net.cpp:408] conv_4b_3x3_reduce -> conv_4b_3x3_reduce
I1221 13:23:47.268218 13393 net.cpp:150] Setting up conv_4b_3x3_reduce
I1221 13:23:47.268244 13393 net.cpp:157] Top shape: 30 96 14 14 (564480)
I1221 13:23:47.268256 13393 net.cpp:165] Memory required for data: 2897664360
I1221 13:23:47.268275 13393 layer_factory.hpp:77] Creating layer bn_4b_3x3_reduce
I1221 13:23:47.268296 13393 net.cpp:100] Creating Layer bn_4b_3x3_reduce
I1221 13:23:47.268311 13393 net.cpp:434] bn_4b_3x3_reduce <- conv_4b_3x3_reduce
I1221 13:23:47.268347 13393 net.cpp:395] bn_4b_3x3_reduce -> conv_4b_3x3_reduce (in-place)
I1221 13:23:47.268620 13393 net.cpp:150] Setting up bn_4b_3x3_reduce
I1221 13:23:47.268647 13393 net.cpp:157] Top shape: 30 96 14 14 (564480)
I1221 13:23:47.268661 13393 net.cpp:165] Memory required for data: 2899922280
I1221 13:23:47.268682 13393 layer_factory.hpp:77] Creating layer scale_conv_4b_3x3_reduce
I1221 13:23:47.268700 13393 net.cpp:100] Creating Layer scale_conv_4b_3x3_reduce
I1221 13:23:47.268714 13393 net.cpp:434] scale_conv_4b_3x3_reduce <- conv_4b_3x3_reduce
I1221 13:23:47.268730 13393 net.cpp:395] scale_conv_4b_3x3_reduce -> conv_4b_3x3_reduce (in-place)
I1221 13:23:47.268803 13393 layer_factory.hpp:77] Creating layer scale_conv_4b_3x3_reduce
I1221 13:23:47.268980 13393 net.cpp:150] Setting up scale_conv_4b_3x3_reduce
I1221 13:23:47.269002 13393 net.cpp:157] Top shape: 30 96 14 14 (564480)
I1221 13:23:47.269021 13393 net.cpp:165] Memory required for data: 2902180200
I1221 13:23:47.269038 13393 layer_factory.hpp:77] Creating layer relu_4b_3x3_reduce
I1221 13:23:47.269060 13393 net.cpp:100] Creating Layer relu_4b_3x3_reduce
I1221 13:23:47.269075 13393 net.cpp:434] relu_4b_3x3_reduce <- conv_4b_3x3_reduce
I1221 13:23:47.269091 13393 net.cpp:395] relu_4b_3x3_reduce -> conv_4b_3x3_reduce (in-place)
I1221 13:23:47.269109 13393 net.cpp:150] Setting up relu_4b_3x3_reduce
I1221 13:23:47.269124 13393 net.cpp:157] Top shape: 30 96 14 14 (564480)
I1221 13:23:47.269136 13393 net.cpp:165] Memory required for data: 2904438120
I1221 13:23:47.269150 13393 layer_factory.hpp:77] Creating layer conv_4b_3x3
I1221 13:23:47.269172 13393 net.cpp:100] Creating Layer conv_4b_3x3
I1221 13:23:47.269194 13393 net.cpp:434] conv_4b_3x3 <- conv_4b_3x3_reduce
I1221 13:23:47.269212 13393 net.cpp:408] conv_4b_3x3 -> conv_4b_3x3
I1221 13:23:47.269635 13393 net.cpp:150] Setting up conv_4b_3x3
I1221 13:23:47.269662 13393 net.cpp:157] Top shape: 30 128 14 14 (752640)
I1221 13:23:47.269675 13393 net.cpp:165] Memory required for data: 2907448680
I1221 13:23:47.269692 13393 layer_factory.hpp:77] Creating layer bn_4b_3x3
I1221 13:23:47.269714 13393 net.cpp:100] Creating Layer bn_4b_3x3
I1221 13:23:47.269729 13393 net.cpp:434] bn_4b_3x3 <- conv_4b_3x3
I1221 13:23:47.269747 13393 net.cpp:395] bn_4b_3x3 -> conv_4b_3x3 (in-place)
I1221 13:23:47.270006 13393 net.cpp:150] Setting up bn_4b_3x3
I1221 13:23:47.270030 13393 net.cpp:157] Top shape: 30 128 14 14 (752640)
I1221 13:23:47.270042 13393 net.cpp:165] Memory required for data: 2910459240
I1221 13:23:47.270062 13393 layer_factory.hpp:77] Creating layer scale_conv_4b_3x3
I1221 13:23:47.270081 13393 net.cpp:100] Creating Layer scale_conv_4b_3x3
I1221 13:23:47.270093 13393 net.cpp:434] scale_conv_4b_3x3 <- conv_4b_3x3
I1221 13:23:47.270109 13393 net.cpp:395] scale_conv_4b_3x3 -> conv_4b_3x3 (in-place)
I1221 13:23:47.270190 13393 layer_factory.hpp:77] Creating layer scale_conv_4b_3x3
I1221 13:23:47.270359 13393 net.cpp:150] Setting up scale_conv_4b_3x3
I1221 13:23:47.270382 13393 net.cpp:157] Top shape: 30 128 14 14 (752640)
I1221 13:23:47.270395 13393 net.cpp:165] Memory required for data: 2913469800
I1221 13:23:47.270413 13393 layer_factory.hpp:77] Creating layer relu_4b_3x3
I1221 13:23:47.270433 13393 net.cpp:100] Creating Layer relu_4b_3x3
I1221 13:23:47.270447 13393 net.cpp:434] relu_4b_3x3 <- conv_4b_3x3
I1221 13:23:47.270462 13393 net.cpp:395] relu_4b_3x3 -> conv_4b_3x3 (in-place)
I1221 13:23:47.270479 13393 net.cpp:150] Setting up relu_4b_3x3
I1221 13:23:47.270495 13393 net.cpp:157] Top shape: 30 128 14 14 (752640)
I1221 13:23:47.270509 13393 net.cpp:165] Memory required for data: 2916480360
I1221 13:23:47.270521 13393 layer_factory.hpp:77] Creating layer conv_4b_double_3x3_reduce
I1221 13:23:47.270545 13393 net.cpp:100] Creating Layer conv_4b_double_3x3_reduce
I1221 13:23:47.270560 13393 net.cpp:434] conv_4b_double_3x3_reduce <- ch_concat_4a_chconcat_ch_concat_4a_chconcat_0_split_2
I1221 13:23:47.270581 13393 net.cpp:408] conv_4b_double_3x3_reduce -> conv_4b_double_3x3_reduce
I1221 13:23:47.271683 13393 net.cpp:150] Setting up conv_4b_double_3x3_reduce
I1221 13:23:47.271716 13393 net.cpp:157] Top shape: 30 96 14 14 (564480)
I1221 13:23:47.271742 13393 net.cpp:165] Memory required for data: 2918738280
I1221 13:23:47.271762 13393 layer_factory.hpp:77] Creating layer bn_4b_double_3x3_reduce
I1221 13:23:47.271785 13393 net.cpp:100] Creating Layer bn_4b_double_3x3_reduce
I1221 13:23:47.271801 13393 net.cpp:434] bn_4b_double_3x3_reduce <- conv_4b_double_3x3_reduce
I1221 13:23:47.271818 13393 net.cpp:395] bn_4b_double_3x3_reduce -> conv_4b_double_3x3_reduce (in-place)
I1221 13:23:47.272097 13393 net.cpp:150] Setting up bn_4b_double_3x3_reduce
I1221 13:23:47.272124 13393 net.cpp:157] Top shape: 30 96 14 14 (564480)
I1221 13:23:47.272138 13393 net.cpp:165] Memory required for data: 2920996200
I1221 13:23:47.272158 13393 layer_factory.hpp:77] Creating layer scale_conv_4b_double_3x3_reduce
I1221 13:23:47.272178 13393 net.cpp:100] Creating Layer scale_conv_4b_double_3x3_reduce
I1221 13:23:47.272204 13393 net.cpp:434] scale_conv_4b_double_3x3_reduce <- conv_4b_double_3x3_reduce
I1221 13:23:47.272227 13393 net.cpp:395] scale_conv_4b_double_3x3_reduce -> conv_4b_double_3x3_reduce (in-place)
I1221 13:23:47.272306 13393 layer_factory.hpp:77] Creating layer scale_conv_4b_double_3x3_reduce
I1221 13:23:47.272487 13393 net.cpp:150] Setting up scale_conv_4b_double_3x3_reduce
I1221 13:23:47.272514 13393 net.cpp:157] Top shape: 30 96 14 14 (564480)
I1221 13:23:47.272528 13393 net.cpp:165] Memory required for data: 2923254120
I1221 13:23:47.272547 13393 layer_factory.hpp:77] Creating layer relu_4b_double_3x3_reduce
I1221 13:23:47.272565 13393 net.cpp:100] Creating Layer relu_4b_double_3x3_reduce
I1221 13:23:47.272578 13393 net.cpp:434] relu_4b_double_3x3_reduce <- conv_4b_double_3x3_reduce
I1221 13:23:47.272598 13393 net.cpp:395] relu_4b_double_3x3_reduce -> conv_4b_double_3x3_reduce (in-place)
I1221 13:23:47.272619 13393 net.cpp:150] Setting up relu_4b_double_3x3_reduce
I1221 13:23:47.272634 13393 net.cpp:157] Top shape: 30 96 14 14 (564480)
I1221 13:23:47.272646 13393 net.cpp:165] Memory required for data: 2925512040
I1221 13:23:47.272660 13393 layer_factory.hpp:77] Creating layer conv_4b_double_3x3_0
I1221 13:23:47.272683 13393 net.cpp:100] Creating Layer conv_4b_double_3x3_0
I1221 13:23:47.272698 13393 net.cpp:434] conv_4b_double_3x3_0 <- conv_4b_double_3x3_reduce
I1221 13:23:47.272716 13393 net.cpp:408] conv_4b_double_3x3_0 -> conv_4b_double_3x3_0
I1221 13:23:47.273828 13393 net.cpp:150] Setting up conv_4b_double_3x3_0
I1221 13:23:47.273860 13393 net.cpp:157] Top shape: 30 128 14 14 (752640)
I1221 13:23:47.273874 13393 net.cpp:165] Memory required for data: 2928522600
I1221 13:23:47.273893 13393 layer_factory.hpp:77] Creating layer bn_4b_double_3x3_0
I1221 13:23:47.273912 13393 net.cpp:100] Creating Layer bn_4b_double_3x3_0
I1221 13:23:47.273926 13393 net.cpp:434] bn_4b_double_3x3_0 <- conv_4b_double_3x3_0
I1221 13:23:47.273947 13393 net.cpp:395] bn_4b_double_3x3_0 -> conv_4b_double_3x3_0 (in-place)
I1221 13:23:47.274231 13393 net.cpp:150] Setting up bn_4b_double_3x3_0
I1221 13:23:47.274258 13393 net.cpp:157] Top shape: 30 128 14 14 (752640)
I1221 13:23:47.274272 13393 net.cpp:165] Memory required for data: 2931533160
I1221 13:23:47.274292 13393 layer_factory.hpp:77] Creating layer scale_conv_4b_double_3x3_0
I1221 13:23:47.274312 13393 net.cpp:100] Creating Layer scale_conv_4b_double_3x3_0
I1221 13:23:47.274324 13393 net.cpp:434] scale_conv_4b_double_3x3_0 <- conv_4b_double_3x3_0
I1221 13:23:47.274346 13393 net.cpp:395] scale_conv_4b_double_3x3_0 -> conv_4b_double_3x3_0 (in-place)
I1221 13:23:47.274420 13393 layer_factory.hpp:77] Creating layer scale_conv_4b_double_3x3_0
I1221 13:23:47.274601 13393 net.cpp:150] Setting up scale_conv_4b_double_3x3_0
I1221 13:23:47.274628 13393 net.cpp:157] Top shape: 30 128 14 14 (752640)
I1221 13:23:47.274642 13393 net.cpp:165] Memory required for data: 2934543720
I1221 13:23:47.274660 13393 layer_factory.hpp:77] Creating layer relu_4b_double_3x3_0
I1221 13:23:47.274688 13393 net.cpp:100] Creating Layer relu_4b_double_3x3_0
I1221 13:23:47.274703 13393 net.cpp:434] relu_4b_double_3x3_0 <- conv_4b_double_3x3_0
I1221 13:23:47.274718 13393 net.cpp:395] relu_4b_double_3x3_0 -> conv_4b_double_3x3_0 (in-place)
I1221 13:23:47.274736 13393 net.cpp:150] Setting up relu_4b_double_3x3_0
I1221 13:23:47.274752 13393 net.cpp:157] Top shape: 30 128 14 14 (752640)
I1221 13:23:47.274765 13393 net.cpp:165] Memory required for data: 2937554280
I1221 13:23:47.274778 13393 layer_factory.hpp:77] Creating layer conv_4b_double_3x3_1
I1221 13:23:47.274801 13393 net.cpp:100] Creating Layer conv_4b_double_3x3_1
I1221 13:23:47.274816 13393 net.cpp:434] conv_4b_double_3x3_1 <- conv_4b_double_3x3_0
I1221 13:23:47.274838 13393 net.cpp:408] conv_4b_double_3x3_1 -> conv_4b_double_3x3_1
I1221 13:23:47.275298 13393 net.cpp:150] Setting up conv_4b_double_3x3_1
I1221 13:23:47.275326 13393 net.cpp:157] Top shape: 30 128 14 14 (752640)
I1221 13:23:47.275341 13393 net.cpp:165] Memory required for data: 2940564840
I1221 13:23:47.275358 13393 layer_factory.hpp:77] Creating layer bn_4b_double_3x3_1
I1221 13:23:47.275382 13393 net.cpp:100] Creating Layer bn_4b_double_3x3_1
I1221 13:23:47.275398 13393 net.cpp:434] bn_4b_double_3x3_1 <- conv_4b_double_3x3_1
I1221 13:23:47.275418 13393 net.cpp:395] bn_4b_double_3x3_1 -> conv_4b_double_3x3_1 (in-place)
I1221 13:23:47.275717 13393 net.cpp:150] Setting up bn_4b_double_3x3_1
I1221 13:23:47.275744 13393 net.cpp:157] Top shape: 30 128 14 14 (752640)
I1221 13:23:47.275758 13393 net.cpp:165] Memory required for data: 2943575400
I1221 13:23:47.275779 13393 layer_factory.hpp:77] Creating layer scale_conv_4b_double_3x3_1
I1221 13:23:47.275802 13393 net.cpp:100] Creating Layer scale_conv_4b_double_3x3_1
I1221 13:23:47.275817 13393 net.cpp:434] scale_conv_4b_double_3x3_1 <- conv_4b_double_3x3_1
I1221 13:23:47.275835 13393 net.cpp:395] scale_conv_4b_double_3x3_1 -> conv_4b_double_3x3_1 (in-place)
I1221 13:23:47.277694 13393 layer_factory.hpp:77] Creating layer scale_conv_4b_double_3x3_1
I1221 13:23:47.277899 13393 net.cpp:150] Setting up scale_conv_4b_double_3x3_1
I1221 13:23:47.277927 13393 net.cpp:157] Top shape: 30 128 14 14 (752640)
I1221 13:23:47.277941 13393 net.cpp:165] Memory required for data: 2946585960
I1221 13:23:47.277961 13393 layer_factory.hpp:77] Creating layer relu_4b_double_3x3_1
I1221 13:23:47.277981 13393 net.cpp:100] Creating Layer relu_4b_double_3x3_1
I1221 13:23:47.277995 13393 net.cpp:434] relu_4b_double_3x3_1 <- conv_4b_double_3x3_1
I1221 13:23:47.278017 13393 net.cpp:395] relu_4b_double_3x3_1 -> conv_4b_double_3x3_1 (in-place)
I1221 13:23:47.278039 13393 net.cpp:150] Setting up relu_4b_double_3x3_1
I1221 13:23:47.278056 13393 net.cpp:157] Top shape: 30 128 14 14 (752640)
I1221 13:23:47.278069 13393 net.cpp:165] Memory required for data: 2949596520
I1221 13:23:47.278084 13393 layer_factory.hpp:77] Creating layer ave_pool_4b_pool
I1221 13:23:47.278105 13393 net.cpp:100] Creating Layer ave_pool_4b_pool
I1221 13:23:47.278120 13393 net.cpp:434] ave_pool_4b_pool <- ch_concat_4a_chconcat_ch_concat_4a_chconcat_0_split_3
I1221 13:23:47.278137 13393 net.cpp:408] ave_pool_4b_pool -> ave_pool_4b_pool
I1221 13:23:47.278198 13393 net.cpp:150] Setting up ave_pool_4b_pool
I1221 13:23:47.278221 13393 net.cpp:157] Top shape: 30 576 14 14 (3386880)
I1221 13:23:47.278235 13393 net.cpp:165] Memory required for data: 2963144040
I1221 13:23:47.278249 13393 layer_factory.hpp:77] Creating layer conv_4b_proj
I1221 13:23:47.278270 13393 net.cpp:100] Creating Layer conv_4b_proj
I1221 13:23:47.278285 13393 net.cpp:434] conv_4b_proj <- ave_pool_4b_pool
I1221 13:23:47.278302 13393 net.cpp:408] conv_4b_proj -> conv_4b_proj
I1221 13:23:47.278717 13393 net.cpp:150] Setting up conv_4b_proj
I1221 13:23:47.278743 13393 net.cpp:157] Top shape: 30 128 14 14 (752640)
I1221 13:23:47.278759 13393 net.cpp:165] Memory required for data: 2966154600
I1221 13:23:47.278776 13393 layer_factory.hpp:77] Creating layer bn_4b_proj
I1221 13:23:47.278798 13393 net.cpp:100] Creating Layer bn_4b_proj
I1221 13:23:47.278825 13393 net.cpp:434] bn_4b_proj <- conv_4b_proj
I1221 13:23:47.278842 13393 net.cpp:395] bn_4b_proj -> conv_4b_proj (in-place)
I1221 13:23:47.279115 13393 net.cpp:150] Setting up bn_4b_proj
I1221 13:23:47.279139 13393 net.cpp:157] Top shape: 30 128 14 14 (752640)
I1221 13:23:47.279151 13393 net.cpp:165] Memory required for data: 2969165160
I1221 13:23:47.279171 13393 layer_factory.hpp:77] Creating layer scale_conv_4b_proj
I1221 13:23:47.279201 13393 net.cpp:100] Creating Layer scale_conv_4b_proj
I1221 13:23:47.279217 13393 net.cpp:434] scale_conv_4b_proj <- conv_4b_proj
I1221 13:23:47.279233 13393 net.cpp:395] scale_conv_4b_proj -> conv_4b_proj (in-place)
I1221 13:23:47.279306 13393 layer_factory.hpp:77] Creating layer scale_conv_4b_proj
I1221 13:23:47.279516 13393 net.cpp:150] Setting up scale_conv_4b_proj
I1221 13:23:47.279543 13393 net.cpp:157] Top shape: 30 128 14 14 (752640)
I1221 13:23:47.279556 13393 net.cpp:165] Memory required for data: 2972175720
I1221 13:23:47.279573 13393 layer_factory.hpp:77] Creating layer relu_4b_proj
I1221 13:23:47.279592 13393 net.cpp:100] Creating Layer relu_4b_proj
I1221 13:23:47.279605 13393 net.cpp:434] relu_4b_proj <- conv_4b_proj
I1221 13:23:47.279624 13393 net.cpp:395] relu_4b_proj -> conv_4b_proj (in-place)
I1221 13:23:47.279644 13393 net.cpp:150] Setting up relu_4b_proj
I1221 13:23:47.279659 13393 net.cpp:157] Top shape: 30 128 14 14 (752640)
I1221 13:23:47.279672 13393 net.cpp:165] Memory required for data: 2975186280
I1221 13:23:47.279685 13393 layer_factory.hpp:77] Creating layer ch_concat_4b_chconcat
I1221 13:23:47.279701 13393 net.cpp:100] Creating Layer ch_concat_4b_chconcat
I1221 13:23:47.279714 13393 net.cpp:434] ch_concat_4b_chconcat <- conv_4b_1x1
I1221 13:23:47.279729 13393 net.cpp:434] ch_concat_4b_chconcat <- conv_4b_3x3
I1221 13:23:47.279748 13393 net.cpp:434] ch_concat_4b_chconcat <- conv_4b_double_3x3_1
I1221 13:23:47.279763 13393 net.cpp:434] ch_concat_4b_chconcat <- conv_4b_proj
I1221 13:23:47.279780 13393 net.cpp:408] ch_concat_4b_chconcat -> ch_concat_4b_chconcat
I1221 13:23:47.279829 13393 net.cpp:150] Setting up ch_concat_4b_chconcat
I1221 13:23:47.279850 13393 net.cpp:157] Top shape: 30 576 14 14 (3386880)
I1221 13:23:47.279863 13393 net.cpp:165] Memory required for data: 2988733800
I1221 13:23:47.279876 13393 layer_factory.hpp:77] Creating layer ch_concat_4b_chconcat_ch_concat_4b_chconcat_0_split
I1221 13:23:47.279899 13393 net.cpp:100] Creating Layer ch_concat_4b_chconcat_ch_concat_4b_chconcat_0_split
I1221 13:23:47.279913 13393 net.cpp:434] ch_concat_4b_chconcat_ch_concat_4b_chconcat_0_split <- ch_concat_4b_chconcat
I1221 13:23:47.279932 13393 net.cpp:408] ch_concat_4b_chconcat_ch_concat_4b_chconcat_0_split -> ch_concat_4b_chconcat_ch_concat_4b_chconcat_0_split_0
I1221 13:23:47.279953 13393 net.cpp:408] ch_concat_4b_chconcat_ch_concat_4b_chconcat_0_split -> ch_concat_4b_chconcat_ch_concat_4b_chconcat_0_split_1
I1221 13:23:47.279973 13393 net.cpp:408] ch_concat_4b_chconcat_ch_concat_4b_chconcat_0_split -> ch_concat_4b_chconcat_ch_concat_4b_chconcat_0_split_2
I1221 13:23:47.279997 13393 net.cpp:408] ch_concat_4b_chconcat_ch_concat_4b_chconcat_0_split -> ch_concat_4b_chconcat_ch_concat_4b_chconcat_0_split_3
I1221 13:23:47.280107 13393 net.cpp:150] Setting up ch_concat_4b_chconcat_ch_concat_4b_chconcat_0_split
I1221 13:23:47.280131 13393 net.cpp:157] Top shape: 30 576 14 14 (3386880)
I1221 13:23:47.280146 13393 net.cpp:157] Top shape: 30 576 14 14 (3386880)
I1221 13:23:47.280164 13393 net.cpp:157] Top shape: 30 576 14 14 (3386880)
I1221 13:23:47.280177 13393 net.cpp:157] Top shape: 30 576 14 14 (3386880)
I1221 13:23:47.280200 13393 net.cpp:165] Memory required for data: 3042923880
I1221 13:23:47.280213 13393 layer_factory.hpp:77] Creating layer conv_4c_1x1
I1221 13:23:47.280237 13393 net.cpp:100] Creating Layer conv_4c_1x1
I1221 13:23:47.280253 13393 net.cpp:434] conv_4c_1x1 <- ch_concat_4b_chconcat_ch_concat_4b_chconcat_0_split_0
I1221 13:23:47.280275 13393 net.cpp:408] conv_4c_1x1 -> conv_4c_1x1
I1221 13:23:47.281399 13393 net.cpp:150] Setting up conv_4c_1x1
I1221 13:23:47.281440 13393 net.cpp:157] Top shape: 30 160 14 14 (940800)
I1221 13:23:47.281455 13393 net.cpp:165] Memory required for data: 3046687080
I1221 13:23:47.281472 13393 layer_factory.hpp:77] Creating layer bn_4c_1x1
I1221 13:23:47.281491 13393 net.cpp:100] Creating Layer bn_4c_1x1
I1221 13:23:47.281505 13393 net.cpp:434] bn_4c_1x1 <- conv_4c_1x1
I1221 13:23:47.281522 13393 net.cpp:395] bn_4c_1x1 -> conv_4c_1x1 (in-place)
I1221 13:23:47.281808 13393 net.cpp:150] Setting up bn_4c_1x1
I1221 13:23:47.281833 13393 net.cpp:157] Top shape: 30 160 14 14 (940800)
I1221 13:23:47.281847 13393 net.cpp:165] Memory required for data: 3050450280
I1221 13:23:47.281915 13393 layer_factory.hpp:77] Creating layer scale_conv_4c_1x1
I1221 13:23:47.281937 13393 net.cpp:100] Creating Layer scale_conv_4c_1x1
I1221 13:23:47.281952 13393 net.cpp:434] scale_conv_4c_1x1 <- conv_4c_1x1
I1221 13:23:47.281968 13393 net.cpp:395] scale_conv_4c_1x1 -> conv_4c_1x1 (in-place)
I1221 13:23:47.282042 13393 layer_factory.hpp:77] Creating layer scale_conv_4c_1x1
I1221 13:23:47.282239 13393 net.cpp:150] Setting up scale_conv_4c_1x1
I1221 13:23:47.282263 13393 net.cpp:157] Top shape: 30 160 14 14 (940800)
I1221 13:23:47.282279 13393 net.cpp:165] Memory required for data: 3054213480
I1221 13:23:47.282296 13393 layer_factory.hpp:77] Creating layer relu_4c_1x1
I1221 13:23:47.282313 13393 net.cpp:100] Creating Layer relu_4c_1x1
I1221 13:23:47.282327 13393 net.cpp:434] relu_4c_1x1 <- conv_4c_1x1
I1221 13:23:47.282346 13393 net.cpp:395] relu_4c_1x1 -> conv_4c_1x1 (in-place)
I1221 13:23:47.282364 13393 net.cpp:150] Setting up relu_4c_1x1
I1221 13:23:47.282382 13393 net.cpp:157] Top shape: 30 160 14 14 (940800)
I1221 13:23:47.282393 13393 net.cpp:165] Memory required for data: 3057976680
I1221 13:23:47.282407 13393 layer_factory.hpp:77] Creating layer conv_4c_3x3_reduce
I1221 13:23:47.282428 13393 net.cpp:100] Creating Layer conv_4c_3x3_reduce
I1221 13:23:47.282444 13393 net.cpp:434] conv_4c_3x3_reduce <- ch_concat_4b_chconcat_ch_concat_4b_chconcat_0_split_1
I1221 13:23:47.282462 13393 net.cpp:408] conv_4c_3x3_reduce -> conv_4c_3x3_reduce
I1221 13:23:47.282857 13393 net.cpp:150] Setting up conv_4c_3x3_reduce
I1221 13:23:47.282882 13393 net.cpp:157] Top shape: 30 128 14 14 (752640)
I1221 13:23:47.282896 13393 net.cpp:165] Memory required for data: 3060987240
I1221 13:23:47.282913 13393 layer_factory.hpp:77] Creating layer bn_4c_3x3_reduce
I1221 13:23:47.282938 13393 net.cpp:100] Creating Layer bn_4c_3x3_reduce
I1221 13:23:47.282954 13393 net.cpp:434] bn_4c_3x3_reduce <- conv_4c_3x3_reduce
I1221 13:23:47.282970 13393 net.cpp:395] bn_4c_3x3_reduce -> conv_4c_3x3_reduce (in-place)
I1221 13:23:47.283272 13393 net.cpp:150] Setting up bn_4c_3x3_reduce
I1221 13:23:47.283296 13393 net.cpp:157] Top shape: 30 128 14 14 (752640)
I1221 13:23:47.283310 13393 net.cpp:165] Memory required for data: 3063997800
I1221 13:23:47.283329 13393 layer_factory.hpp:77] Creating layer scale_conv_4c_3x3_reduce
I1221 13:23:47.283354 13393 net.cpp:100] Creating Layer scale_conv_4c_3x3_reduce
I1221 13:23:47.283368 13393 net.cpp:434] scale_conv_4c_3x3_reduce <- conv_4c_3x3_reduce
I1221 13:23:47.283385 13393 net.cpp:395] scale_conv_4c_3x3_reduce -> conv_4c_3x3_reduce (in-place)
I1221 13:23:47.283457 13393 layer_factory.hpp:77] Creating layer scale_conv_4c_3x3_reduce
I1221 13:23:47.283637 13393 net.cpp:150] Setting up scale_conv_4c_3x3_reduce
I1221 13:23:47.283659 13393 net.cpp:157] Top shape: 30 128 14 14 (752640)
I1221 13:23:47.283673 13393 net.cpp:165] Memory required for data: 3067008360
I1221 13:23:47.283689 13393 layer_factory.hpp:77] Creating layer relu_4c_3x3_reduce
I1221 13:23:47.283711 13393 net.cpp:100] Creating Layer relu_4c_3x3_reduce
I1221 13:23:47.283726 13393 net.cpp:434] relu_4c_3x3_reduce <- conv_4c_3x3_reduce
I1221 13:23:47.283743 13393 net.cpp:395] relu_4c_3x3_reduce -> conv_4c_3x3_reduce (in-place)
I1221 13:23:47.283766 13393 net.cpp:150] Setting up relu_4c_3x3_reduce
I1221 13:23:47.283782 13393 net.cpp:157] Top shape: 30 128 14 14 (752640)
I1221 13:23:47.283803 13393 net.cpp:165] Memory required for data: 3070018920
I1221 13:23:47.283821 13393 layer_factory.hpp:77] Creating layer conv_4c_3x3
I1221 13:23:47.283841 13393 net.cpp:100] Creating Layer conv_4c_3x3
I1221 13:23:47.283855 13393 net.cpp:434] conv_4c_3x3 <- conv_4c_3x3_reduce
I1221 13:23:47.283874 13393 net.cpp:408] conv_4c_3x3 -> conv_4c_3x3
I1221 13:23:47.285054 13393 net.cpp:150] Setting up conv_4c_3x3
I1221 13:23:47.285084 13393 net.cpp:157] Top shape: 30 160 14 14 (940800)
I1221 13:23:47.285097 13393 net.cpp:165] Memory required for data: 3073782120
I1221 13:23:47.285115 13393 layer_factory.hpp:77] Creating layer bn_4c_3x3
I1221 13:23:47.285138 13393 net.cpp:100] Creating Layer bn_4c_3x3
I1221 13:23:47.285153 13393 net.cpp:434] bn_4c_3x3 <- conv_4c_3x3
I1221 13:23:47.285173 13393 net.cpp:395] bn_4c_3x3 -> conv_4c_3x3 (in-place)
I1221 13:23:47.285476 13393 net.cpp:150] Setting up bn_4c_3x3
I1221 13:23:47.285506 13393 net.cpp:157] Top shape: 30 160 14 14 (940800)
I1221 13:23:47.285519 13393 net.cpp:165] Memory required for data: 3077545320
I1221 13:23:47.285539 13393 layer_factory.hpp:77] Creating layer scale_conv_4c_3x3
I1221 13:23:47.285557 13393 net.cpp:100] Creating Layer scale_conv_4c_3x3
I1221 13:23:47.285572 13393 net.cpp:434] scale_conv_4c_3x3 <- conv_4c_3x3
I1221 13:23:47.285588 13393 net.cpp:395] scale_conv_4c_3x3 -> conv_4c_3x3 (in-place)
I1221 13:23:47.285661 13393 layer_factory.hpp:77] Creating layer scale_conv_4c_3x3
I1221 13:23:47.285868 13393 net.cpp:150] Setting up scale_conv_4c_3x3
I1221 13:23:47.285892 13393 net.cpp:157] Top shape: 30 160 14 14 (940800)
I1221 13:23:47.285904 13393 net.cpp:165] Memory required for data: 3081308520
I1221 13:23:47.285923 13393 layer_factory.hpp:77] Creating layer relu_4c_3x3
I1221 13:23:47.285939 13393 net.cpp:100] Creating Layer relu_4c_3x3
I1221 13:23:47.285958 13393 net.cpp:434] relu_4c_3x3 <- conv_4c_3x3
I1221 13:23:47.285974 13393 net.cpp:395] relu_4c_3x3 -> conv_4c_3x3 (in-place)
I1221 13:23:47.285991 13393 net.cpp:150] Setting up relu_4c_3x3
I1221 13:23:47.286007 13393 net.cpp:157] Top shape: 30 160 14 14 (940800)
I1221 13:23:47.286020 13393 net.cpp:165] Memory required for data: 3085071720
I1221 13:23:47.286033 13393 layer_factory.hpp:77] Creating layer conv_4c_double_3x3_reduce
I1221 13:23:47.286057 13393 net.cpp:100] Creating Layer conv_4c_double_3x3_reduce
I1221 13:23:47.286072 13393 net.cpp:434] conv_4c_double_3x3_reduce <- ch_concat_4b_chconcat_ch_concat_4b_chconcat_0_split_2
I1221 13:23:47.286092 13393 net.cpp:408] conv_4c_double_3x3_reduce -> conv_4c_double_3x3_reduce
I1221 13:23:47.286494 13393 net.cpp:150] Setting up conv_4c_double_3x3_reduce
I1221 13:23:47.286523 13393 net.cpp:157] Top shape: 30 128 14 14 (752640)
I1221 13:23:47.286540 13393 net.cpp:165] Memory required for data: 3088082280
I1221 13:23:47.286557 13393 layer_factory.hpp:77] Creating layer bn_4c_double_3x3_reduce
I1221 13:23:47.286581 13393 net.cpp:100] Creating Layer bn_4c_double_3x3_reduce
I1221 13:23:47.286597 13393 net.cpp:434] bn_4c_double_3x3_reduce <- conv_4c_double_3x3_reduce
I1221 13:23:47.286615 13393 net.cpp:395] bn_4c_double_3x3_reduce -> conv_4c_double_3x3_reduce (in-place)
I1221 13:23:47.286893 13393 net.cpp:150] Setting up bn_4c_double_3x3_reduce
I1221 13:23:47.286919 13393 net.cpp:157] Top shape: 30 128 14 14 (752640)
I1221 13:23:47.286933 13393 net.cpp:165] Memory required for data: 3091092840
I1221 13:23:47.286953 13393 layer_factory.hpp:77] Creating layer scale_conv_4c_double_3x3_reduce
I1221 13:23:47.286972 13393 net.cpp:100] Creating Layer scale_conv_4c_double_3x3_reduce
I1221 13:23:47.286986 13393 net.cpp:434] scale_conv_4c_double_3x3_reduce <- conv_4c_double_3x3_reduce
I1221 13:23:47.287008 13393 net.cpp:395] scale_conv_4c_double_3x3_reduce -> conv_4c_double_3x3_reduce (in-place)
I1221 13:23:47.287078 13393 layer_factory.hpp:77] Creating layer scale_conv_4c_double_3x3_reduce
I1221 13:23:47.287267 13393 net.cpp:150] Setting up scale_conv_4c_double_3x3_reduce
I1221 13:23:47.287295 13393 net.cpp:157] Top shape: 30 128 14 14 (752640)
I1221 13:23:47.287309 13393 net.cpp:165] Memory required for data: 3094103400
I1221 13:23:47.287339 13393 layer_factory.hpp:77] Creating layer relu_4c_double_3x3_reduce
I1221 13:23:47.287358 13393 net.cpp:100] Creating Layer relu_4c_double_3x3_reduce
I1221 13:23:47.287372 13393 net.cpp:434] relu_4c_double_3x3_reduce <- conv_4c_double_3x3_reduce
I1221 13:23:47.287389 13393 net.cpp:395] relu_4c_double_3x3_reduce -> conv_4c_double_3x3_reduce (in-place)
I1221 13:23:47.287407 13393 net.cpp:150] Setting up relu_4c_double_3x3_reduce
I1221 13:23:47.287425 13393 net.cpp:157] Top shape: 30 128 14 14 (752640)
I1221 13:23:47.287437 13393 net.cpp:165] Memory required for data: 3097113960
I1221 13:23:47.287451 13393 layer_factory.hpp:77] Creating layer conv_4c_double_3x3_0
I1221 13:23:47.287473 13393 net.cpp:100] Creating Layer conv_4c_double_3x3_0
I1221 13:23:47.287488 13393 net.cpp:434] conv_4c_double_3x3_0 <- conv_4c_double_3x3_reduce
I1221 13:23:47.287510 13393 net.cpp:408] conv_4c_double_3x3_0 -> conv_4c_double_3x3_0
I1221 13:23:47.288712 13393 net.cpp:150] Setting up conv_4c_double_3x3_0
I1221 13:23:47.288743 13393 net.cpp:157] Top shape: 30 160 14 14 (940800)
I1221 13:23:47.288758 13393 net.cpp:165] Memory required for data: 3100877160
I1221 13:23:47.288777 13393 layer_factory.hpp:77] Creating layer bn_4c_double_3x3_0
I1221 13:23:47.288800 13393 net.cpp:100] Creating Layer bn_4c_double_3x3_0
I1221 13:23:47.288815 13393 net.cpp:434] bn_4c_double_3x3_0 <- conv_4c_double_3x3_0
I1221 13:23:47.288836 13393 net.cpp:395] bn_4c_double_3x3_0 -> conv_4c_double_3x3_0 (in-place)
I1221 13:23:47.289127 13393 net.cpp:150] Setting up bn_4c_double_3x3_0
I1221 13:23:47.289155 13393 net.cpp:157] Top shape: 30 160 14 14 (940800)
I1221 13:23:47.289168 13393 net.cpp:165] Memory required for data: 3104640360
I1221 13:23:47.289196 13393 layer_factory.hpp:77] Creating layer scale_conv_4c_double_3x3_0
I1221 13:23:47.289219 13393 net.cpp:100] Creating Layer scale_conv_4c_double_3x3_0
I1221 13:23:47.289234 13393 net.cpp:434] scale_conv_4c_double_3x3_0 <- conv_4c_double_3x3_0
I1221 13:23:47.289252 13393 net.cpp:395] scale_conv_4c_double_3x3_0 -> conv_4c_double_3x3_0 (in-place)
I1221 13:23:47.289327 13393 layer_factory.hpp:77] Creating layer scale_conv_4c_double_3x3_0
I1221 13:23:47.289544 13393 net.cpp:150] Setting up scale_conv_4c_double_3x3_0
I1221 13:23:47.289572 13393 net.cpp:157] Top shape: 30 160 14 14 (940800)
I1221 13:23:47.289585 13393 net.cpp:165] Memory required for data: 3108403560
I1221 13:23:47.289602 13393 layer_factory.hpp:77] Creating layer relu_4c_double_3x3_0
I1221 13:23:47.289624 13393 net.cpp:100] Creating Layer relu_4c_double_3x3_0
I1221 13:23:47.289639 13393 net.cpp:434] relu_4c_double_3x3_0 <- conv_4c_double_3x3_0
I1221 13:23:47.289659 13393 net.cpp:395] relu_4c_double_3x3_0 -> conv_4c_double_3x3_0 (in-place)
I1221 13:23:47.289679 13393 net.cpp:150] Setting up relu_4c_double_3x3_0
I1221 13:23:47.289695 13393 net.cpp:157] Top shape: 30 160 14 14 (940800)
I1221 13:23:47.289708 13393 net.cpp:165] Memory required for data: 3112166760
I1221 13:23:47.289721 13393 layer_factory.hpp:77] Creating layer conv_4c_double_3x3_1
I1221 13:23:47.289741 13393 net.cpp:100] Creating Layer conv_4c_double_3x3_1
I1221 13:23:47.289755 13393 net.cpp:434] conv_4c_double_3x3_1 <- conv_4c_double_3x3_0
I1221 13:23:47.289777 13393 net.cpp:408] conv_4c_double_3x3_1 -> conv_4c_double_3x3_1
I1221 13:23:47.291008 13393 net.cpp:150] Setting up conv_4c_double_3x3_1
I1221 13:23:47.291039 13393 net.cpp:157] Top shape: 30 160 14 14 (940800)
I1221 13:23:47.291054 13393 net.cpp:165] Memory required for data: 3115929960
I1221 13:23:47.291072 13393 layer_factory.hpp:77] Creating layer bn_4c_double_3x3_1
I1221 13:23:47.291095 13393 net.cpp:100] Creating Layer bn_4c_double_3x3_1
I1221 13:23:47.291111 13393 net.cpp:434] bn_4c_double_3x3_1 <- conv_4c_double_3x3_1
I1221 13:23:47.291131 13393 net.cpp:395] bn_4c_double_3x3_1 -> conv_4c_double_3x3_1 (in-place)
I1221 13:23:47.291429 13393 net.cpp:150] Setting up bn_4c_double_3x3_1
I1221 13:23:47.291456 13393 net.cpp:157] Top shape: 30 160 14 14 (940800)
I1221 13:23:47.291479 13393 net.cpp:165] Memory required for data: 3119693160
I1221 13:23:47.291501 13393 layer_factory.hpp:77] Creating layer scale_conv_4c_double_3x3_1
I1221 13:23:47.291520 13393 net.cpp:100] Creating Layer scale_conv_4c_double_3x3_1
I1221 13:23:47.291534 13393 net.cpp:434] scale_conv_4c_double_3x3_1 <- conv_4c_double_3x3_1
I1221 13:23:47.291550 13393 net.cpp:395] scale_conv_4c_double_3x3_1 -> conv_4c_double_3x3_1 (in-place)
I1221 13:23:47.291626 13393 layer_factory.hpp:77] Creating layer scale_conv_4c_double_3x3_1
I1221 13:23:47.291815 13393 net.cpp:150] Setting up scale_conv_4c_double_3x3_1
I1221 13:23:47.291846 13393 net.cpp:157] Top shape: 30 160 14 14 (940800)
I1221 13:23:47.291859 13393 net.cpp:165] Memory required for data: 3123456360
I1221 13:23:47.291878 13393 layer_factory.hpp:77] Creating layer relu_4c_double_3x3_1
I1221 13:23:47.291896 13393 net.cpp:100] Creating Layer relu_4c_double_3x3_1
I1221 13:23:47.291910 13393 net.cpp:434] relu_4c_double_3x3_1 <- conv_4c_double_3x3_1
I1221 13:23:47.291926 13393 net.cpp:395] relu_4c_double_3x3_1 -> conv_4c_double_3x3_1 (in-place)
I1221 13:23:47.291945 13393 net.cpp:150] Setting up relu_4c_double_3x3_1
I1221 13:23:47.291961 13393 net.cpp:157] Top shape: 30 160 14 14 (940800)
I1221 13:23:47.291973 13393 net.cpp:165] Memory required for data: 3127219560
I1221 13:23:47.291986 13393 layer_factory.hpp:77] Creating layer ave_pool_4c_pool
I1221 13:23:47.292008 13393 net.cpp:100] Creating Layer ave_pool_4c_pool
I1221 13:23:47.292023 13393 net.cpp:434] ave_pool_4c_pool <- ch_concat_4b_chconcat_ch_concat_4b_chconcat_0_split_3
I1221 13:23:47.292042 13393 net.cpp:408] ave_pool_4c_pool -> ave_pool_4c_pool
I1221 13:23:47.292089 13393 net.cpp:150] Setting up ave_pool_4c_pool
I1221 13:23:47.292111 13393 net.cpp:157] Top shape: 30 576 14 14 (3386880)
I1221 13:23:47.292124 13393 net.cpp:165] Memory required for data: 3140767080
I1221 13:23:47.292137 13393 layer_factory.hpp:77] Creating layer conv_4c_proj
I1221 13:23:47.292160 13393 net.cpp:100] Creating Layer conv_4c_proj
I1221 13:23:47.292176 13393 net.cpp:434] conv_4c_proj <- ave_pool_4c_pool
I1221 13:23:47.292202 13393 net.cpp:408] conv_4c_proj -> conv_4c_proj
I1221 13:23:47.292614 13393 net.cpp:150] Setting up conv_4c_proj
I1221 13:23:47.292640 13393 net.cpp:157] Top shape: 30 128 14 14 (752640)
I1221 13:23:47.292654 13393 net.cpp:165] Memory required for data: 3143777640
I1221 13:23:47.292670 13393 layer_factory.hpp:77] Creating layer bn_4c_proj
I1221 13:23:47.292692 13393 net.cpp:100] Creating Layer bn_4c_proj
I1221 13:23:47.292707 13393 net.cpp:434] bn_4c_proj <- conv_4c_proj
I1221 13:23:47.292723 13393 net.cpp:395] bn_4c_proj -> conv_4c_proj (in-place)
I1221 13:23:47.292994 13393 net.cpp:150] Setting up bn_4c_proj
I1221 13:23:47.293016 13393 net.cpp:157] Top shape: 30 128 14 14 (752640)
I1221 13:23:47.293030 13393 net.cpp:165] Memory required for data: 3146788200
I1221 13:23:47.293050 13393 layer_factory.hpp:77] Creating layer scale_conv_4c_proj
I1221 13:23:47.293067 13393 net.cpp:100] Creating Layer scale_conv_4c_proj
I1221 13:23:47.293081 13393 net.cpp:434] scale_conv_4c_proj <- conv_4c_proj
I1221 13:23:47.293100 13393 net.cpp:395] scale_conv_4c_proj -> conv_4c_proj (in-place)
I1221 13:23:47.293170 13393 layer_factory.hpp:77] Creating layer scale_conv_4c_proj
I1221 13:23:47.293355 13393 net.cpp:150] Setting up scale_conv_4c_proj
I1221 13:23:47.293380 13393 net.cpp:157] Top shape: 30 128 14 14 (752640)
I1221 13:23:47.293392 13393 net.cpp:165] Memory required for data: 3149798760
I1221 13:23:47.293409 13393 layer_factory.hpp:77] Creating layer relu_4c_proj
I1221 13:23:47.293426 13393 net.cpp:100] Creating Layer relu_4c_proj
I1221 13:23:47.293440 13393 net.cpp:434] relu_4c_proj <- conv_4c_proj
I1221 13:23:47.293457 13393 net.cpp:395] relu_4c_proj -> conv_4c_proj (in-place)
I1221 13:23:47.293473 13393 net.cpp:150] Setting up relu_4c_proj
I1221 13:23:47.293489 13393 net.cpp:157] Top shape: 30 128 14 14 (752640)
I1221 13:23:47.293501 13393 net.cpp:165] Memory required for data: 3152809320
I1221 13:23:47.293514 13393 layer_factory.hpp:77] Creating layer ch_concat_4c_chconcat
I1221 13:23:47.293543 13393 net.cpp:100] Creating Layer ch_concat_4c_chconcat
I1221 13:23:47.293560 13393 net.cpp:434] ch_concat_4c_chconcat <- conv_4c_1x1
I1221 13:23:47.293576 13393 net.cpp:434] ch_concat_4c_chconcat <- conv_4c_3x3
I1221 13:23:47.293591 13393 net.cpp:434] ch_concat_4c_chconcat <- conv_4c_double_3x3_1
I1221 13:23:47.293606 13393 net.cpp:434] ch_concat_4c_chconcat <- conv_4c_proj
I1221 13:23:47.293622 13393 net.cpp:408] ch_concat_4c_chconcat -> ch_concat_4c_chconcat
I1221 13:23:47.293674 13393 net.cpp:150] Setting up ch_concat_4c_chconcat
I1221 13:23:47.293697 13393 net.cpp:157] Top shape: 30 608 14 14 (3575040)
I1221 13:23:47.293710 13393 net.cpp:165] Memory required for data: 3167109480
I1221 13:23:47.293723 13393 layer_factory.hpp:77] Creating layer ch_concat_4c_chconcat_ch_concat_4c_chconcat_0_split
I1221 13:23:47.293741 13393 net.cpp:100] Creating Layer ch_concat_4c_chconcat_ch_concat_4c_chconcat_0_split
I1221 13:23:47.293754 13393 net.cpp:434] ch_concat_4c_chconcat_ch_concat_4c_chconcat_0_split <- ch_concat_4c_chconcat
I1221 13:23:47.293776 13393 net.cpp:408] ch_concat_4c_chconcat_ch_concat_4c_chconcat_0_split -> ch_concat_4c_chconcat_ch_concat_4c_chconcat_0_split_0
I1221 13:23:47.293798 13393 net.cpp:408] ch_concat_4c_chconcat_ch_concat_4c_chconcat_0_split -> ch_concat_4c_chconcat_ch_concat_4c_chconcat_0_split_1
I1221 13:23:47.293819 13393 net.cpp:408] ch_concat_4c_chconcat_ch_concat_4c_chconcat_0_split -> ch_concat_4c_chconcat_ch_concat_4c_chconcat_0_split_2
I1221 13:23:47.293840 13393 net.cpp:408] ch_concat_4c_chconcat_ch_concat_4c_chconcat_0_split -> ch_concat_4c_chconcat_ch_concat_4c_chconcat_0_split_3
I1221 13:23:47.293937 13393 net.cpp:150] Setting up ch_concat_4c_chconcat_ch_concat_4c_chconcat_0_split
I1221 13:23:47.293963 13393 net.cpp:157] Top shape: 30 608 14 14 (3575040)
I1221 13:23:47.293979 13393 net.cpp:157] Top shape: 30 608 14 14 (3575040)
I1221 13:23:47.293993 13393 net.cpp:157] Top shape: 30 608 14 14 (3575040)
I1221 13:23:47.294009 13393 net.cpp:157] Top shape: 30 608 14 14 (3575040)
I1221 13:23:47.294023 13393 net.cpp:165] Memory required for data: 3224310120
I1221 13:23:47.294034 13393 layer_factory.hpp:77] Creating layer conv_4d_1x1
I1221 13:23:47.294054 13393 net.cpp:100] Creating Layer conv_4d_1x1
I1221 13:23:47.294069 13393 net.cpp:434] conv_4d_1x1 <- ch_concat_4c_chconcat_ch_concat_4c_chconcat_0_split_0
I1221 13:23:47.294090 13393 net.cpp:408] conv_4d_1x1 -> conv_4d_1x1
I1221 13:23:47.294518 13393 net.cpp:150] Setting up conv_4d_1x1
I1221 13:23:47.294544 13393 net.cpp:157] Top shape: 30 96 14 14 (564480)
I1221 13:23:47.294559 13393 net.cpp:165] Memory required for data: 3226568040
I1221 13:23:47.294576 13393 layer_factory.hpp:77] Creating layer bn_4d_1x1
I1221 13:23:47.294595 13393 net.cpp:100] Creating Layer bn_4d_1x1
I1221 13:23:47.294608 13393 net.cpp:434] bn_4d_1x1 <- conv_4d_1x1
I1221 13:23:47.294628 13393 net.cpp:395] bn_4d_1x1 -> conv_4d_1x1 (in-place)
I1221 13:23:47.294919 13393 net.cpp:150] Setting up bn_4d_1x1
I1221 13:23:47.294944 13393 net.cpp:157] Top shape: 30 96 14 14 (564480)
…
I1221 13:23:47.310006 13393 net.cpp:165] Memory required for data: 3384246120
I1221 13:23:47.310025 13393 layer_factory.hpp:77] Creating layer bn_4e_3x3
I1221 13:23:47.310051 13393 net.cpp:100] Creating Layer bn_4e_3x3
I1221 13:23:47.310068 13393 net.cpp:434] bn_4e_3x3 <- conv_4e_3x3
I1221 13:23:47.310106 13393 net.cpp:395] bn_4e_3x3 -> conv_4e_3x3 (in-place)
I1221 13:23:47.310384 13393 net.cpp:150] Setting up bn_4e_3x3
I1221 13:23:47.310411 13393 net.cpp:157] Top shape: 30 192 7 7 (282240)
I1221 13:23:47.310425 13393 net.cpp:165] Memory required for data: 3385375080
I1221 13:23:47.310446 13393 layer_factory.hpp:77] Creating layer scale_conv_4e_3x3
I1221 13:23:47.310468 13393 net.cpp:100] Creating Layer scale_conv_4e_3x3
I1221 13:23:47.310483 13393 net.cpp:434] scale_conv_4e_3x3 <- conv_4e_3x3
I1221 13:23:47.310500 13393 net.cpp:395] scale_conv_4e_3x3 -> conv_4e_3x3 (in-place)
I1221 13:23:47.310580 13393 layer_factory.hpp:77] Creating layer scale_conv_4e_3x3
I1221 13:23:47.310812 13393 net.cpp:150] Setting up scale_conv_4e_3x3
I1221 13:23:47.310847 13393 net.cpp:157] Top shape: 30 192 7 7 (282240)
I1221 13:23:47.310861 13393 net.cpp:165] Memory required for data: 3386504040
I1221 13:23:47.310880 13393 layer_factory.hpp:77] Creating layer relu_4e_3x3
I1221 13:23:47.310901 13393 net.cpp:100] Creating Layer relu_4e_3x3
I1221 13:23:47.310926 13393 net.cpp:434] relu_4e_3x3 <- conv_4e_3x3
I1221 13:23:47.310961 13393 net.cpp:395] relu_4e_3x3 -> conv_4e_3x3 (in-place)
I1221 13:23:47.310997 13393 net.cpp:150] Setting up relu_4e_3x3
I1221 13:23:47.311025 13393 net.cpp:157] Top shape: 30 192 7 7 (282240)
I1221 13:23:47.311045 13393 net.cpp:165] Memory required for data: 3387633000
I1221 13:23:47.311065 13393 layer_factory.hpp:77] Creating layer conv_4e_double_3x3_reduce
I1221 13:23:47.311096 13393 net.cpp:100] Creating Layer conv_4e_double_3x3_reduce
I1221 13:23:47.311120 13393 net.cpp:434] conv_4e_double_3x3_reduce <- ch_concat_4d_chconcat_ch_concat_4d_chconcat_0_split_1
I1221 13:23:47.311156 13393 net.cpp:408] conv_4e_double_3x3_reduce -> conv_4e_double_3x3_reduce
I1221 13:23:47.311705 13393 net.cpp:150] Setting up conv_4e_double_3x3_reduce
I1221 13:23:47.311736 13393 net.cpp:157] Top shape: 30 192 14 14 (1128960)
I1221 13:23:47.311749 13393 net.cpp:165] Memory required for data: 3392148840
I1221 13:23:47.311767 13393 layer_factory.hpp:77] Creating layer bn_4e_double_3x3_reduce
I1221 13:23:47.311791 13393 net.cpp:100] Creating Layer bn_4e_double_3x3_reduce
I1221 13:23:47.311806 13393 net.cpp:434] bn_4e_double_3x3_reduce <- conv_4e_double_3x3_reduce
I1221 13:23:47.311823 13393 net.cpp:395] bn_4e_double_3x3_reduce -> conv_4e_double_3x3_reduce (in-place)
I1221 13:23:47.312094 13393 net.cpp:150] Setting up bn_4e_double_3x3_reduce
I1221 13:23:47.312119 13393 net.cpp:157] Top shape: 30 192 14 14 (1128960)
I1221 13:23:47.312131 13393 net.cpp:165] Memory required for data: 3396664680
I1221 13:23:47.312151 13393 layer_factory.hpp:77] Creating layer scale_conv_4e_double_3x3_reduce
I1221 13:23:47.312173 13393 net.cpp:100] Creating Layer scale_conv_4e_double_3x3_reduce
I1221 13:23:47.312196 13393 net.cpp:434] scale_conv_4e_double_3x3_reduce <- conv_4e_double_3x3_reduce
I1221 13:23:47.312213 13393 net.cpp:395] scale_conv_4e_double_3x3_reduce -> conv_4e_double_3x3_reduce (in-place)
I1221 13:23:47.312283 13393 layer_factory.hpp:77] Creating layer scale_conv_4e_double_3x3_reduce
I1221 13:23:47.312463 13393 net.cpp:150] Setting up scale_conv_4e_double_3x3_reduce
I1221 13:23:47.312487 13393 net.cpp:157] Top shape: 30 192 14 14 (1128960)
I1221 13:23:47.312500 13393 net.cpp:165] Memory required for data: 3401180520
I1221 13:23:47.312518 13393 layer_factory.hpp:77] Creating layer relu_4e_double_3x3_reduce
I1221 13:23:47.312536 13393 net.cpp:100] Creating Layer relu_4e_double_3x3_reduce
I1221 13:23:47.312549 13393 net.cpp:434] relu_4e_double_3x3_reduce <- conv_4e_double_3x3_reduce
I1221 13:23:47.312569 13393 net.cpp:395] relu_4e_double_3x3_reduce -> conv_4e_double_3x3_reduce (in-place)
I1221 13:23:47.312588 13393 net.cpp:150] Setting up relu_4e_double_3x3_reduce
I1221 13:23:47.312605 13393 net.cpp:157] Top shape: 30 192 14 14 (1128960)
I1221 13:23:47.312618 13393 net.cpp:165] Memory required for data: 3405696360
I1221 13:23:47.312631 13393 layer_factory.hpp:77] Creating layer conv_4e_double_3x3_0
I1221 13:23:47.312650 13393 net.cpp:100] Creating Layer conv_4e_double_3x3_0
I1221 13:23:47.312664 13393 net.cpp:434] conv_4e_double_3x3_0 <- conv_4e_double_3x3_reduce
I1221 13:23:47.312687 13393 net.cpp:408] conv_4e_double_3x3_0 -> conv_4e_double_3x3_0
I1221 13:23:47.314411 13393 net.cpp:150] Setting up conv_4e_double_3x3_0
I1221 13:23:47.314445 13393 net.cpp:157] Top shape: 30 256 14 14 (1505280)
I1221 13:23:47.314458 13393 net.cpp:165] Memory required for data: 3411717480
I1221 13:23:47.314478 13393 layer_factory.hpp:77] Creating layer bn_4e_double_3x3_0
I1221 13:23:47.314497 13393 net.cpp:100] Creating Layer bn_4e_double_3x3_0
I1221 13:23:47.314525 13393 net.cpp:434] bn_4e_double_3x3_0 <- conv_4e_double_3x3_0
I1221 13:23:47.314543 13393 net.cpp:395] bn_4e_double_3x3_0 -> conv_4e_double_3x3_0 (in-place)
I1221 13:23:47.314797 13393 net.cpp:150] Setting up bn_4e_double_3x3_0
I1221 13:23:47.314821 13393 net.cpp:157] Top shape: 30 256 14 14 (1505280)
I1221 13:23:47.314833 13393 net.cpp:165] Memory required for data: 3417738600
I1221 13:23:47.314857 13393 layer_factory.hpp:77] Creating layer scale_conv_4e_double_3x3_0
I1221 13:23:47.314879 13393 net.cpp:100] Creating Layer scale_conv_4e_double_3x3_0
I1221 13:23:47.314894 13393 net.cpp:434] scale_conv_4e_double_3x3_0 <- conv_4e_double_3x3_0
I1221 13:23:47.314910 13393 net.cpp:395] scale_conv_4e_double_3x3_0 -> conv_4e_double_3x3_0 (in-place)
I1221 13:23:47.314982 13393 layer_factory.hpp:77] Creating layer scale_conv_4e_double_3x3_0
I1221 13:23:47.315146 13393 net.cpp:150] Setting up scale_conv_4e_double_3x3_0
I1221 13:23:47.315170 13393 net.cpp:157] Top shape: 30 256 14 14 (1505280)
I1221 13:23:47.315188 13393 net.cpp:165] Memory required for data: 3423759720
I1221 13:23:47.315207 13393 layer_factory.hpp:77] Creating layer relu_4e_double_3x3_0
I1221 13:23:47.315232 13393 net.cpp:100] Creating Layer relu_4e_double_3x3_0
I1221 13:23:47.315248 13393 net.cpp:434] relu_4e_double_3x3_0 <- conv_4e_double_3x3_0
I1221 13:23:47.315263 13393 net.cpp:395] relu_4e_double_3x3_0 -> conv_4e_double_3x3_0 (in-place)
I1221 13:23:47.315282 13393 net.cpp:150] Setting up relu_4e_double_3x3_0
I1221 13:23:47.315299 13393 net.cpp:157] Top shape: 30 256 14 14 (1505280)
I1221 13:23:47.315312 13393 net.cpp:165] Memory required for data: 3429780840
I1221 13:23:47.315325 13393 layer_factory.hpp:77] Creating layer conv_4e_double_3x3_1
I1221 13:23:47.315347 13393 net.cpp:100] Creating Layer conv_4e_double_3x3_1
I1221 13:23:47.315362 13393 net.cpp:434] conv_4e_double_3x3_1 <- conv_4e_double_3x3_0
I1221 13:23:47.315382 13393 net.cpp:408] conv_4e_double_3x3_1 -> conv_4e_double_3x3_1
I1221 13:23:47.317479 13393 net.cpp:150] Setting up conv_4e_double_3x3_1
I1221 13:23:47.317512 13393 net.cpp:157] Top shape: 30 256 7 7 (376320)
I1221 13:23:47.317525 13393 net.cpp:165] Memory required for data: 3431286120
I1221 13:23:47.317543 13393 layer_factory.hpp:77] Creating layer bn_4e_double_3x3_1
I1221 13:23:47.317566 13393 net.cpp:100] Creating Layer bn_4e_double_3x3_1
I1221 13:23:47.317582 13393 net.cpp:434] bn_4e_double_3x3_1 <- conv_4e_double_3x3_1
I1221 13:23:47.317598 13393 net.cpp:395] bn_4e_double_3x3_1 -> conv_4e_double_3x3_1 (in-place)
I1221 13:23:47.317862 13393 net.cpp:150] Setting up bn_4e_double_3x3_1
I1221 13:23:47.317899 13393 net.cpp:157] Top shape: 30 256 7 7 (376320)
I1221 13:23:47.317912 13393 net.cpp:165] Memory required for data: 3432791400
I1221 13:23:47.317934 13393 layer_factory.hpp:77] Creating layer scale_conv_4e_double_3x3_1
I1221 13:23:47.317951 13393 net.cpp:100] Creating Layer scale_conv_4e_double_3x3_1
I1221 13:23:47.317965 13393 net.cpp:434] scale_conv_4e_double_3x3_1 <- conv_4e_double_3x3_1
I1221 13:23:47.317986 13393 net.cpp:395] scale_conv_4e_double_3x3_1 -> conv_4e_double_3x3_1 (in-place)
I1221 13:23:47.318058 13393 layer_factory.hpp:77] Creating layer scale_conv_4e_double_3x3_1
I1221 13:23:47.318236 13393 net.cpp:150] Setting up scale_conv_4e_double_3x3_1
I1221 13:23:47.318261 13393 net.cpp:157] Top shape: 30 256 7 7 (376320)
I1221 13:23:47.318274 13393 net.cpp:165] Memory required for data: 3434296680
I1221 13:23:47.318291 13393 layer_factory.hpp:77] Creating layer relu_4e_double_3x3_1
I1221 13:23:47.318310 13393 net.cpp:100] Creating Layer relu_4e_double_3x3_1
I1221 13:23:47.318323 13393 net.cpp:434] relu_4e_double_3x3_1 <- conv_4e_double_3x3_1
I1221 13:23:47.318342 13393 net.cpp:395] relu_4e_double_3x3_1 -> conv_4e_double_3x3_1 (in-place)
I1221 13:23:47.318362 13393 net.cpp:150] Setting up relu_4e_double_3x3_1
I1221 13:23:47.318379 13393 net.cpp:157] Top shape: 30 256 7 7 (376320)
I1221 13:23:47.318392 13393 net.cpp:165] Memory required for data: 3435801960
I1221 13:23:47.318405 13393 layer_factory.hpp:77] Creating layer max_pool_4e_pool
I1221 13:23:47.318434 13393 net.cpp:100] Creating Layer max_pool_4e_pool
I1221 13:23:47.318449 13393 net.cpp:434] max_pool_4e_pool <- ch_concat_4d_chconcat_ch_concat_4d_chconcat_0_split_2
I1221 13:23:47.318470 13393 net.cpp:408] max_pool_4e_pool -> max_pool_4e_pool
I1221 13:23:47.318538 13393 net.cpp:150] Setting up max_pool_4e_pool
I1221 13:23:47.318560 13393 net.cpp:157] Top shape: 30 512 7 7 (752640)
I1221 13:23:47.318573 13393 net.cpp:165] Memory required for data: 3438812520
I1221 13:23:47.318586 13393 layer_factory.hpp:77] Creating layer ch_concat_4e_chconcat
I1221 13:23:47.318603 13393 net.cpp:100] Creating Layer ch_concat_4e_chconcat
I1221 13:23:47.318616 13393 net.cpp:434] ch_concat_4e_chconcat <- conv_4e_3x3
I1221 13:23:47.318631 13393 net.cpp:434] ch_concat_4e_chconcat <- conv_4e_double_3x3_1
I1221 13:23:47.318646 13393 net.cpp:434] ch_concat_4e_chconcat <- max_pool_4e_pool
I1221 13:23:47.318666 13393 net.cpp:408] ch_concat_4e_chconcat -> ch_concat_4e_chconcat
I1221 13:23:47.318716 13393 net.cpp:150] Setting up ch_concat_4e_chconcat
I1221 13:23:47.318737 13393 net.cpp:157] Top shape: 30 960 7 7 (1411200)
I1221 13:23:47.318750 13393 net.cpp:165] Memory required for data: 3444457320
I1221 13:23:47.318763 13393 layer_factory.hpp:77] Creating layer ch_concat_4e_chconcat_ch_concat_4e_chconcat_0_split
I1221 13:23:47.318781 13393 net.cpp:100] Creating Layer ch_concat_4e_chconcat_ch_concat_4e_chconcat_0_split
I1221 13:23:47.318794 13393 net.cpp:434] ch_concat_4e_chconcat_ch_concat_4e_chconcat_0_split <- ch_concat_4e_chconcat
I1221 13:23:47.318811 13393 net.cpp:408] ch_concat_4e_chconcat_ch_concat_4e_chconcat_0_split -> ch_concat_4e_chconcat_ch_concat_4e_chconcat_0_split_0
I1221 13:23:47.318833 13393 net.cpp:408] ch_concat_4e_chconcat_ch_concat_4e_chconcat_0_split -> ch_concat_4e_chconcat_ch_concat_4e_chconcat_0_split_1
I1221 13:23:47.318858 13393 net.cpp:408] ch_concat_4e_chconcat_ch_concat_4e_chconcat_0_split -> ch_concat_4e_chconcat_ch_concat_4e_chconcat_0_split_2
I1221 13:23:47.318881 13393 net.cpp:408] ch_concat_4e_chconcat_ch_concat_4e_chconcat_0_split -> ch_concat_4e_chconcat_ch_concat_4e_chconcat_0_split_3
I1221 13:23:47.318971 13393 net.cpp:150] Setting up ch_concat_4e_chconcat_ch_concat_4e_chconcat_0_split
I1221 13:23:47.318994 13393 net.cpp:157] Top shape: 30 960 7 7 (1411200)
I1221 13:23:47.319010 13393 net.cpp:157] Top shape: 30 960 7 7 (1411200)
I1221 13:23:47.319025 13393 net.cpp:157] Top shape: 30 960 7 7 (1411200)
I1221 13:23:47.319041 13393 net.cpp:157] Top shape: 30 960 7 7 (1411200)
I1221 13:23:47.319052 13393 net.cpp:165] Memory required for data: 3467036520
I1221 13:23:47.319064 13393 layer_factory.hpp:77] Creating layer conv_5a_1x1
I1221 13:23:47.319090 13393 net.cpp:100] Creating Layer conv_5a_1x1
I1221 13:23:47.319106 13393 net.cpp:434] conv_5a_1x1 <- ch_concat_4e_chconcat_ch_concat_4e_chconcat_0_split_0
I1221 13:23:47.319128 13393 net.cpp:408] conv_5a_1x1 -> conv_5a_1x1
I1221 13:23:47.320556 13393 net.cpp:150] Setting up conv_5a_1x1
I1221 13:23:47.320590 13393 net.cpp:157] Top shape: 30 352 7 7 (517440)
I1221 13:23:47.320603 13393 net.cpp:165] Memory required for data: 3469106280
I1221 13:23:47.320622 13393 layer_factory.hpp:77] Creating layer bn_5a_1x1
I1221 13:23:47.320641 13393 net.cpp:100] Creating Layer bn_5a_1x1
I1221 13:23:47.320655 13393 net.cpp:434] bn_5a_1x1 <- conv_5a_1x1
I1221 13:23:47.320672 13393 net.cpp:395] bn_5a_1x1 -> conv_5a_1x1 (in-place)
I1221 13:23:47.320984 13393 net.cpp:150] Setting up bn_5a_1x1
I1221 13:23:47.321010 13393 net.cpp:157] Top shape: 30 352 7 7 (517440)
I1221 13:23:47.321023 13393 net.cpp:165] Memory required for data: 3471176040
I1221 13:23:47.321044 13393 layer_factory.hpp:77] Creating layer scale_conv_5a_1x1
I1221 13:23:47.321063 13393 net.cpp:100] Creating Layer scale_conv_5a_1x1
I1221 13:23:47.321076 13393 net.cpp:434] scale_conv_5a_1x1 <- conv_5a_1x1
I1221 13:23:47.321112 13393 net.cpp:395] scale_conv_5a_1x1 -> conv_5a_1x1 (in-place)
I1221 13:23:47.321205 13393 layer_factory.hpp:77] Creating layer scale_conv_5a_1x1
I1221 13:23:47.321403 13393 net.cpp:150] Setting up scale_conv_5a_1x1
I1221 13:23:47.321426 13393 net.cpp:157] Top shape: 30 352 7 7 (517440)
I1221 13:23:47.321439 13393 net.cpp:165] Memory required for data: 3473245800
I1221 13:23:47.321456 13393 layer_factory.hpp:77] Creating layer relu_5a_1x1
I1221 13:23:47.321475 13393 net.cpp:100] Creating Layer relu_5a_1x1
I1221 13:23:47.321487 13393 net.cpp:434] relu_5a_1x1 <- conv_5a_1x1
I1221 13:23:47.321508 13393 net.cpp:395] relu_5a_1x1 -> conv_5a_1x1 (in-place)
I1221 13:23:47.321527 13393 net.cpp:150] Setting up relu_5a_1x1
I1221 13:23:47.321544 13393 net.cpp:157] Top shape: 30 352 7 7 (517440)
I1221 13:23:47.321557 13393 net.cpp:165] Memory required for data: 3475315560
I1221 13:23:47.321569 13393 layer_factory.hpp:77] Creating layer conv_5a_3x3_reduce
I1221 13:23:47.321593 13393 net.cpp:100] Creating Layer conv_5a_3x3_reduce
I1221 13:23:47.321609 13393 net.cpp:434] conv_5a_3x3_reduce <- ch_concat_4e_chconcat_ch_concat_4e_chconcat_0_split_1
I1221 13:23:47.321627 13393 net.cpp:408] conv_5a_3x3_reduce -> conv_5a_3x3_reduce
I1221 13:23:47.322803 13393 net.cpp:150] Setting up conv_5a_3x3_reduce
I1221 13:23:47.322834 13393 net.cpp:157] Top shape: 30 192 7 7 (282240)
I1221 13:23:47.322849 13393 net.cpp:165] Memory required for data: 3476444520
I1221 13:23:47.322867 13393 layer_factory.hpp:77] Creating layer bn_5a_3x3_reduce
I1221 13:23:47.322891 13393 net.cpp:100] Creating Layer bn_5a_3x3_reduce
I1221 13:23:47.322907 13393 net.cpp:434] bn_5a_3x3_reduce <- conv_5a_3x3_reduce
I1221 13:23:47.322926 13393 net.cpp:395] bn_5a_3x3_reduce -> conv_5a_3x3_reduce (in-place)
I1221 13:23:47.323220 13393 net.cpp:150] Setting up bn_5a_3x3_reduce
I1221 13:23:47.323248 13393 net.cpp:157] Top shape: 30 192 7 7 (282240)
I1221 13:23:47.323262 13393 net.cpp:165] Memory required for data: 3477573480
I1221 13:23:47.323284 13393 layer_factory.hpp:77] Creating layer scale_conv_5a_3x3_reduce
I1221 13:23:47.323307 13393 net.cpp:100] Creating Layer scale_conv_5a_3x3_reduce
I1221 13:23:47.323323 13393 net.cpp:434] scale_conv_5a_3x3_reduce <- conv_5a_3x3_reduce
I1221 13:23:47.323339 13393 net.cpp:395] scale_conv_5a_3x3_reduce -> conv_5a_3x3_reduce (in-place)
I1221 13:23:47.323412 13393 layer_factory.hpp:77] Creating layer scale_conv_5a_3x3_reduce
I1221 13:23:47.323595 13393 net.cpp:150] Setting up scale_conv_5a_3x3_reduce
I1221 13:23:47.323621 13393 net.cpp:157] Top shape: 30 192 7 7 (282240)
I1221 13:23:47.323635 13393 net.cpp:165] Memory required for data: 3478702440
I1221 13:23:47.323652 13393 layer_factory.hpp:77] Creating layer relu_5a_3x3_reduce
I1221 13:23:47.323752 13393 net.cpp:100] Creating Layer relu_5a_3x3_reduce
I1221 13:23:47.323776 13393 net.cpp:434] relu_5a_3x3_reduce <- conv_5a_3x3_reduce
I1221 13:23:47.323793 13393 net.cpp:395] relu_5a_3x3_reduce -> conv_5a_3x3_reduce (in-place)
I1221 13:23:47.323813 13393 net.cpp:150] Setting up relu_5a_3x3_reduce
I1221 13:23:47.323830 13393 net.cpp:157] Top shape: 30 192 7 7 (282240)
I1221 13:23:47.323843 13393 net.cpp:165] Memory required for data: 3479831400
I1221 13:23:47.323856 13393 layer_factory.hpp:77] Creating layer conv_5a_3x3
I1221 13:23:47.323878 13393 net.cpp:100] Creating Layer conv_5a_3x3
I1221 13:23:47.323891 13393 net.cpp:434] conv_5a_3x3 <- conv_5a_3x3_reduce
I1221 13:23:47.323909 13393 net.cpp:408] conv_5a_3x3 -> conv_5a_3x3
I1221 13:23:47.325937 13393 net.cpp:150] Setting up conv_5a_3x3
I1221 13:23:47.325969 13393 net.cpp:157] Top shape: 30 320 7 7 (470400)
I1221 13:23:47.325984 13393 net.cpp:165] Memory required for data: 3481713000
I1221 13:23:47.326004 13393 layer_factory.hpp:77] Creating layer bn_5a_3x3
I1221 13:23:47.326028 13393 net.cpp:100] Creating Layer bn_5a_3x3
I1221 13:23:47.326045 13393 net.cpp:434] bn_5a_3x3 <- conv_5a_3x3
I1221 13:23:47.326062 13393 net.cpp:395] bn_5a_3x3 -> conv_5a_3x3 (in-place)
I1221 13:23:47.326357 13393 net.cpp:150] Setting up bn_5a_3x3
I1221 13:23:47.326383 13393 net.cpp:157] Top shape: 30 320 7 7 (470400)
I1221 13:23:47.326396 13393 net.cpp:165] Memory required for data: 3483594600
I1221 13:23:47.326426 13393 layer_factory.hpp:77] Creating layer scale_conv_5a_3x3
I1221 13:23:47.326444 13393 net.cpp:100] Creating Layer scale_conv_5a_3x3
I1221 13:23:47.326458 13393 net.cpp:434] scale_conv_5a_3x3 <- conv_5a_3x3
I1221 13:23:47.326474 13393 net.cpp:395] scale_conv_5a_3x3 -> conv_5a_3x3 (in-place)
I1221 13:23:47.326557 13393 layer_factory.hpp:77] Creating layer scale_conv_5a_3x3
I1221 13:23:47.326752 13393 net.cpp:150] Setting up scale_conv_5a_3x3
I1221 13:23:47.326783 13393 net.cpp:157] Top shape: 30 320 7 7 (470400)
I1221 13:23:47.326797 13393 net.cpp:165] Memory required for data: 3485476200
I1221 13:23:47.326815 13393 layer_factory.hpp:77] Creating layer relu_5a_3x3
I1221 13:23:47.326833 13393 net.cpp:100] Creating Layer relu_5a_3x3
I1221 13:23:47.326848 13393 net.cpp:434] relu_5a_3x3 <- conv_5a_3x3
I1221 13:23:47.326863 13393 net.cpp:395] relu_5a_3x3 -> conv_5a_3x3 (in-place)
I1221 13:23:47.326879 13393 net.cpp:150] Setting up relu_5a_3x3
I1221 13:23:47.326895 13393 net.cpp:157] Top shape: 30 320 7 7 (470400)
I1221 13:23:47.326908 13393 net.cpp:165] Memory required for data: 3487357800
I1221 13:23:47.326920 13393 layer_factory.hpp:77] Creating layer conv_5a_double_3x3_reduce
I1221 13:23:47.326943 13393 net.cpp:100] Creating Layer conv_5a_double_3x3_reduce
I1221 13:23:47.326959 13393 net.cpp:434] conv_5a_double_3x3_reduce <- ch_concat_4e_chconcat_ch_concat_4e_chconcat_0_split_2
I1221 13:23:47.326985 13393 net.cpp:408] conv_5a_double_3x3_reduce -> conv_5a_double_3x3_reduce
I1221 13:23:47.328128 13393 net.cpp:150] Setting up conv_5a_double_3x3_reduce
I1221 13:23:47.328158 13393 net.cpp:157] Top shape: 30 160 7 7 (235200)
I1221 13:23:47.328172 13393 net.cpp:165] Memory required for data: 3488298600
I1221 13:23:47.328197 13393 layer_factory.hpp:77] Creating layer bn_5a_double_3x3_reduce
I1221 13:23:47.328217 13393 net.cpp:100] Creating Layer bn_5a_double_3x3_reduce
I1221 13:23:47.328233 13393 net.cpp:434] bn_5a_double_3x3_reduce <- conv_5a_double_3x3_reduce
I1221 13:23:47.328253 13393 net.cpp:395] bn_5a_double_3x3_reduce -> conv_5a_double_3x3_reduce (in-place)
I1221 13:23:47.328527 13393 net.cpp:150] Setting up bn_5a_double_3x3_reduce
I1221 13:23:47.328552 13393 net.cpp:157] Top shape: 30 160 7 7 (235200)
I1221 13:23:47.328564 13393 net.cpp:165] Memory required for data: 3489239400
I1221 13:23:47.328584 13393 layer_factory.hpp:77] Creating layer scale_conv_5a_double_3x3_reduce
I1221 13:23:47.328603 13393 net.cpp:100] Creating Layer scale_conv_5a_double_3x3_reduce
I1221 13:23:47.328616 13393 net.cpp:434] scale_conv_5a_double_3x3_reduce <- conv_5a_double_3x3_reduce
I1221 13:23:47.328636 13393 net.cpp:395] scale_conv_5a_double_3x3_reduce -> conv_5a_double_3x3_reduce (in-place)
I1221 13:23:47.328709 13393 layer_factory.hpp:77] Creating layer scale_conv_5a_double_3x3_reduce
I1221 13:23:47.328898 13393 net.cpp:150] Setting up scale_conv_5a_double_3x3_reduce
I1221 13:23:47.328922 13393 net.cpp:157] Top shape: 30 160 7 7 (235200)
I1221 13:23:47.328935 13393 net.cpp:165] Memory required for data: 3490180200
I1221 13:23:47.328954 13393 layer_factory.hpp:77] Creating layer relu_5a_double_3x3_reduce
I1221 13:23:47.328975 13393 net.cpp:100] Creating Layer relu_5a_double_3x3_reduce
I1221 13:23:47.328990 13393 net.cpp:434] relu_5a_double_3x3_reduce <- conv_5a_double_3x3_reduce
I1221 13:23:47.329006 13393 net.cpp:395] relu_5a_double_3x3_reduce -> conv_5a_double_3x3_reduce (in-place)
I1221 13:23:47.329025 13393 net.cpp:150] Setting up relu_5a_double_3x3_reduce
I1221 13:23:47.329041 13393 net.cpp:157] Top shape: 30 160 7 7 (235200)
I1221 13:23:47.329054 13393 net.cpp:165] Memory required for data: 3491121000
I1221 13:23:47.329067 13393 layer_factory.hpp:77] Creating layer conv_5a_double_3x3_0
I1221 13:23:47.329089 13393 net.cpp:100] Creating Layer conv_5a_double_3x3_0
I1221 13:23:47.329104 13393 net.cpp:434] conv_5a_double_3x3_0 <- conv_5a_double_3x3_reduce
I1221 13:23:47.329123 13393 net.cpp:408] conv_5a_double_3x3_0 -> conv_5a_double_3x3_0
I1221 13:23:47.330521 13393 net.cpp:150] Setting up conv_5a_double_3x3_0
I1221 13:23:47.330552 13393 net.cpp:157] Top shape: 30 224 7 7 (329280)
I1221 13:23:47.330576 13393 net.cpp:165] Memory required for data: 3492438120
I1221 13:23:47.330595 13393 layer_factory.hpp:77] Creating layer bn_5a_double_3x3_0
I1221 13:23:47.330617 13393 net.cpp:100] Creating Layer bn_5a_double_3x3_0
I1221 13:23:47.330633 13393 net.cpp:434] bn_5a_double_3x3_0 <- conv_5a_double_3x3_0
I1221 13:23:47.330653 13393 net.cpp:395] bn_5a_double_3x3_0 -> conv_5a_double_3x3_0 (in-place)
I1221 13:23:47.330926 13393 net.cpp:150] Setting up bn_5a_double_3x3_0
I1221 13:23:47.330953 13393 net.cpp:157] Top shape: 30 224 7 7 (329280)
I1221 13:23:47.330967 13393 net.cpp:165] Memory required for data: 3493755240
I1221 13:23:47.330988 13393 layer_factory.hpp:77] Creating layer scale_conv_5a_double_3x3_0
I1221 13:23:47.331007 13393 net.cpp:100] Creating Layer scale_conv_5a_double_3x3_0
I1221 13:23:47.331020 13393 net.cpp:434] scale_conv_5a_double_3x3_0 <- conv_5a_double_3x3_0
I1221 13:23:47.331037 13393 net.cpp:395] scale_conv_5a_double_3x3_0 -> conv_5a_double_3x3_0 (in-place)
I1221 13:23:47.331115 13393 layer_factory.hpp:77] Creating layer scale_conv_5a_double_3x3_0
I1221 13:23:47.331305 13393 net.cpp:150] Setting up scale_conv_5a_double_3x3_0
I1221 13:23:47.331329 13393 net.cpp:157] Top shape: 30 224 7 7 (329280)
I1221 13:23:47.331342 13393 net.cpp:165] Memory required for data: 3495072360
I1221 13:23:47.331360 13393 layer_factory.hpp:77] Creating layer relu_5a_double_3x3_0
I1221 13:23:47.331380 13393 net.cpp:100] Creating Layer relu_5a_double_3x3_0
I1221 13:23:47.331395 13393 net.cpp:434] relu_5a_double_3x3_0 <- conv_5a_double_3x3_0
I1221 13:23:47.331411 13393 net.cpp:395] relu_5a_double_3x3_0 -> conv_5a_double_3x3_0 (in-place)
I1221 13:23:47.331429 13393 net.cpp:150] Setting up relu_5a_double_3x3_0
I1221 13:23:47.331445 13393 net.cpp:157] Top shape: 30 224 7 7 (329280)
I1221 13:23:47.331457 13393 net.cpp:165] Memory required for data: 3496389480
I1221 13:23:47.331470 13393 layer_factory.hpp:77] Creating layer conv_5a_double_3x3_1
I1221 13:23:47.331493 13393 net.cpp:100] Creating Layer conv_5a_double_3x3_1
I1221 13:23:47.331508 13393 net.cpp:434] conv_5a_double_3x3_1 <- conv_5a_double_3x3_0
I1221 13:23:47.331526 13393 net.cpp:408] conv_5a_double_3x3_1 -> conv_5a_double_3x3_1
I1221 13:23:47.333281 13393 net.cpp:150] Setting up conv_5a_double_3x3_1
I1221 13:23:47.333314 13393 net.cpp:157] Top shape: 30 224 7 7 (329280)
I1221 13:23:47.333328 13393 net.cpp:165] Memory required for data: 3497706600
I1221 13:23:47.333346 13393 layer_factory.hpp:77] Creating layer bn_5a_double_3x3_1
I1221 13:23:47.333369 13393 net.cpp:100] Creating Layer bn_5a_double_3x3_1
I1221 13:23:47.333384 13393 net.cpp:434] bn_5a_double_3x3_1 <- conv_5a_double_3x3_1
I1221 13:23:47.333400 13393 net.cpp:395] bn_5a_double_3x3_1 -> conv_5a_double_3x3_1 (in-place)
I1221 13:23:47.333678 13393 net.cpp:150] Setting up bn_5a_double_3x3_1
I1221 13:23:47.333703 13393 net.cpp:157] Top shape: 30 224 7 7 (329280)
I1221 13:23:47.333715 13393 net.cpp:165] Memory required for data: 3499023720
I1221 13:23:47.333735 13393 layer_factory.hpp:77] Creating layer scale_conv_5a_double_3x3_1
I1221 13:23:47.333755 13393 net.cpp:100] Creating Layer scale_conv_5a_double_3x3_1
I1221 13:23:47.333770 13393 net.cpp:434] scale_conv_5a_double_3x3_1 <- conv_5a_double_3x3_1
I1221 13:23:47.333792 13393 net.cpp:395] scale_conv_5a_double_3x3_1 -> conv_5a_double_3x3_1 (in-place)
I1221 13:23:47.333868 13393 layer_factory.hpp:77] Creating layer scale_conv_5a_double_3x3_1
I1221 13:23:47.334053 13393 net.cpp:150] Setting up scale_conv_5a_double_3x3_1
I1221 13:23:47.334077 13393 net.cpp:157] Top shape: 30 224 7 7 (329280)
I1221 13:23:47.334089 13393 net.cpp:165] Memory required for data: 3500340840
I1221 13:23:47.334108 13393 layer_factory.hpp:77] Creating layer relu_5a_double_3x3_1
I1221 13:23:47.334125 13393 net.cpp:100] Creating Layer relu_5a_double_3x3_1
I1221 13:23:47.334139 13393 net.cpp:434] relu_5a_double_3x3_1 <- conv_5a_double_3x3_1
I1221 13:23:47.334159 13393 net.cpp:395] relu_5a_double_3x3_1 -> conv_5a_double_3x3_1 (in-place)
I1221 13:23:47.334195 13393 net.cpp:150] Setting up relu_5a_double_3x3_1
I1221 13:23:47.334213 13393 net.cpp:157] Top shape: 30 224 7 7 (329280)
I1221 13:23:47.334229 13393 net.cpp:165] Memory required for data: 3501657960
I1221 13:23:47.334242 13393 layer_factory.hpp:77] Creating layer ave_pool_5a_pool
I1221 13:23:47.334260 13393 net.cpp:100] Creating Layer ave_pool_5a_pool
I1221 13:23:47.334275 13393 net.cpp:434] ave_pool_5a_pool <- ch_concat_4e_chconcat_ch_concat_4e_chconcat_0_split_3
I1221 13:23:47.334297 13393 net.cpp:408] ave_pool_5a_pool -> ave_pool_5a_pool
I1221 13:23:47.334347 13393 net.cpp:150] Setting up ave_pool_5a_pool
I1221 13:23:47.334368 13393 net.cpp:157] Top shape: 30 960 7 7 (1411200)
I1221 13:23:47.334381 13393 net.cpp:165] Memory required for data: 3507302760
I1221 13:23:47.334394 13393 layer_factory.hpp:77] Creating layer conv_5a_proj
I1221 13:23:47.334421 13393 net.cpp:100] Creating Layer conv_5a_proj
I1221 13:23:47.334436 13393 net.cpp:434] conv_5a_proj <- ave_pool_5a_pool
I1221 13:23:47.334455 13393 net.cpp:408] conv_5a_proj -> conv_5a_proj
I1221 13:23:47.335561 13393 net.cpp:150] Setting up conv_5a_proj
I1221 13:23:47.335588 13393 net.cpp:157] Top shape: 30 128 7 7 (188160)
I1221 13:23:47.335602 13393 net.cpp:165] Memory required for data: 3508055400
I1221 13:23:47.335623 13393 layer_factory.hpp:77] Creating layer bn_5a_proj
I1221 13:23:47.335640 13393 net.cpp:100] Creating Layer bn_5a_proj
I1221 13:23:47.335655 13393 net.cpp:434] bn_5a_proj <- conv_5a_proj
I1221 13:23:47.335676 13393 net.cpp:395] bn_5a_proj -> conv_5a_proj (in-place)
I1221 13:23:47.335947 13393 net.cpp:150] Setting up bn_5a_proj
I1221 13:23:47.335971 13393 net.cpp:157] Top shape: 30 128 7 7 (188160)
I1221 13:23:47.335983 13393 net.cpp:165] Memory required for data: 3508808040
I1221 13:23:47.336004 13393 layer_factory.hpp:77] Creating layer scale_conv_5a_proj
I1221 13:23:47.336021 13393 net.cpp:100] Creating Layer scale_conv_5a_proj
I1221 13:23:47.336035 13393 net.cpp:434] scale_conv_5a_proj <- conv_5a_proj
I1221 13:23:47.336050 13393 net.cpp:395] scale_conv_5a_proj -> conv_5a_proj (in-place)
I1221 13:23:47.336122 13393 layer_factory.hpp:77] Creating layer scale_conv_5a_proj
I1221 13:23:47.336297 13393 net.cpp:150] Setting up scale_conv_5a_proj
I1221 13:23:47.336320 13393 net.cpp:157] Top shape: 30 128 7 7 (188160)
I1221 13:23:47.336333 13393 net.cpp:165] Memory required for data: 3509560680
I1221 13:23:47.336351 13393 layer_factory.hpp:77] Creating layer relu_5a_proj
I1221 13:23:47.336372 13393 net.cpp:100] Creating Layer relu_5a_proj
I1221 13:23:47.336386 13393 net.cpp:434] relu_5a_proj <- conv_5a_proj
I1221 13:23:47.336405 13393 net.cpp:395] relu_5a_proj -> conv_5a_proj (in-place)
I1221 13:23:47.336422 13393 net.cpp:150] Setting up relu_5a_proj
I1221 13:23:47.336438 13393 net.cpp:157] Top shape: 30 128 7 7 (188160)
I1221 13:23:47.336452 13393 net.cpp:165] Memory required for data: 3510313320
I1221 13:23:47.336464 13393 layer_factory.hpp:77] Creating layer ch_concat_5a_chconcat
I1221 13:23:47.336480 13393 net.cpp:100] Creating Layer ch_concat_5a_chconcat
I1221 13:23:47.336494 13393 net.cpp:434] ch_concat_5a_chconcat <- conv_5a_1x1
I1221 13:23:47.336508 13393 net.cpp:434] ch_concat_5a_chconcat <- conv_5a_3x3
I1221 13:23:47.336524 13393 net.cpp:434] ch_concat_5a_chconcat <- conv_5a_double_3x3_1
I1221 13:23:47.336537 13393 net.cpp:434] ch_concat_5a_chconcat <- conv_5a_proj
I1221 13:23:47.336560 13393 net.cpp:408] ch_concat_5a_chconcat -> ch_concat_5a_chconcat
I1221 13:23:47.336608 13393 net.cpp:150] Setting up ch_concat_5a_chconcat
I1221 13:23:47.336633 13393 net.cpp:157] Top shape: 30 1024 7 7 (1505280)
I1221 13:23:47.336647 13393 net.cpp:165] Memory required for data: 3516334440
I1221 13:23:47.336659 13393 layer_factory.hpp:77] Creating layer ch_concat_5a_chconcat_ch_concat_5a_chconcat_0_split
I1221 13:23:47.336678 13393 net.cpp:100] Creating Layer ch_concat_5a_chconcat_ch_concat_5a_chconcat_0_split
I1221 13:23:47.336691 13393 net.cpp:434] ch_concat_5a_chconcat_ch_concat_5a_chconcat_0_split <- ch_concat_5a_chconcat
I1221 13:23:47.336722 13393 net.cpp:408] ch_concat_5a_chconcat_ch_concat_5a_chconcat_0_split -> ch_concat_5a_chconcat_ch_concat_5a_chconcat_0_split_0
I1221 13:23:47.336745 13393 net.cpp:408] ch_concat_5a_chconcat_ch_concat_5a_chconcat_0_split -> ch_concat_5a_chconcat_ch_concat_5a_chconcat_0_split_1
I1221 13:23:47.336766 13393 net.cpp:408] ch_concat_5a_chconcat_ch_concat_5a_chconcat_0_split -> ch_concat_5a_chconcat_ch_concat_5a_chconcat_0_split_2
I1221 13:23:47.336787 13393 net.cpp:408] ch_concat_5a_chconcat_ch_concat_5a_chconcat_0_split -> ch_concat_5a_chconcat_ch_concat_5a_chconcat_0_split_3
I1221 13:23:47.336879 13393 net.cpp:150] Setting up ch_concat_5a_chconcat_ch_concat_5a_chconcat_0_split
I1221 13:23:47.336902 13393 net.cpp:157] Top shape: 30 1024 7 7 (1505280)
I1221 13:23:47.336918 13393 net.cpp:157] Top shape: 30 1024 7 7 (1505280)
I1221 13:23:47.336932 13393 net.cpp:157] Top shape: 30 1024 7 7 (1505280)
I1221 13:23:47.336947 13393 net.cpp:157] Top shape: 30 1024 7 7 (1505280)
I1221 13:23:47.336961 13393 net.cpp:165] Memory required for data: 3540418920
I1221 13:23:47.336973 13393 layer_factory.hpp:77] Creating layer conv_5b_1x1
I1221 13:23:47.336997 13393 net.cpp:100] Creating Layer conv_5b_1x1
I1221 13:23:47.337011 13393 net.cpp:434] conv_5b_1x1 <- ch_concat_5a_chconcat_ch_concat_5a_chconcat_0_split_0
I1221 13:23:47.337029 13393 net.cpp:408] conv_5b_1x1 -> conv_5b_1x1
I1221 13:23:47.338556 13393 net.cpp:150] Setting up conv_5b_1x1
I1221 13:23:47.338587 13393 net.cpp:157] Top shape: 30 352 7 7 (517440)
I1221 13:23:47.338601 13393 net.cpp:165] Memory required for data: 3542488680
I1221 13:23:47.338619 13393 layer_factory.hpp:77] Creating layer bn_5b_1x1
I1221 13:23:47.338642 13393 net.cpp:100] Creating Layer bn_5b_1x1
I1221 13:23:47.338657 13393 net.cpp:434] bn_5b_1x1 <- conv_5b_1x1
I1221 13:23:47.338680 13393 net.cpp:395] bn_5b_1x1 -> conv_5b_1x1 (in-place)
I1221 13:23:47.338971 13393 net.cpp:150] Setting up bn_5b_1x1
I1221 13:23:47.338999 13393 net.cpp:157] Top shape: 30 352 7 7 (517440)
I1221 13:23:47.339012 13393 net.cpp:165] Memory required for data: 3544558440
I1221 13:23:47.339031 13393 layer_factory.hpp:77] Creating layer scale_conv_5b_1x1
I1221 13:23:47.339054 13393 net.cpp:100] Creating Layer scale_conv_5b_1x1
I1221 13:23:47.339068 13393 net.cpp:434] scale_conv_5b_1x1 <- conv_5b_1x1
I1221 13:23:47.339087 13393 net.cpp:395] scale_conv_5b_1x1 -> conv_5b_1x1 (in-place)
I1221 13:23:47.339167 13393 layer_factory.hpp:77] Creating layer scale_conv_5b_1x1
I1221 13:23:47.339370 13393 net.cpp:150] Setting up scale_conv_5b_1x1
I1221 13:23:47.339396 13393 net.cpp:157] Top shape: 30 352 7 7 (517440)
I1221 13:23:47.339409 13393 net.cpp:165] Memory required for data: 3546628200
I1221 13:23:47.339427 13393 layer_factory.hpp:77] Creating layer relu_5b_1x1
I1221 13:23:47.339444 13393 net.cpp:100] Creating Layer relu_5b_1x1
I1221 13:23:47.339458 13393 net.cpp:434] relu_5b_1x1 <- conv_5b_1x1
I1221 13:23:47.339478 13393 net.cpp:395] relu_5b_1x1 -> conv_5b_1x1 (in-place)
I1221 13:23:47.339496 13393 net.cpp:150] Setting up relu_5b_1x1
I1221 13:23:47.339512 13393 net.cpp:157] Top shape: 30 352 7 7 (517440)
I1221 13:23:47.339526 13393 net.cpp:165] Memory required for data: 3548697960
I1221 13:23:47.339539 13393 layer_factory.hpp:77] Creating layer conv_5b_3x3_reduce
I1221 13:23:47.339560 13393 net.cpp:100] Creating Layer conv_5b_3x3_reduce
I1221 13:23:47.339573 13393 net.cpp:434] conv_5b_3x3_reduce <- ch_concat_5a_chconcat_ch_concat_5a_chconcat_0_split_1
I1221 13:23:47.339598 13393 net.cpp:408] conv_5b_3x3_reduce -> conv_5b_3x3_reduce
I1221 13:23:47.340773 13393 net.cpp:150] Setting up conv_5b_3x3_reduce
I1221 13:23:47.340803 13393 net.cpp:157] Top shape: 30 192 7 7 (282240)
I1221 13:23:47.340818 13393 net.cpp:165] Memory required for data: 3549826920
I1221 13:23:47.340837 13393 layer_factory.hpp:77] Creating layer bn_5b_3x3_reduce
I1221 13:23:47.340862 13393 net.cpp:100] Creating Layer bn_5b_3x3_reduce
I1221 13:23:47.340878 13393 net.cpp:434] bn_5b_3x3_reduce <- conv_5b_3x3_reduce
I1221 13:23:47.340898 13393 net.cpp:395] bn_5b_3x3_reduce -> conv_5b_3x3_reduce (in-place)
I1221 13:23:47.341199 13393 net.cpp:150] Setting up bn_5b_3x3_reduce
I1221 13:23:47.341233 13393 net.cpp:157] Top shape: 30 192 7 7 (282240)
I1221 13:23:47.341248 13393 net.cpp:165] Memory required for data: 3550955880
I1221 13:23:47.341269 13393 layer_factory.hpp:77] Creating layer scale_conv_5b_3x3_reduce
I1221 13:23:47.341287 13393 net.cpp:100] Creating Layer scale_conv_5b_3x3_reduce
I1221 13:23:47.341302 13393 net.cpp:434] scale_conv_5b_3x3_reduce <- conv_5b_3x3_reduce
I1221 13:23:47.341320 13393 net.cpp:395] scale_conv_5b_3x3_reduce -> conv_5b_3x3_reduce (in-place)
I1221 13:23:47.341393 13393 layer_factory.hpp:77] Creating layer scale_conv_5b_3x3_reduce
I1221 13:23:47.341580 13393 net.cpp:150] Setting up scale_conv_5b_3x3_reduce
I1221 13:23:47.341606 13393 net.cpp:157] Top shape: 30 192 7 7 (282240)
I1221 13:23:47.341620 13393 net.cpp:165] Memory required for data: 3552084840
I1221 13:23:47.341637 13393 layer_factory.hpp:77] Creating layer relu_5b_3x3_reduce
I1221 13:23:47.341660 13393 net.cpp:100] Creating Layer relu_5b_3x3_reduce
I1221 13:23:47.341673 13393 net.cpp:434] relu_5b_3x3_reduce <- conv_5b_3x3_reduce
I1221 13:23:47.341691 13393 net.cpp:395] relu_5b_3x3_reduce -> conv_5b_3x3_reduce (in-place)
I1221 13:23:47.341711 13393 net.cpp:150] Setting up relu_5b_3x3_reduce
I1221 13:23:47.341727 13393 net.cpp:157] Top shape: 30 192 7 7 (282240)
I1221 13:23:47.341739 13393 net.cpp:165] Memory required for data: 3553213800
I1221 13:23:47.341753 13393 layer_factory.hpp:77] Creating layer conv_5b_3x3
I1221 13:23:47.341775 13393 net.cpp:100] Creating Layer conv_5b_3x3
I1221 13:23:47.341790 13393 net.cpp:434] conv_5b_3x3 <- conv_5b_3x3_reduce
I1221 13:23:47.341809 13393 net.cpp:408] conv_5b_3x3 -> conv_5b_3x3
I1221 13:23:47.343852 13393 net.cpp:150] Setting up conv_5b_3x3
I1221 13:23:47.343884 13393 net.cpp:157] Top shape: 30 320 7 7 (470400)
I1221 13:23:47.343899 13393 net.cpp:165] Memory required for data: 3555095400
I1221 13:23:47.343917 13393 layer_factory.hpp:77] Creating layer bn_5b_3x3
I1221 13:23:47.343940 13393 net.cpp:100] Creating Layer bn_5b_3x3
I1221 13:23:47.343955 13393 net.cpp:434] bn_5b_3x3 <- conv_5b_3x3
I1221 13:23:47.343973 13393 net.cpp:395] bn_5b_3x3 -> conv_5b_3x3 (in-place)
I1221 13:23:47.344281 13393 net.cpp:150] Setting up bn_5b_3x3
I1221 13:23:47.344306 13393 net.cpp:157] Top shape: 30 320 7 7 (470400)
I1221 13:23:47.344319 13393 net.cpp:165] Memory required for data: 3556977000
I1221 13:23:47.344339 13393 layer_factory.hpp:77] Creating layer scale_conv_5b_3x3
I1221 13:23:47.344358 13393 net.cpp:100] Creating Layer scale_conv_5b_3x3
I1221 13:23:47.344372 13393 net.cpp:434] scale_conv_5b_3x3 <- conv_5b_3x3
I1221 13:23:47.344388 13393 net.cpp:395] scale_conv_5b_3x3 -> conv_5b_3x3 (in-place)
I1221 13:23:47.344470 13393 layer_factory.hpp:77] Creating layer scale_conv_5b_3x3
I1221 13:23:47.344674 13393 net.cpp:150] Setting up scale_conv_5b_3x3
I1221 13:23:47.344698 13393 net.cpp:157] Top shape: 30 320 7 7 (470400)
I1221 13:23:47.344712 13393 net.cpp:165] Memory required for data: 3558858600
I1221 13:23:47.344732 13393 layer_factory.hpp:77] Creating layer relu_5b_3x3
I1221 13:23:47.344748 13393 net.cpp:100] Creating Layer relu_5b_3x3
I1221 13:23:47.344763 13393 net.cpp:434] relu_5b_3x3 <- conv_5b_3x3
I1221 13:23:47.344784 13393 net.cpp:395] relu_5b_3x3 -> conv_5b_3x3 (in-place)
I1221 13:23:47.344801 13393 net.cpp:150] Setting up relu_5b_3x3
I1221 13:23:47.344818 13393 net.cpp:157] Top shape: 30 320 7 7 (470400)
I1221 13:23:47.344830 13393 net.cpp:165] Memory required for data: 3560740200
I1221 13:23:47.344843 13393 layer_factory.hpp:77] Creating layer conv_5b_double_3x3_reduce
I1221 13:23:47.344864 13393 net.cpp:100] Creating Layer conv_5b_double_3x3_reduce
I1221 13:23:47.344879 13393 net.cpp:434] conv_5b_double_3x3_reduce <- ch_concat_5a_chconcat_ch_concat_5a_chconcat_0_split_2
I1221 13:23:47.344902 13393 net.cpp:408] conv_5b_double_3x3_reduce -> conv_5b_double_3x3_reduce
I1221 13:23:47.347784 13393 net.cpp:150] Setting up conv_5b_double_3x3_reduce
I1221 13:23:47.347834 13393 net.cpp:157] Top shape: 30 192 7 7 (282240)
I1221 13:23:47.347851 13393 net.cpp:165] Memory required for data: 3561869160
I1221 13:23:47.347872 13393 layer_factory.hpp:77] Creating layer bn_5b_double_3x3_reduce
I1221 13:23:47.347896 13393 net.cpp:100] Creating Layer bn_5b_double_3x3_reduce
I1221 13:23:47.347913 13393 net.cpp:434] bn_5b_double_3x3_reduce <- conv_5b_double_3x3_reduce
I1221 13:23:47.347930 13393 net.cpp:395] bn_5b_double_3x3_reduce -> conv_5b_double_3x3_reduce (in-place)
I1221 13:23:47.348232 13393 net.cpp:150] Setting up bn_5b_double_3x3_reduce
I1221 13:23:47.348256 13393 net.cpp:157] Top shape: 30 192 7 7 (282240)
I1221 13:23:47.348270 13393 net.cpp:165] Memory required for data: 3562998120
I1221 13:23:47.348291 13393 layer_factory.hpp:77] Creating layer scale_conv_5b_double_3x3_reduce
I1221 13:23:47.348315 13393 net.cpp:100] Creating Layer scale_conv_5b_double_3x3_reduce
I1221 13:23:47.348330 13393 net.cpp:434] scale_conv_5b_double_3x3_reduce <- conv_5b_double_3x3_reduce
I1221 13:23:47.348346 13393 net.cpp:395] scale_conv_5b_double_3x3_reduce -> conv_5b_double_3x3_reduce (in-place)
I1221 13:23:47.348422 13393 layer_factory.hpp:77] Creating layer scale_conv_5b_double_3x3_reduce
I1221 13:23:47.348614 13393 net.cpp:150] Setting up scale_conv_5b_double_3x3_reduce
I1221 13:23:47.348639 13393 net.cpp:157] Top shape: 30 192 7 7 (282240)
I1221 13:23:47.348651 13393 net.cpp:165] Memory required for data: 3564127080
I1221 13:23:47.348670 13393 layer_factory.hpp:77] Creating layer relu_5b_double_3x3_reduce
I1221 13:23:47.348691 13393 net.cpp:100] Creating Layer relu_5b_double_3x3_reduce
I1221 13:23:47.348706 13393 net.cpp:434] relu_5b_double_3x3_reduce <- conv_5b_double_3x3_reduce
I1221 13:23:47.348726 13393 net.cpp:395] relu_5b_double_3x3_reduce -> conv_5b_double_3x3_reduce (in-place)
I1221 13:23:47.348745 13393 net.cpp:150] Setting up relu_5b_double_3x3_reduce
I1221 13:23:47.348762 13393 net.cpp:157] Top shape: 30 192 7 7 (282240)
I1221 13:23:47.348774 13393 net.cpp:165] Memory required for data: 3565256040
I1221 13:23:47.348788 13393 layer_factory.hpp:77] Creating layer conv_5b_double_3x3_0
I1221 13:23:47.348808 13393 net.cpp:100] Creating Layer conv_5b_double_3x3_0
I1221 13:23:47.348821 13393 net.cpp:434] conv_5b_double_3x3_0 <- conv_5b_double_3x3_reduce
I1221 13:23:47.348850 13393 net.cpp:408] conv_5b_double_3x3_0 -> conv_5b_double_3x3_0
I1221 13:23:47.350493 13393 net.cpp:150] Setting up conv_5b_double_3x3_0
I1221 13:23:47.350528 13393 net.cpp:157] Top shape: 30 224 7 7 (329280)
I1221 13:23:47.350543 13393 net.cpp:165] Memory required for data: 3566573160
I1221 13:23:47.350561 13393 layer_factory.hpp:77] Creating layer bn_5b_double_3x3_0
I1221 13:23:47.350584 13393 net.cpp:100] Creating Layer bn_5b_double_3x3_0
I1221 13:23:47.350600 13393 net.cpp:434] bn_5b_double_3x3_0 <- conv_5b_double_3x3_0
I1221 13:23:47.350617 13393 net.cpp:395] bn_5b_double_3x3_0 -> conv_5b_double_3x3_0 (in-place)
I1221 13:23:47.350895 13393 net.cpp:150] Setting up bn_5b_double_3x3_0
I1221 13:23:47.350919 13393 net.cpp:157] Top shape: 30 224 7 7 (329280)
I1221 13:23:47.350932 13393 net.cpp:165] Memory required for data: 3567890280
I1221 13:23:47.350951 13393 layer_factory.hpp:77] Creating layer scale_conv_5b_double_3x3_0
I1221 13:23:47.350973 13393 net.cpp:100] Creating Layer scale_conv_5b_double_3x3_0
I1221 13:23:47.350989 13393 net.cpp:434] scale_conv_5b_double_3x3_0 <- conv_5b_double_3x3_0
I1221 13:23:47.351006 13393 net.cpp:395] scale_conv_5b_double_3x3_0 -> conv_5b_double_3x3_0 (in-place)
I1221 13:23:47.351083 13393 layer_factory.hpp:77] Creating layer scale_conv_5b_double_3x3_0
I1221 13:23:47.351284 13393 net.cpp:150] Setting up scale_conv_5b_double_3x3_0
I1221 13:23:47.351307 13393 net.cpp:157] Top shape: 30 224 7 7 (329280)
I1221 13:23:47.351320 13393 net.cpp:165] Memory required for data: 3569207400
I1221 13:23:47.351338 13393 layer_factory.hpp:77] Creating layer relu_5b_double_3x3_0
I1221 13:23:47.351356 13393 net.cpp:100] Creating Layer relu_5b_double_3x3_0
I1221 13:23:47.351369 13393 net.cpp:434] relu_5b_double_3x3_0 <- conv_5b_double_3x3_0
I1221 13:23:47.351402 13393 net.cpp:395] relu_5b_double_3x3_0 -> conv_5b_double_3x3_0 (in-place)
I1221 13:23:47.351423 13393 net.cpp:150] Setting up relu_5b_double_3x3_0
I1221 13:23:47.351439 13393 net.cpp:157] Top shape: 30 224 7 7 (329280)
I1221 13:23:47.351451 13393 net.cpp:165] Memory required for data: 3570524520
I1221 13:23:47.351464 13393 layer_factory.hpp:77] Creating layer conv_5b_double_3x3_1
I1221 13:23:47.351483 13393 net.cpp:100] Creating Layer conv_5b_double_3x3_1
I1221 13:23:47.351497 13393 net.cpp:434] conv_5b_double_3x3_1 <- conv_5b_double_3x3_0
I1221 13:23:47.351518 13393 net.cpp:408] conv_5b_double_3x3_1 -> conv_5b_double_3x3_1
I1221 13:23:47.353286 13393 net.cpp:150] Setting up conv_5b_double_3x3_1
I1221 13:23:47.353317 13393 net.cpp:157] Top shape: 30 224 7 7 (329280)
I1221 13:23:47.353332 13393 net.cpp:165] Memory required for data: 3571841640
I1221 13:23:47.353351 13393 layer_factory.hpp:77] Creating layer bn_5b_double_3x3_1
I1221 13:23:47.353374 13393 net.cpp:100] Creating Layer bn_5b_double_3x3_1
I1221 13:23:47.353390 13393 net.cpp:434] bn_5b_double_3x3_1 <- conv_5b_double_3x3_1
I1221 13:23:47.353406 13393 net.cpp:395] bn_5b_double_3x3_1 -> conv_5b_double_3x3_1 (in-place)
I1221 13:23:47.353687 13393 net.cpp:150] Setting up bn_5b_double_3x3_1
I1221 13:23:47.353710 13393 net.cpp:157] Top shape: 30 224 7 7 (329280)
I1221 13:23:47.353724 13393 net.cpp:165] Memory required for data: 3573158760
I1221 13:23:47.353744 13393 layer_factory.hpp:77] Creating layer scale_conv_5b_double_3x3_1
I1221 13:23:47.353762 13393 net.cpp:100] Creating Layer scale_conv_5b_double_3x3_1
I1221 13:23:47.353778 13393 net.cpp:434] scale_conv_5b_double_3x3_1 <- conv_5b_double_3x3_1
I1221 13:23:47.353795 13393 net.cpp:395] scale_conv_5b_double_3x3_1 -> conv_5b_double_3x3_1 (in-place)
I1221 13:23:47.353874 13393 layer_factory.hpp:77] Creating layer scale_conv_5b_double_3x3_1
I1221 13:23:47.354058 13393 net.cpp:150] Setting up scale_conv_5b_double_3x3_1
I1221 13:23:47.354084 13393 net.cpp:157] Top shape: 30 224 7 7 (329280)
I1221 13:23:47.354095 13393 net.cpp:165] Memory required for data: 3574475880
I1221 13:23:47.354113 13393 layer_factory.hpp:77] Creating layer relu_5b_double_3x3_1
I1221 13:23:47.354131 13393 net.cpp:100] Creating Layer relu_5b_double_3x3_1
I1221 13:23:47.354145 13393 net.cpp:434] relu_5b_double_3x3_1 <- conv_5b_double_3x3_1
I1221 13:23:47.354161 13393 net.cpp:395] relu_5b_double_3x3_1 -> conv_5b_double_3x3_1 (in-place)
I1221 13:23:47.354178 13393 net.cpp:150] Setting up relu_5b_double_3x3_1
I1221 13:23:47.354203 13393 net.cpp:157] Top shape: 30 224 7 7 (329280)
I1221 13:23:47.354218 13393 net.cpp:165] Memory required for data: 3575793000
I1221 13:23:47.354230 13393 layer_factory.hpp:77] Creating layer max_pool_5b_pool
I1221 13:23:47.354251 13393 net.cpp:100] Creating Layer max_pool_5b_pool
I1221 13:23:47.354267 13393 net.cpp:434] max_pool_5b_pool <- ch_concat_5a_chconcat_ch_concat_5a_chconcat_0_split_3
I1221 13:23:47.354286 13393 net.cpp:408] max_pool_5b_pool -> max_pool_5b_pool
I1221 13:23:47.354362 13393 net.cpp:150] Setting up max_pool_5b_pool
I1221 13:23:47.354384 13393 net.cpp:157] Top shape: 30 1024 7 7 (1505280)
I1221 13:23:47.354398 13393 net.cpp:165] Memory required for data: 3581814120
I1221 13:23:47.354409 13393 layer_factory.hpp:77] Creating layer conv_5b_proj
I1221 13:23:47.354429 13393 net.cpp:100] Creating Layer conv_5b_proj
I1221 13:23:47.354444 13393 net.cpp:434] conv_5b_proj <- max_pool_5b_pool
I1221 13:23:47.354462 13393 net.cpp:408] conv_5b_proj -> conv_5b_proj
I1221 13:23:47.354938 13393 net.cpp:150] Setting up conv_5b_proj
I1221 13:23:47.354964 13393 net.cpp:157] Top shape: 30 128 7 7 (188160)
I1221 13:23:47.354977 13393 net.cpp:165] Memory required for data: 3582566760
I1221 13:23:47.355002 13393 layer_factory.hpp:77] Creating layer bn_5b_proj
I1221 13:23:47.355023 13393 net.cpp:100] Creating Layer bn_5b_proj
I1221 13:23:47.355038 13393 net.cpp:434] bn_5b_proj <- conv_5b_proj
I1221 13:23:47.355054 13393 net.cpp:395] bn_5b_proj -> conv_5b_proj (in-place)
I1221 13:23:47.355342 13393 net.cpp:150] Setting up bn_5b_proj
I1221 13:23:47.355366 13393 net.cpp:157] Top shape: 30 128 7 7 (188160)
I1221 13:23:47.355379 13393 net.cpp:165] Memory required for data: 3583319400
I1221 13:23:47.355398 13393 layer_factory.hpp:77] Creating layer scale_conv_5b_proj
I1221 13:23:47.355417 13393 net.cpp:100] Creating Layer scale_conv_5b_proj
I1221 13:23:47.355430 13393 net.cpp:434] scale_conv_5b_proj <- conv_5b_proj
I1221 13:23:47.355446 13393 net.cpp:395] scale_conv_5b_proj -> conv_5b_proj (in-place)
I1221 13:23:47.355522 13393 layer_factory.hpp:77] Creating layer scale_conv_5b_proj
I1221 13:23:47.355696 13393 net.cpp:150] Setting up scale_conv_5b_proj
I1221 13:23:47.355720 13393 net.cpp:157] Top shape: 30 128 7 7 (188160)
I1221 13:23:47.355733 13393 net.cpp:165] Memory required for data: 3584072040
I1221 13:23:47.355751 13393 layer_factory.hpp:77] Creating layer relu_5b_proj
I1221 13:23:47.355772 13393 net.cpp:100] Creating Layer relu_5b_proj
I1221 13:23:47.355795 13393 net.cpp:434] relu_5b_proj <- conv_5b_proj
I1221 13:23:47.355811 13393 net.cpp:395] relu_5b_proj -> conv_5b_proj (in-place)
I1221 13:23:47.355839 13393 net.cpp:150] Setting up relu_5b_proj
I1221 13:23:47.355856 13393 net.cpp:157] Top shape: 30 128 7 7 (188160)
I1221 13:23:47.355868 13393 net.cpp:165] Memory required for data: 3584824680
I1221 13:23:47.355881 13393 layer_factory.hpp:77] Creating layer ch_concat_5b_chconcat
I1221 13:23:47.355898 13393 net.cpp:100] Creating Layer ch_concat_5b_chconcat
I1221 13:23:47.355911 13393 net.cpp:434] ch_concat_5b_chconcat <- conv_5b_1x1
I1221 13:23:47.355926 13393 net.cpp:434] ch_concat_5b_chconcat <- conv_5b_3x3
I1221 13:23:47.355940 13393 net.cpp:434] ch_concat_5b_chconcat <- conv_5b_double_3x3_1
I1221 13:23:47.355954 13393 net.cpp:434] ch_concat_5b_chconcat <- conv_5b_proj
I1221 13:23:47.355972 13393 net.cpp:408] ch_concat_5b_chconcat -> ch_concat_5b_chconcat
I1221 13:23:47.356026 13393 net.cpp:150] Setting up ch_concat_5b_chconcat
I1221 13:23:47.356050 13393 net.cpp:157] Top shape: 30 1024 7 7 (1505280)
I1221 13:23:47.356061 13393 net.cpp:165] Memory required for data: 3590845800
I1221 13:23:47.356075 13393 layer_factory.hpp:77] Creating layer global_pool
I1221 13:23:47.356092 13393 net.cpp:100] Creating Layer global_pool
I1221 13:23:47.356106 13393 net.cpp:434] global_pool <- ch_concat_5b_chconcat
I1221 13:23:47.356122 13393 net.cpp:408] global_pool -> global_pool
I1221 13:23:47.356173 13393 net.cpp:150] Setting up global_pool
I1221 13:23:47.356200 13393 net.cpp:157] Top shape: 30 1024 1 1 (30720)
I1221 13:23:47.356214 13393 net.cpp:165] Memory required for data: 3590968680
I1221 13:23:47.356230 13393 layer_factory.hpp:77] Creating layer fc2
I1221 13:23:47.356251 13393 net.cpp:100] Creating Layer fc2
I1221 13:23:47.356266 13393 net.cpp:434] fc2 <- global_pool
I1221 13:23:47.356282 13393 net.cpp:408] fc2 -> fc2
I1221 13:23:47.356561 13393 net.cpp:150] Setting up fc2
I1221 13:23:47.356586 13393 net.cpp:157] Top shape: 30 7 (210)
I1221 13:23:47.356600 13393 net.cpp:165] Memory required for data: 3590969520
I1221 13:23:47.356617 13393 layer_factory.hpp:77] Creating layer fc2_fc2_0_split
I1221 13:23:47.356636 13393 net.cpp:100] Creating Layer fc2_fc2_0_split
I1221 13:23:47.356649 13393 net.cpp:434] fc2_fc2_0_split <- fc2
I1221 13:23:47.356664 13393 net.cpp:408] fc2_fc2_0_split -> fc2_fc2_0_split_0
I1221 13:23:47.356688 13393 net.cpp:408] fc2_fc2_0_split -> fc2_fc2_0_split_1
I1221 13:23:47.356752 13393 net.cpp:150] Setting up fc2_fc2_0_split
I1221 13:23:47.356775 13393 net.cpp:157] Top shape: 30 7 (210)
I1221 13:23:47.356788 13393 net.cpp:157] Top shape: 30 7 (210)
I1221 13:23:47.356801 13393 net.cpp:165] Memory required for data: 3590971200
I1221 13:23:47.356812 13393 layer_factory.hpp:77] Creating layer accuracy
I1221 13:23:47.356834 13393 net.cpp:100] Creating Layer accuracy
I1221 13:23:47.356848 13393 net.cpp:434] accuracy <- fc2_fc2_0_split_0
I1221 13:23:47.356863 13393 net.cpp:434] accuracy <- label_data_train_1_split_0
I1221 13:23:47.356881 13393 net.cpp:408] accuracy -> accuracy
…
